results/testRun/RedCar/RedCar-4999876.onnx (onnx, 349850 bytes, 11 tensors)

network_body.observation_encoder.processors.0.normalizer.running_mean f4 [68]
000000 6f d4 3e 3f b7 dc ad 3d 3f c0 2d 3e ed ea 0c 3f
       0.745429 0.08489364 0.16967867 0.5504597
000010 9d b1 fc 3e ed b9 da 3d f9 9f cc 3e 63 7c 33 3f
       0.49354258 0.10679994 0.399658 0.70111674
000020 79 d1 60 3f ae e3 15 3d 1f 82 ae 3d 30 de cc 3e
       0.8781963 0.036594085 0.085209124 0.40013266
000030 8b ab fd 3e d0 17 d9 3c 04 c3 f4 3e 69 d2 42 3f
       0.4954494 0.026500612 0.47805035 0.7610231
000040 28 72 74 3f 09 da 75 3c dc cb f6 3c 33 e3 9a 3e
       0.9548669 0.015005597 0.030126505 0.30251464
000050 d4 6e 0c 3f 91 11 e3 3b fd 95 e3 3e 59 e5 43 3f
       0.5485661 0.0069295843 0.4445037 0.7652183
000060 e3 ce 78 3f 5f 3d e1 3b a0 d6 ad 3c 45 69 76 3e
       0.97190684 0.006873771 0.021220505 0.24063595
000070 85 36 47 3f 58 0e 88 3b 83 e5 5e 3e d6 82 35 3f
       0.77817565 0.0041521005 0.2176724 0.70902765
000080 9a 34 7b 3f 9d 73 84 3b 5c a2 70 3c f3 9b 4c 3e
       0.9812714 0.0040421025 0.014687147 0.19981365
000090 16 00 56 3f 08 4a 54 3b 98 ae 24 3e ab 8c 1f 3f
       0.8359388 0.003239276 0.16082227 0.6232402
0000a0 e9 7d 7d 3f 51 ac 2a 3b b3 aa eb 3b 3a 20 2f 3e
       0.9902025 0.002604265 0.00719198 0.17102137
0000b0 68 07 55 3f bb ff 27 3b f9 41 29 3e 0c be 11 3f
       0.83214426 0.0025634605 0.16529073 0.56930614
0000c0 28 95 7e 3f 68 16 fb 3a b9 8f 6d 3b 38 b9 1b 3e
       0.99446344 0.0019156458 0.0036248995 0.15207374
0000d0 80 1b 52 3f f6 10 f3 3a ef ab 35 3e 0f 6d 06 3f
       0.8207321 0.0018544483 0.17741369 0.5251016
0000e0 98 e8 7e 3f fc d8 d2 3a 40 fd 2d 3b 91 a5 0f 3e
       0.9957366 0.0016086395 0.0026548654 0.14028002
0000f0 f8 c3 5c 3f de e5 0e 3b 76 b4 0a 3e 4b 9e ed 3e
       0.86236525 0.0021804492 0.13545403 0.4640983
000100 7d 1f 7f 3f 47 92 c8 3a 15 0c f8 3a bb 43 08 3e
       0.9965742 0.0015302383 0.0018924499 0.13307087

network_body.observation_encoder.processors.1.normalizer.running_mean f4 [6]
000000 91 dc 93 be 5b e1 5d 3c 37 a3 2d 3f 75 55 0e 3b
       -0.28879216 0.013542498 0.6782717 0.0021718417
000010 35 a8 2c 35 00 00 00 00
       6.4319767e-07 0.0

network_body._body_endoder.seq_layers.0.weight f4 [256, 74]
000000 ce d2 1b 3e 29 6b 9d bd a5 3c 51 3e 08 11 31 bd
       0.15217134 -0.07686455 0.2043329 -0.043229133
000010 9a 69 34 bd 03 da b2 bc 2a 8d cf bd ee 04 03 3d
       -0.044046022 -0.021832472 -0.10134347 0.031987123
000020 41 ca e4 bd 50 49 d9 3d cb f5 49 3e 03 fa 42 3e
       -0.11171389 0.106096864 0.19722669 0.19040684
000030 23 92 5c bc e2 ed c2 3c 7f 0c b1 3d af 4e fa bd
       -0.013462576 0.023795072 0.086449616 -0.12222039
000040 6f a2 49 bc 13 61 8a bd e2 9a d0 bd aa a3 d4 bd
       -0.012306794 -0.06756797 -0.101857916 -0.10382779
000050 1e c9 a1 bd 66 cf 1e 3d 19 ff 07 3e 65 d1 ca bd
       -0.07899688 0.03877201 0.13280906 -0.0990322
000060 cc a7 f8 bd 16 e8 0f be 83 62 c6 3d d8 e8 28 3e
       -0.1214138 -0.14053378 0.09686758 0.16495073
000070 4c 34 38 3e 7e d7 35 3e e4 1a c5 3d 9f 6d 75 be
       0.179887 0.17757985 0.096242696 -0.23967598
000080 4d d7 9e 3a ce 5d 9b 3c 51 36 2c bc ce 93 a1 bd
       0.0012118608 0.018965628 -0.010510997 -0.0788952
000090 75 36 ba 3d 9b 7e 81 bd 34 e2 07 be 62 44 70 bd
       0.09092418 -0.06322976 -0.13269883 -0.058658965
0000a0 ce d1 bd bc 09 16 9e 3d f9 5e 81 bd 5c 07 4e 3d
       -0.023171332 0.077190466 -0.06316943 0.050299987
0000b0 f3 13 09 be 6b d4 b8 3c ed 4e 99 3d 70 42 02 be
       -0.13386516 0.022562226 0.07485757 -0.12720656
0000c0 7c 97 fd bd d7 83 02 be f2 42 06 3d bb 9f 0a bd
       -0.12382409 -0.12745605 0.032778688 -0.033843737
0000d0 e6 33 a5 bc 40 64 2b 3e 70 7f 12 be d5 85 62 3e
       -0.020166349 0.16737461 -0.14306426 0.22121365
0000e0 ac 9d 42 3b 90 17 1d 3b a6 07 37 bd 04 8e 11 be
       0.002969603 0.0023970343 -0.04468503 -0.14214331
0000f0 74 fe 33 be d5 a9 ca 3b 28 93 ce bd c7 86 0f 3c
       -0.17577535 0.0061847963 -0.100866616 0.008760161
000100 dc 46 bd bd a5 4f 00 bd b3 7a d9 bd 8f 8e ca 3c
       -0.09242031 -0.031325955 -0.10619106 0.02472618
000110 a7 89 b9 bd 08 da 01 be 07 2e 6c 3d 54 1a 0e be
       -0.09059458 -0.12680829 0.057661083 -0.13877231
000120 e9 dd 35 be c4 bb 0f be 34 d9 70 3d fc 32 00 be
       -0.17760433 -0.1403647 0.05880089 -0.12519449
000130 a9 e1 02 3d 0f 8b a4 bc ae 05 14 be d9 dc e1 3c
       0.031953488 -0.02008584 -0.14455292 0.027571129
000140 cb 4a b4 3d 8a 15 92 be 20 d9 66 bd 52 68 69 be
       0.08803328 -0.28532058 -0.05635941 -0.22793701
000150 37 5a 69 3d 35 d0 3a 3d 55 e0 c6 bd 0f 8b 46 3d
       0.0569708 0.045608718 -0.09710757 0.04847246
000160 cc 5e a2 3d a7 de a1 bd f4 1b 5f bc 35 bf 35 3e
       0.07928237 -0.07903796 -0.013617504 0.17748721
000170 31 8a 09 be a5 63 fb 3d 42 2c 2f be a5 5b 5d 3d
       -0.13431622 0.12274865 -0.17106727 0.054042477
000180 64 a4 b0 3d e3 81 7d bc 24 a9 b1 bd 3d be 80 3d
       0.08625105 -0.015472862 -0.08674839 0.06286285
000190 fa 4c f0 bc a1 13 a6 3c a8 92 47 3e 92 e9 e1 3d
       -0.02933358 0.020273032 0.19489539 0.11030878
0001a0 1c 85 29 bd 76 84 94 bd 3c 97 3e be b1 9f 06 3e
       -0.04138671 -0.072518274 -0.18612379 0.13146855
0001b0 82 66 b0 bc 66 ea 12 be 3a 23 83 3d 5f 19 40 3d
       -0.021533255 -0.14347228 0.06403203 0.046899196
0001c0 81 06 74 3d 0c df 8c 3e 4d ff 6c 3e 37 fd 10 be
       0.059576515 0.2751392 0.23144265 -0.14159094
0001d0 d1 45 ac bd ac ae c1 bd 0a 5e db bd 9f 9e d3 3d
       -0.08411754 -0.09457144 -0.10711296 0.10332989
0001e0 02 a5 2a 3d c5 49 13 3e 78 65 b2 3d b7 96 43 3e
       0.04166127 0.1438361 0.0871076 0.19100462
0001f0 a1 3a 97 bd ca 96 85 bd 51 d4 c8 bc df c0 97 3d
       -0.073842295 -0.06522901 -0.024515303 0.07409834
000200 c0 cd df bd 40 8f 99 bd d0 40 3c be 06 b3 35 3c
       -0.109279156 -0.07498026 -0.18384099 0.011090046
000210 3a 9d 84 3e c2 62 49 3d 82 68 02 bc 63 6f c9 3d
       0.25901204 0.04916645 -0.007959487 0.098356985
000220 87 2e c8 3d 3e 87 af 3d 42 1d a4 3d 98 77 38 3c
       0.097744994 0.08570717 0.08013393 0.011258982
000230 24 95 f8 bc 38 8f ae 3d 8e f2 71 3d 80 e9 1e 3c
       -0.030344553 0.085234106 0.05906921 0.009699225
000240 f3 37 14 3d d0 e5 00 bd f5 3e 11 be a5 9a f1 3c
       0.03618617 -0.031469166 -0.14184172 0.029492686
000250 e1 fe 69 3d eb f6 81 bd 81 53 43 3e 99 f8 cf 3d
       0.057127837 -0.06345924 0.19074823 0.10154838
000260 4c 01 28 bd 1b 14 c5 3c 7b 80 4e bd 3a 64 58 3c
       -0.04101686 0.024057439 -0.050415497 0.01320749
000270 4e e6 6e 3b 48 5d f3 3d a7 83 dc 3d 67 03 a3 bb
       0.003645319 0.11883026 0.10767298 -0.004974771
000280 72 24 52 3d 17 1e 01 3e 6c 80 c2 3d fa ba 34 3d
       0.05130429 0.12609135 0.09497151 0.044123627
000290 f1 79 0f 3e 67 de ff 3b d4 04 a9 bd 48 53 9c 3e
       0.1401136 0.007808495 -0.08252874 0.3053229
0002a0 83 3e 46 ba 0e 1e 0d bd 7b 98 f1 3d fd 05 7b 3b
       -0.00075624156 -0.03445249 0.117966615 0.003830313
0002b0 62 74 a6 bd 17 b2 f1 3c 6b 16 29 3d ed 6f 5b 3d
       -0.08127667 0.029503865 0.041281145 0.053573538
0002c0 a5 20 35 3e 79 1c ba bd 06 d7 16 3d 2d 12 04 3e
       0.17688234 -0.09087462 0.036826156 0.12897559
0002d0 e5 97 60 3d da a3 d9 3d 58 f5 42 3e ec c4 2e 3e
       0.054832358 0.10626955 0.19038904 0.17067307
0002e0 d8 7c b5 3d 50 9e 28 bc 90 99 a2 bd 0c c3 a6 bc
       0.08861703 -0.010291651 -0.07939446 -0.020356677
0002f0 27 8e 64 3e 00 b0 e7 bd a4 ef c0 3c fc eb 3c 3e
       0.22319852 -0.11312866 0.02355177 0.18449396
000300 bf 25 0b be 99 73 d7 bd f5 9e f5 bc d9 48 ea 3d
       -0.13588618 -0.105200954 -0.029983023 0.11439676
000310 eb d4 f4 bd aa 0b c3 bd 03 ac 82 bd ae 96 99 bd
       -0.119546734 -0.09523709 -0.06380465 -0.07499443
000320 2b e2 b7 bd 56 fa 50 be 84 0c 75 3e 69 ab 5b be
       -0.08978685 -0.20407996 0.23930556 -0.21452107
000330 b5 b7 01 bd 31 f4 9e bc 16 2e 71 bd bf 5f fe 3d
       -0.031669337 -0.019403549 -0.05888184 0.12420606
000340 da 39 d0 bd 01 a7 9d bd 70 01 2b be eb a2 4c bd
       -0.10167284 -0.07697869 -0.16699767 -0.04996006
000350 ce 16 9c 3c 90 8a 68 3c 8a fa 19 bd 64 d0 4f 3c
       0.019053843 0.014193192 -0.03759245 0.012683962
000360 c2 35 8c be f6 00 0f 3e 76 6d 08 3e 35 b3 af 3d
       -0.27384764 0.1396521 0.13323006 0.08579103
000370 a5 27 99 bd 3e ee f0 3d 7d 61 56 bd f6 bf 37 be
       -0.07478265 0.11764191 -0.052339066 -0.17944321
000380 43 6e dd 3d 54 53 fd 3b e1 05 71 3d 24 27 dc bd
       0.108120464 0.0077308808 0.058843497 -0.10749653
000390 df d7 17 bb 97 e5 ac 3d 78 04 a4 be 1b c0 5c be
       -0.002316944 0.08442228 -0.3203466 -0.21557657
0003a0 a4 a0 4c 3c d6 86 49 3e d1 c2 a5 bd 2e 03 9b 3e
       0.012489472 0.19680342 -0.08093799 0.30275863
0003b0 75 da a0 3d 67 6d 8c 3e fc 4d d8 3d 36 51 06 3d
       0.07854167 0.27427217 0.10561749 0.032792293
0003c0 49 22 77 3d ba 7e 66 be cb 22 ed bd 90 90 fe 3c
       0.06033543 -0.2250928 -0.11578902 0.031074792
0003d0 3f eb 9d bd d7 08 b9 3d ae 44 a6 bc 3e 0d a8 bd
       -0.07710885 0.09034889 -0.02029642 -0.08205651
0003e0 b9 32 d7 3d b4 56 3c 3d 2c d7 07 3e 45 bf b7 bd
       0.105077215 0.045981124 0.13265675 -0.08972029
0003f0 50 7e 1a be a0 0e a1 bd bb 57 a9 3d 61 19 6b bd
       -0.15087247 -0.078641176 0.082686864 -0.05739725

network_body._body_endoder.seq_layers.0.bias f4 [256]
000000 46 ec da 3b 43 f7 25 bd bb ef c1 3c eb 74 40 3b
       0.006680998 -0.04051901 0.023673883 0.0029366564
000010 c0 82 28 bd af f0 c2 bc ea 8d 35 3c ff ee 37 bc
       -0.041140318 -0.023796408 0.011081198 -0.011226415
000020 2e f3 91 bc af e1 d5 3c f9 0a 4f 3c 23 6b 87 3c
       -0.017816152 0.02610859 0.012636893 0.016530579
000030 8e ea c5 3c 65 4b 4b bc 4f 62 82 bc 16 b1 00 bd
       0.024159696 -0.012408112 -0.015916018 -0.031418882
000040 05 b4 30 3b c0 bd 95 3c 10 ea 8d bc e1 8d a9 3c
       0.0026962769 0.018278956 -0.017323524 0.020697536
000050 45 7e 83 bb cb 31 86 3b 14 8c 75 bc 26 ec 22 bc
       -0.0040128552 0.0040952913 -0.0149870105 -0.0099439975
000060 eb 15 5c bc 7a 04 ac 3c 07 33 32 3c 05 05 33 3c
       -0.01343296 0.020998228 0.010876424 0.01092649
000070 6b 08 7d bc 9d 24 86 bb a0 e8 88 bc 33 76 92 3c
       -0.0154439015 -0.00409372 -0.016712487 0.017878627
000080 dd d7 c5 3b f3 ae 49 bc 37 04 2d 3b ee 81 a9 3c
       0.006037696 -0.012309778 0.0026400217 0.020691838
000090 cd 3a d0 ba 69 d1 51 bb cd 0c d1 3b 55 0a d9 3c
       -0.0015886665 -0.0032015687 0.0063797 0.026494185
0000a0 e2 d6 f7 ba 66 57 4c 3c 22 84 b5 3b 08 63 d4 3c
       -0.0018908645 0.012472009 0.005539433 0.025926128
0000b0 af a0 d6 bc aa c6 de bc e6 53 bf 3b fe 60 8a 3c
       -0.026199667 -0.02719434 0.005838859 0.016891953
0000c0 bb a8 86 bc af ac 1d ba 0e 77 0b bc 82 99 39 3c
       -0.016437879 -0.00060148066 -0.008512272 0.011328103
0000d0 c6 d9 c0 3c e0 a0 94 3b e6 d5 4f bc b5 b8 58 3c
       0.023541342 0.0045357794 -0.012685275 0.013227631
0000e0 c7 ad 9c 3b 39 8a 41 3c cd 39 9f bc 8d 5f 83 3c
       0.004781458 0.01181274 -0.019436741 0.016036773
0000f0 51 82 0a 3d b1 be 34 bc cd 32 89 bb 13 d4 a8 3c
       0.033815686 -0.0110317925 -0.004186964 0.020608937
000100 20 27 ca 39 3a 02 b8 3c ca a0 df bb fb ef 0f bd
       0.00038557593 0.022462 -0.0068245875 -0.035140973
000110 d8 66 11 3a 1a 3a 08 bc e6 38 a3 3c 5e 8f cf 3b
       0.0005546636 -0.008314634 0.019924592 0.0063342294
000120 79 62 f6 b9 3c 2d 3d 3d e0 6c 35 ba 2c fc 74 3c
       -0.00046994144 0.046185717 -0.00069208257 0.014952701
000130 07 d9 bb 3c 3a 83 a3 ba e6 4c a4 3a 51 54 ba 3c
       0.022930635 -0.0012475022 0.0012535125 0.022745283
000140 91 76 c8 bb a0 fc 97 bc 43 5f 1f 3c 7e 7a 80 3c
       -0.00611765 -0.018553078 0.009727302 0.015683409
000150 2d 38 dd 3b 7f ee 01 3c 29 46 62 bc 6a 32 bf 3c
       0.0067510814 0.007930397 -0.013810673 0.023339469
000160 28 18 09 bc cf 2e 3a 3b 85 84 91 bc 2b 3f 0a 3d
       -0.008367576 0.0028409248 -0.017763386 0.033751648
000170 9d 91 3b 3c 0b ad 25 bc 55 28 02 3c b2 95 ff 3b
       0.011448291 -0.010112057 0.007944186 0.0077998275
000180 51 87 3a 3c fe 39 77 3c d0 d9 3f 3b 5b 56 e5 bb
       0.011384801 0.01508951 0.0029274113 -0.0069988198
000190 31 68 9d 3c 8e 69 ae 3c 79 7d dd bb 67 5f a8 3c
       0.019214721 0.021290567 -0.0067593423 0.020553304
0001a0 aa 97 a9 bc 13 6b d3 3a b9 f6 59 bb 4a 8a 12 bc
       -0.020702202 0.0016129933 -0.003325863 -0.0089441035
0001b0 4d 7b 62 3c 72 aa 64 3b b4 05 8d 3b 93 da c2 bc
       0.0138233425 0.0034891632 0.0043036584 -0.023785865
0001c0 d0 f2 f7 bb a7 5a 13 ba 1a 41 01 3c 10 67 87 3c
       -0.0075667873 -0.0005621113 0.007889057 0.016528636
0001d0 21 2d 31 3c 8f ca da bc 41 fc 55 bc 76 2a 78 b9
       0.010813982 -0.026707916 -0.01306063 -0.00023666941
0001e0 3f 24 a1 ba e6 06 b6 ba f8 99 8e bc b0 1a 34 3d
       -0.0012294127 -0.0013887554 -0.017407402 0.043970764
0001f0 b4 22 55 3c c6 ca 3d bc 62 af 03 bc 85 ee a3 3c
       0.013008762 -0.0115839895 -0.00803742 0.020011196
000200 47 a6 86 b9 b9 9f 8f bc ea 18 7b 3b f0 ee bc 37
       -0.00025682358 -0.017532216 0.003831441 2.252261e-05
000210 b4 fe 84 bc 6b 31 1d 3c 58 bc 0f bd 4c 98 ea bc
       -0.016234733 0.009594302 -0.035091728 -0.028637074
000220 b0 fd 2f 3c 25 0e 0d bc c8 09 d0 bb 06 75 d4 3b
       0.010741636 -0.008609329 -0.0063488223 0.006483677
000230 9b 93 9a 3b aa 9f b7 3b dc 5d 8d 3c 31 15 99 3b
       0.004717303 0.0056037502 0.01725667 0.0046717157
000240 38 c1 ae 3c 92 d3 dc 3c 01 0d b2 3c e6 38 56 3c
       0.021332368 0.026956353 0.021734716 0.013075089
000250 b9 d3 3f bc 35 b9 ee bb 42 fc 2f bc 3f e3 1f bb
       -0.011708193 -0.007285262 -0.010741295 -0.0024396924
000260 97 29 93 3c fb 54 d2 3c ec dd c4 ba 92 10 03 3d
       0.017964168 0.025675287 -0.0015019751 0.031998225
000270 76 66 13 bc fb 6b 9a bc b7 68 e7 3b 94 6b 84 bb
       -0.008996597 -0.018850317 0.0070620435 -0.0040411446
000280 a9 1d 54 3b 68 26 b1 3c f9 77 44 3c fc cc 90 3c
       0.0032366312 0.021624759 0.011991494 0.01767587
000290 82 b4 74 bc b5 31 28 bc ef 74 fa 3c 9b 08 4f bc
       -0.014935615 -0.010265757 0.030573336 -0.012636329
0002a0 a5 84 3d 3b 75 9d 88 3c ae cb c7 bc 7c 82 34 bc
       0.0028918174 0.016676644 -0.024389114 -0.011017438
0002b0 aa df 73 bb b6 bf ce bc 0f 77 e0 3c 24 97 7b bc
       -0.0037212172 -0.0252379 0.027400522 -0.015355859
0002c0 b1 a5 7b 3b 8e 1a 93 3c 1e eb f1 ba a5 4e 2d bc
       0.003839832 0.017956998 -0.0018456911 -0.010577832
0002d0 fc 7b c2 bc 6f 65 e8 3c a7 35 10 bc 46 8f 04 3c
       -0.023740761 0.02836868 -0.008801854 0.0080908
0002e0 c4 bf be 3c 42 4c 46 bc 39 65 04 bd 01 6c 9c 3c
       0.0232848 -0.012103142 -0.032323096 0.019094469
0002f0 16 10 a9 bc b2 a2 a7 3c 94 81 52 bc 40 02 9e 3c
       -0.020637553 0.020463321 -0.012848277 0.019288182
000300 4a 63 31 bc c3 a1 a4 bc d0 e6 83 3c 2b 11 1c 3c
       -0.010826895 -0.020096665 0.01610127 0.009525578
000310 b0 5c 13 3c 39 60 0e 3d 3c 0f 30 bc a1 f2 35 bb
       0.008994266 0.034759734 -0.01074582 -0.0027763026
000320 f6 a2 ca 3c 63 25 39 bd 70 d6 27 3a ab 98 12 3c
       0.024735909 -0.04520167 0.0006402498 0.008947532
000330 d0 b0 78 3b 02 dd 0f bc c5 8d 6a b9 6c 0b 43 3a
       0.0037947185 -0.00878072 -0.00022368792 0.00074403617
000340 e9 1d 84 bc 48 66 65 bb c3 11 a6 3b 98 04 9b 3c
       -0.016127544 -0.0035003591 0.0050680353 0.018923089
000350 4d f0 93 bc c7 a9 bf bc 6f 04 a5 bc 1f d4 82 3b
       -0.01805892 -0.023396386 -0.020143716 0.003992572
000360 91 a2 b2 bc 6e 4e 01 bc 37 fa 0c 3b 1a 32 a3 3c
       -0.021806033 -0.007892234 0.0021511444 0.019921351
000370 84 f1 24 bc fe 65 14 3b 1a 09 3d 3c 06 64 29 bb
       -0.010067347 0.00226438 0.0115378145 -0.0025846972
000380 3e 2d d0 3c dd bb 2c ba f0 d0 d7 bb 04 4a 20 bc
       0.025412198 -0.0006589273 -0.0065861866 -0.009783272
000390 bc fd 43 bd d1 f3 6e 3a 45 92 b3 ba 71 aa 0e bc
       -0.0478494 0.0009115311 -0.0013700208 -0.008707629
0003a0 67 8e c4 3b 99 71 2e bc ca d1 89 ba 97 8b 04 bb
       0.005998421 -0.010647201 -0.0010514793 -0.0020224804
0003b0 07 81 31 3d 8d 29 44 3c 02 1e af ba bc 28 b8 3b
       0.04333594 0.011972797 -0.0013360383 0.0056200903
0003c0 f0 5d 99 3a 6d e9 98 b8 46 2f ee 3c 0b af e8 3b
       0.0011700969 -7.291404e-05 0.029075276 0.007100945
0003d0 df 28 dc bc d7 35 cf bc ff 56 3f bc 76 6a 9c bc
       -0.026874958 -0.025294228 -0.011678456 -0.019093733
0003e0 c8 82 83 bb ca ec a0 3b c9 c0 1a ba c0 63 42 bb
       -0.004013393 0.00491104 -0.0005903361 -0.0029661506
0003f0 04 24 8f 3c f3 cb 08 3c 9b f1 5a bc 5b f9 85 bc
       0.017473228 0.0083494065 -0.013363267 -0.016354254

network_body._body_endoder.seq_layers.2.weight f4 [256, 256]
000000 26 74 d5 3c f1 22 ee bd 45 88 c1 3d 1f 90 1c bc
       0.02605636 -0.11627758 0.094498195 -0.0095558455
000010 96 e9 06 bd 01 c8 19 be 87 2b 64 3c 35 fd 03 bd
       -0.03293761 -0.15017702 0.013926393 -0.0322239
000020 0d 83 f6 3c fa 45 74 bc d6 23 34 3c bd d0 04 bd
       0.030091787 -0.014909262 0.010994872 -0.03242563
000030 c8 fe 42 3d 31 23 de 3b 80 0d 8c bc 08 45 05 bd
       0.04760626 0.0067790975 -0.017096281 -0.032536536
000040 6f 8b 8b bd de be d7 bc b1 dd 03 3d a8 ee 84 3c
       -0.06813704 -0.02633613 0.032193843 0.016227081
000050 44 e1 00 3d 8c 15 26 3d d3 85 ac bc 0d 8a 76 3d
       0.03146483 0.040547892 -0.021059906 0.06019025
000060 3d 2b 65 b9 88 14 0f 3c 4c 85 e5 bb 26 95 22 3d
       -0.0002185525 0.008732922 -0.0070044156 0.03969302
000070 d8 17 14 3e c1 c4 0c 3d b6 d5 04 3b bc af e4 bb
       0.1446222 0.034367327 0.0020268983 -0.006978957
000080 62 0a b0 bc c8 e0 3e bd e6 7c b0 3d de f1 e0 bc
       -0.021489326 -0.046601087 0.086175725 -0.027459081
000090 f5 e4 e8 bc 97 da b2 3d 25 39 d0 3b b2 bf 4f 3d
       -0.028429488 0.08733099 0.0063544684 0.050719924
0000a0 db 01 fa bc bd 66 1c bc d4 21 e5 3d 8a 9b 06 be
       -0.030518463 -0.009545979 0.11188093 -0.13145271
0000b0 ea 41 17 bd b5 01 92 bc 79 0a 09 bb 0f ad 54 3b
       -0.036928095 -0.01782308 -0.0020910783 0.0032451784
0000c0 ba 97 35 bd f3 99 d0 ba fc 2e 84 bb 13 81 88 bd
       -0.04433415 -0.0015915021 -0.0040339213 -0.06665244
0000d0 e6 1f 89 bc a2 b2 8a 3d f0 74 50 bd 49 3f c3 bd
       -0.016738843 0.06772353 -0.05089277 -0.09533555
0000e0 40 fe 27 3d 92 87 55 3d 4e 47 92 38 6a 72 c9 3c
       0.041013956 0.052131243 6.975104e-05 0.02459069
0000f0 d5 60 1f 3e f4 fc 30 bd 6a c7 bd 3d 64 74 ee 3d
       0.15564282 -0.043209985 0.09266551 0.116432935
000100 5e 65 3c bd 7b c3 58 bd 2c a9 9a bc 16 5c ba 38
       -0.04599511 -0.0529208 -0.018879496 8.8863235e-05
000110 0b 5d 99 bc a1 ad ee bc f3 4d 2d bd 82 93 4f 3c
       -0.018721124 -0.029135527 -0.042310666 0.012669446
000120 01 69 0f 3d d9 4a 9f 3d d2 34 b1 bc 75 b8 80 bb
       0.03501225 0.07777948 -0.021631632 -0.003928239
000130 25 cf 24 3e d6 05 67 bb 5e 07 87 3c 8f b4 77 bd
       0.16094644 -0.0035251281 0.016483005 -0.06047493
000140 31 99 71 bc 34 d6 36 bb d4 18 58 3d 6a d2 d6 3c
       -0.014745996 -0.002789867 0.052758053 0.02622338
000150 91 2f 10 bd e2 26 c7 3c 09 b1 75 bd e5 6a be bd
       -0.035201613 0.024310533 -0.059983287 -0.09297732
000160 fc 88 5f bd e5 78 02 bd d0 71 43 bd 2e 88 c7 bc
       -0.054573998 -0.031853575 -0.047715962 -0.024356928
000170 99 37 3c 3c 6e 5b b9 bc 1c 77 a7 bd 0b a9 a0 3d
       0.011487865 -0.022626605 -0.08177015 0.078447424
000180 a7 72 79 3c e4 4f a0 bc 08 67 e7 3d e2 5d ae bb
       0.015225089 -0.019569345 0.112989485 -0.0053212503
000190 82 4c 97 bd 24 9a 12 be 67 61 d6 bd 2f 36 25 bd
       -0.073876396 -0.14316612 -0.10467797 -0.040334877
0001a0 56 de 8d bd e5 56 c9 bc 61 43 b7 3d 4f b1 d7 3d
       -0.06927173 -0.024577567 0.089483984 0.10531866
0001b0 73 1c 54 bd 4a 83 fc bd a9 60 1a bd d7 a8 d1 bd
       -0.051784944 -0.12329729 -0.03768984 -0.10237282
0001c0 91 c0 63 bd 97 e2 b7 3d 78 88 c9 bd a9 71 dd 3d
       -0.055603568 0.089787655 -0.098404825 0.108126946
0001d0 a7 13 34 3d 61 b1 ec 3d a1 fd 04 3e 58 76 ce 3b
       0.043964054 0.1155727 0.12987377 0.006300729
0001e0 4c ab 54 bb af 91 11 3e ba 7e 17 bd 03 7c 54 bc
       -0.0032450734 0.1421573 -0.03698609 -0.01296902
0001f0 9c e1 db 3c ec 6b e9 bd 9a 07 eb bd a1 d7 12 3e
       0.026840977 -0.113975376 -0.11476059 0.14340068
000200 be 1f 16 3d 66 9e 64 bd 07 94 30 bd 4b 08 80 bd
       0.036651365 -0.055815123 -0.04310992 -0.06251582
000210 e3 80 ab bc e1 68 02 bb 0b cd 14 3d 15 b8 44 3b
       -0.020935481 -0.0019898938 0.036328357 0.0030016948
000220 bc 9d a9 3d 42 84 c2 3d 4a ea 35 3d 0b e4 9b bd
       0.082820386 0.094978824 0.04441289 -0.07611855
000230 40 e5 ac 3d 86 1e c4 bd a3 b5 0c be 87 67 e3 bd
       0.084421635 -0.095761344 -0.13741164 -0.11103731
000240 ad bb 6c bd ff 3e 4a bd fa a7 06 bd 47 6e 24 be
       -0.05779617 -0.049376484 -0.03287504 -0.16057692
000250 6a d7 b5 3d 4c d5 97 3d bc 22 09 bd cc 97 e7 bc
       0.088789776 0.0741373 -0.03348039 -0.028270625
000260 f9 32 ca 3b 91 38 e3 3d 1c ae 48 bc 66 81 8b 3c
       0.006170627 0.110947736 -0.012248542 0.017029475
000270 1e 87 cb 3c b9 2e bc bc 4e 5b 8a bd 8d bc f0 bc
       0.024844702 -0.022971498 -0.06755696 -0.029386783
000280 d1 64 9f bc b2 ee 01 3d 4f 07 f3 bb 88 43 c8 3b
       -0.019457253 0.03172178 -0.0074166427 0.006111566
000290 da 0f a7 3d 60 f5 df bb 4f 23 af 3d 75 0f 14 be
       0.0815732 -0.006834671 0.085516565 -0.14459021
0002a0 22 65 c6 3d d4 f4 84 3c 33 43 83 bb d9 14 c5 3c
       0.09687258 0.016230024 -0.0040058135 0.024057792
0002b0 5c 85 40 3c f2 9e ca 3c c7 45 3f bd 56 e5 8a bd
       0.011750545 0.024733994 -0.046697404 -0.067820236
0002c0 51 e4 6f 3d 32 01 98 3d 48 a9 9a bb 48 4e af 3b
       0.05856735 0.07422103 -0.004719887 0.005349908
0002d0 be 03 b1 3c a8 a9 62 3d 13 30 62 3d fe 48 5f 3d
       0.02160823 0.055337578 0.05522163 0.05451297
0002e0 88 09 e6 3c 33 48 00 bb 72 8c ae 3d 31 4d 42 bc
       0.028080717 -0.0019574284 0.085228816 -0.011859224
0002f0 79 83 b2 bb dd 35 33 bd d8 09 96 3d b2 f4 c0 3d
       -0.0054478017 -0.04375254 0.07326096 0.09421672
000300 31 64 48 bd 8c 26 f3 3c 56 a1 1d 3a 82 4d 85 bd
       -0.048923675 0.029681467 0.00060131156 -0.06508924
000310 f9 cf e5 3b f5 c0 b3 3d 7a 6e 49 3d 00 27 55 bd
       0.0070133177 0.08777038 0.049177624 -0.052039146
000320 fd 14 24 bd 92 7a 94 bd 01 6e 07 3d 8a 77 26 3e
       -0.04005908 -0.07249941 0.033063892 0.16256538
000330 69 fa 86 3d f7 3d 8e 3d 62 4f 1a 3d 5b e9 ef 3d
       0.06590731 0.069454126 0.03767336 0.11714431
000340 a1 d2 eb 3c d1 6a 64 bc 0f 14 5c 3d c6 af 41 bd
       0.02878696 -0.013941483 0.053730067 -0.04728677
000350 16 4e 55 bc 82 d8 6b bc 4e 9a ae bd 2e 96 ca bc
       -0.013019105 -0.014394881 -0.08525525 -0.024729814
000360 e1 86 46 bd 0d 23 83 bd 6f fe 99 3d 3f e4 ec 3d
       -0.048468474 -0.0640317 0.075192325 0.11566972
000370 c0 d0 0c bd 36 ed cb bd 91 25 79 bd 3c 79 24 3d
       -0.034378767 -0.09957354 -0.06082684 0.04015468
000380 d1 05 c2 3d 47 a1 08 bd e4 42 ff ba 73 b2 76 3d
       0.09473766 -0.03335693 -0.0019474891 0.060228776
000390 cf 60 28 bd 95 09 cc bb 03 9e 40 3b 56 4e 8c 3d
       -0.04110795 -0.006226728 0.0029391057 0.06850879
0003a0 55 57 0d bd d5 1f ab bd e3 eb eb bb 9b 0b 41 bd
       -0.034507114 -0.08355681 -0.0071997507 -0.04713021
0003b0 98 82 b3 bc 28 44 de 3d 16 9a fe 3d 58 89 37 3d
       -0.021912858 0.108528435 0.12431733 0.044808716
0003c0 48 0e f8 3c 50 86 b8 bc cf da 2d 3d a7 91 ec bc
       0.030280247 -0.022524983 0.042445 -0.028878046
0003d0 33 f2 2a 3b 23 26 e0 39 c2 88 3a bd 1f 51 e8 3c
       0.0026084303 0.00042753023 -0.04554058 0.028358994
0003e0 5b cb 12 bd 9d 8f 41 bd 57 4f 3a bd 43 58 8e 3d
       -0.035838466 -0.0472561 -0.04548582 0.06950428
0003f0 58 bc 5f bd 55 bf dd 3d 61 b0 62 bc 80 ed 2c 3d
       -0.054622978 0.10827509 -0.013835997 0.042218685

network_body._body_endoder.seq_layers.2.bias f4 [256]
000000 60 f1 13 3c 9a 07 ed 3b 66 56 a6 3c b8 c2 6b 3b
       0.009029716 0.007233572 0.02030487 0.0035974216
000010 7f 19 6b bc c2 ba aa 3b 6b 68 46 3b 3e 00 6f 3c
       -0.01434934 0.0052102515 0.003027464 0.01458746
000020 2b 75 e0 3c 05 a0 f1 3c a9 fb b0 3c 4e 16 72 3b
       0.02739962 0.029495249 0.021604376 0.0036939564
000030 9a e7 d8 b9 f1 48 60 bc c5 be 3f 3b db 64 fa ba
       -0.00041371287 -0.013689266 0.0029257995 -0.0019103544
000040 a0 96 19 3c ab ee d2 bc 95 72 bf 39 20 41 67 ba
       0.009374291 -0.025748571 0.0003651573 -0.0008821655
000050 55 70 17 3b 2a eb 53 bc 91 9d 42 bc ef c3 67 bc
       0.0023107727 -0.012934485 -0.011878387 -0.014145835
000060 34 33 1a bc 1d 52 9f bc 2b bc d1 bc 46 9d 7d b9
       -0.009411622 -0.019448334 -0.02560242 -0.00024186549
000070 43 34 d2 ba 94 ec c1 bc fa d6 3e 39 05 68 b0 3c
       -0.0016037304 -0.02367238 0.00018199897 0.021533975
000080 3e 65 c1 3c 4a 27 00 3c c2 9c ab bb b1 52 84 3c
       0.023607846 0.007821867 -0.005237193 0.016152712
000090 03 3c 7c bc df 18 05 3d d4 3b 1b bd e0 9f 82 bb
       -0.015395167 0.032494422 -0.037898853 -0.0039863437
0000a0 6a d8 1d 3c f2 29 0a bb 88 d9 f4 3b df c9 09 3c
       0.009634117 -0.002108213 0.007472221 0.008409946
0000b0 e9 41 ae bb 44 75 f9 bc f1 8b 83 bc 96 d6 78 3b
       -0.0053179157 -0.030451424 -0.01605794 0.00379697
0000c0 93 c7 26 3c 81 8e 1a 3d 22 1b 5f 3c 60 8d 87 bc
       0.010179418 0.03773356 0.013617309 -0.016546905
0000d0 8a 45 ad 3b 89 ab 3e 3c db be 8b 3c 13 92 2d 3a
       0.0052878307 0.011637577 0.01705878 0.0006621193
0000e0 92 c5 b0 3c 00 c2 69 bc fc 8b 13 3c c7 16 dd 3b
       0.021578584 -0.014267445 0.009005543 0.0067471
0000f0 cf 30 71 3c 23 b6 d9 3b 9e c3 46 bc 8d f5 24 3c
       0.0147211095 0.006644027 -0.0121316 0.0100683095
000100 42 6e 25 3a af 6a df bc d4 55 e5 b9 5d 25 b4 3c
       0.000631068 -0.02727255 -0.0004374223 0.021990472
000110 02 ba 7a bb 33 20 28 3c 52 40 d1 3a 08 03 46 3c
       -0.0038257842 0.010261583 0.0015964604 0.012085684
000120 2d 7b 0e bc 7c 53 6e bc bc b9 89 bc 3b f8 f8 3c
       -0.00869636 -0.014546271 -0.016812198 0.030391803
000130 ed a3 66 bb 4f 5a 3f bc 89 c0 05 3c 66 4f 98 3c
       -0.0035192922 -0.011679246 0.00816358 0.018592548
000140 81 9f 90 3c 31 d8 36 bb 25 9a 0b 3d 23 db 1f bc
       0.017654182 -0.0027899856 0.03408255 -0.009756836
000150 84 de 44 3c 17 34 85 bc 79 61 85 bb d1 bd 65 3c
       0.0120159425 -0.01626019 -0.0040704575 0.014022307
000160 97 c7 f0 3a 49 c9 06 bc 18 5b a8 bb 2c 14 f0 3b
       0.0018370029 -0.008226701 -0.0051378123 0.0073266234
000170 18 f4 30 3c 92 43 c1 bc 51 69 c4 bb 0f 17 91 bc
       0.010800384 -0.02359179 -0.005994 -0.01771119
000180 6c a1 02 3d d0 94 8c 3c 22 df 7e 3c 61 b0 bf 3c
       0.031892225 0.017160803 0.015556129 0.023399534
000190 ef 50 c5 bc fd 9e 4f bc 38 b4 81 3b c8 4b 88 bc
       -0.024086444 -0.012672183 0.0039582513 -0.016637698
0001a0 bf 3b 4d 3c 7f c8 25 bc a4 67 6f bc db a3 7a bc
       0.012526452 -0.010118603 -0.014612112 -0.015297855
0001b0 37 b7 f8 3b e3 88 dd bc b2 98 6b 3c b8 66 7c 3c
       0.0075902003 -0.027042812 0.014379667 0.015405349
0001c0 fd 43 2f 3a 7d a5 82 ba 45 05 ad 3c 26 7d a8 3c
       0.0006685851 -0.0009967532 0.021120677 0.020567488
0001d0 8a be fe 3c 7d cf ab 3c 34 2b 50 ba fb 57 2c 3a
       0.031096715 0.020972962 -0.0007941008 0.00065743894
0001e0 03 47 35 3c 29 ee 15 3c 49 13 20 bc 62 72 89 3c
       0.011064294 0.00915102 -0.009770223 0.016778175
0001f0 9e fe 4f bc 68 b8 43 3c 95 72 ad 3b 56 8e 21 bc
       -0.012694983 0.011945821 0.0052932003 -0.009860596
000200 eb 3f c0 3b 8f 67 89 bc 00 bf 2b bc c3 25 a7 3c
       0.0058669946 -0.016773013 -0.01048255 0.020403748
000210 a7 7b 0d 3d 7c 31 04 bc 83 e4 a9 3a 75 3b 9b bc
       0.034541752 -0.008068439 0.0012961779 -0.01894925
000220 34 1a 20 bb 62 03 af 3b bd 86 51 3b 4b 6e d6 3c
       -0.002442968 0.0053409794 0.003197118 0.026175639
000230 c2 b2 23 3d 84 ad 7e bc f4 10 9e b8 d0 6f 37 bc
       0.0399654 -0.015544299 -7.537185e-05 -0.011196092
000240 10 81 ce bc 63 22 34 bc 6f 28 15 3b db e2 9f 3c
       -0.025208026 -0.010994527 0.0022759696 0.019517353
000250 c5 88 b3 3b b6 36 94 bb 9a c3 fe bb 07 28 8b 3c
       0.0054789507 -0.0045231236 -0.0077747824 0.01698686
000260 20 7b 69 bb f9 cb 3d 3b dc 09 24 bb 5b 4e 0d 3c
       -0.0035626367 0.0028960689 -0.002503029 0.008624638
000270 60 34 a2 bc e7 2c 61 3c c0 0d 92 bb c5 82 1c 3b
       -0.019800365 0.013743616 -0.0044572055 0.0023881656
000280 20 8e 3e 3c 47 44 b6 bc fc 15 97 3a a9 c8 81 3b
       0.011630565 -0.022249354 0.0011526938 0.003960688
000290 16 5f d8 bb d8 0b b9 3c d8 10 28 bc 41 b2 9f bb
       -0.006603132 0.022588655 -0.010257922 -0.0048735444
0002a0 ed 84 29 3c fd 02 d7 3c e9 0b 60 3c 72 ef 4c bc
       0.010346633 0.026246542 0.013674715 -0.01250826
0002b0 9a 7d cd 3c 11 70 17 3c 33 ed 76 3a 08 ea 86 3a
       0.025084306 0.009243027 0.0009419501 0.0010293135
0002c0 b4 69 00 bb 3c f9 12 bb b5 3d 2d 3c 23 74 8b 3c
       -0.0019594254 -0.0022426387 0.010573794 0.017023152
0002d0 4a cd 07 3a c5 24 c4 3c cb c3 05 3c cb 92 88 bb
       0.0005180432 0.023943314 0.008164356 -0.0041678897
0002e0 ac 05 6e 3b 47 05 80 bb 5b 1e 1c bb 5e 31 a3 3c
       0.0036319299 -0.003906879 -0.0023821804 0.019921001
0002f0 a3 00 df bc dd 45 ce 3c 19 56 b2 3c 9d c2 ba ba
       -0.027221983 0.025179798 0.02176957 -0.0014248673
000300 e8 94 5e bb 40 fb 08 3d 0e f7 6b 3c 14 44 4b 3c
       -0.0033963267 0.033442736 0.014402164 0.012406368
000310 9b ee 92 bb bb 76 0b 3c de 1c 21 3c a4 f4 26 3d
       -0.0044840104 0.008512194 0.009833543 0.04076065
000320 e4 11 45 3c bc 11 bd bc 16 70 b4 3c bb 02 2f 3b
       0.012028191 -0.023079745 0.022026103 0.0026704508
000330 09 f0 c8 3a 60 14 5f 3b 6f 6f cd 3b 65 69 c9 bc
       0.0015330325 0.0034039244 0.0062693874 -0.024586389
000340 16 15 ab 3c 81 68 39 3c ee ab 96 3c 3b 6b b5 bb
       0.020884078 0.01131642 0.01839253 -0.0055364645
000350 80 26 aa bb 31 41 09 3c f6 e5 a2 bb f1 5f 67 bc
       -0.005192578 0.008377359 -0.004971261 -0.014121995
000360 80 2b 6f bb dc a8 86 3c 74 19 9a bc 1d c7 84 bb
       -0.0036494434 0.01643794 -0.018810965 -0.0040520565
000370 48 1a b7 bb 2e 67 d7 3c 97 06 55 bc 4e de 48 3c
       -0.0055878498 0.026294317 -0.013002059 0.012260033
000380 29 19 c6 3c 62 87 d1 ba 7d 95 12 3c 3a 99 9a 3c
       0.02418192 -0.0015985782 0.008946774 0.018871892
000390 c7 24 1c bc 51 41 15 bc b9 a5 c5 3b 62 bc 56 3c
       -0.009530253 -0.009109811 0.0060317186 0.013106437
0003a0 a8 66 af 3b 35 3c 74 bc 7e 77 51 bc 30 47 8e 3c
       0.0053528138 -0.014906933 -0.012784837 0.01736793
0003b0 8f 95 55 b9 c4 1c 6c 3b 1a 19 a0 3c 39 37 29 3c
       -0.00020368978 0.0036027888 0.01954322 0.0103281075
0003c0 f4 60 98 3c 23 95 ed 3c 46 47 84 3c de 59 8a bb
       0.018600918 0.029001778 0.016147267 -0.004222139
0003d0 71 d2 bf 3c 6f e8 a4 3c 46 e2 93 bc 5d bd 08 3d
       0.023415776 0.020130364 -0.018052232 0.033383716
0003e0 23 0d 56 b9 ee f8 88 ba 96 2a ca bc e1 de ce 3c
       -0.00020413524 -0.0010450163 -0.02467851 0.025252761
0003f0 b3 57 0f bc e1 9e 80 bc 50 18 78 3c e4 dc 0d bc
       -0.0087489365 -0.01570076 0.015142515 -0.008658621

action_model._continuous_distribution.log_sigma f4 [1, 3]
000000 20 af 6f bd 34 e1 07 be 13 be c3 bc
       -0.05851662 -0.13269502 -0.023894345

action_model._continuous_distribution.mu.weight f4 [3, 256]
000000 4a d7 3c bc 99 09 5b bc 40 5d 38 bc 25 ef bd 3b
       -0.011525938 -0.0133689875 -0.011252701 0.0057963305
000010 13 0a 53 bd 0c cf 15 bd 45 c7 61 3c 26 11 b8 3c
       -0.05152328 -0.03657441 0.01378042 0.022469115
000020 a7 58 63 3d 0d 22 06 3d 63 9a 6b bc 71 0b 15 bc
       0.055504467 0.032747317 -0.01438007 -0.009096966
000030 0f c4 02 bb df 65 a6 bc b7 86 03 3c c5 e5 17 bd
       -0.0019953286 -0.020312248 0.008027724 -0.03708436
000040 51 7f df 3c a2 82 ae bc b6 18 50 3c 4b ff 19 bd
       0.027282389 -0.021302525 0.012701204 -0.037596982
000050 d9 07 d4 ba 7a c3 27 3c 6a 83 5b 3c e2 5f f4 bc
       -0.0016176655 0.010239476 0.013398031 -0.029830877
000060 b1 5c 16 bd d6 06 8a bc 6d b3 d9 ba 43 9a a3 3b
       -0.03670949 -0.016848963 -0.0016609259 0.0049927547
000070 04 54 a5 bc 0b d3 9e bc e4 a7 13 bd 10 b8 17 3d
       -0.020181663 -0.019387743 -0.036048785 0.03704077
000080 78 60 9c 3c dd e0 51 3b 25 06 4c bc ac 48 8b bc
       0.019088969 0.0032024898 -0.012452637 -0.017002426
000090 08 d6 25 bc bc 42 8f 3d 2e 8b 6c 3b ac 08 43 bc
       -0.01012183 0.069951504 0.00360937 -0.011903923
0000a0 8c 24 aa bc 21 c0 e7 bb b2 89 b2 3b 6e d7 f9 3a
       -0.02076938 -0.007072464 0.0054485435 0.0019061395
0000b0 5b b4 2e 3c b6 a6 52 bc 12 8d 04 3c 47 82 dc 3a
       0.010663117 -0.01285713 0.008090274 0.0016823494
0000c0 c4 fa c9 3c dd 41 0b 3d 68 03 50 bc 22 c6 69 3c
       0.024655707 0.03399836 -0.012696125 0.01426843
0000d0 77 0a 07 3d 27 84 f6 3b d7 ab e5 3c 03 b3 01 3d
       0.032968964 0.007523078 0.028036041 0.03166486
0000e0 28 e6 d2 3c 75 f6 44 3a 3b 9b cf bb 2e ca 33 bc
       0.025744513 0.00075135316 -0.0063356436 -0.010973496
0000f0 17 4f 00 bc 76 b5 ab bc 1e 4e 0c 3c d1 66 4f 3d
       -0.0078313565 -0.02096055 0.008563546 0.050635163
000100 cd c1 0c bd 86 ed 75 bc 1c 48 5f bc 71 4c ba 3c
       -0.03436451 -0.015010243 -0.013628032 0.022741528
000110 b8 eb ad 3a ab 6d 04 3d 53 ad f0 bc 04 9f c7 39
       0.0013269102 0.03233115 -0.029379522 0.00038074714
000120 37 3d 4e bd 11 d4 ef bc 4f f6 fe bc df 5e db 3c
       -0.050351348 -0.029275926 -0.031123308 0.026778637
000130 a8 c8 7c 3c 7d f9 cb bc 60 3b e4 bc 06 ab de bc
       0.0154287 -0.024899239 -0.027860343 -0.02718116
000140 a7 15 f9 bb f4 e9 72 bd 33 5f 76 3d 3b 60 13 bd
       -0.007601458 -0.059305146 0.060149383 -0.035980444
000150 9f 11 57 3d 01 b8 44 bd 0c 51 56 3b 21 b3 73 3c
       0.05250704 -0.048027042 0.0032702116 0.014874251
000160 38 08 63 bb df 53 b4 3c 9a e3 e4 bc 0c dd ec b8
       -0.003464235 0.02201265 -0.02794056 -0.0001129453
000170 17 6f 07 3c 10 43 cc 3b 76 d5 6c bc 40 03 f6 bb
       0.008266232 0.0062335804 -0.01445519 -0.0075077116
000180 cf e6 41 3d e3 64 80 3d ae b6 9b 3c a6 e9 2c 3d
       0.047339257 0.062692426 0.019008007 0.042215012
000190 ca 80 87 bc 99 ec 60 bc fd 76 aa 3c a2 e7 fc bc
       -0.016540904 -0.013728284 0.020808691 -0.03087217
0001a0 6f 61 b9 3c 23 6d 8b bc ee 75 ef bc 8d cc ab 3c
       0.022629468 -0.017019814 -0.029231038 0.02097156
0001b0 9d 06 43 3d 55 ab 4e bc d3 2f fd 3c cf 0e 15 3d
       0.04761373 -0.012614091 0.030906593 0.036391076
0001c0 cf 5f fa bb c0 29 ce 3c 85 9d a2 3b 1d 55 d1 bb
       -0.007640816 0.025166392 0.0049626254 -0.00638832
0001d0 1f fa 0d 3d 31 9c 41 3c fd 98 b0 3c 9b c7 75 bb
       0.034662362 0.011817024 0.021557325 -0.0037503007
0001e0 74 a8 18 bd 03 51 e7 bc 10 03 66 3c d2 a5 0a bc
       -0.037270024 -0.028236872 0.014038816 -0.008462386
0001f0 aa 99 b8 3c 7e 55 b2 3b 80 c2 07 bd 8c 16 0e 3d
       0.02253421 0.0054423204 -0.033144474 0.03468947
000200 79 00 0d bd 68 fd 37 bc e7 90 fc bc 39 03 04 3d
       -0.03442428 -0.01122985 -0.030830814 0.032229636
000210 8b 5e e6 bb b4 43 0f bb 4c 31 cc bb 6f ab 54 3c
       -0.0070303134 -0.0021860423 -0.0062314626 0.012980326
000220 22 86 8e 3c d1 fe 11 bc 1b 6f ce 3b b4 da 47 3c
       0.017397944 -0.008910851 0.006299866 0.012198139
000230 fd 78 89 3b 7b 69 34 3d 54 88 0a bd bb bd f6 bc
       0.004195331 0.044045907 -0.03382142 -0.030119767
000240 2b 7a 5a bb 43 18 19 bd f5 fa 00 bd 89 68 3f 3d
       -0.0033336978 -0.037376653 -0.03148933 0.046730552
000250 11 db 23 3d 13 5c fa 3b d4 d8 ea bc 52 92 99 3c
       0.04000384 0.0076403706 -0.028667845 0.018746529
000260 d2 4e 3a bd 55 3d 89 3c da df 81 3c 9b 3d 02 bc
       -0.045485325 0.016752878 0.015853811 -0.007949258
000270 19 c0 3d ba 58 bf 2c 3c e9 6b a4 bc 35 2d 17 3d
       -0.00072384026 0.010543667 -0.020070987 0.036908347
000280 cd 1e ce 3b e3 16 c3 bc 92 fb b8 3c e2 72 e9 3c
       0.006290293 -0.023814624 0.022580896 0.028497163
000290 83 3a 83 b8 88 08 ff 3b 35 cd b9 3c f2 cf aa 3b
       -6.2574654e-05 0.0077829994 0.022680858 0.0052127773
0002a0 51 7b 15 bd d3 fd 10 3d a0 d3 80 3c ca 32 c7 bc
       -0.036494557 0.035398316 0.01572591 -0.02431621
0002b0 c7 f7 be 3c 94 14 91 bc 6f 03 ea 3c 4b e3 4f 3c
       0.023311509 -0.017710008 0.02856609 0.012688468
0002c0 3d 94 4a 3b 39 a5 2a bd 0a e9 b2 39 5f 7a 04 bd
       0.003091111 -0.041661475 0.00034124433 -0.032343265
0002d0 31 db 54 bd 06 6e 10 bc 7c 2a 39 3b bf 9e 36 3c
       -0.05196685 -0.008815294 0.0028254082 0.011146246
0002e0 87 dd 5a 3c 06 41 54 bb 85 75 ad 3a 0e 26 c0 3c
       0.01335848 -0.003238739 0.0013233876 0.023455646
0002f0 95 47 0e 3a 90 c5 80 3b 9b 55 9a 3c f8 90 e0 bb
       0.00054275367 0.0039298013 0.018839648 -0.006853219
000300 6d 51 f5 bc df 45 0c 3d b2 ab f7 ba 11 8d 40 bc
       -0.029946053 0.03424632 -0.0018895774 -0.011752383
000310 d1 30 3b bd da 67 da bc 93 0b d8 bc b8 09 00 3d
       -0.04570085 -0.026660848 -0.026372707 0.03125927
000320 e2 7f 0f bc 0b b0 66 bc 16 25 6c bc 86 ef 9f bc
       -0.008758517 -0.014080058 -0.014413139 -0.019523393
000330 5b 2d a7 3b 59 08 40 bd ae 62 cf bc 27 b9 e0 3b
       0.0051018423 -0.04688296 -0.025315609 0.0068580094
000340 1f e3 b0 3c 0e f5 b2 3c 34 58 a4 3c cc b3 60 3c
       0.021592675 0.021845367 0.02006159 0.013714742
000350 7d 00 02 3d 32 cc aa ba ad df 53 3c 1f 31 6c bc
       0.031738747 -0.0013030826 0.012931746 -0.014416008
000360 15 24 83 bc 87 21 18 bc 8f c7 a2 bc 00 c7 20 bd
       -0.016008416 -0.009285337 -0.019870548 -0.03925228
000370 07 83 4c bb c2 00 85 3c 21 a8 90 bc 95 0a 12 3c
       -0.0031206028 0.016235713 -0.017658295 0.008913656
000380 7f ab 34 3d d7 d0 02 bd 90 d9 ef bb 12 36 57 3c
       0.044108864 -0.031937446 -0.0073196366 0.01313545
000390 1a 0a b4 bc 47 be 9d bc 67 a5 b8 ba d1 d4 e7 3b
       -0.021977473 -0.01925577 -0.001408738 0.0070749302
0003a0 d4 bc 84 bc d1 ba b5 bb 9e 1e d4 bc ab 94 14 3d
       -0.016203322 -0.005545952 -0.025893506 0.036274593
0003b0 7d 83 67 bd fe ec d9 bc b0 1c 34 3c c8 8b 01 3c
       -0.05652188 -0.026602264 0.010993168 0.007906862
0003c0 26 91 3c 3d 99 51 92 bb eb 39 48 bd 66 3a 84 3a
       0.04603686 -0.0044652936 -0.04888336 0.0010088205
0003d0 8a c3 8a 3a 48 51 b1 3c 54 80 7f bc 08 c0 1e 3d
       0.001058684 0.021645203 -0.015594561 0.038757354
0003e0 b2 d2 77 bb fb 75 77 bd e9 08 8f bc 8b 5a 10 3d
       -0.0037814793 -0.06041525 -0.017460303 0.0352426
0003f0 4c 7b eb bc 74 42 0d bd 20 b4 5f bb e2 62 dc bc
       -0.028745316 -0.034487203 -0.0034134462 -0.02690262

action_model._continuous_distribution.mu.bias f4 [3]
000000 6b 4c 29 39 6d 24 0d bc 42 01 e7 bc
       0.00016145564 -0.008614642 -0.028198842

onnx::Div_61 f4 [68]
000000 a9 09 df 3e e1 b4 8e 3e f3 2d c0 3e 13 0e 96 3e
       0.43562058 0.27872375 0.37535056 0.29307613
000010 88 fa ff 3e c4 22 9e 3e b0 ca fa 3e b4 79 a1 3e
       0.49995828 0.308859 0.48982763 0.31538165
000020 2c 74 a7 3e 25 45 40 3e 6a f2 8e 3e 94 7b 8e 3e
       0.3270582 0.18776377 0.27919322 0.27828658
000030 5d fd ff 3e 6d 79 24 3e cd c0 ff 3e 28 13 95 3e
       0.49997988 0.16061945 0.49951783 0.29116178
000040 b9 93 54 3e 95 fc f8 3d e3 09 2f 3e 50 5a 70 3e
       0.20759477 0.12157551 0.17093615 0.23471951
000050 17 ca fe 3e e9 e4 a9 3d 08 6b fe 3e 7e 5c 8b 3e
       0.49763557 0.08295614 0.49691033 0.27219003
000060 92 35 29 3e ba 36 a9 3d 09 94 13 3e fd db 48 3e
       0.16524342 0.082623914 0.1441194 0.19615169
000070 07 b9 d4 3e d3 b1 83 3d 95 48 d3 3e 30 a3 80 3e
       0.41547415 0.06430402 0.41266313 0.25124502
000080 93 d2 0a 3e 1b f2 81 3d ce 5e f6 3d 7e 1f 29 3e
       0.1355689 0.06345006 0.12029801 0.1651592
000090 12 9c bd 3e 36 c0 68 3d 90 17 bc 3e be 1f 77 3e
       0.37033135 0.05682393 0.36736727 0.24133202
0000a0 92 b6 c9 3d c1 c2 50 3d cc 0e ad 3d f6 dc 0a 3e
       0.09849276 0.05096698 0.08450088 0.13560852
0000b0 59 5a bf 3e a9 1f 4f 3d aa 2d be 3e 55 5c 82 3e
       0.37373617 0.050567303 0.37144214 0.2546107
0000c0 88 06 98 3d 24 1c 33 3d 68 2a 76 3d 06 33 ea 3d
       0.07423121 0.04372801 0.060099036 0.11435513
0000d0 3f 64 c4 3e 4b 3b 30 3d 00 98 c3 3e 78 53 88 3e
       0.38357732 0.043025296 0.38201904 0.26626182
0000e0 23 72 85 3d 67 28 24 3d 64 c6 52 3d a8 7e d1 3d
       0.065159105 0.040077593 0.05145873 0.10229236
0000f0 6e 64 b0 3e a2 0f 3f 3d e5 35 af 3e c0 7a 7f 3e
       0.34451622 0.046645768 0.34220806 0.24949169
000100 bd 3b 6f 3d 72 1d 20 3d 16 06 32 3d e6 7c c0 3d
       0.05840658 0.03909058 0.043462835 0.093988225

onnx::Div_64 f4 [6]
000000 16 fb f8 3e 82 41 9e 3d 18 ce ec 3e c0 b6 a1 3b
       0.48629063 0.077273384 0.46250987 0.0049351156
000010 44 33 49 3a bb 78 ea 39
       0.00076751807 0.0004472191
