results/TestRun/BlueCar.onnx (onnx, 350882 bytes, 11 tensors)

network_body.observation_encoder.processors.0.normalizer.running_mean f4 [68]
00000000: 5bf0 de3e 40bf 153c c730 0e3f 8f3e 5e3f
00000010: c07a da3e 8ef8 f63b 81d4 103f d1bd 5e3f
00000020: 9830 1b3f f4c5 213c c790 c43e 808c 4f3f
00000030: 0c83 193f c1d4 d83b 7796 c93e c3c1 4a3f
00000040: 8162 503f d3ac 1e3c dd8a 343e 5730 2c3f
00000050: 6380 483f 6695 d93b 5531 573e e2e7 233f
00000060: 74d9 5c3f e110 163c b438 033e fe46 0b3f
00000070: 414c 5d3f 09e1 ce3b 4658 043e aeaa fe3e
00000080: 362b 683f 22de 193c ba6a ab3d 7bb3 e13e
00000090: 26d4 6f3f 2728 bc3b 0f37 6b3d d586 be3e
000000a0: 2186 753f c763 133c 05c6 023d 39b5 b53e
000000b0: 891d 773f 263e ae3b 6dbb f03c 2d29 9b3e
000000c0: ed6b 7b3f 3f1e 0b3c ddd4 193c fce2 993e
000000d0: db72 7b3f a256 963b e716 583c 9301 863e
000000e0: 682d 7d3f 22d6 0a3c 5403 273b e380 893e
000000f0: 9f80 7d3f 3daa 7b3b 03d4 c13b bc60 733e
00000100: 3575 7d3f d827 0d3c d0ee ab3a ae27 803e
0.43542752 0.009139836 0.5554318 0.86814207 0.42671776 0.0075369542 0.56574255 0.87008387
0.60621023 0.009873856 0.38391706 0.8107376 0.59965587 0.006617159 0.39372608 0.79201907
0.81400305 0.009684759 0.17631097 0.6726126 0.783209 0.006640124 0.21014912 0.640257
0.8626931 0.009159298 0.128146 0.544052 0.8644448 0.0063134474 0.12924299 0.49739593
0.90690935 0.0093913395 0.08369966 0.44082245 0.9368309 0.005742091 0.057425555 0.37212244
0.9590779 0.008995957 0.031927127 0.35489824 0.9652944 0.0053174673 0.029386247 0.30304852
0.98211557 0.008491098 0.0093891295 0.30055988 0.9822213 0.004587964 0.013189054 0.26173076
0.9889741 0.008473905 0.0025484161 0.26856145 0.99024385 0.003840103 0.0059151663 0.2376737
0.9900697 0.0086154565 0.0013117436 0.25030273

network_body.observation_encoder.processors.1.normalizer.running_mean f4 [7]
00000000: 9f68 903b 846e 8b3e 2de6 5f3f be66 1f3f
00000010: 2234 08bc 9e05 ba3e 0c3d 723f
0.004407003 0.27232754 0.87460595 0.6226615 -0.008313211 0.3633241 0.946244

network_body._body_endoder.seq_layers.0.weight f4 [256, 75]
00000000: b357 603d c828 6bbe f532 06be 330b 6d3d
00000010: a34c 733d 8062 183e cf81 aebc d335 a33e
00000020: 42ad 593e 8b32 bcbd 365d 11be c15d 5e3e
00000030: cec7 993e 84af 9bbd 3f3a 473c be6d d1bd
00000040: cfac e8bd ca8c c93d f515 fd3c 320a 0ebe
00000050: f31f 6b3d 1197 d03d 8567 bd3d 5ac9 b73d
00000060: f81e 103e 7ed0 e73d f422 c1bd aba4 29bc
00000070: 11d5 103d bcc1 39be f62f a3bc 1349 8dbe
00000080: 79f4 5e3d bc16 15be 4f0c acbb 41d0 29be
00000090: 15ff 3a3e bd18 62bd 686e e83c 3b26 363c
000000a0: e8ea 9f3d a13a d9bd b24e c7bb 426f 2dbe
000000b0: a17b 4ebe 30bd 713c 9bee 19bc 68fc 09bd
000000c0: 5909 b23d cc2e ff3c 399e ccbd 45e7 c2bc
000000d0: 203b 023d b6de 33bc e35b 083d 06dd 82bc
000000e0: 4ce1 633d 7fe7 1bbb 84a7 723e 87ce 53be
000000f0: 4153 1b3e c2ea 19bb 9afd 3fbd d675 94bc
00000100: f1a7 36be 2473 313e 25ab 4e3e 0c99 47bd
00000110: 90d3 dcbd 6cff 593d 9c99 f23d 000e 473e
00000120: 85db 32be 807f b5bc f26c 07be 92c9 80bd
00000130: 8dd8 35bd 82c0 823d 31b9 bfbd e8a2 ddbd
00000140: 3b4c febd 588a 143e 3058 133d ca0e e03d
00000150: 0d45 2ebd 21c6 993d 5b16 973e f1b2 7ebd
00000160: 2e69 40bd 8a41 19be 3e6c fc3b 8105 1f3d
00000170: e23f 403e 611e eebd 7e8b f7bd de8f 36be
00000180: 0df1 ea3b ed3b 96bc ccf2 143e 1505 8cbd
00000190: 8e59 bdbd 227d 18bd 8082 2fbe 5f76 5d3c
000001a0: 515b 3b3d 307b 8d3d fc89 ba3d 9f25 13be
000001b0: 70ae 33bd ff33 a5be 3efa 73bd ddeb cd3d
000001c0: a934 09be cb53 003e 7a7c afbd d8cb 11bd
000001d0: 369c a7bd d9da f1bd 03c1 98bd 1548 83be
000001e0: 4948 f0bc 89b6 413d 780e ee3c 94e8 773b
000001f0: d4c5 6fbe 8d2f 54be 286f d63c 1de7 ee3d
00000200: c96a 2cbd 6ae4 b93d ecfa 9b3d 2039 c5bd
00000210: 8c5b 673e 5a61 363d 485c aabd 59ae a13b
00000220: 921e 773d 6a3e a43c 54e2 c8bd e4ad a63d
00000230: 4436 073e 8f50 b33d 7d20 bbbb cd75 073e
00000240: d7ba 1d3e 7669 b4bc 1357 03be 9545 7cbe
00000250: 8211 b43d 1fe4 93bd 0da6 393e 098e d4bd
00000260: 93d2 fd3d 9d1e d53d 49ea bebd a741 623e
00000270: dfd8 fe3d b928 bc3c 1446 46bd 97e7 d33d
00000280: 10cc 36be 4ae6 9dbc e335 8cbd d113 ecbc
00000290: 96be c03c ab22 58bd 1323 aebb beff 69be
000002a0: 1dd9 eb3d 5dd0 073d fcab 9b3d 9f03 a6bd
000002b0: f415 713d 3043 8539 641d 71bd 10bb 063e
000002c0: 91e6 8e3d 6571 24bc 8022 d6bd 97ab a4bd
000002d0: 754c d13d af22 6cbe 61dc 18be b905 6a3d
000002e0: ba61 6cbe a7e0 0cbe 7b66 1d3d 10ad 59bd
000002f0: f950 3cbd 8688 ce3c addc 3c3d eae5 293e
00000300: c22d a63d 077c c93e b2d2 90bc 1710 97bc
00000310: 24aa a3bd 0bb9 1abd e08c 4abc 1545 19bc
00000320: 59ba cdbb 1a5f 9ebd 3d39 853e 5ae6 813d
00000330: ef2f 1abe 8dfe b5bd 5890 803d 5b89 0b3d
00000340: f102 46be 099f 7fbd 0edc 1bbe 0559 88bd
00000350: 226e 83bc 3d66 ffbd c220 4dbb c871 92bc
00000360: f5e7 c13d b844 d83c 3141 083d 347d bd3d
00000370: a8bd 193e d98f 34be de2e c2bd 0c84 363c
00000380: 7555 aabd 8f0c 9f3c 52d4 83bb 27c0 523c
00000390: b4c7 4b3e aedc a4bd c9eb c6bd 1bd1 053d
000003a0: 7eb4 adba 4225 c7bb deea 96be b7b7 c0bd
000003b0: cc1b 4e3e 8d3f e23d d6d5 373e bb08 5a3c
000003c0: 1075 4d3d 1d71 023e cf00 dfbd 302d 213e
000003d0: 94ce 813d 91c6 35bd 3bca 1d3e a780 85bd
000003e0: bfd2 033d 9a42 0ebe 0612 5e3e 0cd9 7ebb
000003f0: 91a8 2c3e 68f3 94bd 4898 28be bd68 9a3d
0.054771136 -0.22964776 -0.13105376 0.05787201 0.05939926 0.14881325 -0.021302132 0.31877002
0.21257499 -0.09189328 -0.14195713 0.21715452 0.3003525 -0.07601836 0.012159883 -0.1022601
-0.113610856 0.098413065 0.030894259 -0.13871077 0.057403516 0.10185064 0.092482604 0.08973952
0.14074314 0.113190636 -0.09430495 -0.010354201 0.035359446 -0.1814031 -0.01992033 -0.27594814
0.054432366 -0.14559454 -0.0052504907 -0.16583349 0.18261369 -0.055199374 0.028372958 0.011117513
0.07808477 -0.10606886 -0.0060823793 -0.16936973 -0.20164348 0.0147545785 -0.009395267 -0.03368798
0.08693189 0.031150244 -0.09991116 -0.023791919 0.031794667 -0.010978391 0.033290755 -0.015974533
0.05563478 -0.0023789105 0.23696715 -0.20684253 0.15168478 -0.0023485874 -0.046872713 -0.018122595
-0.17837502 0.17329079 0.20182474 -0.04872994 -0.1078254 0.053222105 0.11845705 0.19438934
-0.17466553 -0.022155523 -0.13225153 -0.062884465 -0.044395972 0.06384374 -0.09361494 -0.108220875
-0.124168836 0.14505899 0.035972774 0.10940321 -0.04254632 0.07508493 0.29509243 -0.06218237
-0.046975307 -0.14966407 0.007703333 0.03882361 0.1877437 -0.11626888 -0.12087153 -0.17828318
0.007169849 -0.018339122 0.14545745 -0.06836907 -0.09245597 -0.03722871 -0.17139626 0.013516991
0.045741383 0.06908262 0.0910835 -0.1436982 -0.04386753 -0.32266232 -0.05956482 0.10054753
-0.13398995 0.12531964 -0.08568664 -0.03559479 -0.08184092 -0.1180932 -0.07458689 -0.25640932
-0.029331343 0.04729322 0.029059634 0.0037827836 -0.23415309 -0.20721264 0.02617605 0.11665175
-0.042094026 0.0907677 0.07616219 -0.09630036 0.22593516 0.044526435 -0.083183825 0.004934114
0.06033189 0.020049293 -0.09808794 0.08138636 0.13204294 0.087556 -0.00571066 0.13228531
0.15403305 -0.022022944 -0.12826185 -0.24635918 0.08792402 -0.07221245 0.1812975 -0.103786536
0.123936795 0.1040623 -0.0932203 0.22095357 0.12443709 0.022968637 -0.048406675 0.10346907
-0.17851281 -0.01927485 -0.068462156 -0.028818043 0.023528378 -0.052767437 -0.0053142398 -0.22851464
0.115160204 0.033157695 0.07601163 -0.081061594 0.058858827 0.00025417795 -0.05886592 0.13157296
0.06977571 -0.010036801 -0.10455799 -0.08040541 0.10219661 -0.23060106 -0.14927818 0.057134364
-0.23084155 -0.13757573 0.03842781 -0.05314356 -0.04597566 0.025211584 0.04610889 0.16591612
0.08114196 0.39352438 -0.017678592 -0.01844029 -0.07991436 -0.037774127 -0.012362689 -0.009354849
-0.006278318 -0.07732983 0.26020232 0.06342764 -0.15057348 -0.08886442 0.062775314 0.03406654
-0.1933706 -0.062407527 -0.15220663 -0.06657604 -0.016043726 -0.12470672 -0.0031300043 -0.01787652
0.094680704 0.026399955 0.033265296 0.09252396 0.15013754 -0.17632999 -0.094815955 0.011139881
-0.08317081 0.019415168 -0.0040231133 0.0128631955 0.199004 -0.08049904 -0.09712941 0.03267012
-0.0013252643 -0.0060774395 -0.29476064 -0.09410041 0.20127791 0.110472776 0.17952666 0.013307746
0.050160468 0.12738462 -0.10888826 0.15739894 0.0633823 -0.04437882 0.15409176 -0.06518679
0.032183405 -0.13892594 0.21686563 -0.0038886694 0.16861178 -0.072729886 -0.1646434 0.075395085

network_body._body_endoder.seq_layers.0.bias f4 [256]
00000000: 78f2 fbbc e871 b8bd 62e5 123b 77f0 103d
00000010: 8d00 dcbb f91c 963a 4426 44bb 8d3b aebb
00000020: d8ce 9c3b f996 1f3d ccfa eb3c 1276 c33a
00000030: 54c9 cfbc a98c 153d 0f00 073d 2a48 7abb
00000040: 60ec 623c 793f ba3b 9244 8dbd 4307 ae3c
00000050: cb1c 70bd 5416 9cbd faa5 963c 85da 04bc
00000060: 3a49 03bd a32d a33c f108 853d 2cf9 d5bc
00000070: 22c3 083b 110b 2abc 309d 48bc 57df 203d
00000080: eea5 aebd f1c9 a03c ec7f 34bd aa93 903c
00000090: 2628 80bd 8631 043d 2c63 283d 4699 e8bc
000000a0: 79c2 cf3b 4845 0fbc 3f56 353d 2f34 72bd
000000b0: 24f5 3b3c c94e 8a3c 8a83 b2bb d7c5 53bd
000000c0: ef48 15bd b2f4 bdbc d237 333d b788 92bc
000000d0: 0ea6 3f3c 16b2 9e3c f83c 2dbb f93c 243d
000000e0: 7d48 99bc 925c 97bd 134a 0039 73e4 1e3d
000000f0: 9a1a 74bc 8e47 603c 34cb 0a3d 1829 e0bc
00000100: 9c90 323d bf52 283d d94f bdbd 3ea5 0e3d
00000110: 5074 2a3c 3764 a3bb ddc9 a8bc 21f7 4ebd
00000120: 85a6 febb d2a5 21bd 4bc7 42bc 2538 233a
00000130: 1d72 89bd 0eba a23c 081d 73bd 217f 4cbb
00000140: 4288 963c 53bb 4ebc efe9 b4bc 58ae 98bc
00000150: 09e0 1e3c abec 4abd 5024 c33c 0b1c a439
00000160: 724d 653b b8f4 123c f48d 08bd a6ba 663c
00000170: 946f 55bd 720b 45bd 17bf 1ebd fc08 51bd
00000180: 2e5c c8bc 7c9b d7bc 0d8d c0bb 35c9 20bc
00000190: d98c 333d 2249 51bd cb84 b9bc 2353 30bc
000001a0: 4891 1dbd b180 80bd cf39 93bc 770c 2ebd
000001b0: a5ab ed3b 01da 71bc 0b87 0ebd f825 b2bd
000001c0: f6cc 46bd b168 12bd d31d b3bd 2399 c7bc
000001d0: c8d1 80bc 2b31 2b3d 2582 543d c5b6 e0bc
000001e0: cd92 ea3c ddb6 e83c 36cf a3bd 821d acbd
000001f0: fbca b53c 856d dbbc 9e41 d13c 107c 94bd
00000200: abf4 14bd 40cb f03c 3673 96bb a8ed 39bd
00000210: ce0c e0bc 29cd 50bd 45f1 b2bc b018 03bd
00000220: cd31 fcbc 2ef9 a7bc 557f 8f3d b332 703c
00000230: ef3a afbb 3dbe 353c 0c71 8dbd 2901 943b
00000240: 50ea 633c 0021 ac3b 4b79 7a3d 2b85 ffbc
00000250: dc10 cabc b68e 60bd e9d6 363d 893d a0ba
00000260: 5cfb 72bc e8d4 63bd 1a76 683d ae22 a9bd
00000270: 6998 d7bc 5da9 bfbb edd6 e0bc 9775 7f3c
00000280: c34b f73c 5d32 64bd e743 403c 9dda c13b
00000290: d2d1 713d ce8e 17bd 0d64 c4bc f5d0 6c3d
000002a0: c098 053b cd17 5abd 6dd4 3fbd 9b52 853c
000002b0: 98fa 84bd c578 08bc 0b27 24bc 9acb e43c
000002c0: fcad 033c 3bc9 24bc 3b2c 69bd ca37 80bd
000002d0: 804b e63c f548 09bb 8795 1cbd 692d 003d
000002e0: 78fd 26bd e48b 98bd 308b 6e3c 5488 a03c
000002f0: 54e2 2bbd bb08 bfbc 175b 1a3c ee4c 8fbd
00000300: 9445 ce3c c4b4 253d 3565 dfbb ef01 c9bc
00000310: b768 48bd 0810 3ebd 7210 a53c f7fe fb3c
00000320: 596a 5a3b 9f14 96bd 548e 9d3c 73e6 5b3d
00000330: c282 d2bd 31d5 5dbd ebaf b3b8 eddc aa3d
00000340: 2f94 3b3d 6c8e 4a3b b067 bf3c 69cd d13c
00000350: 8175 ecbc 48ca b03c c0f0 8dbc 0991 853d
00000360: 5261 96bc ef15 3e3d 6d37 7dbd 3ffd 30bd
00000370: 2595 56bd 62e8 75bd af59 e2bc be35 b3ba
00000380: 259d 783c 0640 1bbd 07a6 0abd 81af 98bc
00000390: 61bf 393d 367d f9bc 9b57 5ebd 316f 743c
000003a0: 2483 8b3c b2d3 1bbd 7e98 613c e61b c83c
000003b0: 04a5 1c3d eddb 883d 0ad7 1e3d e2cb 823d
000003c0: 30ee 39bc 9228 73bd f66d 01bd 5aa3 95bb
000003d0: 5473 1d3d 0aa5 a33b b9f0 49bc 8af6 3b3d
000003e0: 6a23 8cbc ade6 2e3c 4d2e 24bd ed0d 2fbd
000003f0: b310 49bd 1d6f 1d3d 052e 87bc 2941 bdbc
-0.030755267 -0.09006101 0.0022414555 0.035385575 -0.006713933 0.0011452726 -0.0029930035 -0.0053171576
0.0047854 0.038962338 0.028806113 0.0014912507 -0.025364555 0.036511097 0.03295904 -0.0038189986
0.0138503015 0.005683836 -0.068978444 0.021243697 -0.05862121 -0.07621446 0.01838969 -0.00810874
-0.032052256 0.019919222 0.06495846 -0.026119791 0.0020868261 -0.010378615 -0.012244508 0.039275493
-0.08527742 0.019627543 -0.04406731 0.017648537 -0.06257658 0.03227379 0.041110203 -0.028393399
0.0063403216 -0.008744545 0.044271704 -0.059131797 0.01147202 0.01688327 -0.0054478096 -0.051702347
-0.036446508 -0.023187969 0.043754406 -0.017887456 0.011697305 0.019372027 -0.0026434045 0.04009721
-0.018711323 -0.07390703 0.00012234626 0.038792085 -0.01489892 0.013688935 0.033885196 -0.027363345
0.04359494 0.041094538 -0.09243745 0.034825556 0.010403708 -0.004986312 -0.020604068 -0.05052865
-0.0077713155 -0.03946478 -0.011888335 0.0006226323 -0.067112185 0.019864108 -0.05935386 -0.0031203704
0.01837552 -0.012617904 -0.022084204 -0.018637821 0.009696969 -0.04954211 0.023821026 0.0003130141
0.0034988788 0.008969478 -0.033338502 0.014082586 -0.052108362 -0.04810662 -0.038756456 -0.05103396
-0.024458017 -0.026319258 -0.0058761896 -0.0098135965 0.043835495 -0.051095136 -0.022646328 -0.010762009
-0.03846863 -0.06274546 -0.017971901 -0.042492356 0.0072531276 -0.014761449 -0.034796756 -0.08698648
-0.04853531 -0.035744373 -0.08745923 -0.024365013 -0.015725031 0.041794937 0.051881928 -0.027430901
0.028634453 0.028407509 -0.07998507 -0.08404066 0.022191515 -0.026785621 0.025543984 -0.072502255
-0.036366146 0.029393792 -0.004591371 -0.045392662 -0.027349856 -0.050976906 -0.021843562 -0.032005966
-0.030785466 -0.02050456 0.070067085 0.014660525 -0.0053476016 0.01109272 -0.069063276 0.00451674
0.013910845 0.0052529573 0.06115083 -0.03119143 -0.024666242 -0.0548236 0.044638548 -0.001222537
-0.014830437 -0.055622965 0.056753255 -0.08258568 -0.026317792 -0.005849047 -0.027446235 0.015592
0.030187493 -0.055712093 0.011734939 0.0059159533 0.05903799 -0.037001424 -0.02397349 0.057816464
0.0020385236 -0.053245354 -0.046833444 0.01627474 -0.064931095 -0.008329575 -0.010019074 0.027929116
0.008037087 -0.010057743 -0.056926947 -0.06260641 0.028112173 -0.0020948027 -0.038228538 0.031293306
-0.04076907 -0.07448557 0.014559552 0.019596256 -0.04196389 -0.023319593 0.009421132 -0.06997095
0.025179662 0.040455595 -0.0068174847 -0.024537055 -0.04892799 -0.046402007 0.020149443 0.030761225
0.0033327548 -0.07328152 0.019232906 0.05368657 -0.10278846 -0.054158393 -8.5681524e-05 0.083429195
0.045795616 0.0030907644 0.023364872 0.025610643 -0.028864624 0.02158083 -0.017326713 0.06521804
-0.018356953 0.046407636 -0.061820436 -0.043210264 -0.05238833 -0.06003607 -0.027630655 -0.0013672633
0.015174185 -0.037902854 -0.033849742 -0.018638374 0.04534853 -0.030455213 -0.054282766 0.014919088
0.017030306 -0.038043685 0.013769267 0.024427366 0.03824331 0.066825725 0.038779296 0.06386544
-0.011348292 -0.059364863 -0.031599008 -0.004566592 0.038440064 0.0049940394 -0.012325459 0.045889415
-0.01710673 0.010675115 -0.04008322 -0.04273789 -0.04908819 0.038436044 -0.016501436 -0.02310236

network_body._body_endoder.seq_layers.2.weight f4 [256, 256]
00000000: f60f d33c 8b6b 8bbd 3e58 f1bd 31bb d8bd
00000010: 8bf4 2bbe 8bb8 ad3c 9a91 16bc 3943 b43c
00000020: f8ff b5bc de20 863a 4266 94bd e6a0 ca3c
00000030: 8d62 653d 799e 0cbd e06c 243b be44 53bd
00000040: 9222 abbd bb58 26bd 59e6 493d afba 863d
00000050: 28c8 a23a bce2 183c d660 79bd 1eb1 bdbb
00000060: 9c9e c93d 9e1f fc3c 8b6c 4cbd 199b 3dbe
00000070: 7613 263d 5cc2 cdbc 6834 673d 5c37 f3bd
00000080: 93f9 433c 84eb 8ebc 14ed 8ebd 9de5 463c
00000090: 4245 b73d fd98 3cbd 571b 6a3c 08cc 943c
000000a0: d795 90bc 5528 703d 387c b2bd 47a5 03bd
000000b0: 2b61 76bd 87e9 8fbd 1487 79bc 1e93 b73d
000000c0: be66 bd3d e439 97bd 4473 5ebd 9a50 5d3d
000000d0: 4df3 49bc e460 2fba 33e7 173e adab 9bbd
000000e0: 0b32 3bbd ac54 583e 951b ecbc 4af7 2dbe
000000f0: 4f0f 46bd 5064 6ebd e379 0fbe 7086 8b3d
00000100: 29dd 6ebe 7b9e d6bc 2db3 f53d 49de 61bd
00000110: 76ac 28be 2e73 193e 4859 27bd d740 853d
00000120: 88ea b53c 1230 9b3c 6a51 7abd a34d f43c
00000130: 129b 3dbd 8459 9cbd 410d 5b3a 3f30 4fbd
00000140: 1b01 92bb 1f1f 0bbd 9470 553d 91e1 b33c
00000150: 1e14 413b 221c 093d 3a94 95bd 1eb6 adbd
00000160: d3a5 dbbd 1b49 c83d 46ac 253c 335b 28be
00000170: 11e9 a4bd cc65 c33c 24a1 bebc 485d 823d
00000180: d6a1 03bd 5cfa 5d3c 8520 743d 68e5 77bd
00000190: b358 adbc a31a 243c 0f59 a53c 31bc cfbc
000001a0: 3a34 a63d e255 6539 ce5d 3fbd 009b afbd
000001b0: 2f4e d2bd 0334 ccbb 2a96 75bc 50b1 393d
000001c0: a66c 383d b445 16bd 22a0 08be 36a0 cc3c
000001d0: 35f5 663d 4982 d93c ba83 a1bd 98db 99bd
000001e0: 406e a1bc 888e eabd 4402 2c3d f2ba d2bd
000001f0: 0e8f 863c 81eb a93d 19f1 85bd d2fa fdbc
00000200: a7de 3bbd 22ca 03be b47e c4bd c736 0abd
00000210: d1e2 59bd 6669 5abc 609c 933d 0c51 3fbe
00000220: 6627 08be 5a84 36bd 6210 cabd 12dd c53d
00000230: ad86 953c 155b 323b 2075 cebc 30b9 b93d
00000240: 794d 89bd 6dec 2f3d e750 933b 974f 1ebb
00000250: 3f50 053d fc5e 0cbe 2ad0 2b3d 4d4a fcbb
00000260: 4ac5 1c3e 567c 51bd ef99 1fbe 7adf 9fbc
00000270: 33e4 5abd a1f5 2abc 4681 683d 7afe 9abd
00000280: ab01 99bd a6fa ccbb c94c 983d 6dc1 563d
00000290: 78a0 bdbd a936 aabd 5cfc 863c 3e1e 52bd
000002a0: c6c6 563d b283 2e3a 4cdf 96bd 4230 5dbe
000002b0: 1b69 c6bd 53b7 cc3c 3d06 5cbc a8fd b8bd
000002c0: e4c5 873c 87b7 c63d 3a2f 863d 37e0 97bc
000002d0: 4254 41bc 963b b13c c5f1 6cbd 0519 bbbc
000002e0: 6762 cebc 6bb0 ac3c f055 61bc 96ac 583c
000002f0: d8f6 a63c d0fa b7bd cf84 10be c3f5 723d
00000300: 1b9b b5bc 8c9e 2ebd 53b8 b03d 07e3 39bd
00000310: b2bb d8bc ea62 18be 37c0 44be 5f9c 4abe
00000320: b2c1 653e ba73 103e 024d 8abc d148 a6bd
00000330: 5fbf 2bbd 0033 47bd 9616 0d3e a97a 0abe
00000340: c651 0e3d a580 e33c 0b13 ae3c 61dd a93d
00000350: dd8c a83d 1e80 adbd 0db1 34be 38f9 313b
00000360: 4892 523d b953 28bd 0980 e13c 9c3a 813d
00000370: 5be2 67be 5ccb 603d 9ece 4c3c ab74 323e
00000380: 4dd2 babd 6f42 cbbc baf7 6c3c 2c63 8bbd
00000390: b0da 783d 2824 233d 2949 02bd f913 543d
000003a0: 3968 25bd 448b 78bd 0a34 9bbd 59a5 f5bd
000003b0: d2ea 40bd f954 b6bd 57d4 9bbd 29b8 09be
000003c0: 637c 893d ec73 07bd db21 fbbd 9655 dabd
000003d0: 0d9f 9ebc 8f51 08bd 783b 9a3a fd05 03be
000003e0: bb45 db3c 561a ffbd 38be 92bd 7dcd 9c3c
000003f0: 40a0 09bd 2a00 16bd 94b7 453c 9dda d1ba
0.025764447 -0.068076216 -0.11784409 -0.10582579 -0.16792504 0.021206161 -0.009189988 0.02200471
-0.022216782 0.0010233184 -0.07246067 0.024734925 0.05600219 -0.03433082 0.0025089309 -0.05157923
-0.08356203 -0.040611964 0.049291942 0.06578576 0.001241927 0.009331401 -0.060883366 -0.0057889363
0.098447055 0.030776795 -0.049908202 -0.18516196 0.040545903 -0.025117092 0.056446463 -0.11875793
0.011961359 -0.017446287 -0.06978813 0.012139705 0.08948757 -0.04604434 0.014288745 0.018163696
-0.017649574 0.058632214 -0.08715099 -0.032140043 -0.06015126 -0.07026964 -0.015229959 0.08963607
0.09248112 -0.07384089 -0.054309145 0.054031946 -0.012326074 -0.0006690158 0.14834289 -0.07601104
-0.04570202 0.2112605 -0.028821746 -0.16988865 -0.048354443 -0.058201134 -0.1401134 0.06812751
-0.23326553 -0.026198616 0.11997066 -0.05514363 -0.16472039 0.14985344 -0.04085663 0.06506508
0.02220656 0.01894382 -0.0611128 0.029822176 -0.046290465 -0.07634261 0.0008356162 -0.05058312
-0.004455698 -0.033965226 0.052109316 0.021958144 0.0029461454 0.033474095 -0.073036626 -0.08482002
-0.10724988 0.09779569 0.010111874 -0.1644104 -0.080522664 0.023852251 -0.023270197 0.06365448
-0.03213676 0.01354846 0.059601326 -0.060521513 -0.02116046 0.010016116 0.020184068 -0.025358291
0.0811543 0.00021871136 -0.04672032 -0.08574486 -0.102688186 -0.006231786 -0.014989415 0.045335114
0.04502549 -0.036687568 -0.13342336 0.024978738 0.05638619 0.026551383 -0.07886453 -0.07512587
-0.019705892 -0.11452967 0.04199435 -0.10289563 0.016425636 0.08296872 -0.06540126 -0.03100339
-0.045866635 -0.12870076 -0.09594479 -0.033743646 -0.053194825 -0.013330793 0.072075605 -0.1868326
-0.1329628 -0.044559814 -0.09866406 0.096613064 0.018252695 0.0027214934 -0.025202334 0.09068525
-0.0670423 0.042950083 0.0044957283 -0.0024156326 0.03254723 -0.13708109 0.041946568 -0.007699287
0.15309635 -0.051143967 -0.15586065 -0.019515742 -0.053440284 -0.010434539 0.05676391 -0.07568069
-0.07471021 -0.0062554656 0.074365206 0.05243056 -0.092591226 -0.08311207 0.016477756 -0.051298372
0.05243566 0.00066571974 -0.07366809 -0.2160044 -0.09688016 0.02498976 -0.013429222 -0.09032756
0.016573854 0.09702974 0.065519765 -0.018539531 -0.011799874 0.021634858 -0.057847757 -0.022839079
-0.025193406 0.021080216 -0.013753399 0.013224741 0.020381376 -0.089833856 -0.14113162 0.059316408
-0.022168687 -0.04263167 0.08628907 -0.045382526 -0.026456688 -0.14881483 -0.19213949 -0.19786213
0.2243717 0.14106646 -0.016882423 -0.081193574 -0.041930553 -0.04863262 0.13778147 -0.13523354
0.034745954 0.027771303 0.021249315 0.08294178 0.082299925 -0.08471702 -0.17645665 0.0027156603
0.051409036 -0.04109547 0.027526872 0.06310007 -0.22644942 0.05488144 0.012500433 0.17427318
-0.09122143 -0.024811951 0.0144633595 -0.06806025 0.06075543 0.039829403 -0.031808052 0.05177686
-0.040382598 -0.06067969 -0.07578285 -0.11994428 -0.047098942 -0.08902926 -0.0760886 -0.13449158
0.06713178 -0.033069536 -0.12262317 -0.106608555 -0.01936295 -0.033280905 0.0011766991 -0.12795253
0.026766649 -0.12456195 -0.071651876 0.019140953 -0.033600092 -0.03662125 0.012067694 -0.0016010586

network_body._body_endoder.seq_layers.2.bias f4 [256]
00000000: a6ac 15bd 4431 20bb 98f8 a0bd d495 203d
00000010: 6ad9 1b3d 30ba a1bd 9caf 74bd c091 b2bc
00000020: a43e e7bd 9604 2dbd aaa5 803d f90a 3d3d
00000030: 5dca acbd 608f b9bc 31ca 8dbc 24f5 51bd
00000040: b2cd f63c 225a 3c3b a882 93ba a598 23bc
00000050: 3632 b3bc 6b30 483d 02e3 b3bc 1428 7b3d
00000060: 0259 4b3d 3ea0 f43c 5cb8 443b 0f6f 3cbd
00000070: 9e37 ba3c 0b5c ee3c e27e 8cbd e6db dc3c
00000080: 3209 f5bb a1aa 0cbe 88c2 93bd be28 2ebc
00000090: fad7 23bd e1c7 3f3d 0b10 12bd 9f95 28bd
000000a0: 9942 b2bd 715e 53bd 7dce 54bd e943 683c
000000b0: bdcd bf3c cba4 2ebc bb91 2e3c 1dcb 22bc
000000c0: 896d 413c 3ea5 99bd 553a ab3c a09d 51bd
000000d0: 5837 96bc b8b6 07bd c185 27bd e43b 90bd
000000e0: fb39 c0bc e716 893c aed2 0e3d 2a37 0ebd
000000f0: d4bb 6d3c bda6 6fbd 5a87 e1bd 75ba a73c
00000100: 9d79 023d a455 913c a09f 79bd 85be 86bd
00000110: 8bb6 3dbd 332b c4bc 8ef1 2d3c 4bd6 073c
00000120: 1f87 7ebd 504f 08bc b8d3 22bd cb9b 4e3d
00000130: b782 98bd 6e3b 643b 8bea 15bd 403e 92bd
00000140: 8dd8 b73b 939b 72bd 59f6 78bd 0851 e3bc
00000150: c77e 883c e22b 15bd 87a7 2f3d d6e9 4c3d
00000160: 8762 8abb d883 dbbb 627f d1bc f89a 81bd
00000170: c02c eb3b 9568 aebd 9157 193d 6751 4bbd
00000180: aaf6 80bd 0b53 2e3d eb91 12bc ac84 c7bc
00000190: fee1 b4bb d076 213c c4de dbba b0e2 b03c
000001a0: 8801 ffbb 8a58 0d3d dcc1 36bd 1c60 a93b
000001b0: 709c 17bd a662 3abd bdbc 16bc 9f0e 5ebd
000001c0: bf4a 4e3d 714f e43b 8084 633d 0452 273c
000001d0: 8c4f 6e3c 03d7 853c 44f0 963c 189d 8ebd
000001e0: 00c2 a0bd 7dbe 273c 2eb6 5c3d 4cac 76bc
000001f0: a998 683d cb35 88bd 7c48 b6bd 23f9 e4bb
00000200: cbdb 88bd a583 923b bee6 ac3c 8ff8 2ebd
00000210: 8369 583c 22ac 773d 8d00 48bc 683d 6c3d
00000220: 9773 5bbc 89cd 7ebd fa90 373d 9ee9 eabc
00000230: e9f2 97bd dcae 4b3c 2a86 c43c fb79 9dbc
00000240: 6c55 69bd 8c0d 5dbc c189 10b9 7f35 863c
00000250: 0937 f3bc 0fb4 473c 7539 83bd 6d22 053c
00000260: 5850 67bd 4b65 71bd 1560 a7bb 54df 99bc
00000270: eaab 3d3c c4ec 113c 212c 78bd 8247 0ebd
00000280: d5af 86bd 4d7d b2bc fe75 5bbb 3f00 75bd
00000290: d6db c1bd 48b4 003d d454 333d 04d6 c6bc
000002a0: 9162 833c b3d5 f53a d805 d23c 3965 4bbd
000002b0: 347a 84bc 6e1b 01bd 04a1 193d 4a25 f1bc
000002c0: fabb 3f3d 66d0 aabc ce92 40bc 28c2 8f3b
000002d0: c914 b5bd 28ca 6bbd 8a28 a2bc bb35 fd3c
000002e0: fe06 683c 9203 f1bc fcda 68bd 615e 7dbc
000002f0: 36b6 71bd 731e 24bc 7b77 a33c 3ff1 883b
00000300: 71a5 5e3c e6c0 cebd c835 ce3c 2166 993b
00000310: 45af 94bd 674d 4dbd c415 44bd 6cc9 8ebc
00000320: 3432 8cbd f5e4 653c 585e 413d 53e2 5e3c
00000330: 9050 e5bd 1eeb ebbd 86d2 fc3b 5073 213c
00000340: 1361 9bbd e55c cc3b 88ef 16bd 05df 203c
00000350: f9b2 dfbc 0f19 37bc ad43 17bd 7157 08bd
00000360: 50c7 7ebc 2fe3 3c3a 73d9 afbc 4db9 17bd
00000370: 01e0 163d f285 e9bc f32b 81bd 6a63 7bbd
00000380: 8b93 09bd 36ae d2bc adb7 a8bb f734 91bc
00000390: a31b 97bd 88af bcbb 2a62 43bd 0b69 e43c
000003a0: 3728 c83c 0772 60bd 3220 88bd b1b9 afbc
000003b0: fd88 743c dcc5 18bd 7740 adbb 0402 13bd
000003c0: df11 6ebc c26c 45bd ab41 7c39 1668 07bc
000003d0: 34b8 31bd 14b7 933c c167 1c3b 51df 17ba
000003e0: eb8d 20bd 36f6 2abd 29dc 22bd 8071 ecbc
000003f0: 6a8d 47bd 95f6 5abd 325a 4b3c d78b 8a3b
-0.036541604 -0.0024443427 -0.078599155 0.039205387 0.03804914 -0.078968406 -0.059737787 -0.021798015
-0.112912446 -0.0422407 0.06281598 0.046153042 -0.08437035 -0.022651374 -0.017308326 -0.051259175
0.03012738 0.0028740247 -0.0011254149 -0.009985124 -0.021874528 0.0488743 -0.021958832 0.06131752
0.04964543 0.029861566 0.0030017113 -0.04600435 0.022731598 0.029096624 -0.068601385 0.026960324
-0.007477903 -0.13736965 -0.07214838 -0.010629831 -0.040000893 0.04682148 -0.03565983 -0.041158315
-0.08704109 -0.05160374 -0.051954735 0.014176347 0.023413533 -0.010659407 0.010654862 -0.009936121
0.0118059 -0.075022206 0.020901838 -0.051175714 -0.018336937 -0.03313324 -0.040899042 -0.07042673
-0.023465147 0.016734554 0.03486889 -0.034720577 0.014510114 -0.058508623 -0.110121444 0.020474652
0.03185426 0.017741032 -0.060943246 -0.065793075 -0.046316665 -0.02394638 0.010616673 0.0082908375
-0.06214058 -0.008319691 -0.039752692 0.050441545 -0.07446807 0.0034825462 -0.03660063 -0.071407795
0.0056105317 -0.0592304 -0.06078181 -0.0277486 0.016662015 -0.036418803 0.042884376 0.05002769
-0.004223171 -0.0066990666 -0.025573436 -0.06328386 0.0071769655 -0.08516041 0.037437025 -0.04963818
-0.062970474 0.042559665 -0.008945922 -0.024355255 -0.0055201044 0.009854987 -0.0016774763 0.021592468
-0.007782165 0.034508266 -0.044618472 0.005168928 -0.037014425 -0.045504235 -0.009200272 -0.054213163
0.050364252 0.006967478 0.055546284 0.010212425 0.014545333 0.016337877 0.018425114 -0.06963557
-0.078495026 0.010238287 0.053884678 -0.015055727 0.056786213 -0.06650885 -0.08900544 -0.006987707
-0.06682547 0.0044712597 0.02110612 -0.042717513 0.01320875 0.060466893 -0.012207163 0.05767575
-0.013394258 -0.062207732 0.044815995 -0.02867585 -0.07419378 0.012431826 0.023989756 -0.019223204
-0.05696623 -0.013491999 -0.00013784227 0.01638293 -0.029689329 0.012188925 -0.064074434 0.0081258835
-0.056473106 -0.05893449 -0.0051078894 -0.018783249 0.011576632 0.008906547 -0.06058896 -0.034736164
-0.06576506 -0.021788264 -0.0033487077 -0.059814688 -0.094657585 0.03142193 0.04378207 -0.024271972
0.016038211 0.0018755704 0.025637552 -0.04965708 -0.016171552 -0.0315203 0.037507072 -0.029436726
0.046810128 -0.020851325 -0.011753751 0.004387159 -0.08841855 -0.057565838 -0.019794721 0.03090941
0.014161823 -0.029420648 -0.056849465 -0.015464396 -0.05901166 -0.010017025 0.019954434 0.0041791494
0.013589249 -0.10095386 0.02517213 0.004681364 -0.072599925 -0.050122645 -0.04787232 -0.01743003
-0.06845513 0.014031638 0.047209114 0.013603765 -0.11197007 -0.115194544 0.007715526 0.009854153
-0.07586875 0.00623666 -0.03684953 0.009818797 -0.02730702 -0.011175408 -0.036929775 -0.033286516
-0.0155504495 0.0007205484 -0.021465993 -0.03704195 0.03683472 -0.028506253 -0.06307211 -0.061374106
-0.033587974 -0.025717836 -0.005148849 -0.01772545 -0.07378318 -0.0057582296 -0.04770104 0.02788212
0.024433238 -0.054796245 -0.06646766 -0.02145085 0.014925239 -0.03729807 -0.005287226 -0.035890594
-0.014530628 -0.048199423 0.00024057056 -0.008264562 -0.04338856 0.018031634 0.0023865553 -0.00057934696
-0.039197844 -0.04173871 -0.039760742 -0.028862715 -0.048718847 -0.053457815 0.012411641 0.004228096

action_model._continuous_distribution.log_sigma f4 [1, 3]
00000000: 09b2 a5be f7ef 90bf d534 c1be
-0.32362393 -1.1323231 -0.3773562

action_model._continuous_distribution.mu.weight f4 [3, 256]
00000000: 3335 80bc b0dc 233b 4a33 7b3b 44ec ae3c
00000010: 6790 183d f6a3 2fbd 82df b7bc e13e 90bc
00000020: cd3c 22bd 81f6 58bd ebc5 103d b8a9 cb3b
00000030: fb93 f6bc 1fff d93b c066 6abc 9b22 b83b
00000040: 815e 89bb d9a5 3dbc 5e2a 383d 2417 8c3c
00000050: 198e 143d cee2 d73b cab4 5c3c 6039 d13c
00000060: 470b 3e3d 4bad 653d 9115 3e3c 4cbe 5fbc
00000070: 8f5b 38bb ca6d 993c 4fc4 80bd 9cea 183d
00000080: 8ff6 05bc 8448 3ebd ff96 d2bc 03ac 703c
00000090: 96f5 dfb8 44e1 4a3d e76b debb d02d fbba
000000a0: 7a88 68bd 69fe 02bd 9ab4 67bd 0cc0 663d
000000b0: 7cf9 523d a616 18bc 3f80 b2bc 1824 c73b
000000c0: dd58 fc3c 1967 2ebd 8ea8 6e3c 8be8 993c
000000d0: 3693 c0bc 6b62 30bd 45c6 873c 545c 44bc
000000e0: 22a2 b4bb b7ce 23bd a41d c53c e1f1 9e3b
000000f0: 0d29 31bb 55d1 3dbd 2a01 64bd be45 bf3c
00000100: 7a0a a73d 8dfa 3dba c08c 6cbd 86a0 2fbd
00000110: b4a2 56bb 2773 1d3c 4b34 f13b d403 a83c
00000120: 4d58 13bc 9b69 4abc 2c1e 9c3c fb4f f8bc
00000130: 66a1 76bd f165 36bc cb91 faba 9fd4 57bc
00000140: 0e30 cdbb 26cf 2fbd b003 d3bb b5f5 d13b
00000150: 1cfb 9939 cfa7 4ebc 13d4 ad3c 3a60 263d
00000160: 4dff 713b 2dea 823a 3cda 35bc 6acb df3b
00000170: 7090 a43d 51ca 58bc e038 d43b e8b3 273c
00000180: 50ce 9bbc e881 763c b0f7 87bd bb85 10bc
00000190: fb73 7fbc a1ac 3d3d f90f 29bc 9737 30bc
000001a0: 5257 3e3c 1bfe 693c 70ed 1bbd 7f02 da3b
000001b0: 9ba0 18bd f177 8ebc e39f e13c 55f5 e33c
000001c0: 377f cf3c a423 743a fc9a 9f3d 5ae8 9b3c
000001d0: d9b7 e53c 55f8 a33c ac75 f03b d6cc fbbc
000001e0: 59de a7bc 8469 1c3c 10d8 8f3c 3a93 4cbc
000001f0: 1c81 0a3d c5d4 0bbd 8a61 aabd 2cf7 f83b
00000200: bcbd b3bc 65ff 87bb 0f8f 90bc 55f4 82bd
00000210: 9253 813d fd3a cd3a 67d4 e63c a46b 453d
00000220: 35e4 073c 81e9 3ebb f3bb 363d d972 9f3c
00000230: 5b52 fdbc 975c cd3a 7eae 463d b4df 0f3d
00000240: 193d 3abc fa81 cdbc ebf7 fb3b 92e8 98bc
00000250: d8ca 80bd 3bbe f33a fb32 e5bc 3d09 1e3b
00000260: de81 0cbd 9873 31bd 5949 dabb 9ef9 b0bc
00000270: fbcc 373c 722c 4d3a c1aa cabd 3306 20bc
00000280: 81f2 0abb 6f84 0dbb e468 1c3b 833c 98bc
00000290: 6b2f 49bd f281 f0bb 0a40 733d 17a7 1c3c
000002a0: 9dec 30bc 4df7 ddbc 32bc b53b ad4b 72bc
000002b0: 503f 153a 0e17 79bd 8386 443c 278f 2f3c
000002c0: 8ac1 0a3d c461 71bc 9670 843c f292 38bb
000002d0: e274 6dbc b4ca bcbc b0f3 86bd 6c1d ff3c
000002e0: 18c5 29bd d9f4 d6bb 6bfb cbbc 6210 c83c
000002f0: 25cc 80bc 22e2 6cbb 4208 f43c 03fc 193d
00000300: b192 f6bc a3c9 82bc a423 303d 8eed 353d
00000310: 32ec 0dbd e003 113b 11bb e5bc 6546 8abc
00000320: c405 2abd c116 0e3d 9dea 563d 583c 8abb
00000330: 9480 59bd 5da8 7abd cb92 923c d47e d03b
00000340: f0a3 1f39 756e 90bb ece3 633c d293 013d
00000350: 4395 2dbd 06ac 233d 81c2 1a3d e6eb 25bd
00000360: c330 863c 1959 433d e9ea 31bc d0ba 0e3c
00000370: 2e88 f73c 9fe6 1dbd e9bd 1dbc 038c 9dbb
00000380: 093d 49bd d129 2abd dc20 1bbc 283e 0d3d
00000390: af47 b6bd 972e 27bd f16d 1c3a a54f 663d
000003a0: e6de 8ebb 77e5 dcbc 31ef f3bc 3e4f e33b
000003b0: 8d23 bcbc 45de a6bc 00a5 5dbc c9a6 3dbd
000003c0: a8c3 a8ba 7065 29bd 56ab 573c 56ff 8eba
000003d0: 0070 8abb 4978 cc3c 6127 34bc 86fa 9bbb
000003e0: 85aa 00bd 705a 3abd a571 abbc 941d eebb
000003f0: 305e 65bd fc01 c9bc 2f96 f03c 9279 c0ba
-0.015650367 0.0025003366 0.0038330131 0.021352895 0.037247088 -0.042880975 -0.022445444 -0.017608108
-0.039608765 -0.05296946 0.035345 0.0062153004 -0.03009986 0.0066527273 -0.014306724 0.0056193597
-0.004192174 -0.011575186 0.04496228 0.017100878 0.036268327 0.0065883165 0.013470838 0.025540054
0.046397474 0.05607347 0.0116018215 -0.01365621 -0.0028130745 0.01872911 -0.06287443 0.037333116
-0.00817646 -0.046455875 -0.025706766 0.014689448 -0.000106792126 0.049531236 -0.0067877653 -0.0019163433
-0.05677078 -0.031980906 -0.05656872 0.056335494 0.051507458 -0.009282744 -0.021789668 0.0060773008
0.030804092 -0.04257879 0.014566554 0.018787643 -0.023507696 -0.04306261 0.016574034 -0.011984903
-0.005512492 -0.03999206 0.024061985 0.0048506116 -0.0027032525 -0.046342213 -0.055665173 0.023348685
0.08156295 -0.0007247113 -0.057751417 -0.042877696 -0.0032750787 0.009609974 0.00736097 0.020509638
-0.0089932205 -0.01235428 0.019057356 -0.030311575 -0.060212515 -0.011132703 -0.0019116936 -0.013173251
-0.006261832 -0.04292216 -0.0064396486 0.0064074644 0.00029369525 -0.012613251 0.021219289 0.040619113
0.0036925853 0.0009988003 -0.011099394 0.006829669 0.08035362 -0.01323183 0.0064765066 0.010235764
-0.019019276 0.0150456205 -0.066390395 -0.008820946 -0.015591617 0.04630721 -0.01031875 -0.010755441
0.0116174985 0.014281775 -0.038068235 0.0066531296 -0.03726254 -0.017391177 0.02754206 0.027826944
0.025329215 0.0009313172 0.07793233 0.019031692 0.028041767 0.020015875 0.0073382463 -0.030737322
-0.020491766 0.009546641 0.017559081 -0.012486273 0.033814535 -0.03413846 -0.08319385 0.0075978246
-0.021941058 -0.0041503184 -0.01764634 -0.06394259 0.06314768 0.0015657839 0.028177453 0.048198357
0.008294155 -0.0029130878 0.044612836 0.019463943 -0.03092306 0.0015667853 0.048506252 0.03512545
-0.011367106 -0.025086392 0.0076894662 -0.018665586 -0.062886894 0.0018596122 -0.027978411 0.0024114393
-0.03430354 -0.04332313 -0.0066615758 -0.021603402 0.011218305 0.0007826752 -0.0989585 -0.009767103
-0.0021201672 -0.002159383 0.002386623 -0.018583542 -0.049117487 -0.0073397094 0.059387244 0.009561322
-0.0107986005 -0.027095461 0.0055461163 -0.01478855 0.0005693333 -0.060813002 0.011994961 0.0107152825
0.03387598 -0.014732782 0.016166966 -0.0028163758 -0.014493199 -0.023045875 -0.065894485 0.03114196
-0.04144773 -0.00655995 -0.024900159 0.024421874 -0.015722344 -0.0036145528 0.029789094 0.037593853
-0.030099245 -0.015965289 0.04300274 0.044416003 -0.03464908 0.0022127554 -0.028043302 -0.01687927
-0.041509405 0.03468967 0.05246984 -0.0042186193 -0.053101137 -0.06119572 0.017892262 0.0063627753
0.00015224493 -0.0044076988 0.013909321 0.031635113 -0.042378675 0.039958976 0.03778315 -0.040508173
0.016380673 0.047692392 -0.01085923 0.008711532 0.030216303 -0.038550016 -0.009627798 -0.0048079505
-0.049130473 -0.041543785 -0.0094682835 0.034483105 -0.08900391 -0.040815916 0.000596731 0.0562283
-0.0043600677 -0.026964886 -0.029777141 0.0069369366 -0.02296617 -0.020369658 -0.013528109 -0.046301637
-0.0012875693 -0.041356504 0.013163408 -0.0010909836 -0.004224777 0.0249597 -0.010995717 -0.0047600893
-0.03141262 -0.045496404 -0.020928213 -0.0072667096 -0.055998027 -0.024537079 0.029368488 -0.0014684668

action_model._continuous_distribution.mu.bias f4 [3]
00000000: ecc4 8c3d 90db 593c 14f5 2bbd
0.06873497 0.013296977 -0.04198177

onnx::Div_61 f4 [68]
00000000: 46db fd3e c2e6 c23d 2c6c fe3e 3a3b 423e
00000010: 663c fd3e ad22 b13d 03c7 fd3e da2f 4c3e
00000020: 7828 fa3e 6881 ca3d 6501 f93e af1c 533e
00000030: 36dd fa3e 2b0d a63d 9f26 fa3e 187a 6b3e
00000040: d338 c73e 8a92 c83d 981d c33e 0c27 5c3e
00000050: 62f9 d23e 1f56 a63d c798 d03e ad8a 7a3e
00000060: 2337 b03e ea1b c33d 4023 ab3e b49c 5c3e
00000070: 6e44 af3e 4538 a23d c2c2 ab3e 7197 703e
00000080: 73c4 943e 938a c53d deca 8d3e 7776 493e
00000090: 521b 793e f6bf 9a3d 5a3c 6e3e b22c 393e
000000a0: a7de 4a3e 8860 c13d ef06 343e 66bd 133e
000000b0: 7f6c 3b3e 30f4 943d e1f0 2c3e 2474 0f3e
000000c0: 59b3 073e bfeb bb3d 7584 c53d 1d60 ca3d
000000d0: f350 073e 2169 8a3d 00a6 e93d e35a d63d
000000e0: b1d5 d53d 11bc bb3d 1f89 4e3d 6536 923d
000000f0: bb4c c93d 3a5b 7d3d 930d 9d3d 21d6 a53d
00000100: de0c cb3d 9347 bd3d af48 143d 3230 7b3d
0.49581355 0.0951667 0.49691904 0.18967906 0.49460143 0.08649192 0.49565896 0.19940129
0.48859 0.098879635 0.48633876 0.2061641 0.48996896 0.0810798 0.4885759 0.22995794
0.3891054 0.09793575 0.38108516 0.2149927 0.4120589 0.08121895 0.4074156 0.24466963
0.34417066 0.095268086 0.3342533 0.21544152 0.34231895 0.07920889 0.33547026 0.2349527
0.2905613 0.096455716 0.27693838 0.19674097 0.24326828 0.07556145 0.2326521 0.18083456
0.19811498 0.0944224 0.1758077 0.14427719 0.18303107 0.072731376 0.16888763 0.14009148
0.1325201 0.091758244 0.09644405 0.098816134 0.13214473 0.06758333 0.11408615 0.10466554
0.10441149 0.0916673 0.050423738 0.07139281 0.09829088 0.06185458 0.07668605 0.080974825
0.099145636 0.09242167 0.03620213 0.06132526

onnx::Div_64 f4 [7]
00000000: a1dc 4b3e e96f 083e 72b6 a43e 05d4 6c3e
00000010: f17f 9d3d 86d7 963e b6f2 663e
0.19908382 0.1332394 0.32170445 0.23127754 0.076904185 0.29461306 0.22553524
