results/ppo/BlueCar.onnx (onnx, 83359 bytes, 10 tensors)

network_body.observation_encoder.processors.0.normalizer.running_mean f4 [13]
000000 88 be 6f 3e 5d 13 8b 3e 1c 94 af 3e 88 58 f9 3e
       0.23412526 0.2716321 0.34292686 0.48700356
000010 ea c1 6b 3f 62 47 7c 3f bc 2b 7f 3f 6e bc 78 3f
       0.92092764 0.9854642 0.9967611 0.9716252
000020 4d d2 51 3f a0 6d 2c 3f 47 42 60 3c f6 46 a7 3f
       0.8196152 0.67354774 0.013687677 1.306853
000030 53 70 e5 3e
       0.4481226

network_body._body_endoder.seq_layers.0.weight f4 [128, 13]
000000 c3 c0 a7 3e f9 c0 e6 be 7a 80 31 be a2 57 d3 bd
       0.32764253 -0.450691 -0.17334166 -0.10319449
000010 f1 76 0f 3f f6 df b0 3e d5 71 59 bd c4 3c 00 3e
       0.56040865 0.3454587 -0.053087074 0.1252318
000020 d7 d3 e3 be c4 54 22 be 25 c5 a8 bd 83 90 c3 3d
       -0.44497558 -0.15852648 -0.08240727 0.09549048
000030 70 41 cd bd 43 1f db 3b cd 8e 2e be 67 6c d6 3e
       -0.10022247 0.0066870763 -0.17046662 0.4187958
000040 45 66 e3 3e 8b 56 bd 3e fb 00 dc 3d 23 30 0d 3e
       0.44413963 0.3698009 0.107423745 0.13787894
000050 d4 77 a7 be b0 61 a4 3e 62 41 75 38 53 22 93 3e
       -0.3270861 0.3210578 5.8473444e-05 0.28737125
000060 90 e5 c8 be 29 60 42 be a1 2b 32 3e dc e7 aa 3b
       -0.39237642 -0.18981995 0.17399456 0.005215628
000070 b3 39 b8 3e ad e5 00 3e 03 d5 23 3f d6 1b 72 3e
       0.3598152 0.12587614 0.63996905 0.23643431
000080 12 24 c2 bc 46 d5 8e bd 0b 32 ca 3e 6d aa 91 3e
       -0.02369884 -0.069742724 0.39491305 0.28450337
000090 89 a5 bf 3d 8b 09 c0 bd db e9 9d be 53 da f6 3d
       0.09357745 -0.0937682 -0.3084248 0.12053361
0000a0 4b 4d b0 be c5 d9 ac 3e 75 04 44 3e 25 09 d6 3d
       -0.3443397 0.33759895 0.19142325 0.10450963
0000b0 00 60 d0 3d 6b 3e 02 bf 3d de 21 bd ee 75 a3 3e
       0.101745605 -0.5087649 -0.039518584 0.3192591
0000c0 b3 47 53 3d a7 18 8b bf 39 1b 3a bf 64 d5 81 bc
       0.05158205 -1.0866898 -0.7269779 -0.015848823
0000d0 cc 4e 8f be 94 3f b2 be bd a2 12 be 33 ab bd bd
       -0.27989805 -0.3481413 -0.14319892 -0.09261169
0000e0 4f fb 98 3e d4 69 10 3e 76 02 04 be 1d f7 c2 bc
       0.29879233 0.1410287 -0.12891564 -0.023799473
0000f0 e5 f5 d3 3e f7 bc b1 be ce fb 43 bf 18 0b 97 bd
       0.4139854 -0.3471448 -0.765561 -0.07375163
000100 fd 6c 11 bd 7f e8 95 be 99 43 55 3e 3f bc 92 3e
       -0.03550433 -0.29278943 0.20826568 0.28659245
000110 78 f3 13 3f 69 2b 49 3e 3b bd d7 be 30 b2 ed 3e
       0.5779338 0.19645466 -0.4213656 0.4642501
000120 a7 5d cb 3e 64 aa 99 be a2 99 a6 be 79 cc 8a bd
       0.3971989 -0.3001281 -0.32539088 -0.06777281
000130 0c 41 e5 3d 43 26 7d be 38 8d 11 3e 94 75 89 be
       0.11194047 -0.24721627 0.14214027 -0.26847517
000140 80 9a c6 3e df 0a 7d bd 4b e8 01 3e c4 4a cc 3e
       0.3878975 -0.061777946 0.12686269 0.39900792
000150 bf 37 32 be ce 52 71 be d8 8e 3f bf 54 52 b7 be
       -0.17404078 -0.23566744 -0.7482734 -0.35805
000160 33 23 c1 3d dd a8 d6 3d 73 4f 4c bf 5b c9 e9 be
       0.09430542 0.10481427 -0.7980873 -0.45661435
000170 a5 17 fd bd a4 f3 9e 3e ad 88 60 3f 48 44 92 bd
       -0.123580255 0.31045258 0.8770855 -0.0714193
000180 e9 ad 86 3d 4b 31 6c 3d 75 a7 b4 be 37 13 e3 be
       0.065761395 0.057664197 -0.3528401 -0.44350597
000190 c9 ac 30 bd 41 fb 80 3c b4 e2 8b be 02 85 df 3c
       -0.04313353 0.015744807 -0.27321398 0.027285103
0001a0 50 f7 36 3e b1 7d 1d bf 79 d3 b4 be f1 6e ee bc
       0.1786778 -0.61519915 -0.3531759 -0.029105635
0001b0 00 26 ac be 74 93 0b 3e be 5c 82 3e 9c 55 8b 3d
       -0.33622742 0.13630468 0.25461382 0.06803438
0001c0 1e 13 ad 3e 0c 26 a5 bd 22 76 22 3d e4 12 05 3f
       0.33803648 -0.080638975 0.03966344 0.5198195
0001d0 83 45 00 3e 36 3f f0 ba 48 d3 d0 3e 12 23 34 be
       0.12526517 -0.0018329385 0.40786195 -0.17591503
0001e0 f0 94 de 3e ca 81 ad 3e f4 34 58 3d 3a 50 a2 bd
       0.43473005 0.33888084 0.052784875 -0.07925458
0001f0 d6 45 09 bf 56 bc 95 bd a8 c2 2d 3e 71 32 76 be
       -0.53622186 -0.07311313 0.16968787 -0.2404268
000200 31 ea e5 3e 60 09 81 3e 13 34 91 bd ab 1f b1 3e
       0.44905236 0.25202465 -0.070900105 0.34594473
000210 27 9b 69 bd e2 f2 4e 3c 72 18 1d 3d de 76 b8 be
       -0.05703273 0.01263115 0.03835339 -0.36028188
000220 b6 8a 07 3f b5 7e 73 3e 5f d3 8c be ec e5 b5 3d
       0.5294603 0.23778804 -0.27505013 0.08881745
000230 52 7e ce 3e 25 e1 d6 3c 74 28 4a 3e 30 ba 01 be
       0.4033075 0.026230404 0.19741994 -0.12668681
000240 c7 e1 9d be 3a 21 4a be 23 7b ae bd b0 95 1c bf
       -0.30836317 -0.19739237 -0.0851958 -0.61165905
000250 6d 2b 3b be b8 a2 6b 3e da 39 3b 3e 50 c7 3e 3e
       -0.18278284 0.23011291 0.18283787 0.18630719
000260 9b 2d bd 3d 41 a1 17 be dd 94 a6 3e 0d 1b 07 3e
       0.09237214 -0.14807607 0.3253545 0.13193913
000270 7e 2a d1 3d 2e 67 b5 be 56 dd 97 be f5 61 04 3d
       0.10213183 -0.35430282 -0.29661053 0.03231998
000280 5f 43 fd 3d ac 2f 06 bf bf 70 9b bd 6d b3 1c be
       0.12366366 -0.5241649 -0.07589864 -0.1530282
000290 89 6b a0 be 61 ea 91 3e 8b 68 10 3d a3 bc 64 3d
       -0.31332043 0.2849913 0.03525595 0.05584396
0002a0 d1 64 0c bf e4 1f fa 3d 6b b9 1e bd f0 e3 14 3f
       -0.54841334 0.12213114 -0.038751047 0.58160305
0002b0 2a ac e0 be 2b 34 93 3e 13 f3 2c be c4 3a fa be
       -0.4388135 0.28750739 -0.168896 -0.4887296
0002c0 4e d8 17 bf ed 4e bb 3d eb 4e cf be 5a 98 c9 be
       -0.5931443 0.09145913 -0.40489897 -0.39374048
0002d0 f9 57 88 be 55 73 37 bf 48 e9 23 bf b6 43 36 3e
       -0.26629618 -0.7166036 -0.64027834 0.17799267
0002e0 66 74 ac bd 09 33 61 3e c1 0a 44 3d 4b 77 81 3e
       -0.08420639 0.21992125 0.04786182 0.25286326
0002f0 f4 a0 56 3d 7b ba 98 bd d1 c5 ff bc 30 3a 1e 3d
       0.05239959 -0.07457443 -0.031222256 0.03862971
000300 9d 48 38 3e 70 2b e4 be fd 07 4b bf 3d 2e a3 3d
       0.1799645 -0.4456439 -0.79309064 0.079678036
000310 e9 00 14 3f 5c eb dd 3c 7d cf 50 3e f7 d4 09 3d
       0.5781389 0.027089767 0.2039165 0.033650365
000320 b2 fc c2 3e 92 34 b9 bd 77 c6 9c 3c f8 4b ce 3d
       0.38083416 -0.0904323 0.019137604 0.10073084
000330 e6 ed c7 3d 20 17 f2 3e 88 cf d7 3e ca 1c d3 3d
       0.097621724 0.47283268 0.4215052 0.103082255
000340 6c 44 85 3e 96 db b2 be cd 31 94 3d 68 ab 0b bd
       0.26028764 -0.34933156 0.07236061 -0.034099013
000350 64 03 05 3e ea 24 cf 3e 41 95 15 bf 54 20 05 bf
       0.12989575 0.4045785 -0.5843087 -0.52002454
000360 12 91 7f be d3 62 b7 3e 4f 1a 5a 3d 5b c0 ea 3d
       -0.24957684 0.35817584 0.053247746 0.1146247
000370 c5 89 16 3e 14 bd 4d 3e b0 a3 8e 3e 80 f1 e1 3d
       0.14700992 0.20091659 0.2785926 0.110323906
000380 0d 12 3c 3b d3 2f bd be 5d a5 ce be 7a a6 75 3e
       0.0028697283 -0.3695055 -0.40360537 0.23989287
000390 94 02 57 be b5 1c a0 be 16 d9 b8 bc 8f ff 1a 3e
       -0.20997077 -0.31271902 -0.022564452 0.1513655
0003a0 7d b4 02 3e b7 43 45 3e 10 da 0a bf b8 22 fe be
       0.12764163 0.19264112 -0.54238987 -0.49635863
0003b0 20 c1 b4 bb 60 ed e5 bc 7e 77 02 bf ad e9 35 be
       -0.0055161864 -0.02806729 -0.5096358 -0.17764921
0003c0 11 8e 78 bb 18 2e 6f be 33 f1 b9 3e da 33 fe bd
       -0.0037926475 -0.23357427 0.36316833 -0.12412234
0003d0 4a ac 22 be da b5 11 bf b6 9a 28 be 45 c9 4a be
       -0.15886036 -0.5691811 -0.16465268 -0.1980334
0003e0 20 f7 82 3d 96 62 ab bc 44 0e ef 3e 83 71 bf 3c
       0.063947916 -0.020921033 0.4669057 0.023369556
0003f0 3e 50 84 3e ef 64 1f 3c 2b cc d4 3d 93 c8 a3 be
       0.2584247 0.009728654 0.103905044 -0.31988963

network_body._body_endoder.seq_layers.0.bias f4 [128]
000000 1c 7d 68 3b 1f 30 12 bc eb ac 07 3c b4 0d d3 ba
       0.0035474962 -0.008922606 0.008280973 -0.0016102106
000010 d6 4c f2 bb 0a 1a 8b 3a ea ac b7 3b b7 b3 b5 3a
       -0.0073944135 0.0010612619 0.0056053298 0.0013862763
000020 02 45 29 3b fd ac a7 ba cf d8 ef bb 41 7e 64 3c
       0.0025828485 -0.0012792643 -0.007319547 0.013946117
000030 a2 28 33 3c e3 5b 8b ba 4c 00 22 3c cd 5f df 3b
       0.010934981 -0.0010632243 0.009887766 0.0068168403
000040 0c b5 26 bb da 7a bd bb 20 2f 00 bc 4a 92 5a bc
       -0.0025437502 -0.0057824673 -0.0078237355 -0.013340542
000050 89 1f 01 bc 40 99 3b 3c ba c3 04 bc e9 5f f5 3b
       -0.007881054 0.011450112 -0.0081033055 0.00748824
000060 73 77 be 3b 9e f3 84 39 9e 9d 24 3c 40 52 9d bb
       0.0058125793 0.0002535851 0.0100473445 -0.0048010647
000070 c0 a3 2a 3c 22 e0 ca 3b 60 1c 36 3c e5 31 73 3c
       0.010415018 0.0061912695 0.011115164 0.014843439
000080 c8 bf 03 bc 7c 4c d7 bb 55 dd 6d 3a 8a a4 09 bc
       -0.00804133 -0.006570397 0.00090738136 -0.008401046
000090 2b bd 19 3c 9d fd 3b b9 6c 06 18 bc b1 85 c3 bb
       0.00938348 -0.00017928188 -0.009278875 -0.005966865
0000a0 64 c9 21 3c 07 4f 5e bc b9 4e 64 bc 93 1d 01 bc
       0.009874675 -0.013568646 -0.013934785 -0.007880586
0000b0 21 82 f0 3b 9d 8f 96 bb 99 2d 4f 3c e7 9f 03 bc
       0.0073397313 -0.0045947568 0.012645149 -0.008033729
0000c0 76 aa c0 bb 62 5b a7 3b 82 0a 57 3b 5f b9 d7 3a
       -0.0058796955 0.005107329 0.003281266 0.0016458443
0000d0 86 38 37 3a 26 db f1 3b 85 49 42 3b b8 72 52 3c
       0.00069893186 0.007380861 0.0029645872 0.012844734
0000e0 75 6b c3 3a ac 6d 3e 3c 0c fc a5 3b 6c 83 88 3b
       0.0014909344 0.0116228275 0.0050654467 0.0041660573
0000f0 1d 07 4f 3c 70 97 d0 bb be be 2a 3c 9a bc d8 b9
       0.012635973 -0.006365709 0.010421453 -0.0004133925
000100 19 f8 c4 b9 5c 7b f4 bb 21 10 33 bc 24 50 7f 3c
       -0.0003756888 -0.0074609946 -0.010929138 0.015583072
000110 4e e6 1c ba fa e9 a7 39 87 7c cc b9 e1 c6 6f 3b
       -0.0005985246 0.00032027048 -0.00039002692 0.0036587047
000120 3b 37 22 3a 87 3a c8 3b d5 ec d1 bb 53 df ae bb
       0.00061880396 0.0061104926 -0.0064064064 -0.005336681
000130 ce 8e 0e bb 85 06 79 3a 92 b4 04 bc db 87 57 3c
       -0.0021752599 0.00094995677 -0.008099692 0.013154949
000140 9a 77 18 3c dd 0e 1b bc 78 ca 4e 3c 6c 2b 70 3b
       0.009305859 -0.009463993 0.0126215145 0.0036646975
000150 24 49 21 3c aa ac 8e 39 f5 a9 b1 3a d0 43 b7 3b
       0.009844098 0.00027212995 0.001355468 0.0055928007
000160 18 fd c4 bb 43 93 ac 3b 41 be 96 bb 00 08 1f 3c
       -0.0060116164 0.0052665784 -0.0046003168 0.009706497
000170 ea 79 2a bb 91 b1 07 3c 03 b9 87 3c 3a 5d cf bb
       -0.0026012608 0.008282081 0.016567713 -0.006328252
000180 56 5c 54 3c e7 a8 5a 3c aa 97 5d 3c 65 82 fe 3b
       0.012961468 0.0133459335 0.013524929 0.007767009
000190 a7 56 b0 ba 31 cf 23 3c 7e e0 12 3b 69 f5 11 3c
       -0.0013453559 0.009998129 0.002241164 0.008908608
0001a0 d5 38 6a bb c7 d5 a6 bb d8 8e 91 3a 4a 1f 37 3b
       -0.003573944 -0.005091402 0.0011105193 0.0027942234
0001b0 b6 c8 52 3c 57 cb 83 bb 9a 3e f2 b9 3e 4b 21 38
       0.012865236 -0.0040220427 -0.0004620448 3.8455466e-05
0001c0 97 fb 32 bc cb 53 de 3a 7c 77 1e bc 40 fe 83 bb
       -0.0109242415 0.0016962228 -0.009672042 -0.0040281117
0001d0 4c 52 ef bb cf 91 1b 3b d2 e4 8d 3b df 0a 63 bc
       -0.0073035117 0.0023738032 0.004330256 -0.013857572
0001e0 f4 7a 4e 3b 00 34 7b bb 9e 51 c6 bb 74 e0 8f 3b
       0.0031506391 -0.0038330555 -0.00605221 0.0043907706
0001f0 ea 4c 1c 3b 22 5c 29 3b 34 a5 52 3b 7f b5 ac 3b
       0.0023849555 0.002584227 0.0032141926 0.0052706595

network_body._body_endoder.seq_layers.2.weight f4 [128, 128]
000000 fe cf 05 bd 04 50 ee 3d 0a 0b 89 bd 7b 5a 10 be
       -0.03266906 0.116363555 -0.06691559 -0.14097016
000010 8e 34 49 3d 09 7d e7 bd f6 1b 9e bd 23 1d 03 bb
       0.049122386 -0.113031454 -0.07720177 -0.002000638
000020 27 43 62 3d a4 58 5a bd bb ff c1 bd 89 64 0d bd
       0.055239823 -0.05330719 -0.09472605 -0.034519706
000030 9a 94 b7 bd dc e8 21 bd d1 1f ff 3c fe 04 a7 bd
       -0.089638904 -0.039528713 0.031143101 -0.08155249
000040 f5 ca 59 3a 91 17 05 3d a0 8b c0 3c d9 a2 7e 3e
       0.0008308136 0.032493178 0.023504078 0.24866809
000050 96 04 47 bd 74 50 18 bd dc 70 e8 bd 47 91 ab bd
       -0.048588358 -0.0371861 -0.11349651 -0.08377319
000060 f8 62 7b bd 33 53 73 3d 57 5a 9c 3d d4 b7 a2 bd
       -0.06137368 0.059405517 0.076344185 -0.07945219
000070 8b b8 79 bd c0 e1 c1 bd 02 2f 8d 3d 22 b8 ba bd
       -0.06096701 -0.094668865 0.06893732 -0.09117152
000080 65 5e 59 3d 30 aa 1a bc b9 a9 1a be 23 14 79 3e
       0.053068537 -0.00943999 -0.15103807 0.24324088
000090 bc a6 16 be c8 6c b9 3d 83 8b b8 3c 7a dc 55 3d
       -0.14712042 0.090539515 0.022527462 0.052212216
0000a0 29 fb c7 3c 13 39 80 3d 13 af 10 3d f6 cd 14 3e
       0.024411755 0.06260886 0.035323214 0.14531693
0000b0 12 1e 21 be f5 74 5d 3e 9b 30 13 be 3b f9 c2 bc
       -0.15734127 0.21626647 -0.1437401 -0.023800483
0000c0 3d a6 e2 3c b3 7a ba 3d cf 25 5b 3e a5 4c 28 3d
       0.02766716 0.09105434 0.21401142 0.04108872
0000d0 7f 0d 0c be 95 47 34 bd ae a4 d4 3d 88 4d 8f 3d
       -0.13677023 -0.04401358 0.10382973 0.0699721
0000e0 01 f6 f6 3c 93 63 83 3d ec 8e 4e bd 34 9a c2 bd
       0.0301466 0.06415477 -0.05042927 -0.09502068
0000f0 44 b1 0b be ed 90 5c bd 48 69 29 3c 7a b3 d3 3d
       -0.1364184 -0.05384915 0.010340042 0.10336967
000100 bd 1d 67 bd 18 5e f9 bd b0 29 6c 3c 1a 2b 1f 3d
       -0.056424845 -0.1217615 0.014414236 0.038859464
000110 23 44 7c 3e bf 4a 88 bb 62 29 46 3e a3 91 dd bc
       0.24635367 -0.004159301 0.19351724 -0.027046984
000120 7b f6 87 3d 04 4f a4 bd 99 24 1b 3c 95 2e ac 3d
       0.06638809 -0.080228835 0.009469175 0.08407322
000130 2d 4c 4d 3e 2f d0 46 3d 22 d5 1c bb 4c 04 c9 bd
       0.2004859 0.048538383 -0.0023930748 -0.09815273
000140 a4 db c2 bd 51 6e 93 3d ff 27 30 be 4d 60 2a bd
       -0.095145494 0.071987756 -0.17202757 -0.041595746
000150 d2 66 c7 3c 1f ca 94 3d bd a2 c3 bd 4c fb 53 3d
       0.02434102 0.07265114 -0.09552524 0.051753327
000160 6d 21 af 3d 89 f2 99 3d 5e 2e 3a be ad c1 93 bd
       0.08551297 0.07516963 -0.1818175 -0.07214675
000170 4d f9 33 3d 39 2f 4f bd d5 5c 9d bc 8c 16 40 bd
       0.043938924 -0.050582144 -0.019209305 -0.046896502
000180 ec fa ce 3d 43 18 95 bc 7a e6 8e bd 46 b1 41 be
       0.10106453 -0.018200045 -0.06977554 -0.1891528
000190 60 a8 cb bd b3 27 10 be da 5a b8 bc a2 c8 0c 3d
       -0.09944224 -0.14077644 -0.022504259 0.034371026
0001a0 db 4c 87 3d 29 bf e4 bb 65 a1 51 bd 6f 15 32 bd
       0.06606456 -0.006980796 -0.05117931 -0.043477472
0001b0 3a db 86 3d ae 68 95 bd 3c c0 bb bc 25 83 14 bd
       0.06584783 -0.07295357 -0.022918813 -0.03625788
0001c0 d2 7c a4 3d c5 92 50 3c 7d c3 84 bd e1 a2 89 bd
       0.0803162 0.012730305 -0.06482599 -0.0672052
0001d0 a9 ae 43 bc 0a c0 04 b8 8c 9a b4 3d 36 cc bd bc
       -0.011943498 -3.1650103e-05 0.0881854 -0.023168664
0001e0 56 f9 81 3d 2e 3d a0 3d 77 90 e2 bb 62 0e 9e bd
       0.06346385 0.07824169 -0.006914194 -0.07717587
0001f0 56 0f 93 bb aa c9 58 3d dd 6f 89 3d fd d0 5b bc
       -0.004487912 0.052926697 0.06710789 -0.013416526
000200 a5 24 51 3d e7 d1 0d be c1 78 fd 3d dd b6 ff bd
       0.051060338 -0.13849603 0.123765476 -0.1248605
000210 c9 3d bf 3d cb 3f 52 bd 4a d8 3e 3d 91 13 36 bd
       0.093379565 -0.05133037 0.046592988 -0.044452254
000220 2e 67 c3 bc 33 9d 10 be 7e 2d 2d 3e a0 c3 85 3d
       -0.02385291 -0.14122467 0.16911885 0.06531453
000230 32 31 29 be 60 99 00 be 59 f6 8a bc 75 15 af 3d
       -0.16522673 -0.12558508 -0.01696317 0.085490145
000240 9a 2a ba 3d 94 0a f4 3c 65 9b 22 be 7d 91 1f 3e
       0.09090157 0.0297902 -0.15879591 0.15582843
000250 ce 9d ad bd 1f 75 e2 3d 51 34 34 bd 2a e9 00 3d
       -0.084773645 0.11057495 -0.043995205 0.031472363
000260 ed a7 d8 bc fa f3 41 be d9 d6 4f 3c cb 8d fd bc
       -0.02644726 -0.18940726 0.012685501 -0.030951401
000270 f0 bd a5 3c ea 62 93 bd 37 bc 1f bd ff b7 cf 3d
       0.02023217 -0.07196601 -0.038997855 0.10142516
000280 6f ba 22 3a c0 cd 0b be b7 26 16 3c bc ea 4a bd
       0.00062075903 -0.13652706 0.009164504 -0.049540266
000290 76 f1 65 be 65 da b3 bd 81 5b 2b 3d 1e 06 e6 3c
       -0.22455391 -0.0878189 0.04183531 0.028079089
0002a0 95 a8 d4 3c 7a 65 21 be 54 78 23 3b 51 06 73 3d
       0.025959292 -0.15761366 0.0024943547 0.059332196
0002b0 c6 e6 20 3e a2 b0 ab bc 22 49 b8 3c 3c 61 0a 3c
       0.15713033 -0.020958249 0.02249581 0.008446034
0002c0 0c a0 b2 bb c8 bc e6 bd d8 75 a8 3b 9e c4 0a bd
       -0.005451208 -0.11266476 0.005141001 -0.033878915
0002d0 00 de cd bc 88 6a 52 bd 75 e8 66 bd ae 0b a4 3c
       -0.025130272 -0.051371127 -0.056374032 0.0200251
0002e0 56 b9 9a bd 49 65 19 3e 09 c5 8f bd 49 8b 7d bb
       -0.07554881 0.14980043 -0.07020003 -0.0038687757
0002f0 a5 9d 9c bd 64 ae 0b be 02 a5 f4 ba 52 d2 fb bd
       -0.07647256 -0.13640743 -0.0018664899 -0.12295975
000300 4d 18 0d bc 5a 48 10 3d 2f b2 eb 3c 9d 2b c2 3d
       -0.008611751 0.03522525 0.028771488 0.09480975
000310 2b 77 d4 3c 3f 86 bb bd 4c 76 72 3d ae 93 0e 3e
       0.02593573 -0.09156465 0.059194848 0.13923523
000320 f9 e1 f7 bd 8b d9 87 bc 40 db 8a 3d d9 14 8c bd
       -0.12103648 -0.016583225 0.067801 -0.06839914
000330 44 ec fe 3c 9b 3b 4a 3d 82 14 42 3d 0a db 0e be
       0.03111852 0.04937325 0.04738284 -0.13950744
000340 05 30 0e bd bb 8b 00 bd 16 27 93 bc d6 05 30 bd
       -0.034713764 -0.031383257 -0.017962974 -0.042974316
000350 b0 cf 15 3e 6f 97 b8 bd 58 2e 0f be da 3a 3f be
       0.14630008 -0.09013259 -0.13982522 -0.18674794
000360 dc 4e 8b bd b4 73 89 3d a1 3e 20 bd 16 ca 52 3d
       -0.068021506 0.06711522 -0.039122228 0.051462255
000370 4d 76 a9 3d 9a 64 18 3e 59 3c 17 3e 55 11 b3 3b
       0.08274517 0.14882126 0.14769115 0.0054647126
000380 68 5f da 3c 7b 5d 06 3e 2c 5d c3 3d 75 14 26 be
       0.026656821 0.13121597 0.095392555 -0.16218741
000390 9a 07 57 3d ed fb 48 3d 2e 4a d8 3d 5a 41 86 3d
       0.052497484 0.04906838 0.10561024 0.065554336
0003a0 76 fe 61 bd 64 b8 ed bc 28 78 bf bd 99 3e 9f 3d
       -0.055174313 -0.029018588 -0.0934909 0.077756114
0003b0 bf f0 68 3e 07 ab 81 bd 7d c5 92 3d 84 f8 a5 bc
       0.22748087 -0.06331449 0.07166574 -0.020260103
0003c0 33 f3 16 bd 5e ce ae bd 9f ea d2 3d ba 5f 3e 3d
       -0.036853027 -0.08535455 0.10298657 0.04647801
0003d0 c0 49 58 3c f6 7d b9 bb 63 73 c1 3c 2c 87 9d bd
       0.013201177 -0.0056607677 0.023614591 -0.076917976
0003e0 cd 16 64 3c 6a a4 2e be b8 0d 7c 3d 00 e1 e0 b9
       0.013921452 -0.17054906 0.06153652 -0.00042892247
0003f0 7b 50 f5 bc 62 b9 48 be 5f a0 86 3a 3b ba 3e be
       -0.029945603 -0.19601968 0.0010271183 -0.18625729

network_body._body_endoder.seq_layers.2.bias f4 [128]
000000 a6 6f 3b bc 1a 6d 6d 3c 3a d0 0c bc b0 6f 17 3c
       -0.011440193 0.014491344 -0.008594567 0.009242937
000010 f7 f0 2b bb 11 83 3c 3c cb 44 35 bc e2 97 a4 3a
       -0.0026236156 0.011505858 -0.011063765 0.0012557472
000020 ad 4c a8 bb 85 61 4f 3c 5d 20 b3 bb 72 cc 50 bb
       -0.0051360936 0.012657528 -0.0054665045 -0.003186014
000030 1a e9 72 bc 55 ad 1f bb 11 ba 36 bc 55 5c cf 3b
       -0.014826084 -0.0024364789 -0.01115276 0.0063281455
000040 94 09 de bb 38 00 1d 3c 67 83 fa bb 26 12 41 3b
       -0.006776044 0.009582572 -0.007645059 0.002946028
000050 43 d3 cd 3b 8f 4c b6 3a 3c 66 85 3b 8e 4b 9d 3b
       0.006281288 0.0013908314 0.004071025 0.0048002666
000060 a1 0a 1d bc 72 26 9a 3b 6d 9a 00 bc 9d 21 e1 39
       -0.009585054 0.00470429 -0.007849318 0.00042940388
000070 fe 4b ad bb 3f 4a f6 bb 68 a9 2c 3c f8 3b c3 3b
       -0.0052886 -0.007516175 0.0105384365 0.0059580766
000080 4c 95 6f 3c a6 7c ea 3b 32 24 34 3c ad b4 7a bb
       0.0146229975 0.0071559725 0.010994958 -0.0038254664
000090 97 6b c8 bb a7 b7 45 3c c8 a3 1c 3c 97 f9 e1 bb
       -0.0061163413 0.012067712 0.009560533 -0.0068962085
0000a0 c2 20 cb 3b 8e e3 b8 3b 05 5a 9b 3b 18 11 37 3c
       0.0061989734 0.005642361 0.004740956 0.011173509
0000b0 d6 78 88 b9 a4 2f ca ba a2 7b 93 3a 5a 2d 84 3b
       -0.0002602997 -0.0015425575 0.0011252055 0.0040337266
0000c0 cd fd 9a 3b 08 65 1e bc f5 02 22 3b 41 e3 23 bb
       0.0047299624 -0.009667642 0.0024721 -0.002500728
0000d0 d4 3a 06 bb c4 98 32 3c af 79 52 3c a5 5b 1e bc
       -0.0020481842 0.01090068 0.012846394 -0.009665404
0000e0 bd 19 17 3c 20 2e d2 3b 5e 02 aa bb a1 8e be 3b
       0.009222445 0.00641419 -0.0051882705 0.0058153425
0000f0 1a 62 af 3a 86 9c 1b b9 7e 89 2d 3c b2 b2 95 39
       0.0013380677 -0.00014840261 0.010591863 0.00028552633
000100 fb f4 12 3c dc 61 25 bc ab 1d b3 3b 21 d8 8d 3c
       0.008969541 -0.010094132 0.005466183 0.017314972
000110 54 79 8b 3b 3c 3b 13 3c 01 8b e9 ba e0 b3 81 3a
       0.004256407 0.008986291 -0.0017817916 0.0009895526
000120 d3 80 ce 3b b3 1f 1f ba 2f f2 17 bc 61 af 68 bb
       0.006301978 -0.0006070092 -0.00927405 -0.0035504925
000130 87 ab 70 3b aa 3a f3 3b 3d 32 16 3c 4b c7 36 bc
       0.0036723332 0.007422765 0.009167251 -0.011155914
000140 45 41 00 3c d5 db 4c 3c 19 e2 33 3c 6f 7a fa bb
       0.0078280615 0.012503584 0.010979199 -0.0076439898
000150 84 7e 33 bb d3 6b eb bb f6 c9 0c bc 8f 80 4d 3c
       -0.0027388642 -0.0071844845 -0.008593073 0.012542858
000160 40 37 d5 bb 7e f1 17 3c 3d cd 27 bc 20 73 2a 3c
       -0.0065068305 0.009273885 -0.010241804 0.0104034245
000170 f0 40 33 3c 06 88 0e 3c 97 81 0e bc fb 4d cd bb
       0.010940775 0.008699423 -0.008697889 -0.0062653995
000180 9a 83 13 3c a4 a5 1a 3c d3 2e 0d bc 20 b1 48 3c
       0.009003544 0.009438906 -0.008617121 0.012249261
000190 3b 21 53 bc a2 1d 71 3c 6d c4 27 3b 52 1e d9 3b
       -0.012886341 0.014716538 0.0025599257 0.006625929
0001a0 64 1a 1d 3b b8 dc 61 3a e8 e7 f1 3b c4 0c ef 3b
       0.002397203 0.00086159585 0.0073823817 0.007295223
0001b0 41 63 2c 3c 61 dc 6a bb a5 da a9 3b b1 0b 64 3a
       0.010521711 -0.0035836922 0.005183535 0.0008699252
0001c0 40 d4 4d bb 19 41 13 3c 0d 9c 56 ba 5d 4e da 3a
       -0.0031407028 0.008987688 -0.00081867055 0.0016655434
0001d0 87 01 0a bc ac 27 85 3a 46 9f 1a bc 1f 17 2b bc
       -0.008423216 0.0010158918 -0.009437388 -0.010442524
0001e0 53 34 be 3b 81 2a 16 bb 21 2a 82 3b 93 cd 3f 3c
       0.0058045774 -0.0022913518 0.0039723073 0.011706728
0001f0 2d 36 ed bb db 73 b3 3a 10 54 b3 39 29 86 80 bc
       -0.0072391243 0.0013691144 0.00034204172 -0.015688973

action_model._continuous_distribution.log_sigma f4 [1, 3]
000000 7d e8 74 bc 43 c7 f5 ba e5 ce 05 3c
       -0.014948008 -0.0018751401 0.008167003

action_model._continuous_distribution.mu.weight f4 [3, 128]
000000 e0 19 00 bc 65 35 25 bc 76 cf 5b 3c 32 a2 8d bc
       -0.007818669 -0.010083531 0.013416162 -0.017289255
000010 4d 5d ef bc 66 4e 8e bb de ba c9 3c 2f f6 60 3b
       -0.029219294 -0.004342842 0.024625238 0.0034326424
000020 c1 e8 c9 3c 1f 2b 08 bc cf ab 8d 3c bd 83 b0 bc
       0.024647119 -0.008311062 0.017293839 -0.021547193
000030 8e 0a fb 3b 01 01 ba 3c 80 92 e4 3b 40 91 e1 bc
       0.0076611703 0.022705557 0.006975472 -0.02753508
000040 1d 6e 10 bc 75 b6 b6 b9 a7 62 5c 3a 8f cf 5d bb
       -0.008815316 -0.00034849686 0.00084070343 -0.0033845638
000050 a5 ad aa bc d8 a5 d8 3c 90 e0 8e bb dc 66 13 bc
       -0.020834753 0.026446268 -0.004360266 -0.008996692
000060 73 9d 65 3b 23 33 df 3c 77 54 94 bc ba d0 27 bd
       0.0035036474 0.027246064 -0.018106682 -0.04097054
000070 ad 55 6b bc 78 b0 22 ba 58 2e 3a bc 4a 6c 98 3c
       -0.014363688 -0.00062061055 -0.011363588 0.018606324
000080 34 31 9a bc d7 4a 95 b9 02 2a 65 3c b6 13 18 3d
       -0.01882229 -0.00028475255 0.013987066 0.037128173
000090 44 fe ab 3c f6 98 13 3a 61 a5 e0 3b ab b8 21 bc
       0.020995267 0.0005630398 0.006855652 -0.009870688
0000a0 10 e6 e5 bb 79 9d ed bc 56 a7 07 bd 20 95 e3 bc
       -0.007015951 -0.029005753 -0.03311857 -0.02778107
0000b0 44 1f 5e bb 96 4a c6 bb 62 d3 8d 38 43 01 b3 3c
       -0.0033893147 -0.006051372 6.762777e-05 0.021851188
0000c0 13 3d ec bc 33 03 78 b9 1c 00 b9 3c a3 93 c7 3c
       -0.028837716 -0.00023652315 0.02258306 0.02436239
0000d0 b1 7c 89 bc 49 4d 2a 3c 07 af 02 bc 6b 1d 57 3a
       -0.01678309 0.010394403 -0.0079763 0.0008205983
0000e0 66 ee ab bc c5 a0 3f bd 65 e4 8f ba 1c e2 24 3b
       -0.0209877 -0.04678418 -0.0010978101 0.0025159186
0000f0 1e 62 54 bb b1 ae 16 bd 64 ff d1 3c 3b 9e 95 3b
       -0.0032407115 -0.036787692 0.025634475 0.0045659817
000100 ff d4 92 ba 73 7b 02 3c ed e6 8a 3b a5 c9 a6 3b
       -0.0011202394 0.007964003 0.0042389543 0.005089956
000110 79 39 99 3c f7 c5 b1 bb c7 cb 8c bc 0b db 23 bc
       0.018704163 -0.0054252106 -0.017187012 -0.010000954
000120 41 53 4e bb e2 8c 71 bb 3d f6 55 3c 90 47 91 3c
       -0.0031482729 -0.0036857654 0.013059196 0.017734319
000130 81 11 c6 bb 6f 6f 1a bc de 96 c0 3b 80 f8 b6 3c
       -0.006044567 -0.009425982 0.00587736 0.02233529
000140 9c a3 04 bd e6 ba 15 bd b1 d3 a5 3c a6 73 9e bc
       -0.032382593 -0.036555193 0.020242544 -0.019342255
000150 40 54 6e bc 6b 0f 27 3c 6d fe 5f 3c d3 66 0b bd
       -0.014546454 0.010196547 0.0136715 -0.034033608
000160 0d 48 04 bc ed 5d 4d bd 9e dd 86 3c 20 e6 97 3c
       -0.008073819 -0.050138403 0.016463097 0.01854235
000170 03 7b 96 bb 3c 66 41 3c 99 af 45 3c f5 62 f5 ba
       -0.004592301 0.01180416 0.0120657915 -0.0018721508
000180 b3 6d 80 3c 69 1b 8a bc e1 de ce 3c a8 8e 35 bc
       0.015677309 -0.016858773 0.025252761 -0.011081375
000190 9b 28 0e 3b 1c d8 d8 bc 1d 6c 80 3c 1d 7c ba 3b
       0.0021691683 -0.026470236 0.015676552 0.005691065
0001a0 c0 f2 6d 3b 2a 64 2c bb 18 be 04 3c 54 df ab bc
       0.003630802 -0.002630482 0.0081019625 -0.020980515
0001b0 02 16 43 bb 00 52 80 3b 26 c1 14 bc f2 5b 24 3c
       -0.0029767756 0.003916025 -0.009079253 0.010031687
0001c0 b3 97 00 3d 1c e7 ff bc af 93 0f bc 4b 14 09 3c
       0.03139467 -0.031238131 -0.008763238 0.008366655
0001d0 65 40 aa 3c 86 12 f5 bc aa 45 46 3c 9a e6 52 bb
       0.020782659 -0.02991606 0.01210157 -0.0032180906
0001e0 57 2c 17 bd 85 d3 cf bb f0 cc 92 bb 77 df ae bc
       -0.03690752 -0.0063423538 -0.004479997 -0.02134679
0001f0 10 93 cf 3c 47 14 01 bd 56 dc 82 3b 21 4e dc 3b
       0.02533868 -0.03151348 0.0039935512 0.006723181
000200 c1 f4 d3 bc 32 15 fe 3c 0d 36 3b bb 44 d5 22 3b
       -0.025873544 0.031015966 -0.0028566152 0.0024846354
000210 45 cb e0 bc f3 26 f8 3c ed 8c 76 bd 86 52 a1 3b
       -0.027440676 0.03029201 -0.06019299 0.0049231676
000220 0f 84 35 bc f9 90 29 3d ba 2c 06 bc ed da 6c 3b
       -0.0110788485 0.041398022 -0.008189375 0.0036141232
000230 d0 e1 08 bd ab 62 85 bc 7f 1a 37 bc 8c 85 80 3c
       -0.033418477 -0.0162824 -0.011175751 0.01568868
000240 ac d5 ae 3b 66 5b ec 3c f0 70 4b bb e4 33 65 3c
       0.0053355303 0.028852176 -0.0031042658 0.0139894225
000250 8d 4b bb 3b 7e da c8 b9 93 02 b5 bb c3 06 0f 3c
       0.0057157935 -0.00038309762 -0.0055239885 0.008729639
000260 62 c2 7c bd 61 ac 95 bb fa c9 3f bc 31 56 95 bc
       -0.061708815 -0.0045676683 -0.01170587 -0.018229576
000270 a4 c1 4c bc 5b 81 2b bc 73 50 a5 3c 90 90 1c 3c
       -0.012497339 -0.0104678525 0.020179963 0.009555951
000280 11 74 c8 3c 70 de 40 3c 17 b4 90 3d 01 27 a5 bb
       0.024469407 0.011771783 0.070655994 -0.00504005
000290 50 53 7e bb 30 ae f7 3c 4f 01 1c 3d 5a ef a8 bc
       -0.0038806982 0.030234426 0.038087185 -0.020621944
0002a0 03 e1 c5 3c 56 d4 32 bb 88 de a4 bc 47 e8 0c 3d
       0.024155146 -0.0027287207 -0.020125642 0.034401204
0002b0 13 e7 f1 bb ec 9e 4c 3c 28 14 d6 3b e9 43 d0 ba
       -0.0073822825 0.012489062 0.0065331645 -0.001588938
0002c0 02 3b 44 3c 12 b0 b9 bc d5 8d b8 3c de 10 a8 bb
       0.011976959 -0.022666965 0.022528568 -0.005128964
0002d0 1a e7 2b bc f7 d7 43 3c 0a cf e2 3c 8e 7f 78 bc
       -0.010492111 0.0119533455 0.027686615 -0.01516713
0002e0 6c 15 73 3c 42 05 28 3c ed e1 98 ba 3c 0b 1d 3c
       0.01483665 0.01025516 -0.0011664011 0.009585198
0002f0 68 7b 63 bc 88 84 b4 bc 96 16 32 3d 50 c7 cf 3b
       -0.013884403 -0.022035852 0.04347857 0.0063408986
000300 da 12 9e 3b be 08 b1 bc a5 89 5c 3b 34 36 2c 3c
       0.0048240246 -0.021610614 0.0033651378 0.01051097
000310 b9 66 0e 3c c0 c2 fc 3b 5b fb 23 ba 3d 10 8b bb
       0.008691483 0.0077136457 -0.00062554114 -0.004243879
000320 a5 bb ee 3b 2f 9c a1 bc c7 e8 2c bd 85 6f 96 bb
       0.0072855526 -0.019727794 -0.04221418 -0.004590931
000330 6c ba 03 3c f7 fc 09 3c 63 95 92 3c 0f 9f 24 bc
       0.008040052 0.008422128 0.017893499 -0.010047688
000340 f2 37 3e 3c 8c d1 95 3c 82 d0 91 3c 9d 39 87 bc
       0.011610018 0.018288396 0.01779962 -0.016506964
000350 70 00 a6 3c 51 c9 84 bc 47 82 08 bd a1 45 ef 3c
       0.02026388 -0.016209276 -0.033327367 0.029208006
000360 7f 27 2e bc e9 3a 95 3c ed 29 dc bb 18 7c 65 3c
       -0.010629534 0.018216567 -0.006718865 0.014006637
000370 e8 00 bb 3c ea f1 b0 3c f4 6f e1 bc 62 5a 1e bc
       0.02282758 0.021599729 -0.027519204 -0.009665104
000380 14 d1 a9 3c bb 2c 59 3c 3c a2 88 bc 20 22 6f 3c
       0.020729579 0.0132552935 -0.016678922 0.014595538
000390 c6 a9 1f bd b9 4d e5 3c 9c a4 b9 3b b7 a2 a2 3c
       -0.038980268 0.027991163 0.005665375 0.01985298
0003a0 a2 53 64 3b ca 68 b8 39 d6 0a 17 3d 7c 13 1e 3b
       0.0034839888 0.0003517329 0.03687557 0.00241205
0003b0 25 74 2c 3c b5 c4 b3 bb a6 54 83 3b dd 15 12 bc
       0.010525738 -0.005486096 0.0040078936 -0.008916345
0003c0 97 d2 e2 bb 63 e4 0a 3d 78 e6 dd 39 21 c6 b9 bc
       -0.006922077 0.033909213 0.00042324117 -0.022677483
0003d0 f5 af 7a bb 75 f0 d7 3a 25 c7 98 bc b7 8a de bb
       -0.0038251851 0.001647486 -0.018649647 -0.0067914384
0003e0 65 03 da 3c 8d d3 38 3a 0d 86 f5 3b 56 a6 47 3d
       0.026612947 0.00070505665 0.0074927867 0.048742615
0003f0 17 16 d0 3a 41 9c 5a bc de 01 39 38 47 ac 7d bc
       0.0015875724 -0.013342918 4.4109176e-05 -0.015482969

action_model._continuous_distribution.mu.bias f4 [3]
000000 af a5 21 bb ac a5 54 3c 7e d1 b5 bb
       -0.0024665406 0.012978952 -0.005548655

action_model._discrete_distribution.branches.0.weight f4 [1, 128]
000000 7f 2f 8d 3c 02 48 5c 3a 05 71 6a 3c 8f c4 53 3c
       0.017234562 0.0008403064 0.0143091725 0.012925281
000010 51 c7 0f 3c 97 b5 35 3c e9 13 b0 bc 2b 01 e4 b9
       0.008775548 0.011090658 -0.021493869 -0.0004348842
000020 ed c1 32 bc 08 9f 59 bc 93 3d 19 3c 05 c2 39 bb
       -0.010910493 -0.013282545 0.009353059 -0.0028344404
000030 60 70 a8 3b d6 e2 b2 bb db 48 86 bc 5a 9c 20 3c
       0.0051403493 -0.00545917 -0.016392162 0.009802902
000040 0a 56 a3 bc 90 bc 0c 3c 61 9a 11 bc 22 6d ee 3a
       -0.019938488 0.008589879 -0.008886904 0.0018190483
000050 1a cc eb 3b ec ed 80 bb 43 ab 0e 3b 8f 9c d2 ba
       0.0071959617 -0.0039346125 0.002176956 -0.0016068387
000060 f3 45 e4 ba c6 3e 90 3b ad be 30 3c 82 80 64 bc
       -0.0017415866 0.0044020144 0.010787648 -0.013946654
000070 27 36 91 bc 65 37 eb bb c1 94 84 b8 27 34 61 ba
       -0.017726017 -0.0071782344 -6.321958e-05 -0.000859084
000080 26 47 22 3c b8 f1 74 bb 52 1c 16 3c 2b f4 50 bc
       0.009904658 -0.003737552 0.0091620255 -0.012753527
000090 02 14 91 bc 4b ae 1a 3c 77 fb 06 3c db 7e b1 bb
       -0.017709736 0.009440969 0.008238665 -0.0054167337
0000a0 c5 16 15 3c d7 c6 8c bc 30 5e 18 3c 6f 7a 6c 3b
       0.009099667 -0.017184658 0.0092998 0.0036083718
0000b0 2a 9f 1d 3c b4 32 3c bc 6e 7b 8a 3c e3 4c 0e 3c
       0.009620467 -0.011486698 0.016904559 0.008685323
0000c0 ff 73 54 3b 29 eb 20 3c 00 03 cb bb 43 7e 22 3c
       0.0032417772 0.009821692 -0.006195426 0.009917798
0000d0 b7 2b c4 bb 98 55 d1 bb 93 2f 84 3c a3 67 7c bc
       -0.0059866565 -0.0063883774 0.016135966 -0.015405568
0000e0 74 e2 09 3c 61 da 89 bb fc 39 8f 3c 9b 4c 19 3b
       0.008415807 -0.004206941 0.017483704 0.0023391608
0000f0 f5 b3 59 bb 0b 3a c5 3b bb 32 0a 3c cd 21 83 3c
       -0.0033218835 0.006018882 0.008434947 0.016007328
000100 2f b3 24 3c df 94 ba 3b ac 19 0f bb 7f 22 a0 3b
       0.010052486 0.0056940163 -0.002183537 0.0048869248
000110 a7 d4 73 3c a2 08 88 bb 1f 5f 71 bb e4 8a a9 b8
       0.014882243 -0.0041514197 -0.0036830378 -8.0844184e-05
000120 6c bf 8c 3c af 4f e4 3b 6d 10 d7 3b 6a 1d ce b9
       0.01718112 0.006967507 0.0065632374 -0.00039313297
000130 2b dc bf bc aa da d0 3b 98 ef b5 3b 55 39 91 3a
       -0.023420414 0.006373723 0.0055522434 0.0011079708
000140 99 14 0c bc db 5e 19 3b ef 70 c0 bb 26 8c 05 bc
       -0.008549833 0.0023402486 -0.0058728377 -0.00815109
000150 c0 0a 42 3c af 79 82 bb c5 bb 51 3c 00 75 06 bb
       0.011843383 -0.003981791 0.012801115 -0.0020516515
000160 ad 24 5b bc 05 78 24 3c 6c b8 39 3b 22 28 b1 3b
       -0.013375443 0.0100383805 0.0028338684 0.0054063955
000170 33 35 58 bc 12 45 7e 3b 3c a0 91 bb bf 4b 34 bb
       -0.013196277 0.0038798493 -0.0044441503 -0.0027510969
000180 b0 f4 70 3c f1 13 04 3c 00 aa a5 3a b0 ef 24 3b
       0.014706776 0.008061395 0.0012639165 0.002516728
000190 3c 86 c5 bc cb 7e 88 bb 35 50 d5 bb 3d a7 5a 3a
       -0.02411186 -0.0041655055 -0.0065098056 0.00083409605
0001a0 22 7d 11 3c fd c3 78 bb 53 6d a4 3b f3 79 23 bb
       0.008879932 -0.0037958615 0.0050179153 -0.0024944514
0001b0 6f b2 f0 b9 16 ed a4 3b 0f 1b 98 3c 96 fe 29 bb
       -0.0004590931 0.0050331457 0.01856759 -0.0025939099
0001c0 af fe 40 bc 78 86 16 3c 6b 26 da 3b 4f e6 49 bb
       -0.011779471 0.009187333 0.006657412 -0.003080744
0001d0 a1 dc a1 3a 40 81 69 3b fb 80 89 3b 58 df 4f bc
       0.0012349078 0.0035630018 0.004196284 -0.012687527
0001e0 9d c8 1d 3b 65 5c 87 bb 27 3d b5 bb 7e d2 b0 ba
       0.0024075874 -0.0041308873 -0.0055309716 -0.0013490466
0001f0 53 72 88 bb 16 f5 93 3b c3 5a c2 bc 03 f1 5c 3b
       -0.004164019 0.0045153005 -0.02372492 0.003371299

onnx::Div_70 f4 [13]
000000 91 17 b7 3d f7 a5 cb 3d 51 40 f3 3d 02 ac 0c 3e
       0.08940042 0.09943765 0.11877502 0.13737491
000010 95 fd 17 3e ed 22 62 3d 20 ef 08 3d 6a 7c b9 3d
       0.14842828 0.05520909 0.033431172 0.09056933
000020 43 a3 02 3e c3 b8 f8 3d e5 31 e3 3c 0d ce 61 3f
       0.12757592 0.121446155 0.027733753 0.88205034
000030 2d 9f d2 3e
       0.41137066
