results/TestRun/BlueCar/BlueCar-57199.onnx (onnx, 349850 bytes, 11 tensors)

network_body.observation_encoder.processors.0.normalizer.running_mean f4 [68]
0	0x3e298cfe	0.1655769
1	0x3da1ba41	0.07896853
2	0x3f416457	0.7554373
3	0x3f612d90	0.8796015
4	0x3e7365a4	0.23769242
5	0x3da8fee8	0.082517445
6	0x3f2e0470	0.6797552
7	0x3f5ef624	0.8709433
8	0x3eea9b69	0.45821694
9	0x3d8a4fc7	0.067534976
10	0x3ef2ce5d	0.47423068
11	0x3f4b91c6	0.7951931
12	0x3f088a11	0.5333567
13	0x3d9f1d23	0.07769229
14	0x3ec7224f	0.38893363
15	0x3f3b9b82	0.7328416
16	0x3f471ee1	0.7778149
17	0x3d81c11f	0.06335663
18	0x3e229ace	0.15879366
19	0x3f1e0ae8	0.6173539
20	0x3f50e08e	0.81592643
21	0x3d8fb7d5	0.07017485
22	0x3de93a7e	0.113881096
23	0x3f0e6358	0.55620337
24	0x3f6c3347	0.92265743
25	0x3d868d51	0.06569923
26	0x3c3e7a79	0.011625879
27	0x3ee5cbc7	0.44882032
28	0x3f69bbf6	0.9130243
29	0x3d87d750	0.066328645
30	0x3ca8fef0	0.020629376
31	0x3ed76514	0.42069304
32	0x3f6cfe15	0.925752
33	0x3d90c19c	0.07068178
34	0x3b68957c	0.003548949
35	0x3eb3c89d	0.35113993
36	0x3f6d5400	0.927063
37	0x3d81ca49	0.06337411
38	0x3c1c648d	0.009545458
39	0x3eae1682	0.34001547
40	0x3f69b3f5	0.9129022
41	0x3daee746	0.08540206
42	0x3adbfb1c	0.001678321
43	0x3e9434a8	0.28946424
44	0x3f6d99e1	0.92812926
45	0x3d7beb13	0.06150348
46	0x3c299192	0.010349648
47	0x3e95be84	0.29246914
48	0x3f67df59	0.90575176
49	0x3dbf31c1	0.09335662
50	0x3a652594	0.00087412563
51	0x3e80c90f	0.25153396
52	0x3f6e1da2	0.93013966
53	0x3d6f7565	0.058461566
54	0x3c3a77de	0.011381118
55	0x3e869a12	0.2628942
56	0x3f649afa	0.89298975
57	0x3dda67ce	0.106643304
58	0x39b75140	0.00034965016
59	0x3e66f6e7	0.22555123
60	0x3f6f60c1	0.9350701
61	0x3d60a2ad	0.05484264
62	0x3c24fc59	0.01006993
63	0x3e799551	0.24373366
64	0x3f611c2e	0.87933624
65	0x3df65e5b	0.120297156
66	0x39b75148	0.0003496504
67	0x3e555104	0.20831686

network_body.observation_encoder.processors.1.normalizer.running_mean f4 [6]
0	0x3d570615	0.052496035
1	0x3e7dfbe4	0.2480312
2	0x3f40683d	0.75159055
3	0x3e8edf04	0.27904522
4	0xbb4834ad	-0.0030548975
5	0x3db9bd9d	0.09069369

network_body._body_endoder.seq_layers.0.weight f4 [256, 74]
0	0xbda73ffe	-0.081665024
1	0xbe1e5198	-0.15460813
2	0xbda71446	-0.08158164
3	0xbdfed508	-0.12442976
4	0xbd8a480b	-0.06752022
5	0xbe1c5ec1	-0.15270521
6	0xbd9566b3	-0.07294979
7	0xbe350263	-0.17676692
8	0xbc51ead9	-0.01281234
9	0xbe1a7d99	-0.15086974
10	0x3d1a80a0	0.037720323
11	0x3e148889	0.14505209
12	0xbe43ec39	-0.1913308
13	0x3e05b3a8	0.13056815
14	0xbd2eaa64	-0.042642966
15	0xbcc43f12	-0.023955856
16	0xbcb73877	-0.022365792
17	0x3d813573	0.06309023
18	0xbc190f98	-0.009342097
19	0xbe057082	-0.130312
20	0xbd5f76ac	-0.054556534
21	0xbc47226f	-0.012154206
22	0xbcbe5fd0	-0.023239046
23	0x3e4a98ed	0.19784899
24	0x3d6d821d	0.057985414
25	0x3e3b6b1c	0.18302578
26	0x3e5ed938	0.2176255
27	0xbe6dfdff	-0.23241423
28	0x3de87dba	0.113521054
29	0xbd24e9d6	-0.040262066
30	0xbe00dee2	-0.12585023
31	0xbd1cb439	-0.03825781
32	0xbd3cf000	-0.04612732
33	0xbd32cab1	-0.043650333
34	0x3d041988	0.03225091
35	0xbcf61b8e	-0.030042436
36	0x3e71d7c4	0.23617464
37	0xbe3107cf	-0.17288135
38	0x3e1c3e03	0.1525803
39	0x3e569e3a	0.20958796
40	0xbe78e55a	-0.2430624
41	0xbacb6357	-0.0015517276
42	0x3de0d95c	0.10978958
43	0xbe297c66	-0.1655136
44	0x3d8f3899	0.06993217
45	0x3dcc81f6	0.099857256
46	0xbe07c0e5	-0.13257177
47	0x3d3fab3d	0.046794165
48	0xbe758bcd	-0.23979111
49	0x3d5bd58d	0.053670455
50	0x3d6b227f	0.057405945
51	0xbe3efde7	-0.18651544
52	0x3e47fb90	0.19529557
53	0x3ce3e02c	0.027816854
54	0x3c81af5b	0.015830686
55	0x3e2fa6ef	0.17153524
56	0x3e03e261	0.12879325
57	0x3d93b326	0.07211904
58	0x3e2897a7	0.16464101
59	0x3d085332	0.033282466
60	0x3e39f510	0.1815989
61	0x3d218503	0.03943349
62	0x3cd778cc	0.026302718
63	0xbd93a12e	-0.07208477
64	0xbdd78be8	-0.10524732
65	0x3dfd77b6	0.12376349
66	0xbdb568f2	-0.08857907
67	0xbdd5fc71	-0.1044854
68	0x3cdf170e	0.027232673
69	0xbcfbc90b	-0.030735513
70	0xbde683bf	-0.11255597
71	0xbe5fa46a	-0.21840063
72	0xbcc4ec01	-0.024038317
73	0x3df4fb29	0.119619675
74	0x3c61f263	0.0137907
75	0xbc0c6313	-0.008568543
76	0x3e6efdc6	0.23338994
77	0xbd0bb0b8	-0.03410408
78	0x3e050bd7	0.12992798
79	0xbc087fee	-0.008331282
80	0xbdf38fec	-0.11892685
81	0x3d349fde	0.044097774
82	0x3c579b28	0.013159551
83	0x3ddf3cd3	0.10900273
84	0xbe0f491f	-0.13992737
85	0xbd0e6d1e	-0.03477203
86	0xbe839510	-0.25699663
87	0xbcacf8be	-0.021114703
88	0x3d4d86a8	0.050177246
89	0xbda2a126	-0.07940893
90	0x3cbef9cc	0.023312472
91	0x3de59d6d	0.11211667
92	0xbbbf38ef	-0.0058356444
93	0x3a98d17e	0.0011659113
94	0xbe403c9a	-0.18773118
95	0x3cc31a50	0.023816258
96	0xbd4897ae	-0.048972778
97	0x3db1f148	0.08688599
98	0x3d848c1b	0.064720355
99	0x3e0b0c1e	0.13578841
100	0xbe46b8ea	-0.19406477
101	0x3c4bbfee	0.012435896
102	0x3d5f8a17	0.054575052
103	0xbe01e9ac	-0.12686795
104	0xbe512259	-0.20423259
105	0x3e373ac2	0.17893508
106	0x3dbeddee	0.093196735
107	0xbdb3c07f	-0.0877695
108	0x3e152035	0.14563067
109	0x3d3360b7	0.043793406
110	0xbddc807e	-0.107666954
111	0xbcb42eb9	-0.021994935
112	0x3d96fb49	0.073721476
113	0xbd9e02bc	-0.07715365
114	0xbe5581af	-0.20850252
115	0xbd0adef4	-0.03390403
116	0xbc0cb654	-0.008588392
117	0x3d661171	0.056168977
118	0xbe76025a	-0.24024335
119	0x3dbe3741	0.092878826
120	0xbe42a517	-0.1900829
121	0xbd312387	-0.043246772
122	0xbcf2261c	-0.029559188
123	0xbe32b9a1	-0.17453624
124	0x3baf622f	0.0053522806
125	0x3d92b2e3	0.07163026
126	0x3d3351ba	0.043779112
127	0x3e545fa2	0.20739606
128	0xbd5f76e0	-0.054556727
129	0x3c59e4f1	0.013299213
130	0xbdf37ad7	-0.11888664
131	0xbd67b3da	-0.056568004
132	0xbca15c5b	-0.019697359
133	0xbdda15b6	-0.10648672
134	0x3df48538	0.11939472
135	0xbcf8303a	-0.030296434
136	0x3ce5949d	0.028024966
137	0x3c886875	0.016651371
138	0xbe501776	-0.2032145
139	0x3d549b8c	0.051906154
140	0xbc28b985	-0.010298138
141	0x3d428b73	0.04749627
142	0xbe4de1dd	-0.20105691
143	0x3dbe398d	0.09288321
144	0xbe041d15	-0.12901719
145	0xbd1dc2c4	-0.03851582
146	0x3d02b66d	0.031912256
147	0xbdcfbafa	-0.10143085
148	0x3e407ee5	0.18798406
149	0x3e04db43	0.12974267
150	0x3e05a132	0.13049772
151	0x3e37ddb5	0.17955668
152	0xbe0f1b01	-0.13975145
153	0x3d542bad	0.051799465
154	0x3d82ce50	0.06387007
155	0x3d773612	0.0603543
156	0x3ae723ec	0.0017634607
157	0x3e2d87fa	0.16946402
158	0xbdaca194	-0.08429256
159	0xbc55fb4f	-0.013060405
160	0x3da1000c	0.07861337
161	0x3d1369b4	0.03598948
162	0x3d221860	0.039574027
163	0x38eb610a	0.00011223748
164	0x3e37d984	0.1795407
165	0x3e4b7607	0.19869243
166	0xbdbc0143	-0.09179928
167	0x3bf48fc7	0.0074634287
168	0x3d4b7fb9	0.049682353
169	0xbd756c29	-0.059917603
170	0xbe56bf83	-0.20971493
171	0xbbf767e7	-0.007550228
172	0xbcac51ff	-0.021035193
173	0xbc1670f5	-0.0091822045
174	0x3d680b04	0.05665113
175	0xbdcf1d85	-0.10113052
176	0xbdf95119	-0.12173671
177	0xbc3f7214	-0.011684913
178	0x3cfd5dd3	0.030928528
179	0x3cf0a90c	0.029377483
180	0xbd5e6825	-0.05429854
181	0xbe01bf32	-0.12670591
182	0xbc29f482	-0.010373237
183	0xbbc1a869	-0.0059099686
184	0xbd4ab544	-0.049489275
185	0x3d3cd705	0.046103496
186	0xbc8b7462	-0.01702327
187	0x3e09160a	0.13387313
188	0x3dcef4f3	0.10105314
189	0xbe84394c	-0.25824964
190	0xbdd224d4	-0.10260931
191	0xbdad2875	-0.08454982
192	0x3e238f7d	0.15972705
193	0xbbe4ecdb	-0.006986243
194	0xbd43655a	-0.04770408
195	0x3cf293f8	0.029611573
196	0x3e946434	0.289827
197	0xbde11cb8	-0.10991806
198	0xbe47d3b9	-0.1951436
199	0x3e380fdc	0.179748
200	0x3ca25275	0.01981471
201	0xbd848a03	-0.06471636
202	0x3be2c993	0.006921002
203	0xbd113d03	-0.035458576
204	0x3d1b0ba0	0.037852883
205	0x3d55bcd1	0.052182022
206	0xbddc3ce5	-0.10753802
207	0xbda3e9f0	-0.080036044
208	0x3e08cc08	0.13359082
209	0x3e17607e	0.14782903
210	0x3c8782aa	0.016541798
211	0x3e0a05ff	0.1347885
212	0x3c68825c	0.014191236
213	0x3d122a32	0.03568477
214	0xbdb10b1c	-0.08644697
215	0x3df5eaef	0.12007701
216	0x3d1d6620	0.038427472
217	0xbe19fc7e	-0.15037724
218	0x3bad03c3	0.0052799894
219	0xbd7948ee	-0.060860567
220	0xbdcc3282	-0.09970571
221	0x3e1b7eb9	0.1518506
222	0x3df50af5	0.119649805
223	0xbd1aef93	-0.037826132
224	0xbe38ae77	-0.18035303
225	0xbe5a7b1a	-0.21336022
226	0x3dc4f48f	0.09616958
227	0x3d985775	0.07438556
228	0x3d3baaf7	0.04581734
229	0x3e326535	0.1742142
230	0x3d989787	0.074507765
231	0xbd910c8e	-0.07082473
232	0xbbfa5b6b	-0.0076402924
233	0xbd8eb0eb	-0.06967338
234	0xbe16e69c	-0.14736408
235	0x3e067407	0.13130198
236	0x3ddd8869	0.10817034
237	0x3e849bc3	0.25900087
238	0x3e02866e	0.12746593
239	0x3ca177ac	0.019710384
240	0xbdd21cce	-0.102594
241	0xbd88ccb8	-0.06679672
242	0x3e260b21	0.16215183
243	0xbdc200c4	-0.09472802
244	0xbe025b5c	-0.12730163
245	0x3d09d845	0.033653516
246	0xbc887c12	-0.016660724
247	0xbe47dbe6	-0.19517478
248	0xbe35a60e	-0.17739126
249	0x3d50d32d	0.050982643
250	0x394f08c2	0.00019744321
251	0xbc8aeb00	-0.01695776
252	0xbc0dae30	-0.008647487
253	0x3d17cbb1	0.03705949
254	0x3e269d87	0.1627103
255	0x3cc84e1c	0.024451308

network_body._body_endoder.seq_layers.0.bias f4 [256]
0	0x3c74c3ee	0.014939291
1	0xbca21470	-0.019785136
2	0x3cf41557	0.029795332
3	0xbc998b1f	-0.018743096
4	0x3c02fd19	0.0079949135
5	0x3cf190cd	0.029487992
6	0x3cc25ff1	0.023727389
7	0x3c6e6286	0.014549857
8	0xbc186b82	-0.009302976
9	0x3c3c1a8d	0.01148094
10	0x3d261b54	0.040553406
11	0xbbd3eeca	-0.006467675
12	0xbc96b43b	-0.018396487
13	0x3c16ec62	0.0092116315
14	0x3cadc389	0.021211402
15	0xbc41e437	-0.011834196
16	0x3d23789c	0.039909944
17	0x3c6ef044	0.014583651
18	0x3c962f51	0.01833311
19	0xbcb5033c	-0.022096269
20	0x3ce7e2b5	0.028306345
21	0x3cf84997	0.030308528
22	0x3cf1b9e0	0.029507577
23	0x3bfda481	0.0077405577
24	0xbcaa92d1	-0.02082196
25	0xbce1f7bb	-0.027583947
26	0x3d0721a9	0.032991085
27	0x3c8d5ce2	0.017256204
28	0x3cbdc146	0.023163449
29	0x3cbeaf2d	0.02327689
30	0xbbaf14e1	-0.005343065
31	0x3cce90af	0.025215475
32	0xbbbe4cb8	-0.0058074854
33	0x3ce5244b	0.027971407
34	0x3c3d7dc1	0.011565627
35	0xbcf84a04	-0.03030873
36	0x3c9be0de	0.019028123
37	0x3a8ccb74	0.0010741786
38	0x3c81fead	0.01586851
39	0xbb2c55f5	-0.0026296352
40	0xba937eba	-0.0011252977
41	0x3bbc079c	0.005738212
42	0xbae5e590	-0.0017539728
43	0x3ca87dbf	0.020567773
44	0xba4bc0da	-0.00077725726
45	0x3cacbcdb	0.021086147
46	0x3d03ff4d	0.032225896
47	0x3c70e370	0.014702663
48	0x3cd5d02a	0.026100237
49	0xba992f7e	-0.0011687127
50	0x3a9e1f06	0.0012063689
51	0x3cd0fb42	0.025510434
52	0xbcd0a340	-0.025468469
53	0x3c90c376	0.017671328
54	0x3caf8f72	0.021430705
55	0x3c43961f	0.011937647
56	0x3c403e25	0.011733566
57	0x3c82e727	0.015979363
58	0x3c90e40f	0.017686872
59	0x3ce82441	0.0283376
60	0x3cc2b1c7	0.023766411
61	0x3c489f02	0.012244942
62	0x3ce2d399	0.027688788
63	0x3cdf3403	0.02724648
64	0x3bbabe99	0.0056989905
65	0xbcb455e3	-0.02201361
66	0x3c98f04d	0.018669272
67	0x3ca45fb2	0.020065162
68	0xbcc724ec	-0.024309598
69	0xbcb2c53d	-0.021822566
70	0xbc836cd7	-0.01604311
71	0x3c6fe570	0.0146421045
72	0x3d01526e	0.03157275
73	0xbccc3570	-0.024927825
74	0xbc5ad2bd	-0.013355908
75	0x3cc26bdf	0.023733078
76	0x3cce37b0	0.025173038
77	0xbc88d95d	-0.01670521
78	0x3bc302a2	0.0059512416
79	0x3d2c58b7	0.042076793
80	0x3ca53802	0.020168308
81	0x3c082659	0.008309924
82	0x3cb136e5	0.021632621
83	0xbc1e2b15	-0.009653826
84	0x3c4b1e31	0.012397335
85	0x3d2327bc	0.039832816
86	0xbcdd07d7	-0.026981277
87	0x3bb28e68	0.005449105
88	0xbca952b0	-0.020669311
89	0xbcf33aaa	-0.02969106
90	0x3c87aaee	0.016560998
91	0x3c59ff09	0.013305434
92	0x3d0c00dd	0.03418051
93	0xbc623c73	-0.0138083575
94	0x3d0aca51	0.03388435
95	0x3c847dec	0.016173325
96	0x3c10266d	0.008798224
97	0x3cf8fc79	0.030393826
98	0x3ca4de70	0.020125598
99	0x3c7b9522	0.01535538
100	0x3cf54b5c	0.02994316
101	0x3ce51153	0.027962362
102	0x3c58b355	0.01322635
103	0x3c09dc02	0.00841427
104	0xbc29c060	-0.010360807
105	0x3d0aaa57	0.033853855
106	0xbbe313e4	-0.0069298614
107	0x3cca68f5	0.02470825
108	0x3c010a41	0.00787598
109	0x3c4ce84c	0.012506556
110	0x3c9d3efb	0.01919507
111	0xbc65a1cc	-0.014015626
112	0x3b9f72da	0.0048659863
113	0x3ca7a25f	0.020463167
114	0xbcc67eea	-0.02423044
115	0xbcba2f26	-0.02272756
116	0xbcabe96d	-0.02098533
117	0x3cb29ae5	0.021802375
118	0x3c2bcb32	0.010485457
119	0x3d00e4aa	0.03146807
120	0x3d04a084	0.032379642
121	0xbbe6ed2a	-0.007047315
122	0xbbdb4e7a	-0.0066927047
123	0xbc77412f	-0.015091225
124	0xbcd42d06	-0.025900375
125	0x3b72b689	0.003703507
126	0x3c8f292a	0.017475683
127	0xbc139136	-0.009006789
128	0x3c918ac2	0.01776636
129	0x3c9ac10f	0.018890886
130	0x3c0170c1	0.007900418
131	0xbc9c9b7c	-0.01911711
132	0x3cbc201c	0.02296453
133	0x3b8eac1b	0.0043540127
134	0x3c9e11e4	0.01929564
135	0xbcca5f9c	-0.024703793
136	0x3d09b8bc	0.033623442
137	0x3c82915e	0.015938457
138	0x3c8170d9	0.01580088
139	0x3cc64ab3	0.024205541
140	0xbc11e3e3	-0.00890443
141	0xbb15e79b	-0.0022873643
142	0x3ced6ffe	0.028984066
143	0xbcd0cf49	-0.025489466
144	0x3d09dbfb	0.033657055
145	0x3cdda92a	0.027058203
146	0xbc528e7f	-0.0128513565
147	0xbba9cc19	-0.005181801
148	0xbc3804d6	-0.011231622
149	0x3cfbf95b	0.03075855
150	0x3c9fbb06	0.01949836
151	0xbcd31df2	-0.025771115
152	0x3ce99cec	0.028517209
153	0xbcafa60c	-0.021441482
154	0xbc45d689	-0.012075075
155	0xbca7a444	-0.02046407
156	0xbce3f53f	-0.027826903
157	0xbc725c37	-0.014792494
158	0x3cab0175	0.020874718
159	0xbc506636	-0.0127196815
160	0xbd048916	-0.032357298
161	0xbb077911	-0.0020671526
162	0x3d079825	0.03310408
163	0x3cae5b1c	0.021283679
164	0x3b203dc3	0.0024450875
165	0x3cf39245	0.029732833
166	0x3c350305	0.011048083
167	0x3b4dc615	0.0031398584
168	0xbca22e90	-0.019797593
169	0x3c4b9c97	0.012427471
170	0x3c660ba0	0.014040858
171	0x3b096b8c	0.0020968644
172	0x3cac5aac	0.02103933
173	0x3c25137a	0.010075444
174	0x3b861101	0.0040913825
175	0x3ca7ab79	0.020467507
176	0x3d33a616	0.043859564
177	0x3b33ef10	0.0027455725
178	0x3c5b6e7f	0.013393044
179	0x3a400828	0.0007325434
180	0x3c27457f	0.01020944
181	0x3c60c248	0.013718195
182	0x3c7c1687	0.01538623
183	0x3c92d130	0.017922014
184	0xbad8892b	-0.0016520371
185	0x3cce923b	0.025216212
186	0x3d0011fa	0.031267144
187	0x3cd58d4a	0.026068348
188	0x3cc10672	0.023562644
189	0xbce463d0	-0.027879626
190	0xbc8f271a	-0.0174747
191	0x3d08c865	0.033394236
192	0x3ca55c48	0.020185605
193	0xbc13f158	-0.009029709
194	0x3bbf0ad4	0.0058301482
195	0x3cbaef2e	0.022819128
196	0xbc7ee1e5	-0.015556787
197	0x3cb10f5f	0.021613775
198	0x3cbf9953	0.02338854
199	0x3cc4d6e9	0.024028258
200	0x3c73fe2b	0.014892141
201	0x3d12713e	0.035752527
202	0xbb1150db	-0.0022173438
203	0xbbadac82	-0.0053001055
204	0x3ba6b32f	0.0050872783
205	0xbbd2acc4	-0.0064292867
206	0x3cf428da	0.029804636
207	0x3cf50368	0.02990885
208	0x3c9923d7	0.018693848
209	0x3d1bc422	0.038028844
210	0xbcd31516	-0.02576689
211	0x3c00fdb4	0.007872988
212	0x3cc6497a	0.024204958
213	0xbb31accf	-0.0027111059
214	0xbc89777f	-0.016780613
215	0x3cdb4c35	0.026769737
216	0x3ca22ec8	0.019797698
217	0x3c37be61	0.011214823
218	0x3cf1a168	0.02949591
219	0x3ca04a34	0.019566633
220	0x3c86703f	0.016410945
221	0x3c7fe080	0.01561749
222	0x3c8f0013	0.01745609
223	0xbb15d63b	-0.0022863287
224	0x3a8e3bc0	0.0010851547
225	0x3d2a310a	0.041550674
226	0x3cf25c73	0.029585099
227	0xbbd5795f	-0.0065147127
228	0x3c885a82	0.01664472
229	0x3bb50aff	0.0055249925
230	0x3cbca3c5	0.02302731
231	0xbcb115a2	-0.02161676
232	0x3cecb9c0	0.028897166
233	0xbca03548	-0.019556656
234	0xbca0a119	-0.019608067
235	0x3cafacaf	0.021444647
236	0x3cb3c24f	0.02194324
237	0x3ba2af28	0.004964728
238	0x3c89d02d	0.016822899
239	0x3cca7f12	0.024718795
240	0xbc2688fc	-0.010164496
241	0xbba48608	-0.0050208606
242	0x3bc96cd3	0.006147006
243	0x3c329022	0.010898622
244	0x3a120e27	0.0005571567
245	0x3ca3ee2e	0.020011034
246	0x3ab3fd16	0.0013732042
247	0xbbec50de	-0.0072117886
248	0x3c20bb80	0.0098103285
249	0xbce56a5e	-0.028004821
250	0x3cd44776	0.025912981
251	0xbbdfea35	-0.0068333396
252	0xbc42e793	-0.011896032
253	0xba0adaef	-0.0005296906
254	0x3c0f6b49	0.008753606
255	0x3c2429c7	0.010019726

network_body._body_endoder.seq_layers.2.weight f4 [256, 256]
0	0x3d19bbca	0.037532605
1	0xbc70f68d	-0.01470722
2	0xbdbc2a65	-0.091877736
3	0x3d5955fe	0.053060524
4	0x3dd5a541	0.1043191
5	0xbda33aff	-0.07970237
6	0x3d244830	0.040107906
7	0x3c16ff60	0.00921616
8	0xbc25009f	-0.010070949
9	0x3d1730fd	0.036911953
10	0xbd6da7fe	-0.058021538
11	0xbbe6ae53	-0.007039824
12	0x3de10b2e	0.109884605
13	0x3d147dcf	0.036252793
14	0x3c8aae6d	0.016928876
15	0x3d20abb2	0.03922624
16	0xbca5a2dd	-0.02021926
17	0x3a2cc649	0.0006590826
18	0xbd15e4da	-0.036595203
19	0x3d88fa5c	0.06688377
20	0xbdf8e010	-0.121521115
21	0x3e1683ce	0.14698717
22	0xbd29a800	-0.041419983
23	0x3cc8a5f9	0.024493204
24	0x3cbb1f41	0.022842051
25	0x3c0c069d	0.008546499
26	0xbd6f3c35	-0.058407027
27	0xbd8c1403	-0.068397544
28	0x3de9e3a6	0.114203736
29	0x3cd582f7	0.026063425
30	0x3d3482b3	0.044069957
31	0x3db092d7	0.086217575
32	0xbca7f637	-0.020503147
33	0xbcd1fe7b	-0.025634041
34	0xbd9cc516	-0.07654779
35	0x3ce73e65	0.028227994
36	0xbce345ea	-0.027743299
37	0xbdb70fa6	-0.089385316
38	0x3b7b7db5	0.0038374488
39	0x3ce4d4db	0.027933529
40	0xbd96e7d0	-0.073684335
41	0x3cf255fd	0.029582018
42	0x3be51520	0.0069910437
43	0x3d4a4bba	0.049388625
44	0xbe14f041	-0.14544775
45	0x3c1472ca	0.009060571
46	0xbdee354d	-0.1163126
47	0x3d5118aa	0.051048912
48	0xbd80028d	-0.062504865
49	0xbddaaacb	-0.106771074
50	0xbdd4f272	-0.10397805
51	0xbd93e819	-0.072220035
52	0xbd8f9395	-0.07010571
53	0x3cf9423d	0.030427093
54	0xbda9d942	-0.08293392
55	0x3d13ea2d	0.036112
56	0x3d12e5aa	0.035863556
57	0xbd809641	-0.06278659
58	0xbb9dbe97	-0.00481398
59	0x3b6b265c	0.0035881018
60	0xbd4e9672	-0.050436445
61	0xbc5036a4	-0.01270834
62	0xbc9b8de8	-0.018988565
63	0xbd1cdec7	-0.038298395
64	0x3c720708	0.014772184
65	0x3c87f473	0.016596055
66	0xbd8bad78	-0.06820196
67	0xbb834699	-0.0040062186
68	0x3e2b594c	0.16733283
69	0x3c9ac5d9	0.01889317
70	0xbc8b18e8	-0.01697965
71	0xbd12ba34	-0.03582211
72	0x3d883c02	0.066520706
73	0xbd720173	-0.059083413
74	0x3da61c45	0.08110861
75	0x3dc9d756	0.09855525
76	0x3d68f1aa	0.056871094
77	0x3d0cb5f6	0.03435322
78	0xbd8a7e90	-0.06762421
79	0xbd393a1d	-0.045221437
80	0x3c28eab5	0.010309865
81	0xbc3c7f63	-0.011504981
82	0xbd916191	-0.070986874
83	0xbc874246	-0.016511094
84	0x3daefef0	0.08544719
85	0xbb0e5c89	-0.0021722636
86	0x3cccd702	0.025004867
87	0xbe223ef9	-0.15844335
88	0x3d54cb40	0.051951647
89	0x3d9b6993	0.07588496
90	0xbcfa9dd0	-0.030592829
91	0x3c6451e2	0.013935538
92	0x3e4cb7d0	0.19991994
93	0xbbcd1ce7	-0.006259549
94	0x3d1428cd	0.036171723
95	0xbcd74210	-0.026276618
96	0x3d80309f	0.06259274
97	0xbde14b37	-0.11000674
98	0x3bc099ea	0.005877723
99	0xbdb006fa	-0.08595081
100	0x3d583fc9	0.052795205
101	0xbdab6a65	-0.083699025
102	0x3c1e6963	0.009668681
103	0xbd095ccc	-0.033535764
104	0x3d4c4578	0.049870938
105	0x3cb04653	0.021517908
106	0x3c9dca33	0.019261455
107	0x3ce4a3c6	0.027910125
108	0xbd2db0b9	-0.042404864
109	0x3c340d61	0.010989518
110	0xbdce69b6	-0.100787565
111	0xbcbeb6d3	-0.023280537
112	0xbba60a84	-0.0050671715
113	0xbd7ecf06	-0.06220915
114	0x3d354713	0.044257235
115	0x3bbec617	0.005821954
116	0x3d82fb62	0.06395604
117	0xbd0e8242	-0.034792192
118	0x3c3958bc	0.01131266
119	0xbdee488b	-0.1163493
120	0x3d35836f	0.044314798
121	0x3c90cb3d	0.017675037
122	0x3c1d743e	0.009610234
123	0xbe0998b0	-0.13437152
124	0x3b943741	0.0045231883
125	0xbd5449d2	-0.051828213
126	0xbb975f7e	-0.004619538
127	0x3d5d2beb	0.05399696
128	0xbd643144	-0.055711046
129	0xbe09597d	-0.13413043
130	0x3cf42f8a	0.029807825
131	0x3dd578c0	0.10423422
132	0xbd9777d5	-0.07395903
133	0x3d8bd262	0.06827237
134	0x3ce03d3a	0.027372945
135	0x3d9b207f	0.075745575
136	0x3d9f1599	0.07767791
137	0x3cceef6f	0.025260655
138	0x3cb17cf6	0.021666031
139	0xbd0bc940	-0.034127474
140	0xbd738b75	-0.05945917
141	0x3dad0240	0.08447695
142	0x3cf45d13	0.029829537
143	0xbc9eef72	-0.019401286
144	0xbca0e652	-0.019641075
145	0xb9aede00	-0.0003335327
146	0x3e0aa5e4	0.13539845
147	0x396f0435	0.00022794383
148	0x3d46ec44	0.048565164
149	0x3c94f72e	0.01818427
150	0xbc0c2e04	-0.008555893
151	0xbe0d51e6	-0.13800773
152	0xbd221597	-0.03957137
153	0xbd3bbed1	-0.045836274
154	0x3d4b9860	0.049705863
155	0x3b5826fa	0.0032982216
156	0x3de61c71	0.112358935
157	0x3d632987	0.055459525
158	0xbc753b53	-0.014967757
159	0xbbc0fcd8	-0.0058895163
160	0x3dab7e2c	0.08373675
161	0xbd6d27db	-0.057899337
162	0xbdee5e34	-0.116390616
163	0xbccd77f3	-0.02508161
164	0x3ab2170f	0.0013587194
165	0xbdc22e09	-0.09481437
166	0xbb5dbc7b	-0.0033834267
167	0x3e1c1116	0.15240893
168	0x3d2db7b8	0.042411536
169	0xbbcc4a27	-0.0062344256
170	0x3c658311	0.014008299
171	0xbcfe7730	-0.031062692
172	0xbd2dba52	-0.042414017
173	0xbd80ca88	-0.0628863
174	0x3d14d597	0.036336508
175	0x3db27fcc	0.087157816
176	0xbca06a0e	-0.01958182
177	0x3dd44c15	0.10366074
178	0xbca877f0	-0.020565003
179	0x3cb56b82	0.02214599
180	0xbd0003f1	-0.03125376
181	0x3ce6c72d	0.028171146
182	0x3d57d2a6	0.052691124
183	0x3d705103	0.05867101
184	0x3caee5cc	0.02134981
185	0x3d767567	0.060170557
186	0x3ab64e37	0.0013908808
187	0xbd2ed87b	-0.04268692
188	0xbd0abcda	-0.03387151
189	0xbd40afc3	-0.04704262
190	0xbcb735a3	-0.022364443
191	0xbc89a33f	-0.016801475
192	0xbbf56c09	-0.0074896854
193	0x3de5deec	0.112241596
194	0x3d129eb6	0.03579589
195	0xbd8c6865	-0.06855849
196	0xbd657615	-0.056020815
197	0x3c8a79dd	0.016903812
198	0xbcaa0f6b	-0.020759305
199	0x3cb8f228	0.022576407
200	0x3be4c473	0.0069814264
201	0x3db00cf9	0.08596224
202	0xbc8d89ce	-0.017277624
203	0xbdc606f8	-0.09669298
204	0xbd234385	-0.039859314
205	0xbc5ff871	-0.013670073
206	0xbdfc809b	-0.12329217
207	0x3b0ea78f	0.0021767353
208	0xbdb73b0b	-0.089468084
209	0x3d1996d4	0.037497357
210	0x3d086623	0.03330053
211	0xbd8246b8	-0.06361145
212	0x3daad57f	0.083415024
213	0xbc1e2096	-0.009651324
214	0xbd1e221c	-0.038606748
215	0x3c9b0ebf	0.01892793
216	0x39841bf6	0.00025197834
217	0xbd287e77	-0.04113623
218	0x3dc4ae2c	0.09603533
219	0x3c668f16	0.0140722
220	0x3db13088	0.08651835
221	0x3d40910d	0.04701333
222	0x3d08203f	0.033233877
223	0xbd96492d	-0.07338176
224	0xbd4e1979	-0.05031726
225	0x3cb3596f	0.021893231
226	0xbc9ad540	-0.018900514
227	0x3cf921c7	0.030411614
228	0x3d8bda36	0.0682873
229	0x3d05e692	0.032690592
230	0xbcbbce62	-0.02292556
231	0x3bac2381	0.005253256
232	0xbc943dbf	-0.01809585
233	0xbc438281	-0.01193297
234	0x3ca88d23	0.020575112
235	0x3d042e81	0.032270912
236	0x3de707b4	0.11280766
237	0xbceb455a	-0.028719593
238	0xbc95cff7	-0.018287642
239	0xbd271c90	-0.040798724
240	0xbdaa523c	-0.08316466
241	0x3d882bdb	0.0664899
242	0xbd81afa8	-0.06332332
243	0xbd6f70dc	-0.05845724
244	0xbd21b547	-0.03947952
245	0xbdb0b513	-0.08628287
246	0x3d7abbd6	0.06121429
247	0x3ca97990	0.020687848
248	0xbb1ea64d	-0.002420801
249	0x3d683685	0.05669262
250	0x3d1dd56e	0.03853362
251	0xbc6301c3	-0.0138554005
252	0xbd94aa9c	-0.07259104
253	0x3c21b160	0.00986895
254	0xbd33a22b	-0.043855827
255	0x3d2d7a3d	0.042352904

network_body._body_endoder.seq_layers.2.bias f4 [256]
0	0xbca15a57	-0.019696398
1	0x3c451c5a	0.012030685
2	0xbcfa232f	-0.030534355
3	0xbcd88e10	-0.026434928
4	0xbce98c2f	-0.028509228
5	0xbcc2e2a5	-0.023789713
6	0xbc645c8d	-0.013938081
7	0xbc63a585	-0.013894443
8	0x3c99677d	0.018726105
9	0xbd140deb	-0.036146086
10	0xbcd2c8c7	-0.025730504
11	0x3be7d84a	0.007075344
12	0xbc31ddec	-0.010856133
13	0x3b0c82fa	0.0021440373
14	0xbc5db56d	-0.013532025
15	0x3b5e005b	0.0033874724
16	0xbcbea100	-0.02327013
17	0x3c2483b4	0.010041166
18	0x3ccbfa81	0.024899723
19	0xb8e349b5	-0.000108379325
20	0xbc9fc634	-0.01950369
21	0x3cbac193	0.022797382
22	0xbc6e3301	-0.0145385275
23	0xbce1db73	-0.027570462
24	0xbb31db82	-0.0027138893
25	0x3cd3e0e3	0.02586407
26	0x3cfe4607	0.031039251
27	0x3c88ae53	0.016684687
28	0x3d050534	0.032475665
29	0xbcdc9351	-0.026925715
30	0x3c284f78	0.010272853
31	0x3c8bfe97	0.017089171
32	0x3cd34791	0.025790961
33	0x3c7a4302	0.015274765
34	0x3cebfa5f	0.02880591
35	0x3c7400c7	0.014892763
36	0x3b708ed1	0.003670622
37	0x3bd9c15b	0.006645364
38	0x3c910974	0.017704703
39	0x3c6a8052	0.0143128205
40	0x3cc53e99	0.0240777
41	0xbcbc55fc	-0.02299022
42	0xbd0b3daf	-0.033994373
43	0xbb78faaf	-0.0037991216
44	0x3caa549b	0.020792296
45	0x3cf30efc	0.029670231
46	0xbc21afdd	-0.009868589
47	0x3cfbd505	0.030741224
48	0x3c6402f7	0.0139167225
49	0x3c503f3e	0.012710391
50	0x3a5d6ba7	0.00084465224
51	0x3cb1c95b	0.02170246
52	0x3cea1df6	0.02857874
53	0x3ca95bf5	0.020673731
54	0x3c108f6d	0.008823258
55	0xbcb0d3ad	-0.02158531
56	0x3c678cd4	0.014132697
57	0x3d058b30	0.032603443
58	0x3cc1455f	0.023592649
59	0x3cbd71c3	0.023125535
60	0x3c8f1873	0.017467713
61	0xbca7904c	-0.020454548
62	0xbcd1ae59	-0.02559583
63	0x3c21d0ab	0.0098764105
64	0xb9829a5b	-0.00024910536
65	0xbccc8224	-0.0249644
66	0xbcf4b4d7	-0.029871387
67	0x3ce9add2	0.028525267
68	0x3bd25ee7	0.0064200046
69	0x3c34e9a5	0.011042033
70	0x3cf8bf90	0.030364782
71	0x3c27747a	0.010220641
72	0xbc0d37d6	-0.008619269
73	0xbca137d8	-0.019679949
74	0xbcf30ea5	-0.029670069
75	0xbcbf636f	-0.023362843
76	0xbc2e2e2e	-0.010631127
77	0x3caa019f	0.020752726
78	0x3cebce9e	0.028785046
79	0x3c7059d4	0.014669854
80	0xbc0c79c5	-0.008573954
81	0x3b48bbac	0.003062944
82	0x3cc2bb04	0.023770817
83	0x3cce786a	0.025203902
84	0xbce9341a	-0.028467227
85	0x3c87de9b	0.016585639
86	0x3c108449	0.008820602
87	0xbacdc90a	-0.0015700173
88	0x39b33eb9	0.00034188273
89	0x3d034791	0.032050673
90	0x3ca5b79d	0.020229155
91	0x3c2ac453	0.010422784
92	0xbc7dd236	-0.015492013
93	0xbca06977	-0.01958154
94	0x3c983434	0.01857958
95	0x3cafd069	0.021461682
96	0xbcd240de	-0.025665697
97	0x3cbca38a	0.0230272
98	0x3ca0c812	0.019626651
99	0x3c51c0e7	0.012802339
100	0x3c7963f9	0.015221589
101	0xbacd758f	-0.0015675294
102	0x3c6ac8b8	0.014330082
103	0x3c0a2c03	0.008433345
104	0xbc728520	-0.014802247
105	0x3cb154f1	0.021646949
106	0xbcc5c9ba	-0.024144042
107	0xbcff3936	-0.03115521
108	0xbba8fd64	-0.0051571596
109	0x3cdf9aab	0.027295431
110	0x3c8ed25a	0.017434288
111	0xbc28ed67	-0.010310507
112	0x3ba590bf	0.0050526555
113	0xbbd9a385	-0.0066418075
114	0xbc9c32fc	-0.01906728
115	0x3ac4afd8	0.0015006019
116	0xbd01e4b7	-0.03171226
117	0x3c686c04	0.014185909
118	0xbce55ed7	-0.027999325
119	0x3cb8935d	0.022531206
120	0xbc948bc3	-0.01813305
121	0xbcd88eea	-0.026435334
122	0x3cb24430	0.02176103
123	0x39abb07c	0.00032747153
124	0x3ccb939f	0.024850665
125	0x3c8df72b	0.017329773
126	0xbccd2b1d	-0.025044972
127	0x3cb84ca0	0.022497475
128	0xbc5c2117	-0.013435624
129	0x3b204cd6	0.002445986
130	0x3c7b469e	0.015336661
131	0xbb44f3eb	-0.0030052613
132	0xbca885da	-0.020571638
133	0x3c3266a2	0.010888727
134	0x3cb4d847	0.022075785
135	0xb98d85c4	-0.0002699328
136	0x3cbc5e11	0.022994073
137	0xbce5ea14	-0.028065719
138	0x3bd69221	0.0065481816
139	0xbcbfed80	-0.023428679
140	0x3c22e10b	0.00994135
141	0x3ce80bad	0.02832588
142	0x3cb5eaaa	0.022206623
143	0xbcaa123f	-0.020760654
144	0x3c542c17	0.012949965
145	0xbd0fb952	-0.035088845
146	0x3bd1a2c7	0.0063975784
147	0x3ce5cd3c	0.028051965
148	0x3bcf4a94	0.006326029
149	0xbca0947c	-0.019602053
150	0x3ce1f687	0.027583374
151	0x3c331c4d	0.01093204
152	0x3c6f0f24	0.014591012
153	0x3ce65fde	0.028121885
154	0xbcb3ae5c	-0.021933727
155	0xbc93eb42	-0.018056516
156	0x3cb6fab4	0.022336341
157	0xbcada322	-0.021195952
158	0xbcad41c1	-0.021149518
159	0x3c50ecad	0.01275174
160	0x3caf1a34	0.0213748
161	0xbca842fc	-0.020539753
162	0x3ca16f47	0.019706381
163	0x3caa816a	0.020813663
164	0xbaf5882f	-0.0018732602
165	0x3c3b4f2f	0.011432453
166	0x3cbd8eb8	0.023139343
167	0xbd020cc5	-0.03175046
168	0x3b7273c0	0.0036995262
169	0x3c8c2d22	0.017111365
170	0xbceda5f5	-0.029009799
171	0x3c1a6056	0.009422382
172	0xbcf07227	-0.029351307
173	0x3ca49ab5	0.020093301
174	0xbc155010	-0.009113327
175	0x3c865894	0.01639966
176	0x3ceb9f51	0.028762491
177	0x3c436b8e	0.0119274985
178	0x3c48bcac	0.012252014
179	0x3c9581d7	0.018250389
180	0x3b609a61	0.0034271704
181	0x3c4a69c6	0.01235432
182	0xbcda947d	-0.026682133
183	0x3cc7373a	0.024318326
184	0x3cc6729c	0.024224572
185	0xbcb3169c	-0.021861367
186	0xbca60462	-0.020265762
187	0x3c760027	0.015014685
188	0xbc345d1e	-0.011008529
189	0xbb7e8ba4	-0.0038840557
190	0xbcef4318	-0.029206797
191	0x3b055018	0.002034193
192	0x3b1293f9	0.002236603
193	0xbc680df9	-0.014163488
194	0xba8f4a6e	-0.0010932216
195	0x3c9468e7	0.018116428
196	0x3c62f0b1	0.013851331
197	0xbcad3ed0	-0.021148115
198	0xbce53a98	-0.027982041
199	0x3d1042ac	0.035219833
200	0xbc3e73b6	-0.011624267
201	0x3b86d3d0	0.0041146055
202	0x3c38a760	0.011270374
203	0x3cc33ff4	0.023834206
204	0xbc5a5f33	-0.013328361
205	0xbc2fd940	-0.010732949
206	0xbcfc4715	-0.030795613
207	0x3cf0b17f	0.029381512
208	0x3ce8ef8a	0.028434534
209	0xbcf17ac2	-0.02947748
210	0x3cc21762	0.02369279
211	0xbc8ccf9b	-0.017188838
212	0x3cbd4a43	0.0231067
213	0xbcaca9a1	-0.02107698
214	0xbc51a584	-0.01279581
215	0x3cc34e58	0.023841068
216	0xbb9c4d3f	-0.0047699506
217	0xbcbbaeda	-0.022910524
218	0xbcbf77e7	-0.023372604
219	0xbc25c7c2	-0.010118427
220	0x3cb328e2	0.02187008
221	0xbcc8d948	-0.02451767
222	0x3c713d4a	0.014724085
223	0xbd073ba6	-0.03301587
224	0x3c78c8ea	0.01518462
225	0x3ca231d5	0.019799152
226	0x3ce3eac0	0.027821898
227	0xbc8265e2	-0.015917722
228	0x3d1f03b9	0.03882191
229	0xbc8eb23d	-0.017418975
230	0xbaff388a	-0.0019471806
231	0xbcd061a0	-0.025437176
232	0x3d0a58a9	0.03377596
233	0xbc9490b0	-0.018135399
234	0x3cf520a0	0.029922783
235	0xbd0f189d	-0.034935582
236	0xbc3a6e70	-0.011378869
237	0xbcbd2f63	-0.023093885
238	0xbc71338e	-0.014721764
239	0xbd0d2735	-0.03446122
240	0x3ce540df	0.027985035
241	0x3c89812e	0.01678523
242	0x3c9ff762	0.019527141
243	0x3ce8ff50	0.028442055
244	0x3c5f46c8	0.013627715
245	0xbccd1b41	-0.02503741
246	0xbca052ba	-0.019570697
247	0x3cb3b472	0.021936629
248	0x3cba5ef4	0.022750355
249	0xbc8af0de	-0.016960558
250	0x3c771720	0.015081197
251	0x3cd4cd9b	0.025976947
252	0x3d175cfc	0.03695391
253	0xbcb1c2a3	-0.021699255
254	0x3cd04c68	0.025427058
255	0xbccadc06	-0.024763118

action_model._continuous_distribution.log_sigma f4 [1, 3]
0	0xbcb16033	-0.021652317
1	0xbd89993c	-0.0671868
2	0xbc924c5b	-0.017858675

action_model._continuous_distribution.mu.weight f4 [3, 256]
0	0xbca34e5d	-0.019934827
1	0xbad3d1bb	-0.0016160527
2	0xbd02688a	-0.031837977
3	0x3b653aa2	0.0034977575
4	0xbd0bcbc2	-0.034129865
5	0xbc722b71	-0.014780865
6	0xbc9df442	-0.01928151
7	0x3ceb3921	0.028713765
8	0x3c9ddc0e	0.01926997
9	0xbc5488ac	-0.012972038
10	0xbcf3f0b5	-0.029777864
11	0x3cd14a93	0.025548255
12	0xbc41741e	-0.01180747
13	0xbb054d1c	-0.002034015
14	0xbcb24fdc	-0.021766596
15	0xbce2ddc6	-0.02769364
16	0x3b0e8577	0.0021747032
17	0xbc178eb7	-0.009250334
18	0x3c88f0a2	0.016716305
19	0xbae9ab01	-0.0017827452
20	0xbcc7d4f0	-0.024393529
21	0x3b97ecbb	0.004636375
22	0xb9c35854	-0.00037259108
23	0xba4a70cf	-0.0007722498
24	0x3c342785	0.01099575
25	0x3cd9716f	0.026543347
26	0x3d027297	0.031847563
27	0x3ca10e2f	0.019660084
28	0x3d1d7b02	0.038447388
29	0xbcdd74ec	-0.027033292
30	0x3c0eba3c	0.008711394
31	0x3c846144	0.016159661
32	0x3c3d0407	0.011536605
33	0x3bb4fb94	0.0055231545
34	0x3bacba0d	0.0052712024
35	0x3c9e5a4a	0.019330163
36	0x3941fd22	0.00018500214
37	0xb90ff17a	-0.000137275
38	0xbc35a8a4	-0.01108757
39	0x3ca35dec	0.019942246
40	0x3c9880c0	0.01861608
41	0xbb78601c	-0.0037899083
42	0xbc87a5e2	-0.016558591
43	0xbc0c9f9c	-0.008582976
44	0x3cbca726	0.023028921
45	0xbb950d28	-0.0045486875
46	0xbc949455	-0.018137136
47	0x3ce1d197	0.02756576
48	0x3c9b2db1	0.018942686
49	0x3ca3ba69	0.019986348
50	0xb970de4a	-0.00022970993
51	0x3d443e15	0.04791077
52	0x3c544335	0.0129554765
53	0x3b9fee6d	0.0048807175
54	0x3c739bf5	0.014868726
55	0xbc8a0a4e	-0.016850617
56	0x3b5fdde0	0.0034159347
57	0x3c91d82e	0.017803278
58	0x3b581bea	0.0032975622
59	0x3ca48f30	0.020087808
60	0x3c533ac2	0.012892427
61	0x3c24f672	0.010068523
62	0x3c2228f3	0.009897458
63	0x3d1c1a1f	0.03811085
64	0xbbb8d0a4	-0.0056401063
65	0xbbbd4179	-0.005775627
66	0x3a148fdf	0.00056671904
67	0x3ca1586a	0.01969548
68	0x3a4670d1	0.00075699115
69	0xbc584203	-0.013199332
70	0x3c9a4d7a	0.018835772
71	0x3c82b6c9	0.0159563
72	0xbbcfaf20	-0.006338015
73	0xbc20d243	-0.009815755
74	0xbc30988a	-0.010778556
75	0xbce1acfe	-0.02754831
76	0xbcd6057b	-0.02612566
77	0x3c26d768	0.010183193
78	0x3c214e62	0.009845348
79	0x3c08c2bc	0.00834721
80	0xbd20a779	-0.039222214
81	0xbbb160c4	-0.0054131467
82	0x3d009aaa	0.0313975
83	0xbc1e211d	-0.0096514495
84	0xbc8c1cb9	-0.01710354
85	0x3cbfe10b	0.023422739
86	0xbc3926f9	-0.011300796
87	0xbc86afd7	-0.016441269
88	0xbb317dee	-0.0027083117
89	0x3ce7c98f	0.028294353
90	0x3c383927	0.011244095
91	0x3c03c524	0.008042607
92	0x3c18a011	0.009315507
93	0x3c09e396	0.008416077
94	0x3c6a85f4	0.0143141635
95	0x3ca4c04f	0.020111231
96	0xbcfba277	-0.030717118
97	0x3cf55844	0.029949315
98	0x3c0ec71c	0.008714464
99	0x3d02947a	0.03187988
100	0x3d0aee0a	0.033918418
101	0x3b7c1132	0.0038462398
102	0x3cbfd38d	0.023416305
103	0xbc81b27b	-0.015832176
104	0x3a956e06	0.0011400587
105	0x3c0df368	0.00866399
106	0xbc4b8184	-0.012421016
107	0xbcf21019	-0.029548692
108	0xbb8bea9b	-0.0042699105
109	0xb9a2d87f	-0.0003106035
110	0x3cdce8ac	0.026966415
111	0xbb970bc3	-0.0046095564
112	0x3d0f9361	0.03505266
113	0xbc1ea4c9	-0.0096828425
114	0xbd2baa49	-0.041910443
115	0xbd127362	-0.03575457
116	0xbc53f63a	-0.012937123
117	0x3cc222bf	0.023698209
118	0xbd4997f5	-0.049217183
119	0x3cec8c3f	0.028875468
120	0xbb1680d0	-0.0022964962
121	0xbc79a1d2	-0.015236335
122	0x3c1421be	0.009041248
123	0xbd08430f	-0.033267077
124	0x3c122cb5	0.008921792
125	0xbb7a97ce	-0.0038237455
126	0xbd24fbb3	-0.0402791
127	0x3cd11253	0.025521433
128	0x3c2f197c	0.010687228
129	0xbb76a869	-0.0037637001
130	0x3d0212ed	0.03175633
131	0x3c9088a9	0.01764329
132	0xbb61e361	-0.0034467804
133	0x3ca627ce	0.020282652
134	0x3c59bf00	0.013290167
135	0x3c63a617	0.013894579
136	0x3a66f867	0.00088108185
137	0xbd092055	-0.0334781
138	0x3c09e68d	0.008416784
139	0xbc5f5528	-0.013631143
140	0xbc63faac	-0.013914745
141	0x3c2bb3bc	0.010479864
142	0x3c741eb7	0.014899901
143	0xbc807524	-0.015680857
144	0x3c2b8605	0.010468964
145	0xbc225896	-0.009908816
146	0x3bea800d	0.007156378
147	0x3ced677e	0.028980013
148	0x3c26528c	0.010151517
149	0xbc5118e6	-0.012762284
150	0x3ccce82a	0.025013048
151	0x3d0ae090	0.033905566
152	0x3c7e9bde	0.015540091
153	0x3cc8877b	0.024478665
154	0xbd2a7bb5	-0.041621882
155	0xbc960087	-0.018310798
156	0x3cd7607e	0.026291128
157	0xbb6ebddd	-0.0036429085
158	0xbc647e1f	-0.013946085
159	0x3c340b0f	0.010988965
160	0x3bfe6c5e	0.007764383
161	0x3a886a5b	0.0010407673
162	0x3ba78fe1	0.0051135872
163	0x3be8d449	0.0071053845
164	0x3c03e846	0.008050984
165	0x3cc75a1c	0.02433496
166	0x3c9c208d	0.01905849
167	0xbc331019	-0.010929131
168	0x3cef9413	0.029245412
169	0x3c8ce6c0	0.017199874
170	0xbcf0d02c	-0.02939614
171	0x3b407d8d	0.002937171
172	0xbc962cf2	-0.018331978
173	0x3c85e16c	0.016342841
174	0x3a3182f9	0.00067715306
175	0x3c0099a5	0.007849132
176	0xbb507ba6	-0.0031811981
177	0x3c8af773	0.016963696
178	0x3ce1428d	0.027497554
179	0x3d2f03fb	0.042728405
180	0x3cb2a2ab	0.021806082
181	0x3d1ccf7a	0.038283803
182	0x3bf3cb87	0.007440034
183	0x3c811a45	0.015759597
184	0x3c7a1c83	0.015265587
185	0xbc608343	-0.01370317
186	0x3b96f38f	0.004606671
187	0x3c740231	0.014893101
188	0x3c9c778c	0.019099973
189	0x3c9ac179	0.018891083
190	0xbc84bdf9	-0.016203867
191	0x3c871caa	0.01649316
192	0xba931fea	-0.0011224721
193	0xbc958f1d	-0.018256718
194	0xba3bdefd	-0.0007166712
195	0x3cfd97d3	0.030956184
196	0xbba6ecde	-0.0050941547
197	0xbceb9d71	-0.028761597
198	0xbd0366d3	-0.032080483
199	0xbcb97f34	-0.022643663
200	0xbbf4fda3	-0.007476525
201	0x3cc85e1f	0.024458943
202	0x3c06d661	0.008229823
203	0x3cce286f	0.025165765
204	0xbc8bc9e1	-0.017064037
205	0xbc41489e	-0.011797098
206	0xbc065171	-0.008198128
207	0x3d044860	0.032295585
208	0x3ce554f1	0.027994605
209	0xbd05ba10	-0.032648146
210	0x3c2a824b	0.010407041
211	0xbc6edb3f	-0.0145786395
212	0x3cacc838	0.021091565
213	0x3b36aba1	0.0027873295
214	0xbb01ef87	-0.0019826607
215	0x3d103da9	0.035215054
216	0x3cbaa138	0.022781953
217	0xba0d528c	-0.00053910236
218	0xbd262e77	-0.040571656
219	0x3ba60399	0.005066347
220	0x3cb59195	0.022164145
221	0xbcd3ee43	-0.025870448
222	0x3cc5c843	0.024143344
223	0xbc881a8f	-0.016614227
224	0x3cc7465c	0.024325542
225	0x3cc467ad	0.023975218
226	0x3cc87caa	0.024473507
227	0x3a636f87	0.00086759817
228	0x3cc16d3b	0.023611655
229	0xbd31ab29	-0.04337612
230	0xb9c26244	-0.00037075777
231	0xbced9cd9	-0.029005455
232	0x3b11a11a	0.0022221268
233	0xbd13f743	-0.03612448
234	0x3bddbcd8	0.0067668967
235	0xbc7a5de9	-0.015281179
236	0xbd1bb957	-0.03801855
237	0xbccdb2f2	-0.025109742
238	0xbcd6d7b6	-0.026225906
239	0xbcb6f652	-0.022334252
240	0x3b9d216d	0.0047952444
241	0x3c3051e5	0.010761713
242	0x3ced2489	0.028948085
243	0x3ca55b23	0.020185059
244	0x3c413e0e	0.01179458
245	0xba94a9e3	-0.0011342134
246	0xbc6524ba	-0.013985807
247	0x3cc0860d	0.02350142
248	0x3b857fbe	0.004074066
249	0x3cc40cb4	0.023931839
250	0x3a90fc1a	0.001106146
251	0x3c44cf41	0.012012304
252	0x3cf29d3c	0.02961599
253	0xba965e3f	-0.0011472179
254	0x3c36ce16	0.011157533
255	0xbc6afe62	-0.014342876

action_model._continuous_distribution.mu.bias f4 [3]
0	0x3cabc75e	0.02096909
1	0xbbeb1af0	-0.007174842
2	0xbcf3e7c3	-0.029773599

onnx::Div_61 f4 [68]
0	0x3ebe529b	0.37172398
1	0x3e8a1902	0.26972204
2	0x3edc1511	0.42984822
3	0x3e8a8ef5	0.27062193
4	0x3ed9f414	0.4256903
5	0x3e8ce4d3	0.2751833
6	0x3eeee4c4	0.4665891
7	0x3e8d5b4a	0.2760871
8	0x3eff1d0d	0.4982685
9	0x3e808096	0.25098103
10	0x3effab2f	0.4993529
11	0x3e8f6866	0.28009337
12	0x3eff704d	0.49890366
13	0x3e891285	0.26771942
14	0x3ef99d03	0.48752603
15	0x3e9a101e	0.3009042
16	0x3ed4db5e	0.41573614
17	0x3e797c8e	0.2436392
18	0x3ebb23cf	0.36550757
19	0x3e8ce254	0.27516425
20	0x3ec66f25	0.38756672
21	0x3e82cdb3	0.2554756
22	0x3ea2a8d4	0.3176943
23	0x3e8b2e5a	0.271838
24	0x3e88ca1e	0.26716703
25	0x3e7dbceb	0.24779098
26	0x3ddbb3b0	0.10727632
27	0x3e4e13ff	0.20124815
28	0x3e904c0f	0.28183028
29	0x3e7edd3e	0.24889085
30	0x3e119d48	0.14220154
31	0x3e56c7e4	0.2097469
32	0x3e86401c	0.26220787
33	0x3e833d3c	0.25632656
34	0x3d742de7	0.05961409
35	0x3e1cd5a0	0.15315866
36	0x3e852778	0.26006675
37	0x3e7984c8	0.24367058
38	0x3dc7516a	0.097323254
39	0x3e2b4cb6	0.16728482
40	0x3e90638d	0.2820095
41	0x3e8f1bfc	0.27951038
42	0x3d2888a3	0.041145932
43	0x3dfd5bc1	0.12371016
44	0x3e8440de	0.2583074
45	0x3e760e0f	0.240288
46	0x3dcf720e	0.10129176
47	0x3e15cf16	0.14629778
48	0x3e959bb9	0.2922037
49	0x3e94f8e8	0.2909615
50	0x3cf481bb	0.029847017
51	0x3dd82e89	0.10555751
52	0x3e828837	0.2549455
53	0x3e704870	0.23465133
54	0x3dd96843	0.106155895
55	0x3e0927f6	0.1339415
56	0x3e9e498e	0.30915493
57	0x3e9e0c4f	0.30868766
58	0x3c9cf03a	0.019157518
59	0x3dbefdf2	0.0932578
60	0x3e7c5a3a	0.24643794
61	0x3e692d22	0.22771123
62	0x3dcca81c	0.09993002
63	0x3dfcae4c	0.12337932
64	0x3ea6ca7e	0.32576364
65	0x3ea69267	0.3253357
66	0x3c9cf03a	0.019157518
67	0x3dadfff0	0.08496082

onnx::Div_64 f4 [6]
0	0x3e93b9f2	0.28852803
1	0x3e0d1095	0.13775857
2	0x3f04aff4	0.51830983
3	0x3e86f714	0.2636038
4	0x3d267957	0.040643062
5	0x3db8b1e6	0.090183064
