results/testRun/BlueCar/BlueCar-4198353.onnx (onnx, 349850 bytes, 11 tensors)

network_body.observation_encoder.processors.0.normalizer.running_mean f4 [68]
0.7917263 0.03354261 0.17473051 0.518207 0.561811 0.11047471 0.32771465 0.6456745
0.94108945 0.0036909694 0.055218305 0.34928572 0.5256683 0.040856473 0.4334752 0.7379024
0.9731622 0.0012559679 0.025581466 0.25337544 0.5954657 0.011195089 0.3933374 0.7870253
0.9775687 0.0010380266 0.021393333 0.20113099 0.735186 0.0059092203 0.25890538 0.75773156
0.9837505 0.0009132143 0.015336915 0.1672403 0.7411934 0.0052634934 0.25354424 0.7061936
0.9887951 0.0008610491 0.010344282 0.14371137 0.69076645 0.004648721 0.30458537 0.6501694
0.9918999 0.00085176254 0.0072476054 0.1279198 0.7619082 0.0030664376 0.23502454 0.5652178
0.99440295 0.00082651526 0.004770683 0.1172707 0.8537933 0.0023409154 0.14386584 0.4821347
0.9958898 0.0007705385 0.0033394166 0.11036484
00000000: 93ae 4a3f fa63 093d 8eec 323e 37a9 043f
00000010: d8d2 0f3f 9140 e23d 37ca a73e ed4a 253f
00000020: 3deb 703f 31e4 713b 972c 623d 94d5 b23e
00000030: 3392 063f 1e59 273d 76f0 dd3e 2ce7 3c3f
00000040: 2821 793f 4a9f a43a 3990 d13c 6dba 813e
00000050: 7170 183f 9b6b 373c 8563 c93e 7d7a 493f
00000060: f141 7a3f 650e 883a 1241 af3c 48f5 4d3e
00000070: 2635 3c3f 22a2 c13b 3f8f 843e b2fa 413f
00000080: 13d7 7b3f c664 6f3a af47 7b3c 0b41 2b3e
00000090: dabe 3d3f 6279 ac3b 8dd0 813e 1bc9 343f
000000a0: ad21 7d3f 07b8 613a 107b 293c 1329 133e
000000b0: 12d6 303f 4c54 983b 9df2 9b3e 8071 263f
000000c0: 27ed 7d3f d148 5f3a 527d ed3b 68fd 023e
000000d0: 6a0c 433f 49f6 483b 46aa 703e 1db2 103f
000000e0: 3191 7e3f 80aa 583a 6453 9c3b 9f2b f03d
000000f0: 3392 5a3f 0b6a 193b 9151 133e 5cda f63e
00000100: a2f2 7e3f f7fd 493a 1dda 5a3b f606 e23d

network_body.observation_encoder.processors.1.normalizer.running_mean f4 [6]
-0.27712184 0.016747884 0.5931412 0.0019287069 6.417976e-05 0.0
00000000: eae2 8dbe dc32 893c 1ad8 173f aacc fc3a
00000010: 3f98 8638 0000 0000

network_body._body_endoder.seq_layers.0.weight f4 [256, 74]
0.0055547706 0.11707856 0.06806634 0.058598023 -0.06301953 0.04506713 -0.06290179 -0.09104162
0.15837601 0.027149277 -0.03639639 -0.15991592 -0.023251008 0.15263903 -0.1680667 0.19579555
-0.14741948 -0.08087195 0.076411515 -0.09684856 -0.13344552 0.049103353 0.052033268 -0.0014480231
0.10708069 0.08710701 0.10698255 -0.13678816 -0.19426878 0.31064937 0.22138275 0.045284312
0.1286108 -0.12780857 0.027470034 0.27777967 0.031450354 0.09608215 0.087387055 -0.046783373
-0.08062391 0.037745643 0.17897144 -0.04795095 -0.105468914 0.02542225 -0.3179847 0.042977847
0.15605775 0.024156196 -0.06855506 0.10316174 -0.14617597 -0.18039256 0.011596166 -0.0020542291
0.16171849 -0.096208505 0.049658496 -0.14744328 -0.030813215 0.045478106 -0.012568671 -0.082988136
0.06463841 -0.09073963 0.05596939 0.052161224 -0.24949461 0.10946815 -0.18802457 -0.14297476
0.20203424 -0.10869842 -0.008643209 -0.19747268 -0.23288548 0.028931253 -0.060004525 -0.03630289
-0.10458108 0.07236988 0.020859832 0.094137296 -0.09584154 0.0070862873 0.14616954 -0.10599262
-0.19440599 0.1644218 -0.13173015 0.21172123 -0.12670626 0.14734766 -0.08424389 -0.024744434
-0.0124597475 0.06926786 0.0007706722 -0.2788073 0.04354307 -0.11196173 -0.045399014 0.22161213
0.07546857 0.041640773 -0.077248074 0.09670857 -0.05248872 -0.0748519 0.20191151 0.085500225
0.17606485 -0.14788142 -0.040832266 -0.035565805 0.01518084 0.23622274 -0.007411965 -0.07102711
-0.08821769 -0.08761846 0.01947985 -0.08299661 0.15609942 -0.040430356 0.047408458 -0.21034396
0.08337112 -0.059144933 0.069670655 -0.05211181 0.07601585 -0.0384245 0.13053337 0.08238974
-0.0626295 -0.29952058 -0.16461964 0.17144892 -0.009120769 -0.26885897 0.31468523 -0.07150237
0.07574771 0.0775818 -0.069835395 0.063599445 0.12180538 -0.02561033 -0.05428333 -0.017031105
-0.054012176 -0.013297991 -0.0022390063 -0.025506405 0.13192168 0.098196216 0.094130464 0.19512165
0.14558804 -0.039563503 -0.1104902 0.048513148 -0.01704266 -0.014683572 0.13427676 -0.11778418
-0.04619506 0.13644145 -0.045316093 -0.057541195 0.07471764 -0.19470736 -0.022307504 -0.0926693
-0.138538 -0.19878514 0.05101734 0.034024034 0.15674147 -0.038547255 -0.0066519994 0.042462263
-0.002497851 0.03318315 0.26232064 -0.16181926 -0.3843574 0.16540113 0.18897608 0.23337488
-0.010982838 0.046022985 -0.029089998 0.06430512 0.043688245 0.046303518 -0.15048249 0.0064832754
-0.011027296 -0.13267116 0.13336843 0.17233048 0.07573454 0.058351316 0.030819947 -0.051570185
-0.018323034 0.07207111 0.10422246 0.111905806 -0.053437058 0.09279027 0.04190452 -0.038838405
0.094833076 0.033831615 -0.16253266 0.0112810135 -0.03882513 0.22941731 -0.19598511 -0.03876679
0.05059151 -0.09482546 0.19080327 -0.05259758 -0.056430493 -0.042137086 -0.099790186 0.024682406
0.027051263 0.116893016 0.12216489 -0.087168865 -0.043869503 0.024235807 0.2151415 0.065894574
0.05218188 0.2180492 0.049686827 -0.005895851 -0.096987836 -0.050656144 0.0033930829 -0.008576755
0.0652855 -0.051541388 -0.17299108 0.31973064 -0.0020696616 0.0974812 0.08661726 -0.11632439
00000000: cb04 b63b e2c6 ef3d 5e66 8b3d 7b04 703d
00000010: 6210 81bd 5098 383d a7d2 80bd 0774 babd
00000020: 522d 223e 2968 de3c 6214 15bd 00c1 23be
00000030: e678 bebc 684d 1c3e ad19 2cbe a17e 483e
00000040: 22f5 16be 31a0 a5bd a47d 9c3d 8a58 c6bd
00000050: f1a5 08be 9920 493d d620 553d 98cb bdba
00000060: 1f4d db3d 2965 b23d ab19 db3d 3212 0cbe
00000070: 65ee 46be 6f0d 9f3e 29b2 623e 0b7c 393d
00000080: 8db2 033e 40e0 02be d608 e13c 2339 8e3e
00000090: 16d2 003d b8c6 c43d fcf7 b23d ec9f 3fbd
000000a0: 261e a5bd 2d9b 1a3d 4a44 373e 3768 44bd
000000b0: 1600 d8bd 5342 d03c e4ce a2be 8a09 303d
000000c0: 9acd 1f3e 37e3 c53c 9866 8cbd 7646 d33d
000000d0: 27af 15be d4b8 38be d8fd 3d3c 3fa0 06bb
000000e0: 8899 253e f708 c5bd b566 4b3d 5ffb 16be
000000f0: ff6b fcbc 4047 3a3d d4ec 4dbc aff5 a9bd
00000100: 2561 843d b3d5 b9bd 2940 653d 02a7 553d
00000110: 847b 7fbe d630 e03d 8389 40be fa67 12be
00000120: 10e2 4e3e 479d debd 3f9c 0dbc 4736 4abe
00000130: 8879 6ebe 3c01 ed3c 4ec7 75bd 57b2 14bd
00000140: 9b2e d6bd a936 943d 3de2 aa3c 0ecb c03d
00000150: 9248 c4bd 1634 e83b 78ad 153e a912 d9bd
00000160: 5d12 47be 305e 283e 45e4 06be 73cd 583e
00000170: 49bf 01be 4ee2 163e 1088 acbd d7b4 cabc
00000180: f823 4cbc 4fdc 8d3d f006 4a3a d5bf 8ebe
00000190: 385a 323d 314c e5bd 51f4 39bd 4aee 623e
000001a0: 448f 9a3d 848f 2a3d 3d34 9ebd 250f c63d
000001b0: 69fe 56bd f44b 99bd e4c1 4e3e be1a af3d
000001c0: 584a 343e 3a6e 17be bc3f 27bd 73ad 11bd
000001d0: 0fb9 783c 60e4 713e 12e0 f2bb a976 91bd
000001e0: 7aab b4bd 4f71 b3bd 3594 9f3c 20fa a9bd
000001f0: 87d8 1f3e 4d9a 25bd 5f2f 423d 6864 57be
00000200: 7abe aa3d f541 72bd 7daf 8e3d 3173 55bd
00000210: 33ae 9b3d 0263 1dbd 8aaa 053e f4bb a83d
00000220: e543 80bd c35a 99be 0d92 28be 4e90 2f3e
00000230: 476f 15bc e2a7 89be 6c1e a13e d66f 92bd
00000240: 9e21 9b3d 35e3 9e3d dc05 8fbd 6d40 823d
00000250: 1975 f93d c1cc d1bc 3258 5ebd d184 8bbc
00000260: df3b 5dbd d1df 59bc 4bbc 12bb cff2 d0bc
00000270: 7a16 073e 191b c93d 79c7 c03d f8cd 473e
00000280: 0815 153e 570d 22bd b048 e2bd b9b5 463d
00000290: 0c9d 8bbc 5d93 70bc d97f 093e d538 f1bd
000002a0: 0837 3dbd 4fb7 0b3e 5e9d 39bd 51b0 6bbd
000002b0: 9005 993d 5e61 47be 3abe b6bc 67c9 bdbd
000002c0: e8dc 0dbe 558e 4bbe 8ff7 503d c95c 0b3d
000002d0: d680 203e bae3 1dbd 04f9 d9bb e9ec 2d3d
000002e0: fcb2 23bb 0eeb 073d e44e 863e f3b3 25be
000002f0: 7eca c4be ea5e 293e f282 413e d3f9 6e3e
00000300: 5df1 33bc 9982 3c3d 264e eebc 67b2 833d
00000310: 72f2 323d c2a8 3d3d 1518 1abe a871 d43b
00000320: d5ab 34bc f3da 07be bc91 083e 6777 303e
00000330: b61a 9b3d ca01 6f3d 1d7a fc3c 423b 53bd
00000340: 301a 96bc 059a 933d 9672 d53d df2e e53d
00000350: d1e0 5abd d308 be3d 13a4 2b3d 0515 1fbd
00000360: d837 c23d 0593 0a3d f66e 26be 00d4 383c
00000370: 1907 1fbd 5fec 6a3e 52b0 48be edc9 1ebd
00000380: 0b39 4f3d da33 c2bd ef61 433e 8f70 57bd
00000390: a923 67bd f097 2cbd cc5e ccbd c232 ca3c
000003a0: 9c9a dd3c 9b65 ef3d 9631 fa3d 9785 b2bd
000003b0: 82b0 33bd 2c8a c63c 0e4e 5c3e bcf3 863d
000003c0: abbc 553d 4a48 5f3e 6a84 4b3d fc31 c1bb
000003d0: 8fa1 c6bd d17c 4fbd 7c5e 5e3b 8585 0cbc
000003e0: 67b4 853d 101d 53bd 9324 31be bcb3 a33e
000003f0: 29a3 07bb 39a4 c73d 6464 b13d 7b3b eebd

network_body._body_endoder.seq_layers.0.bias f4 [256]
-0.014546133 0.041351777 0.0075937337 -0.0050162976 0.025601806 0.015298064 0.0192964 0.011290992
-0.027072914 0.007705409 0.0043117255 0.0046899114 -0.00015165198 -0.020917611 0.027381232 -0.01385278
-0.01980314 -0.018650208 -0.026174989 -0.02647533 0.026625391 0.00848467 -0.008875461 -0.01107191
0.003699323 0.014186556 -0.00424087 0.027881201 -0.0063894014 0.008430134 -0.009453791 -0.0060295747
-0.025218075 -0.034485746 0.01924947 -0.004190144 0.020053063 -0.023904525 -0.0013796977 0.022934776
0.009408808 0.011801824 0.007904198 0.035592157 -0.018542042 -0.0046476377 -0.027207298 0.013070117
-0.020997142 0.0035719937 -0.0035268618 0.016503416 0.022350939 -0.0032448396 -0.009598087 0.032499526
-0.012694444 -0.022206506 -0.016766278 0.01713499 0.020409858 0.0071964297 0.007556538 0.014990485
-0.004683991 -0.011443002 -0.0024519688 0.0061161537 -0.033854675 -0.023364354 -0.010811948 -0.0021781765
0.00511045 0.006539844 -0.007890797 0.014468341 0.003523008 -0.010285496 -0.010686755 0.0062239515
0.003820398 -0.005415617 0.004507129 0.021757146 -0.006353058 -0.012000019 0.0066604586 -0.026315052
0.0037761298 0.031679586 0.0005157701 0.01625518 0.004689629 -0.016025716 -0.023585264 0.008875145
0.001987815 0.015109544 -0.02408949 0.01078595 -0.009511506 0.0024182848 -0.0069794734 0.023757104
0.016618062 -0.007879241 0.0073568644 0.020270193 0.0023830729 0.020711368 -0.013659771 -0.022318607
-0.026191656 -0.0090669235 -0.023221495 -0.013329644 -0.00059975864 0.029998844 0.018553764 -0.0067172367
-0.016062682 -0.014453379 -0.011548409 0.0035908346 -0.0014155015 -0.027245194 -0.022775944 -0.0061434777
0.000798971 0.00078059506 0.0064889365 0.007309648 0.030507462 -0.003971877 0.014300938 -0.020814909
-0.0027357142 -0.0012279057 0.005370976 -0.033176146 -0.015645731 -0.0011885882 0.01710206 0.016815446
0.027814656 0.008047946 0.021559 -0.008078217 0.015417857 0.0009633815 0.01162612 -0.019588305
0.0004923046 -0.0052189287 -0.0030275742 0.018543648 0.020168949 -0.03386537 0.0013780834 0.027433667
-0.042033534 0.0032069124 0.02390316 0.0038557686 0.0005650293 -0.021163855 -0.034794077 0.005692491
0.001252343 0.011136519 0.015569273 0.009460432 -0.011703612 0.009013156 0.025105095 -0.0093505215
0.011553059 -0.0051574 -0.013896336 -0.011395487 -0.017431239 0.005073321 -0.025606748 -0.0015919117
0.02781316 -0.019705622 0.005590128 -0.0052129496 -0.027412407 -0.015308703 0.0004808988 -0.011188916
0.05364673 0.00582102 -0.005019692 0.038471904 -0.01218342 -0.0134790195 0.0032147581 0.007506462
0.015739994 0.007616161 0.02544714 -0.0026317718 -0.019217663 -0.017235775 0.03283592 0.011012524
-0.0052069533 -0.02657275 3.6606325e-05 0.024291988 0.011845811 -0.012997428 0.026076384 0.017226724
0.010880641 -0.0060221665 -0.006296999 0.00095566787 -0.020871498 0.014789206 -0.0014782434 -0.019167755
0.0049783387 -0.0074635004 -0.010252209 0.012778384 0.0017752354 0.0081847645 0.0012160677 -0.0006968656
0.00091344566 -0.018204577 -0.0042683026 0.0021062123 0.0106147 0.027573252 0.0005280746 0.034169096
-0.020368684 0.0075458945 0.013897631 0.018312573 0.019198254 0.0005671369 0.00089969626 0.027811307
0.013159965 -0.01648234 0.02999803 -0.0034005234 -0.0005145897 0.004123549 0.008064579 -0.017228812
00000000: e752 6ebc 7b60 293d dbd4 f83b c15f a4bb
00000010: e1ba d13c bba4 7a3c 7c13 9e3c dafd 383c
00000020: 04c8 ddbc a87d fc3b 6049 8d3b d4ad 993b
00000030: c504 1fb9 695b abbc 9b4e e03c c5f6 62bc
00000040: 323a a2bc 52c8 98bc ee6c d6bc cbe2 d8bc
00000050: 7e1d da3c 4903 0b3c 626a 11bc f566 35bc
00000060: 5770 723b bb6e 683c fff6 8abb 1e67 e43c
00000070: 2f5e d1bb 8b1e 0a3c 13e4 1abc bd93 c5bb
00000080: 2396 cebc ed40 0dbd 11b1 9d3c 7a4d 89bb
00000090: 5246 a43c 6cd3 c3bc f9d6 b4ba b6e1 bb3c
000000a0: 6727 1a3c 705c 413c 9c80 013c 15c9 113d
000000b0: 7be5 97bc 364b 98bb d7e1 debc 0b24 563c
000000c0: 3302 acbc 1c18 6a3b ec22 67bb 2c32 873c
000000d0: 5119 b73c 60a7 54bb 4b41 1dbc 391e 053d
000000e0: 5bfc 4fbc 6bea b5bc 6f59 89bc ae5e 8c3c
000000f0: 9332 a73c 07d0 eb3b d69c f73b a79a 753c
00000100: 2a7c 99bb 6e7b 3bbc 36b1 20bb 046a c83b
00000110: 33ab 0abd 9a66 bfbc 9924 31bc bdbf 0ebb
00000120: 9075 a73b 304c d63b 6748 01bc 9f0c 6d3c
00000130: 44e2 663b 7f84 28bc 8017 2fbc 4af2 cb3b
00000140: a45f 7a3b 7d75 b1bb 8ab0 933b 0b3c b23c
00000150: 502d d0bb ba9b 44bc fa3f da3b aa92 d7bc
00000160: f278 773b 74c2 013d bf34 073a 9529 853c
00000170: 76ab 993b 5d48 83bc e235 c1bc 0e69 113c
00000180: 0046 023b 058e 773c 5257 c5bc 8eb7 303c
00000190: 26d6 1bbc 167c 1e3b 11b4 e4bb 429e c23c
000001a0: 9a22 883c ef17 01bc da11 f13b ad0d a63c
000001b0: 542d 1c3b e3aa a93c 3bcd 5fbc 83d5 b6bc
000001c0: e28f d6bc 6f8d 14bc 013b bebc 9464 5abc
000001d0: 1f39 1dba 23c0 f53c 10fe 973c 441c dcbb
000001e0: e395 83bc decd 6cbc 8a35 3dbc 3554 6b3b
000001f0: 5988 b9ba 5031 dfbc 9e94 babc 3a4f c9bb
00000200: 0972 513a d9a0 4c3a 25a1 d43b c685 ef3b
00000210: c9ea f93c 8526 82bb 7b4e 6a3c 0784 aabc
00000220: ab49 33bb aef1 a0ba 03ff af3b b6e3 07bd
00000230: 7a2b 80bc 67ca 9bba 9f19 8c3c 8cc0 893c
00000240: 90db e33c 88db 033c 809c b03c 7f5a 04bc
00000250: 2e9b 7c3c 708b 7c3a 7b7b 3e3c a777 a0bc
00000260: 010e 013a 8c03 abbb 446a 46bb d9e8 973c
00000270: 5a39 a53c 6ab6 0abd cea0 b43a 92bc e03c
00000280: 5b2b 2cbd 102b 523b 8fd0 c33c 10b1 7c3b
00000290: 791e 143a d25f adbc 3c84 0ebd 1388 ba3b
000002a0: a825 a43a f275 363c 4416 7f3c eeff 1a3c
000002b0: 82c0 3fbc ebab 133c 33a9 cd3c ee32 19bc
000002c0: 0b49 3d3c 68ff a8bb 75ad 63bc 23b4 3abc
000002d0: f5cb 8ebc 1a3e a63b 3ec5 d1bc b1a7 d0ba
000002e0: 6dd8 e33c af6d a1bc 642d b73b 64d1 aabb
000002f0: fc8f e0bc 5bd1 7abc 2521 fc39 b751 37bc
00000300: acbc 5b3d 41be be3b 3a7c a4bb b794 1d3d
00000310: f89c 47bc 1bd7 5cbc b1ae 523b c4f8 f53b
00000320: 29f1 803c fd90 f93b 8576 d03c ce79 2cbb
00000330: 5c6e 9dbc 0a32 8dbc f57e 063d e06d 343c
00000340: 179f aabb 19af d9bc be89 1938 feff c63c
00000350: ef14 423c 2af3 54bc 249e d53c 0f1f 8d3c
00000360: b744 323c 9855 c5bb 0e57 cebb c985 7a3a
00000370: b4fa aabc 6d4e 723c 9ec1 c1ba b205 9dbc
00000380: 5521 a33b 6190 f4bb e2f8 27bc 6d5c 513c
00000390: 04af e83a 6419 063c 7664 9f3a dcad 36ba
000003a0: 4d74 6f3a c421 95bc 1edd 8bbb 6108 0a3b
000003b0: 47e9 2d3c 4de1 e13c 7d6e 0a3a e5f4 0b3d
000003c0: 3adc a6bc 8d43 f73b e4b2 633c 4004 963c
000003d0: a845 9d3c eaab 143a 98d9 6b3a 8ad4 e33c
000003e0: e59c 573c f905 87bc 6ebe f53c 51db 5ebb
000003f0: 88e5 06ba d61e 873b 4c21 043c 7023 8dbc

network_body._body_endoder.seq_layers.2.weight f4 [256, 256]
-0.16345301 0.041503478 -0.010644986 0.009155129 0.052807253 -0.08497985 -0.17809635 -0.08506144
0.050035894 -0.06249765 -0.06336333 -0.0024214247 -0.07007958 0.03152505 0.09767209 0.032310355
-0.10610354 -0.077746585 0.06679967 -0.033436913 0.116807684 0.011602087 0.02535925 -0.10817386
-0.008303393 0.057819717 -0.08884289 0.0047334074 0.037367757 -0.023168141 -0.051793333 0.063380234
-0.03523752 0.028593322 -0.0546131 0.1058117 0.03164738 0.06508333 0.0044314056 0.02885009
0.0077452096 -0.05141415 0.06289585 -0.049500424 -0.012986303 0.09862503 -0.06723706 -0.04045199
-0.05773192 -0.009982306 0.09759766 -0.009894714 0.004724111 -0.056006063 -0.023521084 0.10396501
-0.07455114 0.061264534 -0.109328695 0.049420316 0.042575378 0.16240509 -0.10175619 0.07119248
-0.10918631 -0.010429197 -0.017313134 -0.005689663 -0.107581995 0.011358563 0.029856507 0.07663211
-0.022853572 -0.0859342 -0.036975645 0.08467171 -0.036027648 -0.08671718 -0.07360218 0.0640387
0.041178983 -0.01896479 -0.07113873 0.015605506 0.022542557 -0.14502935 0.029663095 -0.08277291
0.07623744 0.0062283324 -0.05299426 0.11346866 -0.11076016 -0.009589478 0.08350946 -0.118630685
-0.062081873 -0.05505834 0.065708004 -0.020665504 -0.041499004 0.056115106 -0.06501728 0.032572307
0.057765108 0.040049918 0.016173908 0.062168863 -0.004403731 -0.09757879 -0.039858017 0.051211815
-0.11816024 -0.0014469611 0.019839901 0.0057550166 0.080853015 0.00087785494 0.0063853143 0.090207174
0.006731882 -0.022670126 -0.04240221 0.050413523 0.048221607 0.15685493 -0.044261586 0.033291742
0.058204517 -0.14335887 -0.007895625 -0.041976076 -0.048916083 0.024805399 0.08073305 -0.034415957
0.0133959735 0.013705535 -0.10818157 0.11172061 -0.013707594 0.02329866 -0.020305574 0.0791186
0.021173796 0.018736506 0.09075236 0.015783979 -0.009313863 0.0032743148 0.09042195 0.08506927
-0.013988252 0.023264902 -0.044221785 0.025242815 0.0035825048 -0.063497916 0.09694377 0.10535686
-0.18807362 -0.08943201 -0.07825808 0.010360235 -0.076769456 -0.04407443 -0.019002583 0.09498123
-0.001967214 0.09364315 0.009764027 0.007078702 -0.1665557 0.0805171 -0.029163718 -0.11005147
-0.017234953 -0.045842547 -0.088065684 -0.029400198 -0.09662777 0.0042028283 -0.0038235947 0.013232178
0.05211038 -0.18568763 -0.054657158 -0.083673224 0.018324282 0.0510176 -0.018169457 0.10436169
-0.029967634 -0.10788619 0.042291336 -0.038830027 -0.019577762 -0.06908461 -0.031116344 0.02337318
-0.039037414 -0.12373416 -0.010801546 -0.00093141594 0.016341815 0.032389507 0.04248521 -0.1103445
-0.029029861 -0.026205353 0.10154989 0.0043430086 -0.022027375 0.10107332 0.0785153 -0.104754165
0.062220186 -0.07914534 -0.049607772 -0.010564835 -0.038865887 0.020691104 0.037540052 0.060262825
0.025510525 0.14899288 -0.06848733 0.015928632 0.112565674 -0.14136088 0.12801617 0.0017092545
0.021298984 -0.11773054 -0.123031214 -0.0043895347 0.15268178 0.0331251 -0.05258367 0.056623597
-0.00045062538 -0.015870444 0.03295278 -0.027344642 0.10470581 -0.018573023 -0.062258005 -0.010842247
-0.048256796 0.053942174 -0.14146718 -0.0508431 -0.07019979 -0.011051572 0.028678024 -0.025852691
00000000: 3a60 27be 8dff 293d 4f68 2ebc 65ff 153c
00000010: 6b4c 583d ea09 aebd e45e 36be b134 aebd
00000020: 70f2 4c3d 89fd 7fbd a2c4 81bd c4b0 1ebb
00000030: e285 8fbd 6920 013d 4e08 c83d dd57 043d
00000040: d04c d9bd 9a39 9fbd 44ce 883d 25f5 08bd
00000050: de38 ef3d ae16 3e3c 34be cf3c 428a ddbd
00000060: f40a 08bc 5ed4 6c3d 43f3 b5bd b31a 9b3b
00000070: ef0e 193d 1dcb bdbc 3f25 54bd 7fcd 813d
00000080: 3855 10bd 8b3c ea3c fcb1 5fbd ceb3 d83d
00000090: afa0 013d 694a 853d 5335 913b 0657 ec3c
000000a0: 87cb fd3b a597 52bd 8acf 803d f5c0 4abd
000000b0: 81c4 54bc ebfb c93d 95b3 89bd fcb0 25bd
000000c0: 4e78 6cbd d38c 23bc 48e1 c73d 701d 22bc
000000d0: b7cc 9a3b 9d66 65bd 4aaf c0bc 9beb d43d
000000e0: 45ae 98bd 85f0 7a3d b9e7 dfbd f56c 4a3d
000000f0: 8563 2e3d 854d 263e 8d65 d0bd 5dcd 913d
00000100: 129d dfbd 39df 2abc 46d4 8dbc 5a70 babb
00000110: f353 dcbd 4419 3a3c a295 f43c 4cf1 9c3d
00000120: 6a37 bbbc 45fe afbd c673 17bd 5d68 ad3d
00000130: ba91 13bd c798 b1bd bdbc 96bd b926 833d
00000140: 4bab 283d 0c5c 9bbc 2fb1 91bd 3cae 7f3c
00000150: 2bab b83c 9382 14be 0500 f33c d884 a9bd
00000160: 6022 9c3d 0a17 cc3b 8210 59bd 4262 e83d
00000170: 39d6 e2bd 301d 1dbc 0207 ab3d a5f4 f2bd
00000180: 9049 7ebd db84 61bd eb91 863d b44a a9bc
00000190: dcfa 29bd f4d8 653d c827 85bd 8a6a 053d
000001a0: 1b9b 6c3d 620b 243d 257f 843c c7a4 7e3d
000001b0: 2c4d 90bb 63d7 c7bd 2942 23bd 7bc3 513d
000001c0: fffd f1bd f5a7 bdba 4a87 a23c 9494 bc3b
000001d0: 4496 a53d d91f 663a e63b d13b 8abe b83d
000001e0: 1f97 dc3b b3b6 b9bc f1ad 2dbd 697e 4e3d
000001f0: 0584 453d 949e 203e a34b 35bd ec5c 083d
00000200: dc67 6e3d abcc 12be a75c 01bc 1bef 2bbd
00000210: 3b5c 48bd b134 cb3c 5f57 a53d bff7 0cbd
00000220: c97a 5b3c 2e8d 603c 4d8e ddbd c6cd e43d
00000230: d195 60bc d5dc be3c e057 a6bc ef08 a23d
00000240: ab74 ad3c 4d7d 993c 60dc b93d 674d 813c
00000250: 2c99 18bc e395 563b 252f b93d cc38 ae3d
00000260: fb2e 65bc 0996 be3c e721 35bd 05ca ce3c
00000270: 75c8 6a3b 320b 82bd 758a c63d 56c5 d73d
00000280: 5f96 40be 2128 b7bd c645 a0bd fabd 293c
00000290: 4e39 9dbd 6487 34bd 4eab 9bbc 8585 c23d
000002a0: 60ec 00bb fbc7 bf3d 4cf9 1f3c 75f4 e73b
000002b0: 948d 2abe 26e6 a43d c0e8 eebc aa62 e1bd
000002c0: 5130 8dbc 65c5 3bbd c85b b4bd afd8 f0bc
000002d0: c8e4 c5bd e1b7 893b 4695 7abb c7cb 583c
000002e0: b271 553d e624 3ebe 2fe0 5fbd de5c abbd
000002f0: ce1c 963c d5f7 503d 1dd8 94bc 95bb d53d
00000300: af7e f5bc 6ff3 dcbd ae39 2d3d 3c0c 1fbd
00000310: 8b61 a0bc 3b7c 8dbd b4e7 febc 1c79 bf3c
00000320: b2e5 1fbd 5668 fdbd f8f8 30bc 442a 74ba
00000330: 45df 853c dcaa 043d f904 2e3d 4cfc e1bd
00000340: 08d0 edbc 9cac d6bc 64f9 cf3d cc4f 8e3b
00000350: c172 b4bc 87ff ce3d a1cc a03d 5a89 d6bd
00000360: 98da 7e3d f416 a2bd 8531 4bbd 2118 2dbc
00000370: d631 1fbd 6480 a93c 99c3 193d 27d6 763d
00000380: 73fb d03c 9791 183e 1643 8cbd c37c 823c
00000390: d588 e63d e8c0 10be ac16 033e 1009 e03a
000003a0: 357b ae3c b61c f1bd caf7 fbbd 16d6 8fbb
000003b0: 9d58 1c3e 2fae 073d f961 57bd 25ee 673d
000003c0: ea41 ecb9 bc02 82bc 7ff9 063d df01 e0bc
000003d0: 0070 d63d 7426 98bc 4002 7fbd aea3 31bc
000003e0: eba8 45bd 78f2 5c3d c6dc 10be db40 50bd
000003f0: e8c4 8fbd a711 35bc 2dee ea3c 06c9 d3bc

network_body._body_endoder.seq_layers.2.bias f4 [256]
0.014280457 0.021471722 0.021156132 -0.015075133 0.0006883195 0.014697464 0.013320825 0.0037750427
-0.00055185636 0.006906568 0.017629897 0.01360978 -0.015897142 -0.0066114063 0.011490022 0.0077034035
-0.01313447 -0.004942524 0.018031599 0.0034204072 0.020044904 -0.005996673 -0.016019283 0.020631311
0.015372925 -0.0130547425 0.00861808 -0.006254455 0.004207847 2.7066058e-06 0.0027037042 0.023062045
0.010493115 0.010554744 0.009318093 -0.013029851 0.031502154 -0.0017497361 -0.0016213513 -0.0062785796
-0.00445041 -0.0021603722 -0.018259997 0.016390305 -0.0013175732 0.015828367 0.021312922 -0.0036386047
0.0009578458 -0.002994332 -0.005134184 -0.01960228 0.0043069148 -0.010443166 -0.0028727143 -0.0196653
-0.00012685783 -0.007470437 -0.007125587 0.031340167 0.0073906784 0.012922736 -0.003234633 0.004780945
0.00672194 -0.0097444365 0.012773677 0.032629833 0.0017573723 -0.016364882 0.012846577 0.0044788294
0.019663583 -4.8329544e-05 -0.0075611547 -0.0045556882 0.0040627094 -0.012052147 0.01438009 -0.015073857
-0.008370103 0.007870643 -0.0055131125 0.01131042 -0.017394632 0.0090743145 -0.0009257575 -0.0106731765
-0.008727027 -0.011019546 -0.01805886 0.020521168 -0.004863526 0.001679111 0.00093901664 0.02234297
-0.010730125 0.015921418 0.013156565 0.008139128 -0.010976202 0.035746798 -0.00485911 0.012423015
-0.017569518 0.021205805 0.007530525 -0.008311796 -0.0144706415 0.000860873 -0.0036346265 0.031486347
-0.010529449 -0.0038517811 0.019816533 0.009845066 0.007071145 0.01824654 0.00060054974 -0.006463638
0.008213303 -0.01626072 -0.0070967562 0.008791299 0.009573835 0.01364831 -0.009677748 0.003617424
0.022347037 0.020760717 0.0006471644 -0.007580475 -0.007623592 0.0013723983 0.014991706 -0.005980163
0.020694226 -0.010241286 -0.0070894184 -0.008434005 0.020580841 -0.00799588 -0.012730911 0.0068123234
0.031197343 -0.0048433812 0.002137707 0.007339821 0.011682161 -0.0074813375 -0.011622166 0.016021447
0.007246227 -0.0032504052 -0.006638979 -0.0039028581 -0.01720602 -0.010201465 0.009509709 0.0027299263
-0.014839287 -0.0060784 0.019151913 -0.006985216 0.031845503 0.0052220896 -0.009298716 0.0043416936
-0.0029584917 -0.013765312 0.005404946 -0.0044821226 0.0071802954 0.010474453 0.028119158 -0.008063841
0.009957487 -0.010241031 -0.0014137537 0.015106093 -0.0029587436 -0.01903235 -0.009611998 0.01436105
0.004893447 0.009488938 0.017747493 0.005756578 0.008654257 -0.0072548417 -0.0120612895 -0.0046787895
0.0071453187 -0.011063105 -0.009898855 -0.00059974426 -0.010295193 -0.020533176 0.009077321 0.029031182
-0.005065744 -0.013502088 0.022381075 -0.023855403 -0.0009098273 0.042301003 -0.015365039 0.023318142
0.0031705291 0.00986294 0.012577099 -0.0034494489 0.003788142 -0.002242133 0.003548736 -0.018665314
-0.010647011 -0.008329504 -0.007938361 0.0032174096 -0.01340242 -0.0013949351 -0.0066190357 -0.0071574766
0.001209061 0.027582726 0.003389088 -0.007634759 -0.00927341 0.0050015594 0.004600016 -0.016385315
0.015018719 -0.002033277 0.0061287647 -0.0045134868 -0.014330901 -0.020560108 -0.005124395 -0.008129971
0.0016677439 -0.007705331 -0.002544561 0.0009901671 -0.017424112 0.0045451415 -0.019379353 -0.004619979
0.023295201 -0.006100493 -0.0031382495 0.00018023816 -0.008701649 0.001370978 -0.0074755074 -0.0074127964
00000000: 94f8 693c 77e5 af3c a04f ad3c b1fd 76bc
00000010: 5770 343a a2cd 703c 973f 5a3c b566 773b
00000020: 74aa 10ba 7e50 e23b 936c 903c 8efb 5e3c
00000030: b93a 82bc 7fa4 d8bb a540 3c3c d56c fc3b
00000040: f631 57bc e5f4 a1bb 01b7 933c e928 603b
00000050: 3635 a43c bd7f c4bb df3a 83bc ff02 a93c
00000060: b9de 7b3c 8fe3 55bc d932 0d3c 2cf2 ccbb
00000070: fbe1 893b 22a3 3536 a130 313b 9dec bc3c
00000080: 50eb 2b3c ceed 2c3c eaaa 183c 287b 55bc
00000090: 6708 013d 6757 e5ba 8683 d4ba 8bbc cdbb
000000a0: bfd4 91bb 0895 0dbb fd95 95bc f644 863c
000000b0: 6cb2 acba 7eaa 813c 7098 ae3c a875 6ebb
000000c0: f217 7b3a 8e3c 44bb a83c a8bb f694 a0bc
000000d0: 0521 8d3b d019 2bbc 2644 3cbb 2019 a1bc
000000e0: 2405 05b9 91ca f4bb c27d e9bb 8c5e 003d
000000f0: 812d f23b e2b9 533c 23fc 53bb 79a9 9c3b
00000100: b843 dc3b 21a7 1fbc af48 513c dca6 053d
00000110: a157 e63a a50f 86bc 737a 523c 25c3 923b
00000120: 8615 a13c 74b5 4ab8 90c3 f7bb e247 95bb
00000130: 7a20 853b 5e76 45bc 789a 6b3c 57f8 76bc
00000140: c222 09bc dff3 003c 57a7 b4bb 574f 393c
00000150: 307f 8ebc 6fac 143c 89ae 72ba 8cde 2ebc
00000160: cefb 0ebc 538b 34bc 2df0 93bc 021c a83c
00000170: 375e 9fbb 9e15 dc3a 5728 763a 9b08 b73c
00000180: 68cd 2fbc a26d 823c a28e 573c fa59 053c
00000190: 87d5 33bc 3c6b 123d 2b39 9fbb e789 4b3c
000001a0: f3ed 8fbc ccb7 ad3c 9fc2 f63b 332e 08bc
000001b0: 4516 6dbc 36ac 613a ea32 6ebb d4f7 003d
000001c0: b683 2cbc 2a6e 7cbb 4856 a23c 334d 213c
000001d0: 10b5 e73b c579 953c 366e 1d3a edcc d3bb
000001e0: 1791 063c 3435 85bc e88b e8bb 6109 103c
000001f0: 93db 1c3c 299d 5f3c 6b8f 1ebc 4e12 6d3b
00000200: 2211 b73c 6112 aa3c 78a6 293a a265 f8bb
00000210: 53cf f9bb 0ce2 b33a c69f 753c 3ef5 c3bb
00000220: f086 a93c 11cb 27bc 5a4e e8bb c82e 0abc
00000230: 2799 a83c 2701 03bc 5095 50bc e939 df3b
00000240: 9291 ff3c 3ab5 9ebb c618 0c3b e282 f03b
00000250: 8966 3f3c 0226 f5bb e66a 3ebc 693f 833c
00000260: c271 ed3b c004 55bb cb8b d9bb 18c7 7fbb
00000270: a4f3 8cbc 0c24 27bc 9cce 1b3c 90e8 323b
00000280: 7b20 73bc 512d c7bb 79e4 9c3c 3de4 e4bb
00000290: 6e70 023d 101e ab3b a459 18bc c444 8e3b
000002a0: 41e3 41bb e787 61bc f91b b13b c5de 92bb
000002b0: af48 eb3b 0a9d 2b3c 265a e63c 331e 04bc
000002c0: ba24 233c ffc9 27bc b44d b9ba 8c7f 773c
000002d0: 7be7 41bb bbe9 9bbc a47b 1dbc 9c4a 6b3c
000002e0: 3559 a03b 7e77 1b3c 3163 913c ada1 bc3b
000002f0: 96ca 0d3c 06ba edbb b79c 45bc 8850 99bb
00000300: 4723 ea3b 0742 35bc cf2e 22bc 2838 1dba
00000310: 2bad 28bc 3135 a8bc 0bb9 143c cdd2 ed3c
00000320: 8afe a5bb dd37 5dbc 8458 b73c 686c c3bc
00000330: 7a81 6eba d143 2d3d a5bd 7bbc b005 bf3c
00000340: a7c8 4f3b 2b98 213c 2d10 4e3c 2610 62bb
00000350: 7a42 783b c0f0 12bb e991 683b 00e8 98bc
00000360: cd70 2ebc 7978 08bc e60f 02bc 2ddb 523b
00000370: d395 5bbc 41d6 b6ba 7fe4 d8bb 4489 eabb
00000380: 5b79 9e3a 2bf5 e13c 761b 5e3b 002d fabb
00000390: 80ef 17bc 1fe4 a33b bbbb 963b 7f3a 86bc
000003a0: 1311 763c ba40 05bb ced3 c83b dfe5 93bb
000003b0: 28cc 6abc ac6d a8bc 8aea a7bb 9233 05bc
000003c0: 3398 da3a 007d fcbb a6c2 26bb 7fc8 813a
000003d0: 03bd 8ebc 69ef 943b 73c1 9ebc 3163 97bb
000003e0: 94d5 be3c a5e6 c7bb 17ab 4dbb 50fe 3c39
000003f0: 5c91 0ebc 63b2 b33a 1af5 f4bb 0be7 f2bb

action_model._continuous_distribution.log_sigma f4 [1, 3]
-0.06462588 -0.12078387 -0.07336857
00000000: 935a 84bd 895d f7bd 4342 96bd

action_model._continuous_distribution.mu.weight f4 [3, 256]
0.031497512 0.0510246 0.019805066 -0.028891493 0.026198467 0.01896754 0.035843786 0.020509249
-0.059629556 0.009872297 0.03450246 0.024223423 -0.0069679385 0.02449036 0.021009455 -0.027530976
-0.03389462 0.011790549 0.022659117 -0.019870512 0.014552884 -0.015920702 -0.0215933 0.041362345
0.005549513 -0.051421482 0.03820589 -0.013737897 0.016650757 0.021914694 0.0051846965 0.03927987
0.004074526 0.020446576 0.019284405 0.00515999 0.036246806 0.0149800815 -0.008134985 -0.04968651
-0.010682136 -0.02171957 -0.020653447 0.022884037 -0.03313372 0.033389173 0.044316802 0.008957853
0.0093312 -0.027355641 -0.03932356 -0.010240412 -0.010190069 -0.031142619 0.008994605 -0.0072905375
-0.014593149 -0.045936804 -0.03514355 0.038238894 -0.0036135025 0.023689153 -0.021390116 -0.001505191
-0.018138768 -0.051046576 0.014167408 0.056336742 -0.001987219 -0.041090548 0.026877772 0.018131733
0.028453782 0.01843275 -0.017615493 0.004808893 0.0034045782 -0.032727726 0.027722599 0.009956063
-0.023055298 0.031084541 -0.05315481 0.012274509 -0.028472004 0.040468834 -0.01256834 0.0026708608
-0.036141988 -0.0052216756 -0.03236441 0.0236151 -0.030203115 -0.019919537 0.0018125888 -0.0062790164
-0.013806294 0.008554073 0.021980142 0.020350255 0.0065302914 0.03785911 -0.058856495 0.019326832
-0.030761514 0.054638095 0.016754633 -0.023003971 -0.02692754 0.013150946 -0.027643012 0.055801466
-0.036719695 0.010114836 0.019906765 0.022288973 0.030482298 -0.00011024338 0.027391192 0.001009733
-0.013184005 -0.0098529225 -0.057865944 0.0057463585 -0.0051303953 0.043740142 -0.031063294 -0.00089148176
0.04203041 0.03268264 0.011985752 -0.032490086 -0.03929512 -0.009299871 -0.0046662185 -0.055178594
0.049363732 0.0037867879 -0.016484223 -0.016013155 0.043368034 -0.009049067 -0.018120412 0.039342456
0.048403848 0.008517177 -0.013834397 0.012461908 0.021829663 -0.062076736 -0.025978684 0.010741928
-0.008178895 -0.003557174 -0.016898116 -0.032909516 -0.014602803 -0.020399168 0.03864336 0.010516254
-0.015775401 -0.04871292 0.001950026 -0.05098851 0.03324816 0.009069028 0.0066944556 -0.016691718
-0.014107948 -0.015568097 -0.0707832 0.017189277 -0.01359441 0.0048997626 0.04293322 -0.011826441
0.016281819 -0.046327244 0.01601022 0.016860517 -0.010996153 -0.023551144 -0.0044241315 0.04301764
0.012221383 0.006156247 -0.0074655125 0.026843322 0.015846293 8.556865e-05 0.019753853 -0.003377482
0.015251198 0.016726628 -0.05566671 0.006790955 -0.0061671673 -0.02953146 0.02998872 0.03492897
0.010460089 -0.014239743 0.017829131 -0.010912452 0.0031730572 0.06182858 -0.0010012179 0.022707636
0.005276218 0.000468304 0.0016288687 -0.0036469044 -0.022609605 0.0049793874 0.0023343328 -0.010664826
-0.019402457 0.0062873494 -0.005044526 -0.030230397 -0.034083646 -0.017825607 0.009875865 -0.035822168
-0.0035028015 0.026730152 0.024544323 0.0028588418 -0.027697073 -0.020728612 -0.056570947 -0.007283891
0.024517357 0.030874377 -0.011896473 -0.0102905715 -0.0023685324 -0.02533194 -0.047214262 0.010175687
0.0005961984 -0.011777196 -0.056511085 0.009357955 -0.015358573 0.017138977 -0.012512089 -0.03582883
0.05580985 0.021122228 0.021817397 -0.04317867 -0.019945476 -0.014342262 -0.018865243 -0.035010576
00000000: 8903 013d 2cff 503d 3c3e a23c daad ecbc
00000010: 2b9e d63c d061 9b3c efd0 123d 0303 a83c
00000020: 1f3e 74bd 6abf 213c 7452 0d3d 3370 c63c
00000030: 4e53 e4bb 02a0 c83c 051c ac3c a488 e1bc
00000040: 16d5 0abd 262d 413c 9d9f b93c 7cc7 a2bc
00000050: 386f 6e3c 226c 82bc 6fe4 b0bc 906b 293d
00000060: b0d8 b53b 559f 52bd c87d 1c3d eb14 61bc
00000070: 2b67 883c 7286 b33c 63e4 a93b eee3 203d
00000080: 9a83 853b 947f a73c 54fa 9d3c 2215 a93b
00000090: 8877 143d 046f 753c 9a48 05bc 1584 4bbd
000000a0: 2004 2fbc 3ded b1bc 6b31 a9bc 4e77 bb3c
000000b0: 39b7 07bd 16c3 083d 8985 353d f5c3 123c
000000c0: e4e1 183c f018 e0bc be11 21bd 67c7 27bc
000000d0: 3ff4 26bc ce1e ffbc 1c5e 133c 76e5 eebb
000000e0: 1a18 6fbc 3b28 3cbd aff2 0fbd 63a0 1c3d
000000f0: 83d0 6cbb c10f c23c 533a afbc d449 c5ba
00000100: c197 94bc 3716 51bd 6b1e 683c 5bc1 663d
00000110: 013c 02bb 904e 28bd c62e dc3c 0089 943c
00000120: e817 e93c 4700 973c 5e4e 90bc eb93 9d3b
00000130: 581f 5f3b 820d 06bd 811a e33c c11e 233c
00000140: 77de bcbc 02a5 fe3c dcb8 59bd 061b 493c
00000150: 1f3e e9bc a6c2 253d 70eb 4dbc 9c09 2f3b
00000160: 9f09 14bd 971a abbb 8b90 04bd 7474 c13c
00000170: 866c f7bc 4c2e a3bc 6394 ed3a 35c0 cdbb
00000180: cb33 62bc 6226 0c3c b30f b43c 94b5 a63c
00000190: 0efc d53b 2712 1b3d 8213 71bd 4e53 9e3c
000001a0: 92ff fbbc 32cc 5f3d 0341 893c d372 bcbc
000001b0: 2597 dcbc 1177 573c 9973 e2bc 1490 643d
000001c0: 6467 16bd b2b8 253c 8313 a33c 5d97 b63c
000001d0: 03b6 f93c 7732 e7b8 7e63 e03c 0459 843a
000001e0: ba01 58bc 276e 21bc d704 6dbd f34b bc3b
000001f0: e01c a8bb dd28 333d 7378 febc 54b2 69ba
00000200: 1428 2c3d 3bde 053d e35f 443c 5314 05bd
00000210: ebf3 20bd 7c5e 18bc 14e7 98bb f302 62bd
00000220: a031 4a3d c22b 783b ec09 87bc 052e 83bc
00000230: aea2 313d 8a42 14bc 4271 94bc 8e25 213d
00000240: 1d43 463d a18b 0b3c aba9 62bc 082d 4c3c
00000250: 1fd4 b23c 2d44 7ebd 40d1 d4bc e9fe 2f3c
00000260: c600 06bc 7a1f 69bb eb6d 8abc 21cc 06bd
00000270: 9840 6fbc 281c a7bc 8048 1e3d 5e4c 2c3c
00000280: 6a3b 81bc 3387 47bd 0498 ff3a 54d9 50bd
00000290: 392f 083d 4396 143c 2a5d db3b 12bd 88bc
000002a0: 0625 67bc 5511 7fbc c8f6 90bd 87d0 8c3c
000002b0: 17bb 5ebc 308e a03b beda 2f3d b0c3 41bc
000002c0: 7361 853c a3c1 3dbd dd27 833c 111f 8a3c
000002d0: 3529 34bc 54ee c0bc 4ef8 90bb 4433 303d
000002e0: 323c 483c 58ba c93b 42a1 f4bb 87e6 db3c
000002f0: 16d0 813c 5273 b338 d5d2 a13c bf58 5dbb
00000300: 29e0 793c 4806 893c c702 64bd a986 de3b
00000310: f315 cabb f6eb f1bc e7aa f53c ae11 0f3d
00000320: cb60 2b3c d04d 69bc 660e 923c 24ca 32bc
00000330: 11f3 4f3b f73f 7d3d 4c3b 83ba 5d05 ba3c
00000340: 20e4 ac3b b386 f539 c47f d53a e700 6fbb
00000350: c737 b9bc 212a a33b 9bfb 183b 86bb 2ebc
00000360: e7f1 9ebc 1c06 ce3b 8d4c a5bb bda5 f7bc
00000370: 4b9b 0bbd 0207 92bc 61ce 213c 44ba 12bd
00000380: 428f 65bb 31f9 da3c 2d11 c93c 685b 3b3b
00000390: f9e4 e2bc 0dcf a9bc f0b6 67bd b5ad eebb
000003a0: a0d8 c83c 43ec fc3c 6de9 42bc c999 28bc
000003b0: 6139 1bbb ee84 cfbc be63 41bd edb7 263c
000003c0: 334a 1c3a 24f5 40bc 2b78 67bd 1c52 193c
000003d0: 86a2 7bbc 0a67 8c3c 81ff 4cbc 40c1 12bd
000003e0: df98 643d 8608 ad3c 66ba b23c 1edc 30bd
000003f0: b264 a3bc cffb 6abc 488b 9abc 4067 0fbd

action_model._continuous_distribution.mu.bias f4 [3]
0.01465107 0.0056364476 -0.008533928
00000000: 0b0b 703c f3b1 b83b e3d1 0bbc

onnx::Div_61 f4 [68]
0.4060734 0.18004946 0.3797367 0.31155828 0.49616453 0.31348088 0.46938094 0.31040457
0.23545568 0.060643043 0.22840647 0.25425133 0.49934137 0.19795859 0.49555448 0.28213045
0.16160934 0.035420436 0.15788384 0.20840144 0.49080175 0.105214424 0.48849055 0.24249355
0.14808324 0.03220519 0.14469251 0.18255241 0.44123477 0.0766455 0.4380336 0.22258171
0.12643827 0.030209376 0.12289013 0.15927398 0.43797985 0.07236019 0.43503988 0.2427476
0.105262764 0.02933488 0.10118061 0.13706629 0.46217757 0.068024494 0.46023136 0.27296406
0.089633934 0.029176353 0.08482517 0.120316796 0.42591575 0.055292357 0.42401478 0.26665962
0.07460795 0.028741183 0.068906985 0.10713822 0.35331416 0.04832869 0.3509539 0.23398472
0.06398048 0.027752068 0.057693172 0.097082354
00000000: dae8 cf3e e35e 383e d96c c23e 9184 9f3e
00000010: 4709 fe3e 9180 a03e b352 f03e 59ed 9e3e
00000020: 4b1b 713e d764 783d 63e3 693e 3b2d 823e
00000030: aca9 ff3e a8b5 4a3e 51b9 fd3e 6773 903e
00000040: eb7c 253e 0515 113d 4dac 213e 3067 553e
00000050: 5e4a fb3e a97a d73d 6f1b fa3e 3b50 783e
00000060: 22a3 173e 97e9 033d 462a 143e 05ef 3a3e
00000070: 86e9 e13e 51f8 9c3d f145 e03e 76ec 633e
00000080: 0979 013e a779 f73c d2ad fb3d b818 233e
00000090: e53e e03e 9431 943d 8cbd de3e d492 783e
000000a0: 0194 d73d b44f f03c c837 cf3d 1b5b 0c3e
000000b0: 8aa2 ec3e 6d50 8b3d 72a3 eb3e f2c1 8b3e
000000c0: ff91 b73d 3f03 ef3c d2b8 ad3d a768 f63d
000000d0: a111 da3e 3d7a 623d 7718 d93e 9c87 883e
000000e0: 0ecc 983d a172 eb3c 1b1f 8d3d 486b db3d
000000f0: 98e5 b43e 4ef4 453d 3bb0 b33e b199 6f3e
00000100: 3308 833d 4e58 e33c ad4f 6c3d 1dd3 c63d

onnx::Div_64 f4 [6]
0.554413 0.09137318 0.50535417 0.0030419182 0.00076857395 0.00048804568
00000000: 03ee 0d3f dd21 bb3d e45e 013f eb5a 473b
00000010: 207a 493a 62e0 ff39
