results/testRun/BlueCar/BlueCar-13295.onnx (onnx, 349917 bytes, 10 tensors)

network_body.observation_encoder.processors.0.normalizer.running_mean f4 [68]
0	0x3f29c302	0.66313183
1	0x3b67a9be	0.0035348977
2	0x3eaaa0d0	0.33325815
3	0x3f3672b6	0.71268785
4	0x3f1a60bc	0.60303855
5	0x3baa0cf1	0.005189531
6	0x3ec88c79	0.39169672
7	0x3f3e7d55	0.7440999
8	0x3f410f17	0.7541365
9	0x3a58e046	0.00082731654
10	0x3e7ad706	0.24496087
11	0x3f273dd5	0.65328723
12	0x3f1869fb	0.59536713
13	0x3b2c83d9	0.0026323705
14	0x3ecdc92b	0.4019254
15	0x3f38e428	0.7222314
16	0x3f5646da	0.8370186
17	0x00000000	0.0
18	0x3e26d0dc	0.16290611
19	0x3f1330dd	0.57496434
20	0x3f2a16ca	0.66441023
21	0x3aec9794	0.0018050545
22	0x3eaadbf4	0.33370936
23	0x3f28d80f	0.6595468
24	0x3f634100	0.8877106
25	0x00000000	0.0
26	0x3de5d092	0.11221422
27	0x3efd0579	0.49418238
28	0x3f4423bb	0.7661702
29	0x3acf04a0	0.0015794225
30	0x3e6dbf4c	0.23217505
31	0x3f0f0e2f	0.5588102
32	0x3f6601d8	0.89846563
33	0x00000000	0.0
34	0x3dcfc9c7	0.10145908
35	0x3ed9f456	0.42569226
36	0x3f5cfa23	0.8631918
37	0x3abb4d54	0.0014290013
38	0x3e0a8d1a	0.13530388
39	0x3eea2faf	0.45739505
40	0x3f6f7fdc	0.9355447
41	0x00000000	0.0
42	0x3d83d9ce	0.06438027
43	0x3eb665d3	0.3562456
44	0x3f65e447	0.8980145
45	0x3abb4d54	0.0014290013
46	0x3dcdc92c	0.10048136
47	0x3ec6a873	0.38800392
48	0x3f741004	0.9533694
49	0x00000000	0.0
50	0x3d3eb0d3	0.04655535
51	0x3e9ea0a6	0.3098194
52	0x3f6fd892	0.93689835
53	0x3abb4d54	0.0014290013
54	0x3d7c4d9f	0.061597463
55	0x3ea99467	0.33121035
56	0x3f7b0362	0.98052037
57	0x00000000	0.0
58	0x3c9ef5d4	0.01940433
59	0x3e8b3285	0.2718698
60	0x3f75f30e	0.96074
61	0x3abb4d54	0.0014290013
62	0x3d1aa5bc	0.037755713
63	0x3e949bd6	0.29025143
64	0x3f7dc92a	0.99135077
65	0x00000000	0.0
66	0x3c0c79ff	0.008574008
67	0x3e7ebcce	0.24876711

network_body.observation_encoder.processors.1.normalizer.running_mean f4 [7]
0	0x3d569003	0.052383434
1	0x3c9d3dda	0.019194532
2	0xbc29a091	-0.010353223
3	0x3ad6ece8	0.0016397508
4	0xb6b0c9d2	-5.2687037e-06
5	0x00000000	0.0
6	0x00000000	0.0

network_body._body_endoder.seq_layers.0.weight f4 [256, 75]
0	0x3e2f4401	0.17115785
1	0xbd266d71	-0.040631715
2	0x3e9199cd	0.28437653
3	0x3dff6bb2	0.12471713
4	0x3dd98f6c	0.10623059
5	0xbe18b41e	-0.14912459
6	0xbe1bebc7	-0.1522666
7	0x3d8f22eb	0.06989082
8	0x3e10239d	0.14076085
9	0xbe582dd1	-0.21111228
10	0xbe2caae6	-0.16862068
11	0xbd35e8a6	-0.044411324
12	0x3d288a82	0.041147716
13	0x3e01c690	0.12673402
14	0xbdabb777	-0.083846025
15	0xbdc96a2c	-0.09834704
16	0x3bc54c8a	0.006021087
17	0xbdc55618	-0.09635562
18	0x3e04eecd	0.1298172
19	0xbcd62c7d	-0.02614426
20	0xbdbd3184	-0.0923796
21	0x3d34ca66	0.044138335
22	0x3d6babb3	0.057536792
23	0xbc2ffe35	-0.01074176
24	0x3c09f07c	0.008419152
25	0xbdcc9050	-0.09988463
26	0x3e01785d	0.12643571
27	0xbd1c690d	-0.03818612
28	0xbe224990	-0.15848374
29	0x3e6b38bd	0.22970863
30	0x3d8d066d	0.06885991
31	0xbd418203	-0.04724313
32	0x3cd5a426	0.026079249
33	0xbb9969d9	-0.0046818075
34	0x3d7bb4c9	0.061451707
35	0xbac851a2	-0.0015283118
36	0x3d1a761d	0.037710298
37	0xbd3196e7	-0.043356802
38	0x3d8be741	0.068312176
39	0xba6c2348	-0.0009007943
40	0x3cecef43	0.028922683
41	0x3e665370	0.22492766
42	0xbd4004ea	-0.046879686
43	0x3dbcc9f1	0.09218205
44	0x3d0bca0e	0.03412824
45	0xbd701316	-0.05861195
46	0x3e8fd691	0.2809339
47	0x3e8c7e3b	0.27440056
48	0x3dc00116	0.09375207
49	0x3dd4c983	0.10389998
50	0xbe0cf6dc	-0.13766044
51	0xbe1b05c1	-0.15138914
52	0xbd9e80da	-0.0773942
53	0xbe108e6a	-0.14116827
54	0x3d640c8c	0.055676028
55	0xbe1480be	-0.14502236
56	0x3e1f9760	0.15585089
57	0x3e0b8d2d	0.13628073
58	0x3e3f12f3	0.18659572
59	0x3de83caa	0.11339696
60	0x3aa9fb96	0.0012968655
61	0x3cc39e03	0.023879057
62	0xbdda2507	-0.10651594
63	0x3cf50ee8	0.029914334
64	0x3e1e6a68	0.15470278
65	0x3cc9ed75	0.024649361
66	0xbeac8539	-0.3369539
67	0x3e0494da	0.12947407
68	0x3ddc86a5	0.10767869
69	0xbdf471b9	-0.119357534
70	0xbdaa2a95	-0.08308903
71	0xbcb56090	-0.022140771
72	0x3e4c33de	0.19941661
73	0xbe302ad9	-0.17203845
74	0x3e29d168	0.16583788
75	0xbbdb7020	-0.006696716
76	0xbd144aba	-0.036204077
77	0x3e384c8e	0.17997953
78	0xbd3411b4	-0.043962196
79	0xbce4abe2	-0.027913991
80	0x3b9257d4	0.0044660363
81	0xbdebc9f1	-0.11513127
82	0xbe26ce58	-0.16289651
83	0x3dd5af1c	0.1043379
84	0x3dbeea4d	0.09322033
85	0xbd643c8b	-0.0557218
86	0x3dcb4fd9	0.09927339
87	0x3c73b37b	0.014874334
88	0x3d7bf797	0.061515417
89	0x3e0fd3b1	0.14045598
90	0x3d7c64fc	0.061619744
91	0x3df7633d	0.12079475
92	0x3c7b1d44	0.015326802
93	0x3e183550	0.14864087
94	0xbda00ca4	-0.07814911
95	0xbe594783	-0.21218686
96	0x3e814084	0.25244534
97	0x3cf49479	0.029855954
98	0xbcded726	-0.0272022
99	0xbd97f98c	-0.07420644
100	0xbd90b0ba	-0.07064958
101	0x3dced5ae	0.1009935
102	0xbe32fc29	-0.17479004
103	0x3d0b107b	0.033951264
104	0xbde9992d	-0.11406169
105	0x3e186ebd	0.14885993
106	0x3e28cb31	0.16483761
107	0x3d1e6194	0.038667277
108	0xbe2e15e5	-0.1700054
109	0xbdef6e11	-0.116909154
110	0xbdfc5a52	-0.12321915
111	0xbe66f5f9	-0.22554769
112	0xbd407ffe	-0.046997063
113	0xbd45ffac	-0.04833953
114	0x3e1f0da1	0.15532543
115	0x3dbe3ffd	0.092895485
116	0xbdcbb133	-0.099459074
117	0xbd5b7aff	-0.053584095
118	0xbdcb2913	-0.09919944
119	0x3da548b1	0.080705054
120	0x3d77b650	0.0604766
121	0x3e334f66	0.17510757
122	0xbe5aacb4	-0.21354944
123	0xbb1dc50e	-0.0024073753
124	0xbdd9aa40	-0.10628176
125	0xbe585924	-0.21127754
126	0xbd18c35c	-0.037295684
127	0xbe5e31cd	-0.21698685
128	0x3dccb816	0.09996049
129	0x3d83d547	0.06437164
130	0x3d9fe311	0.07806981
131	0xbe1b7144	-0.15179926
132	0xbe061814	-0.13095123
133	0xbdb71a89	-0.08940608
134	0xbe482409	-0.19544996
135	0xbcbde66f	-0.023181168
136	0x3e0cef35	0.13763125
137	0x3e38ab41	0.18034078
138	0x3d838e06	0.06423573
139	0x3e610b86	0.21977052
140	0x3e252492	0.16127232
141	0x3cdbe5e4	0.026843019
142	0x3e057f7c	0.13036913
143	0xbc027aa3	-0.007963809
144	0xbd8c4f45	-0.06851057
145	0x3d494667	0.049139407
146	0xbcea7174	-0.028618552
147	0x3d2f7f86	0.042846225
148	0xbdbcfb9e	-0.0922768
149	0xbdb59590	-0.088664174
150	0xbce9b3d8	-0.028528139
151	0x3d12facb	0.035883706
152	0xbd16d5b0	-0.036824882
153	0xbcc8c812	-0.024509463
154	0xbdb8e4e0	-0.090280294
155	0x3c89e31b	0.016831925
156	0x3d47e03d	0.048797835
157	0x3e700fc8	0.2344352
158	0x3d8876d3	0.06663289
159	0x3be2b6c0	0.006918758
160	0xbc8a930a	-0.016915817
161	0x3ca74f84	0.020423658
162	0x3db9317a	0.0904264
163	0xbeafaba8	-0.3431065
164	0x3dd321fb	0.10309216
165	0x3d7f521e	0.062334172
166	0xbd2ef815	-0.04271706
167	0x3d206f2d	0.039168525
168	0x3cd4e1e0	0.025986612
169	0xbe0691b9	-0.13141526
170	0xbdda0fdc	-0.10647556
171	0x3eaa16fe	0.33220667
172	0xbe9a7bba	-0.3017252
173	0xbda271c7	-0.079318576
174	0x3e92def1	0.28685716
175	0x3d2ad1ec	0.041704103
176	0xbe04f62d	-0.12984534
177	0x3e116a8f	0.14200805
178	0xbd869894	-0.06572071
179	0xbd5213a2	-0.051288255
180	0xbd799c13	-0.06093986
181	0x3d9ba1e2	0.07599236
182	0x3e357bd2	0.17723015
183	0x3e2eb70f	0.17062019
184	0xbdf2e3ba	-0.11859842
185	0x3d85ebc3	0.065391086
186	0xbce69cf1	-0.028151007
187	0xbe345c77	-0.17613398
188	0xbe51edf1	-0.20500924
189	0x3e2aee8f	0.16692565
190	0x3dbde89a	0.09272881
191	0x3e0a7e20	0.13524675
192	0xbd29fb8f	-0.04149967
193	0xbdff29f3	-0.12459173
194	0x3de2656b	0.110545
195	0xbdf5abed	-0.11995683
196	0xbb83b98e	-0.0040199226
197	0x3d481933	0.048852157
198	0xbde963e5	-0.113960065
199	0x3cc726c8	0.024310485
200	0x3d9ac5bc	0.07557246
201	0xbdfccb03	-0.12343409
202	0x3d850d6a	0.06496699
203	0x3d778eea	0.060439028
204	0x3e5268f3	0.20547847
205	0xbde43ddf	-0.111446135
206	0x3d95d123	0.0731528
207	0xbd77eacb	-0.06052665
208	0xbd296601	-0.041357044
209	0x3ddf8c45	0.10915426
210	0xbe25f511	-0.16206767
211	0x3a628a2d	0.00086418056
212	0xbe0ed747	-0.1394931
213	0xbdaf3b3b	-0.08556219
214	0xbdcc3bff	-0.09972381
215	0xbb19b919	-0.0023456274
216	0x3d1daf69	0.038497362
217	0xbc75a878	-0.014993779
218	0x3ce3f373	0.027826047
219	0xbd45d67d	-0.048300255
220	0x3d39628b	0.045259994
221	0xbd2000e2	-0.039063342
222	0x3d91f8af	0.07127511
223	0x3d05e27f	0.032686707
224	0x3dbad986	0.091235206
225	0x3e5c3ee2	0.21508363
226	0xbe5d9a0b	-0.21640794
227	0xbe22c2ab	-0.15894572
228	0x3e25cd58	0.16191614
229	0xbc116e9c	-0.008876469
230	0xbe35f841	-0.17770483
231	0xbd3dc98f	-0.0463348
232	0xbd442b1c	-0.047892675
233	0x3d9fd04a	0.078034
234	0x3d0e3ab4	0.034723952
235	0xbe456176	-0.1927546
236	0xbdeb0f32	-0.11477508
237	0x3e764080	0.24048042
238	0xbb875170	-0.004129581
239	0xbdbcc86d	-0.09217916
240	0x3d98fe3e	0.07470368
241	0x3dd85571	0.10563172
242	0x3de274cc	0.110574335
243	0x3dcad576	0.09903996
244	0xbd50038b	-0.05078463
245	0xbd94d4d1	-0.07267154
246	0xbd8ebf7b	-0.06970116
247	0xbc9c439e	-0.019075211
248	0xbda82b0a	-0.08211334
249	0xbdfbed74	-0.1230115
250	0xbe30ab5c	-0.17252868
251	0xbd06e87e	-0.032936566
252	0x3e316f81	0.17327692
253	0xbddcb144	-0.10775998
254	0xbc192737	-0.009347728
255	0x3b3f62cf	0.0029203182

network_body._body_endoder.seq_layers.0.bias f4 [256]
0	0x00000000	0.0
1	0x00000000	0.0
2	0x00000000	0.0
3	0x00000000	0.0
4	0x00000000	0.0
5	0x00000000	0.0
6	0x00000000	0.0
7	0x00000000	0.0
8	0x00000000	0.0
9	0x00000000	0.0
10	0x00000000	0.0
11	0x00000000	0.0
12	0x00000000	0.0
13	0x00000000	0.0
14	0x00000000	0.0
15	0x00000000	0.0
16	0x00000000	0.0
17	0x00000000	0.0
18	0x00000000	0.0
19	0x00000000	0.0
20	0x00000000	0.0
21	0x00000000	0.0
22	0x00000000	0.0
23	0x00000000	0.0
24	0x00000000	0.0
25	0x00000000	0.0
26	0x00000000	0.0
27	0x00000000	0.0
28	0x00000000	0.0
29	0x00000000	0.0
30	0x00000000	0.0
31	0x00000000	0.0
32	0x00000000	0.0
33	0x00000000	0.0
34	0x00000000	0.0
35	0x00000000	0.0
36	0x00000000	0.0
37	0x00000000	0.0
38	0x00000000	0.0
39	0x00000000	0.0
40	0x00000000	0.0
41	0x00000000	0.0
42	0x00000000	0.0
43	0x00000000	0.0
44	0x00000000	0.0
45	0x00000000	0.0
46	0x00000000	0.0
47	0x00000000	0.0
48	0x00000000	0.0
49	0x00000000	0.0
50	0x00000000	0.0
51	0x00000000	0.0
52	0x00000000	0.0
53	0x00000000	0.0
54	0x00000000	0.0
55	0x00000000	0.0
56	0x00000000	0.0
57	0x00000000	0.0
58	0x00000000	0.0
59	0x00000000	0.0
60	0x00000000	0.0
61	0x00000000	0.0
62	0x00000000	0.0
63	0x00000000	0.0
64	0x00000000	0.0
65	0x00000000	0.0
66	0x00000000	0.0
67	0x00000000	0.0
68	0x00000000	0.0
69	0x00000000	0.0
70	0x00000000	0.0
71	0x00000000	0.0
72	0x00000000	0.0
73	0x00000000	0.0
74	0x00000000	0.0
75	0x00000000	0.0
76	0x00000000	0.0
77	0x00000000	0.0
78	0x00000000	0.0
79	0x00000000	0.0
80	0x00000000	0.0
81	0x00000000	0.0
82	0x00000000	0.0
83	0x00000000	0.0
84	0x00000000	0.0
85	0x00000000	0.0
86	0x00000000	0.0
87	0x00000000	0.0
88	0x00000000	0.0
89	0x00000000	0.0
90	0x00000000	0.0
91	0x00000000	0.0
92	0x00000000	0.0
93	0x00000000	0.0
94	0x00000000	0.0
95	0x00000000	0.0
96	0x00000000	0.0
97	0x00000000	0.0
98	0x00000000	0.0
99	0x00000000	0.0
100	0x00000000	0.0
101	0x00000000	0.0
102	0x00000000	0.0
103	0x00000000	0.0
104	0x00000000	0.0
105	0x00000000	0.0
106	0x00000000	0.0
107	0x00000000	0.0
108	0x00000000	0.0
109	0x00000000	0.0
110	0x00000000	0.0
111	0x00000000	0.0
112	0x00000000	0.0
113	0x00000000	0.0
114	0x00000000	0.0
115	0x00000000	0.0
116	0x00000000	0.0
117	0x00000000	0.0
118	0x00000000	0.0
119	0x00000000	0.0
120	0x00000000	0.0
121	0x00000000	0.0
122	0x00000000	0.0
123	0x00000000	0.0
124	0x00000000	0.0
125	0x00000000	0.0
126	0x00000000	0.0
127	0x00000000	0.0
128	0x00000000	0.0
129	0x00000000	0.0
130	0x00000000	0.0
131	0x00000000	0.0
132	0x00000000	0.0
133	0x00000000	0.0
134	0x00000000	0.0
135	0x00000000	0.0
136	0x00000000	0.0
137	0x00000000	0.0
138	0x00000000	0.0
139	0x00000000	0.0
140	0x00000000	0.0
141	0x00000000	0.0
142	0x00000000	0.0
143	0x00000000	0.0
144	0x00000000	0.0
145	0x00000000	0.0
146	0x00000000	0.0
147	0x00000000	0.0
148	0x00000000	0.0
149	0x00000000	0.0
150	0x00000000	0.0
151	0x00000000	0.0
152	0x00000000	0.0
153	0x00000000	0.0
154	0x00000000	0.0
155	0x00000000	0.0
156	0x00000000	0.0
157	0x00000000	0.0
158	0x00000000	0.0
159	0x00000000	0.0
160	0x00000000	0.0
161	0x00000000	0.0
162	0x00000000	0.0
163	0x00000000	0.0
164	0x00000000	0.0
165	0x00000000	0.0
166	0x00000000	0.0
167	0x00000000	0.0
168	0x00000000	0.0
169	0x00000000	0.0
170	0x00000000	0.0
171	0x00000000	0.0
172	0x00000000	0.0
173	0x00000000	0.0
174	0x00000000	0.0
175	0x00000000	0.0
176	0x00000000	0.0
177	0x00000000	0.0
178	0x00000000	0.0
179	0x00000000	0.0
180	0x00000000	0.0
181	0x00000000	0.0
182	0x00000000	0.0
183	0x00000000	0.0
184	0x00000000	0.0
185	0x00000000	0.0
186	0x00000000	0.0
187	0x00000000	0.0
188	0x00000000	0.0
189	0x00000000	0.0
190	0x00000000	0.0
191	0x00000000	0.0
192	0x00000000	0.0
193	0x00000000	0.0
194	0x00000000	0.0
195	0x00000000	0.0
196	0x00000000	0.0
197	0x00000000	0.0
198	0x00000000	0.0
199	0x00000000	0.0
200	0x00000000	0.0
201	0x00000000	0.0
202	0x00000000	0.0
203	0x00000000	0.0
204	0x00000000	0.0
205	0x00000000	0.0
206	0x00000000	0.0
207	0x00000000	0.0
208	0x00000000	0.0
209	0x00000000	0.0
210	0x00000000	0.0
211	0x00000000	0.0
212	0x00000000	0.0
213	0x00000000	0.0
214	0x00000000	0.0
215	0x00000000	0.0
216	0x00000000	0.0
217	0x00000000	0.0
218	0x00000000	0.0
219	0x00000000	0.0
220	0x00000000	0.0
221	0x00000000	0.0
222	0x00000000	0.0
223	0x00000000	0.0
224	0x00000000	0.0
225	0x00000000	0.0
226	0x00000000	0.0
227	0x00000000	0.0
228	0x00000000	0.0
229	0x00000000	0.0
230	0x00000000	0.0
231	0x00000000	0.0
232	0x00000000	0.0
233	0x00000000	0.0
234	0x00000000	0.0
235	0x00000000	0.0
236	0x00000000	0.0
237	0x00000000	0.0
238	0x00000000	0.0
239	0x00000000	0.0
240	0x00000000	0.0
241	0x00000000	0.0
242	0x00000000	0.0
243	0x00000000	0.0
244	0x00000000	0.0
245	0x00000000	0.0
246	0x00000000	0.0
247	0x00000000	0.0
248	0x00000000	0.0
249	0x00000000	0.0
250	0x00000000	0.0
251	0x00000000	0.0
252	0x00000000	0.0
253	0x00000000	0.0
254	0x00000000	0.0
255	0x00000000	0.0

network_body._body_endoder.seq_layers.2.weight f4 [256, 256]
0	0xbd1670de	-0.036728732
1	0xbd889ccb	-0.06670531
2	0xbde9bd17	-0.11413019
3	0xbdcec38d	-0.10095892
4	0x3d20e321	0.039279107
5	0xbc072822	-0.0082493145
6	0x3d10969c	0.035299882
7	0x3c36169f	0.011113792
8	0xbda0d6c6	-0.07853465
9	0x3d8dcc21	0.069237
10	0x3d932e04	0.07186511
11	0x3cb5e127	0.022202088
12	0xbd374e6c	-0.044752523
13	0x3cb9074e	0.022586491
14	0x3df4da69	0.11955721
15	0xbc57b45d	-0.013165561
16	0xbb25bf62	-0.0025291075
17	0x3cd12741	0.025531413
18	0xbd00b5b5	-0.03142329
19	0x3d92b037	0.071625166
20	0xbd9586ec	-0.07301125
21	0x3c7158ed	0.014730674
22	0x3d1e580a	0.03865818
23	0xbd44c48f	-0.048039015
24	0xbccea272	-0.025223944
25	0x3a375f5b	0.0006995105
26	0xbd915247	-0.07095771
27	0xbc9bc6f9	-0.019015776
28	0x3d0784a1	0.03308547
29	0x3d826701	0.06367303
30	0xbcc45e48	-0.023970738
31	0x3da5c41e	0.08094047
32	0xbd9504eb	-0.07276329
33	0x3c2076f6	0.0097939875
34	0xbca28def	-0.01984307
35	0xbc19dca8	-0.009390987
36	0xbc2afd34	-0.010436345
37	0x3bfd4bd0	0.007729985
38	0x3d511a86	0.051050685
39	0x3c86dbd9	0.016462253
40	0xbada59ef	-0.0016658882
41	0x3aba29ed	0.0014203169
42	0xbd401602	-0.04689599
43	0xbc632b39	-0.013865286
44	0x3d93fbae	0.072257385
45	0xbd353d98	-0.044248194
46	0x3c4fa621	0.012673886
47	0x3ce951cf	0.028481392
48	0x3b8d0541	0.004303605
49	0x3d625613	0.055257868
50	0x3d5976fe	0.053091995
51	0x3d4bb09e	0.049728982
52	0x3ca33896	0.019924443
53	0xbd2759d9	-0.04085717
54	0x3d8eab8c	0.06966314
55	0xbc523dcf	-0.012832119
56	0x3d9fb847	0.0779882
57	0x3d2e8906	0.042611144
58	0x3d748638	0.059698313
59	0xbbf2118a	-0.0073873447
60	0x3de0572d	0.109541275
61	0x3d94fedd	0.07275174
62	0xbca48f82	-0.020087961
63	0xbca5dd0b	-0.020247003
64	0xbd93dc4a	-0.07219751
65	0x3e03027e	0.1279392
66	0xbc2a71a4	-0.010403071
67	0x3db90a4e	0.090351686
68	0xbcd8fbf3	-0.026487326
69	0xbc1aa46b	-0.009438614
70	0xbc3daf1f	-0.011577397
71	0x3c27d07b	0.010242577
72	0xbbe86335	-0.0070919045
73	0x3da1b803	0.078964256
74	0x3d77507d	0.060379494
75	0x3c8be09b	0.017074874
76	0x3ce183f9	0.02752875
77	0xbda290b4	-0.07937756
78	0x3c39ac56	0.011332592
79	0xbcb46955	-0.022022882
80	0xbdc0302b	-0.09384187
81	0xbd8a7611	-0.06760801
82	0xbd1f8f57	-0.03895506
83	0x3d07634c	0.03305368
84	0x3d8c368b	0.06846341
85	0x3dacb97d	0.084338166
86	0x3c9d2f9a	0.019187737
87	0xbe02b443	-0.12764077
88	0xbd006618	-0.031347364
89	0xbc727bb1	-0.014799998
90	0x3ce17067	0.027519418
91	0x3d362e12	0.04447753
92	0x3dbd2b21	0.09236742
93	0x3d0044ca	0.031315602
94	0xbd301cbe	-0.04299616
95	0x3d7089e5	0.058725256
96	0xbd8fe2ba	-0.070256665
97	0xbd37414b	-0.044740003
98	0x3ce6aaba	0.02815758
99	0x3d512f01	0.051070217
100	0xbd6b6894	-0.05747278
101	0x3d1d3e1b	0.038389307
102	0x3d9ec7ab	0.077529274
103	0xbd5e60e5	-0.054291625
104	0x3c2d7a52	0.0105882455
105	0xbcd0e06a	-0.025497634
106	0x3c9a98dc	0.018871717
107	0x3d24dc9e	0.04024946
108	0xbd12cc01	-0.035839085
109	0x3ae5ae71	0.0017523301
110	0xbd01581f	-0.03157818
111	0xbd8e3760	-0.06944156
112	0x3d59a20b	0.05313305
113	0x3c4afbb9	0.012389117
114	0xbcf5f1a3	-0.030022448
115	0x3d950f28	0.072782815
116	0xbcb4b71f	-0.022059975
117	0xbcf01e8d	-0.029311443
118	0x3ce3aee7	0.02779336
119	0x3d15405d	0.036438335
120	0xbc8f43ee	-0.017488446
121	0x3e19145f	0.14949177
122	0xbdd73bd3	-0.105094574
123	0xbdd56141	-0.1041894
124	0xbc778f83	-0.015109899
125	0x3d196a69	0.037454996
126	0x3d967db7	0.07348197
127	0xbceace2c	-0.028662764
128	0xbd76fc88	-0.060299426
129	0x3d91bd1e	0.07116149
130	0xbd2f7260	-0.042833686
131	0xbc82b04a	-0.015953202
132	0x3d26fb38	0.040766925
133	0x3c96217e	0.018326517
134	0x3d6554c8	0.055989057
135	0x3c340683	0.010987881
136	0xbddb3bee	-0.1070479
137	0xbc7642a8	-0.0150305405
138	0xbc78d0ac	-0.01518647
139	0x3c8798da	0.016552377
140	0xbd89bdc9	-0.06725652
141	0x3d15e9a6	0.036599778
142	0x3d7052c0	0.058672667
143	0xbd5c68fb	-0.053811055
144	0x3cbf8832	0.023380373
145	0x3d332c6b	0.043743532
146	0xbd54b386	-0.05192902
147	0xbcbe8af5	-0.02325962
148	0xbd672665	-0.0564331
149	0x3be65486	0.007029119
150	0xbd282908	-0.041054755
151	0x3d5f1f75	0.05447336
152	0x3d1c361e	0.038137548
153	0x3e079fe1	0.13244583
154	0xbd05a5ec	-0.03262894
155	0x3cac70e2	0.02104992
156	0x3c958eeb	0.018256625
157	0xbd799c8c	-0.06094031
158	0xbda05753	-0.07829156
159	0x3bb57bd1	0.0055384417
160	0xba9e2785	-0.0012066221
161	0xbc8a28a7	-0.016865088
162	0x3db2e67a	0.08735366
163	0xbd236fee	-0.039901666
164	0xbe0f2a2d	-0.13980933
165	0x3c851f6f	0.01625034
166	0xbceb3675	-0.02871249
167	0x3cef76d8	0.029231474
168	0xbc42e569	-0.011895516
169	0x3d81f100	0.06344795
170	0x3dbe94b3	0.09305706
171	0x3d74b2c9	0.059740815
172	0x3ca5fb24	0.020261355
173	0xbd71bacd	-0.059016038
174	0xbd6135e3	-0.05498303
175	0xbdbe6e92	-0.09298433
176	0xbd52441e	-0.051334493
177	0x3d181596	0.03712996
178	0x3c761415	0.015019436
179	0xbdf84278	-0.12122053
180	0xbdcea25d	-0.10089562
181	0x3dc50746	0.09620528
182	0x3d8284e8	0.06373006
183	0xbd651b53	-0.05593426
184	0x3d6e6d70	0.058209836
185	0xbdb1af1b	-0.08675977
186	0x3c1b1a4b	0.009466718
187	0x3df4170e	0.1191846
188	0xbd8948db	-0.06703349
189	0xbda0f7f2	-0.07859792
190	0xbbe2d53f	-0.0069223936
191	0xbdd2cb34	-0.10292664
192	0xbccf1152	-0.025276814
193	0x3e0a81df	0.13526104
194	0x3dc8aba0	0.0979836
195	0xbda488af	-0.08033883
196	0xbd4a912a	-0.049454845
197	0x3d15867c	0.036505207
198	0x3da9fc26	0.083000466
199	0xbd52b0b8	-0.051438063
200	0x3dfe9ca5	0.12432221
201	0x3da39211	0.07986844
202	0x3d54325d	0.051805843
203	0x3d9ffca3	0.078118585
204	0x3b6a3b8c	0.003574106
205	0x3d785f42	0.06063772
206	0xbd588846	-0.052864335
207	0xbd97e7c2	-0.07417251
208	0xbd048c19	-0.03236017
209	0x3cea765a	0.028620888
210	0x3d515243	0.05110384
211	0x3d7927fb	0.060829144
212	0xbd12bd9d	-0.03582536
213	0x3d467cb0	0.048458755
214	0xbcce487c	-0.025181048
215	0xbc04bc0a	-0.008101473
216	0x3de72e42	0.1128812
217	0x3d39ae2a	0.04533211
218	0x3d8dc08a	0.069214895
219	0x3d81776d	0.06321607
220	0x3d9b715d	0.07589982
221	0xbdb80103	-0.08984568
222	0xbc6c4d60	-0.0144227445
223	0xbd9f70cc	-0.07785186
224	0xbd89d2d2	-0.06729664
225	0x3d960661	0.073254354
226	0xbd2d5c08	-0.042324096
227	0xbba8bda8	-0.005149562
228	0x3da2d194	0.0795013
229	0x3c9d27d8	0.019184038
230	0xbd7eeaab	-0.062235516
231	0x3cfebd77	0.031096203
232	0xbd9d87b2	-0.076918975
233	0x3cc5238e	0.024064805
234	0xbd006250	-0.031343758
235	0x3d52c45c	0.051456794
236	0x3d5ec9b5	0.05439158
237	0xbdfd9212	-0.12381376
238	0xbb423e1e	-0.0029639076
239	0x3d852a69	0.0650223
240	0xbdca9274	-0.09891215
241	0x3d60729f	0.05479681
242	0xbd605ae7	-0.05477419
243	0x3cd64ca1	0.026159586
244	0xbcd7a762	-0.026324932
245	0xbc842912	-0.016132865
246	0xbd12cc8b	-0.0358396
247	0xbc97fadc	-0.018552236
248	0x3d06b26a	0.032884993
249	0xbc96abae	-0.01839241
250	0x3d2bcdb9	0.04194424
251	0xbd881d41	-0.06646205
252	0xbd492229	-0.049104843
253	0x3c870032	0.016479585
254	0x3e35dd98	0.17760313
255	0x3c41e93b	0.011835392

action_model._continuous_distribution.log_sigma f4 [1, 3]
0	0x00000000	0.0
1	0x00000000	0.0
2	0x00000000	0.0

action_model._continuous_distribution.mu.weight f4 [3, 256]
0	0x3b71cb33	0.0036894798
1	0x3bdccafb	0.0067380643
2	0x3c8ec285	0.017426739
3	0x3b17dabf	0.0023171154
4	0xbbd3cc6a	-0.006463577
5	0x3c1147b3	0.008867192
6	0x3c82e6d0	0.0159792
7	0x3b18585d	0.0023246028
8	0xbce958b2	-0.028484676
9	0x3b1d2123	0.002397605
10	0x3cf361af	0.029709665
11	0xba9f392c	-0.0012147776
12	0xbb909a8e	-0.0044129556
13	0x3ae145fa	0.0017186992
14	0xbc1f105f	-0.009708493
15	0x3c81129a	0.01575594
16	0xbc18ef9f	-0.009334474
17	0x3ab1b61e	0.0013558303
18	0xbc66ae8b	-0.0140797
19	0x3bee9bc2	0.0072817514
20	0xb814fbbb	-3.5520392e-05
21	0x3c7bb21d	0.01536229
22	0xbb638e27	-0.003472218
23	0xbc201afa	-0.009772057
24	0xbb3c769a	-0.0028757215
25	0x3b928c71	0.0044723083
26	0xbb80a9e8	-0.0039265044
27	0x3bb785fa	0.005600688
28	0xbc47e034	-0.01219945
29	0x3b9eeacb	0.004849767
30	0xbbb5e87a	-0.005551395
31	0x3b9dd2ff	0.0048164125
32	0x3ca3078d	0.019901061
33	0xbc4dd855	-0.012563785
34	0x3bb6d7ff	0.005579948
35	0xbbb31dff	-0.0054662223
36	0xbb860668	-0.004090119
37	0x3bc34726	0.0059594093
38	0x3b0b8b53	0.002129276
39	0x3c130dd1	0.008975462
40	0xbb9189d3	-0.0044414788
41	0xbc89abab	-0.01680549
42	0x3c2a52ef	0.0103957495
43	0x3c374ca3	0.011187705
44	0xbb50c6a5	-0.0031856683
45	0x3aa03add	0.0012224574
46	0xbaa4bf75	-0.0012569266
47	0xbbd9c3db	-0.0066456622
48	0xbc01f91e	-0.007932929
49	0xbc2b8829	-0.010469475
50	0x3d1e0784	0.038581386
51	0x3bbb1970	0.0057098195
52	0xbbe8393a	-0.0070869
53	0x3c5332b8	0.01289051
54	0xbcda38c0	-0.026638389
55	0x3beeaff5	0.0072841593
56	0xbc3d17a7	-0.011541284
57	0xbc8aa163	-0.016922658
58	0x3bd86b68	0.0066046007
59	0xbc0481d7	-0.008087597
60	0x3a95c9d3	0.0011427946
61	0xbc5f98c5	-0.013647263
62	0xbc0eeb7d	-0.008723137
63	0x3b704b6f	0.0036666056
64	0xbace36fb	-0.0015732938
65	0x3c0c4357	0.008560977
66	0x3b487eae	0.0030593085
67	0xbc0f3cbd	-0.0087425085
68	0xbb999553	-0.0046869903
69	0x39d16ad5	0.00039943182
70	0x3ab62340	0.0013896003
71	0xbceebbd7	-0.029142303
72	0xba22549b	-0.0006192417
73	0x3b3386cd	0.002739358
74	0xbc09876c	-0.0083941035
75	0x3c8fb0a2	0.01754028
76	0xbcbd9615	-0.023142854
77	0xbc354dec	-0.011065941
78	0xbb5c0c32	-0.0033576605
79	0x3c50218a	0.012703309
80	0x3c550aa2	0.013003023
81	0xba616f17	-0.00085996225
82	0xbc8726b9	-0.016497957
83	0xbb97c785	-0.004631939
84	0x3ad80e0f	0.0016483682
85	0x3c73d180	0.014881492
86	0xbc7ab832	-0.015302705
87	0xbc743805	-0.014905934
88	0x3b0f1b9e	0.002183653
89	0xbc832841	-0.016010405
90	0x3babbb85	0.00524086
91	0x3be40732	0.0069588656
92	0x3c4ee0a2	0.012626799
93	0x3cd1b332	0.025598142
94	0x3b8dd34a	0.004328166
95	0x3b80e0bf	0.003933042
96	0x3cb58671	0.022158833
97	0xbb4e2efb	-0.0031461108
98	0x3b5d3b6b	0.003375734
99	0x3bee8093	0.007278511
100	0x3baf7bad	0.0053553195
101	0xbc80554f	-0.015665678
102	0xbb5dd70f	-0.0033850109
103	0x3b812cd2	0.0039421106
104	0x3c8291bd	0.015938634
105	0x3c75acc2	0.014994802
106	0x3a9f391a	0.0012147755
107	0x3c0f9247	0.008762903
108	0xbc24e0e7	-0.0100633865
109	0xbc216fb2	-0.00985329
110	0xbc037533	-0.008023548
111	0x3b6174da	0.0034401924
112	0x3c9e8430	0.019350141
113	0x3c78cd43	0.015185657
114	0xba12d3d7	-0.00056010246
115	0x3afc55fa	0.0019251697
116	0x3a5e2ccd	0.0008475304
117	0xbcb71940	-0.022350907
118	0x3c820484	0.015871294
119	0xbaaf8b01	-0.0013392867
120	0x3bc3871d	0.0059670345
121	0x3ae8f048	0.0017771805
122	0x3c6cb438	0.014447264
123	0x3c3d263a	0.011544758
124	0x3c462f4a	0.0120962355
125	0x3bda97aa	0.006670912
126	0xbc20f75f	-0.009824603
127	0xbbbd4320	-0.005775824
128	0x3b28d139	0.0025759472
129	0xbc48597f	-0.012228369
130	0xbbe171e7	-0.0068800333
131	0xbc9e878b	-0.019351741
132	0x3bd89a18	0.0066101663
133	0xbae99d32	-0.0017823337
134	0x3b706bc3	0.0036685325
135	0x3c92467b	0.017855873
136	0x3b6099e7	0.003427142
137	0x3c887217	0.016655965
138	0x3ca41295	0.020028392
139	0xba42ed30	-0.00074358564
140	0x3bb342a0	0.005470589
141	0x3c0ce0f6	0.008598557
142	0xbbb0e5ab	-0.0053984723
143	0xbbf01e1f	-0.0073278095
144	0x3c08ce95	0.008350034
145	0xbc3a2374	-0.011360992
146	0xbcc0b513	-0.023523843
147	0xbbb2596b	-0.0054427884
148	0x3bf76b77	0.0075506526
149	0x3c1714cf	0.00922127
150	0xbcb69f3e	-0.02229273
151	0x3bb03a5c	0.0053780507
152	0xbac39a1e	-0.001492325
153	0x3bc0450d	0.0058676065
154	0x3c68d5c0	0.014211118
155	0xbca4f9a5	-0.020138571
156	0xbcc11ca9	-0.023573237
157	0xbb89101b	-0.004182828
158	0x3c233453	0.009961206
159	0xbc24fd69	-0.010070183
160	0xbc844987	-0.016148342
161	0xbac9d9d1	-0.0015399997
162	0xbb06d5b5	-0.0020574157
163	0x3c0a8bfb	0.0084562255
164	0xbc0ec8a7	-0.008714831
165	0x3a9c1abb	0.0011909822
166	0x3c22a2f7	0.009926549
167	0xbbbbd735	-0.005732442
168	0x3ca37358	0.019952461
169	0xbb800f9f	-0.003908112
170	0xbca1d1ce	-0.019753363
171	0x3b6a26da	0.0035728724
172	0x3c10caa3	0.008837375
173	0xbb41ad61	-0.0029552805
174	0x3a7aafb8	0.00095629273
175	0x3c6e0403	0.014527324
176	0x3baba7b2	0.0052384967
177	0xbca1a137	-0.019730194
178	0xbc308ad7	-0.0107752895
179	0xbc90161e	-0.017588671
180	0x3c004bf8	0.007830612
181	0x3c3f2501	0.011666537
182	0x3c8dc1bd	0.017304296
183	0x3c26db44	0.010184113
184	0x3bfa165d	0.0076320604
185	0x3c3e5c26	0.01161865
186	0xbc345f64	-0.011009071
187	0x3b8930e5	0.004186737
188	0x3c5c5078	0.01344692
189	0x3c5e1dfa	0.013556952
190	0xbba7d695	-0.0051220157
191	0x3b5f8b1a	0.003411001
192	0x3be1219f	0.006870463
193	0xbc0d9294	-0.008640904
194	0x3c0c2b52	0.00855525
195	0xbca8a1b1	-0.020584913
196	0x3cbab2d7	0.022790356
197	0xbcbb2eef	-0.022849528
198	0x39b9f1f7	0.00035466228
199	0xbba35574	-0.004984552
200	0x3ca232e2	0.019799653
201	0xbc1bbd79	-0.009505623
202	0xbc165268	-0.009174921
203	0x3b41aabc	0.0029551229
204	0x3b0cc26f	0.0021478196
205	0x3acec22f	0.0015774424
206	0xbc85448b	-0.016268035
207	0xbc37c077	-0.011215321
208	0x3bb09865	0.0053892606
209	0x3c02b7c5	0.007978384
210	0xbc05b4fb	-0.008160825
211	0xbce59b70	-0.02802822
212	0x3a25729f	0.00063113304
213	0xb9cde75b	-0.0003927302
214	0xbaa131b5	-0.0012298139
215	0xbc86234b	-0.01637425
216	0xbb812d5b	-0.0039421744
217	0xbc527478	-0.012845151
218	0xbc19c6a9	-0.009385743
219	0x3c7ab082	0.015300872
220	0x3b673abf	0.0035282818
221	0x3bb476ef	0.005507342
222	0x3ccf8d37	0.025335891
223	0xbbffc9e2	-0.0078060487
224	0xbc937612	-0.018000636
225	0x3cc96f63	0.024589246
226	0xbc240602	-0.010011198
227	0xbbe746e7	-0.0070580128
228	0x3c2b90e7	0.010471559
229	0xbc34b1a9	-0.011028686
230	0xbb8148a8	-0.003945429
231	0x39e15662	0.00042979704
232	0x3ba5de70	0.005061917
233	0xbb34f727	-0.0027613135
234	0xbc736bff	-0.014857291
235	0x3c8050a8	0.01566346
236	0xbcaf4788	-0.021396413
237	0x3bb8150f	0.0056177448
238	0x3c1abd93	0.009444612
239	0xbbfa5602	-0.0076396475
240	0xbbf37433	-0.0074296235
241	0x3ba3d0da	0.0049992623
242	0xbaa074d5	-0.001224185
243	0x3c5895db	0.013219322
244	0xbb9e4c60	-0.004830882
245	0xbc63307a	-0.013866538
246	0xbc058be3	-0.008151027
247	0x3b68b6ba	0.0035509304
248	0xbb6090f7	-0.0034266093
249	0x3c9fd2d7	0.019509716
250	0xbaf20593	-0.0018464796
251	0xbc3d53a7	-0.011555589
252	0xbc1c8a82	-0.009554507
253	0x3b0cb5e7	0.0021470727
254	0x3a87f7e3	0.0010373559
255	0x3ca4a223	0.020096844

action_model._continuous_distribution.mu.bias f4 [3]
0	0x00000000	0.0
1	0x00000000	0.0
2	0x00000000	0.0

onnx::Div_61 f4 [68]
0	0x3ef2083a	0.472719
1	0x3d75adb2	0.059980102
2	0x3ef162e8	0.47145772
3	0x3e920ff7	0.28527805
4	0x3efa8b66	0.48934478
5	0x3d943824	0.072372705
6	0x3ef9f637	0.4882066
7	0x3e93f10a	0.28894836
8	0x3edc82c8	0.43068528
9	0x3cf602ee	0.030030694
10	0x3edc3ccf	0.43015143
11	0x3e9032e6	0.28163832
12	0x3efb56ec	0.49089754
13	0x3d54dc2e	0.051967792
14	0x3efb10f4	0.49036372
15	0x3e98a09a	0.2981003
16	0x3ebd289b	0.36945042
17	0x3c0e16b3	0.008672404
18	0x3ebd1f9f	0.36938187
19	0x3e8f39d1	0.27973798
20	0x3ef1ce23	0.47227582
21	0x3d3174f6	0.043324433
22	0x3ef177ca	0.47161704
23	0x3e9dc568	0.30814672
24	0x3ea1b5f3	0.3158413
25	0x3c0e16b3	0.008672404
26	0x3ea1a9d7	0.3157489
27	0x3e871bf2	0.26388508
28	0x3ed8c1d8	0.4233539
29	0x3d267cf3	0.040646505
30	0x3ed838e9	0.4223092
31	0x3e9ac85f	0.30230996
32	0x3e9ab4a3	0.3021594
33	0x3c0e16b3	0.008672404
34	0x3e9aa7a2	0.3020602
35	0x3e81bb56	0.25338238
36	0x3eb00088	0.34375405
37	0x3d1ec089	0.038757835
38	0x3eaf2f4d	0.34215775
39	0x3e8df04e	0.277224
40	0x3e7b9ce2	0.24571565
41	0x3c0e16b3	0.008672404
42	0x3e7b79ec	0.24558228
43	0x3e5e4054	0.21704227
44	0x3e9b0282	0.3027535
45	0x3d1ec089	0.038757835
46	0x3e99fdf8	0.30076575
47	0x3e819200	0.25306702
48	0x3e5816d2	0.21102455
49	0x3c0e16b3	0.008672404
50	0x3e57ec71	0.21086289
51	0x3e42a9ed	0.19010134
52	0x3e7923bc	0.24330038
53	0x3d1ec089	0.038757835
54	0x3e765a6e	0.24057934
55	0x3e5b625c	0.2142424
56	0x3e0dcc5d	0.1384749
57	0x3c0e16b3	0.008672404
58	0x3e0d87e1	0.13821365
59	0x3e18a148	0.14905274
60	0x3e47126f	0.19440626
61	0x3d1ec089	0.038757835
62	0x3e43619f	0.19080208
63	0x3e35078a	0.17678657
64	0x3dbe7888	0.09300333
65	0x3c0e16b3	0.008672404
66	0x3dbda7bd	0.09260509
67	0x3df8527d	0.121251084

onnx::Div_64 f4 [7]
0	0x3f30eda8	0.69112635
1	0x3dca9e54	0.0989348
2	0x3f36ba86	0.7137836
3	0x3c11f474	0.00890838
4	0x3c0e4498	0.008683346
5	0x3c0e16b3	0.008672404
6	0x3c0e16b3	0.008672404
