results/ppo/BlueCar/BlueCar-895116.pt (torch, 704371 bytes, 28 tensors)

network_body.observation_encoder.processors.0.normalizer.running_mean f4 [68]
00000000: f60a 0f3f ee02 e73c a079 d33e 5fc8 513f
00000010: 7c07 0e3f b442 c13c dadc d73e a88f 513f
00000020: 12ac 283f 137f dc3c a7df a03e 4398 423f
00000030: 8851 1e3f cca6 863c 68f2 ba3e 632f 443f
00000040: 1008 423f 92b2 cd3c 7d28 5e3e e6a4 273f
00000050: 95d6 383f 150f 503c 40d2 873e 802c 2a3f
00000060: cdc5 543f 8770 ac3c 915a 173e 8201 0c3f
00000070: 038d 4d3f 9c56 253c 7a76 3f3e e74b 0b3f
00000080: aa45 663f b610 8a3c 804d ab3d 9b62 e13e
00000090: d025 613f a0d5 d13b c8b3 e93d f90f db3e
000000a0: cf64 743f d691 4d3c b44d 063d 06ea b33e
000000b0: 8bc6 713f 5f82 b13b 4d65 4d3d bada ab3e
000000c0: 5ee4 7a3f 2bc1 323c 8226 143c 12f6 963e
000000d0: abaf 7a3f a53c a93b a772 7f3c 612f 8e3e
000000e0: 2f97 7c3f 54d7 343c 846e 153b 595e 863e
000000f0: 9c50 7d3f 6dbe c93b 66ed 8d3b 438f 7c3e
00000100: 2db8 7c3f c526 483c 18da 1d3a 1b49 793e
0.558761 0.02819964 0.4130373 0.8194637 0.5548017 0.023591377 0.42160684 0.8185983
0.6588756 0.026916062 0.31420633 0.7601358 0.61843157 0.016436957 0.36513066 0.76634806
0.7579355 0.025109563 0.21695133 0.6548599 0.72202426 0.012698908 0.26527596 0.6647415
0.8311432 0.021049751 0.14780642 0.546898 0.8029329 0.01009145 0.18697539 0.5441269
0.8995005 0.016853672 0.08364391 0.44020543 0.8794832 0.00640364 0.11411244 0.42785624
0.9546632 0.012546977 0.032788947 0.35139483 0.9444358 0.005417153 0.050145436 0.33565313
0.9800471 0.010910313 0.009042384 0.29484612 0.979243 0.0051647 0.0155913 0.27770522
0.9866819 0.011037666 0.0022801468 0.26243857 0.98951125 0.0061567337 0.0043312786 0.24664025
0.9871853 0.012216275 0.0006021573 0.24344294

network_body.observation_encoder.processors.0.normalizer.running_variance f4 [68]
00000000: 5584 5748 4ba6 bf46 ccec 5348 ba81 0847
00000010: 05e9 5748 a817 a146 e629 5548 c12a 1347
00000020: 9978 4448 df2a b746 5d5c 3c48 dce4 2747
00000030: 6746 4e48 6b20 6246 aca2 4a48 02c3 4b47
00000040: 7960 2048 4631 ab46 b680 1448 45d6 4c47
00000050: fa71 2f48 9c5e 2f46 e95f 2a48 7d2f 7c47
00000060: cd5c f547 c31c 9046 e036 dc47 1f83 5047
00000070: 4f51 0a48 2ebb 0b46 27e2 0448 e488 8147
00000080: 380b 9e47 cac2 6746 a200 8647 5431 2047
00000090: 374e b947 6a02 b245 76bc b047 0bf4 4947
000000a0: 3957 1747 ab4c 2d46 f5c8 dd46 3567 af46
000000b0: 917d 3747 a8bd 9645 df8b 2647 285a e346
000000c0: 18c3 8846 6cf1 1646 95ae fa45 ff20 2646
000000d0: a326 8e46 4ac1 8f45 c8ad 5646 508e 4a46
000000e0: d3d0 3746 beaf 1846 53ab fe44 7226 ba45
000000f0: df2d 1146 ec30 ab45 5653 7145 0608 c445
00000100: 8603 3146 a2c9 2846 48eb 0644 29d6 8445
220689.33 24531.146 217011.19 34945.727 221092.08 20619.828 218279.6 37674.754
201186.39 23445.436 192881.45 42980.86 211225.61 14472.1045 207498.69 52163.008
164225.89 21912.637 152066.84 52438.27 179655.9 11223.652 174463.64 64559.49
125625.6 18446.38 112749.75 53379.12 141637.23 8942.795 136072.61 66321.78
80918.44 14832.697 68609.266 41009.33 94876.43 5696.302 90488.92 51700.043
38743.223 11091.167 28388.479 22451.604 46973.566 4823.707 42635.87 29101.078
17505.547 9660.355 8021.8228 10632.249 18195.318 4600.161 13739.445 12963.578
11764.206 9771.936 2037.3539 5956.8057 9291.468 5478.115 3861.2085 6273.003
11328.881 10802.408 539.6763 4250.77

network_body.observation_encoder.processors.1.normalizer.running_mean f4 [8]
00000000: 3d46 563d 40be c53d 4573 9a3e 1697 b63c
00000010: 6812 3738 2922 dd3d d0f9 3840 4573 9a3e
0.05231308 0.09655428 0.3016607 0.02228884 4.3647742e-05 0.10797531 2.8902473 0.3016607

network_body.observation_encoder.processors.1.normalizer.running_variance f4 [8]
00000000: 86b3 9a48 57a2 ee46 0869 de48 7542 7042
00000010: 21e6 bf40 d39f 4f47 5f69 434a 0869 de48
316828.2 30545.17 455496.25 60.0649 5.996842 53151.824 3.2016238e+06 455496.25

network_body.processors.0.normalizer.running_mean f4 [68]
00000000: f60a 0f3f ee02 e73c a079 d33e 5fc8 513f
00000010: 7c07 0e3f b442 c13c dadc d73e a88f 513f
00000020: 12ac 283f 137f dc3c a7df a03e 4398 423f
00000030: 8851 1e3f cca6 863c 68f2 ba3e 632f 443f
00000040: 1008 423f 92b2 cd3c 7d28 5e3e e6a4 273f
00000050: 95d6 383f 150f 503c 40d2 873e 802c 2a3f
00000060: cdc5 543f 8770 ac3c 915a 173e 8201 0c3f
00000070: 038d 4d3f 9c56 253c 7a76 3f3e e74b 0b3f
00000080: aa45 663f b610 8a3c 804d ab3d 9b62 e13e
00000090: d025 613f a0d5 d13b c8b3 e93d f90f db3e
000000a0: cf64 743f d691 4d3c b44d 063d 06ea b33e
000000b0: 8bc6 713f 5f82 b13b 4d65 4d3d bada ab3e
000000c0: 5ee4 7a3f 2bc1 323c 8226 143c 12f6 963e
000000d0: abaf 7a3f a53c a93b a772 7f3c 612f 8e3e
000000e0: 2f97 7c3f 54d7 343c 846e 153b 595e 863e
000000f0: 9c50 7d3f 6dbe c93b 66ed 8d3b 438f 7c3e
00000100: 2db8 7c3f c526 483c 18da 1d3a 1b49 793e
0.558761 0.02819964 0.4130373 0.8194637 0.5548017 0.023591377 0.42160684 0.8185983
0.6588756 0.026916062 0.31420633 0.7601358 0.61843157 0.016436957 0.36513066 0.76634806
0.7579355 0.025109563 0.21695133 0.6548599 0.72202426 0.012698908 0.26527596 0.6647415
0.8311432 0.021049751 0.14780642 0.546898 0.8029329 0.01009145 0.18697539 0.5441269
0.8995005 0.016853672 0.08364391 0.44020543 0.8794832 0.00640364 0.11411244 0.42785624
0.9546632 0.012546977 0.032788947 0.35139483 0.9444358 0.005417153 0.050145436 0.33565313
0.9800471 0.010910313 0.009042384 0.29484612 0.979243 0.0051647 0.0155913 0.27770522
0.9866819 0.011037666 0.0022801468 0.26243857 0.98951125 0.0061567337 0.0043312786 0.24664025
0.9871853 0.012216275 0.0006021573 0.24344294

network_body.processors.0.normalizer.running_variance f4 [68]
00000000: 5584 5748 4ba6 bf46 ccec 5348 ba81 0847
00000010: 05e9 5748 a817 a146 e629 5548 c12a 1347
00000020: 9978 4448 df2a b746 5d5c 3c48 dce4 2747
00000030: 6746 4e48 6b20 6246 aca2 4a48 02c3 4b47
00000040: 7960 2048 4631 ab46 b680 1448 45d6 4c47
00000050: fa71 2f48 9c5e 2f46 e95f 2a48 7d2f 7c47
00000060: cd5c f547 c31c 9046 e036 dc47 1f83 5047
00000070: 4f51 0a48 2ebb 0b46 27e2 0448 e488 8147
00000080: 380b 9e47 cac2 6746 a200 8647 5431 2047
00000090: 374e b947 6a02 b245 76bc b047 0bf4 4947
000000a0: 3957 1747 ab4c 2d46 f5c8 dd46 3567 af46
000000b0: 917d 3747 a8bd 9645 df8b 2647 285a e346
000000c0: 18c3 8846 6cf1 1646 95ae fa45 ff20 2646
000000d0: a326 8e46 4ac1 8f45 c8ad 5646 508e 4a46
000000e0: d3d0 3746 beaf 1846 53ab fe44 7226 ba45
000000f0: df2d 1146 ec30 ab45 5653 7145 0608 c445
00000100: 8603 3146 a2c9 2846 48eb 0644 29d6 8445
220689.33 24531.146 217011.19 34945.727 221092.08 20619.828 218279.6 37674.754
201186.39 23445.436 192881.45 42980.86 211225.61 14472.1045 207498.69 52163.008
164225.89 21912.637 152066.84 52438.27 179655.9 11223.652 174463.64 64559.49
125625.6 18446.38 112749.75 53379.12 141637.23 8942.795 136072.61 66321.78
80918.44 14832.697 68609.266 41009.33 94876.43 5696.302 90488.92 51700.043
38743.223 11091.167 28388.479 22451.604 46973.566 4823.707 42635.87 29101.078
17505.547 9660.355 8021.8228 10632.249 18195.318 4600.161 13739.445 12963.578
11764.206 9771.936 2037.3539 5956.8057 9291.468 5478.115 3861.2085 6273.003
11328.881 10802.408 539.6763 4250.77

network_body.processors.1.normalizer.running_mean f4 [8]
00000000: 3d46 563d 40be c53d 4573 9a3e 1697 b63c
00000010: 6812 3738 2922 dd3d d0f9 3840 4573 9a3e
0.05231308 0.09655428 0.3016607 0.02228884 4.3647742e-05 0.10797531 2.8902473 0.3016607

network_body.processors.1.normalizer.running_variance f4 [8]
00000000: 86b3 9a48 57a2 ee46 0869 de48 7542 7042
00000010: 21e6 bf40 d39f 4f47 5f69 434a 0869 de48
316828.2 30545.17 455496.25 60.0649 5.996842 53151.824 3.2016238e+06 455496.25

network_body._body_endoder.seq_layers.0.weight f4 [256, 76]
00000000: 41e1 843d 4a5c 71bd d157 af3d 7303 a93c
00000010: 243b febd 0bbe a53d 6464 1d3d a71f bfbd
00000020: 9d3f 4fbe c8d2 b13d 33f9 21be eac9 0bbd
00000030: bef7 c8bd 825c 563d 1687 d23d 3e93 ed3d
00000040: 43af 17bd 3bac d73d c939 c83d 2659 c7bd
00000050: 3c40 d7bd 6fae adbd bf54 193c 702a a93c
00000060: 37a9 62bd 4031 95bd 5b15 b8bd 793c ba3d
00000070: 2303 713d 4280 4abe 9c05 be3e 6048 5ebe
00000080: 4563 c3bb 4df4 bb3d f5ba b0bb ddde f53b
00000090: a552 053e a31c babd f104 0e3d d18e ccbb
000000a0: cac2 003e d5c7 563d 992e 71bd 0eb8 913c
000000b0: e662 063d 06a1 b33d 5e0d a43d d53e 253e
000000c0: 00ce 04bd 923d c53d 2107 87bc c942 d23c
000000d0: 5669 f23d a4ee 0abd 8783 093e 2564 27bd
000000e0: 58d7 d8bd a59e 8bbd e0ba 6a3d 4135 113e
000000f0: cee7 903c bf9e 6abe b50b 053e b1bc 243d
00000100: 048f a6bd 6c10 e73c d4ca 45be af14 0abc
00000110: 1477 0fbc 849a a83d 6af5 bd3c 7176 d03c
00000120: 1d0b 08bd b79f f0bd 1561 9cbd f370 103e
00000130: 8c28 d6bd fbb9 20be 9fb5 babb ae15 37be
00000140: 3227 093d c28b 6cbd 4b14 cbbd 08aa f8bd
00000150: 4b52 1e3e 8310 f4bd d2cb c53d 8ce8 30be
00000160: 0429 f7bc ea73 e63d c8b7 383d 3c2e 133e
00000170: 3874 1cbe a330 e7bd 9376 98bd 32b9 ee3d
00000180: 53ed 01be c37c 94bd c79e 12be c41f e5bd
00000190: 6d08 92bc 530f c43d 509f 023e 04b9 313e
000001a0: d50e 703e dce6 ddbc a9c5 b8bd 9a13 063d
000001b0: 180f 563c 1e8e 043d ff64 e6bc 1bff 2d3d
000001c0: 2bf8 a7bc 3a4d bebd 5352 493e 985d b43d
000001d0: cd46 8abe fe3f bbbc 6b90 033e 6499 243e
000001e0: 6054 843d d680 803c 2794 d5ba f299 b43d
000001f0: ddea 7a3d c3cb 51bd 7f04 4a3e 535f ebbc
00000200: 6d9b 4c3e c04a ce3c 8e74 173e 8830 02be
00000210: 747c 083d 81b0 203e b9c0 b0bd 9536 803d
00000220: 2c82 a8bd 58d5 3b3e e456 2d3e a534 503c
00000230: cf3c 26be 152e 5e3c 6038 fb3b ad73 f83d
00000240: 3a8a f13d defb fcbd 57aa 33be 8c04 a63d
00000250: 3809 013e 2a81 18bd bb4d ddbc ace2 613e
00000260: 010a 38be 6696 f63d 76d8 afbc 13ab 4abd
00000270: 4715 603d 70a5 823d 0326 9fbd 54e3 8cbe
00000280: 41d6 2b3e b1bf 2c3e 7ac5 c43d 3217 10be
00000290: cbe9 9a3d afa0 00be 2c7a 35bc 4445 abbc
000002a0: 2264 0dbc c147 183e c8d3 c73c f3ea ccbe
000002b0: b9e5 b2be 3857 72be 9711 e93c b393 11be
000002c0: 42b2 953d 0a45 e0bd e657 e4bc bdd6 95bc
000002d0: 492c 85bc 281f ba3c 12a4 853d c618 2ebe
000002e0: 070f 793c 2e5d 24be bbb1 ccbd a33e d6bc
000002f0: 8f55 ee3c 7431 e23c 9801 ad3d 7e7b b83c
00000300: c570 ba3d 19b5 74bd c043 5cbc 0ef9 9b3c
00000310: cada f83d a30d 84bd 671d 05bd 0c96 d13d
00000320: 29b2 933d 5713 843e dcb0 14bd 5947 dabd
00000330: f6dd 743e 812c 423d 1aa6 3fbc a7b1 793d
00000340: 2f7d b2bd cb07 c83d 512d 273e 8148 92bd
00000350: 3210 9a3e 8f44 6f3d dae5 d33d 4601 adbd
00000360: 5927 d83c b6dc a23b e934 99be 6a8c 34be
00000370: ef07 b43d 25b8 3abe 73e0 86bd 13c2 9fbd
00000380: 321d 32be 57c9 edbd 2d74 863b 9e27 3f3e
00000390: 437b 58bd 5441 cbbd 0dea 073e fd1a e7bd
000003a0: 6fee 83be fd93 eebd 6382 223d 39d6 563e
000003b0: 4d9a fc3d cd51 d03c 0b32 1c3d 0ed0 4bbd
000003c0: a845 f8bd 6ad9 f83d 969c c9bd 938a ecbd
000003d0: 7a84 62bd fead c039 58ac b23d 7c36 41be
000003e0: d889 56be 5ea5 d43c 55a1 1bbe b957 6f3e
000003f0: 5ba5 903d d306 79bd 6f86 093e 1271 57bc
0.06488276 -0.058925904 0.085616715 0.020631528 -0.12413624 0.080928884 0.038425818 -0.09332209
-0.2023911 0.086827815 -0.15817718 -0.034128107 -0.09812878 0.052334316 0.10279672 0.1160035
-0.037032377 0.10530897 0.09776647 -0.097338006 -0.105102986 -0.08480536 0.009358584 0.020650119
-0.055337157 -0.07284784 -0.08988448 0.090935655 0.058840882 -0.19775489 0.37113655 -0.21707296
-0.0059627616 0.09177456 -0.0053933808 0.007503374 0.13019808 -0.09087493 0.03467268 -0.006242611
0.12574306 0.05243667 -0.05888233 0.01778796 0.03280916 0.08770947 0.08010362 0.1613725
-0.03242302 0.09630884 -0.016482892 0.025666611 0.118364975 -0.03391899 0.1342908 -0.04086699
-0.105879486 -0.068173684 0.057307124 0.14180471 0.017688658 -0.2291212 0.12992747 0.040219013
-0.08132747 0.028206073 -0.19315654 -0.008427783 -0.008756418 0.082325965 0.023188312 0.025447102
-0.033213723 -0.11749213 -0.076357044 0.14105587 -0.104569525 -0.15695946 -0.0056979205 -0.17879364
0.033484645 -0.05775047 -0.0991598 -0.12141806 0.1546108 -0.11917212 0.09658016 -0.1727621
-0.030170925 0.112525776 0.045097142 0.14373106 -0.15278709 -0.112885736 -0.07444491 0.11656417
-0.12688188 -0.07250359 -0.14318381 -0.111876994 -0.017826283 0.09573235 0.12756085 0.17355734
0.23443158 -0.027087621 -0.09022076 0.032733537 0.013065122 0.032362096 -0.02812433 0.042479616
-0.020504078 -0.092920735 0.1966031 0.08806914 -0.27007142 -0.022857662 0.1284806 0.16074139
0.06461406 0.015686434 -0.0016294763 0.08818425 0.06125914 -0.051219713 0.19728278 -0.028731978
0.19981165 0.025182128 0.14790556 -0.12713826 0.033321813 0.15692331 -0.08630509 0.06260411
-0.08227953 0.18343103 0.16927677 0.012707864 -0.16234134 0.0135607915 0.0076666325 0.121314384
0.11793943 -0.12352727 -0.17545448 0.08106336 0.12601173 -0.037232555 -0.027014604 0.22059125
-0.17972566 0.12040405 -0.021465521 -0.049479555 0.05470779 0.06379211 -0.07770922 -0.27517188
0.1678095 0.1687 0.09607978 -0.14071348 0.07564124 -0.12561296 -0.011076491 -0.020907052
-0.008629831 0.14871122 0.024392977 -0.40023002 -0.3494089 -0.23666084 0.02845077 -0.14216499
0.073093906 -0.10950668 -0.027873944 -0.018290872 -0.016256468 0.022719935 0.065254346 -0.17001638
0.015201337 -0.1605117 -0.09994837 -0.026152914 0.029093532 0.027611472 0.084475696 0.022519823
0.0910354 -0.05974302 -0.013443887 0.019039657 0.12151106 -0.064479135 -0.032498743 0.10233697
0.07211716 0.25796005 -0.03630148 -0.1065814 0.23912796 0.047405723 -0.011697317 0.060960438
-0.08715283 0.097671114 0.1632588 -0.07142735 0.3009048 0.058414992 0.10346575 -0.084475085
0.02638595 0.0049701585 -0.2992318 -0.17631689 0.08790576 -0.18234308 -0.06585779 -0.078006886
-0.1739395 -0.11610668 0.0041032047 0.18667457 -0.052851927 -0.0992457 0.13272877 -0.112844445
-0.25767848 -0.1164932 0.039675128 0.20980157 0.12334118 0.02542963 0.038133662 -0.049758963
-0.12122661 0.121508434 -0.098443195 -0.115498684 -0.05530212 0.00036750728 0.08724278 -0.1886844
-0.2095102 0.02595776 -0.15198262 0.23373307 0.07062789 -0.060797524 0.13430189 -0.013149517

network_body._body_endoder.seq_layers.0.bias f4 [256]
00000000: 0000 0000 0000 0000 0000 0000 0000 0000
00000010: 0000 0000 0000 0000 0000 0000 0000 0000
00000020: 0000 0000 0000 0000 0000 0000 0000 0000
00000030: 0000 0000 0000 0000 0000 0000 0000 0000
00000040: 0000 0000 0000 0000 0000 0000 0000 0000
00000050: 0000 0000 0000 0000 0000 0000 0000 0000
00000060: 0000 0000 0000 0000 0000 0000 0000 0000
00000070: 0000 0000 0000 0000 0000 0000 0000 0000
00000080: 0000 0000 0000 0000 0000 0000 0000 0000
00000090: 0000 0000 0000 0000 0000 0000 0000 0000
000000a0: 0000 0000 0000 0000 0000 0000 0000 0000
000000b0: 0000 0000 0000 0000 0000 0000 0000 0000
000000c0: 0000 0000 0000 0000 0000 0000 0000 0000
000000d0: 0000 0000 0000 0000 0000 0000 0000 0000
000000e0: 0000 0000 0000 0000 0000 0000 0000 0000
000000f0: 0000 0000 0000 0000 0000 0000 0000 0000
00000100: 0000 0000 0000 0000 0000 0000 0000 0000
00000110: 0000 0000 0000 0000 0000 0000 0000 0000
00000120: 0000 0000 0000 0000 0000 0000 0000 0000
00000130: 0000 0000 0000 0000 0000 0000 0000 0000
00000140: 0000 0000 0000 0000 0000 0000 0000 0000
00000150: 0000 0000 0000 0000 0000 0000 0000 0000
00000160: 0000 0000 0000 0000 0000 0000 0000 0000
00000170: 0000 0000 0000 0000 0000 0000 0000 0000
00000180: 0000 0000 0000 0000 0000 0000 0000 0000
00000190: 0000 0000 0000 0000 0000 0000 0000 0000
000001a0: 0000 0000 0000 0000 0000 0000 0000 0000
000001b0: 0000 0000 0000 0000 0000 0000 0000 0000
000001c0: 0000 0000 0000 0000 0000 0000 0000 0000
000001d0: 0000 0000 0000 0000 0000 0000 0000 0000
000001e0: 0000 0000 0000 0000 0000 0000 0000 0000
000001f0: 0000 0000 0000 0000 0000 0000 0000 0000
00000200: 0000 0000 0000 0000 0000 0000 0000 0000
00000210: 0000 0000 0000 0000 0000 0000 0000 0000
00000220: 0000 0000 0000 0000 0000 0000 0000 0000
00000230: 0000 0000 0000 0000 0000 0000 0000 0000
00000240: 0000 0000 0000 0000 0000 0000 0000 0000
00000250: 0000 0000 0000 0000 0000 0000 0000 0000
00000260: 0000 0000 0000 0000 0000 0000 0000 0000
00000270: 0000 0000 0000 0000 0000 0000 0000 0000
00000280: 0000 0000 0000 0000 0000 0000 0000 0000
00000290: 0000 0000 0000 0000 0000 0000 0000 0000
000002a0: 0000 0000 0000 0000 0000 0000 0000 0000
000002b0: 0000 0000 0000 0000 0000 0000 0000 0000
000002c0: 0000 0000 0000 0000 0000 0000 0000 0000
000002d0: 0000 0000 0000 0000 0000 0000 0000 0000
000002e0: 0000 0000 0000 0000 0000 0000 0000 0000
000002f0: 0000 0000 0000 0000 0000 0000 0000 0000
00000300: 0000 0000 0000 0000 0000 0000 0000 0000
00000310: 0000 0000 0000 0000 0000 0000 0000 0000
00000320: 0000 0000 0000 0000 0000 0000 0000 0000
00000330: 0000 0000 0000 0000 0000 0000 0000 0000
00000340: 0000 0000 0000 0000 0000 0000 0000 0000
00000350: 0000 0000 0000 0000 0000 0000 0000 0000
00000360: 0000 0000 0000 0000 0000 0000 0000 0000
00000370: 0000 0000 0000 0000 0000 0000 0000 0000
00000380: 0000 0000 0000 0000 0000 0000 0000 0000
00000390: 0000 0000 0000 0000 0000 0000 0000 0000
000003a0: 0000 0000 0000 0000 0000 0000 0000 0000
000003b0: 0000 0000 0000 0000 0000 0000 0000 0000
000003c0: 0000 0000 0000 0000 0000 0000 0000 0000
000003d0: 0000 0000 0000 0000 0000 0000 0000 0000
000003e0: 0000 0000 0000 0000 0000 0000 0000 0000
000003f0: 0000 0000 0000 0000 0000 0000 0000 0000
0.0 0.0 0.0 0.0 0.0 0.0 0.0 0.0
0.0 0.0 0.0 0.0 0.0 0.0 0.0 0.0
0.0 0.0 0.0 0.0 0.0 0.0 0.0 0.0
0.0 0.0 0.0 0.0 0.0 0.0 0.0 0.0
0.0 0.0 0.0 0.0 0.0 0.0 0.0 0.0
0.0 0.0 0.0 0.0 0.0 0.0 0.0 0.0
0.0 0.0 0.0 0.0 0.0 0.0 0.0 0.0
0.0 0.0 0.0 0.0 0.0 0.0 0.0 0.0
0.0 0.0 0.0 0.0 0.0 0.0 0.0 0.0
0.0 0.0 0.0 0.0 0.0 0.0 0.0 0.0
0.0 0.0 0.0 0.0 0.0 0.0 0.0 0.0
0.0 0.0 0.0 0.0 0.0 0.0 0.0 0.0
0.0 0.0 0.0 0.0 0.0 0.0 0.0 0.0
0.0 0.0 0.0 0.0 0.0 0.0 0.0 0.0
0.0 0.0 0.0 0.0 0.0 0.0 0.0 0.0
0.0 0.0 0.0 0.0 0.0 0.0 0.0 0.0
0.0 0.0 0.0 0.0 0.0 0.0 0.0 0.0
0.0 0.0 0.0 0.0 0.0 0.0 0.0 0.0
0.0 0.0 0.0 0.0 0.0 0.0 0.0 0.0
0.0 0.0 0.0 0.0 0.0 0.0 0.0 0.0
0.0 0.0 0.0 0.0 0.0 0.0 0.0 0.0
0.0 0.0 0.0 0.0 0.0 0.0 0.0 0.0
0.0 0.0 0.0 0.0 0.0 0.0 0.0 0.0
0.0 0.0 0.0 0.0 0.0 0.0 0.0 0.0
0.0 0.0 0.0 0.0 0.0 0.0 0.0 0.0
0.0 0.0 0.0 0.0 0.0 0.0 0.0 0.0
0.0 0.0 0.0 0.0 0.0 0.0 0.0 0.0
0.0 0.0 0.0 0.0 0.0 0.0 0.0 0.0
0.0 0.0 0.0 0.0 0.0 0.0 0.0 0.0
0.0 0.0 0.0 0.0 0.0 0.0 0.0 0.0
0.0 0.0 0.0 0.0 0.0 0.0 0.0 0.0
0.0 0.0 0.0 0.0 0.0 0.0 0.0 0.0

network_body._body_endoder.seq_layers.2.weight f4 [256, 256]
00000000: c1b1 97bd 9d18 9fbd b5b2 ac3d 087c 1d3c
00000010: a947 e53c 4967 f63a f5d7 c4bc 6652 c6bb
00000020: d480 f93c 67b7 c33d be54 8e3c 8930 cf3d
00000030: bfcc e93d 6d36 68bc 241e 90bd b8dd 7c3c
00000040: 0164 0ebd 84e3 973d 830c f2bd 9209 83bc
00000050: a8db 00bd f3e1 4b3d 8f2f 74bd 7797 823d
00000060: c4e1 8ebd b164 8c3d a892 df3c 0be5 b1bc
00000070: 7e71 6e3d 5e15 7fbc 1395 a93b 95e5 5c3d
00000080: 82b4 b53d 5ccc 263d 406d 7e3c 4ddd 3e3e
00000090: fc25 ef3d 2b28 63bd 447c be3c bf53 223d
000000a0: 79ed 2ebd 432d 6abc 9df9 19bc 3886 80bb
000000b0: a5ad e73d dbb8 793d ba67 743d 9ca4 87bc
000000c0: d07a 6ebd 9a0b acbc 6e48 c23d c379 b7bd
000000d0: 341c 18bd a7fa 6f3b b988 f13c 67ed 553d
000000e0: f675 263d 6aef 853c 6c72 a93c ffbf 993c
000000f0: 99c1 29bd 9e0a c5bc 7e8e e0bc 89fb ce3d
00000100: 1949 10be daad bd3d eef2 eebd 0980 a4bc
00000110: 3025 d1bc 3eca 17be ee19 ac3c ac7a 843d
00000120: 0e75 b63b 9957 36bd 0d1e 8ebc 135f 3dbd
00000130: f506 323d 2c48 c83d 2e5f 193c 0667 fe3d
00000140: a145 6bbd 0259 7a3d d849 8d3c 0478 5e3d
00000150: 94f2 f7bc 545e f33c 62d3 bb3d 051d 64bb
00000160: 93be 973d 6cfa 65bd 1c5e 0dbd fe90 12bb
00000170: 6785 5f3e 9f17 293d 7a78 0a3d 73f3 30bc
00000180: 52e0 0dbd 0e43 a8bd bad9 073e 84cd a9bd
00000190: 7a71 6bbc 8e0b 5b3d 6357 90bc 0236 58bd
000001a0: 65df 2d3d 07f7 0c3e fdc2 76bb a4e1 2abd
000001b0: c365 063c accf 4b3d 7234 ff3c fff0 0d3e
000001c0: bf32 46bd 5ee2 d93d 9ec2 123e 026c a4bc
000001d0: 6b1e 7fbc bbeb 963d 2a2a b73d 1c12 063e
000001e0: 80bf 28bd 23e0 70bd 7d2e b1bd 7bb2 59bd
000001f0: f69c 66bd dd04 b03d c8d6 13bd 62e3 81bc
00000200: 6cfb 8d3d 2185 ca39 92cb 023d 2464 cf3d
00000210: cbb7 b3bd 39ba d0bd aef3 8d3d 1a05 88bc
00000220: de2e b5bd 8f65 81bd d97e e03c 464d 2fbd
00000230: a994 4bbd 1b21 90bc 4b9e 253d 7c3d 3e3d
00000240: 4582 a53d 982c 9dbd a9dd 35bd b20c e5bd
00000250: 939e 263c 58b4 db3c 44e8 c03d 29c3 e8bd
00000260: 0025 ffbd 3e29 87bd 41ac 0abd bcf4 f03c
00000270: a6d1 d73c 5404 40bd 62f9 3ebb 820d 26bd
00000280: 1700 bf3d 39a8 203d d903 38bc b343 82bd
00000290: b836 233e e040 cabc 1851 1e3c c310 0abd
000002a0: ed79 673d 9782 95bd 9a98 923d 1bd1 0b3e
000002b0: 3d5b 5e3c a17e a73d 6dcc b93c 9a19 3f3d
000002c0: 8644 1f3e d311 8d3d fcaf 08be 20a5 9bbd
000002d0: 6df9 95bc 6429 33be 63f2 8dbd d724 17bd
000002e0: 48a7 8ebd 24ef 873d 45a5 2cbc a174 b23c
000002f0: c208 183c 52d7 723c b84d 533d c06a 5f3d
00000300: 2406 1b3d 502a 923d 0b26 acbd 0fa4 95bc
00000310: bc8e 82bc 6af3 723d 362f 6dbc a3ed 843d
00000320: ee59 dbbc 3af7 4dbd a818 133c f0f6 553d
00000330: 9974 b2bd 8f8d b93c 6ea0 e03d a442 bfbb
00000340: 189b d63d 2e5a 62bd ba19 ba3a cbef 94bb
00000350: 6458 a03d c4c5 5dbd 2a4a aa3d d5d7 38be
00000360: c171 8cbc b731 a13b 09c9 fd3d 9adc 04be
00000370: 2057 c33d ef7f 8bbd 9878 fcba b272 403d
00000380: 3fe8 91bc 4d95 31bc 9a58 323d fc88 733d
00000390: 0d6b b73d c2f8 cabd 647e 233d 6fa2 04bb
000003a0: bf04 6a3e 551d eebc 6b41 fe3d 98c4 863c
000003b0: 2cca d6bc cfcb bebc c389 c13d 6aac 263d
000003c0: 7d9b efbc 4ee2 253d 193a 02be ffde fabc
000003d0: 4749 11bd 9133 3abd 0c41 93bc e605 c8bd
000003e0: 0601 7dbc 2072 dfbc db58 2abd 27d0 433d
000003f0: d763 8abc 7af8 3abd 4c74 36bd a364 883c
-0.07406951 -0.077683665 0.08432523 0.009612091 0.027988272 0.0018799092 -0.024028758 -0.006052303
0.030456938 0.095564656 0.017374393 0.10116679 0.11416005 -0.014173132 -0.07036999 0.015433721
-0.03476334 0.07416442 -0.11818793 -0.015995774 -0.03145948 0.04977603 -0.059615668 0.06376546
-0.06976655 0.06855143 0.02729161 -0.021715662 0.058213703 -0.015569059 0.0051752417 0.053929884
0.0887232 0.040722236 0.015528977 0.18639107 0.11677167 -0.05545823 0.023252614 0.039630648
-0.04270694 -0.014293018 -0.009397891 -0.00392225 0.11312417 0.060967308 0.059669234 -0.016557984
-0.058222592 -0.021001626 0.09486471 -0.08958771 -0.03713627 0.0036617906 0.02948414 0.052228358
0.04063984 0.016349513 0.020684443 0.018768309 -0.041444395 -0.024052914 -0.027411696 0.1010657
-0.14090385 0.09261675 -0.11667429 -0.020080583 -0.025530428 -0.14823243 0.021008458 0.0646871
0.005568153 -0.044517133 -0.017348314 -0.046233248 0.043463666 0.09779391 0.0093610715 0.12421994
-0.05743945 0.06112004 0.017247126 0.054313675 -0.030267037 0.029708065 0.091711774 -0.0034807336
0.07409396 -0.056147024 -0.034513578 -0.0022364254 0.21828233 0.041282292 0.0338063 -0.01080023
-0.034637757 -0.08215915 0.1326665 -0.08291152 -0.014370317 0.053477816 -0.017619794 -0.05278588
0.042449374 0.13766108 -0.0037652843 -0.041719094 0.008202973 0.0497586 0.031152938 0.13861464
-0.04838824 0.10638879 0.14332053 -0.020071033 -0.015571217 0.07369181 0.08943589 0.13092846
-0.041198254 -0.058807503 -0.08651445 -0.053148728 -0.056302033 0.085946776 -0.036093503 -0.015855495
0.069327205 0.0003862763 0.03193242 0.10126522 -0.0877529 -0.10191769 0.06931244 -0.016603995
-0.0884683 -0.06318199 0.027404236 -0.042798303 -0.04970232 -0.01759391 0.040434163 0.046445355
0.080814876 -0.07674521 -0.044400845 -0.11184062 0.010169643 0.026819393 0.09419301 -0.11365349
-0.12458229 -0.06599663 -0.03385568 0.029413573 0.026345085 -0.046879128 -0.0029140343 -0.040540226
0.09326189 0.03922293 -0.011231386 -0.06360569 0.15938842 -0.024689138 0.009662889 -0.03370739
0.05651276 -0.07300299 0.07158013 0.13653986 0.013571558 0.081784494 0.022680486 0.046655275
0.15553483 0.06888165 -0.13348383 -0.075998545 -0.018307412 -0.17496258 -0.06930997 -0.036900368
-0.069655 0.06637409 -0.01053745 0.021784129 0.009279432 0.014821844 0.05158779 0.054545164
0.037847653 0.07136977 -0.084056936 -0.018266706 -0.015937202 0.05931417 -0.014476588 0.06490638
-0.02677628 -0.0502846 0.0089780465 0.05223745 -0.087136455 0.022650508 0.109680995 -0.0058368016
0.104788005 -0.055261783 0.0014198341 -0.004545187 0.07829359 -0.054143682 0.08314927 -0.18051083
-0.017144086 0.0049192565 0.1239186 -0.12974778 0.09538102 -0.06811511 -0.0019262014 0.046984382
-0.017810939 -0.010838819 0.04354153 0.05945681 0.08955965 -0.09910728 0.039915457 -0.002023842
0.22853373 -0.029066721 0.12414821 0.016451165 -0.02621945 -0.023290543 0.09450104 0.04069177
-0.029248947 0.040499024 -0.12717475 -0.030623911 -0.035470273 -0.045459334 -0.017975353 -0.0976675
-0.015442139 -0.027276099 -0.041588645 0.04780593 -0.01689331 -0.045647122 -0.044544503 0.01664955

network_body._body_endoder.seq_layers.2.bias f4 [256]
00000000: 0000 0000 0000 0000 0000 0000 0000 0000
00000010: 0000 0000 0000 0000 0000 0000 0000 0000
00000020: 0000 0000 0000 0000 0000 0000 0000 0000
00000030: 0000 0000 0000 0000 0000 0000 0000 0000
00000040: 0000 0000 0000 0000 0000 0000 0000 0000
00000050: 0000 0000 0000 0000 0000 0000 0000 0000
00000060: 0000 0000 0000 0000 0000 0000 0000 0000
00000070: 0000 0000 0000 0000 0000 0000 0000 0000
00000080: 0000 0000 0000 0000 0000 0000 0000 0000
00000090: 0000 0000 0000 0000 0000 0000 0000 0000
000000a0: 0000 0000 0000 0000 0000 0000 0000 0000
000000b0: 0000 0000 0000 0000 0000 0000 0000 0000
000000c0: 0000 0000 0000 0000 0000 0000 0000 0000
000000d0: 0000 0000 0000 0000 0000 0000 0000 0000
000000e0: 0000 0000 0000 0000 0000 0000 0000 0000
000000f0: 0000 0000 0000 0000 0000 0000 0000 0000
00000100: 0000 0000 0000 0000 0000 0000 0000 0000
00000110: 0000 0000 0000 0000 0000 0000 0000 0000
00000120: 0000 0000 0000 0000 0000 0000 0000 0000
00000130: 0000 0000 0000 0000 0000 0000 0000 0000
00000140: 0000 0000 0000 0000 0000 0000 0000 0000
00000150: 0000 0000 0000 0000 0000 0000 0000 0000
00000160: 0000 0000 0000 0000 0000 0000 0000 0000
00000170: 0000 0000 0000 0000 0000 0000 0000 0000
00000180: 0000 0000 0000 0000 0000 0000 0000 0000
00000190: 0000 0000 0000 0000 0000 0000 0000 0000
000001a0: 0000 0000 0000 0000 0000 0000 0000 0000
000001b0: 0000 0000 0000 0000 0000 0000 0000 0000
000001c0: 0000 0000 0000 0000 0000 0000 0000 0000
000001d0: 0000 0000 0000 0000 0000 0000 0000 0000
000001e0: 0000 0000 0000 0000 0000 0000 0000 0000
000001f0: 0000 0000 0000 0000 0000 0000 0000 0000
00000200: 0000 0000 0000 0000 0000 0000 0000 0000
00000210: 0000 0000 0000 0000 0000 0000 0000 0000
00000220: 0000 0000 0000 0000 0000 0000 0000 0000
00000230: 0000 0000 0000 0000 0000 0000 0000 0000
00000240: 0000 0000 0000 0000 0000 0000 0000 0000
00000250: 0000 0000 0000 0000 0000 0000 0000 0000
00000260: 0000 0000 0000 0000 0000 0000 0000 0000
00000270: 0000 0000 0000 0000 0000 0000 0000 0000
00000280: 0000 0000 0000 0000 0000 0000 0000 0000
00000290: 0000 0000 0000 0000 0000 0000 0000 0000
000002a0: 0000 0000 0000 0000 0000 0000 0000 0000
000002b0: 0000 0000 0000 0000 0000 0000 0000 0000
000002c0: 0000 0000 0000 0000 0000 0000 0000 0000
000002d0: 0000 0000 0000 0000 0000 0000 0000 0000
000002e0: 0000 0000 0000 0000 0000 0000 0000 0000
000002f0: 0000 0000 0000 0000 0000 0000 0000 0000
00000300: 0000 0000 0000 0000 0000 0000 0000 0000
00000310: 0000 0000 0000 0000 0000 0000 0000 0000
00000320: 0000 0000 0000 0000 0000 0000 0000 0000
00000330: 0000 0000 0000 0000 0000 0000 0000 0000
00000340: 0000 0000 0000 0000 0000 0000 0000 0000
00000350: 0000 0000 0000 0000 0000 0000 0000 0000
00000360: 0000 0000 0000 0000 0000 0000 0000 0000
00000370: 0000 0000 0000 0000 0000 0000 0000 0000
00000380: 0000 0000 0000 0000 0000 0000 0000 0000
00000390: 0000 0000 0000 0000 0000 0000 0000 0000
000003a0: 0000 0000 0000 0000 0000 0000 0000 0000
000003b0: 0000 0000 0000 0000 0000 0000 0000 0000
000003c0: 0000 0000 0000 0000 0000 0000 0000 0000
000003d0: 0000 0000 0000 0000 0000 0000 0000 0000
000003e0: 0000 0000 0000 0000 0000 0000 0000 0000
000003f0: 0000 0000 0000 0000 0000 0000 0000 0000
0.0 0.0 0.0 0.0 0.0 0.0 0.0 0.0
0.0 0.0 0.0 0.0 0.0 0.0 0.0 0.0
0.0 0.0 0.0 0.0 0.0 0.0 0.0 0.0
0.0 0.0 0.0 0.0 0.0 0.0 0.0 0.0
0.0 0.0 0.0 0.0 0.0 0.0 0.0 0.0
0.0 0.0 0.0 0.0 0.0 0.0 0.0 0.0
0.0 0.0 0.0 0.0 0.0 0.0 0.0 0.0
0.0 0.0 0.0 0.0 0.0 0.0 0.0 0.0
0.0 0.0 0.0 0.0 0.0 0.0 0.0 0.0
0.0 0.0 0.0 0.0 0.0 0.0 0.0 0.0
0.0 0.0 0.0 0.0 0.0 0.0 0.0 0.0
0.0 0.0 0.0 0.0 0.0 0.0 0.0 0.0
0.0 0.0 0.0 0.0 0.0 0.0 0.0 0.0
0.0 0.0 0.0 0.0 0.0 0.0 0.0 0.0
0.0 0.0 0.0 0.0 0.0 0.0 0.0 0.0
0.0 0.0 0.0 0.0 0.0 0.0 0.0 0.0
0.0 0.0 0.0 0.0 0.0 0.0 0.0 0.0
0.0 0.0 0.0 0.0 0.0 0.0 0.0 0.0
0.0 0.0 0.0 0.0 0.0 0.0 0.0 0.0
0.0 0.0 0.0 0.0 0.0 0.0 0.0 0.0
0.0 0.0 0.0 0.0 0.0 0.0 0.0 0.0
0.0 0.0 0.0 0.0 0.0 0.0 0.0 0.0
0.0 0.0 0.0 0.0 0.0 0.0 0.0 0.0
0.0 0.0 0.0 0.0 0.0 0.0 0.0 0.0
0.0 0.0 0.0 0.0 0.0 0.0 0.0 0.0
0.0 0.0 0.0 0.0 0.0 0.0 0.0 0.0
0.0 0.0 0.0 0.0 0.0 0.0 0.0 0.0
0.0 0.0 0.0 0.0 0.0 0.0 0.0 0.0
0.0 0.0 0.0 0.0 0.0 0.0 0.0 0.0
0.0 0.0 0.0 0.0 0.0 0.0 0.0 0.0
0.0 0.0 0.0 0.0 0.0 0.0 0.0 0.0
0.0 0.0 0.0 0.0 0.0 0.0 0.0 0.0

action_model._continuous_distribution.log_sigma f4 [1, 3]
00000000: 6a03 b93c b743 5ebe 73c7 cfbb
0.022584636 -0.21705519 -0.006340915

action_model._continuous_distribution.mu.weight f4 [3, 256]
00000000: 3803 b5bc 0be6 0b39 a5da 54bc 0f43 343c
00000010: 9bfd e93c 0df5 543c d2e7 303c eae6 123c
00000020: ab17 35bc cbdf ce3b d8f4 ea3b 95f5 74bc
00000030: 3d8a 283c 9325 a8bb 7b9d 633c de45 903b
00000040: da38 7cbb 434a 9d3c 9f1b c8bb a624 463c
00000050: fe72 31bb fd8f 063c 2979 9eb9 c567 ec39
00000060: 9414 473c 479c bd39 db03 9e3c 7f57 cd3b
00000070: fa4e f3bc e907 2a3b 6b72 aabc ca13 6dba
00000080: 33fe a9bb bb02 bc3b ad07 bdbb 13d9 2839
00000090: 0713 ac3c 571a 93bb 6556 66bb a699 9fbb
000000a0: 8d67 d2bb 41a7 473c 931f ebbb cbc1 313b
000000b0: 05d7 2ebc 6b6c 50bb eabc 92bc f543 2abb
000000c0: 9f7a d3bb b231 a53c 8c77 44bb aaad 63bb
000000d0: a6ef 163b 3021 a33b 8081 913b 2d3e 71bb
000000e0: 1076 0d3c b91f a2bb 9143 3bbc a3be 05bb
000000f0: 778d c73a 0e1d 95bc 7186 a9bc a7df d33c
00000100: 4b81 7d3a 0c3e a7bb e915 1aba 8a93 a93c
00000110: c34e 7f3a 6a71 5fbb 2d1f 293c 6f9f 953a
00000120: 6571 8c3b a705 213c d374 c7bb 8776 463c
00000130: 9388 50bb e990 283c 62e9 7c3c 5a24 4fbb
00000140: 0b69 f5bb fbca 1f3c e351 fd3c 77b4 41bc
00000150: cae3 94bc f3ec e53b e576 fdbb 0795 c9bc
00000160: 2096 a5ba cabd efbb fdfb 73bc af8f 4bbc
00000170: a3c3 73bb 9737 7e3c 12e1 74bc 638e 8a3c
00000180: 5b00 09bc 6f78 233c 575e ad3b ec09 973c
00000190: 0d98 613b 5ba2 723c aecd 343b 6302 c63c
000001a0: 9596 cdbc 1ae7 7dbb a81e 3d3b bdf6 133c
000001b0: 4dec 3c3b ae90 193a 595a bb3c 3f05 42bc
000001c0: 9281 dd39 8d11 803c a790 0fba 0ac3 c3bb
000001d0: 75ea fb3a 4d24 893b c0d6 033b 0d99 dc3b
000001e0: cf33 043c 6e76 aebc bbb0 40bb 4995 8cbb
000001f0: 9c9e 4bbb 2a70 f5bb 9b39 493b 0dea dfbb
00000200: b0fb 8cba e71e 413b dbba ccbc fe35 8c3b
00000210: 0d26 963c 897e 2dbb 35ce 4e3c cf1b 24bc
00000220: aff7 f13a ef0b 83bc e354 11bc 0c65 bb3c
00000230: 80a2 fcba 7f24 cf3b 13cf 003c ef74 c1ba
00000240: d78d 99bb 9885 4a3c 8bc8 c83b d704 873c
00000250: b7b0 1abb acad b73a 703d 01bc 793e 00bc
00000260: 332f 8abc 4968 45bc e319 cabb 5787 9cbb
00000270: 3b22 e239 b7b0 58bb fb7f e1ba c10d 3a3c
00000280: b08c 65bc 4735 ae3c d123 883b b2ba 17b9
00000290: 4318 003c b0a4 903b db71 ddbb 65d4 28bc
000002a0: 1ab4 7c3c c7a8 aa3c add5 f23b c232 22bc
000002b0: 812d aa3c d587 adbc 587c 8bbb 4b24 67bb
000002c0: f7b3 d83b ed10 a1bb 44c0 c13b dee3 8f3c
000002d0: 217b 3a3b 06f2 08bc 3f13 19bb fcbf 81bc
000002e0: a180 123b ca89 9f3b 47e3 c93c 7acb 7cbc
000002f0: d058 e93c 299b 3ebc 017f 46bb e963 ba3b
00000300: e805 233d 1e5e c83a 27a1 48ba 13d2 6a3b
00000310: 60fa 9fbc 3360 aabc 27c7 d0bc d5b9 e8ba
00000320: 612c bd3c 4b6e 313c 0449 9d3b 9b5c c2bb
00000330: 062e b1bc a3ac b23c 51b5 bdb9 878b fdbb
00000340: 1798 87bc 72d2 033c b4a2 27ba d71e 1d3c
00000350: d0d6 fd3b 655d e7bb ab13 4bba 5ffc 523c
00000360: 8d9c 583c 7206 7dba 10c8 433c 95fb 4bbc
00000370: 9851 c63b 931b f5bb fb81 d8bb ecc9 a53b
00000380: 15b8 023b dbf0 8dbc a8f0 953a 7f88 c1bc
00000390: eae5 b93b 162d 27bb 6844 24bc 43e6 e23b
000003a0: 2fd9 803c 6abe 203c c301 8dbc 2ff6 97bc
000003b0: 9840 68bb 060d 1cbb 3a82 eaba 4a67 ed3b
000003c0: b13c cb38 dc0b 1abc 046b 263c 63dc 8f3b
000003d0: 52f3 333c 5b1e 0cbb 333b a73c 0a87 623c
000003e0: b046 c83b c06e 533b 0aa0 d6bb 8e51 03bc
000003f0: a1ab 843c f3d3 50bb 7d86 133b 579d 45bc
-0.022096261 0.0001334177 -0.012991582 0.011002316 0.028563311 0.012997878 0.010797458 0.008966187
-0.011053006 0.0063132993 0.007170301 -0.014951129 0.010286865 -0.0051314323 0.013892527 0.00440286
-0.0038486035 0.01920045 -0.0061068083 0.012093699 -0.0027076597 0.00821304 -0.0003022638 0.00045090742
0.012150902 0.00036165325 0.019288948 0.006266534 -0.029700745 0.0025944656 -0.020806512 -0.00090437813
-0.0051877736 0.00573763 -0.0057687373 0.00016102595 0.021005167 -0.004489224 -0.003514671 -0.0048706112
-0.0064210356 0.0121858725 -0.007175395 0.0027123566 -0.010671382 -0.0031802903 -0.017912347 -0.0025980447
-0.0064538266 0.020165298 -0.0029978482 -0.0034740963 0.0023031025 0.0049783215 0.0044404864 -0.0036810741
0.008634105 -0.0049476293 -0.011429683 -0.0020407818 0.0015224655 -0.01820233 -0.02069399 0.025863482
0.000967045 -0.005103832 -0.00058778987 0.020700235 0.00097392144 -0.00340947 0.010322374 0.0011415313
0.0042859786 0.009828008 -0.0060869246 0.01211322 -0.0031819686 0.0102884555 0.015436502 -0.003160736
-0.0074893287 0.009752984 0.030922836 -0.011822811 -0.018175025 0.007016772 -0.0077351206 -0.024607195
-0.0012633242 -0.007316326 -0.014891622 -0.012424394 -0.0037195466 0.015516183 -0.014946239 0.016913598
-0.008361901 0.009977444 0.005290787 0.018437348 0.0034422905 0.014809216 0.0027588415 0.02417106
-0.025096217 -0.0038742484 0.0028857384 0.009030995 0.002882737 0.0005858046 0.02287023 -0.011842071
0.00042248942 0.015633369 -0.0005476572 -0.005974178 0.0019219654 0.0041852356 0.0020117015 0.0067321123
0.008068993 -0.021296706 -0.0029402215 -0.004290257 -0.003106988 -0.0074901776 0.0030704502 -0.006833321
-0.0010756161 0.0029467882 -0.024991443 0.0042788973 0.01832869 -0.0026473126 0.012622406 -0.010016396
0.0018460656 -0.015996901 -0.008870336 0.022875331 -0.0019274503 0.0063214893 0.00786187 -0.001475958
-0.004686098 0.012360953 0.006127422 0.0164818 -0.0023603865 0.001401355 -0.007888183 -0.007827395
-0.01686821 -0.012048789 -0.0061676367 -0.004776876 0.00043131583 -0.0033064315 -0.0017204279 0.011355818
-0.014010593 0.021265639 0.0041546603 -0.00014470032 0.007818284 0.0044141635 -0.0067579574 -0.010304545
0.015423799 0.020832432 0.007410726 -0.009899797 0.020773651 -0.021182934 -0.0042567663 -0.0035269435
0.0066132504 -0.004915348 0.0059128124 0.01756471 0.0028454738 -0.008358484 -0.0023357419 -0.015838616
0.00223545 0.0048687207 0.024644507 -0.015429372 0.028484732 -0.011633673 -0.0030288103 0.0056881797
0.039800555 0.0015286838 -0.0007653408 0.003583078 -0.019528568 -0.020797824 -0.025485588 -0.0017755578
0.02309245 0.010829519 0.004799964 -0.0059314496 -0.021628391 0.021810835 -0.0003618398 -0.00773758
-0.016552014 0.00804578 -0.0006394789 0.009589872 0.007746555 -0.007060694 -0.0007746766 0.012877553
0.013220918 -0.00096521445 0.011949554 -0.012450119 0.006052207 -0.0074800937 -0.0066072918 0.0050594714
0.0019946147 -0.017326763 0.0011439519 -0.023624657 0.00567316 -0.002550905 -0.010026075 0.006924422
0.015728561 0.009811023 -0.017212754 -0.018550007 -0.0035438892 -0.0023811474 -0.0017891594 0.007244979
9.691099e-05 -0.009402242 0.01015735 0.004390286 0.010983305 -0.0021380398 0.02041397 0.013826141
0.006111942 0.0032262057 -0.00654984 -0.00801505 0.01619512 -0.0031864613 0.0022510581 -0.0120614385

action_model._continuous_distribution.mu.bias f4 [3]
00000000: 4548 c63c 6101 153c b404 d2bc
0.024204383 0.009094567 -0.025637008

network_body.observation_encoder.processors.0.normalizer.running_mean f4 [68]
00000000: f60a 0f3f ee02 e73c a079 d33e 5fc8 513f
00000010: 7c07 0e3f b442 c13c dadc d73e a88f 513f
00000020: 12ac 283f 137f dc3c a7df a03e 4398 423f
00000030: 8851 1e3f cca6 863c 68f2 ba3e 632f 443f
00000040: 1008 423f 92b2 cd3c 7d28 5e3e e6a4 273f
00000050: 95d6 383f 150f 503c 40d2 873e 802c 2a3f
00000060: cdc5 543f 8770 ac3c 915a 173e 8201 0c3f
00000070: 038d 4d3f 9c56 253c 7a76 3f3e e74b 0b3f
00000080: aa45 663f b610 8a3c 804d ab3d 9b62 e13e
00000090: d025 613f a0d5 d13b c8b3 e93d f90f db3e
000000a0: cf64 743f d691 4d3c b44d 063d 06ea b33e
000000b0: 8bc6 713f 5f82 b13b 4d65 4d3d bada ab3e
000000c0: 5ee4 7a3f 2bc1 323c 8226 143c 12f6 963e
000000d0: abaf 7a3f a53c a93b a772 7f3c 612f 8e3e
000000e0: 2f97 7c3f 54d7 343c 846e 153b 595e 863e
000000f0: 9c50 7d3f 6dbe c93b 66ed 8d3b 438f 7c3e
00000100: 2db8 7c3f c526 483c 18da 1d3a 1b49 793e
0.558761 0.02819964 0.4130373 0.8194637 0.5548017 0.023591377 0.42160684 0.8185983
0.6588756 0.026916062 0.31420633 0.7601358 0.61843157 0.016436957 0.36513066 0.76634806
0.7579355 0.025109563 0.21695133 0.6548599 0.72202426 0.012698908 0.26527596 0.6647415
0.8311432 0.021049751 0.14780642 0.546898 0.8029329 0.01009145 0.18697539 0.5441269
0.8995005 0.016853672 0.08364391 0.44020543 0.8794832 0.00640364 0.11411244 0.42785624
0.9546632 0.012546977 0.032788947 0.35139483 0.9444358 0.005417153 0.050145436 0.33565313
0.9800471 0.010910313 0.009042384 0.29484612 0.979243 0.0051647 0.0155913 0.27770522
0.9866819 0.011037666 0.0022801468 0.26243857 0.98951125 0.0061567337 0.0043312786 0.24664025
0.9871853 0.012216275 0.0006021573 0.24344294

network_body.observation_encoder.processors.0.normalizer.running_variance f4 [68]
00000000: 5584 5748 4ba6 bf46 ccec 5348 ba81 0847
00000010: 05e9 5748 a817 a146 e629 5548 c12a 1347
00000020: 9978 4448 df2a b746 5d5c 3c48 dce4 2747
00000030: 6746 4e48 6b20 6246 aca2 4a48 02c3 4b47
00000040: 7960 2048 4631 ab46 b680 1448 45d6 4c47
00000050: fa71 2f48 9c5e 2f46 e95f 2a48 7d2f 7c47
00000060: cd5c f547 c31c 9046 e036 dc47 1f83 5047
00000070: 4f51 0a48 2ebb 0b46 27e2 0448 e488 8147
00000080: 380b 9e47 cac2 6746 a200 8647 5431 2047
00000090: 374e b947 6a02 b245 76bc b047 0bf4 4947
000000a0: 3957 1747 ab4c 2d46 f5c8 dd46 3567 af46
000000b0: 917d 3747 a8bd 9645 df8b 2647 285a e346
000000c0: 18c3 8846 6cf1 1646 95ae fa45 ff20 2646
000000d0: a326 8e46 4ac1 8f45 c8ad 5646 508e 4a46
000000e0: d3d0 3746 beaf 1846 53ab fe44 7226 ba45
000000f0: df2d 1146 ec30 ab45 5653 7145 0608 c445
00000100: 8603 3146 a2c9 2846 48eb 0644 29d6 8445
220689.33 24531.146 217011.19 34945.727 221092.08 20619.828 218279.6 37674.754
201186.39 23445.436 192881.45 42980.86 211225.61 14472.1045 207498.69 52163.008
164225.89 21912.637 152066.84 52438.27 179655.9 11223.652 174463.64 64559.49
125625.6 18446.38 112749.75 53379.12 141637.23 8942.795 136072.61 66321.78
80918.44 14832.697 68609.266 41009.33 94876.43 5696.302 90488.92 51700.043
38743.223 11091.167 28388.479 22451.604 46973.566 4823.707 42635.87 29101.078
17505.547 9660.355 8021.8228 10632.249 18195.318 4600.161 13739.445 12963.578
11764.206 9771.936 2037.3539 5956.8057 9291.468 5478.115 3861.2085 6273.003
11328.881 10802.408 539.6763 4250.77

network_body.observation_encoder.processors.1.normalizer.running_mean f4 [8]
00000000: 3d46 563d 40be c53d 4573 9a3e 1697 b63c
00000010: 6812 3738 2922 dd3d d0f9 3840 4573 9a3e
0.05231308 0.09655428 0.3016607 0.02228884 4.3647742e-05 0.10797531 2.8902473 0.3016607

network_body.observation_encoder.processors.1.normalizer.running_variance f4 [8]
00000000: 86b3 9a48 57a2 ee46 0869 de48 7542 7042
00000010: 21e6 bf40 d39f 4f47 5f69 434a 0869 de48
316828.2 30545.17 455496.25 60.0649 5.996842 53151.824 3.2016238e+06 455496.25

network_body.processors.0.normalizer.running_mean f4 [68]
00000000: f60a 0f3f ee02 e73c a079 d33e 5fc8 513f
00000010: 7c07 0e3f b442 c13c dadc d73e a88f 513f
00000020: 12ac 283f 137f dc3c a7df a03e 4398 423f
00000030: 8851 1e3f cca6 863c 68f2 ba3e 632f 443f
00000040: 1008 423f 92b2 cd3c 7d28 5e3e e6a4 273f
00000050: 95d6 383f 150f 503c 40d2 873e 802c 2a3f
00000060: cdc5 543f 8770 ac3c 915a 173e 8201 0c3f
00000070: 038d 4d3f 9c56 253c 7a76 3f3e e74b 0b3f
00000080: aa45 663f b610 8a3c 804d ab3d 9b62 e13e
00000090: d025 613f a0d5 d13b c8b3 e93d f90f db3e
000000a0: cf64 743f d691 4d3c b44d 063d 06ea b33e
000000b0: 8bc6 713f 5f82 b13b 4d65 4d3d bada ab3e
000000c0: 5ee4 7a3f 2bc1 323c 8226 143c 12f6 963e
000000d0: abaf 7a3f a53c a93b a772 7f3c 612f 8e3e
000000e0: 2f97 7c3f 54d7 343c 846e 153b 595e 863e
000000f0: 9c50 7d3f 6dbe c93b 66ed 8d3b 438f 7c3e
00000100: 2db8 7c3f c526 483c 18da 1d3a 1b49 793e
0.558761 0.02819964 0.4130373 0.8194637 0.5548017 0.023591377 0.42160684 0.8185983
0.6588756 0.026916062 0.31420633 0.7601358 0.61843157 0.016436957 0.36513066 0.76634806
0.7579355 0.025109563 0.21695133 0.6548599 0.72202426 0.012698908 0.26527596 0.6647415
0.8311432 0.021049751 0.14780642 0.546898 0.8029329 0.01009145 0.18697539 0.5441269
0.8995005 0.016853672 0.08364391 0.44020543 0.8794832 0.00640364 0.11411244 0.42785624
0.9546632 0.012546977 0.032788947 0.35139483 0.9444358 0.005417153 0.050145436 0.33565313
0.9800471 0.010910313 0.009042384 0.29484612 0.979243 0.0051647 0.0155913 0.27770522
0.9866819 0.011037666 0.0022801468 0.26243857 0.98951125 0.0061567337 0.0043312786 0.24664025
0.9871853 0.012216275 0.0006021573 0.24344294

network_body.processors.0.normalizer.running_variance f4 [68]
00000000: 5584 5748 4ba6 bf46 ccec 5348 ba81 0847
00000010: 05e9 5748 a817 a146 e629 5548 c12a 1347
00000020: 9978 4448 df2a b746 5d5c 3c48 dce4 2747
00000030: 6746 4e48 6b20 6246 aca2 4a48 02c3 4b47
00000040: 7960 2048 4631 ab46 b680 1448 45d6 4c47
00000050: fa71 2f48 9c5e 2f46 e95f 2a48 7d2f 7c47
00000060: cd5c f547 c31c 9046 e036 dc47 1f83 5047
00000070: 4f51 0a48 2ebb 0b46 27e2 0448 e488 8147
00000080: 380b 9e47 cac2 6746 a200 8647 5431 2047
00000090: 374e b947 6a02 b245 76bc b047 0bf4 4947
000000a0: 3957 1747 ab4c 2d46 f5c8 dd46 3567 af46
000000b0: 917d 3747 a8bd 9645 df8b 2647 285a e346
000000c0: 18c3 8846 6cf1 1646 95ae fa45 ff20 2646
000000d0: a326 8e46 4ac1 8f45 c8ad 5646 508e 4a46
000000e0: d3d0 3746 beaf 1846 53ab fe44 7226 ba45
000000f0: df2d 1146 ec30 ab45 5653 7145 0608 c445
00000100: 8603 3146 a2c9 2846 48eb 0644 29d6 8445
220689.33 24531.146 217011.19 34945.727 221092.08 20619.828 218279.6 37674.754
201186.39 23445.436 192881.45 42980.86 211225.61 14472.1045 207498.69 52163.008
164225.89 21912.637 152066.84 52438.27 179655.9 11223.652 174463.64 64559.49
125625.6 18446.38 112749.75 53379.12 141637.23 8942.795 136072.61 66321.78
80918.44 14832.697 68609.266 41009.33 94876.43 5696.302 90488.92 51700.043
38743.223 11091.167 28388.479 22451.604 46973.566 4823.707 42635.87 29101.078
17505.547 9660.355 8021.8228 10632.249 18195.318 4600.161 13739.445 12963.578
11764.206 9771.936 2037.3539 5956.8057 9291.468 5478.115 3861.2085 6273.003
11328.881 10802.408 539.6763 4250.77

network_body.processors.1.normalizer.running_mean f4 [8]
00000000: 3d46 563d 40be c53d 4573 9a3e 1697 b63c
00000010: 6812 3738 2922 dd3d d0f9 3840 4573 9a3e
0.05231308 0.09655428 0.3016607 0.02228884 4.3647742e-05 0.10797531 2.8902473 0.3016607

network_body.processors.1.normalizer.running_variance f4 [8]
00000000: 86b3 9a48 57a2 ee46 0869 de48 7542 7042
00000010: 21e6 bf40 d39f 4f47 5f69 434a 0869 de48
316828.2 30545.17 455496.25 60.0649 5.996842 53151.824 3.2016238e+06 455496.25

network_body._body_endoder.seq_layers.0.weight f4 [256, 76]
00000000: a4ad 343e d393 153d 35ba 123c 7ca5 3cbc
00000010: 42d1 1cbd 0cfd febd 70e1 113e 1600 46bd
00000020: 6a56 c9bd b3ad 48bd dba5 223e 9343 733d
00000030: 1c48 8bbd 47a0 463c e36b 593c cd5a aa3d
00000040: 37fd 39be e799 a73d 9670 b0bd 1da2 1cbe
00000050: e1e2 a8bd 258a 113e b578 2dbe 3e79 8bbd
00000060: 6de3 013e 760e 14be 8c72 e23b f3dc d1bc
00000070: 069b 5c3b db17 df3d 9108 283d 13b3 d9bc
00000080: b062 013e e844 603e deb8 c33d 1819 3c3c
00000090: 1807 863b 5b28 af3d b1ef 82bc e83e 223d
000000a0: 5d19 dfbd cc7e 45bd 5bc1 80be 28ab 273e
000000b0: b99c ea3c 30b0 c73c 185b 76be bb11 ebbd
000000c0: 0ef1 ea3b 574e 683c fff2 173d eb00 4b3d
000000d0: 7ecc 92bd 5ecd af3d e442 c13d ccab 61bc
000000e0: 414f 0c3e 8348 0d3d 4c71 0b3d 7cab 1cbe
000000f0: 3e4f 9c3d aa61 063e 5a71 1bbd 5956 983e
00000100: 2f7f 093e 8e27 6cbd fad2 173e 2685 543d
00000110: b463 d7bd 2026 0dbe 3c5f f1bd c9d4 d03b
00000120: 13f0 24bd bc1f 31bd f257 ff3b cb7a 17be
00000130: 424a a83d a63a 4cbd e836 54bd f1b5 c6bd
00000140: cd00 9f3d ec49 d1bd 1037 2f3c 80d7 c0bd
00000150: 64dd aebd e3a0 803d b61a 553e d3b2 a13d
00000160: fd1d 80be 7b67 c53c 1f46 fb3d e149 16bd
00000170: d59b 85be d01f d9bd cf84 dcbc 4946 7cbe
00000180: 016a 8e3e bcfd 263e eb73 963d ed3b e73d
00000190: 11cf 043e cb8e 2ebd ac4f 6dbd 84fe cf3d
000001a0: d4f7 7dbc deb5 01bc f97c 403e 6f18 783d
000001b0: b92d f23d 87ee 19bd d0e1 b7bd 41b3 c1bb
000001c0: fe1e 10be b7d6 8fbd 713d 103d bacd 9ebd
000001d0: 1c3e 0cbe 30f2 cc3d 20d8 bf3d b418 19be
000001e0: db38 54bd 0671 0fbd 51ce 82bc 22e2 ec3c
000001f0: ef6c 3cbe f29c a13c f45b 3ebd 16dd d33c
00000200: e1be 21bd b806 50bd fd6d ef3c 32fd 35bd
00000210: a9bf 18be 8a7a 73bb 48a2 5d3e 72f0 1a3e
00000220: e08a e8bd 7fc9 703d deb2 e73c fa6e 913d
00000230: a8f4 443d 4e67 33be 4f71 0c3e 7e5d 89bb
00000240: 24d2 183d 56f8 ee3d 263c 373d 7851 34bd
00000250: 9cac 85bd 8aa9 0dbe dcc7 8b3d a7ae 393e
00000260: 6233 e5bd 3b19 d63c 7d69 39ba 0d55 1fbd
00000270: 9fe2 0d3e 212d 133d f252 37bd 9978 20be
00000280: 5a02 cfbd cd3a 5f3e f3ce 073e 3417 ec3d
00000290: 7964 1dbd 3ddb 813d cc30 48bd b2e2 70bd
000002a0: dd9d 9bbd e565 c8bc 2869 f23d ced1 083e
000002b0: a97d dd3b 09b7 8bbd 708f 133d 34ce 57be
000002c0: 25bd 8dbd a3fe 803e f5d1 84be 0edf 19be
000002d0: ac70 a23c fdad 9a3d d47d 3c3c 432c 94bc
000002e0: 0270 f5bd e5b1 de3d 8cac 64be 01d4 823d
000002f0: aee1 4e3c 66f0 33bc cc98 a33c f10e a43e
00000300: 09bf 8d3d 4fd6 dbbc a233 4d3d 6fdb 743e
00000310: 3f77 1cbd 612a 433d a695 30bd 6a96 523e
00000320: 92d5 bebc c44a 23bc 9ce3 c8bd 964a 4bbe
00000330: c118 48bd 4688 aa3a 74b2 7c3e 9863 e6bb
00000340: 8ec0 0fbe b887 d7bd 78fd edbd c373 debd
00000350: 0ba4 063e 8e88 17bd 6561 603d 949d e6bc
00000360: 87dd a13d 19a8 6dbc e6b8 51be e9f5 a93e
00000370: e0c1 dbbd 3897 b2bd c82d adbd 3816 863c
00000380: 60dd dbbd 7848 a9bb 1b41 65bd 9a73 033e
00000390: 008c 803c 0fc3 8e3e d08b 2e3d 530b d13d
000003a0: 1306 9e3d 238a 893c fd38 4d3e 43b5 423e
000003b0: 6bf5 76bd 187f 33be 64bd 5dbe f862 2fbe
000003c0: ce74 553e df50 913d effc 873d c414 92bc
000003d0: 6cac 81bd 22d8 0e3e 1d6e 653e 8e71 6cbd
000003e0: 8d56 c63e a8b7 64be e2a7 7f3d 33ab a33d
000003f0: e750 adbd 45cb 89bc 703f d83d 4020 83bb
0.17644364 0.03651793 0.008955528 -0.011514064 -0.0382855 -0.124506086 0.14246154 -0.048339926
-0.09830935 -0.048993777 0.15883581 0.059390616 -0.06800863 0.012123174 0.013270351 0.083181
-0.18163 0.081836514 -0.08615224 -0.15296216 -0.08246399 0.14212854 -0.16940577 -0.068102345
0.12684412 -0.14458641 0.0069106277 -0.025618052 0.0033661737 0.10893222 0.041023795 -0.026574647
0.12635303 0.21901286 0.09556745 0.011480592 0.004090201 0.08552619 -0.015983434 0.039610773
-0.108935095 -0.048216626 -0.2514752 0.16373885 0.028639184 0.024376005 -0.24058187 -0.11477991
0.0071698492 0.014178834 0.037096974 0.049561422 -0.0716791 0.085840926 0.094365865 -0.01377387
0.13702108 0.03449298 0.034043595 -0.15299791 0.07632302 0.13123193 -0.037949897 0.29753378
0.13427423 -0.05765491 0.14826575 0.051884793 -0.10517064 -0.13784075 -0.11785743 0.006373022
-0.040268015 -0.043243155 0.0077924663 -0.14792936 0.082172886 -0.04986062 -0.051810175 -0.09702671
0.077638246 -0.102191776 0.01069428 -0.09416103 -0.08538321 0.06280687 0.2081097 0.07895436
-0.2502288 0.024097195 0.12269234 -0.03669155 -0.26095453 -0.10601771 -0.026918797 -0.24636187
0.2781525 0.1630773 0.07346328 0.11290727 0.12969615 -0.042616647 -0.05793731 0.10155967
-0.015500981 -0.007916896 0.18797673 0.060570177 0.11825127 -0.037580993 -0.08978617 -0.0059112613
-0.14074323 -0.070233755 0.035214845 -0.07754083 -0.13695568 0.10007131 0.093673944 -0.1495083
-0.051812034 -0.035019897 -0.01596752 0.028916422 -0.1840093 0.019728158 -0.046474412 0.025862258
-0.039488677 -0.050787657 0.029227251 -0.04443092 -0.14916863 -0.0037151896 0.21643937 0.15130785
-0.11354613 0.05878591 0.028283533 0.07101245 0.048084885 -0.17519876 0.13715099 -0.0041920533
0.03730978 0.1166846 0.044735096 -0.044023007 -0.06527063 -0.13834205 0.068252295 0.18133031
-0.11191441 0.026135078 -0.0007072909 -0.03889947 0.1385598 0.03593171 -0.044756837 -0.15671004
-0.101078704 0.21799774 0.13262539 0.11527863 -0.038425896 0.063406445 -0.04887466 -0.058809943
-0.075984694 -0.02446265 0.11836463 0.13361284 0.0067593646 -0.068220206 0.036025465 -0.21074754
-0.06920842 0.25194272 -0.25941435 -0.15026495 0.019829117 0.07552717 0.011504609 -0.018087512
-0.119842544 0.108737744 -0.22331446 0.06388093 0.012627048 -0.010982608 0.01997032 0.3204265
0.06921203 -0.026835589 0.05009807 0.23911832 -0.03819966 0.047647838 -0.043111466 0.20565191
-0.023295198 -0.009966556 -0.09809038 -0.19852671 -0.048851732 0.0013010583 0.2467745 -0.0070309155
-0.14038298 -0.10523933 -0.11620611 -0.108619235 0.13148515 -0.036995463 0.054780383 -0.028151311
0.07903581 -0.01450541 -0.2048069 0.33195427 -0.10730338 -0.08720249 -0.08455998 0.016368017
-0.10735583 -0.0051661097 -0.055970293 0.12837067 0.015691757 0.27883193 0.042613804 0.10207238
0.07716002 0.016789502 0.2004127 0.19014458 -0.060292643 -0.17528951 -0.21654278 -0.17127597
0.20845339 0.07095503 0.0664004 -0.017832167 -0.06331715 0.13949636 0.22405286 -0.05772548
0.38737908 -0.22335684 0.062415965 0.07991638 -0.084626965 -0.01682056 0.10558975 -0.0040016472
