results/ppo/BlueCar/BlueCar-1999596.onnx (onnx, 351914 bytes, 11 tensors)

network_body.observation_encoder.processors.0.normalizer.running_mean f4 [68]
0.68137443 0.00859624 0.31002936 0.63431495 0.4940812 0.01667335 0.48924407 0.69250995
0.94945776 0.00507852 0.04546267 0.43443906 0.43021688 0.016436312 0.55334735 0.7356281
0.9753886 0.002529011 0.022081908 0.36118755 0.6553371 0.00528756 0.33937424 0.7072265
0.9683746 0.0017273482 0.029898517 0.3514308 0.8196694 0.0018888803 0.17844106 0.5844167
0.902975 0.00281657 0.09420751 0.36402366 0.89783186 0.00088567915 0.10128338 0.4969773
0.81294197 0.003607229 0.18345086 0.3571037 0.9545701 0.00042858624 0.04500164 0.41306248
0.8002787 0.0036852374 0.19603623 0.342463 0.9655349 0.000372076 0.03409282 0.35968763
0.8724373 0.0033901855 0.12417307 0.30362037 0.97332907 0.00041108203 0.02625826 0.3246988
0.96900225 0.0025310116 0.028467216 0.23895049
00000000: 8e6e 2e3f 3ed7 0c3c 2bbc 9e3e 7762 223f
00000010: 36f8 fc3e 8d96 883c 337e fa3e 5548 313f
00000020: aa0f 733f b769 a63b 1137 3a3d cc6e de3e
00000030: 6345 dc3e 72a5 863c 2ca8 0d3f 2052 3c3f
00000040: 11b3 793f c4bd 253b 1ee5 b43c 93ed b83e
00000050: 2cc4 273f 4543 ad3b 76c2 ad3e cc0c 353f
00000060: 66e7 773f 3068 e23a bced f43c bdee b33e
00000070: dbd5 513f 4e94 f73a 41b9 363e 559c 153f
00000080: 5f29 673f 3496 383b deef c03d 4f61 ba3e
00000090: 4fd8 653f ec2c 683a a96d cf3d cf73 fe3e
000000a0: f71c 503f 4367 6c3b 8bda 3b3e 4cd6 b63e
000000b0: b55e 743f dfb3 e039 a453 383d ed7c d33e
000000c0: 11df 4c3f 0684 713b b9bd 483e 4f57 af3e
000000d0: 4c2d 773f 3213 c339 eaa4 0b3d fa28 b83e
000000e0: 0d58 5f3f e02d 5e3b 734e fe3d 2174 9b3e
000000f0: 182c 793f 7f86 d739 901b d73c ec3e a63e
00000100: 8810 783f 54df 253b 1434 e93c 70af 743e

network_body.observation_encoder.processors.1.normalizer.running_mean f4 [8]
-0.1892966 0.08472989 0.532702 0.0012209733 2.4733981e-05 0.12104567 2.7236202 0.5952204
00000000: f8d6 41be dd86 ad3d 295f 083f 1109 a03a
00000010: d27b cf37 cbe6 f73d cb4f 2e40 5d60 183f

network_body._body_endoder.seq_layers.0.weight f4 [256, 76]
-0.12172342 0.080535546 0.0024509428 -0.049322747 0.02903726 -0.12093915 0.30750555 -0.21921666
-0.295745 0.11461072 -0.1999712 -0.15983126 -0.17013098 -0.16368936 -0.05056832 -0.042048633
0.032460075 0.063226946 -0.03921876 -0.057038065 0.07653637 0.117554 -0.00057428173 0.13065979
0.07161516 -0.0019187633 0.002860147 0.0065863356 -0.15780312 0.09152844 -0.26358244 0.16285597
-0.117509596 0.174465 -0.115018286 0.20119318 -0.111319266 0.07533518 0.20605296 0.03401626
0.23272713 0.15882765 -0.092666 -0.00026539364 -0.0035055245 -0.009360992 -0.045788243 0.019682745
-0.10639714 0.11680248 0.09641375 0.10200846 0.18634082 -0.05772768 0.11521505 -0.072280906
-0.016619105 0.08283031 -0.10191026 0.1277078 -0.09302381 0.044043012 -0.010470173 -0.10077413
-0.29791576 -0.023382226 0.008205154 0.1315178 -0.006603365 -0.077290475 0.13998377 -0.018171173
-0.07773855 0.022721788 -0.02520722 0.026377762 0.050237153 -0.011303871 0.18245323 -0.09146093
0.12972604 0.06740016 0.006399509 -0.000739663 -0.046226412 0.094128564 -0.015651371 -0.1364968
-0.011188702 0.02950368 -0.024759362 -0.05646306 0.12508246 0.18032703 -0.052854437 -0.05066202
0.19170083 0.024327777 -0.09762945 -0.1018872 -0.025686773 -0.14164571 0.15393795 0.0009231114
0.056908216 -0.33658305 -0.0769795 -0.035968114 -0.059470084 -0.083836436 0.04443284 -0.13568562
-0.114556044 -0.024213778 0.19856776 0.02819801 -0.18121354 0.09355633 -0.08286109 -0.17871638
-0.06854398 -0.028958302 0.004417568 0.15175419 0.110542096 0.08261897 -0.12539358 0.107913144
0.08778201 0.038840923 -0.062359717 0.0402543 0.21337608 -0.004724266 -0.06373987 -0.24758828
0.075071454 0.04553727 -0.21079423 -0.07048776 0.07297012 -0.045437787 -0.14396192 -0.13427234
0.15936519 -0.24459638 0.07415259 -0.041805133 -0.035033952 -0.11691225 0.10173164 -0.03990529
0.011533355 0.07475562 -0.15513107 0.10973918 -0.03390262 -0.021991037 0.09945013 -0.116708376
0.056516644 -0.16634855 0.22181822 0.065936774 0.103742324 0.03332434 0.09279379 0.050461836
0.14447248 -0.0020693003 -0.077495806 0.17034155 0.14801548 -0.08170006 0.047638178 -0.20034334
-0.057198364 -0.061454486 0.11515995 -0.13181143 0.10086559 0.035939634 0.10634786 -0.07252837
-0.058534376 0.31115896 0.013383599 0.07486677 -0.069249265 0.07134227 0.11848771 0.018052557
0.0061237817 0.05680687 -0.06297052 -0.06941678 0.1092958 0.005371641 0.014007168 -0.0019879767
-0.15766455 0.012855424 -0.057443414 0.13130206 -0.15670781 -0.016975353 0.09808085 0.10094512
-0.32296002 0.050013434 -0.09835632 -0.009397669 -0.048346706 0.026923843 -0.002083209 -0.043083012
0.031939298 -0.07526783 -0.049420882 -0.10405305 -0.036444817 0.08423074 0.06554322 0.10021757
0.120676376 0.047830444 0.11854221 0.06789069 -0.175349 -0.12430752 0.1204064 -0.018431824
-0.013600823 -0.0676385 0.11856309 0.09392327 0.1756635 -0.06333798 -0.0903157 0.21043769
-0.29169527 0.041034646 0.10985539 -0.050149497 0.00036849233 0.04875307 0.22735544 -0.12519233
-0.020683618 -0.037105557 0.031629935 0.21538569 -0.24879281 -0.18224522 -0.20595357 0.061492354
00000000: 214a f9bd d2ef a43d ff9f 203b a606 4abd
00000010: 8cdf ed3c f2ae f7bd 5e71 9d3e 557a 60be
00000020: e36b 97be 06b9 ea3d 40c5 4cbe ceaa 23be
00000030: d136 2ebe 2f9e 27be ba20 4fbd 303b 2cbd
00000040: dbf4 043d 217d 813d daa3 20bd bfa0 69bd
00000050: 1abf 9c3d 27c0 f03d 658b 16ba aecb 053e
00000060: f8aa 923d 037f fbba 4e71 3b3b 30d2 d73b
00000070: 2497 21be 4373 bb3d 47f4 86be b7c3 263e
00000080: dfa8 f0bd f4a6 323e b58e ebbd 9605 4e3e
00000090: 5bfb e3bd 5549 9a3d 8cff 523e a254 0b3d
000000a0: 0550 6e3e b7a3 223e acc7 bdbd 8824 8bb9
000000b0: f1bc 65bb d95e 19bc 748c 3bbd b53d a13c
000000c0: bee6 d9bd 2336 ef3d 9274 c53d d0e9 d03d
000000d0: 21d0 3e3e dc73 6cbd def5 eb3d 0308 94bd
000000e0: ca24 88bc f0a2 a93d 54b6 d0bd d5c5 023e
000000f0: 4483 bebd 7266 343d 178b 2bbc ab62 cebd
00000100: 6a88 98be 158c bfbc e96e 063c 9aac 063e
00000110: 0a61 d8bb 784a 9ebd e857 0f3e b6db 94bc
00000120: 6435 9fbd 0b23 ba3c 5f7f cebc 2d16 d83c
00000130: 79c5 4d3d df33 39bc 05d5 3a3e de4f bbbd
00000140: e7d6 043e 1809 8a3d f9b2 d13b f2e5 41ba
00000150: e857 3dbd 7ac6 c03d 4e37 80bc d1c5 0bbe
00000160: d150 37bc b4b1 f13c 25d4 cabc cf45 67bd
00000170: 9e15 003e a6a7 383e e57d 58bd fa82 4fbd
00000180: 394d 443e 0c4b c73c f3f1 c7bd 3caa d0bd
00000190: 116d d2bc 930b 11be e9a1 1d3e f5fc 713a
000001a0: 9718 693d 9d54 acbe 6ea7 9dbd 4d53 13bd
000001b0: e796 73bd 70b2 abbd 36ff 353d 2cf1 0abe
000001c0: 5c9c eabd f95b c6bc 5955 4b3e 83ff e63c
000001d0: 0b90 39be 769a bf3d 13b3 a9bd 6d01 37be
000001e0: c960 8cbd f639 edbc 3fc1 903b 7365 1b3e
000001f0: e563 e23d 2234 a93d 2d67 00be 9101 dd3d
00000200: 0ec7 b33d a917 1f3d e76c 7fbd b1e1 243d
00000210: 427f 5a3e 04ce 9abb 0d8a 82bd c887 7dbe
00000220: 10bf 993d 4a85 3a3d 71da 57be e35b 90bd
00000230: 5c71 953d f91c 3abd c16a 13be b07e 09be
00000240: a130 233e 7977 7abe 50dd 973d dc3b 2bbd
00000250: c37f 0fbd b16f efbd ae58 d03d bb73 23bd
00000260: 66f6 3c3c 7919 993d aeda 1ebe efbe e03d
00000270: 79dd 0abd 8c26 b4bc 82ac cb3d cd04 efbd
00000280: ff7d 673d 4657 2abe 5124 633e dc09 873d
00000290: db76 d43d 1a7f 083d ac0a be3d 12b1 4e3d
000002a0: 98f0 133e 199d 07bb 1fb6 9ebd 046e 2e3e
000002b0: 5f91 173e 5c52 a7bd 4020 433d ce26 4dbe
000002c0: d548 6abd b3b7 7bbd fbd8 eb3d 93f9 06be
000002d0: 9e92 ce3d 7035 133d e8cc d93d c189 94bd
000002e0: bec1 6fbd 3a50 9f3e e246 5b3c c053 993d
000002f0: 8fd2 8dbd e51b 923d afa9 f23d f5e2 933c
00000300: 01aa c83b 52ae 683d b0f6 80bd 622a 8ebd
00000310: 7ad6 df3d 9704 b03b 527e 653c b748 02bb
00000320: d172 21be 8e9f 523c c949 6bbd 0c74 063e
00000330: 0378 20be e50f 8bbc 9dde c83d 51bc ce3d
00000340: 045b a5be e3da 4c3d 0a6f c9bd aef8 19bc
00000350: 3207 46bd 648f dc3c 7386 08bb d077 30bd
00000360: c8d2 023d 0526 9abd 8d6d 4abd c419 d5bd
00000370: 2947 15bd 2b81 ac3d 863b 863d df3e cd3d
00000380: 2d25 f73d dbe9 433d 42c6 f23d 460a 8b3d
00000390: b08e 33be f194 febd a197 f63d 56fe 96bc
000003a0: fcd5 5ebc 0e86 8abd 35d1 f23d d85a c03d
000003b0: 22e1 333e 58b7 81bd 70f7 b8bd fa7c 573e
000003c0: 1559 95be f213 283d ddfb e03d 8f69 4dbd
000003d0: 3432 c139 4db1 473d ddcf 683e 6b32 00be
000003e0: b170 a9bc fffb 17bd 648e 013d 118e 5c3e
000003f0: 8bc3 7ebe 7e9e 3abe 7ee5 52be 68df 7b3d

network_body._body_endoder.seq_layers.0.bias f4 [256]
-0.036073215 0.020958317 -0.017947111 0.025152545 -0.011203987 -0.008248314 0.01680031 0.0108754635
-0.0109300725 0.02390838 -0.0017236174 -0.00818003 0.0014457637 0.02924207 0.0006600097 0.0066856258
0.0054494073 0.0061056274 -0.0054143593 -0.0021384205 0.009880919 -0.014230458 0.012481888 0.0022698212
-0.014799998 -0.010342482 0.0055947183 0.003158602 -0.010733506 -0.0260319 -0.030840809 -0.0010936979
0.013302061 -0.011117732 0.012134352 0.027365807 -0.01759 -0.016777528 -0.022283847 0.015019597
-0.018577581 0.015842307 0.018880852 0.023474641 0.023769332 0.013835161 0.023926428 -0.0060250303
-0.0051335925 0.031642593 -0.0035948092 -0.0014909946 0.011443291 -0.018233826 0.01931465 0.00053803413
0.014017454 0.0101729315 -0.01898253 0.026317026 0.0016813936 0.0027132027 -0.0017037338 0.008256111
-0.0017093013 -0.01939652 0.024516376 0.0077612814 0.01617308 0.011397633 0.003932364 0.010134329
0.015773924 0.00014056578 -0.0033573732 -0.020559678 0.019693216 0.016955702 -0.03062006 -0.024993408
0.0043318337 -0.017525362 0.017928556 0.016518783 -0.029300854 -0.0082244575 -0.003532786 -0.023117028
-0.031078346 -0.0037982464 -0.02076704 -0.0057371426 0.030005714 0.021578442 -0.017856173 0.04045418
0.018933877 -7.676126e-05 0.006765122 0.016235167 -0.0110872965 0.016671842 -0.010082934 0.022725325
0.015989197 0.018332625 0.0102823 0.012322751 0.008221601 0.0154141495 0.0245779 -0.0021357972
-0.027247474 -0.008101004 0.021926079 6.2028244e-05 0.014549046 0.0013509657 0.009801058 0.018786812
-0.01051245 -0.00048301282 0.018449306 -0.007570332 0.020606257 0.009979878 -0.0026818323 -0.007846483
0.034138266 0.012728609 -0.013378105 0.0049271975 -0.020206906 0.037554078 0.009415355 0.014911127
0.03375575 0.035744686 -0.004273473 0.021822521 0.018957986 -0.0012169862 -0.012841716 0.025086714
0.017462168 -0.0025529256 -0.018494096 0.024226984 0.015261748 0.01781067 -0.015308955 -0.001133091
0.014080234 -0.0034131354 0.025248663 -0.014604124 -0.00837241 0.02145649 -0.024061056 -0.033442993
-0.026422173 -0.007293205 0.018872045 0.011898534 0.0018265554 -0.001674028 0.03307841 0.023663426
0.00768328 0.01030604 0.014154456 -0.0108604 0.013431925 0.0023107466 0.026824763 0.0048409207
0.032719653 -0.011643386 0.01635502 -0.01926405 0.010797484 0.024542833 -0.004158229 0.021349125
-0.0021108424 -0.019045152 0.020520585 0.0049334154 0.020269396 -0.0019197005 -0.0018126208 0.015882542
0.013302102 0.024181828 0.017906317 0.012639415 -0.006891695 -0.009068068 0.010055188 0.029812329
0.009267967 0.00042490842 -0.016985066 0.020340895 -0.006708744 0.03186286 0.0315577 -0.002727903
0.027395658 0.0074325935 -0.024579527 0.02901979 -0.016805572 0.020329535 0.011822522 -0.019253464
0.007810718 0.002921013 -0.008961294 -0.014274406 0.0071743266 0.02874514 0.011015927 0.014651995
0.011865618 0.0045754546 0.022996945 0.0179999 0.0045162444 0.023743782 0.029630952 -0.0014747471
-0.010695239 -0.02150001 0.0030819261 -0.018216742 -0.004272482 0.026321087 -0.02912899 0.0064675636
-0.01083624 -0.012126928 0.006858025 0.022143962 0.029428294 0.0094328895 0.014525514 0.0008296201
0.022337439 0.03652796 -0.003803785 0.020206682 -0.012287274 0.008341138 0.040743377 -0.02349034
00000000: 82c1 13bd c7b0 ab3c d205 93bc b60c ce3c
00000010: ed90 37bc f023 07bc cea0 893c 002f 323c
00000020: 0c14 33bc 82db c33c 01eb e1ba 8805 06bc
00000030: c87f bd3a 118d ef3c 8004 2d3a 1813 db3b
00000040: f190 b23b b711 c83b f06a b1bb be24 0cbb
00000050: 94e3 213c de26 69bc d580 4c3c 48c1 143b
00000060: b17b 72bc 8373 29bc e653 b73b 8c00 4f3b
00000070: 96db 2fbc da40 d5bc dda5 fcbc 695a 8fba
00000080: e3f0 593c 2627 36bc 29cf 463c 422e e03c
00000090: e718 90bc 0771 89bc 9d8c b6bc c114 763c
000000a0: 0330 98bc bac7 813c 04ac 9a3c e44d c03c
000000b0: e7b7 c23c dfac 623c 5b01 c43c 9e6d c5bb
000000c0: b237 a8bb aa9b 013d e496 6bbb 7a6d c3ba
000000d0: a47c 3b3c 1b5f 95bc c239 9e3c dc0a 0d3a
000000e0: 77a9 653c 5eac 263c 4081 9bbc ce96 d73c
000000f0: 3562 dc3a fdcf 313b d24f dfba a444 073c
00000100: a20a e0ba 73e5 9ebc 91d6 c83c 5952 fe3b
00000110: 687d 843c 23bd 3a3c 0fdb 803b 750a 263c
00000120: 5138 813c d764 1339 6007 5cbb c56c a8bc
00000130: ab53 a13c afe6 8a3c ecd6 fabc fabe ccbc
00000140: 0ef2 8d3b 5991 8fbc e8de 923c 6652 873c
00000150: 5808 f0bc e0bf 06bc 5086 67bb ec5f bdbc
00000160: 0498 febc 00ec 78bb a41f aabc a4fe bbbb
00000170: 8bce f53c 46c5 b03c 1c47 92bc 48b3 253d
00000180: 381b 9b3c e3fa a0b8 f5ad dd3b 9dff 843c
00000190: 7ea7 35bc 6393 883c e432 25bc 762a ba3c
000001a0: c7fb 823c 4d2e 963c 1877 283c 5de5 493c
000001b0: e5b3 063c a18b 7c3c 9857 c93c bbf8 0bbb
000001c0: 1836 dfbc 13ba 04bc 529e b33c 2915 8238
000001d0: 1f5f 6e3c e312 b13a 9e94 203c cde6 993c
000001e0: 693c 2cbc e23c fdb9 0023 973c 8c10 f8bb
000001f0: 74ce a83c a482 233c aec1 2fbb 898e 00bc
00000200: 91d4 0b3d a88b 503c d72f 5bbc 5474 a13b
00000210: f488 a5bc 4ed2 193d dc42 1a3c cd4d 743c
00000220: 7843 0a3d 0569 123d 7d08 8cbb 25c5 b23c
00000230: c74d 9b3c 4883 9fba 1066 52bc a782 cd3c
00000240: d20c 8f3c fc4e 27bb ee80 97bc ab77 c63c
00000250: 690c 7a3c afe7 913c 69d2 7abc 3a84 94ba
00000260: c8b0 663c e9ae 5fbb 49d6 ce3c 2346 6fbc
00000270: 6f2c 09bc 85c5 af3c b11b c5bc 85fb 08bd
00000280: 5073 d8bc d6fb eebb 8c99 9a3c 12f2 423c
00000290: 0769 ef3a 0f6b dbba 3a7d 073d cdd9 c13c
000002a0: 06c4 fb3b aada 283c 17e8 673c d2ef 31bc
000002b0: 9411 5c3c e56f 173b 9bbf db3c 96a0 9e3b
000002c0: 0b05 063d e7c3 3ebc f7fa 853c a4cf 9dbc
000002d0: eee7 303c 0d0e c93c c141 88bb 5ce4 ae3c
000002e0: 0f56 0abb 9404 9cbc c91a a83c 7da8 a13b
000002f0: 010c a63c 769e fbba 7695 edba 1b1c 823c
00000300: 0ff1 593c f818 c63c 45b0 923c 8d15 4f3c
00000310: bad3 e1bb 3c92 14bc 84be 243c fc38 f43c
00000320: acd8 173c 3ec6 de39 4424 8bbc f3a1 a63c
00000330: 06d5 dbbb a182 023d a642 013d 9ec6 32bb
00000340: dc6c e03c 1d8d f33b 015b c9bc e9ba ed3c
00000350: d7ab 89bc 208a a63c 40b3 413c 71b9 9dbc
00000360: 0df1 ff3b 776e 3f3b 64d2 12bc 33df 69bc
00000370: 9d16 eb3b ee7a eb3c 267c 343c ec0e 703c
00000380: 0268 423c b2ed 953b 1764 bc3c 8774 933c
00000390: 01fd 933b 5282 c23c 9cbc f23c 4d4c c1ba
000003a0: 153b 2fbc ca20 b0bc 24fa 493b 473b 95bc
000003b0: 2d00 8cbb 529f d73c eb9f eebc dbed d33b
000003c0: 7c8a 31bc 06b0 46bc 49b9 e03b 4167 b53c
000003d0: 9b13 f13c 688c 1a3c 6cfc 6d3c dd7a 593a
000003e0: 01fd b63c 589e 153d ec48 79bb 7c88 a53c
000003f0: 9050 49bc 45a9 083c 87e2 263d d06e c0bc

network_body._body_endoder.seq_layers.2.weight f4 [256, 256]
-0.07195561 0.13969997 0.008339432 -0.09106817 0.06399293 0.05338824 -0.078350514 0.014524078
-0.102635115 0.024465768 0.052676536 -0.055840686 -0.0070404476 0.0056813387 -0.056102175 -0.091011934
-0.11095659 0.056917865 0.023815764 -0.062160872 -0.059457697 -0.04462154 0.03921862 -0.06320197
0.036031622 0.024073532 0.018801557 -0.008298411 0.022871176 0.027467549 -0.13557313 0.094229504
-0.00164517 -0.12158365 0.0049284436 -0.005574834 0.032729093 0.044462305 0.035640143 0.0001211614
-0.0989237 0.07647835 0.013338624 0.04319855 0.0045688823 0.029447813 -0.023957236 -0.07813004
-0.010177552 0.08457326 -0.14767383 -0.02824061 0.013153262 -0.108542144 -0.042490672 0.116730765
0.061716847 -0.08501827 -0.022176176 -0.026438607 -0.018627077 -0.07299408 0.0025651695 -0.0076538073
0.034568142 0.0021060717 -0.030807192 0.023380473 -0.07931598 0.025140429 -0.060518455 0.041972384
-0.041242793 0.07512786 -0.11739225 -0.061851494 0.06892304 -0.0049130614 -0.084486455 0.027240928
0.082849145 0.045723308 0.07402125 -0.17445864 0.036703546 0.10464553 -0.012150851 -0.023202905
0.06504412 -0.005716631 0.06371693 -0.044522144 0.033490255 -0.017827792 0.1550919 0.014177491
0.012953362 0.060697604 0.038545087 -0.089659594 0.06664014 0.0035956178 -0.052773338 0.018769883
-0.0753635 0.01080314 -0.00013100659 0.012690053 0.04649316 -0.18270813 0.06035951 -0.020470638
-0.041129112 0.030865347 -0.11532737 0.06918524 0.03103906 -0.04994942 0.012419233 -0.05832472
0.035034724 -0.054938324 0.052804023 -0.03981382 -0.015807375 0.075268134 -0.034372814 -0.06395441
0.00823641 -0.046167813 -0.06767868 0.071569085 0.053369842 0.061946556 -0.021734431 -0.06007407
-0.016925257 -0.017514514 0.053733204 -0.0633965 -0.05257289 -0.018178372 0.002726911 0.13662791
0.020785019 0.14176466 0.084259905 -0.09835454 0.08572048 -0.00801923 -0.03941152 -0.042628348
0.014254643 0.06762613 -0.05435853 0.107298546 -0.052867923 -0.010605425 0.03911525 -0.024342686
0.055117782 -0.025326848 0.03023521 0.019788897 -0.029450096 0.021382365 0.14212221 -0.024830356
-0.04952154 -0.0813489 -0.036465533 -0.06727575 0.14776419 0.051279612 -0.0781907 0.0060986085
-0.20180671 0.086757466 0.034693956 0.076412015 -0.013591184 0.0064382637 0.065841295 -0.019264748
-0.09017356 0.042855397 0.056596167 0.16050003 0.09221692 -0.016741257 0.07784831 0.083571196
0.0317578 0.08812804 0.02671545 0.04705607 0.08704111 -0.044707693 0.12803724 0.0109138815
-0.055080093 -0.020471135 -0.013854038 -0.042866334 0.06882272 0.07759722 0.04941124 0.09346826
0.20109299 -0.15398316 0.01814351 0.02307799 -0.0008489481 -0.017210845 0.058088016 0.033584934
-0.034676794 0.037362374 -0.034932334 0.04125545 -0.10931062 0.07833744 0.048443332 0.030125221
0.028610539 -0.03638177 -0.16073595 -0.14241256 -0.10894037 0.014221678 -0.07517124 0.09931204
0.00402342 -0.020840876 0.12367965 -0.011862306 0.06089515 0.09400841 -0.020309003 0.02821215
0.04104769 0.00067573105 0.045408286 -0.046861716 -0.12684095 -0.028941382 0.022787143 0.08590863
0.09120117 -0.021625008 -0.09354587 -0.038159553 -0.011808381 0.033696905 -0.016074978 -0.0118423905
00000000: 765d 93bd 820d 0f3e 1da2 083c f381 babd
00000010: ba0e 833d a1ad 5a3d 3c76 a0bd 66f6 6d3c
00000020: 5c32 d2bd 6f6c c83c 5ac3 573d 34b9 64bd
00000030: 8eb3 e6bb 862a ba3b 65cb 65bd 7764 babd
00000040: 353d e3bd b522 693d 4719 c33c 669c 7ebd
00000050: ea89 73bd 13c5 36bd b4a3 203d 0970 81bd
00000060: e595 133d db35 c53c b905 9a3c 0ff6 07bc
00000070: 555c bb3c a003 e13c afd3 0abe 66fb c03d
00000080: bfa2 d7ba d900 f9bd c87e a13b 19ad b6bb
00000090: f10e 063d 1b1e 363d 66fb 113d 0818 fe38
000000a0: 8298 cabd aea0 9c3d 3e8a 5a3c f6f0 303d
000000b0: 90b6 953b 8a3c f13c f741 c4bc a402 a0bd
000000c0: bfbf 26bc bf34 ad3d cf37 17be da58 e7bc
000000d0: c880 573c 584b debd b30a 2ebd 8a10 ef3d
000000e0: ceca 7c3d 0f1e aebd d0aa b5bc c795 d8bc
000000f0: d097 98bc ec7d 95bd 671c 283b cacc fabb
00000100: 5397 0d3d 0506 0a3b 5d5f fcbc 6888 bf3c
00000110: 6b70 a2bd 4df3 cd3c 33e2 77bd 3ceb 2b3d
00000120: 34ee 28bd a3dc 993d 596b f0bd fe57 7dbd
00000130: 8627 8d3d bffd a0bb 3c07 adbd 5e28 df3c
00000140: d0ac a93d 5d48 3b3d 7498 973d 49a5 32be
00000150: 7556 163d 6550 d63d 5d14 47bc 0514 bebc
00000160: da35 853d 9452 bbbb 067e 823d da5c 36bd
00000170: 142d 093d 970b 92bc 69d0 1e3e b548 683c
00000180: 573a 543c 0d9e 783d 74e1 1d3d 739f b7bd
00000190: a07a 883d 75a4 6b3b db28 58bd 4cc3 993c
000001a0: 2e58 9abd a7ff 303c d05e 09b9 f1e9 4f3c
000001b0: 9d6f 3e3d d717 3bbe 893b 773d 0ab2 a7bc
000001c0: 0077 28bd 53d9 fc3c c230 ecbd feb0 8d3d
000001d0: a045 fe3c c397 4cbd 0a7a 4b3c e7e5 6ebd
000001e0: 9280 0f3d 0207 61bd 0849 583d d113 23bd
000001f0: 787e 81bc 2e26 9a3d 82ca 0cbd 88fa 82bd
00000200: 02f2 063c 761a 3dbd 1f9b 8abd d092 923d
00000210: 569a 5a3d acbb 7d3d 680c b2bc 3a10 76bd
00000220: d6a6 8abc 997a 8fbc 5917 5c3d 06d6 81bd
00000230: ac56 57bd cfea 94bc fab5 323b 30e8 0b3e
00000240: 5845 aa3c c12a 113e 7590 ac3d 1b6e c9bd
00000250: 388e af3d 1763 03bc f96d 21bd 109b 2ebd
00000260: 4e8c 693c 927f 8a3d 0da7 5ebd 57bf db3d
00000270: 098c 58bd 60c2 2dbc 5037 203d 506a c7bc
00000280: 2fc3 613d 407a cfbc d5af f73c 531c a23c
00000290: 5441 f1bc 122a af3c 7c88 113e 0869 cbbc
000002a0: 19d7 4abd 419a a6bd e25c 15bd dec7 89bd
000002b0: 7f4f 173e 920a 523d 7222 a0bd d6d6 c73b
000002c0: 6ba6 4ebe e6ad b13d 401b 0e3d e77d 9c3d
000002d0: 8fad 5ebc 12f8 d23b cdd7 863d 1bd1 9dbc
000002e0: eaac b8bd 2489 2f3d 62d1 673d 1f5a 243e
000002f0: 39dc bc3d f624 89bc ef6e 9f3d 6027 ab3d
00000300: 7814 023d 797c b43d 5cda da3c debd 403d
00000310: 9c42 b23d 6a1f 37bd 321c 033e 23d0 323c
00000320: aa9b 61bd 15b3 a7bc 0cfc 62bc 9c94 2fbd
00000330: edf2 8c3d 4beb 9e3d 7163 4a3d 496c bf3d
00000340: 52eb 4d3e c3ad 1dbe b3a1 943c 0e0e bd3c
00000350: f18b 5eba c2fd 8cbc b3ed 6d3d 5b90 093d
00000360: 4109 0ebd 4a09 193d 3515 0fbd 7afb 283d
00000370: 3fde dfbd 616f a03d 846c 463d 2bc9 f63c
00000380: a660 ea3c 0d05 15bd f797 24be 99d4 11be
00000390: 211c dfbd 0a02 693c 61f3 99bd 1c64 cb3d
000003a0: e5d6 833b 7cba aabc c24b fd3d 1e5a 42bc
000003b0: 316d 793d 7b87 c03d 115f a6bc 2b1d e73c
000003c0: 9f21 283d 8b23 313a 0afe 393d 12f2 3fbd
000003d0: 98e2 01be 7a16 edbc 1aac ba3c ddf0 af3d
000003e0: aec7 ba3d ee26 b1bc fa94 bfbd 314d 1cbd
000003f0: f177 41bc c405 0a3d acaf 83bc 9606 42bc

network_body._body_endoder.seq_layers.2.bias f4 [256]
0.003268251 -0.012007006 -0.0072681173 -0.01707873 -0.017515097 0.032095596 -0.0001334582 -0.03158249
-0.0278259 -0.024251986 -0.01393107 0.023310952 -0.012057135 0.023577115 0.025866857 0.004885014
-0.0039015743 0.016423788 -0.013796545 0.026488174 0.0073417495 -0.011405415 0.007502991 0.03101943
-0.008404612 -0.0076379804 0.016598502 -0.017523844 -0.021908091 0.03171569 0.009294671 -0.015991392
0.022976337 -0.02806614 -0.014733994 0.003703963 -0.024806624 0.034616373 -0.0051946463 0.00561567
0.013508801 0.018734884 -0.014583514 0.02813221 0.020606527 -0.011198768 -0.030055145 -0.014338881
0.0026470125 0.016177537 0.020904865 -0.020818496 0.021035694 0.0074332496 -0.026411418 0.030585436
0.010657637 0.0062446315 -0.0030046208 0.019644389 0.018500535 0.0074949306 0.009737911 -0.013636542
-0.0016622759 -0.025454255 -0.017689848 0.0152201895 -0.009715288 -0.03633548 0.0057350313 -0.018905913
0.017696485 0.015055502 0.008337019 0.008287846 -0.01699478 -0.032576084 -0.02495462 -0.014515139
0.00750501 0.011766228 -0.022980105 0.013220613 -0.025839629 -0.007089267 -0.033278722 -0.009918601
0.013857482 -0.0069107446 -0.016037045 0.011262567 -0.010664388 0.019949654 -0.01942623 -0.022172907
0.015263326 0.017339526 0.025747607 -0.001033725 0.021480843 -0.016604787 0.002696817 -0.0038132481
0.006467313 -0.0019377843 0.011520758 0.007963461 0.007029792 0.013256619 0.04343498 -0.031240666
0.018432574 0.017794458 0.0040611927 -0.0065065473 -0.019963969 0.0058933143 -0.006593503 0.027189663
0.009496365 0.011257616 -0.0066672717 0.0017858215 0.022578403 0.023678217 0.02339327 0.019189946
0.022874674 -0.011886993 -0.005905607 0.0012564574 0.019146224 -0.009136785 -0.01900238 -0.019895628
-0.009377838 -0.0036755095 -0.0037374124 0.022996128 -0.011417613 -0.0009809406 -0.022102887 -0.01385294
0.034170557 -0.012706081 0.027791021 -0.0059681116 -0.0040680156 -0.003844019 0.034482896 0.00059786084
-0.013789905 0.0061691785 0.009891896 0.0024441702 0.008951022 0.02258193 0.0139346 0.019657144
0.009959322 0.020954499 -0.012685687 0.021557475 0.018147178 0.02756445 -0.021478748 0.033102755
-0.011226932 0.028702699 0.023509994 -7.163516e-07 -0.015412118 -0.015704514 -0.0025593762 0.038311686
0.0059451573 0.019624218 0.0005306138 -0.009811694 -0.0066860756 0.01180243 -0.005778061 -0.014041393
0.016106682 -0.009636182 -0.01254367 -0.007120973 -0.021523586 -0.011944387 0.015374491 -0.006172669
-0.025550215 -0.015062944 -0.016036449 -0.017430315 0.020772858 -0.026183201 -0.01269951 -0.01596856
-0.005654398 0.0058120037 -0.019631386 -0.025059909 -0.011564549 0.039967574 0.014274896 0.008298088
0.0076805237 -2.8073067e-05 -0.0051528728 0.01481173 -0.020697864 0.012623495 -0.009741611 0.023154806
-0.0084163705 0.018605728 -0.00022476516 0.026412392 0.014644785 0.008867424 0.016324053 -0.009315298
0.024062542 -0.019709984 -0.019631727 -0.009077026 -0.010366836 -0.0028703664 0.016801668 0.016798042
-0.025630256 0.025586827 0.012203064 -0.01815015 0.0005994043 -0.005046387 -0.011108108 -0.0052767675
0.02425679 -0.023048237 0.039027683 0.010396909 0.024565337 0.018903608 -0.0074475417 0.023195691
0.012193738 -0.0038207977 0.015755406 -0.0075982516 0.015133081 -0.013045072 0.028094405 -0.0035669652
00000000: 2730 563b 09b9 44bc 6329 eebb b1e8 8bbc
00000010: d27b 8fbc ac76 033d eaf0 0bb9 a45c 01bd
00000020: 24f3 e3bc 1aac c6bc 253f 64bc 9cf6 be3c
00000030: 4a8b 45bc cb24 c13c bbe6 d33c 7812 a03b
00000040: 8eb1 7fbb 2e8b 863c e70a 62bc bafd d83c
00000050: 0f93 f03b c7dd 3abc a6db f53b 761c fe3c
00000060: 7fb3 09bc 0648 fabb 95f9 873c 2a8e 8fbc
00000070: 9978 b3bc 50e8 013d ad48 183c 6100 83bc
00000080: df38 bc3c f6ea e5bc da66 71bc 30be 723b
00000090: 4337 cbbc e6c9 0d3d da37 aabb a703 b83b
000000a0: 0554 5d3c e679 993c b1ef 6ebc 8575 e63c
000000b0: 05cf a83c 0a7b 37bc 3536 f6bc a0ed 6abc
000000c0: 8079 2d3b c186 843c ae40 ab3c 8d8b aabc
000000d0: 0c53 ac3c 9e92 f33b c25c d8bc 4f8e fa3c
000000e0: 5f9d 2e3c c49f cc3b 2ce9 44bb 45ed a03c
000000f0: 6f8e 973c 0998 f53b c28b 1f3c cd6b 5fbc
00000100: b9e0 d9ba 7185 d0bc 4dea 90bc 1a5e 793c
00000110: df2c 1fbc 83d4 14bd eeec bb3b 93e0 9abc
00000120: 38f8 903c 5aab 763c fe97 083c bfc9 073c
00000130: a338 8bbc 806e 05bd a26d ccbc e8d0 6dbc
00000140: 96ec f53b 23c7 403c c640 bcbc 459b 583c
00000150: a1ad d3bc 154d e8bb 454f 08bd a181 22bc
00000160: 7e0a 633c 8773 e2bb 1f60 83bc a186 383c
00000170: afb9 2ebc 756d a33c c223 9fbc f5a3 b5bc
00000180: 0713 7a3c 9f0b 8e3c a5ec d23c 0e7e 87ba
00000190: 98f8 af3c c306 88bc 15bd 303b b0e7 79bb
000001a0: c1eb d33b 40fd fdba 90c1 3c3c 2d79 023c
000001b0: 2b5a e63b 4a32 593c e1e8 313d 6dec ffbc
000001c0: e9ff 963c afc5 913c c113 853b e034 d5bb
000001d0: 7a8b a3bc b41c c13b 500e d8bb dbbc de3c
000001e0: a496 1b3c dd71 383c 2179 dabb 3a12 ea3a
000001f0: 58f6 b83c d2f8 c13c 3ea3 bf3c 3c34 9d3c
00000200: ab63 bb3c aac1 42bc d283 c1bb b7af a43a
00000210: 8bd8 9c3c 74b2 15bc e1aa 9bbc 28fc a2bc
00000220: 81a5 19bc d1e0 70bb 60ef 74bb 6062 bc3c
00000230: f110 3bbc e892 80ba 1d11 b5bc 71f7 62bc
00000240: 6df6 0b3d 2b2d 50bc ffa9 e33c 2690 c3bb
00000250: fd4c 85bb f0eb 7bbb f03d 0d3d c3b9 1c3a
00000260: 0eef 61bc d226 ca3b 9e11 223c 5f2e 203b
00000270: 4fa7 123c bdfd b83c f34d 643c 0508 a13c
00000280: 6d2c 233c c5a8 ab3c a1d7 4fbc 4d99 b03c
00000290: 64a9 943c d7ce e13c 33f4 afbc c196 073d
000002a0: 2af1 37bc ec21 eb3c 0898 c03c 4f4b 40b5
000002b0: 1c83 7cbc c1a6 80bc 35bb 27bb b7ec 1c3d
000002c0: 98cf c23b f8c2 a03c e418 0b3a 3ac1 20bc
000002d0: de16 dbbb fb5e 413c e455 bdbb df0d 66bc
000002e0: 29f2 833c 14e1 1dbc f783 4dbc 0d57 e9bb
000002f0: 3b52 b0bc 64b2 43bc 4ae5 7b3c 1a44 cabb
00000300: af4e d1bc 91ca 76bc df5e 83bc 05ca 8ebc
00000310: d72b aa3c 277e d6bc 9b11 50bc 7fd0 82bc
00000320: 8748 b9bb 9f72 be3b 00d2 a0bc 704a cdbc
00000330: 3c79 3dbc 0ab5 233d 41e1 693c b4f4 073c
00000340: e7ac fb3b 747e ebb7 6ed9 a8bb e6ac 723c
00000350: 918e a9bc c7d2 4e3c 479b 1fbc 26af bd3c
00000360: d1e4 09bc 0a6b 983c f0ae 6bb9 cd5e d83c
00000370: aef0 6f3c ac48 113c 05ba 853c 319f 18bc
00000380: cf1e c53c d576 a1bc b7d2 a0bc ceb7 14bc
00000390: a9d9 29bc c21c 3cbb a7a3 893c 0c9c 893c
000003a0: 8bf6 d1bc 779b d13c 5cef 473c a0af 94bc
000003b0: 5721 1d3a 2a5c a5bb c8fe 35bc bce8 acbb
000003c0: 2db6 c63c a8cf bcbc 7edb 1f3d cc57 2a3c
000003d0: 3f3d c93c bddb 9a3c 820a f4bb e404 be3c
000003e0: 3ec8 473c 5966 7abb 7b11 813c c1fa f8bb
000003f0: bef0 773c ffba 55bc 3d26 e63c bfc3 69bb

action_model._continuous_distribution.log_sigma f4 [1, 3]
-0.049950667 -0.07857536 0.012750095
00000000: 1299 4cbd 1eec a0bd c6e5 503c

action_model._continuous_distribution.mu.weight f4 [3, 256]
-0.043548632 0.00147687 -0.039093453 0.015432126 -0.01722109 0.02495844 -0.020261051 -0.0018534736
-0.004323853 -0.013256078 -0.033957895 0.015508583 0.019918958 0.028420758 0.020437537 0.015921423
0.019765763 -0.022149991 0.021270704 0.025162883 0.03268028 0.018693233 0.02197237 0.030224355
0.017559437 0.0033862493 -0.013177587 0.010747843 -0.033276528 0.040499486 -0.012904909 -0.030204458
0.042110827 -0.029635899 0.011730105 0.0435587 -0.011391762 0.032593887 -0.036233764 -0.027184611
-0.022940816 0.024736525 0.010468703 0.010406074 0.021158725 0.01620163 -0.049051903 -0.0078104027
0.044309538 0.022966472 0.035889324 -0.03734461 0.051267084 0.027621169 -0.015462139 0.05708647
0.014607507 -0.0065743285 -0.018787941 0.013049806 0.0029522239 0.01748571 0.0074192914 -0.0035941696
0.024879465 -0.019595712 -0.018697819 0.0024204764 -0.008787261 -0.013818812 -0.024513617 -0.0044210907
0.0077566453 0.02235399 0.004658001 -0.0077310265 -0.013318915 -0.021242352 -0.021573367 -0.02368239
0.005205748 -0.03335588 -0.022438873 -0.0065295156 -0.002499281 -0.02011605 -0.022951432 0.0046510296
0.008244445 -0.034321386 -0.049193572 0.014195294 -0.013752944 0.05127692 0.00079551747 -0.024490317
0.02629262 -0.017403834 0.041909195 -0.020631867 0.059272446 -0.02895677 0.0048589706 -0.023928339
0.0035585887 -0.03390763 0.007973446 -0.016394889 -0.012320343 -0.0072734244 0.06080994 0.012797612
0.0070570605 0.040849864 -0.0021238748 -0.02772931 -0.008525984 0.013802637 -0.021429641 0.01318013
0.017308569 -0.011970666 0.0027647426 0.02857185 0.028597359 0.005322792 0.025609849 0.030919772
0.009248252 -0.016737172 -0.027133346 0.010290867 0.004501416 -0.008541807 0.011538333 -0.013302233
0.015568558 -0.0076112393 -0.012223488 0.04232644 0.0075760786 -0.010009251 -0.031090723 -0.032526013
0.043353893 -0.0027382346 0.03169179 0.024899524 -0.024182262 -0.039878823 0.054007858 -0.003437102
-0.039535936 0.02183176 0.024154373 -0.0019524763 0.013936484 0.024957484 -0.009797271 0.013888203
-0.008595144 0.04338922 -0.018416597 0.017289966 0.017805796 0.01829082 -0.030489936 0.021119224
0.009417234 0.053990897 0.01360267 -0.044113602 -0.05325635 -0.04886775 0.02761183 0.034081828
0.020813968 0.034502868 0.015142788 -0.03444887 -0.055029407 -0.0049051284 -0.030157225 -0.015741363
-0.0040961676 -0.05119704 -0.0020870224 0.0035199472 -0.026226837 -0.0010482001 0.058416765 -0.023575818
-0.00972826 -0.014463426 -0.04905266 -0.036955874 0.0220512 -0.011668232 0.0033739381 0.03742686
-0.025180357 0.007827327 -0.014623566 -0.009997863 -0.072459795 0.03322446 0.026424253 0.016607795
0.017162398 -0.037269328 -0.008008611 0.005646925 -0.012019226 0.028279688 -0.004125214 0.04192085
0.009187903 0.022859162 -0.020345744 0.050608844 0.032552276 -0.004307255 0.017391747 -0.011116978
0.03715022 -0.007025192 0.007717367 -0.013392101 -0.013682518 -0.027165877 0.034389265 0.01768485
-0.0053568645 0.05613652 0.045365974 0.0066429228 0.042282455 -0.038144335 -0.036054917 -0.04368372
-0.035791595 -0.0022299606 0.033141483 0.015590971 0.022060268 0.02251929 -0.009191622 0.010811924
-0.008151256 0.028427288 0.020557893 -0.076129906 0.04160594 -0.05012299 0.016938671 0.052706152
00000000: 0d60 32bd 8993 c13a 7520 20bd 07d7 7c3c
00000010: 3e13 8dbc a475 cc3c 81fa a5bc 41f0 f2ba
00000020: 1caf 8dbb 0530 59bc 6f17 0bbd b617 7e3c
00000030: 152d a33c a6d2 e83c 9f6c a73c a56d 823c
00000040: cfeb a13c e673 b5bc e63f ae3c 6422 ce3c
00000050: c2db 053d 8d22 993c 66ff b33c 1199 f73c
00000060: cfd8 8f3c d6eb 5d3b cee6 57bc b917 303c
00000070: f84c 08bd cae2 253d 1d6f 53bc 576f f7bc
00000080: 677c 2c3d fcc6 f2bc a02f 403c 9b6a 323d
00000090: 83a4 3abc 2b81 053d db69 14bd 43b2 debc
000000a0: 61ee bbbc 41a4 ca3c ec84 2b3c 3d7e 2a3c
000000b0: 1055 ad3c 48b9 843c a6ea 48bd 68ee ffbb
000000c0: eb7d 353d 2f24 bc3c af00 133d a9f6 18bd
000000d0: 6ffd 513d ca45 e23c e954 7dbc 81d3 693d
000000e0: 5354 6f3c 776d d7bb 2be9 99bc dace 553c
000000f0: 197a 413b 313e 8f3c 871d f33b 298c 6bbb
00000100: 05d0 cb3c 3087 a0bc 2b2c 99bc dba0 1e3b
00000110: 72f8 0fbc 4c68 62bc c8d0 c8bc ccde 90bb
00000120: 752b fe3b b71f b73c 25a2 983b 8d54 fdbb
00000130: 9437 5abc 7104 aebc a1ba b0bc 9201 c2bc
00000140: fb94 aa3b 2da0 08bd bad1 b7bc 8cf5 d5bb
00000150: faca 23bb 6aca a4bc a404 bcbc aa67 983b
00000160: b513 073c 9594 0cbd 337f 49bd 6193 683c
00000170: 0754 61bc bf07 523d 468a 503a eb9f c8bc
00000180: 9f63 d73c 7c92 8ebc faa8 2b3d 2904 a9bc
00000190: aac7 723d c036 edbc 0038 9f3b 5d05 c4bc
000001a0: 3637 693b bae2 0abd 0ea3 023c 934e 86bc
000001b0: 44db 49bc e855 eebb d813 793d 13ad 513c
000001c0: ea3e e73b 3052 273d b530 0bbb 9428 e3bc
000001d0: 92b0 0bbc 7524 623c 378d afbc 79f1 573c
000001e0: b3ca 8d3c 9d20 44bc af30 353b 830f ea3c
000001f0: 0245 ea3c d16a ae3b bfcb d13c 764b fd3c
00000200: fb85 173c 651c 89bc c046 debc 069b 283c
00000210: 9d80 933b eff2 0bbc 470b 3d3c 9cf1 59bc
00000220: 4413 7f3c b467 f9bb 0645 48bc 7d5e 2d3d
00000230: c140 f83b d7fd 23bc f9b1 febc ff39 05bd
00000240: da93 313d f473 33bb 40cf 013d 16fa cb3c
00000250: e119 c6bc fa57 23bd 5837 5d3d 0141 61bb
00000260: 6ff0 21bd 85d8 b23c 64df c53c 3cea ffba
00000270: da55 643c a373 cc3c bc84 20bc 588b 633c
00000280: a6d2 0cbc e5b8 313d 67de 96bc b0a3 8d3c
00000290: 76dd 913c a1d6 953c 08c6 f9bc 3902 ad3c
000002a0: be4a 1a3c 8f25 5d3d bcdd 5e3c 77b0 34bd
000002b0: 5523 5abd 8d29 48bd 3432 e23c 6399 0b3d
000002c0: 0e82 aa3c e152 0d3d 7519 783c 421a 0dbd
000002d0: 8466 61bd 33bb a0bb 490c f7bc 08f4 80bc
000002e0: 2539 86bb fdb3 51bd 6dc6 08bb eaae 663b
000002f0: aad9 d6bc c263 89ba 6b46 6f3d 1322 c1bc
00000300: 4863 1fbc 01f8 6cbc 71eb 48bd 0b5f 17bd
00000310: b8a4 b43c 1d2c 3fbc 4a1d 5d3b e84c 193d
00000320: 0947 cebc 303e 003c ae97 6fbc 14ce 23bc
00000330: cd65 94bd 5f16 083d ad77 d83c 120d 883c
00000340: 2898 8c3c b9a7 18bd 8d36 03bc d709 b93b
00000350: 4aec 44bc ceaa e73c ce2c 87bb 32b5 2b3d
00000360: dc88 163c 2343 bb3c 1eac a6bc 384b 4f3d
00000370: 8955 053d e023 8dbb 2379 8e3c fc23 36bc
00000380: d42a 183d 9533 e6bb f7e1 fc3b 8b6a 5bbc
00000390: a42c 60bc f98a debc c2db 0c3d d2df 903c
000003a0: a388 afbb 68ef 653d acd1 393d e0ac d93b
000003b0: 5e30 2d3d 3c3d 1cbd 52ae 13bd b3ed 32bd
000003c0: 359a 12bd 8824 12bb 5dbf 073d 4671 7f3c
000003d0: bcb7 b43c 607a b83c 7598 16bc 7f24 313c
000003e0: d88c 05bc 58e0 e83c 0769 a83c ffe9 9bbd
000003f0: fd6a 2a3d c44d 4dbd f8c2 8a3c 68e2 573d

action_model._continuous_distribution.mu.bias f4 [3]
0.022213584 0.0007714597 -0.025121624
00000000: 43f9 b53c c93b 4a3a ddcb cdbc

onnx::Div_61 f4 [68]
0.46594402 0.09231936 0.46250588 0.33706006 0.49996567 0.12804635 0.49988496 0.3502509
0.21906085 0.07108621 0.20831786 0.22669744 0.49510664 0.12714827 0.49714655 0.35598037
0.15493946 0.050230507 0.14695181 0.2035174 0.47525874 0.07252671 0.4734974 0.3526958
0.17500481 0.0415314 0.17030871 0.24912076 0.384463 0.043425873 0.3828838 0.30808216
0.295992 0.053001225 0.29211813 0.31843144 0.30287194 0.029755482 0.30170444 0.28156793
0.38995948 0.05995606 0.38703677 0.3453298 0.20824794 0.020709852 0.20730874 0.23152392
0.399792 0.060598478 0.39699665 0.35105136 0.18242279 0.019298533 0.18146908 0.20121203
0.33360428 0.058130875 0.32977977 0.3142768 0.16111825 0.020283282 0.15990418 0.17875794
0.17331572 0.050250318 0.16630498 0.21520571
00000000: 3790 ee3e ef11 bd3d 92cd ec3e 2393 ac3e
00000010: 80fb ff3e 951e 033e ecf0 ff3e 1654 b33e
00000020: 7d51 603e a695 913d 4751 553e 6023 683e
00000030: 9e7e fd3e 2833 023e fe89 fe3e 0f43 b63e
00000040: 73a8 1e3e 81be 4d3d 897a 163e de66 503e
00000050: 1d55 f33e e288 943d 406e f23e 8b94 b43e
00000060: 7634 333e d41c 2a3d 6865 2e3e 8319 7f3e
00000070: 56d8 c43e 54df 313d 5809 c43e f2bc 9d3e
00000080: 438c 973e d017 593d 8290 953e 7209 a33e
00000090: 0812 9b3e c5c1 f33c 0179 9a3e ac29 903e
000000a0: c5a8 c73e 7c94 753d af29 c63e 11cf b03e
000000b0: f33e 553e b5a7 a93c be48 543e 9b14 6d3e
000000c0: 89b1 cc3e 1c36 783d 2543 cb3e 01bd b33e
000000d0: 0acd 3a3e f517 9e3c 08d3 393e 870a 4e3e
000000e0: 2ece aa3e a41a 6e3d e5d8 a83e e4e8 a03e
000000f0: 2ffc 243e 2029 a63c ecbd 233e 520c 373e
00000100: ad79 313e 47d3 4d3d da4b 2a3e e35e 5c3e

onnx::Div_64 f4 [8]
0.6333774 0.15762538 0.4971974 0.0024741786 0.0008261056 0.24978596 1.8748962 0.31354284
00000000: 0525 223f 8c68 213e a890 fe3e d425 223b
00000010: 028f 583a e4c7 7f3e 99fc ef3f b088 a03e
