results/ppo/BlueCar/BlueCar-1683192.onnx (onnx, 351914 bytes, 11 tensors)

network_body.observation_encoder.processors.0.normalizer.running_mean f4 [68]
00000000: 447a 563f 64ff 023c 87e8 1d3e 6e73 013f
00000010: f693 253f 551e a73c d466 aa3e e12f 1d3f
00000020: 8d7e 693f c5f4 e33b 99c4 a53d c7d9 cd3e
00000030: 762c 183f 39d9 463d 2fcf b63e fb12 233f
00000040: 6ee2 703f b27b 913b 84c0 5f3d 801c ad3e
00000050: 148a 1d3f 807e a03d 11cf 9c3e 00d9 203f
00000060: e085 6d3f 9805 723b a648 8c3d 1de3 953e
00000070: b260 463f b633 c43d 2759 043e 3c1a 163f
00000080: d42d 6f3f 8f53 263b 4767 813d 1882 843e
00000090: 50cd 4f3f b67a b83d 511d c93d 6d8b 0b3f
000000a0: ce3e 753f 1acb 9f3a fbeb 263d 5bdb 693e
000000b0: db60 443f c9fe a23d 16f8 1c3e 6a0b 073f
000000c0: e4c4 7b3f 0809 533a 1dae 803c f48a 463e
000000d0: afc7 3a3f 02a4 803d c391 543e 49b3 043f
000000e0: 916b 7d3f d496 1b3a 1638 1b3c 840b 333e
000000f0: 102c 383f f64f 383d a03c 713e 095e fb3e
00000100: 069e 7e3f 606c d439 2b83 a33b a5df 263e
0.8378031 0.00799546 0.15420733 0.50566757 0.64678895 0.020400206 0.33281577 0.6140118
0.91208726 0.006956669 0.08094139 0.40205213 0.5944284 0.048547003 0.35704944 0.63700837
0.94095504 0.0044397945 0.054626957 0.33810806 0.61538815 0.07836628 0.3062673 0.62831116
0.927824 0.0036929604 0.06849794 0.29274836 0.77491295 0.095801756 0.12924634 0.5863378
0.93429303 0.0025379395 0.06318527 0.25880504 0.81172657 0.0900778 0.09820045 0.5450962
0.9579896 0.0012191266 0.040752392 0.22837584 0.7671029 0.07958753 0.15329012 0.5275179
0.98347306 0.0008050357 0.015708024 0.19388944 0.72960943 0.06281282 0.20758729 0.5183607
0.9899226 0.0005935256 0.009473821 0.17484862 0.71942234 0.04499813 0.23558283 0.4909518
0.99459875 0.00040516537 0.0049900017 0.16296251

network_body.observation_encoder.processors.1.normalizer.running_mean f4 [8]
00000000: d60a c6bd 9c09 bc3d 4aaa 1d3f c432 4e3b
00000010: d26c f236 5017 9c3b f72f 0e40 f1ba 0a3f
-0.096700355 0.0918152 0.61587965 0.0031463364 7.2248304e-06 0.0047635213 2.2216775 0.541915

network_body._body_endoder.seq_layers.0.weight f4 [256, 76]
00000000: 18b4 4ebe bbbd 903e 9030 1e3e d24e 503e
00000010: fe15 5fbd 9b51 27be 1466 973d bce9 ca3d
00000020: 4390 4d3e 4d92 0bbc 8c9d 8fbd 2d26 843d
00000030: 6876 963d 8068 1bbd 9012 31bd 13bc d53d
00000040: b1b8 633d 8a96 c8bc c3bb 8ebe 5d75 aebd
00000050: 9710 54bd a1ad b7bd 19eb b13d e1bf 00bd
00000060: d669 1a3c b7bc e2bd 7685 1a3d 0a47 b8bd
00000070: 2b16 3fbd a23e 87bc d198 a8bd e75a 933d
00000080: 5a87 ce3a 6b63 c8bd c166 a9bd 41cb 6e3d
00000090: f9bf 073e 058e 9dbd 5ace 3bbe 3512 913e
000000a0: 467e 6a3d 9311 713d 3c78 20be ca89 683e
000000b0: 8d0f b5bc fec7 b3bd 7168 203d 8c50 e53d
000000c0: 476a 69bd 2b8b 80ba 0e1a 413d e74d 20be
000000d0: 2809 c93d e13e 31be be0e c3bd cabb 76bc
000000e0: 0f47 cd3d 3b07 5cbd 2c64 7dbd 41f7 103d
000000f0: 0626 9abd 0c98 7d3e 58bc 1dbc ccb3 8cbc
00000100: d631 3bbd 3719 923c 7bf4 633d 015d cebd
00000110: 4f16 0c3e e812 5bbe fd15 993e 4816 163d
00000120: 347c 92bd 2426 3fbe b551 24be 4dc9 fd3d
00000130: debb b5bd e953 233e 182e 903d 229a 08be
00000140: 96f8 f9bd 29ff fcbd b572 7f3d 01d9 31be
00000150: 384a dfbd 4590 883e 06bc 543e 4092 81be
00000160: 6f1b 6fbd 7835 46bc 6c3a 24bc 7912 ff3c
00000170: 8e45 ee3d f427 413d a420 a03d 00d5 16be
00000180: 1e33 8dbd e460 ee3c 379d 973e 932c 91bd
00000190: 1acc 6b3d d6de d3bd 79b2 8c3d be9a 3dbe
000001a0: 4fbb a0be 3c3d 32be d590 86bd aec9 e5bb
000001b0: 94e4 d5bd 19cf 24bd 1df5 8abd ae40 053d
000001c0: c2c1 4e39 ab61 22bd 6f8b d53d 162d 4e3d
000001d0: 1157 1c3e 1139 ec3d fc5a a43d 695d 17be
000001e0: 58ef 30be b097 39be e1f1 2ebe c3bb 70bc
000001f0: 6b7e c23c 4ce5 33bd 65c0 7fbd eed2 ffbd
00000200: 3630 8bba 1922 373e d45f 003e 5d29 333d
00000210: d3aa 2dbe 4d57 38bd 79d1 c73c 87bc b0bd
00000220: b25b 97bd e5e1 d4bd cf6c 323c e72c 77bc
00000230: c303 153e e9d3 dfbd 24ea 5c3e 9e03 e7bd
00000240: fbfc 83bc d2a1 26be d8e2 cf3d 8ca5 d43d
00000250: 94bb 53be e441 383d a85c 7dbe 8142 063e
00000260: 09c5 013e f688 2c3a ac4e 063e fbd7 34bd
00000270: 187e c63d 4566 aa3d e5e9 d1bd 32cd d23d
00000280: c75e da3d 4cda 8ebe 30e1 3cbc 79b3 a0bd
00000290: 578a 2dbe 2203 8fbd 74ce c73e c966 df3d
000002a0: 9582 093e ed05 933d e79f c33d adde c7bd
000002b0: 2d5f d0bd af2f bdbc 22fd 7d3d 625f a1bc
000002c0: 3854 02be d114 31bd 8af8 8fbd a534 f1bc
000002d0: 21e9 73be 7a60 3fbe bcce ddbc eec1 3bbd
000002e0: 9c59 473e 7d5c 10bc e6ce c6bc ae41 533e
000002f0: b00f 4bbd 92e4 adbd eb4e 6cbd 79a8 073d
00000300: 254e c63a e97b b9bd a5d5 2e3d 1910 92bd
00000310: 49f6 89bd 0fb2 953d 99d8 09be fbfc 113e
00000320: ab44 d6bc fab2 50be 8663 17bb 643b 87bd
00000330: 6985 35bc 6953 013b c1b0 a6bd aafa 2a3d
00000340: ee92 07be 76dd 2c3d 4513 4fbe 7537 65bc
00000350: 1706 cf3d f3b7 c83d b2c6 f43c b0fb 23bd
00000360: 0e12 e9bd f86b 113d 2737 e73d d282 c6bd
00000370: 65dc 9a3e 4fba 04be 17b0 9abc 6951 213e
00000380: c834 1abe b46c f03c 33cc 13bd 10d4 1c3e
00000390: 5a21 1e3e e8d3 2abe 087e c6bc 98a7 b8bd
000003a0: 6305 6b3d 4f3c 303e 5426 f33d 17ae 57be
000003b0: 8b3f 123e 3eb1 87bd d72e 50bd b3a7 37be
000003c0: ecbb 11bd 1a7c 52be 2228 d73d 72a5 b3bd
000003d0: 261b a1bd cab6 663d 41c8 99bd 2a39 e5bd
000003e0: 02f6 6c3d 8e20 58bd 727d d1bd 6c4e d53d
000003f0: 6229 9abc ad65 fcbc 73ed d53d f1f0 c03c
-0.20185888 0.28269753 0.15448213 0.20342568 -0.054464333 -0.16339724 0.07392517 0.099078625
0.20074563 -0.008518768 -0.070124716 0.06452594 0.07346803 -0.037941456 -0.043230593 0.10436263
0.055596057 -0.024485845 -0.27877626 -0.08518479 -0.051773634 -0.08968664 0.086874194 -0.03143299
0.009424647 -0.11071151 0.037724935 -0.089979246 -0.046652 -0.016509358 -0.082322724 0.071950726
0.0015756891 -0.097845875 -0.08271552 0.058299307 0.13256826 -0.07693104 -0.18340436 0.28334203
0.05724933 0.05885465 -0.15670866 0.22708812 -0.022102142 -0.0877838 0.039162103 0.11197004
-0.05698612 -0.00098071 0.04714399 -0.15654717 0.098161995 -0.17309143 -0.09524296 -0.015059421
0.10023319 -0.053717833 -0.06186311 0.03539205 -0.07526784 0.24765033 -0.009627424 -0.017175578
-0.045701824 0.017834289 0.055653077 -0.10076333 0.13680385 -0.21393931 0.29899588 0.036642343
-0.07152596 -0.18666893 -0.16046794 0.12391911 -0.088737234 0.15949978 0.07040042 -0.13340047
-0.12205617 -0.123533554 0.062365253 -0.17367937 -0.10902828 0.2667257 0.2077485 -0.25306892
-0.058375772 -0.012097709 -0.0100236945 0.031136738 0.1163436 0.047157243 0.07818726 -0.1472969
-0.068945155 0.029098935 0.29612133 -0.0708858 0.057567693 -0.10345237 0.068699785 -0.1851606
-0.31392905 -0.17406172 -0.06570593 -0.0070125675 -0.104439884 -0.040236566 -0.06785033 0.032532386
0.00019717871 -0.039643925 0.104269855 0.050335966 0.15267588 0.11534322 0.080251664 -0.14781727
-0.17278802 -0.1812427 -0.17084457 -0.014693203 0.023741921 -0.043919846 -0.06243934 -0.124914035
-0.0010619226 0.17884101 0.12536556 0.04374062 -0.16959696 -0.04500513 0.024391877 -0.08629709
-0.07390536 -0.103946485 0.0108902 -0.015086389 0.14552216 -0.109290905 0.21573693 -0.11279987
-0.016111841 -0.16272667 0.10150689 0.10383138 -0.20677024 0.044984713 -0.24742377 0.13111307
0.12672819 0.0006581688 0.13115948 -0.044151288 0.09692019 0.083202876 -0.1024969 0.10293044
0.106626086 -0.27900922 -0.011528298 -0.07846732 -0.16947304 -0.069830194 0.390247 0.109082766
0.1342872 0.07178865 0.09551983 -0.09759269 -0.10174403 -0.023094026 0.062008984 -0.019698802
-0.1272744 -0.043232743 -0.07029827 -0.029444048 -0.238194 -0.18689147 -0.027076118 -0.045839243
0.19467777 -0.008811113 -0.024268579 0.20630524 -0.049575508 -0.08490862 -0.05769245 0.033119652
0.001512949 -0.09056837 0.042684216 -0.07131977 -0.06736428 0.073093526 -0.13461532 0.1425666
-0.02615579 -0.20380774 -0.0023100092 -0.06603125 -0.011079171 0.0019733554 -0.08139182 0.041742958
-0.13239643 0.04220339 -0.20222194 -0.013990273 0.101085834 0.098007105 0.029879902 -0.04003495
-0.11380397 0.035503358 0.11289816 -0.09692921 0.30246273 -0.12961696 -0.018882794 0.15753712
-0.15059197 0.029348709 -0.03608341 0.1531527 0.1544241 -0.16682398 -0.024230018 -0.09016341
0.057378184 0.17210506 0.11872545 -0.21062504 0.14282052 -0.06625603 -0.05082592 -0.17935066
-0.035579607 -0.20555153 0.105057016 -0.087717906 -0.07866506 0.056326665 -0.075088985 -0.11192544
0.0578518 -0.05276542 -0.10229005 0.104153484 -0.018818561 -0.030810202 0.104456805 0.02355239

network_body._body_endoder.seq_layers.0.bias f4 [256]
00000000: c8f9 7e3c b517 0a3c f956 d33b 4171 6d3c
00000010: 5d5a fbbb bd1b 1ebc cf45 0a3c ac7b 163c
00000020: d7c4 dc3c 3b09 053d 41dc 0f3a f03c ab3c
00000030: 7c8b 813c e35a 943c ea99 0fbd 5f83 9a3b
00000040: 7fe9 983c a6cd b73c 6479 b13c ae7f ab3c
00000050: 8d16 3ebc 91df e3bb 75a0 be3b 0668 ed3c
00000060: f996 c1bb 252d 183c c875 6d3c 9091 233d
00000070: f0fe 083c 09c7 a33c 4fc4 47bc 29cf 3abc
00000080: df5b a03c 49ed 693c 3273 523a b807 79bc
00000090: 883d 873c 7ca4 65bc d859 b7bc 62db 113b
000000a0: 4447 ba38 daca db3c 0297 203a 2586 0c3c
000000b0: e0e2 a23c 7ad6 bdbb 0455 373c 0b5a 95bc
000000c0: 6610 b63b 3679 953c 7686 c2bc 7893 793c
000000d0: b842 903b 0be9 9dbc 85a1 54bc b1cb a53c
000000e0: e369 afbc 3294 5e3c 1404 2cbc ecd2 f13b
000000f0: 6e94 cd3c 6916 2bbb d1bd 543c 761a 1e3b
00000100: dab3 a03c a951 f13c ea47 af3b e480 86bb
00000110: dc69 32bb 7ffd 263d 3771 df3c c240 14bc
00000120: 42ee 16bb a74e 0abb 5afc 823c 4e1c 773b
00000130: 7ef5 a33c f048 883c 0513 b53c d172 d739
00000140: a765 35bc 7758 43bc 71bb 7c3b 6dac 67bc
00000150: d479 14bb 3825 133b 4fee 373b ef12 503a
00000160: 11c6 e23a 216d 163c 371e 9038 87f5 593c
00000170: 3b22 5b3c 66ce 8d3c 1210 d9bb 44d0 013c
00000180: 716d 5a3c fff7 823c 9318 a53c f4bf 08bc
00000190: 2785 c23b ca85 0a3c 1a92 a7bc efba 253c
000001a0: c4ab de3c 4a13 083d 7636 bf3c 635d b5bb
000001b0: 9a78 4dba ef3a c1bc 4928 e83b eccd 94bb
000001c0: 2991 6f3b 25e1 94bc 7449 233c 8739 e33c
000001d0: b416 193c e45c 75bc 0814 febc 286a 08bd
000001e0: 0904 a239 119f dc3c 3626 8abc bffc 113b
000001f0: be44 073c a2ea 483c 7bdf c4bc dd46 033d
00000200: 8f9c 503c 4146 d83c e895 c13c be37 89bc
00000210: 20b7 df3c 030a 98bc d01d 18bc 311c ab3c
00000220: f2b9 1bbd 7c73 d13c b5f1 67bc 2845 c73c
00000230: 1b38 91ba 71f2 e33b c3d5 a23c df63 163c
00000240: a5e6 d1bb dbaf 8f3c 8116 e83c d3f7 f53b
00000250: cc7f b03c c68a ba3c 718f 513c 98c0 c63a
00000260: 7d9e 9f3c accc af3c 2077 3f3c d535 b8ba
00000270: 42cf 17ba db09 9cbc 065a 0e3d f1c4 ea3c
00000280: 3bef 393c 7a55 0abb fc7e 543b c9c5 14bc
00000290: d453 463b a68f 773b 2db5 ccbc af3e 40bc
000002a0: a0a2 d13c 23ba c83c c98e 933a bcfc 863c
000002b0: 5d2c e63c d9f2 163c 67ae 9f3c 7596 0abb
000002c0: dd4e 97bc 5ad4 58bb deab de3c f6d7 00bd
000002d0: 5a07 92bb 3b85 9dbb 66b1 b4bc 04ce e83a
000002e0: 24f6 d03c 5465 6a3c 78a9 1b3c 8ad8 a73b
000002f0: bbea c13c bc44 913c cdb6 d6bb ecc3 073c
00000300: 527c 31bc 2b58 063d fe07 493c 71f9 913c
00000310: 3de2 7bbc 2394 bc3c da24 8e3c 4f11 003b
00000320: 3926 513c 8f59 d23c ad2f 34bc d97f 803c
00000330: 5ef2 a63c 7f93 a13b 85e8 883b 4773 cabb
00000340: 2c12 893c e28b 293c c470 fa3c 8de1 c13b
00000350: c192 93bc 5225 ffba 172c 0b3c ffa4 193c
00000360: ee80 3e3b 9923 4c3b a2c5 783c 16ce 143b
00000370: 9e6f 933c 47d4 783c 49d5 4a3c 7778 b33c
00000380: 0c61 613c 99da 02bb c491 673c d6f9 2f3d
00000390: 215d 86bc 1842 debc bebf 8e3c 75f0 b03c
000003a0: 86e0 be3c e1e0 eb3c 3e5d ba3c 2070 51ba
000003b0: 7749 ec3c b47e 4bbb 42c5 85bc a9c6 533b
000003c0: c549 863c 4526 f83c 5fe7 49bb c351 8ebb
000003d0: cfea 253c 4c6b 7f3c 4019 c23c fc65 973b
000003e0: 3e73 9bb9 92ea 883c 2037 033d fce4 d83b
000003f0: e139 cebb 4502 03bd 7782 51bc 6e6a b03c
0.015562482 0.008428504 0.006449577 0.014492334 -0.0076706843 -0.009650168 0.008439495 0.009184759
0.02694933 0.032479506 0.00054878375 0.02090308 0.015813582 0.018109744 -0.035058893 0.0047153677
0.018666027 0.022436928 0.021664329 0.020934906 -0.011602056 -0.0069541414 0.005817468 0.028980266
-0.00590789 0.009288107 0.014493413 0.03993374 0.008361563 0.019992368 -0.0121928 -0.01140193
0.019575058 0.014277765 0.00080280297 -0.015199594 0.016508833 -0.014016267 -0.022381708 0.0022256006
8.8824454e-05 0.026830126 0.00061260175 0.008576904 0.019883573 -0.00579339 0.011189703 -0.018231412
0.005556154 0.018246274 -0.023745757 0.015232913 0.0044024847 -0.019276163 -0.012977962 0.02023873
-0.021412795 0.013585137 -0.010499019 0.00737988 0.02509519 -0.0026105887 0.012984709 0.0024124659
0.01961701 0.029457884 0.005349149 -0.0041047204 -0.0027223742 0.040769096 0.027275665 -0.009048643
-0.0023030196 -0.002110401 0.015989471 0.003770608 0.02001452 0.016636342 0.022103796 0.0004109354
-0.011071599 -0.011922947 0.0038563872 -0.014140231 -0.0022655623 0.0022452604 0.0028065627 0.00079373916
0.001730146 0.009181292 6.872083e-05 0.013303167 0.01337486 0.017310333 -0.00662423 0.00792319
0.013331757 0.015987394 0.02015332 -0.008346546 0.005936283 0.008454749 -0.020455409 0.010115369
0.027181514 0.03322152 0.023341399 -0.005534814 -0.00078381004 -0.023587672 0.0070848805 -0.0045411494
0.0036555028 -0.018173764 0.009966243 0.027737392 0.009343792 -0.01497576 -0.031015411 -0.033304363
0.00030902054 0.026931318 -0.016863924 0.0022275893 0.0082561355 0.012262972 -0.024032345 0.032050002
0.012732639 0.026400687 0.023631051 -0.016750213 0.027309 -0.018559461 -0.009284452 0.020887466
-0.03801913 0.025567763 -0.014156749 0.024324968 -0.0011079343 0.0069563915 0.01987732 0.009179085
-0.006405669 0.01753991 0.028331043 0.0075063496 0.021545313 0.02277125 0.012790547 0.0015163599
0.019484753 0.0214599 0.011686116 -0.0014054129 -0.00057910767 -0.019047668 0.03475382 0.028658362
0.011348541 -0.0021108077 0.0032424321 -0.009080359 0.0030262368 0.003777483 -0.024988735 -0.011733695
0.025590241 0.02450282 0.0011257763 0.016477935 0.028097326 0.009213173 0.019492341 -0.0021146808
-0.018470222 -0.0033085556 0.027181562 -0.031455956 -0.004456443 -0.004807142 -0.022057246 0.0017761593
0.025507994 0.014306385 0.009500854 0.005122249 0.023671499 0.01773297 -0.0065525533 0.0082864575
-0.010832863 0.032798927 0.012269972 0.017819138 -0.015373764 0.023019856 0.017351557 0.0019541567
0.012765461 0.02567747 -0.010997695 0.015685963 0.020379242 0.004930913 0.004178109 -0.006178293
0.016732298 0.010348292 0.030571349 0.0059167803 -0.018014314 -0.0019466078 0.008494399 0.009377717
0.0029068547 0.0031149148 0.015183838 0.0022705845 0.01799756 0.01518733 0.012379953 0.021908028
0.013756048 -0.001996672 0.014133874 0.04296287 -0.01640183 -0.027131125 0.017425414 0.021599034
0.02330042 0.028793754 0.02274954 -0.0007989425 0.028843625 -0.0031050863 -0.016329411 0.0032314456
0.016392598 0.030291686 -0.0030808074 -0.004343243 0.0101267835 0.015589546 0.02369368 0.004620312
-0.00029649766 0.016713414 0.032034993 0.006619094 -0.006293521 -0.031984586 -0.012787453 0.021535125

network_body._body_endoder.seq_layers.2.weight f4 [256, 256]
00000000: 28e3 8abc 809a b73d a9e5 e63d 268a 423d
00000010: b38d 14bd 27d5 02be 195a 04be 2921 e63d
00000020: 99a6 f13d 6dde 1cbc c5b7 07bd d890 33bd
00000030: 1b72 623d 8a94 d9bd b9c3 e43c 1669 953d
00000040: 7a83 123e 213e 953c 07c0 283c c402 9f3d
00000050: abe1 10bd 50be 8a3d 5db0 d83c 2125 963b
00000060: b9fe ffbc 21e5 80bc 57ec 973d 93e5 aebd
00000070: 2016 cebd d254 7ebd 2e92 e6bd 92d6 853c
00000080: 9ae6 8dbd 8963 f03c 0d4b b53c c234 cbbc
00000090: 04e4 15be 361b 18bd 14f1 2f3d f734 613d
000000a0: 618e 9bbc 7f50 033e 6dc1 44bd b484 f5bd
000000b0: 0ae3 01be 1761 1f3d 579f 37bd c98c 29bc
000000c0: 747f 4a3c f136 8bbb eea0 ae3d 8a01 b4bd
000000d0: 6eb8 f0bb 9793 dfbd 2e89 2ebc 0b80 673c
000000e0: 8751 143d 3e74 ac3c e165 da3a 3208 483d
000000f0: 7fbb 16bd 8c15 e5bc abc6 7f3d cfd1 91bd
00000100: 8ca1 ce3c 6cdf 1d3d e1ef 0abe 70c4 8b3c
00000110: dc80 d9bb 44ac 22b9 e849 933d 59a9 8bbc
00000120: 2588 b73a 9df1 523d 80ff 95bc 8b8b 673a
00000130: e612 93bc a426 bfbd e7b3 7bbd 7d32 26bd
00000140: 0753 d63c 9327 413d aa30 ec3c 92ec 99bc
00000150: dd8a ec3c ad92 bf3c b04b a03c b1c7 473e
00000160: 9824 263d 82d7 e03d 2cf5 85bd ca35 ddbb
00000170: e8d9 18bd 3f88 e83d af08 73bc 9dec e8bb
00000180: fbce a9bd 1f83 68bc 877d f1bb ef48 38bd
00000190: 2199 9fbd a232 803c c9dc 19bd aaf6 293d
000001a0: 31c6 d4bd cd19 f2bc b075 783d 7bc7 81bd
000001b0: f529 b23d 101c 06bd 48b5 1f3d 921b 8fbd
000001c0: a976 c43c e65a 153d 94ea 113d 05ab 52bd
000001d0: ba32 463d 42d3 6e3d 7556 ec3c 51e4 84bd
000001e0: deab 1f3d e54d 9abd 489a b03d 66a4 10bd
000001f0: 59d3 bd3d 1494 d3bc 54b9 25bc 03b8 6ebd
00000200: 341c aa3c 0b8b e2bc 9d63 593b debf 0cbd
00000210: 264d 4d3a d3a0 85bd 67b0 3bbd 635e 14bc
00000220: bd78 583c 909d 2dbd 1c02 56be 3040 a6bd
00000230: d5fa 31bd 30a4 3fba 4617 7e3d 0fe9 853c
00000240: 59e3 bebd a384 75bd 963a 3fbd d627 86bd
00000250: a0df 053d 9e26 9cbb 9a7e 6a3c 4e1d db3d
00000260: dc25 203c 0f4d 60bc 00ec 9e3d 3ed1 0f3e
00000270: 0a3b a23d ca16 89bd 6878 273d 5a29 a63b
00000280: 22f6 a9bb d2a5 473d 71cc cdbd 53b3 afbd
00000290: 5bb5 b03d 3d05 fe3c dbdc fd3d 3766 f03c
000002a0: 6d4c 0e3d 2a8f 5fbd 7abc fe3c bae4 9e3c
000002b0: 3a72 49bd 32ca 343d b637 8abd 52eb 86bb
000002c0: 402d 083c 0163 4fbd 4191 b33c 6acd 56bd
000002d0: 47f0 29bd 9e3e 323d 7870 40bd 039a 25bb
000002e0: f761 c0bb f42b fdba 928d d4bd ec16 7f3d
000002f0: 911e da3d aff3 803d fbf6 13be 81fa 1e3e
00000300: 31c9 e23c fc0d f9bc 986c 31bd 5c1f 543c
00000310: 90e6 d8bd 242d d9bc 2251 81bc 3cb3 98bc
00000320: 0ec3 743d 3228 71bd bd49 09be 6a5c 2e3d
00000330: 019b 03be eac7 e3bd b4e1 f23c be85 993d
00000340: 40bd 0f3e f5e4 ca3c ba62 02bd 829c aa3d
00000350: 79af 39ba 206e 1abe 4ad3 1b3c e922 0c3d
00000360: 48a6 a3bc ce42 28be 2f8f 45bd f3d5 59bd
00000370: 6426 883c 6077 10be b007 753d 12ec 8c3c
00000380: fda6 c73c 43b0 be3d 90ff 40bd d6e5 53bd
00000390: d422 873d 1b4e db3d d836 afbd b33f 1f3b
000003a0: 1b90 c03c 9f0b 1fbd 9b91 9bbd 3554 a43d
000003b0: 7800 c23a fb80 903d c940 c0bd ff11 4cbc
000003c0: 293d 9e3d 286c 5bbd d7c4 0cbc a6bf 3d3d
000003d0: 7e9e cf3c cce6 ef3c 416d 7fbd d26b d53d
000003e0: f475 e3bd 4832 fd3c ac10 24bd 3e4b 42bd
000003f0: d77c a43d 08c9 97ba a23a cabc b93c f0bb
-0.01695402 0.089650154 0.11274273 0.04749503 -0.036267947 -0.12776624 -0.12924995 0.112367935
0.11799354 -0.009574515 -0.03313424 -0.043839306 0.0552846 -0.10624035 0.02792536 0.07295434
0.14307967 0.018218102 0.010299689 0.077641994 -0.035371464 0.067745805 0.026451284 0.004582063
-0.03124939 -0.015734257 0.07418125 -0.085398816 -0.10062814 -0.06209261 -0.1125835 0.016337667
-0.069287494 0.029344337 0.022130514 -0.02480543 -0.14637762 -0.037135325 0.04295452 0.05498215
-0.01898879 0.12823676 -0.048036028 -0.11988202 -0.12684265 0.03891095 -0.044829693 -0.010348507
0.012359489 -0.004248493 0.08526789 -0.08789356 -0.0073462045 -0.109168224 -0.010652823 0.014129649
0.036210563 0.021051522 0.0016662442 0.04883594 -0.036799904 -0.027964376 0.062445324 -0.07120096
0.025223516 0.03854315 -0.13568069 0.017061442 -0.0066376757 -0.00015513698 0.07191831 -0.017048525
0.0014002366 0.05149995 -0.018310308 0.0008832744 -0.017953347 -0.09333542 -0.061450865 -0.040575493
0.026162637 0.04715688 0.028831799 -0.018789563 0.028874809 0.02338537 0.01956734 0.1950977
0.040562242 0.10978605 -0.065409034 -0.006750797 -0.037317187 0.11354112 -0.014833613 -0.0071082846
-0.082914315 -0.014191418 -0.0073697004 -0.04499143 -0.07792879 0.015649144 -0.037564073 0.041495003
-0.103893645 -0.029553318 0.06065911 -0.06336876 0.08699409 -0.032741606 0.038991243 -0.069876805
0.023982363 0.03646364 0.0356241 -0.05143263 0.04838822 0.05830694 0.02884982 -0.064888604
0.038982265 -0.075343885 0.08623177 -0.035313033 0.09268827 -0.025827445 -0.010114986 -0.058280956
0.020765401 -0.027654191 0.0033170946 -0.034362666 0.00078316254 -0.065248154 -0.045822527 -0.009055707
0.01321238 -0.04238659 -0.20899242 -0.081177115 -0.043452103 -0.00073105376 0.062033914 0.016346483
-0.09320707 -0.059940945 -0.04668673 -0.06550567 0.03268397 -0.0047653457 0.014312411 0.10698949
0.009774651 -0.013690247 0.07759857 0.14044663 0.07921417 -0.066938 0.040886313 0.0050708475
-0.005186812 0.048742123 -0.1004876 -0.08579125 0.08628341 0.031008357 0.123956405 0.029345615
0.034740854 -0.05457989 0.031095732 0.019396175 -0.0491812 0.04413814 -0.06748907 -0.004117408
0.00831157 -0.050631527 0.021919848 -0.052441992 -0.041488912 0.043516748 -0.04698226 -0.00252688
-0.0058710533 -0.0019315467 -0.10378565 0.06227772 0.10650361 0.06296479 -0.14449684 0.15525247
0.027683826 -0.030402176 -0.043316454 0.01294693 -0.10590851 -0.026510783 -0.015785757 -0.018640153
0.05975633 -0.058876224 -0.13407035 0.0425686 -0.12852098 -0.11122115 0.02964864 0.074962124
0.14037037 0.024767378 -0.031832434 0.08330633 -0.00070833374 -0.15081072 0.009510824 0.03421298
-0.01997675 -0.16431734 -0.048232254 -0.053182553 0.016619869 -0.14108038 0.059821784 0.01720241
0.024371618 0.09310963 -0.047118723 -0.05173286 0.0659844 0.10708257 -0.085553825 0.0024299442
0.023506215 -0.038829442 -0.075961314 0.08023874 0.0014801165 0.07055851 -0.09387357 -0.0124554625
0.07726509 -0.053569943 -0.008591852 0.04632535 0.02534413 0.029284857 -0.062360052 0.10420956
-0.11106482 0.030907765 -0.040054962 -0.047435038 0.08031624 -0.0011580298 -0.024686161 -0.0073314575

network_body._body_endoder.seq_layers.2.bias f4 [256]
00000000: bc6b e8bb 95df 62bc 74f7 d23b 1363 953b
00000010: 3b5a 343b eaec 0ebd ddc0 f1b9 7ba6 d53c
00000020: 6f03 e6bb 7da0 fcbc 63b8 063c c961 de3c
00000030: 1085 6bbc 2eec c63c 5955 c8bb a20c dbbb
00000040: b4de 043c ed54 81bb b571 a83c 169a f8bb
00000050: 7488 093d 2174 a43c a5fa d83b 705a f63c
00000060: d68c 09bc 8085 603c e09e 3d3a 6bf5 d33c
00000070: 77b6 d4ba 7c9a b5bc cca3 11bc ce7c a73c
00000080: 8878 19bd cb78 963c 91c9 7a3c ede6 883b
00000090: 8739 01bd 197e 99bc c750 f43a 375e 6cb8
000000a0: 4c8b 803c 2dfb 003c 38fa 86bc 90e2 86bc
000000b0: 10f7 cc3c 267e 523a 187b 8f3c 1eba 6bbc
000000c0: 2326 623c 7cd0 e33c b069 f2bb 9974 b33c
000000d0: dfb2 e73c 5ba6 de3b 736d c03c 760b bfbc
000000e0: 3b1d 0fbc e97b 6cbc d0a5 8c3c 15a9 2bbc
000000f0: 0b77 de3b dcd7 743c 4d08 c1bc b29e f1ba
00000100: 1cef b13c 1f44 98bc 2315 e83c de03 463c
00000110: a6d5 953c 9dd7 f13b 2ec5 bbbc e57f d43c
00000120: 624a e43c f6d4 643a 5972 0e3d 4717 8cbb
00000130: 8b10 653b a33a e33c 37da f33c e53e 333b
00000140: 8f99 963c 6f1c 133c 2e2b 8fb9 1388 823c
00000150: 7662 9d3c 4dc6 013d 2505 023d 48b6 4a3c
00000160: dded 66bc 587f bcba 5b90 0fbd 083e bb3c
00000170: fca6 6e3c 955d 8dbc cc5c 013d e9d9 d73c
00000180: 1bd6 a63c 84de 133d 2110 92bc d911 b0b8
00000190: 6177 733c 16b7 9cbc fbce dab9 4b37 463b
000001a0: c25a 28bc 1447 d23b e4c1 cabc 6bee 84bc
000001b0: 6b2b 33bc 1981 b73b fcca 06bb 1a5d d1bc
000001c0: b71e 34bc f775 ae3c becd ecbc e30a e33b
000001d0: 348e 903c b664 953a 0a85 453c 1de3 53bc
000001e0: 1dfa f63b 7671 c13c fd39 0c3b 1075 103d
000001f0: 507f 8fbb 0589 adbc 6f19 8abc 8b8a 87bc
00000200: 54b0 b6bc 757b d33c b066 253c 7613 83bc
00000210: 9bc0 013d 1967 5dbc 9f3e 03bc 7c65 6f3c
00000220: 608a 7c3c 33ee 943c 3057 ddbc 80ca 603c
00000230: 9af5 863c 6603 883c 8fec 0a3b d1a5 7abc
00000240: e27d e9bb c4ed ed3b df0f d9bb f511 d6bc
00000250: 7770 c6bc f18e e63a 8ed1 8ebc 3600 c63b
00000260: 2d77 44bc 4f89 bf3c e556 24bc b58e dd3a
00000270: ef6c 013d c044 e73c d9d2 aabc 6e27 8e3c
00000280: 356a 1bbd 711e 063b 3e41 b93c fb88 923a
00000290: d5d7 6c39 872a bbbc 508e 37bc 5f94 8a3c
000002a0: 9534 dd3a c637 ffbc af6a 92bc ed34 46bb
000002b0: 860b 423c b8a8 05bc 0ac3 833a 01de 09bc
000002c0: 536b f03c 0142 213d d3ed 8c3c 2c09 9c3c
000002d0: bbb4 c53b d580 2c3c e323 8abb 65d1 c63c
000002e0: 2a3f e73c 598f 91bc cab2 a43c 40ce 403c
000002f0: e919 ed3c 6d9b c6bc f2a7 823b 9a84 6dbc
00000300: 55aa 8fbc 0713 7bbb cdc0 24bc 9747 babb
00000310: c898 1abc e440 46bb c0f4 db3c 218f b93c
00000320: 336d 333b 7fff 9bbc cd60 193c 775a f9ba
00000330: 6be8 bb3c 9ffc c33c 0333 b9bc 60d8 6abb
00000340: 1ce8 9dbc ab68 ac3c e0a3 cdbc 1e77 86bb
00000350: a364 30bc 7c19 ac3c b5ef 8c3c a446 9e3c
00000360: eb51 fc3c ad9c 933c 4f28 9a3c 89a0 7a3c
00000370: 5b0d 8f3c e722 e93c d676 df3b 3f94 8abc
00000380: e636 523c 7180 febc 5dcf 03bc 6df8 48bc
00000390: a804 8dbc 21ed 80ba 2fce a13c d955 81bb
000003a0: 1d24 b0ba 86f4 3fbc 0f4d f13c 5d02 38bc
000003b0: 9360 983b f993 01bc 25b3 0f3d 9824 adbc
000003c0: dbdd aabc 72da 1ebc 196b ad3c 97e6 a2bc
000003d0: d654 c93c 1d70 ce3b fab4 4d3c 590c 8d3c
000003e0: ff8c 86bc 9514 c63c c66b b0bb 322c 89bc
000003f0: 7771 77b9 6911 f63c d177 a93c c81d e33c
-0.007092921 -0.013847251 0.00643819 0.0045589297 0.0027519602 -0.034893908 -0.00046110796 0.02608036
-0.0070194523 -0.030838246 0.008222672 0.027146237 -0.014374986 0.024282541 -0.00611369 -0.0066848556
0.008109737 -0.0039468915 0.020562032 -0.007586728 0.033577397 0.020074906 0.006621676 0.03007242
-0.008395394 0.013703704 0.0007233452 0.02587386 -0.0016228695 -0.02216839 -0.00888915 0.020445254
-0.037468463 0.018368145 0.015306846 0.004177919 -0.031549003 -0.018736886 0.0018639796 -5.635453e-05
0.015691422 0.007872385 -0.016476735 -0.016465455 0.025020152 0.0008029662 0.01751475 -0.0143876355
0.013803038 0.027809374 -0.007397853 0.021906184 0.028283535 0.0067947335 0.02348969 -0.023320895
-0.008734996 -0.014433839 0.01716891 -0.010477324 0.0067890934 0.014944043 -0.023563528 -0.0018434136
0.021720462 -0.01858717 0.028330391 0.012085883 0.018290352 0.0073804394 -0.022921171 0.025939891
0.0278675 0.00087292434 0.03477702 -0.004275236 0.0034952487 0.027737921 0.029767139 0.002735072
0.01838377 0.008978947 -0.00027307257 0.015934026 0.019211989 0.031683255 0.031743187 0.012372561
-0.014094797 -0.0014381213 -0.035049777 0.022856727 0.014566179 -0.017256537 0.03158264 0.026349025
0.020365765 0.03610088 -0.017829956 -8.3956584e-05 0.014860005 -0.01913027 -0.00041734413 0.003024536
-0.010275545 0.0064171646 -0.024750657 -0.016226968 -0.010935645 0.0056001064 -0.0020567765 -0.02555709
-0.010993651 0.021296484 -0.0289067 0.006928788 0.017645933 0.0011397812 0.012055645 -0.012932566
0.00753714 0.023613673 0.0021396868 0.03526789 -0.0043791905 -0.0211835 -0.01685783 -0.016545555
-0.022300877 0.025815705 0.010095283 -0.01600049 0.031677824 -0.01351335 -0.0080105355 0.014611598
0.015413851 0.018179988 -0.027019113 0.013720155 0.016474534 0.016603183 0.0021198129 -0.015298323
-0.007125602 0.00726101 -0.0066242064 -0.02613161 -0.02422355 0.0017590207 -0.017433908 0.0060425056
-0.011991304 0.023380904 -0.010030483 0.0016903492 0.031598028 0.028231025 -0.020852493 0.017352786
-0.037943084 0.0020464922 0.022614118 0.0011179739 0.00022587118 -0.022847427 -0.011203364 0.016916452
0.0016876633 -0.031154525 -0.017873136 -0.0030243949 0.011843568 -0.0081579015 0.0010052633 -0.008414746
0.029348051 0.039369587 0.017203247 0.019047342 0.0060335076 0.010528763 -0.004215704 0.024269769
0.028228361 -0.017768549 0.020104785 0.011767924 0.028943019 -0.024244035 0.003987306 -0.014496947
-0.017537275 -0.0038310902 -0.010055733 -0.0056848037 -0.00943584 -0.003025108 0.026850104 0.022651257
0.002737832 -0.019042728 0.009361458 -0.0019024153 0.022937974 0.02392417 -0.022607332 -0.0035834536
-0.019275717 0.021046003 -0.025102556 -0.0041035553 -0.010766181 0.021008246 0.017204145 0.019320793
0.03080078 0.018019045 0.018818049 0.015297064 0.017462423 0.028459026 0.0068195863 -0.016916392
0.012830472 -0.031067105 -0.008045045 -0.012266261 -0.017214134 -0.0009836295 0.019751636 -0.0039470014
-0.0013438497 -0.011716014 0.02945569 -0.011231032 0.0046501844 -0.007908815 0.035082955 -0.021135613
-0.020857742 -0.009695636 0.021169232 -0.019885344 0.024576586 0.006299986 0.012555355 0.017217802
-0.016424654 0.024179736 -0.0053839413 -0.016744707 -0.00023598025 0.030037599 0.020687016 0.027724162

action_model._continuous_distribution.log_sigma f4 [1, 3]
00000000: 08a9 5abc cf9a 83bd 3a13 34bd
-0.013345964 -0.06426012 -0.04396365

action_model._continuous_distribution.mu.weight f4 [3, 256]
00000000: 7a19 f4bc a488 e6bb d0cc d73b eea5 c7bc
00000010: 5957 2eb9 d121 9ebc 5fc1 c23c 1a29 9f3c
00000020: 5431 73bd 4563 9b3b 9378 1a3b 2b07 7a3c
00000030: 7981 21bc dda0 713c 995e 76bc 2b51 eebc
00000040: af68 a33c dbd2 b53b b4e0 a83c b137 013b
00000050: 7ba0 6b3c af57 66bc ff2d 6c3b 7b61 1c3d
00000060: 3556 88bc b29c 1cbc 5098 153c be54 e93c
00000070: da7d 61bc 5e0c 853c e3cf d1bc 2327 9b3c
00000080: 8915 b0bc 8974 d63c db1d 77ba 0b27 5abc
00000090: a04d a1bb bc2c 8ebc abf4 afbb 3fa2 a8bb
000000a0: 42cb 3c3c 5798 abbb 51f1 25bd 4fb6 933c
000000b0: 370f e73c 63eb 9f3a 02f4 453c 27f4 073c
000000c0: 8a61 8e3c 0d2a 183a 3660 33bb 74ae bf3c
000000d0: d36f c4bb 8bd6 56bc 5927 383c 476d f3bc
000000e0: bb1a 03bc 91cd 86ba 8fc9 8b3c 983c 58bc
000000f0: 31a3 803c 48cc 5339 c368 6cbc 2ea4 0d3d
00000100: 8694 ae3a e913 08bd 6dbf cc3c ed1f 283c
00000110: c918 913b fc07 c23c 0ff3 08bd a5de 6f3d
00000120: b0e0 c03b e31f e6bc 5bed 103d ec38 2bbd
00000130: 3439 b23c b443 ecbc b9ad 153d 0a67 d43a
00000140: 5b9c 413b ea4f 2dbc 6953 633c 2ed6 e43c
00000150: 4d33 f73c 1256 ae3c 8a19 093d 001d e83c
00000160: bf41 62ba 9e8b cfbc 076c 12bb 1c7c 893c
00000170: 33f2 0b3d 77cf 04bc a06b c83c 1034 2b3d
00000180: 5f0a ae3c 7bec cc3c 528b a6bc 9a0c 6dbc
00000190: d844 d73c 7570 27bc f34f b23c 1cfa 1f3c
000001a0: cf6c 0dbd 72d9 a23c 5f21 2ebc 71ba d2bc
000001b0: 6b56 843c 0f92 d33c 67b5 e7bc 4fbe 24bb
000001c0: 9823 65bc 8382 a63c 2ab1 26bc 78aa 84bc
000001d0: b66a ed3c 1008 bf3b 7c3b 89bb 2271 bf3a
000001e0: f09e 27bd b8c4 a93b 86fb a13b 24df f73c
000001f0: dce4 063c 4c08 1bbc 6b90 0ebd c71b 0dbd
00000200: ff31 dd3b 87ed 193d 0608 033d 72f8 f93b
00000210: a26b 83bc f48e 92bc afe6 15bd 4809 fe3c
00000220: 4e0c a9ba 66fe 95bc 5a4a d2bc 5718 3a3c
00000230: 7962 d33a 29ad e43b 79e9 9fbc 42d3 b6bc
00000240: a31d 093c 5970 1e3d fb61 b33b 99c1 aebc
00000250: 118e 50bb d3ef ad3c 58cf 5e3a 2c57 003d
00000260: f7b6 73bc ef8a 763b 294f 0b3b 44dc 883c
00000270: a846 d93c 62f7 2f3d 278f 21bd 2474 733c
00000280: 7e84 a6bc 5541 1cbd 0b0f 9e3b b471 acbc
00000290: 951c a2bc 3dd1 78bc c336 8d3c 678d 2f3a
000002a0: fc0e 24bb b6d8 833b f93f b7bb 328b ddbc
000002b0: 612f 7a3c 6f4f 62bd 5fa1 483b 5e59 e9bc
000002c0: 668f 66bc 6e28 113d e0a6 c03c 5e32 ea3b
000002d0: 436b 0abd d27f d03c 8523 94bc 8833 723c
000002e0: d6d5 9a3c 5794 8cb9 bf91 e63a bf61 c43c
000002f0: 9597 ed3c 470b 44bd 9940 49bc 6ff7 33bd
00000300: 7448 62ba ab4f 13bd 1744 913b 2fec 1fbc
00000310: cc13 b63c 834b e13c a5be c53c d7c2 0a3d
00000320: 45ed 043d 1344 8bbc c863 37bb 9c88 34bd
00000330: e91e 1abb 9201 133d 57ed 803c 7fec 89bc
00000340: 63b8 223c 3071 273d 027d 35bb cab9 893b
00000350: b91d e7bc a492 c8bc 8965 933c a4ca af3c
00000360: dd34 ea3c c8b0 b339 d9e5 9b3c d9eb 853b
00000370: e545 f03c 2545 493c 1b0b 3e3c 7388 d9bc
00000380: a441 91bc 373f 02bc e49b 443c b77d 55bd
00000390: 2d4a 083c 433b 16bd 3621 203c de23 3ebc
000003a0: d140 113c c934 1dbd 8c45 bb3c 374c 2ebb
000003b0: 5fa0 043d 55ee 0abd 06a1 de3c 736b f7bc
000003c0: 05d0 8abc 9c97 b83c 6356 bebb fa5b adbb
000003d0: 1f41 e83c 2cb2 dd3c 6af1 fb3b 34e0 9d3c
000003e0: 55f1 8cbc a851 9f3c 344a 9cbb 00cf 673c
000003f0: 0bb0 a2bc 019b 063d 7da6 1b3c 7537 573c
-0.029797304 -0.007035332 0.006585695 -0.024371114 -0.00016626473 -0.019303234 0.023773847 0.019428778
-0.059373215 0.0047420585 0.0023570403 0.015260498 -0.009857529 0.014747825 -0.015037202 -0.029091438
0.019947378 0.0055488176 0.02061496 0.0019717033 0.014381523 -0.014058991 0.0036038158 0.038178902
-0.01664267 -0.009558843 0.009130552 0.028482791 -0.0137629155 0.016241249 -0.025611823 0.01893956
-0.021494644 0.026178615 -0.0009426751 -0.013314973 -0.0049225837 -0.017355315 -0.005369743 -0.0051462944
0.01152307 -0.005236666 -0.04051334 0.018031267 0.028205497 0.0012200888 0.012082102 0.008297957
0.017380495 0.0005804606 -0.0027370579 0.023398615 -0.005994776 -0.0131126745 0.01123985 -0.029715193
-0.0080019785 -0.0010284652 0.017063884 -0.01319804 0.015702816 0.00020198629 -0.014429274 0.034580402
0.001331941 -0.033222113 0.024993623 0.010261518 0.0044280034 0.023685448 -0.033434924 0.05856194
0.00588616 -0.028091377 0.03538261 -0.04180233 0.021755792 -0.028840877 0.036542628 0.0016205024
0.0029542658 -0.010578135 0.013874867 0.02793416 0.03017583 0.021281276 0.03347162 0.02833414
-0.0008631013 -0.02533513 -0.0022342221 0.016782813 0.034166526 -0.008106104 0.024465382 0.041797698
0.02124518 0.025015106 -0.020330105 -0.0144683365 0.026277944 -0.010219683 0.021766638 0.009764221
-0.034527596 0.019879077 -0.0106280735 -0.025723668 0.016154489 0.025826482 -0.028284742 -0.0025137847
-0.013985537 0.020325905 -0.010174075 -0.016194567 0.028981548 0.0058298185 -0.0041879993 0.001460586
-0.04092306 0.0051809214 0.004943314 0.030257769 0.008233275 -0.009462427 -0.034805696 -0.03445032
0.0067503448 0.03758004 0.031990074 0.007628494 -0.016042534 -0.017890431 -0.03659695 0.031010285
-0.0012897344 -0.018309783 -0.02567022 0.011358342 0.001612737 0.00697865 -0.019520508 -0.022317532
0.008368882 0.03868136 0.0054743267 -0.021332549 -0.003182296 0.021232521 0.00084995246 0.031333134
-0.014875165 0.0037619432 0.00212569 0.016706593 0.02652295 0.042960532 -0.03944316 0.014859233
-0.02032685 -0.038148243 0.0048235706 -0.021050312 -0.01978902 -0.015186605 0.017238026 0.0006696791
-0.0025033345 0.0040236367 -0.005592343 -0.027043913 0.015270085 -0.055251535 0.0030613763 -0.028484996
-0.014072275 0.035438947 0.023517072 0.0071471175 -0.0337937 0.025451574 -0.018083343 0.014782794
0.018900793 -0.00026813403 0.0017591043 0.02397239 0.029002944 -0.047862317 -0.012283468 -0.043937143
-0.0008632012 -0.03596465 0.004433166 -0.0097609 0.022226237 0.027501827 0.024138758 0.03387722
0.03245284 -0.017000234 -0.0027983058 -0.044075593 -0.002351696 0.03589017 0.015738172 -0.016836403
0.0099316565 0.04087943 -0.0027692919 0.004203056 -0.028212415 -0.024483986 0.017992752 0.021458931
0.02858966 0.00034273253 0.019030498 0.004086953 0.029330203 0.012284552 0.011599327 -0.026554322
-0.017731495 -0.007949642 0.012000058 -0.052121844 0.008318466 -0.03667761 0.009773543 -0.011605231
0.008865551 -0.038380418 0.022860311 -0.002659572 0.032379504 -0.033918697 0.027176391 -0.030202603
-0.016944895 0.02253323 -0.005808638 -0.0052905055 0.028351365 0.027062498 0.007688691 0.019271947
-0.01720492 0.019448116 -0.004769588 0.014148474 -0.019859334 0.032862667 0.009500143 0.013135781

action_model._continuous_distribution.mu.bias f4 [3]
00000000: c9c5 a13c 363b 803a 504c fbbc
0.019747632 0.0009783271 -0.030676037

onnx::Div_61 f4 [68]
00000000: d8bc bc3e d664 b63d 99e6 b83e 9e82 9e3e
00000010: cdb9 f43e 5fc1 103e 3d42 f13e 815e b13e
00000020: 77f9 903e cb39 aa3d e8a5 8b3e 3203 923e
00000030: 8463 fb3e a012 5c3e dd4e f53e 1fb7 aa3e
00000040: e066 713e c82a 883d b2b2 683e 104b 893e
00000050: ff17 f93e 809a 893e 1eff eb3e ea00 a03e
00000060: 8c82 843e 2579 783d 7755 813e c018 843e
00000070: 0cd4 d53e 37b3 963e 21c4 ab3e fb13 8e3e
00000080: 33c3 7d3e 291d 4e3d 4d27 793e c5ef 7b3e
00000090: 0d28 c83e 6994 923e 5f5e 983e 3f81 873e
000000a0: 2255 4d3e 60f6 0e3d 6b74 4a3e 6fb0 633e
000000b0: 3968 d83e 9d92 8a3e ef72 b83e 1e92 913e
000000c0: 5881 023e 046c e83c 31ab fe3d 46d2 2d3e
000000d0: 6269 e33e cc70 783e 29aa cf3e a183 9f3e
000000e0: 6777 cc3d 819d c73c f266 c63d 992e 113e
000000f0: 3b09 e63e bb44 543e 3a47 d93e f751 a13e
00000100: b609 963d 30fc a43c 0651 903d 5aad f63d
0.36862826 0.08905952 0.36113432 0.30959028 0.47798005 0.14136265 0.47120848 0.34642413
0.28315327 0.083118044 0.27275014 0.28518063 0.49099362 0.2149148 0.4791173 0.33342835
0.235744 0.06648785 0.22724417 0.2681508 0.4865112 0.26875687 0.46093076 0.31250697
0.2588085 0.060662407 0.25260517 0.25800133 0.4176334 0.29433605 0.33548072 0.2774962
0.24781494 0.050320778 0.24331398 0.24603184 0.39093056 0.28628853 0.297595 0.26465794
0.20052007 0.03490293 0.19770972 0.22235273 0.42267016 0.27064982 0.36025187 0.2843179
0.12744653 0.028371818 0.12434996 0.16974744 0.44416338 0.24261779 0.4055951 0.31155112
0.09983712 0.024367096 0.09687604 0.14177932 0.44928917 0.20729344 0.42437154 0.31507847
0.07326071 0.020139784 0.07046704 0.12044783

onnx::Div_64 f4 [8]
00000000: 265c 153f 0c0c 2b3e f8fd f73e 37cd e83b
00000010: bf20 9f3a b770 643d 0296 c33f 72b0 c03e
0.5834373 0.16703814 0.4843595 0.0071045416 0.0012140496 0.055771556 1.5280154 0.37634617
