results/MyRun1/BlueCar/BlueCar-202247.onnx (onnx, 349850 bytes, 11 tensors)

network_body.observation_encoder.processors.0.normalizer.running_mean f4 [68]
0.17260006 0.013300505 0.81408983 0.9311609 0.23938438 0.014170714 0.7464301 0.91227317
0.4588379 0.018235011 0.52292204 0.85425913 0.60671484 0.014056988 0.37922242 0.7726157
0.82646525 0.025117697 0.14841186 0.6633025 0.9088245 0.013246118 0.07792413 0.56423455
0.9406081 0.030091733 0.029295709 0.49102503 0.9685133 0.011441391 0.020039765 0.42350635
0.96013415 0.03328092 0.006581031 0.3854591 0.9744076 0.009542752 0.016044663 0.3468739
0.9623773 0.034917563 0.0026996562 0.32070893 0.9724889 0.008316518 0.01918931 0.30094448
0.9598553 0.03735515 0.002783712 0.28071398 0.972988 0.0076539754 0.019352484 0.2701924
0.9582989 0.039105486 0.0025908793 0.25444254 0.9777008 0.007016139 0.015278278 0.24875006
0.9559106 0.042492386 0.0015921041 0.23708194
00000000: 12be 303e 5cea 593c 3168 503f 9060 6e3f
00000010: 2e21 753e 482c 683c 0b16 3f3f bc8a 693f
00000020: cdec ea3e 9761 953c 38de 053f bab0 5a3f
00000030: aa51 1b3f 484f 663c 7129 c23e 24ca 453f
00000040: 3a93 533f a1c3 cd3c 47f9 173e 31ce 293f
00000050: b9a8 683f 3f06 593c b096 9f3d ad71 103f
00000060: b1cb 703f f082 f63c 8efd ef3c a267 fb3e
00000070: 7df0 773f ac74 3b3c 6f2a a43c d3d5 d83e
00000080: 5acb 753f 9351 083d b0a5 d73b e55a c53e
00000090: c772 793f 3459 1c3c 1970 833c 7599 b13e
000000a0: 5c5e 763f b805 0f3d b7ec 303b f633 a43e
000000b0: 08f5 783f 0142 083c e632 9d3c 6515 9a3e
000000c0: 14b9 753f b701 193d f06e 363b beb9 8f3e
000000d0: be15 793f 33ce fa3b 1a89 9e3c a956 8a3e
000000e0: 1453 753f 132d 203d becb 293b 4b46 823e
000000f0: 9a4a 7a3f a4e7 e53b be51 7a3c 56b8 7e3e
00000100: 8fb6 743f 7f0c 2e3d 26ae d03a 9cc5 723e

network_body.observation_encoder.processors.1.normalizer.running_mean f4 [6]
0.005143906 0.2557201 0.8636892 0.53918916 -0.016320664 0.11757183
00000000: 368e a83b bfed 823e bc1a 5d3f 4d08 0a3f
00000010: eab2 85bc 80c9 f03d

network_body._body_endoder.seq_layers.0.weight f4 [256, 74]
-0.1363743 0.07364235 -0.09378637 0.014599993 0.063753575 0.046055187 -0.097247995 0.1025982
-0.05259986 0.05023506 -0.044580232 -0.1375495 0.0021518315 0.15488903 0.0626271 0.12589473
0.15474495 0.22173086 -0.16508834 0.08019416 0.12582059 0.12675264 0.061811708 -0.021451736
0.11532233 0.06625711 -0.13039258 -0.18892267 0.006337047 -0.036367953 -0.13913696 -0.102669686
-0.14044037 0.088826485 -0.17464355 -0.017807476 -0.08888396 -0.04645112 -0.08705867 -0.109855995
-0.18255222 -0.2261793 -0.1489918 0.028470866 0.098429725 -0.0065675094 -0.12844132 -0.13271308
0.039322913 0.16237888 0.067288786 -0.123050086 0.10229195 -0.07219018 0.07989473 0.013875009
0.11081867 0.019755928 0.023968587 0.0056342534 -0.15462305 -0.17222202 -0.10011141 0.0052294615
-0.057797145 -0.1045283 -0.12793003 -0.0864923 -0.060476553 0.10500161 0.045491196 -0.11396372
-0.11103398 0.056617174 0.1172809 -0.12635577 0.21675554 -0.14132845 -0.007830697 -0.09573244
-0.10999729 0.12281348 -0.104554765 -0.09460455 0.09662434 -0.067502394 0.14960194 -0.23468333
-0.020260263 0.235091 0.16284616 -0.05402825 -0.04618916 -0.01891124 0.14740486 -0.14216553
-0.22808403 0.1834649 0.12542792 -0.15493853 0.030259596 -0.13750479 -0.3202303 -0.20073143
-0.00061877264 0.056621637 -0.01118439 -0.026740484 -0.042770147 0.1033882 -0.07726728 0.13200282
0.024259876 -0.05571993 0.12507924 -0.15219852 0.035255577 0.15306734 0.003620301 0.08355309
0.0855908 -0.035406385 0.07689913 -0.057136543 -0.07303918 0.04368086 0.092979476 0.08741641
0.0972277 0.008178401 -0.18005124 -0.12103611 -0.08333466 0.14757685 0.024086162 0.047345392
0.02771757 -0.05827103 -0.060113076 -0.08555217 -0.0357334 0.039954096 0.17927445 0.018012956
-0.103009224 0.038464017 0.035698894 0.017122723 0.26848784 -0.0651705 0.0034490887 -0.1213688
0.12144609 -0.1591054 -0.02153331 -0.0043381834 -0.10165373 0.07407302 -0.066699 0.13558513
-0.18860357 0.21893267 0.12836951 0.012707945 -0.0028164021 0.12324391 -0.24725513 0.04632387
-0.094266474 0.057445314 -0.023706665 0.014870639 0.04071592 -0.11286892 -0.20856448 -0.018368794
-0.10160808 -0.07622184 -0.10296678 -0.08092623 -0.13952744 0.037017953 -0.17779563 0.09283535
-0.04655558 -0.020971071 0.060459126 -0.10534069 -0.057166383 0.05077008 0.13622081 -0.03046712
0.21838088 0.025472786 -0.043426126 -0.08785124 0.12914345 0.22082964 0.1231517 0.061790608
0.023972161 0.061534513 0.14148188 0.20908856 -0.02051143 0.09105109 0.13767798 -0.056672733
0.047063712 0.11841537 -0.20772183 -0.113885336 -0.10594038 0.013785088 -0.19374691 0.034869645
0.13765517 0.014190936 -0.008913249 0.018452026 -0.026115745 0.08668351 -0.04618795 -0.0304889
0.050261628 -0.03294978 -0.33588022 0.10024901 -0.041089937 0.16695517 -0.19085437 -0.16994675
0.0062692845 0.13562131 -0.08606368 0.036825873 -0.11292623 -0.09146597 0.30827448 -0.21776012
-0.09848805 0.13469084 -0.05721932 -0.07920159 -0.16257818 0.25086233 0.11448649 -0.02624827
-0.16303329 0.27891004 -0.019240681 0.32785225 0.03808869 0.037382226 0.013455953 -0.2158669
00000000: b4a5 0bbe cdd1 963d 1113 c0bd cf34 6f3c
00000010: 3c91 823d 5da4 3c3d f529 c7bd 011f d23d
00000020: f372 57bd 47c3 4d3d c399 36bd c7d9 0cbe
00000030: be05 0d3b 3b9b 1e3e a342 803d 8cea 003e
00000040: 7675 1e3e 6a0d 633e eb0c 29be d63c a43d
00000050: 1dd7 003e 72cb 013e 462e 7d3d 8dbb afbc
00000060: 1d2e ec3d cfb1 873d a285 05be f274 41be
00000070: 01a7 cf3b 90f6 14bd eb79 0ebe 7c44 d2bd
00000080: 9acf 0fbe a9ea b53d c2d5 32be fce0 91bc
00000090: cb08 b6bd 8843 3ebd d14b b2bd 2efc e0bd
000000a0: f8ee 3abe 8c9b 67be 4e91 18be bc3b e93c
000000b0: 8695 c93d 4334 d7bb 1f86 03be f0e5 07be
000000c0: 1011 213d a646 263e b4ce 893d af01 fcbd
000000d0: 717e d13d 72d8 93bd d99f a33d 0154 633c
000000e0: e6f4 e23d 2fd7 a13c c559 c43c 8b9f b83b
000000f0: 8155 1ebe f85a 30be 3607 cdbd e75b ab3b
00000100: b3bc 6cbd ef12 d6bd 1700 03be e022 b1bd
00000110: 43b6 77bd 160b d73d fa54 3a3d d065 e9bd
00000120: c965 e3bd 69e7 673d f830 f03d 6863 01be
00000130: 2af5 5d3e 68b8 10be 534c 00bc 5f0f c4bd
00000140: 4246 e1bd a285 fb3d cf20 d6bd 08c0 c1bd
00000150: fbe2 c53d b23e 8abd 4031 193e d450 70be
00000160: daf8 a5bc b2bb 703e 25c1 263e ba4c 5dbd
00000170: d830 3dbd bfeb 9abc 4df1 163e d793 11be
00000180: dc8e 69be 39de 3b3e 2d70 003e 35a8 1ebe
00000190: f9e2 f73c 0ece 0cbe 3af5 a3be 8a8c 4dbe
000001a0: 2135 22ba 17ec 673d bb3e 37bc dc0e dbbc
000001b0: c02f 2fbd 31bd d33d 4f3e 9ebd bf2b 073e
000001c0: a6bc c63c 953a 64bd c614 003e eed9 1bbe
000001d0: 2768 103d afbd 1c3e 9242 6d3b e21d ab3d
000001e0: 3b4a af3d 4906 11bd 4b7d 9d3d 0208 6abd
000001f0: 9195 95bd b4ea 323d 066c be3d 6007 b33d
00000200: 511f c73d b3fe 053c 5a5f 38be c8e1 f7bd
00000210: 5dab aabd 631e 173e 5850 c53c 3eed 413d
00000220: f50f e33c 9bad 6ebd 2139 76bd fa35 afbd
00000230: 305d 12bd e8a6 233d b993 373e e88f 933c
00000240: 80f6 d2bd 728c 1d3d 0139 123d f444 8c3c
00000250: 3d77 893e 1c78 85bd 1b0a 623b 3590 f8bd
00000260: bab8 f83d 87ec 22be a066 b0bc 5227 8ebb
00000270: d52f d0bd 98b3 973d 7c99 88bd d4d6 0a3e
00000280: 4b21 41be e32f 603e 4c73 033e fc34 503c
00000290: 6393 38bb 4e67 fc3d 7330 7dbe 19be 3d3d
000002a0: c80e c1bd c74b 6b3d 7b34 c2bc fba3 733c
000002b0: bdc5 263d d227 e7bd ed91 55be 277a 96bc
000002c0: e617 d0bd 321a 9cbd 3fe0 d2bd a7bc a5bd
000002d0: 48e0 0ebe 23a0 173d 0f10 36be 7620 be3d
000002e0: 10b1 3ebd 86cb abbc fda3 773d dcbc d7bd
000002f0: 4c27 6abd 4af4 4f3d 787d 0b3e 2f96 f9bc
00000300: 3d9f 5f3e 4eac d03c 98df 31bd 5aeb b3bd
00000310: 2e3e 043e 2a21 623e f536 fc3d 2618 7d3d
00000320: 4461 c43c 9d0b 7c3d a0e0 103e 501b 563e
00000330: 9607 a8bc fe78 ba3d 75fb 0c3e ab21 68bd
00000340: e1c5 403d c283 f23d 08b5 54be b73c e9bd
00000350: 45f7 d8bd dada 613c 9765 46be 79d3 0e3d
00000360: 7af5 0c3e 1a81 683c e008 12bc b428 973c
00000370: b0f0 d5bc 2087 b13d 932f 3dbd dcc3 f9bc
00000380: 23df 4d3d 59f6 06bd 7ef8 abbe 5a4f cd3d
00000390: ec4d 28bd 4cf6 2a3e 546f 43be 8506 2ebe
000003a0: 926e cd3b 50e0 0a3e 2842 b0bd bad6 163d
000003b0: de45 e7bd 8352 bbbd 27d6 9d3e 82fc 5ebe
000003c0: 1ab4 c9bd 65ec 093e ce5e 6abd 7134 a2bd
000003d0: e57a 26be 0771 803e e577 ea3d 9d06 d7bc
000003e0: 33f2 26be 4ccd 8e3e a29e 9dbc 40dc a73e
000003f0: e302 1c3d 1b1e 193d 5c76 5c3c 360c 5dbe

network_body._body_endoder.seq_layers.0.bias f4 [256]
0.03389715 0.030316483 -0.042599175 0.056595765 -0.008234585 -0.0092063015 -0.05000113 0.016854921
-0.032932285 0.027199138 0.03657889 0.046686392 0.036159508 -0.042843595 0.026387086 -0.05353548
0.038446516 0.057803463 0.06101427 -0.01541367 0.007835165 0.044248935 0.021471351 -0.01638602
0.018317146 -0.0027902091 0.049798783 -0.022080142 0.0059052957 -0.034653537 0.022175102 0.051969722
-0.03862793 -0.0020269342 0.04515354 0.041470982 -0.033654824 -0.058689162 -0.030075416 0.04715533
-0.03256861 0.0122652305 0.029065114 0.047627192 0.042482644 0.051729783 -0.021871295 0.04250029
-0.019499026 -0.007344826 0.035989173 0.016112769 0.03823748 -0.028530631 -0.00080907095 0.022982948
0.049095783 0.029258994 0.007288366 0.033579495 -0.019859444 0.008601611 0.04300035 0.039325174
-0.032400608 0.034906942 -0.050798215 -0.00492084 -0.036185894 -0.033230368 0.00014146531 -0.005776972
-0.044333447 0.05159906 -0.062688336 0.07174632 -0.03334721 -0.03665025 0.0382637 0.056884483
0.052628733 -0.017614983 -0.052165437 -0.013518043 -0.026931709 0.038996294 -0.049754757 0.052039478
0.007743273 0.033933003 0.029908182 -0.030073138 -0.05780952 0.03246856 0.025157671 0.07465139
0.034855645 0.03039674 -0.004315319 0.004446194 0.036033235 0.027954653 -0.022876674 0.03663289
0.03890829 0.034232434 -0.029779783 0.03315157 0.05560371 -0.046954535 0.006246676 0.07114664
0.031201238 -0.053135403 0.012883754 -0.06136141 0.050725926 0.029186543 -0.051074468 0.042883046
0.05139025 0.03411769 0.030212829 0.06631182 0.0016676104 0.029033972 -0.049749386 0.0297529
0.036087092 0.040057667 -0.0019381936 -0.03256107 -0.028754441 0.008217197 -0.0034787382 0.044028714
0.02716166 0.03525267 -0.020630615 -0.02200998 -0.0021117735 0.018132612 -0.0021692456 0.042733803
0.064526685 0.026077494 0.024372423 -0.04085946 0.020602997 0.0461727 -0.001357592 0.04711385
-0.007658191 0.037064556 0.041623466 0.040224206 0.026980184 -0.044520885 -0.01050452 -0.05190294
0.030744625 0.014425418 -0.06468639 0.022861002 0.032228928 0.0055686603 0.029643103 0.04937063
0.010960911 -0.037475307 0.07281416 -0.022233674 -0.019806977 0.016944874 0.04695865 0.028715285
0.020191947 0.050785284 0.052308064 -0.027227674 -0.027611649 -0.06953309 -0.03314668 -0.0050730594
0.015953219 0.006614555 0.041982178 0.045517374 0.0029509796 -0.030724654 0.03294238 0.0110843135
0.043578673 0.018265245 -0.016642017 -0.051131777 0.052906886 -0.04217177 -0.0010515233 -0.04117474
-0.013644455 0.04948862 0.038379338 0.048145432 0.015976993 0.059521645 0.0711629 0.046340387
0.06080013 0.036085136 -0.0399872 0.030189924 -0.025257705 -0.037149854 -0.0053808903 0.04642588
0.04309549 0.034954842 -0.018822743 -0.017296704 -0.040093657 -0.05660846 0.00100829 0.06842103
0.062457275 0.00433393 -0.032608047 0.029892605 -0.0015184605 0.03837737 0.0037227178 -0.007391968
0.065654494 0.04111923 0.041499082 0.03324382 0.039448738 -0.0010111659 -0.025121251 0.02855616
-0.051794577 0.02653047 0.035560053 0.017843222 0.0022663693 0.040975347 -0.052885927 0.009298846
-0.034281943 -0.007306803 -0.031011157 0.03418123 0.021003218 -0.032580383 -0.038620196 0.015009003
00000000: bdd7 0a3d 465a f83c 797c 2ebd f6d0 673d
00000010: 5aea 06bc 07d6 16bc fccd 4cbd 5513 8a3c
00000020: 01e4 06bd bad0 de3c bfd3 153d 3b3a 3f3d
00000030: fe1b 143d c47c 2fbd bb29 d83c 0548 5bbd
00000040: 187a 1d3d 53c3 6c3d 19ea 793d 9e89 7cbc
00000050: 105f 003c 5f3e 353d b0e4 af3c fa3b 86bc
00000060: d70d 963c f1db 36bb cff9 4b3d 6ae1 b4bc
00000070: 3681 c13b def0 0dbd 8fa8 b53c 34de 543d
00000080: 5238 1ebd 50d6 04bb ebf2 383d 7add 293d
00000090: a4d9 09bd 0c64 70bd b860 f6bc f325 413d
000000a0: aa66 05bd 1bf4 483c f619 ee3c bb14 433d
000000b0: 4802 2e3d 9ce2 533d 6e2b b3bc c914 2e3d
000000c0: 6cbc 9fbc deac f0bb 6269 133d edfe 833c
000000d0: e79e 1c3d 12b9 e9bc d517 54ba bc46 bc3c
000000e0: a918 493d 8fb0 ef3c 3fd3 ee3b a78a 093d
000000f0: 46b0 a2bc c5ed 0c3c 2321 303d 6f13 213d
00000100: 80b6 04bd 95fa 0e3d ca11 50bd ff3e a1bb
00000110: a937 14bd 911c 08bd 4e56 1439 c14c bdbb
00000120: fd96 35bd 8959 533d be62 80bd bcef 923d
00000130: 1697 08bd 931e 16bd 66ba 1c3d b4ff 683d
00000140: 3a91 573d 4c4d 90bc 6dab 55bd c87a 5dbc
00000150: e39f dcbc 94ba 1f3d a5cb 4bbd 5927 553d
00000160: 48bb fd3b 55fd 0a3d 0102 f53c f15b f6bc
00000170: adc9 6cbd c1fd 043d 7617 ce3c d4e2 983d
00000180: cbc4 0e3d 9602 f93c 8567 8dbb 61b1 913b
00000190: 9697 133d 2801 e53c dd67 bbbc 5f0c 163d
000001a0: 4d5e 1f3d 4f37 0c3d bbf4 f3bc f1c9 073d
000001b0: b7c0 633d 6653 40bd ebb0 cc3b 54b5 913d
000001c0: bd99 ff3c 82a4 59bd 6216 533c 1a56 7bbd
000001d0: fdc5 4f3d 9e18 ef3c 7633 51bd 22a6 2f3d
000001e0: 957e 523d febe 0b3d e580 f73c 7ece 873d
000001f0: b893 da3a a7d8 ed3c 03c6 4bbd 5bbc f33c
00000200: 0fd0 133d 8213 243d fc0a feba c25e 05bd
00000210: 6f8e ebbc 6ca1 063c 8bfb 63bb 7457 343d
00000220: 2182 de3c 1b65 103d 8901 a9bc 464e b4bc
00000230: ae65 0abb d88a 943c e729 0ebb a409 2f3d
00000240: 9126 843d 78a0 d53c ada8 c73c 405c 27bd
00000250: 9ec7 a83c 961f 3d3d 3af1 b1ba 74fa 403d
00000260: 90f1 fabb 01d1 173d 5e7d 2a3d 23c2 243d
00000270: 8c05 dd3c 885b 36bd 261b 2cbc 2d98 54bd
00000280: 27dc fb3c 9758 6c3c 4c7a 84bd ff46 bb3c
00000290: 7b02 043d 4f79 b63b 18d6 f23c dc38 4a3d
000002a0: 6595 333c b57f 19bd 971f 953d 6523 b6bc
000002b0: 3e42 a2bc facf 8a3c b757 403d 513c eb3c
000002c0: 9569 a53c 3b04 503d fb40 563d 920c dfbc
000002d0: d331 e2bc 5d67 8ebd d0c4 07bd e83b a6bb
000002e0: 53b0 823c e9be d83b 81f5 2b3d 6d70 3a3d
000002f0: 3965 413b 45b2 fbbc 97ee 063d fb9a 353c
00000300: 8d7f 323d ffa0 953c d754 88bc 8e6f 51bd
00000310: e4b4 583d 4ebc 2cbd 44d3 89ba d8a6 28bd
00000320: fe8c 5fbc 94b4 4a3d a733 1d3d 2534 453d
00000330: 2fe2 823c f8cc 733d dbbd 913d 6bcf 3d3d
00000340: 8f09 793d 02ce 133d 9ec9 23bd dc50 f73c
00000350: 3fe9 cebc 722a 18bd 2e52 b0bb 1029 3e3d
00000360: e684 303d cf2c 0f3d 2732 9abc d1b1 8dbc
00000370: 3f39 24bd 46de 67bd 9928 843a 5320 8c3d
00000380: 33d3 7f3d a403 8e3b 0490 05bd 56e1 f43c
00000390: 1407 c7ba 9731 1d3d d7f8 733b 5238 f2bb
000003a0: dd75 863d a36c 283d f1fa 293d ac2a 083d
000003b0: 0095 213d 1989 84ba 15cb cdbc 9cee e93c
000003c0: 8d26 54bd 6e56 d93c 6ba7 113d f32b 923c
000003d0: 5e87 143b c4d5 273d ea9e 58bd 305a 183c
000003e0: 396b 0cbd e86d efbb 1c0b febc 9e01 0c3d
000003f0: f10e ac3c 0273 05bd 3630 1ebd 52e8 753c

network_body._body_endoder.seq_layers.2.weight f4 [256, 256]
0.08823401 0.012606098 0.06837207 0.1955 -0.058394767 0.037587296 -0.025904931 0.058872893
0.05131516 0.06543577 0.1760476 -0.03644124 0.09291276 0.0074847443 0.07449671 -0.06511981
-0.067774564 0.08237993 0.08554623 0.050722167 0.10221002 -0.016581597 -0.090673774 0.015276386
0.032767434 -0.043261264 0.019807689 -0.04451369 -0.052044787 -0.029660763 0.03486655 -0.009753228
-0.081113204 0.06971563 0.06854588 0.098083705 -0.0029765747 -0.052264966 -0.0042972364 0.013345459
-0.027688198 -0.08671509 -0.037887607 0.011464552 -0.024848212 -0.020761218 0.04568135 -0.07786973
-0.0214127 0.0050281794 0.07020071 0.03446881 0.0020417178 -0.002234997 0.024090122 0.015500696
0.09520392 0.07249893 0.045196906 -0.052343205 0.09628801 -0.0018311447 0.0020143683 -0.06910359
-0.053628907 0.04127752 0.117443524 0.0036926528 -0.06078477 -0.144877 -0.17345886 -0.0109444
-0.06869271 0.14879851 -0.12352951 0.102824025 0.0010333285 0.0061444086 0.029867038 -0.060005642
-0.027632028 -0.034570444 0.060632274 0.032410786 0.08076624 0.05597797 -0.043045122 -0.09362909
0.016072437 0.042602975 0.054848824 0.05188151 -0.017565168 0.09941772 0.009804263 -0.023228684
-0.08501944 0.124997616 0.026532797 0.042075124 0.0020600683 -0.0067021274 0.05039077 0.0770255
0.11137396 0.08589755 -0.17403212 -0.070364386 0.085895516 -0.062275853 -0.061619814 0.1521721
-0.06755683 -0.04104865 0.064265594 0.0044841003 0.041135002 -0.04851174 -0.025111506 0.10196739
0.016171262 -0.093499765 0.029865978 0.06698813 -0.083874315 -0.02846428 0.004402871 0.09672459
0.028046329 -0.08164927 -0.045783874 -0.14810957 -0.02080385 0.05846117 0.07358845 0.022356788
-0.0726281 0.06287066 -0.041207116 0.08036034 -0.045627326 -0.061817076 -0.00061848003 0.0030958224
0.038337275 0.111456685 0.12570976 0.046204958 0.01978 0.0441719 0.09563434 0.081629865
0.041306525 0.009049653 0.004960301 0.03076297 -0.10910242 0.014657047 -0.087350175 0.059001673
0.032046016 -0.022334332 0.012423344 -0.04033899 -0.02038874 0.019499948 0.13654283 -0.09129314
-0.022644712 0.053542685 0.14937674 0.0013069144 0.048794813 -0.010230618 0.02641859 0.0084602935
0.09575487 -0.054857343 0.15790226 -0.05441283 -0.07156955 -0.07655009 0.033295605 0.01928116
0.09463489 -0.016280262 0.15931241 -0.19692832 -0.09293209 -0.09310231 0.0042500515 -0.030589452
0.030424556 -0.0933032 -0.0627107 -0.103942014 -0.028464278 0.07423407 0.02874206 -0.020992944
-0.13250993 0.09143489 -0.17718808 0.06162404 0.077891625 -0.06886427 -0.059149902 -0.066967584
0.16850075 -0.13399291 -0.088252135 0.026505908 -0.019802466 -0.11188382 0.029295316 -0.008118624
0.031655844 0.026063194 0.05096235 0.060732678 0.0789961 0.0093037095 0.006770876 0.045985494
0.055698365 0.052686512 0.012202629 0.1275576 -0.04264281 0.079441234 -0.08781193 0.055315927
-0.05849625 0.095948994 0.023435675 0.036636993 0.10460748 -0.08975561 -0.03843466 0.120520316
-0.067460895 0.011151934 -0.050019458 0.0026036492 0.0015975051 -0.084947705 -0.099168256 -0.006455115
0.056155242 0.057011895 0.07464528 -0.078591675 0.05284103 -0.029592143 0.121636696 -0.05386922
00000000: 08b4 b43d cf89 4e3c a806 8c3d 2731 483e
00000010: 5a2f 6fbd 23f5 193d 9436 d4bc b424 713d
00000020: d82f 523d 3003 863d d245 343e 6943 15bd
00000030: 0c49 be3d 9642 f53b bb91 983d 895d 85bd
00000040: 64cd 8abd cfb6 a83d dd32 af3d 0cc2 4f3d
00000050: 7d53 d13d 21d6 87bc 2cb3 b9bd cf49 7a3c
00000060: 2537 063d b932 31bd bc43 a23c fd53 36bd
00000070: ea2c 55bd 21fb f2bc 3ad0 0e3d 01cc 1fbc
00000080: ae1e a6bd 11c7 8e3d c861 8c3d 1ce0 c83d
00000090: a312 43bb ca13 56bd d5cf 8cbb e9a6 5a3c
000000a0: 5cd2 e2bc ae97 b1bd 0930 1bbd d1d5 3b3c
000000b0: 7a8e cbbc 6e13 aabc 5e1c 3b3d 2a7a 9fbd
000000c0: b069 afbc 6dc3 a43b 64c5 8f3d 2b2f 0d3d
000000d0: 57ce 053b 0779 12bb a658 c53c a2f6 7d3c
000000e0: 46fa c23d 527a 943d 6420 393d d465 56bd
000000f0: a632 c53d 0503 f0ba 7e03 043b 2f86 8dbd
00000100: fca9 5bbd 9e12 293d 3b86 f03d 6f00 723b
00000110: 73f9 78bd a35a 14be 339f 31be 2450 33bc
00000120: c3ae 8cbd a35e 183e 0afd fcbd 6795 d23d
00000130: c070 873a 0957 c93b b8ab f43c 7ac8 75bd
00000140: 905c e2bc bd99 0dbd 8c59 783d 2cc1 043d
00000150: c568 a53d 2849 653d 1550 30bd 9cc0 bfbd
00000160: 58aa 833c 7580 2e3d 29a9 603d b581 543d
00000170: d4e4 8fbc 859b cb3d 0fa2 203c 154a bebc
00000180: ac1e aebd c0fe ff3d 4f5b d93c f756 2c3d
00000190: 3602 073b 859d dbbb 8d66 4e3d 8cbf 9d3d
000001a0: 0818 e43d 0eeb af3d 7a35 32be 341b 90bd
000001b0: fde9 af3d f714 7fbd 0f65 7cbd 01d3 1b3e
000001c0: 3c5b 8abd a122 28bd ae9d 833d 5cef 923b
000001d0: 2d7d 283d 3fb4 46bd a5b6 cdbc 47d4 d03d
000001e0: 9879 843c ce7c bfbd 7fa9 f43c 1331 893d
000001f0: 4cc6 abbd ec2d e9bc f545 903b 8b17 c63d
00000200: 6ac1 e53c bc37 a7bd df87 3bbd 09aa 17be
00000210: d66c aabc fb74 6f3d 8bb5 963d 9525 b73c
00000220: 0bbe 94bd 55c2 803d cbc8 28bd f693 a43d
00000230: b8e3 3abd e733 7dbd 7e21 22ba 48e3 4a3b
00000240: 8c07 1d3d 6743 e43d 0fba 003e 6941 3d3d
00000250: ab09 a23c 98ed 343d f0db c33d 8f2d a73d
00000260: 0831 293d ff44 143c 058a a23b a002 fc3c
00000270: 1771 dfbd 1c24 703c a6e4 b2bd bdab 713d
00000280: af42 033d 7df6 b6bc 488b 4b3c 7f3a 25bd
00000290: 4906 a7bc 5bbe 9f3c e2d1 0b3e e6f7 babd
000002a0: 6781 b9bc 934f 5b3d 37f6 183e c54c ab3a
000002b0: 12dd 473d 529e 27bc cd6b d83c 0b9d 0a3c
000002c0: 211b c43d 18b2 60bd 21b1 213e fddf 5ebd
000002d0: 0e93 92bd 4bc6 9cbd f960 083d 86f3 9d3c
000002e0: f0cf c13d 2f5e 85bc cb22 233e 94a7 49be
000002f0: 2e53 bebd 6dac bebd 0444 8b3b bb96 fabc
00000300: eb3c f93c c015 bfbd 786e 80bd 8ddf d4bd
00000310: eb2d e9bc 0808 983d 7874 eb3c 65f9 abbc
00000320: afb0 07be 3742 bb3d cb70 35be 7d69 7c3d
00000330: a585 9f3d b608 8dbd 2b47 72bd 4d26 89bd
00000340: 768b 2c3e 7035 09be 89bd b4bd eb22 d93c
00000350: c838 a2bc 5823 e5bd bbfc ef3c fa03 05bc
00000360: 8fa9 013d 7b82 d53c e6bd 503d d4c2 783d
00000370: b5c8 a13d 966e 183c 39de dd3b 495b 3c3d
00000380: f823 643d d0cd 573d 89ed 473c 769e 023e
00000390: 3aaa 2ebd 16b2 a23d bed6 b3bd f492 623d
000003a0: c499 6fbd e880 c43d 2cfc bf3c ac10 163d
000003b0: 723c d63d cad1 b7bd a96d 1dbd 5bd3 f63d
000003c0: f028 8abd 9ab6 363c 34e1 4cbd fca1 2a3b
000003d0: 6063 d13a 10f9 adbd ba18 cbbd 6e85 d3bb
000003e0: 0a03 663d 4e85 693d a0df 983d acf4 a0bd
000003f0: d66f 583d 396b f2bc a91c f93d f9a5 5cbd

network_body._body_endoder.seq_layers.2.bias f4 [256]
0.054818135 -0.01852279 -0.048976015 0.042969465 0.043643545 -0.031148935 -0.046060517 0.03017779
-0.0348964 -0.052113205 0.043548435 -0.017692314 0.043027103 0.033694986 0.01754094 0.026739884
0.044720147 0.056904238 0.009395735 -0.0558477 0.015360626 -0.0005970117 -0.033193767 -0.043203194
-0.023176482 0.034423493 0.04017073 -0.036884733 -0.039834596 0.03199197 0.049826343 -0.05689928
-0.0304509 -0.032958396 -0.038478564 -0.006398955 0.035470612 0.017237015 -0.008070444 -0.0025365555
0.04224455 0.055181015 0.044068746 -0.026872002 0.026132017 0.028517172 -0.003345252 -0.06543952
0.004010204 -0.041336026 0.02787117 0.03348623 0.009289508 0.025584672 -0.021211462 0.042976327
-0.008382199 0.009887224 0.045996074 -0.052069463 -0.038309287 0.046369214 0.049545493 0.0184019
-0.054318592 -0.038542803 -0.0045676855 -0.051080227 0.037295334 -0.015059036 -0.03496122 0.0035742999
0.04164537 0.043834325 -0.057258382 -0.045467548 -0.036022723 -0.027726168 -0.0320921 -0.010280392
0.04396493 -0.059865918 0.027690541 0.039405793 0.039734926 -0.040150616 0.0013660361 0.026243394
0.018806785 0.047747612 -0.03102778 0.020425452 0.039928105 0.028387403 -0.03557709 0.036492206
0.008012929 -0.037499174 0.010183037 -0.048253864 0.016914248 0.060449418 -0.029527264 0.040935144
0.039555803 0.01510018 0.029927995 0.016874429 0.018751752 0.038656536 -0.05152428 -0.00029151686
-0.048866242 0.008316976 -0.030151486 -0.04585239 0.041471973 0.03401583 0.054689657 0.0222948
0.04793143 -0.046295684 0.0072026434 -0.053652685 -0.038909815 0.0113874115 -0.029675368 -0.056179322
0.012306183 0.047248468 -0.038574487 -0.008610813 0.04400307 0.044669613 -0.07258632 -0.017228397
-0.07116955 0.008073347 -0.0065012616 0.052625827 -0.0008505569 -0.040501 0.04087912 0.03198045
0.045336317 -0.04709376 0.04143982 0.009627398 -0.07323635 -0.034321222 -0.061642047 0.034677368
0.036468897 -0.055537377 -0.033183753 0.019446488 -0.047158588 -0.017761324 0.0034286694 0.023019854
-0.027238864 0.02221059 -0.049572434 0.03154789 0.022316221 -0.05652875 -0.0263583 0.0053125103
-0.031272814 -0.040361933 0.0020292988 -0.047628697 0.020298209 0.04008133 -0.053685572 0.017209506
0.042407136 -0.002418251 -0.0062672896 0.025937488 0.02855179 -0.056286275 0.0109352125 0.051039785
0.040850107 -0.06077144 0.013816502 -0.0061139446 -0.00960224 -0.025898756 0.042611156 -0.06717617
-0.021491243 0.005518548 -0.03893674 -0.07296338 0.0044181584 -0.0109156035 -0.022593863 0.035948653
-0.031221388 0.01914705 -0.011883904 0.027267268 -0.024797104 -0.023246933 -0.021290109 -0.02249317
-0.0049413214 0.024539186 0.024135035 0.047126472 -0.05561221 0.045051917 -0.049792342 0.017190002
-0.04415043 -0.05073409 -0.034672547 0.057570387 -0.052574236 0.049074184 -0.056897506 0.024229536
-0.038429044 0.052495193 -0.06545124 -0.059266545 0.03304152 -0.049151424 -0.06671093 -0.03712229
-0.05858211 -0.0054195067 -0.04454226 -0.051215842 -0.043172 -0.01505693 0.013645909 -0.019501071
-0.050548125 -0.023596428 -0.05303774 -0.037476104 -0.0028830552 0.031243593 0.026880495 0.0375124
-0.012377057 -0.03384291 -0.019297997 -0.055334784 0.039078202 -0.058437552 -0.057516918 0.03285571
00000000: fb88 603d 1bbd 97bc 139b 48bd c000 303d
00000010: 93c3 323d 0d2c ffbc f4a9 3cbd 6a37 f73c
00000020: 87ef 0ebd a874 55bd d85f 323d 79ef 90bc
00000030: 303d 303d c103 0a3d 04b2 8f3c 9a0d db3c
00000040: 792c 373d 6b14 693d 92f0 193c 8fc0 64bd
00000050: 23ab 7b3c c780 1cba 30f6 07bd d5f5 30bd
00000060: 9bdc bdbc a6ff 0c3d 108a 243d 7214 17bd
00000070: 9a29 23bd 030a 033d b516 4c3d 380f 69bd
00000080: 2a74 f9bc 62ff 06bd b39b 1dbd 53ae d1bb
00000090: a249 113d a434 8d3c e539 04bc 573c 26bb
000000a0: 9f08 2d3d 7d05 623d 6e81 343d ac22 dcbc
000000b0: d012 d63c d89c e93c 043c 5bbb 2805 86bd
000000c0: 0868 833b f74f 29bd 1452 e43c db28 093d
000000d0: 0533 183c f296 d13c a9c3 adbc f207 303d
000000e0: 7e55 09bc 06fe 213c 6166 3c3d ca46 55bd
000000f0: 33ea 1cbd a5ed 3d3d 37f0 4a3d 95bf 963c
00000100: 2c7d 5ebd 0fdf 1dbd 86ac 95bb 8039 51bd
00000110: fec2 183d 2dba 76bc 7f33 0fbd cd3e 6a3b
00000120: 5694 2a3d 9f8b 333d c487 6abd 2e3c 3abd
00000130: 908c 13bd fd21 e3bc 0173 03bd 176f 28bc
00000140: 9214 343d f735 75bd 46d7 e23c f867 213d
00000150: 17c1 223d f974 24bd 910c b33a 63fc d63c
00000160: b010 9a3c 0093 433d f92d febc 4753 a73c
00000170: a78b 233d b38c e83c 48b9 11bd da78 153d
00000180: a948 033c bc98 19bd c1d6 263c d8a5 45bd
00000190: c08f 8a3c cf99 773d 29e3 f1bc 9cab 273d
000001a0: 4405 223d bf66 773c 8e2b f53c 3e3c 8a3c
000001b0: 469d 993c 5156 1e3d 200b 53bd bbd6 98b9
000001c0: f827 48bd ed43 083c 4000 f7bc b7cf 3bbd
000001d0: 84de 293d 2f54 0b3d 4302 603d 96a3 b63c
000001e0: bf53 443d 8ba0 3dbd 2704 ec3b ebc2 5bbd
000001f0: e65f 1fbd 4492 3a3c c219 f3bc 4a1c 66bd
00000200: df9f 493c 9c87 413d 4800 1ebd 5e14 0dbc
00000210: 903c 343d 7cf7 363d 23a8 94bd 9122 8dbc
00000220: 57c1 91bd 1246 043c 8908 d5bb 2e8e 573d
00000230: e8f7 5eba 60e4 25bd dd70 273d effd 023d
00000240: 93b2 393d 63e5 40bd cdbc 293d 3cbc 1d3c
00000250: f1fc 95bd 6994 0cbd 5f7c 7cbd db09 0e3d
00000260: 6960 153d 297b 63bd b0eb 07bd 3e4e 9f3c
00000270: 5d29 41bd 3280 91bc 87b3 603b 2294 bc3c
00000280: 0a24 dfbc fcf2 b53c 770c 4bbd 5c38 013d
00000290: 82d0 b63c b18a 67bd 5ded d7bc 9114 ae3b
000002a0: ec17 00bd 8e52 25bd fcfd 043b 4f16 43bd
000002b0: 6e48 a63c 522c 243d 67e5 5bbd f3fa 8c3c
000002c0: 1bb3 2d3d 857b 1ebb d65d cdbb db7a d43c
000002d0: 72e5 e93c 708c 66bd 9b29 333c 180f 513d
000002e0: 7152 273d 79eb 78bd 9c5e 623c 7c57 c8bb
000002f0: b752 1dbc a129 d4bc 0989 2e3d a993 89bd
00000300: 670e b0bc f0d4 b43b 227c 1fbd d36d 95bd
00000310: 33c6 903b 5cd7 32bc c416 b9bc e53e 133d
00000320: ffc3 ffbc 46da 9c3c b5b4 42bc 9b5f df3c
00000330: 4c23 cbbc 5a70 bebc 9868 aebc 9943 b8bc
00000340: cfea a1bb 6706 c93c d6b6 c53c b007 413d
00000350: a1c9 63bd 5c88 383d 0ef3 4bbd 0cd2 8c3c
00000360: 15d7 34bd 8dce 4fbd cd04 0ebd edce 6b3d
00000370: 1558 57bd 0302 493d 5c0d 69bd 057d c63c
00000380: c667 1dbd 3305 573d 4d0b 86bd 7ac1 72bd
00000390: 8b56 073d 0153 49bd bd9f 88bd 8b0d 18bd
000003a0: cbf3 6fbd 1e96 b1bb f271 36bd b4c7 51bd
000003b0: 20d5 30bd 57b1 76bc 1793 5f3c b6c0 9fbc
000003c0: 8d0b 4fbd 4c4d c1bc 1a3e 59bd 8b80 19bd
000003d0: a4f1 3cbb 90f2 ff3c 7c34 dc3c 9aa6 193d
000003e0: 24c9 4abc dd9e 0abd d516 9ebc baa6 62bd
000003f0: 7710 203d 375c 6fbd dc96 6bbd b593 063d

action_model._continuous_distribution.log_sigma f4 [1, 3]
-0.05354757 -0.23766102 -0.12585948
00000000: b254 5bbd 695d 73be 4fe1 00be

action_model._continuous_distribution.mu.weight f4 [3, 256]
0.012798005 -0.013685261 -0.04677597 0.013899036 0.03611816 -0.016106252 0.0012874324 -0.014003175
-0.0038790572 -0.042295136 0.034683947 0.0028543477 0.042063426 0.021720413 0.013480617 0.004256923
0.013197622 0.028121255 -0.0077378126 -0.041522145 0.012200226 0.02493774 -0.016112793 -0.01683236
-0.00483211 0.020710198 0.041548926 0.0039804946 -0.009993451 0.014866375 0.012583006 -0.027410652
-0.01788131 0.008131084 -0.0027176996 0.0094999345 0.01513241 -0.0066236462 -0.0010331388 -0.00077826885
0.012646608 0.048236538 0.025103962 -0.0027984495 0.023137175 0.009128272 -0.014222035 -0.026796054
-0.0033383488 0.010250345 0.012637792 0.017203094 0.015316406 0.010356914 -0.023256851 0.026167165
0.007680769 0.0035602546 0.0131195625 -0.0008946563 -0.04866553 0.020960217 0.010584423 0.0022391286
-0.039496053 -0.01232588 0.029990528 -0.036898695 0.03171064 -0.0051633734 -0.00049269496 -0.0032164252
0.029680649 0.030521443 -0.021932779 -0.055452116 0.0048577148 0.00043826282 0.0121756 -0.014285513
-0.00063143356 -0.030368038 -0.005990856 0.021403417 0.022735374 -0.039626352 0.005722723 0.024537193
0.012856014 0.028568292 -0.03503992 0.00584764 0.016363293 -0.0077416506 -0.026895467 -0.008418981
-0.0135541 -0.015230373 -0.015508079 -0.021928003 0.023593962 0.02615257 0.006949147 0.02106745
0.023680855 0.008182579 0.0082376525 -0.004840658 0.0152808195 0.0016705527 -0.043913137 0.012693897
-0.02064462 0.020318137 0.021312306 -0.018332662 0.043728445 0.021894371 0.005727488 0.0061218855
0.04736566 -0.051424783 0.0030426576 -0.041612104 0.00015815458 0.018128667 -0.028325189 -0.0433552
0.0155949015 0.061153293 -0.025838211 -0.0261321 0.010621237 0.023133261 -0.026475199 0.010527923
-0.0091069285 -0.000255582 0.0209872 0.036783904 -0.003342653 -0.024663778 0.009693773 0.017375998
0.03462904 -0.018004581 0.029998122 0.022053396 -0.02016186 -0.0020284795 -0.01782571 0.020355307
0.024066675 -0.04461113 -0.009521459 -0.007868261 -0.03124099 -0.038660094 0.014215171 0.019941015
-0.022575023 0.007552284 -0.022232441 0.024724651 0.019292224 -0.037632667 -0.006272297 -0.016564587
-0.020257305 -0.034240786 0.045594003 -0.028786771 -0.001291153 0.03373792 -0.04764648 0.036201667
0.010862194 0.0068847183 -0.013957753 0.027734445 0.02806203 -0.034903914 -0.004363285 0.023783958
0.019945042 -0.042738657 0.030166842 0.0027589505 0.020957533 -0.01662612 0.021252856 -0.025553461
0.002589837 0.0019487824 0.0016661732 -0.013371416 -0.004755551 0.007057557 0.009844459 0.0051565813
0.00045883437 0.017907953 0.011551322 -0.001911637 -0.027852207 0.025801335 -0.02126311 -0.007314078
0.012943349 0.026828779 0.0041465643 0.0073969215 -0.017106028 0.016729942 -0.025247727 0.0029154837
-0.026911048 -0.011676026 0.001707009 0.02610983 -0.056630276 0.032725126 -0.025293712 0.022667494
-0.02488997 0.025753932 -0.030557778 -0.0257513 0.006215443 -0.03330335 -0.0408409 -0.018693183
-0.033242393 0.03357196 -0.0124532925 -0.01956605 -0.046263836 -0.015714012 0.021542171 -0.027770402
-0.043529343 0.0042164447 -0.0053137327 -0.009492236 0.004897429 0.017814972 0.008806068 0.0071531264
-0.0042083333 -0.0057685263 0.022324877 -0.01890162 0.02601844 -0.02411437 -0.0012821198 0.026780253
00000000: b9ae 513c 2538 60bc 2998 3fbd c8b8 633c
00000010: a3f0 133d 42f1 83bc 10bf a83a 936d 65bc
00000020: c837 7ebb aa3d 2dbd c110 0e3d 0210 3b3b
00000030: b34a 2c3d 02ef b13c cedd 5c3c a97d 8b3b
00000040: d73a 583c 8c5e e63c 7a8d fdbb 2013 2abd
00000050: 75e3 473c 3b4a cc3c fafe 83bc 04e4 89bc
00000060: ad56 9ebb 6fa8 a93c 352f 2a3d cf6e 823b
00000070: 92bb 23bc 1992 733c f428 4e3c 4e8c e0bc
00000080: d37b 92bc 3d38 053c 6f1b 32bb 9da5 1b3c
00000090: eeed 773c 2c0b d9bb 636a 87ba bd04 4cba
000000a0: b833 4f3c ad93 453d d3a6 cd3c 3166 37bb
000000b0: 2c8a bd3c bf8e 153c 8a03 69bc 6683 dbbc
000000c0: 33c8 5abb 10f1 273c be0e 4f3c 81ed 8c3c
000000d0: aaf1 7a3c 0cb0 293c 2785 bebc 865c d63c
000000e0: f6ae fb3b 2953 693b 6ff3 563c 5e87 6aba
000000f0: 8255 47bd c3b4 ab3c 4a6a 2d3c 58be 123b
00000100: 9dc6 21bd 7df2 49bc b2ae f53c 1623 17bd
00000110: 04e3 013d 8431 a9bb 3328 01ba a9ca 52bb
00000120: d524 f33c 1b08 fa3c 5fac b3bc c221 63bd
00000130: 772d 9f3b a4c6 e539 2b7c 473c c90d 6abc
00000140: ca86 25ba 64c6 f8bc f14e c4bb 3856 af3c
00000150: 893f ba3c 3e4f 22bd ae85 bb3b 3902 c93c
00000160: 08a2 523c 0d08 ea3c 0586 0fbd 8f9d bf3b
00000170: 500c 863c acad fdbb e253 dcbc c4ef 09bc
00000180: 0412 5ebc d088 79bc 9915 7ebc 5ba2 b3bc
00000190: 2048 c13c ea3d d63c acb5 e33b a595 ac3c
000001a0: 5afe c13c 3910 063c 38f7 063c 629e 9ebb
000001b0: 675c 7a3c 72f6 da3a 43de 33bd 10fa 4f3c
000001c0: e81e a9bc 3972 a63c 2597 ae3c 612e 96bc
000001d0: 991c 333d d35b b33c a7ad bb3b 199a c83b
000001e0: 7f02 423d cba2 52bd 5367 473b 7471 2abd
000001f0: 4cd6 2539 9282 943c 3a0a e8bc 3995 31bd
00000200: c281 7f3c e07b 7a3d a8aa d3bc fc12 d6bc
00000210: b204 2e3c f781 bd3c 84e2 d8bc 4f7d 2c3c
00000220: 3a35 15bc a3ff 85b9 59ed ab3c b8aa 163d
00000230: 6910 5bbb b10b cabc a2d2 1e3c 1c58 8e3c
00000240: 2ed7 0d3d 587e 93bc 9fbe f53c 53a9 b43c
00000250: 7c2a a5bc 3df0 04bb 3907 92bc 2cc0 a63c
00000260: 7a27 c53c 29ba 36bd e5ff 1bbc e1e9 00bc
00000270: 1bed ffbc 0c5a 1ebd c0e6 683c 575b a33c
00000280: 41ef b8bc 2679 f73b cf20 b6bc 5a8b ca3c
00000290: ba0a 9e3c b624 1abd d787 cdbb 75b2 87bc
000002a0: a6f2 a5bc 1140 0cbd c7c0 3a3d 3cd2 ebbc
000002b0: e83b a9ba c630 0a3d f528 43bd 3348 143d
000002c0: 58f7 313c 3499 e13b 0faf 64bc 5933 e33c
000002d0: 58e2 e53c 68f7 0ebd e3f9 8ebb 93d6 c23c
000002e0: c963 a33c bb0e 2fbd 7420 f73c 82cf 343b
000002f0: 22af ab3c 8033 88bc 781a ae3c 7e55 d1bc
00000300: 41ba 293b 496e ff3a 7f63 da3a c913 5bbc
00000310: 74d4 9bbb 1443 e73b a74a 213c 8af8 a83b
00000320: b58f f039 b3b3 923c c241 3d3c e58f faba
00000330: 502a e4bc 525d d33c f92f aebc efaa efbb
00000340: 5710 543c 07c8 db3c e7df 873b e061 f23b
00000350: f121 8cbc 3b0d 893c 52d4 cebc b311 3f3b
00000360: 8f74 dcbc cd4c 3fbc b8bd df3a 48e4 d53c
00000370: 26f5 67bd c80a 063d c234 cfbc 2eb1 b93c
00000380: 0de6 cbbc e9f9 d23c 4e54 fabc 64f4 d2bc
00000390: eaaa cb3b 1869 08bd ca48 27bd 7222 99bc
000003a0: 2d29 08bd c082 093d e508 4cbc fb48 a0bc
000003b0: 267f 3dbd acba 80bc 3579 b03c c17e e3bc
000003c0: d34b 32bd 1a2a 8a3b d21e aebb 5385 1bbc
000003d0: 9d7a a03b b4f0 913c 5447 103c c664 ea3b
000003e0: 0fe6 89bb e805 bdbb a9e2 b63c 92d7 9abc
000003f0: a024 d53c 808b c5bc cd0c a8ba 4362 db3c

action_model._continuous_distribution.mu.bias f4 [3]
0.035512906 0.004845526 -0.054603767
00000000: fb75 113d 38c7 9e3b 33a8 5fbd

onnx::Div_61 f4 [68]
0.37790757 0.11457984 0.38904065 0.18649578 0.42671344 0.11821531 0.43505993 0.20101833
0.49830756 0.13381888 0.49947903 0.21976039 0.48848432 0.1177469 0.48519894 0.24639009
0.37871534 0.15649836 0.35551488 0.23077002 0.28786686 0.11434863 0.2680613 0.21760766
0.23636815 0.17085434 0.16864887 0.18181902 0.17464153 0.106374025 0.14015387 0.16645624
0.19565895 0.17938283 0.08088672 0.13838658 0.15793148 0.09724515 0.1256669 0.14510459
0.19029352 0.18358433 0.051935624 0.10865068 0.16358143 0.09084223 0.13720793 0.13810998
0.19630909 0.18964362 0.052734297 0.09459135 0.1621318 0.08717993 0.13777845 0.1302287
0.19991791 0.19385852 0.050883316 0.08437243 0.14767206 0.08349767 0.12267767 0.11769932
0.20530593 0.20172194 0.039931346 0.07630995
00000000: 1a7d c13e d6a8 ea3d 5630 c73e c0f8 3e3e
00000010: 2f7a da3e de1a f23d 2dc0 de3e c0d7 4d3e
00000020: 2b22 ff3e d107 093e b7bb ff3e de08 613e
00000030: 9e1a fa3e 4925 f13d ff6b f83e af4d 7c3e
00000040: fae6 c13e 1b41 203e 0c06 b63e fa4e 6c3e
00000050: 4963 933e 9d2f ea3d 553f 893e 8bd4 5e3e
00000060: 7e0a 723e 71f4 2e3e 4ab2 2c3e c42e 3a3e
00000070: 3bd5 323e a0da d93d 7f84 0f3e 8173 2a3e
00000080: d25a 483e 22b0 373e f0a7 a53d 36b5 0d3e
00000090: cab8 213e 7728 c73d d3ae 003e 4c96 143e
000000a0: 4edc 423e 88fd 3b3e 73ba 543d 3f84 de3d
000000b0: e481 273e 7e0b ba3d 3c80 0c3e b46c 0d3e
000000c0: 4005 493e f031 423e ebff 573d 1cb9 c13d
000000d0: e105 263e 648b b23d cb15 0d3e ac5a 053e
000000e0: 48b7 4c3e d982 463e 066b 503d 74cb ac3d
000000f0: 5837 173e d400 ab3d 6e3e fb3d 570c f13d
00000100: b83b 523e 3290 4e3e 0d8f 233d 6448 9c3d

onnx::Div_64 f4 [6]
0.23562919 0.13249362 0.33993393 0.2887923 0.08715094 0.102059275
00000000: c748 713e 68ac 073e d20b ae3e 96dc 933e
00000010: 317c b23d 7404 d13d
