results/testRun/Car/Car-9176.pt (torch, 637987 bytes, 29 tensors)

network_body.observation_encoder.processors.0.normalizer.running_mean f4 [36]
000000 a6 fa bf 3e 00 00 00 00 88 fb 1f 3f 49 ba 5c 3f
       0.37495917 0.0 0.6249318 0.8622175
000010 68 84 7d 3f 00 00 00 00 fd 1b 1d 3c 5a f4 29 3f
       0.9903016 0.0 0.009589192 0.66388476
000020 66 0b 56 3f 00 00 00 00 ab b5 27 3e c3 c4 49 3f
       0.8361114 0.0 0.16377895 0.7881586
000030 ac 25 61 3f 00 00 00 00 7d 99 f6 3d f6 15 e1 3e
       0.8794811 0.0 0.12040994 0.43962067
000040 e2 9e 40 3f 00 00 00 00 f1 67 7d 3e a1 d9 0c 3f
       0.75242436 0.0 0.24746682 0.55019575
000050 39 42 7e 3f 00 00 00 00 87 cf d9 3b 33 23 95 3e
       0.993198 0.0 0.0066470536 0.29128417
000060 3e f5 7f 3f 00 00 00 00 00 00 00 00 90 49 9d 3e
       0.99983585 0.0 0.0 0.30720186
000070 3e f5 7f 3f 00 00 00 00 00 00 00 00 e1 fb 70 3e
       0.99983585 0.0 0.0 0.23533584
000080 3e f5 7f 3f 00 00 00 00 00 00 00 00 ef 60 80 3e
       0.99983585 0.0 0.0 0.25073954

network_body.observation_encoder.processors.0.normalizer.running_variance f4 [36]
000000 78 7c 06 45 00 00 80 3f 04 80 06 45 68 f0 96 43
       2151.7793 1.0 2152.001 301.87817
000010 08 46 b2 42 00 00 80 3f ef 4f b0 42 97 cb 86 43
       89.13678 1.0 88.15612 269.59055
000020 67 50 9d 44 00 00 80 3f e4 3a 9d 44 d3 70 99 43
       1258.5126 1.0 1257.8403 306.88144
000030 45 6d 73 44 00 00 80 3f 90 3c 73 44 7e df cd 43
       973.70734 1.0 972.9463 411.74603
000040 61 d0 d5 44 00 00 80 3f 0d c0 d5 44 d7 1e 20 44
       1710.5118 1.0 1710.0016 640.4819
000050 30 4d 7a 42 00 00 80 3f d3 60 76 42 98 88 58 42
       62.57538 1.0 61.594555 54.133392
000060 e9 f8 ff 3f 00 00 80 3f 00 00 80 3f 89 b6 94 41
       1.9997836 1.0 1.0 18.589128
000070 e9 f8 ff 3f 00 00 80 3f 00 00 80 3f fd 1c 80 40
       1.9997836 1.0 1.0 4.0035386
000080 e9 f8 ff 3f 00 00 80 3f 00 00 80 3f b2 2f 81 40
       1.9997836 1.0 1.0 4.037072

network_body.observation_encoder.processors.1.normalizer.running_mean f4 [7]
000000 b0 a2 41 bd e1 83 6f 3d af a2 20 3f f2 28 32 40
       -0.04727429 0.05847538 0.62748235 2.783749
000010 73 fa b4 b7 24 12 84 36 b0 e0 01 3b
       -2.1574297e-05 3.9360184e-06 0.0019817762

network_body.observation_encoder.processors.1.normalizer.running_variance f4 [7]
000000 87 04 d8 44 11 ea ef 42 d5 1b 65 45 b0 97 c8 46
       1728.1415 119.95716 3665.7395 25675.844
000010 39 4a 81 3f fa 01 80 3f 9b 88 17 40
       1.0100776 1.0000603 2.3677127

network_body.processors.0.normalizer.running_mean f4 [36]
000000 a6 fa bf 3e 00 00 00 00 88 fb 1f 3f 49 ba 5c 3f
       0.37495917 0.0 0.6249318 0.8622175
000010 68 84 7d 3f 00 00 00 00 fd 1b 1d 3c 5a f4 29 3f
       0.9903016 0.0 0.009589192 0.66388476
000020 66 0b 56 3f 00 00 00 00 ab b5 27 3e c3 c4 49 3f
       0.8361114 0.0 0.16377895 0.7881586
000030 ac 25 61 3f 00 00 00 00 7d 99 f6 3d f6 15 e1 3e
       0.8794811 0.0 0.12040994 0.43962067
000040 e2 9e 40 3f 00 00 00 00 f1 67 7d 3e a1 d9 0c 3f
       0.75242436 0.0 0.24746682 0.55019575
000050 39 42 7e 3f 00 00 00 00 87 cf d9 3b 33 23 95 3e
       0.993198 0.0 0.0066470536 0.29128417
000060 3e f5 7f 3f 00 00 00 00 00 00 00 00 90 49 9d 3e
       0.99983585 0.0 0.0 0.30720186
000070 3e f5 7f 3f 00 00 00 00 00 00 00 00 e1 fb 70 3e
       0.99983585 0.0 0.0 0.23533584
000080 3e f5 7f 3f 00 00 00 00 00 00 00 00 ef 60 80 3e
       0.99983585 0.0 0.0 0.25073954

network_body.processors.0.normalizer.running_variance f4 [36]
000000 78 7c 06 45 00 00 80 3f 04 80 06 45 68 f0 96 43
       2151.7793 1.0 2152.001 301.87817
000010 08 46 b2 42 00 00 80 3f ef 4f b0 42 97 cb 86 43
       89.13678 1.0 88.15612 269.59055
000020 67 50 9d 44 00 00 80 3f e4 3a 9d 44 d3 70 99 43
       1258.5126 1.0 1257.8403 306.88144
000030 45 6d 73 44 00 00 80 3f 90 3c 73 44 7e df cd 43
       973.70734 1.0 972.9463 411.74603
000040 61 d0 d5 44 00 00 80 3f 0d c0 d5 44 d7 1e 20 44
       1710.5118 1.0 1710.0016 640.4819
000050 30 4d 7a 42 00 00 80 3f d3 60 76 42 98 88 58 42
       62.57538 1.0 61.594555 54.133392
000060 e9 f8 ff 3f 00 00 80 3f 00 00 80 3f 89 b6 94 41
       1.9997836 1.0 1.0 18.589128
000070 e9 f8 ff 3f 00 00 80 3f 00 00 80 3f fd 1c 80 40
       1.9997836 1.0 1.0 4.0035386
000080 e9 f8 ff 3f 00 00 80 3f 00 00 80 3f b2 2f 81 40
       1.9997836 1.0 1.0 4.037072

network_body.processors.1.normalizer.running_mean f4 [7]
000000 b0 a2 41 bd e1 83 6f 3d af a2 20 3f f2 28 32 40
       -0.04727429 0.05847538 0.62748235 2.783749
000010 73 fa b4 b7 24 12 84 36 b0 e0 01 3b
       -2.1574297e-05 3.9360184e-06 0.0019817762

network_body.processors.1.normalizer.running_variance f4 [7]
000000 87 04 d8 44 11 ea ef 42 d5 1b 65 45 b0 97 c8 46
       1728.1415 119.95716 3665.7395 25675.844
000010 39 4a 81 3f fa 01 80 3f 9b 88 17 40
       1.0100776 1.0000603 2.3677127

network_body._body_endoder.seq_layers.0.weight f4 [256, 43]
000000 33 94 2a 3d 6d a0 03 be c7 97 52 3e 19 53 10 3c
       0.04164524 -0.12854166 0.20565711 0.0088088745
000010 09 a5 af bd 0c 5c c3 be f1 38 a3 3e d9 c0 fc 3c
       -0.085764 -0.38156164 0.3187938 0.030853676
000020 4d 4a bc 3d 71 5d 94 3d 1e 9a a8 bd f9 0b 06 3d
       0.09193859 0.07244385 -0.082325205 0.03272626
000030 c6 07 09 3f 35 c9 aa bd de e5 8a be 50 71 dd 3d
       0.53527486 -0.083391584 -0.271285 0.10812628
000040 74 6e 49 be 4e 7b ea 3b 23 62 5e 3d 4d 83 8b bd
       -0.19671041 0.0071558123 0.05429281 -0.06812153
000050 f5 92 b6 bd 19 8e 49 be 1d 0f b5 bd d8 05 29 3e
       -0.089147486 -0.19683112 -0.08840773 0.16506135
000060 7c 0c 6d 3a 7e 4d 6a 3e 41 0f 6b be c7 69 58 3e
       0.0009042693 0.22881123 -0.22955038 0.21134101
000070 4d ea ba 3c cc 47 84 3e ca eb 8d 3d 46 b9 1c 3c
       0.022816801 0.25836027 0.06929739 0.009565657
000080 e6 4c 84 3d ab 18 89 be 38 c5 f1 bd ec 75 af b8
       0.0645998 -0.26776633 -0.118051946 -8.366615e-05
000090 c8 ae 11 be 94 27 26 be f6 c8 a7 3c 22 ca 9d bd
       -0.1422683 -0.16226035 0.020481568 -0.077045694
0000a0 1c 20 4f 3d 0c b6 a0 bb b2 49 56 3e 7d bd 29 be
       0.05056773 -0.004904514 0.2092655 -0.1657619
0000b0 18 2c be 3d 31 9f 87 be ae 90 03 3d 52 6b 0d be
       0.09285754 -0.2648864 0.0321204 -0.1381047
0000c0 b4 1a a5 3d b0 42 b6 3d b7 14 1a be 99 c3 0d be
       0.08061734 0.088994384 -0.15046965 -0.13844146
0000d0 12 a5 a1 3d b0 5c 41 3e a4 a0 4d 3d ed 91 fa 3d
       0.07892813 0.18883014 0.050202027 0.122348644
0000e0 83 cb ec 3d 1d 2b 05 3e 02 04 81 bd 45 d5 b7 bd
       0.11562254 0.13004728 -0.062995926 -0.08976225
0000f0 a8 ee 2e be 04 1a 13 be e8 6e 28 be fb 4d b4 bd
       -0.17083228 -0.14365393 -0.16448557 -0.08803936
000100 c3 73 4f 3d 35 6d e1 bd 22 49 55 3c ea 1f 02 bd
       0.05064751 -0.11007158 0.0130179245 -0.031768717
000110 6c 80 55 bd 13 7f 3a be 88 8b b3 3c 75 0a 29 3d
       -0.052124426 -0.18212537 0.02191712 0.04126974
000120 10 55 79 bd 90 97 2d bc 9c 9d 4c bc a1 b5 5b 3c
       -0.060872138 -0.010595217 -0.012488749 0.013410003
000130 c1 28 b7 bd a8 12 8c 3d 3c 54 3e be 69 74 42 3d
       -0.0894332 0.06839496 -0.1858682 0.0474743
000140 ab ae 94 be b2 9c 25 3e 64 e6 36 3b ec 2c 92 3d
       -0.2903951 0.16173056 0.002790832 0.071374744
000150 70 99 0b be 23 c2 1d 3e 88 a7 0c 3e d6 2f bf 3d
       -0.1363275 0.15406089 0.13735783 0.09335296
000160 72 ba e4 3e 41 7d 85 3e 6e f2 b4 3e 5b ba 29 be
       0.44673496 0.26072124 0.3534121 -0.16574995
000170 1f ff 6a 3e fa 57 bb bc 55 ad 46 be 46 42 58 3e
       0.22948883 -0.022869099 -0.19402058 0.21119031
000180 ca 6f 52 bd d5 5c e3 bd 1d 50 30 3e 30 88 4f 3e
       -0.05137614 -0.11101691 0.17218061 0.20266795
000190 54 45 d3 3d 54 f3 a4 3b 1e ac ea 3d 63 00 5a bd
       0.10315958 0.00503389 0.1145861 -0.053223025
0001a0 d4 91 26 3f d0 b6 53 be 1a 29 41 3e 82 f1 1f be
       0.65066266 -0.20675206 0.18863335 -0.15619472
0001b0 be fa 0f bc 5a bb 5b 3d 42 eb 8f be 61 82 c5 3d
       -0.008787809 0.05364547 -0.28109175 0.096440084
0001c0 f6 8d 4f be 19 08 0a 3d 71 53 a0 bd 08 c2 de 3d
       -0.20268998 0.03369913 -0.07828415 0.10876852
0001d0 78 ee a7 bc ea 21 7f 3d 68 51 44 3d bb 4e 9e bd
       -0.020499453 0.062288202 0.047929198 -0.077298604
0001e0 ad ae d2 bd 8c 78 c8 b8 57 e0 76 3d 06 69 c2 bd
       -0.10287223 -9.559197e-05 0.06027254 -0.09492688
0001f0 8a fb 09 bd 43 1b b1 bd ae 91 30 3e aa b7 47 bd
       -0.033687152 -0.08647778 0.17243072 -0.04875914
000200 f9 3b a2 3c 04 97 d4 bd bf 01 3c bd 36 95 03 3d
       0.019803988 -0.103803664 -0.045900103 0.03212472
000210 17 dc 81 bc 0a d1 0e 3e 2e 57 34 bd f8 18 3e be
       -0.015852017 0.1394693 -0.044028454 -0.18564212
000220 16 3d a6 bc 1c 27 ea bd 07 68 62 be 7a 2d 99 3d
       -0.0202928 -0.11433241 -0.22109996 0.07479377
000230 15 e4 19 3e e7 0f 27 be b7 56 5d be d9 f9 cc bd
       0.15028413 -0.1631466 -0.2161511 -0.10008592
000240 e3 d5 af 3d f7 08 d5 bc 18 f5 6a 3e c9 98 67 3d
       0.085857175 -0.026005251 0.22945058 0.05654219
000250 27 b2 62 3d 32 48 d8 3c eb fb 64 be e2 0d 2b 3d
       0.05534568 0.026401613 -0.22361724 0.041761287
000260 c7 97 d6 3d 9a 9b 88 3e 53 cf 93 be df e6 25 be
       0.10478168 0.26681215 -0.28869113 -0.16201352
000270 6a c7 38 3d e1 a5 92 be e5 6d 21 be 5e 82 92 be
       0.04511205 -0.2864218 -0.15764578 -0.28615087
000280 d0 5f e8 bd 3c e1 f5 3d d5 fd d9 bb fb 7c 4c 3e
       -0.113464 0.12005851 -0.0066525736 0.19969551
000290 d6 b1 e4 3d b1 c2 d2 bd a7 9b b5 bd 93 cd 0c 3e
       0.11166732 -0.10291041 -0.08867579 0.13750295
0002a0 71 d7 f7 3c d4 4e 42 3e 84 f7 f1 3d 6c 9d 07 3d
       0.030254098 0.18975383 0.11814788 0.033109114
0002b0 38 0a 55 bd c3 58 0a 3d f2 e8 aa bc 06 93 bd 3d
       -0.0520117 0.033776056 -0.02086303 0.09256558
0002c0 83 09 69 3e c9 ed d4 3d 21 0e e3 be 74 82 96 bb
       0.22757535 0.103969164 -0.44346717 -0.004593188
0002d0 02 f6 77 be 3f 15 11 3e 72 4b 73 3e 6a c7 b4 bd
       -0.24214938 0.14168261 0.23759249 -0.08827098
0002e0 35 b9 18 be f0 ff 22 3d 10 ae cf 3d 5a 52 99 be
       -0.14914401 0.039794862 0.10140622 -0.29945642
0002f0 e5 3e 3c bd 3f a1 95 bd 17 9f 32 3e 09 50 2f bb
       -0.04595842 -0.07306146 0.174435 -0.0026750586
000300 56 fb 98 3d 83 10 d5 bc f8 90 bc be b8 8b 0e be
       0.074698135 -0.02600885 -0.36829352 -0.13920486
000310 25 e1 b0 bd db b2 04 3e 83 02 ad bd be c0 c9 bd
       -0.08636693 0.12958853 -0.08447745 -0.09851216
000320 87 74 e9 bd 46 27 19 be b4 b2 b7 bd 8c 7a ce bd
       -0.11399179 -0.14956388 -0.08969632 -0.10081968
000330 df 11 15 be e3 a4 4f be 0a 4f 3f 3e 76 63 f9 bd
       -0.14557599 -0.20277743 0.18682495 -0.12177174
000340 e5 35 64 3d d8 e3 cd 3d fc ee 8e 3d b2 fd 4b bd
       0.05571546 0.10053223 0.069791764 -0.04980249
000350 b8 06 02 3e df 2a 8d 3d 4d 05 78 3d fb 1c ee 3d
       0.12697875 0.06892943 0.06055193 0.11626621
000360 23 02 cc bd 4c 73 86 3e 1f f0 f0 bc 14 ba 10 be
       -0.09961345 0.2625984 -0.029411374 -0.14133483
000370 79 81 81 be c1 c9 18 bd 36 4a e3 3d b9 9d b6 3c
       -0.25294092 -0.037301783 0.11098139 0.022292005
000380 fe 76 9d 3b 90 91 3b be ac cc 4e 3c b8 d3 13 3c
       0.0048054447 -0.18317246 0.01262204 0.009022646
000390 88 e1 af 3d 65 a6 3f bb e8 6a 4a bc 30 70 35 be
       0.085879385 -0.0029243466 -0.01235459 -0.17718577
0003a0 49 28 07 3e fc 46 a0 3e f9 cc e6 3b 46 6a 56 bd
       0.13198961 0.31304157 0.0070434776 -0.052347444
0003b0 bd 85 09 be c2 2e ca 3e 0d a8 b2 bd 42 31 33 bd
       -0.13429923 0.39488798 -0.087234594 -0.043748148
0003c0 b3 9f ac be 62 49 d2 3d 95 bd c2 3d 64 22 4e be
       -0.3371559 0.10267903 0.09508816 -0.20130306
0003d0 01 ea 91 3d ef 64 b7 bd 76 9f 5d bc c8 1c 1b be
       0.07124711 -0.089547984 -0.013526788 -0.15147698
0003e0 d4 70 a1 bd 1d 0e 9e bd 28 3e f4 3d 87 ff 5d 3e
       -0.078828484 -0.07717536 0.11925918 0.21679507
0003f0 ec 28 98 bd 92 9b 69 3e df 2d 9b 3e 9f 4f 41 3e
       -0.0742968 0.22813252 0.30308434 0.1887803

network_body._body_endoder.seq_layers.0.bias f4 [256]
000000 00 00 00 00 00 00 00 00 00 00 00 00 00 00 00 00
       0.0 0.0 0.0 0.0
000010 00 00 00 00 00 00 00 00 00 00 00 00 00 00 00 00
       0.0 0.0 0.0 0.0
000020 00 00 00 00 00 00 00 00 00 00 00 00 00 00 00 00
       0.0 0.0 0.0 0.0
000030 00 00 00 00 00 00 00 00 00 00 00 00 00 00 00 00
       0.0 0.0 0.0 0.0
000040 00 00 00 00 00 00 00 00 00 00 00 00 00 00 00 00
       0.0 0.0 0.0 0.0
000050 00 00 00 00 00 00 00 00 00 00 00 00 00 00 00 00
       0.0 0.0 0.0 0.0
000060 00 00 00 00 00 00 00 00 00 00 00 00 00 00 00 00
       0.0 0.0 0.0 0.0
000070 00 00 00 00 00 00 00 00 00 00 00 00 00 00 00 00
       0.0 0.0 0.0 0.0
000080 00 00 00 00 00 00 00 00 00 00 00 00 00 00 00 00
       0.0 0.0 0.0 0.0
000090 00 00 00 00 00 00 00 00 00 00 00 00 00 00 00 00
       0.0 0.0 0.0 0.0
0000a0 00 00 00 00 00 00 00 00 00 00 00 00 00 00 00 00
       0.0 0.0 0.0 0.0
0000b0 00 00 00 00 00 00 00 00 00 00 00 00 00 00 00 00
       0.0 0.0 0.0 0.0
0000c0 00 00 00 00 00 00 00 00 00 00 00 00 00 00 00 00
       0.0 0.0 0.0 0.0
0000d0 00 00 00 00 00 00 00 00 00 00 00 00 00 00 00 00
       0.0 0.0 0.0 0.0
0000e0 00 00 00 00 00 00 00 00 00 00 00 00 00 00 00 00
       0.0 0.0 0.0 0.0
0000f0 00 00 00 00 00 00 00 00 00 00 00 00 00 00 00 00
       0.0 0.0 0.0 0.0
000100 00 00 00 00 00 00 00 00 00 00 00 00 00 00 00 00
       0.0 0.0 0.0 0.0
000110 00 00 00 00 00 00 00 00 00 00 00 00 00 00 00 00
       0.0 0.0 0.0 0.0
000120 00 00 00 00 00 00 00 00 00 00 00 00 00 00 00 00
       0.0 0.0 0.0 0.0
000130 00 00 00 00 00 00 00 00 00 00 00 00 00 00 00 00
       0.0 0.0 0.0 0.0
000140 00 00 00 00 00 00 00 00 00 00 00 00 00 00 00 00
       0.0 0.0 0.0 0.0
000150 00 00 00 00 00 00 00 00 00 00 00 00 00 00 00 00
       0.0 0.0 0.0 0.0
000160 00 00 00 00 00 00 00 00 00 00 00 00 00 00 00 00
       0.0 0.0 0.0 0.0
000170 00 00 00 00 00 00 00 00 00 00 00 00 00 00 00 00
       0.0 0.0 0.0 0.0
000180 00 00 00 00 00 00 00 00 00 00 00 00 00 00 00 00
       0.0 0.0 0.0 0.0
000190 00 00 00 00 00 00 00 00 00 00 00 00 00 00 00 00
       0.0 0.0 0.0 0.0
0001a0 00 00 00 00 00 00 00 00 00 00 00 00 00 00 00 00
       0.0 0.0 0.0 0.0
0001b0 00 00 00 00 00 00 00 00 00 00 00 00 00 00 00 00
       0.0 0.0 0.0 0.0
0001c0 00 00 00 00 00 00 00 00 00 00 00 00 00 00 00 00
       0.0 0.0 0.0 0.0
0001d0 00 00 00 00 00 00 00 00 00 00 00 00 00 00 00 00
       0.0 0.0 0.0 0.0
0001e0 00 00 00 00 00 00 00 00 00 00 00 00 00 00 00 00
       0.0 0.0 0.0 0.0
0001f0 00 00 00 00 00 00 00 00 00 00 00 00 00 00 00 00
       0.0 0.0 0.0 0.0
000200 00 00 00 00 00 00 00 00 00 00 00 00 00 00 00 00
       0.0 0.0 0.0 0.0
000210 00 00 00 00 00 00 00 00 00 00 00 00 00 00 00 00
       0.0 0.0 0.0 0.0
000220 00 00 00 00 00 00 00 00 00 00 00 00 00 00 00 00
       0.0 0.0 0.0 0.0
000230 00 00 00 00 00 00 00 00 00 00 00 00 00 00 00 00
       0.0 0.0 0.0 0.0
000240 00 00 00 00 00 00 00 00 00 00 00 00 00 00 00 00
       0.0 0.0 0.0 0.0
000250 00 00 00 00 00 00 00 00 00 00 00 00 00 00 00 00
       0.0 0.0 0.0 0.0
000260 00 00 00 00 00 00 00 00 00 00 00 00 00 00 00 00
       0.0 0.0 0.0 0.0
000270 00 00 00 00 00 00 00 00 00 00 00 00 00 00 00 00
       0.0 0.0 0.0 0.0
000280 00 00 00 00 00 00 00 00 00 00 00 00 00 00 00 00
       0.0 0.0 0.0 0.0
000290 00 00 00 00 00 00 00 00 00 00 00 00 00 00 00 00
       0.0 0.0 0.0 0.0
0002a0 00 00 00 00 00 00 00 00 00 00 00 00 00 00 00 00
       0.0 0.0 0.0 0.0
0002b0 00 00 00 00 00 00 00 00 00 00 00 00 00 00 00 00
       0.0 0.0 0.0 0.0
0002c0 00 00 00 00 00 00 00 00 00 00 00 00 00 00 00 00
       0.0 0.0 0.0 0.0
0002d0 00 00 00 00 00 00 00 00 00 00 00 00 00 00 00 00
       0.0 0.0 0.0 0.0
0002e0 00 00 00 00 00 00 00 00 00 00 00 00 00 00 00 00
       0.0 0.0 0.0 0.0
0002f0 00 00 00 00 00 00 00 00 00 00 00 00 00 00 00 00
       0.0 0.0 0.0 0.0
000300 00 00 00 00 00 00 00 00 00 00 00 00 00 00 00 00
       0.0 0.0 0.0 0.0
000310 00 00 00 00 00 00 00 00 00 00 00 00 00 00 00 00
       0.0 0.0 0.0 0.0
000320 00 00 00 00 00 00 00 00 00 00 00 00 00 00 00 00
       0.0 0.0 0.0 0.0
000330 00 00 00 00 00 00 00 00 00 00 00 00 00 00 00 00
       0.0 0.0 0.0 0.0
000340 00 00 00 00 00 00 00 00 00 00 00 00 00 00 00 00
       0.0 0.0 0.0 0.0
000350 00 00 00 00 00 00 00 00 00 00 00 00 00 00 00 00
       0.0 0.0 0.0 0.0
000360 00 00 00 00 00 00 00 00 00 00 00 00 00 00 00 00
       0.0 0.0 0.0 0.0
000370 00 00 00 00 00 00 00 00 00 00 00 00 00 00 00 00
       0.0 0.0 0.0 0.0
000380 00 00 00 00 00 00 00 00 00 00 00 00 00 00 00 00
       0.0 0.0 0.0 0.0
000390 00 00 00 00 00 00 00 00 00 00 00 00 00 00 00 00
       0.0 0.0 0.0 0.0
0003a0 00 00 00 00 00 00 00 00 00 00 00 00 00 00 00 00
       0.0 0.0 0.0 0.0
0003b0 00 00 00 00 00 00 00 00 00 00 00 00 00 00 00 00
       0.0 0.0 0.0 0.0
0003c0 00 00 00 00 00 00 00 00 00 00 00 00 00 00 00 00
       0.0 0.0 0.0 0.0
0003d0 00 00 00 00 00 00 00 00 00 00 00 00 00 00 00 00
       0.0 0.0 0.0 0.0
0003e0 00 00 00 00 00 00 00 00 00 00 00 00 00 00 00 00
       0.0 0.0 0.0 0.0
0003f0 00 00 00 00 00 00 00 00 00 00 00 00 00 00 00 00
       0.0 0.0 0.0 0.0

network_body._body_endoder.seq_layers.2.weight f4 [256, 256]
000000 5a cc 6c 3d ba 1c 8b bb fb d8 94 bd 6a 11 44 bd
       0.057812072 -0.004245368 -0.07267948 -0.04786817
000010 a4 4e 07 be 0b b5 1a 3c ca 86 97 3c 53 af a0 bd
       -0.13213593 0.009442578 0.01849689 -0.078459404
000020 ae be d8 bd 71 02 5d bd 2b ef f7 bc 84 4e 1a 3e
       -0.10583244 -0.053957406 -0.030265411 0.15069014
000030 dc 12 9b bd 11 c8 e7 bb a7 b2 a8 bc 66 d1 1b bd
       -0.075719565 -0.0070734103 -0.020593 -0.038041495
000040 cc 75 01 3d d1 8c 2a bc b2 48 8a 3b 82 b4 fe 3c
       0.03160648 -0.01040955 0.0042200917 0.031091932
000050 3c b3 27 3d a0 6a 8f bd 38 b1 9d 3c 8e 25 10 3d
       0.040942416 -0.07002759 0.019249544 0.035192065
000060 34 a9 8d bd b0 4d 26 3d 91 bf 13 3d e9 81 ce bc
       -0.069170386 0.040601432 0.036071364 -0.02520843
000070 1f 05 10 3c 88 c8 db 3c 8e 43 01 bd 7e 96 0a bd
       0.008790283 0.02682902 -0.031558566 -0.033834927
000080 d5 a0 8c bc 91 a1 d2 bd 3f 1b 09 3c 0b 80 e3 bb
       -0.017166534 -0.102847226 0.008368312 -0.006942754
000090 28 0a 70 bd 40 d8 fa bc 02 1e 3d 3d b7 90 9d bd
       -0.058603436 -0.030620694 0.046171196 -0.07693618
0000a0 42 f2 38 bd 39 bd 6b bc 26 0e a1 3c 5d ee 39 b8
       -0.04515291 -0.014388376 0.019660067 -4.432943e-05
0000b0 ff d5 30 3d aa 46 95 bc bf 5c cf bc fe 79 34 bd
       0.043172833 -0.018222172 -0.02531278 -0.044061653
0000c0 9f be 85 3d 78 28 64 3d a7 98 20 3d f3 ca cf 3d
       0.06530499 0.055702657 0.03920808 0.10146131
0000d0 cb 68 bc bc 0e 92 88 3d 6b 3e 79 bc 37 4b 06 3e
       -0.022999188 0.06668483 -0.0152126355 0.1311463
0000e0 59 ae cd 3b f6 77 9b bd 48 db 1c bc 11 fe bd bd
       0.0062768874 -0.0759124 -0.009573765 -0.09276975
0000f0 af 6e 98 3c 96 22 71 bc 98 9e c1 bd 96 0a 39 bc
       0.018607466 -0.014717719 -0.094540775 -0.011294028
000100 c0 84 40 bd 61 b1 8c bc 8d 93 5f 3d 14 16 cf 3c
       -0.0470016 -0.017174425 0.054584075 0.025279082
000110 0e 16 41 3d a8 20 f4 bd 8b 95 01 3d cf e0 a9 3b
       0.047140174 -0.11920291 0.031636756 0.00518427
000120 cf fb a6 3c 1c 21 b2 3d 40 31 10 be 46 82 57 bc
       0.020383744 0.08697721 -0.14081287 -0.013153618
000130 c9 a8 b4 3d 81 70 68 bd 16 9e 0d bc f5 b5 12 bd
       0.08821256 -0.056747917 -0.008643648 -0.03581806
000140 15 69 fd bd 84 2b ad bc cf 44 37 3d 7b e4 c3 3c
       -0.123735584 -0.021138914 0.044743355 0.023912659
000150 8b 9f f9 3c af 35 f4 3d 8c e4 be bd 22 bd b0 bd
       0.030471584 0.11924302 -0.093209356 -0.08629824
000160 07 99 ec 3c d0 83 e7 bd 65 b6 90 3d ab 48 4f bd
       0.028881563 -0.11304438 0.07066039 -0.05060641
000170 4e 59 98 3d ca b3 28 bd df 2d b2 bd d1 ff 77 3d
       0.074389085 -0.041187085 -0.087001555 0.0605467
000180 9f 8e 9a bc a5 76 d3 bd cd 9b 91 bc 5d f3 dc 3d
       -0.018866835 -0.10325364 -0.017774487 0.10788605
000190 8b 60 1d 3c bf f0 81 bd b0 e4 16 3d 15 c1 e2 bc
       0.009605537 -0.06344747 0.036839187 -0.02767996
0001a0 85 6b ac 3d e8 cc 29 bd a0 03 c2 bd 90 c0 21 bc
       0.08418945 -0.04145518 -0.09473348 -0.009872571
0001b0 58 44 e0 bd 11 f4 15 3c c5 a5 21 3c 07 ba ae 3d
       -0.109505355 0.009152428 0.009866183 0.08531576
0001c0 d9 70 9b bd 52 e1 89 bc 1e 28 e1 3b c1 ef 17 3d
       -0.07589883 -0.016831074 0.0068712374 0.03709388
0001d0 47 ba 35 bc 70 9d 2e bc 9a d7 32 3c 6b 3e 1e bc
       -0.011091775 -0.010657653 0.010915661 -0.009658436
0001e0 1b 83 95 bc a9 3c e4 bd 1f 93 a4 bd ff 1e 24 3d
       -0.018250993 -0.111443825 -0.080358736 0.040068623
0001f0 fe 05 b4 3d bf ca 9f 3d 5e f2 91 3d 14 5d e6 3b
       0.087902054 0.078023426 0.07126306 0.0070301387
000200 0e 53 21 bd 69 24 a6 3c 16 d6 71 bd 86 31 e2 bd
       -0.039385848 0.020281034 -0.05904206 -0.11044602
000210 8e 36 b8 3c d5 f2 21 3d 45 e8 89 3c 30 82 d3 3c
       0.022486951 0.039538223 0.016834388 0.025818914
000220 f0 95 68 3d 1c 85 b5 bc 6c a4 f5 3c fc d2 13 bd
       0.056783617 -0.022158198 0.029985629 -0.036089882
000230 cc 50 a5 bd 97 b8 bd bc b4 7a 93 bc 82 48 94 3c
       -0.080720514 -0.023159308 -0.018002845 0.01810098
000240 9c d4 a2 3c 41 dd d5 bc e1 66 42 bc 65 2f 01 3d
       0.01987677 -0.026106479 -0.011865349 0.03153934
000250 d3 d4 87 3d fc cb 8d bd 3d 39 ad 3d 31 f6 ed 3d
       0.0663239 -0.069236726 0.08458183 0.11619223
000260 80 62 8b 3c af 36 47 bd af e7 07 bd ab 42 6a bd
       0.017014742 -0.048636135 -0.033179935 -0.057192486
000270 3c 86 6d bb 66 63 6c bc 1b 7d c8 3d f2 26 0e bd
       -0.003624334 -0.014427995 0.09789487 -0.03470511
000280 e3 48 a2 3d 93 07 11 3d b0 ca f1 3c ac 97 b4 b8
       0.07924058 0.035407614 0.029515594 -8.61132e-05
000290 84 e8 bb bc 06 57 92 3c d3 f8 99 bc fb 48 6b 3d
       -0.02293802 0.017863762 -0.018795406 0.057442646
0002a0 fe db 36 3d d0 66 7c bc c3 00 a6 bc d6 3b 04 be
       0.044643395 -0.015405372 -0.020264035 -0.1291345
0002b0 d1 09 92 bd bb 67 9b 3d ab fc 2a bd 75 70 c8 bc
       -0.071307786 0.075881444 -0.04174487 -0.024467686
0002c0 e8 22 1c 3d 23 a0 33 3b 34 8c bb bd 98 31 31 3b
       0.038119227 0.0027408681 -0.09157601 0.0027037617
0002d0 8e 61 54 3d 1f 5b ae 3d 8b f1 66 bc 8c b7 cc bc
       0.051850848 0.08513474 -0.014095674 -0.024989866
0002e0 62 89 8a bd 5b 3b 84 bd be a2 4b 3d b5 7a d2 bb
       -0.06764485 -0.06456634 0.04971575 -0.006423319
0002f0 64 fe 00 3e 70 06 07 bd ab b4 d6 3c 3d c4 07 bd
       0.12597042 -0.032965124 0.026209196 -0.03314613
000300 24 61 b5 3d 9a 3c c3 bd 3f 25 9c bc f0 8e 5d 3b
       0.08856419 -0.09533043 -0.01906073 0.0033807121
000310 f0 fd b4 bc 97 b6 fc 3c ff 94 34 bb b8 fe 80 3d
       -0.022093743 0.030848784 -0.002755463 0.06298584
000320 38 95 e8 3d f0 07 7b 3d d9 c8 90 3d 87 4c 01 3e
       0.11356586 0.061286867 0.07069559 0.12626849
000330 d3 53 6c bd 9b b3 29 3d 8f e8 9f 3d db 07 82 bd
       -0.05769713 0.04143105 0.07808029 -0.063491546
000340 bc 26 b6 3d f4 e0 db 3c 11 18 f4 3c 41 f1 56 bd
       0.08894107 0.026840664 0.029796632 -0.05247617
000350 62 65 8b 3d cf ed 85 bd 96 d5 7d bc f7 a9 b4 3c
       0.068064466 -0.06539499 -0.015492817 0.022053702
000360 f3 fc e3 bd e3 f1 c4 bd 6e 6b dc bb 82 1f 8f bc
       -0.111322306 -0.09616449 -0.006726674 -0.017471079
000370 70 8f 48 3c e1 1c 50 bd 60 b5 a6 3b af c0 87 3c
       0.012241229 -0.05080879 0.0050875396 0.01657137
000380 22 d1 1a 3d e8 37 5c bd 48 07 20 3d 96 3b d8 3d
       0.0377971 -0.053764254 0.039069444 0.1055824
000390 f2 1d 26 bd 76 30 92 bb de 01 8b 3c bc 82 5f ba
       -0.0405559 -0.0044613434 0.016968664 -0.0008526256
0003a0 ff 59 83 bc 96 0a f8 3c 73 8c 05 3e 83 17 c7 3d
       -0.016034124 0.030278485 0.13041858 0.097212814
0003b0 dd b2 b8 3d ab 3f 90 3d 22 7c 43 3d 3c 8a ad 3d
       0.090184905 0.07043394 0.047725804 0.08473632
0003c0 59 63 95 bd 9b 34 a1 3d 06 1f fa 3c bc 7a 7d 3d
       -0.0729434 0.07871362 0.030532371 0.061884627
0003d0 99 7e 2a bd b2 dc 1f 3c a0 9e 5d 3d 3a 83 5f bd
       -0.04162464 0.009757208 0.054106355 -0.054568507
0003e0 47 83 a1 3c 4a 02 e4 3c 76 40 77 3d 92 65 8a 3d
       0.019715918 0.027833123 0.06036421 0.06757654
0003f0 2d fa 74 3b e2 39 77 bd e2 64 65 3d 1e 5f 30 3c
       0.0037380562 -0.060357936 0.056004412 0.010764865

network_body._body_endoder.seq_layers.2.bias f4 [256]
000000 00 00 00 00 00 00 00 00 00 00 00 00 00 00 00 00
       0.0 0.0 0.0 0.0
000010 00 00 00 00 00 00 00 00 00 00 00 00 00 00 00 00
       0.0 0.0 0.0 0.0
000020 00 00 00 00 00 00 00 00 00 00 00 00 00 00 00 00
       0.0 0.0 0.0 0.0
000030 00 00 00 00 00 00 00 00 00 00 00 00 00 00 00 00
       0.0 0.0 0.0 0.0
000040 00 00 00 00 00 00 00 00 00 00 00 00 00 00 00 00
       0.0 0.0 0.0 0.0
000050 00 00 00 00 00 00 00 00 00 00 00 00 00 00 00 00
       0.0 0.0 0.0 0.0
000060 00 00 00 00 00 00 00 00 00 00 00 00 00 00 00 00
       0.0 0.0 0.0 0.0
000070 00 00 00 00 00 00 00 00 00 00 00 00 00 00 00 00
       0.0 0.0 0.0 0.0
000080 00 00 00 00 00 00 00 00 00 00 00 00 00 00 00 00
       0.0 0.0 0.0 0.0
000090 00 00 00 00 00 00 00 00 00 00 00 00 00 00 00 00
       0.0 0.0 0.0 0.0
0000a0 00 00 00 00 00 00 00 00 00 00 00 00 00 00 00 00
       0.0 0.0 0.0 0.0
0000b0 00 00 00 00 00 00 00 00 00 00 00 00 00 00 00 00
       0.0 0.0 0.0 0.0
0000c0 00 00 00 00 00 00 00 00 00 00 00 00 00 00 00 00
       0.0 0.0 0.0 0.0
0000d0 00 00 00 00 00 00 00 00 00 00 00 00 00 00 00 00
       0.0 0.0 0.0 0.0
0000e0 00 00 00 00 00 00 00 00 00 00 00 00 00 00 00 00
       0.0 0.0 0.0 0.0
0000f0 00 00 00 00 00 00 00 00 00 00 00 00 00 00 00 00
       0.0 0.0 0.0 0.0
000100 00 00 00 00 00 00 00 00 00 00 00 00 00 00 00 00
       0.0 0.0 0.0 0.0
000110 00 00 00 00 00 00 00 00 00 00 00 00 00 00 00 00
       0.0 0.0 0.0 0.0
000120 00 00 00 00 00 00 00 00 00 00 00 00 00 00 00 00
       0.0 0.0 0.0 0.0
000130 00 00 00 00 00 00 00 00 00 00 00 00 00 00 00 00
       0.0 0.0 0.0 0.0
000140 00 00 00 00 00 00 00 00 00 00 00 00 00 00 00 00
       0.0 0.0 0.0 0.0
000150 00 00 00 00 00 00 00 00 00 00 00 00 00 00 00 00
       0.0 0.0 0.0 0.0
000160 00 00 00 00 00 00 00 00 00 00 00 00 00 00 00 00
       0.0 0.0 0.0 0.0
000170 00 00 00 00 00 00 00 00 00 00 00 00 00 00 00 00
       0.0 0.0 0.0 0.0
000180 00 00 00 00 00 00 00 00 00 00 00 00 00 00 00 00
       0.0 0.0 0.0 0.0
000190 00 00 00 00 00 00 00 00 00 00 00 00 00 00 00 00
       0.0 0.0 0.0 0.0
0001a0 00 00 00 00 00 00 00 00 00 00 00 00 00 00 00 00
       0.0 0.0 0.0 0.0
0001b0 00 00 00 00 00 00 00 00 00 00 00 00 00 00 00 00
       0.0 0.0 0.0 0.0
0001c0 00 00 00 00 00 00 00 00 00 00 00 00 00 00 00 00
       0.0 0.0 0.0 0.0
0001d0 00 00 00 00 00 00 00 00 00 00 00 00 00 00 00 00
       0.0 0.0 0.0 0.0
0001e0 00 00 00 00 00 00 00 00 00 00 00 00 00 00 00 00
       0.0 0.0 0.0 0.0
0001f0 00 00 00 00 00 00 00 00 00 00 00 00 00 00 00 00
       0.0 0.0 0.0 0.0
000200 00 00 00 00 00 00 00 00 00 00 00 00 00 00 00 00
       0.0 0.0 0.0 0.0
000210 00 00 00 00 00 00 00 00 00 00 00 00 00 00 00 00
       0.0 0.0 0.0 0.0
000220 00 00 00 00 00 00 00 00 00 00 00 00 00 00 00 00
       0.0 0.0 0.0 0.0
000230 00 00 00 00 00 00 00 00 00 00 00 00 00 00 00 00
       0.0 0.0 0.0 0.0
000240 00 00 00 00 00 00 00 00 00 00 00 00 00 00 00 00
       0.0 0.0 0.0 0.0
000250 00 00 00 00 00 00 00 00 00 00 00 00 00 00 00 00
       0.0 0.0 0.0 0.0
000260 00 00 00 00 00 00 00 00 00 00 00 00 00 00 00 00
       0.0 0.0 0.0 0.0
000270 00 00 00 00 00 00 00 00 00 00 00 00 00 00 00 00
       0.0 0.0 0.0 0.0
000280 00 00 00 00 00 00 00 00 00 00 00 00 00 00 00 00
       0.0 0.0 0.0 0.0
000290 00 00 00 00 00 00 00 00 00 00 00 00 00 00 00 00
       0.0 0.0 0.0 0.0
0002a0 00 00 00 00 00 00 00 00 00 00 00 00 00 00 00 00
       0.0 0.0 0.0 0.0
0002b0 00 00 00 00 00 00 00 00 00 00 00 00 00 00 00 00
       0.0 0.0 0.0 0.0
0002c0 00 00 00 00 00 00 00 00 00 00 00 00 00 00 00 00
       0.0 0.0 0.0 0.0
0002d0 00 00 00 00 00 00 00 00 00 00 00 00 00 00 00 00
       0.0 0.0 0.0 0.0
0002e0 00 00 00 00 00 00 00 00 00 00 00 00 00 00 00 00
       0.0 0.0 0.0 0.0
0002f0 00 00 00 00 00 00 00 00 00 00 00 00 00 00 00 00
       0.0 0.0 0.0 0.0
000300 00 00 00 00 00 00 00 00 00 00 00 00 00 00 00 00
       0.0 0.0 0.0 0.0
000310 00 00 00 00 00 00 00 00 00 00 00 00 00 00 00 00
       0.0 0.0 0.0 0.0
000320 00 00 00 00 00 00 00 00 00 00 00 00 00 00 00 00
       0.0 0.0 0.0 0.0
000330 00 00 00 00 00 00 00 00 00 00 00 00 00 00 00 00
       0.0 0.0 0.0 0.0
000340 00 00 00 00 00 00 00 00 00 00 00 00 00 00 00 00
       0.0 0.0 0.0 0.0
000350 00 00 00 00 00 00 00 00 00 00 00 00 00 00 00 00
       0.0 0.0 0.0 0.0
000360 00 00 00 00 00 00 00 00 00 00 00 00 00 00 00 00
       0.0 0.0 0.0 0.0
000370 00 00 00 00 00 00 00 00 00 00 00 00 00 00 00 00
       0.0 0.0 0.0 0.0
000380 00 00 00 00 00 00 00 00 00 00 00 00 00 00 00 00
       0.0 0.0 0.0 0.0
000390 00 00 00 00 00 00 00 00 00 00 00 00 00 00 00 00
       0.0 0.0 0.0 0.0
0003a0 00 00 00 00 00 00 00 00 00 00 00 00 00 00 00 00
       0.0 0.0 0.0 0.0
0003b0 00 00 00 00 00 00 00 00 00 00 00 00 00 00 00 00
       0.0 0.0 0.0 0.0
0003c0 00 00 00 00 00 00 00 00 00 00 00 00 00 00 00 00
       0.0 0.0 0.0 0.0
0003d0 00 00 00 00 00 00 00 00 00 00 00 00 00 00 00 00
       0.0 0.0 0.0 0.0
0003e0 00 00 00 00 00 00 00 00 00 00 00 00 00 00 00 00
       0.0 0.0 0.0 0.0
0003f0 00 00 00 00 00 00 00 00 00 00 00 00 00 00 00 00
       0.0 0.0 0.0 0.0

action_model._continuous_distribution.log_sigma f4 [1, 3]
000000 00 00 00 00 00 00 00 00 00 00 00 00
       0.0 0.0 0.0

action_model._continuous_distribution.mu.weight f4 [3, 256]
000000 ce f2 30 3c e7 68 c1 3c 2c e3 1a ba 2f 8a 7a bc
       0.010800077 0.023609592 -0.0005908485 -0.015291735
000010 48 9e 7d ba 20 a4 eb 3b 13 49 86 bc 80 f6 95 ba
       -0.000967477 0.007191196 -0.016392266 -0.001144126
000020 a9 ec 25 3c ea b2 5b 3b 4f 53 2c bc 17 8e e3 3b
       0.010127225 0.003352339 -0.010517909 0.0069444287
000030 0c da 07 bc 5a 99 9c bc 8d c3 22 3c 04 3b a1 3a
       -0.0082917325 -0.019116092 0.009934318 0.0012300913
000040 5b 63 ea 3a 6c f3 35 bc ae 43 15 3c 35 d8 77 3a
       0.0017882393 -0.0111054 0.009110374 0.00094545196
000050 77 4d 8b 3c b7 19 50 3c bf a7 4c 3b 28 d3 af 3b
       0.017004712 0.012701443 0.0031227914 0.005365748
000060 56 c3 85 bc 5e 4d 21 3c 4a a2 99 3c da 26 f3 bb
       -0.016328495 0.009845106 0.018754143 -0.007420403
000070 01 e1 08 3c d9 f2 aa bc ad df 80 bc 5e ff ca ba
       0.008354426 -0.020867752 -0.015731657 -0.0015487482
000080 4c 7c 8e bc cf 24 dd ba 27 27 31 bc 28 14 b2 ba
       -0.017393254 -0.0016871932 -0.010812557 -0.0013586329
000090 f9 e3 36 bb 20 96 32 3c 0a 3d e2 bc 9d 76 d8 bc
       -0.0027906878 0.01090005 -0.027616996 -0.026423747
0000a0 4f 8e 8a ba 66 9e 84 3a 42 37 cc 3b cb 89 09 bc
       -0.0010570976 0.0010118007 0.006232173 -0.008394669
0000b0 ed 1f 8d 3b 91 9f 12 3c 64 b9 9f bc 7b ff 0e 3b
       0.0043067844 0.008949176 -0.01949758 0.0021819759
0000c0 b2 8e 13 3b 61 de 33 bc f6 67 9f 3b 25 eb 2f 3c
       0.0022515473 -0.010978312 0.004864688 0.010737215
0000d0 70 50 3d bc 62 3f 97 bc 4d 65 54 3c 9e 3c 08 3c
       -0.011554822 -0.01846284 0.012963605 0.0083152335
0000e0 ec b8 98 bb 3c 24 01 3c e4 f8 c7 bb f0 e4 6f ba
       -0.0046607163 0.007882174 -0.006102668 -0.0009151241
0000f0 f8 37 4f 3c e9 18 a1 3c 4e 9d 2a b9 bd a5 fd 3b
       0.012647621 0.019665198 -0.00016271064 0.007740705
000100 18 b2 5a 3c bf 62 bc bc ca c0 54 3a be 7f 10 3c
       0.013348125 -0.022996305 0.0008115886 0.008819519
000110 a3 3a 0c bc a7 e6 c2 bb e5 e8 15 3c 90 77 33 38
       -0.008558902 -0.005947906 0.009149765 4.2788277e-05
000120 40 1c 7e 3a 96 96 9d bb ed e0 ba bb 02 bb 86 bc
       0.00096935406 -0.004809211 -0.005703083 -0.016446594
000130 2b a9 f7 3b a9 60 28 3c a8 45 a3 bc f7 2b c3 3b
       0.007558008 0.010276952 -0.019930676 0.0059561688
000140 a3 ef db 3b da 26 db 3b 9b 1f 68 bc 57 97 50 bb
       0.0067119165 0.006687981 -0.014167692 -0.0031828487
000150 b7 8e a0 3c 60 d0 a9 bc b8 a2 54 ba 18 25 ce 3a
       0.019599302 -0.020729244 -0.0008111405 0.0015727608
000160 67 53 68 3a 2f 92 8c 3c f1 64 96 3c 58 96 5a bc
       0.00088625256 0.01715955 0.01835868 -0.013341509
000170 4a a4 7d 3a 75 a8 b4 bc a8 c0 54 3c b0 00 f8 3a
       0.0009675665 -0.022052983 0.012985386 0.0018921103
000180 eb 65 87 3b 93 f0 be 3c a3 cd ab ba 68 2b 0e bc
       0.0041320226 0.023308074 -0.0013107549 -0.008677341
000190 9f dc 10 bd b3 c4 f4 3b 02 b6 31 bc 13 f3 8e bb
       -0.03536665 0.0074697374 -0.010846617 -0.004362473
0001a0 2c 36 3b bc 53 b9 2d bc ff 42 c8 3b 86 ef ac 3c
       -0.01142649 -0.010603267 0.006111502 0.021110307
0001b0 4c f5 33 3c f2 5a 5a 3c cc cb 32 3c 09 23 2d bc
       0.010983776 0.013327347 0.010912847 -0.010567435
0001c0 7b e2 82 bc 2d 2c 67 bb 89 73 95 3b a6 c7 29 3b
       -0.015977135 -0.0035274134 0.004560892 0.0025906353
0001d0 1f a1 fb 3b 05 7d 3d 3c 89 24 4b 3c e3 7c 9e 3b
       0.0076791192 0.0115654515 0.012398847 0.004836665
0001e0 82 a9 d3 bb 19 02 a7 bc 40 51 0e 3b 47 4e 90 bc
       -0.006459416 -0.020386742 0.002171591 -0.01761545
0001f0 60 ed a4 ba 46 37 8f 3c 8d bd 1e bc b5 9b 88 bb
       -0.001258295 0.017482411 -0.009688747 -0.0041689523
000200 f2 0a d9 bb dd 61 09 3d ed 90 50 bc 6d 9a 3f 3c
       -0.0066236192 0.033540595 -0.0127298655 0.011694533
000210 d5 e8 2c bc 93 fe bb 3c 41 f4 0e 3c 3e 48 8b bc
       -0.010553558 0.022948539 0.008725227 -0.017002221
000220 27 07 02 bd 3d 15 2d bc 27 bb ec bc 53 a7 6f ba
       -0.031745102 -0.010564146 -0.028897835 -0.000914206
000230 56 e9 b2 bc 2f 13 c9 bb 5d 49 64 3c 6d 6c dd 39
       -0.021839779 -0.00613632 0.013933507 0.00042233188
000240 ae b7 9e 3a e5 9e 64 bc c5 e9 a8 3a 6d c3 ae bb
       0.0012109184 -0.013953899 0.0012887052 -0.005333355
000250 6c 61 82 3b ad 52 d6 bb 03 b2 b6 3c 94 49 85 3b
       0.0039788987 -0.0065406174 0.02230168 0.004067609
000260 76 cc 9c bb 72 24 8a 3c 7c 6f 11 3c 4e 2b 94 ba
       -0.004785116 0.016863082 0.008876678 -0.001130441
000270 df 27 d4 b9 00 df 64 3c 53 05 42 3d b0 23 87 ba
       -0.00040465497 0.013969183 0.04736836 -0.0010310318
000280 72 d5 28 bc 73 ab 90 3b 26 90 3c bc db 4a 3f 3b
       -0.010304796 0.0044149696 -0.011508977 0.0029188904
000290 43 ba 45 bc a6 e3 1d bc bd e2 a3 bc 82 ca 29 3b
       -0.012068334 -0.009636795 -0.020005578 0.0025908058
0002a0 fd 46 f8 ba 1f 1b 48 bb e7 bb 7d 3c a5 ce ac ba
       -0.0018942055 -0.0030533744 0.015486694 -0.0013184143
0002b0 b2 7a 27 bb 7c 2e 35 3c cf 6b d4 bb 79 58 0a bb
       -0.002555531 0.011058446 -0.0064825783 -0.0021109863
0002c0 7d 60 d2 bb 97 2c 73 3c e8 8f a3 3c 57 8e 30 3c
       -0.0064201937 0.014842174 0.01996608 0.010776124
0002d0 2e c3 2a 3b 56 3f 4b 3a 40 4e e6 3c 49 ac 3b 3c
       0.0026056278 0.0007753273 0.028113484 0.01145465
0002e0 e3 5d 70 ba 22 88 b9 3a 38 78 4e bc c5 df 38 3c
       -0.00091692636 0.0014154951 -0.012601905 0.01128382
0002f0 a5 eb cc 3b 27 1f 83 3b dd 51 65 bc 12 e4 52 3c
       0.006253677 0.0040015164 -0.0139965685 0.012871759
000300 ad 35 72 3c 42 02 2e bc 67 50 65 3c a3 5b b0 bb
       0.014783305 -0.0106206555 0.01399622 -0.0053820177
000310 1f ef 02 3c a7 46 56 bb 4b 70 3f 3c fa ba 1d 3c
       0.007991581 -0.003269592 0.011684488 0.009627098
000320 af da 6c bc d2 c9 61 3c 8b 87 dd 38 d3 7e ac 3c
       -0.014456435 0.013781028 0.00010563348 0.021056568
000330 58 ef 97 bb 87 0d 70 3c cc 47 8e 3b 9f 66 20 bc
       -0.0046366863 0.014651663 0.004342055 -0.009790092
000340 d6 f9 c5 3b 27 83 a0 3c 5e 97 b7 bb 63 bd ab bc
       0.0060417457 0.019593788 -0.005602761 -0.02096433
000350 28 43 6d 3c 77 2f dc 3b 7a 1c 64 bc 03 ad ea bb
       0.014481343 0.0067195254 -0.013922805 -0.007161738
000360 32 1b 6b 3b a3 5a 95 bb ad 9e 8e 3c 6b dd 1e ba
       0.0035874364 -0.004557924 0.017409647 -0.00060602155
000370 56 1d 23 bc b3 7e c1 bb 72 78 f4 bb 2c 3d 83 3c
       -0.009955725 -0.0059049963 -0.0074606473 0.01602038
000380 55 7e e2 bb a4 76 45 bc 25 07 f3 3a 47 2c 25 3c
       -0.0069120326 -0.012052212 0.0018541558 0.010081357
000390 d7 4f bc 3b ff e7 f0 bc 5e b0 89 ba a8 41 1f bc
       0.0057468223 -0.0294075 -0.0010504832 -0.0097202435
0003a0 7d bd 9a 3c a2 54 06 3a 36 52 12 bc 39 80 c2 ba
       0.018889183 0.00051243056 -0.008930733 -0.0014839239
0003b0 d2 46 68 bc bf e4 78 bc 7b 36 58 3c 93 41 04 3c
       -0.014177041 -0.015191256 0.013196583 0.008072275
0003c0 51 bc 95 bc 5f 42 93 3c 61 eb a5 3b da c8 29 3c
       -0.018278273 0.017975984 0.0050634597 0.010362828
0003d0 2b b0 22 3c 7b 35 51 bc 23 f3 3d bc 0d 90 96 ba
       0.009929697 -0.012769098 -0.011593613 -0.0011487022
0003e0 d4 59 05 3c 78 e4 3b bc 63 a8 19 bc c0 0d 86 bb
       0.0081390925 -0.011468045 -0.009378525 -0.0040909946
0003f0 72 be 6b 3b 3c 0b 0b 3c f9 08 bd bc bc 3f 27 3b
       0.0035971669 0.008486565 -0.023075568 0.0025520166

action_model._continuous_distribution.mu.bias f4 [3]
000000 00 00 00 00 00 00 00 00 00 00 00 00
       0.0 0.0 0.0

action_model._discrete_distribution.branches.0.weight f4 [1, 256]
000000 15 b4 fe b9 10 4c 67 bc 1d f7 d2 3b 1e f5 11 bc
       -0.00048580827 -0.014117256 0.0064381496 -0.008908538
000010 ab 08 71 bb ca f9 f4 ba e5 24 83 bb 8f e4 47 ba
       -0.0036778848 -0.0018690166 -0.004002201 -0.00076253054
000020 67 df 4a bb 1a 0b 98 ba 61 60 83 3b dd 65 9e 3b
       -0.0030955912 -0.0011599988 0.004009292 0.0048339204
000030 95 31 88 3a 76 b8 95 3b 8d 1c ab bb c0 1c 14 3b
       0.0010390753 0.0045691086 -0.0052219094 0.0022600144
000040 57 dd 16 3c 52 51 5d 3b cb 7c c7 bb ed 5c d6 bb
       0.009208045 0.0033770395 -0.0060878745 -0.0065418393
000050 27 94 08 bc c7 a1 da 3b 91 99 3f 3c 50 84 45 b9
       -0.0083361035 0.0066721174 0.011694328 -0.00018836674
000060 65 f3 c1 bb c9 82 80 b9 32 58 ef bb 12 aa 8d bb
       -0.0059189075 -0.00024511505 -0.007304215 -0.0043232525
000070 2d d7 c6 bb 12 33 86 bb 05 24 2a bb 91 ec 85 bc
       -0.0060681314 -0.0040954435 -0.002596141 -0.016348155
000080 57 8c f9 3a 7c 89 22 3b bb e9 bf 3b 22 55 63 ba
       0.0019039017 0.0024801185 0.0058567203 -0.00086720486
000090 37 a7 03 bb 2b 2a 23 bb eb 65 fd ba a4 ad 30 3b
       -0.0020088681 -0.002489696 -0.0019332742 0.0026958967
0000a0 33 37 ef bb 40 da 88 bb 60 64 c3 bb 8f 4e 92 3b
       -0.0073002814 -0.004176408 -0.0059628934 0.0044649313
0000b0 8f c8 0b bb 43 8a 0b 39 1b c4 d0 bb 8d 3a 0f bb
       -0.002132926 0.0001330758 -0.006371034 -0.0021854967
0000c0 eb 16 88 3b f3 b8 8d 3a 4d d0 6f ba 07 72 12 bb
       0.0041531227 0.0010812565 -0.00091481657 -0.0022345798
0000d0 fa 7d 79 bb b0 1b e6 ba 30 2f 01 bc 2e 7d 1a 3c
       -0.0038069473 -0.0017555859 -0.0078847855 0.009429259
0000e0 6f 6c 81 38 b7 31 85 bb dd bc 0e bb fa 3c fa 3a
       6.171397e-05 -0.0040647644 -0.0021780052 0.0019091659
0000f0 8a e4 71 bb 07 b5 1f 3c ca 60 c2 3b c4 52 33 3c
       -0.0036909902 0.00974775 0.0059319483 0.010945026
000100 18 f8 f3 bb cd 1b d3 3b 58 06 59 3b f0 46 0b bc
       -0.0074453466 0.006442523 0.0033115353 -0.0085008
000110 19 a8 22 ba f9 c4 b8 ba 77 d6 85 3b 2c ff 0d 3c
       -0.0006204858 -0.0014096788 0.004084404 0.008666795
000120 0a 2a e5 ba 76 0e 83 3b 53 2d 29 3a a7 c6 d9 3a
       -0.0017483842 0.0039995266 0.0006453592 0.0016614989
000130 9d bb a6 3b 2e 17 24 b9 db 45 19 3c 8f 3e 04 3a
       0.005088283 -0.00015648894 0.009355034 0.00050447223
000140 57 52 85 3b 42 f9 c6 bb d0 d0 ce bb da 15 0a bc
       0.0040686536 -0.0060721943 -0.0063115135 -0.008428061
000150 5b 89 f9 3a 92 ad 30 3c df 10 22 3a 1a ec bf 3a
       0.0019038128 0.01078357 0.00061823236 0.0014642507
000160 5c 02 97 bb ea c4 b1 ba ca 6f c4 ba 11 30 3f 3b
       -0.0046084356 -0.0013562713 -0.0014986929 0.0029172937
000170 99 ff bb 3a 9f d0 c5 3b a3 b2 d5 b9 13 8e 0b bc
       0.0014343142 0.0060368325 -0.0004075962 -0.00851776
000180 f7 b5 01 bc ba 7e be 3a d3 f7 62 3c db a5 96 bb
       -0.007916919 0.0014533617 0.013853031 -0.004597408
000190 43 43 c4 3b 08 58 90 3b 27 14 a2 3a d3 8c f6 3b
       0.0059894635 0.0044050254 0.0012365625 0.007524112
0001a0 47 49 05 bc db 11 19 bb ca 28 23 3a da c8 de 3a
       -0.008135146 -0.002335659 0.00062240346 0.0016997114
0001b0 f8 3f 71 3b 01 ec b9 ba 88 98 63 39 6f b2 bc 3b
       0.003681181 -0.0014184715 0.0002170523 0.0057585756
0001c0 ff 64 97 3b 7f f4 1d 3c e3 39 28 3b 03 0d b3 3a
       0.004620194 0.009640812 0.0025669269 0.0013660494
0001d0 42 03 7a ba 1d 1c ed 3b 7a b4 12 bb c3 de d7 3b
       -0.00095372286 0.0072360174 -0.0022385404 0.0065878346
0001e0 cb ea bb ba 37 00 d4 bb bb 68 27 3b f5 23 d2 ba
       -0.0014336942 -0.006469752 0.0025544602 -0.0016032445
0001f0 ea 72 10 bb ce 0f 91 3b 7c ea 42 3b d7 e8 15 ba
       -0.002204115 0.004426933 0.0029741814 -0.0005718595
000200 79 e1 bf ba db b4 a5 3a f8 39 a9 3a 27 ad f9 3b
       -0.001463934 0.00126424 0.0012910953 0.0076195183
000210 fe c4 88 bb 6b e7 99 3b 32 16 d8 3a 9f 4d 24 bc
       -0.004173874 0.0046967766 0.0016486107 -0.010028272
000220 a7 4b 21 3b db 31 8b 3b c9 0c c0 bb 71 ae 29 3a
       0.0024611743 0.0042478866 -0.005860899 0.0006472832
000230 df 56 a4 bb c6 be b3 3b 05 7e 69 bb a3 11 c7 3b
       -0.0050152387 0.0054853885 -0.0035628092 0.0060751005
000240 47 6e 01 bc 18 63 56 3b 77 da c3 bb ff 08 ac ba
       -0.007899827 0.0032712873 -0.005976971 -0.001312524
000250 52 e3 66 3b e4 74 b0 bb fd 92 f6 3a 42 f9 52 bb
       0.0035230708 -0.005385028 0.0018812116 -0.0032192026
000260 87 c0 55 3b 8c 6a 99 bb e7 14 05 3a e7 80 98 38
       0.0032615976 -0.004681891 0.0005076662 7.271935e-05
000270 7b 1c 2f 3b 72 57 6a 3c 47 81 8e 3b bb 65 4b 3b
       0.0026719857 0.014303075 0.004348907 0.0031035978
000280 e2 2f 15 3b 0e 3c 83 3c 38 92 62 bb 85 33 74 3b
       0.0022764136 0.016019847 -0.0034572016 0.0037262153
000290 ff 10 1b 3c f0 d7 d0 bb 90 23 f6 3b bc a2 c6 ba
       0.009464501 -0.006373398 0.0075115636 -0.00151547
0002a0 32 29 30 bb c7 72 06 bc c3 9c 52 3b 23 f5 81 ba
       -0.0026880023 -0.008206076 0.0032136894 -0.0009914975
0002b0 3f 2c e2 b8 bf b9 4f 3b 34 cc 18 bc 38 5c 6d bb
       -0.00010784761 0.0031696407 -0.00932603 -0.0036218297
0002c0 d6 90 05 bc 11 5e 1c bb c8 62 d5 ba d3 5f dd 3b
       -0.008152207 -0.002385978 -0.001628005 0.006755808
0002d0 22 8f 82 bb 95 01 b6 ba 8a 10 0d 39 f3 d2 68 3c
       -0.003984348 -0.001388597 0.00013452969 0.01421045
0002e0 38 83 c1 3b 10 52 12 3c f7 f3 72 ba 67 e5 9d bb
       0.005905535 0.008930698 -0.0009267921 -0.0048186067
0002f0 d3 64 d1 3a 3f 1b db bb 77 5e 72 3b 07 0a 1d ba
       0.0015975483 -0.0066865976 0.0036982575 -0.0005990569
000300 a3 82 0a 3c 63 0f 0a 3c c3 19 51 bc 98 0c 32 bb
       0.008453998 0.00842652 -0.01276249 -0.002716815
000310 a5 b0 3b bb 82 3a df 3b ef f4 62 3b b8 2d 43 3b
       -0.0028639224 0.0068123946 0.0034630855 0.002978189
000320 f1 9c 33 3b a1 96 89 b9 43 23 ee 39 53 6e 5b 3c
       0.0027406777 -0.00026242904 0.0004542117 0.013393003
000330 1f 07 0f bb da 57 25 bb ee 93 b3 3b 2f 18 cc 3b
       -0.0021824313 -0.0025229366 0.005480281 0.006228469
000340 2f 32 fe bb 1a 7c a5 3b 93 76 fc b9 9f 22 bc 3b
       -0.007757447 0.0050501944 -0.0004815353 0.005741432
000350 ff f3 b8 bb 08 ef 6d bb f3 ab 18 3c a2 13 60 b9
       -0.005644321 -0.0036305804 0.00931834 -0.00021369618
000360 14 fb a4 3b db b6 c4 bb 9b 84 a9 ba 78 d8 f3 3b
       0.0050348137 -0.0060032434 -0.0012933196 0.0074415766
000370 ba 62 8b 3b f3 4f c9 ba 99 f2 12 3c 15 d7 45 3b
       0.0042537125 -0.001535891 0.008968973 0.0030188013
000380 f2 1c 0c bb 62 5b 04 bc 65 a0 e6 bb 1e 05 a4 ba
       -0.0021379557 -0.008078428 -0.0070381635 -0.0012513732
000390 36 65 b7 ba e0 cf 10 3b ab 42 84 3c 7d d7 c3 bb
       -0.0013991955 0.002209656 0.016145071 -0.005976616
0003a0 59 e6 9c 39 f0 f1 c7 bb cb d9 27 3b 91 52 b5 39
       0.0002992626 -0.0061018392 0.0025611992 0.00034584527
0003b0 b9 a4 21 3c e8 79 92 bb 72 a7 e8 ba 9a 67 b1 bb
       0.009865933 -0.0044700988 -0.0017750098 -0.0054139616
0003c0 49 6d bb bb 23 4b 33 bb 9f 7a 11 bc 4b 0c eb 3b
       -0.005719815 -0.0027358017 -0.008879333 0.0071730963
0003d0 b1 03 4a 3b 7a 59 c1 39 62 13 00 bc 17 0c af 3a
       0.0030824954 0.00036878494 -0.007817121 0.0013355043
0003e0 3c 12 0a bc c7 e8 16 39 9f fd 27 3b da c4 9c 3a
       -0.008427199 0.00014391831 0.0025633348 0.0011960522
0003f0 f7 b8 9b bb f7 8c 27 3b df c9 63 3c 71 d7 93 bb
       -0.004752274 0.00255662 0.01390311 -0.0045117666

network_body.observation_encoder.processors.0.normalizer.running_mean f4 [36]
000000 a6 fa bf 3e 00 00 00 00 88 fb 1f 3f 49 ba 5c 3f
       0.37495917 0.0 0.6249318 0.8622175
000010 68 84 7d 3f 00 00 00 00 fd 1b 1d 3c 5a f4 29 3f
       0.9903016 0.0 0.009589192 0.66388476
000020 66 0b 56 3f 00 00 00 00 ab b5 27 3e c3 c4 49 3f
       0.8361114 0.0 0.16377895 0.7881586
000030 ac 25 61 3f 00 00 00 00 7d 99 f6 3d f6 15 e1 3e
       0.8794811 0.0 0.12040994 0.43962067
000040 e2 9e 40 3f 00 00 00 00 f1 67 7d 3e a1 d9 0c 3f
       0.75242436 0.0 0.24746682 0.55019575
000050 39 42 7e 3f 00 00 00 00 87 cf d9 3b 33 23 95 3e
       0.993198 0.0 0.0066470536 0.29128417
000060 3e f5 7f 3f 00 00 00 00 00 00 00 00 90 49 9d 3e
       0.99983585 0.0 0.0 0.30720186
000070 3e f5 7f 3f 00 00 00 00 00 00 00 00 e1 fb 70 3e
       0.99983585 0.0 0.0 0.23533584
000080 3e f5 7f 3f 00 00 00 00 00 00 00 00 ef 60 80 3e
       0.99983585 0.0 0.0 0.25073954

network_body.observation_encoder.processors.0.normalizer.running_variance f4 [36]
000000 78 7c 06 45 00 00 80 3f 04 80 06 45 68 f0 96 43
       2151.7793 1.0 2152.001 301.87817
000010 08 46 b2 42 00 00 80 3f ef 4f b0 42 97 cb 86 43
       89.13678 1.0 88.15612 269.59055
000020 67 50 9d 44 00 00 80 3f e4 3a 9d 44 d3 70 99 43
       1258.5126 1.0 1257.8403 306.88144
000030 45 6d 73 44 00 00 80 3f 90 3c 73 44 7e df cd 43
       973.70734 1.0 972.9463 411.74603
000040 61 d0 d5 44 00 00 80 3f 0d c0 d5 44 d7 1e 20 44
       1710.5118 1.0 1710.0016 640.4819
000050 30 4d 7a 42 00 00 80 3f d3 60 76 42 98 88 58 42
       62.57538 1.0 61.594555 54.133392
000060 e9 f8 ff 3f 00 00 80 3f 00 00 80 3f 89 b6 94 41
       1.9997836 1.0 1.0 18.589128
000070 e9 f8 ff 3f 00 00 80 3f 00 00 80 3f fd 1c 80 40
       1.9997836 1.0 1.0 4.0035386
000080 e9 f8 ff 3f 00 00 80 3f 00 00 80 3f b2 2f 81 40
       1.9997836 1.0 1.0 4.037072

network_body.observation_encoder.processors.1.normalizer.running_mean f4 [7]
000000 b0 a2 41 bd e1 83 6f 3d af a2 20 3f f2 28 32 40
       -0.04727429 0.05847538 0.62748235 2.783749
000010 73 fa b4 b7 24 12 84 36 b0 e0 01 3b
       -2.1574297e-05 3.9360184e-06 0.0019817762

network_body.observation_encoder.processors.1.normalizer.running_variance f4 [7]
000000 87 04 d8 44 11 ea ef 42 d5 1b 65 45 b0 97 c8 46
       1728.1415 119.95716 3665.7395 25675.844
000010 39 4a 81 3f fa 01 80 3f 9b 88 17 40
       1.0100776 1.0000603 2.3677127

network_body.processors.0.normalizer.running_mean f4 [36]
000000 a6 fa bf 3e 00 00 00 00 88 fb 1f 3f 49 ba 5c 3f
       0.37495917 0.0 0.6249318 0.8622175
000010 68 84 7d 3f 00 00 00 00 fd 1b 1d 3c 5a f4 29 3f
       0.9903016 0.0 0.009589192 0.66388476
000020 66 0b 56 3f 00 00 00 00 ab b5 27 3e c3 c4 49 3f
       0.8361114 0.0 0.16377895 0.7881586
000030 ac 25 61 3f 00 00 00 00 7d 99 f6 3d f6 15 e1 3e
       0.8794811 0.0 0.12040994 0.43962067
000040 e2 9e 40 3f 00 00 00 00 f1 67 7d 3e a1 d9 0c 3f
       0.75242436 0.0 0.24746682 0.55019575
000050 39 42 7e 3f 00 00 00 00 87 cf d9 3b 33 23 95 3e
       0.993198 0.0 0.0066470536 0.29128417
000060 3e f5 7f 3f 00 00 00 00 00 00 00 00 90 49 9d 3e
       0.99983585 0.0 0.0 0.30720186
000070 3e f5 7f 3f 00 00 00 00 00 00 00 00 e1 fb 70 3e
       0.99983585 0.0 0.0 0.23533584
000080 3e f5 7f 3f 00 00 00 00 00 00 00 00 ef 60 80 3e
       0.99983585 0.0 0.0 0.25073954

network_body.processors.0.normalizer.running_variance f4 [36]
000000 78 7c 06 45 00 00 80 3f 04 80 06 45 68 f0 96 43
       2151.7793 1.0 2152.001 301.87817
000010 08 46 b2 42 00 00 80 3f ef 4f b0 42 97 cb 86 43
       89.13678 1.0 88.15612 269.59055
000020 67 50 9d 44 00 00 80 3f e4 3a 9d 44 d3 70 99 43
       1258.5126 1.0 1257.8403 306.88144
000030 45 6d 73 44 00 00 80 3f 90 3c 73 44 7e df cd 43
       973.70734 1.0 972.9463 411.74603
000040 61 d0 d5 44 00 00 80 3f 0d c0 d5 44 d7 1e 20 44
       1710.5118 1.0 1710.0016 640.4819
000050 30 4d 7a 42 00 00 80 3f d3 60 76 42 98 88 58 42
       62.57538 1.0 61.594555 54.133392
000060 e9 f8 ff 3f 00 00 80 3f 00 00 80 3f 89 b6 94 41
       1.9997836 1.0 1.0 18.589128
000070 e9 f8 ff 3f 00 00 80 3f 00 00 80 3f fd 1c 80 40
       1.9997836 1.0 1.0 4.0035386
000080 e9 f8 ff 3f 00 00 80 3f 00 00 80 3f b2 2f 81 40
       1.9997836 1.0 1.0 4.037072

network_body.processors.1.normalizer.running_mean f4 [7]
000000 b0 a2 41 bd e1 83 6f 3d af a2 20 3f f2 28 32 40
       -0.04727429 0.05847538 0.62748235 2.783749
000010 73 fa b4 b7 24 12 84 36 b0 e0 01 3b
       -2.1574297e-05 3.9360184e-06 0.0019817762

network_body.processors.1.normalizer.running_variance f4 [7]
000000 87 04 d8 44 11 ea ef 42 d5 1b 65 45 b0 97 c8 46
       1728.1415 119.95716 3665.7395 25675.844
000010 39 4a 81 3f fa 01 80 3f 9b 88 17 40
       1.0100776 1.0000603 2.3677127
