results/testRun/Car/Car-2052.onnx (onnx, 320597 bytes, 11 tensors)

network_body.observation_encoder.processors.0.normalizer.running_mean f4 [36]
0	0x3e9ddd50	0.3083291
1	0x00000000	0.0
2	0x3f30f16c	0.6911838
3	0x3f7a3c30	0.9774809
4	0x3eaa956e	0.3331713
5	0x00000000	0.0
6	0x3f2a9562	0.6663419
7	0x3f66a702	0.90098584
8	0x3f2a9561	0.66634184
9	0x00000000	0.0
10	0x3eaa955d	0.3331708
11	0x3f4340de	0.76270854
12	0x3f2a9561	0.66634184
13	0x00000000	0.0
14	0x3eaa955d	0.3331708
15	0x3f21db88	0.63225603
16	0x3f2a9561	0.66634184
17	0x00000000	0.0
18	0x3eaa955d	0.3331708
19	0x3f138b06	0.5763401
20	0x3f2a9561	0.66634184
21	0x00000000	0.0
22	0x3eaa955d	0.3331708
23	0x3f08c0e8	0.5341935
24	0x3f2a9561	0.66634184
25	0x00000000	0.0
26	0x3eaa955d	0.3331708
27	0x3f037872	0.5135566
28	0x3f2a9561	0.66634184
29	0x00000000	0.0
30	0x3eaa955d	0.3331708
31	0x3eff6f61	0.49889663
32	0x3f2a9561	0.66634184
33	0x00000000	0.0
34	0x3eaa955d	0.3331708
35	0x3ef985b6	0.48734826

network_body.observation_encoder.processors.1.normalizer.running_mean f4 [7]
0	0x3e34a280	0.17640114
1	0x3e413f68	0.18871844
2	0x3f6a1df1	0.91451937
3	0x3e823e48	0.25438142
4	0x35a1cbc4	1.2054738e-06
5	0x36dcfd3d	6.5859917e-06
6	0x3a934740	0.0011236444

network_body._body_endoder.seq_layers.0.weight f4 [256, 43]
0	0x3d60f69d	0.05492269
1	0x3e4bf11b	0.19916193
2	0x3da25371	0.079260714
3	0x3bdd350e	0.0067507094
4	0xbd286d62	-0.04111994
5	0x3d7061ba	0.05868695
6	0xbe67fdb7	-0.22655378
7	0xbe15eb11	-0.14640452
8	0xbd69dbd4	-0.05709441
9	0xbebc9196	-0.36829823
10	0x3d306516	0.043065153
11	0xbe14ba83	-0.14524274
12	0xbdefa3a9	-0.117011376
13	0x3e8fae29	0.2806256
14	0xbdf79448	-0.12088829
15	0x3e27438e	0.16334364
16	0x3e1accf5	0.15117247
17	0x3db5e41a	0.088813975
18	0x3e11998e	0.14218733
19	0x3d32148a	0.04347662
20	0x3e14f91e	0.14548156
21	0xbe84cdc8	-0.2593825
22	0x3ebca64d	0.36845627
23	0x3e7a8b55	0.24467213
24	0x3d673c42	0.05645395
25	0xbea8387d	-0.32855597
26	0xbe1cdb7b	-0.153181
27	0xbe0b0d97	-0.13579403
28	0x3d333a35	0.043756682
29	0x3c7ce4d2	0.015435414
30	0xbe9473cc	-0.28994596
31	0x3ce79d11	0.028273137
32	0xbdb72131	-0.08941878
33	0x3e359b93	0.17735128
34	0x3d97f0b5	0.07418958
35	0xbe8a972d	-0.27068463
36	0xbe72245c	-0.23646683
37	0xbe7caa24	-0.24674278
38	0x3e445abf	0.19175242
39	0xbd9d9466	-0.076943204
40	0xbd1e9d74	-0.038724378
41	0x3cc70c12	0.024297748
42	0x3dfe6a14	0.124225765
43	0xbb9d3a2a	-0.0047981935
44	0x3e7f573c	0.24935621
45	0xbd85aff1	-0.06527699
46	0xbd409a68	-0.047022253
47	0xbe1e2bff	-0.1544647
48	0xbcd3d628	-0.025858954
49	0x3e409966	0.18808517
50	0x3d9320eb	0.07184013
51	0x3d055e92	0.032560892
52	0xb9cd0d61	-0.00039110615
53	0x3e9cbb6b	0.3061174
54	0x3e003cff	0.12523268
55	0x3e227e98	0.15868604
56	0x3bc28468	0.005936194
57	0x3da8d42c	0.082435936
58	0x3be8c8f7	0.007104035
59	0xbc0465ed	-0.008080942
60	0x3d7e0e6e	0.06202548
61	0x3d9f7a8c	0.07787046
62	0x3dcc5ee5	0.09979037
63	0x3d9af136	0.075655386
64	0xbd157f81	-0.03649855
65	0xbded72a2	-0.1159413
66	0x3e67ade3	0.22624926
67	0xbd753f80	-0.05987501
68	0x3d853b16	0.065054104
69	0xbd20c3b3	-0.039249133
70	0xbdab8f30	-0.0837692
71	0x3d736762	0.059424765
72	0x3dad5c36	0.084648535
73	0x3dd4e57b	0.103953324
74	0x3d9d9189	0.07693774
75	0x3a430d5c	0.00074406504
76	0x3e3e59b3	0.18588905
77	0xbeac7f7b	-0.3369101
78	0xbe0d56b0	-0.138026
79	0x3e32d917	0.17465626
80	0x3d033451	0.032032315
81	0xbbba8bcc	-0.0056929346
82	0xbe46a61e	-0.19399306
83	0xbe2c5aa3	-0.1683145
84	0xbde33d62	-0.11095692
85	0x3e8fd634	0.28093112
86	0x3db2bfde	0.08728002
87	0xbe45ee04	-0.19329077
88	0xbde84e68	-0.1134308
89	0xbd9d43e0	-0.07678962
90	0xbd95e691	-0.07319368
91	0xbdf27ffa	-0.11840816
92	0xbdd3b13f	-0.103365414
93	0xbe231e51	-0.15929534
94	0x3b474938	0.0030408632
95	0x3c8d16f7	0.017222865
96	0x3c389be7	0.011267639
97	0xbdd37045	-0.10324148
98	0x3e8194e6	0.25308913
99	0xbce4c489	-0.027925747
100	0xbdec6a99	-0.115437694
101	0x3e3ac159	0.18237819
102	0xbdf6e19c	-0.1205475
103	0xbdb826d3	-0.0899178
104	0xbe9810f9	-0.2970045
105	0x3dec6ef9	0.11544604
106	0x3aea8028	0.0017890977
107	0x3e8f6657	0.28007767
108	0xbe4935d9	-0.19649448
109	0xbbb85cba	-0.0056262882
110	0xbe27f75f	-0.16402958
111	0xbe3faae2	-0.1871753
112	0xbcd06929	-0.02544077
113	0xbcfac6fa	-0.030612458
114	0x3d4898fc	0.048974022
115	0x3e650bdb	0.22367804
116	0x3e2c5cd4	0.16832286
117	0xbe1a93a8	-0.15095389
118	0xbdf1083c	-0.11769149
119	0x3d8cbd98	0.068721
120	0x3e2c5ae6	0.1683155
121	0x3d885ca1	0.066582926
122	0x3d9c0962	0.07618977
123	0xbcf9afdd	-0.030479366
124	0x3d89373c	0.06699988
125	0x3e3c692b	0.18399493
126	0xbd9624f4	-0.07331267
127	0xbdb70031	-0.089355834
128	0x3e330fbb	0.1748647
129	0xbdbc28e9	-0.091874905
130	0xbdbf786c	-0.093491405
131	0x3e199843	0.1499949
132	0x3e8da7d6	0.2766711
133	0x3d970193	0.07373347
134	0xbe2fbf15	-0.17162736
135	0x3d614394	0.05499609
136	0xbda9edff	-0.08297347
137	0x3d81b3ea	0.06333144
138	0x3e97f139	0.29676226
139	0xbe108cec	-0.14116257
140	0xbd9ba5c4	-0.07599977
141	0x3cfe37f8	0.031032547
142	0x3dd3e803	0.10346987
143	0xbe7e6c44	-0.24845988
144	0x3d5c7108	0.053818733
145	0xbe8773d8	-0.2645557
146	0x3d46a510	0.04849726
147	0xbd5683be	-0.052371733
148	0x3dd09814	0.101852566
149	0x3dbe0e20	0.09280038
150	0x3ee17c32	0.44040066
151	0x3e32cf06	0.17461786
152	0x3e9db743	0.3080388
153	0x3be75147	0.0070592496
154	0x3c96b5c1	0.018397214
155	0xbda4e2ff	-0.080511086
156	0xbe236369	-0.1595589
157	0xbdbac320	-0.091192484
158	0x3da445c0	0.08021116
159	0x3db6d61e	0.08927558
160	0x3e467e00	0.19384003
161	0xbe0f1870	-0.13974166
162	0x3dc3e50e	0.09565173
163	0x3ce6eb6c	0.02818843
164	0x3e19f71f	0.15035675
165	0xbe8b17cf	-0.27166602
166	0xbc31458d	-0.010819805
167	0xbe2a3700	-0.16622543
168	0xbc50af07	-0.012737042
169	0xbc67a5dc	-0.014138665
170	0x3dd574a2	0.104226366
171	0x3ca5ae1b	0.020224622
172	0x3e964828	0.29351926
173	0xbe4fb9e7	-0.2028576
174	0xbc9d8116	-0.019226592
175	0xbe440317	-0.19141804
176	0xbe35f066	-0.17767486
177	0xbe0a2807	-0.13491832
178	0xbe22e6ea	-0.15908399
179	0x3c7f1a64	0.015570257
180	0xbe82b60e	-0.25529522
181	0xbe6eb022	-0.23309377
182	0xbd3a0c2e	-0.04542177
183	0xbdafec61	-0.085900076
184	0x3e2aad8b	0.16667764
185	0x3d5ac655	0.0534118
186	0xbe63c699	-0.22243728
187	0x3d85a0ba	0.06524797
188	0x3e8b5c61	0.27218917
189	0x3d4dec0a	0.050273933
190	0x3d7b8e6a	0.061415114
191	0x3e5931b5	0.21210368
192	0x3e817661	0.25285628
193	0x3ef6f490	0.4823346
194	0x3ea61989	0.32441357
195	0xbe4210ad	-0.18951674
196	0xbd69eb0d	-0.057108928
197	0x3e103eb9	0.14086427
198	0x3d3820b4	0.044953063
199	0x3c482c14	0.01221754
200	0x3d8e05ef	0.069347255
201	0x3e005daa	0.1253573
202	0x3ddf14d7	0.10892647
203	0x3e47c46f	0.19508527
204	0xbdd57b84	-0.10423949
205	0xbe46aa58	-0.19400918
206	0x3d8105dd	0.062999465
207	0x3d1e9eac	0.03872554
208	0xbe6a2294	-0.22864753
209	0xbed04f5a	-0.4068554
210	0xbe517940	-0.2045641
211	0xbe20d2ac	-0.15705365
212	0xbe78f9c0	-0.24314022
213	0x3eb5bc41	0.3549519
214	0xbdfbd197	-0.122958355
215	0x3e01eed3	0.1268876
216	0x3eb810be	0.35950273
217	0x3e938995	0.28815904
218	0xbd6dbb42	-0.05803991
219	0xbc9e65b4	-0.019335605
220	0x3d7fc6c3	0.062445413
221	0xbdde5ce3	-0.108575605
222	0x3e5fb524	0.21846443
223	0xbe22502d	-0.15850897
224	0xbe0d9a15	-0.13828309
225	0xbbbc41ff	-0.005745172
226	0xbc89f3a8	-0.016839817
227	0x3ddcb528	0.1077674
228	0x3e09c792	0.13455036
229	0xbcc745af	-0.02432522
230	0xbc1ea06f	-0.009681805
231	0xbe60af2b	-0.21941821
232	0x3dfa5581	0.1222334
233	0xbe5c6937	-0.21524511
234	0x3cfe1234	0.03101454
235	0x3eb065e1	0.34452727
236	0xbc51d980	-0.012808204
237	0x3e52de07	0.20592509
238	0x3e057d67	0.13036118
239	0xbdd87245	-0.1056867
240	0xbeb38bce	-0.350676
241	0x3d6b6834	0.057472423
242	0x3cf72d6e	0.03017303
243	0x3e19d96b	0.15024345
244	0x3dcb4989	0.09926135
245	0xbe18afc3	-0.14910798
246	0x3e50ffa2	0.20410016
247	0xbdfe56b4	-0.12418881
248	0xbe2f19a8	-0.17099631
249	0x3d51f63c	0.051260218
250	0xbe5a0353	-0.2129033
251	0x3e2e96a6	0.17049655
252	0xbd99200e	-0.07476817
253	0xbd4e9eb0	-0.050444305
254	0xbd75f5d9	-0.06004891
255	0x3d2baece	0.041914754

network_body._body_endoder.seq_layers.0.bias f4 [256]
0	0x00000000	0.0
1	0x00000000	0.0
2	0x00000000	0.0
3	0x00000000	0.0
4	0x00000000	0.0
5	0x00000000	0.0
6	0x00000000	0.0
7	0x00000000	0.0
8	0x00000000	0.0
9	0x00000000	0.0
10	0x00000000	0.0
11	0x00000000	0.0
12	0x00000000	0.0
13	0x00000000	0.0
14	0x00000000	0.0
15	0x00000000	0.0
16	0x00000000	0.0
17	0x00000000	0.0
18	0x00000000	0.0
19	0x00000000	0.0
20	0x00000000	0.0
21	0x00000000	0.0
22	0x00000000	0.0
23	0x00000000	0.0
24	0x00000000	0.0
25	0x00000000	0.0
26	0x00000000	0.0
27	0x00000000	0.0
28	0x00000000	0.0
29	0x00000000	0.0
30	0x00000000	0.0
31	0x00000000	0.0
32	0x00000000	0.0
33	0x00000000	0.0
34	0x00000000	0.0
35	0x00000000	0.0
36	0x00000000	0.0
37	0x00000000	0.0
38	0x00000000	0.0
39	0x00000000	0.0
40	0x00000000	0.0
41	0x00000000	0.0
42	0x00000000	0.0
43	0x00000000	0.0
44	0x00000000	0.0
45	0x00000000	0.0
46	0x00000000	0.0
47	0x00000000	0.0
48	0x00000000	0.0
49	0x00000000	0.0
50	0x00000000	0.0
51	0x00000000	0.0
52	0x00000000	0.0
53	0x00000000	0.0
54	0x00000000	0.0
55	0x00000000	0.0
56	0x00000000	0.0
57	0x00000000	0.0
58	0x00000000	0.0
59	0x00000000	0.0
60	0x00000000	0.0
61	0x00000000	0.0
62	0x00000000	0.0
63	0x00000000	0.0
64	0x00000000	0.0
65	0x00000000	0.0
66	0x00000000	0.0
67	0x00000000	0.0
68	0x00000000	0.0
69	0x00000000	0.0
70	0x00000000	0.0
71	0x00000000	0.0
72	0x00000000	0.0
73	0x00000000	0.0
74	0x00000000	0.0
75	0x00000000	0.0
76	0x00000000	0.0
77	0x00000000	0.0
78	0x00000000	0.0
79	0x00000000	0.0
80	0x00000000	0.0
81	0x00000000	0.0
82	0x00000000	0.0
83	0x00000000	0.0
84	0x00000000	0.0
85	0x00000000	0.0
86	0x00000000	0.0
87	0x00000000	0.0
88	0x00000000	0.0
89	0x00000000	0.0
90	0x00000000	0.0
91	0x00000000	0.0
92	0x00000000	0.0
93	0x00000000	0.0
94	0x00000000	0.0
95	0x00000000	0.0
96	0x00000000	0.0
97	0x00000000	0.0
98	0x00000000	0.0
99	0x00000000	0.0
100	0x00000000	0.0
101	0x00000000	0.0
102	0x00000000	0.0
103	0x00000000	0.0
104	0x00000000	0.0
105	0x00000000	0.0
106	0x00000000	0.0
107	0x00000000	0.0
108	0x00000000	0.0
109	0x00000000	0.0
110	0x00000000	0.0
111	0x00000000	0.0
112	0x00000000	0.0
113	0x00000000	0.0
114	0x00000000	0.0
115	0x00000000	0.0
116	0x00000000	0.0
117	0x00000000	0.0
118	0x00000000	0.0
119	0x00000000	0.0
120	0x00000000	0.0
121	0x00000000	0.0
122	0x00000000	0.0
123	0x00000000	0.0
124	0x00000000	0.0
125	0x00000000	0.0
126	0x00000000	0.0
127	0x00000000	0.0
128	0x00000000	0.0
129	0x00000000	0.0
130	0x00000000	0.0
131	0x00000000	0.0
132	0x00000000	0.0
133	0x00000000	0.0
134	0x00000000	0.0
135	0x00000000	0.0
136	0x00000000	0.0
137	0x00000000	0.0
138	0x00000000	0.0
139	0x00000000	0.0
140	0x00000000	0.0
141	0x00000000	0.0
142	0x00000000	0.0
143	0x00000000	0.0
144	0x00000000	0.0
145	0x00000000	0.0
146	0x00000000	0.0
147	0x00000000	0.0
148	0x00000000	0.0
149	0x00000000	0.0
150	0x00000000	0.0
151	0x00000000	0.0
152	0x00000000	0.0
153	0x00000000	0.0
154	0x00000000	0.0
155	0x00000000	0.0
156	0x00000000	0.0
157	0x00000000	0.0
158	0x00000000	0.0
159	0x00000000	0.0
160	0x00000000	0.0
161	0x00000000	0.0
162	0x00000000	0.0
163	0x00000000	0.0
164	0x00000000	0.0
165	0x00000000	0.0
166	0x00000000	0.0
167	0x00000000	0.0
168	0x00000000	0.0
169	0x00000000	0.0
170	0x00000000	0.0
171	0x00000000	0.0
172	0x00000000	0.0
173	0x00000000	0.0
174	0x00000000	0.0
175	0x00000000	0.0
176	0x00000000	0.0
177	0x00000000	0.0
178	0x00000000	0.0
179	0x00000000	0.0
180	0x00000000	0.0
181	0x00000000	0.0
182	0x00000000	0.0
183	0x00000000	0.0
184	0x00000000	0.0
185	0x00000000	0.0
186	0x00000000	0.0
187	0x00000000	0.0
188	0x00000000	0.0
189	0x00000000	0.0
190	0x00000000	0.0
191	0x00000000	0.0
192	0x00000000	0.0
193	0x00000000	0.0
194	0x00000000	0.0
195	0x00000000	0.0
196	0x00000000	0.0
197	0x00000000	0.0
198	0x00000000	0.0
199	0x00000000	0.0
200	0x00000000	0.0
201	0x00000000	0.0
202	0x00000000	0.0
203	0x00000000	0.0
204	0x00000000	0.0
205	0x00000000	0.0
206	0x00000000	0.0
207	0x00000000	0.0
208	0x00000000	0.0
209	0x00000000	0.0
210	0x00000000	0.0
211	0x00000000	0.0
212	0x00000000	0.0
213	0x00000000	0.0
214	0x00000000	0.0
215	0x00000000	0.0
216	0x00000000	0.0
217	0x00000000	0.0
218	0x00000000	0.0
219	0x00000000	0.0
220	0x00000000	0.0
221	0x00000000	0.0
222	0x00000000	0.0
223	0x00000000	0.0
224	0x00000000	0.0
225	0x00000000	0.0
226	0x00000000	0.0
227	0x00000000	0.0
228	0x00000000	0.0
229	0x00000000	0.0
230	0x00000000	0.0
231	0x00000000	0.0
232	0x00000000	0.0
233	0x00000000	0.0
234	0x00000000	0.0
235	0x00000000	0.0
236	0x00000000	0.0
237	0x00000000	0.0
238	0x00000000	0.0
239	0x00000000	0.0
240	0x00000000	0.0
241	0x00000000	0.0
242	0x00000000	0.0
243	0x00000000	0.0
244	0x00000000	0.0
245	0x00000000	0.0
246	0x00000000	0.0
247	0x00000000	0.0
248	0x00000000	0.0
249	0x00000000	0.0
250	0x00000000	0.0
251	0x00000000	0.0
252	0x00000000	0.0
253	0x00000000	0.0
254	0x00000000	0.0
255	0x00000000	0.0

network_body._body_endoder.seq_layers.2.weight f4 [256, 256]
0	0x3c21217d	0.009834644
1	0xbd6a394e	-0.057183556
2	0xbd87e2a3	-0.066350244
3	0x3ad6490f	0.0016348677
4	0x3da28c7d	0.07936952
5	0xbddbeafd	-0.1073818
6	0x3d65691f	0.056008454
7	0x3d99f56d	0.075175144
8	0xbc89eaa0	-0.01683551
9	0xbded6807	-0.11592107
10	0xbd46bde9	-0.048520956
11	0x3d7ad6de	0.06124007
12	0xbd6a8274	-0.057253316
13	0x3caf47c5	0.021396527
14	0xbd1e66bb	-0.03867219
15	0x3d458982	0.04822684
16	0x3d856c4c	0.065147966
17	0xbd2df256	-0.042467438
18	0x3ca9c99d	0.02072602
19	0xbc9af9b6	-0.0189179
20	0xbcc2a499	-0.023760127
21	0x3cf3f484	0.02977968
22	0x3e2d3547	0.16914855
23	0x3ce3c558	0.027804062
24	0x3daeb457	0.08530491
25	0x3dad5918	0.08464259
26	0xbca39420	-0.019968092
27	0x3dfaeaf8	0.12251848
28	0x3d732cac	0.059368774
29	0x3d8ea154	0.06964365
30	0x3e2b5a3c	0.1673364
31	0x3d86b1a9	0.06576855
32	0xbcded882	-0.027202848
33	0x3c0a72e5	0.008450245
34	0x3b0d81cd	0.002159226
35	0xbcd6af25	-0.026206562
36	0xbb6a53d6	-0.0035755537
37	0x3de57722	0.112043634
38	0xbd0719fe	-0.032983772
39	0x3d4fd6ed	0.05074208
40	0x3d9b0880	0.075699806
41	0x3c6c4109	0.014419802
42	0xbd28be55	-0.04119714
43	0xbc8991a7	-0.016793085
44	0xbb858e79	-0.004075822
45	0xbce6435c	-0.028108291
46	0x3d4c3412	0.049854346
47	0x3d632710	0.055457175
48	0xbd5e3db1	-0.054258052
49	0xbd1e46ca	-0.03864173
50	0xbd84608e	-0.06463729
51	0x3d532cc9	0.051556382
52	0xbdab7c85	-0.083733596
53	0xbd9653a9	-0.07340176
54	0x3e05d7fb	0.13070671
55	0xbd16ad99	-0.03678665
56	0x3d8f7593	0.070048474
57	0xbdfebce6	-0.12438373
58	0x3dc58d56	0.09646098
59	0x3d71847f	0.05896425
60	0xbcb938e7	-0.022610141
61	0x3dbb980e	0.091598615
62	0xbd16cc1c	-0.036815748
63	0x3d2eb5a8	0.04265371
64	0xbd99c60f	-0.0750848
65	0xbd6aad7a	-0.057294346
66	0xbe340d8c	-0.17583293
67	0xbdd8d096	-0.105866596
68	0xbb438c2b	-0.0029838185
69	0xbdc3ed7d	-0.09566782
70	0xbd406c5e	-0.046978347
71	0x3c931c8f	0.017957954
72	0x3d76adc3	0.060224306
73	0xbb247802	-0.0025095944
74	0xbccc21a8	-0.024918392
75	0x3d834e48	0.06411415
76	0x3d419a7a	0.04726646
77	0xbc97de2a	-0.018538553
78	0xbda8d713	-0.08244147
79	0x3ccc7997	0.024960322
80	0xbd0e190a	-0.034691848
81	0xbdb70212	-0.08935942
82	0x3d001311	0.031268183
83	0xbba6381c	-0.0050726067
84	0x3cb0393d	0.021511668
85	0xbdadfd31	-0.08495558
86	0x3d10b2d9	0.035326812
87	0x3d169761	0.03676546
88	0xba7aa4f1	-0.00095613213
89	0xbc6da1ed	-0.014503938
90	0x3dd33168	0.10312158
91	0x3d132780	0.035926342
92	0x3d3b77b3	0.04576845
93	0xbc37a827	-0.011209524
94	0x3de1e238	0.11029476
95	0x3dc3748c	0.09543714
96	0x3c3d26bf	0.011544882
97	0xba2b55cf	-0.0006535919
98	0x3d1c5f67	0.03817692
99	0x3d91b7ec	0.071151584
100	0xbc2e3c6f	-0.010634526
101	0xbd069b1a	-0.03286276
102	0x3e2cf361	0.16889717
103	0xbda0d8ad	-0.078538276
104	0xbd94b8ff	-0.07261848
105	0xbdc64caa	-0.09682591
106	0xbb8b1ccf	-0.0042453776
107	0xbccb577c	-0.02482199
108	0xbd4f8971	-0.050668184
109	0xbce80a59	-0.028325247
110	0xbd388cea	-0.04505626
111	0xbc155b79	-0.009116047
112	0x3d43522c	0.047685787
113	0x3c984371	0.018586846
114	0x3d726c21	0.05918515
115	0x3d3a944b	0.04555158
116	0xbd1ea853	-0.038734745
117	0xbc4dd56a	-0.012563089
118	0x3ddb0cac	0.10695776
119	0xbd77b29a	-0.060473062
120	0x3d505360	0.050860763
121	0x3cfa8eb8	0.030585632
122	0xbd320daf	-0.04347008
123	0xbc379e9f	-0.011207252
124	0x3d42b90d	0.04753976
125	0x3cdd472e	0.02701148
126	0xbd0dace5	-0.034588713
127	0x3c967c8d	0.018369937
128	0x3d52e69f	0.05148947
129	0x3d493a9f	0.04912817
130	0xbbf4dd66	-0.007472682
131	0xbdcfe775	-0.10151569
132	0xbccc0623	-0.02490527
133	0x3b2a70f7	0.0026007274
134	0xba8783e5	-0.001033899
135	0xbdd1d06a	-0.1024483
136	0x3d497d07	0.0491915
137	0xbcc15f00	-0.02360487
138	0x3ce60871	0.028080197
139	0x3d42e775	0.047584016
140	0xbde057c7	-0.10954242
141	0xbd5790b1	-0.052628223
142	0x3d1b159e	0.037862413
143	0xbd715aff	-0.05892467
144	0x3d3293ee	0.043598108
145	0x3deec7b2	0.116591826
146	0x3d7f46e6	0.062323473
147	0x3da2c208	0.07947165
148	0x3e291b44	0.16514307
149	0x3b4769e6	0.003042811
150	0xbd680fba	-0.056655623
151	0xbd8738e6	-0.066026494
152	0xbd4e06cb	-0.050299447
153	0xbd84adbe	-0.06478451
154	0x3c3e3f91	0.011611835
155	0x3d53dfff	0.05172729
156	0xbde4b830	-0.111679435
157	0x3d958ab0	0.07301843
158	0x3d6c365b	0.057669025
159	0xbdc367fe	-0.09541319
160	0x3d521182	0.051286228
161	0x3e1473da	0.14497319
162	0xbc40b14a	-0.011761019
163	0xbceb97d4	-0.02875892
164	0x3ab38940	0.001369752
165	0x3de9d6de	0.11417936
166	0x3d3ed128	0.046586186
167	0xbe365587	-0.17806064
168	0xbcdaaab3	-0.026692724
169	0xbd48037d	-0.04883145
170	0x3d14d6ea	0.03633777
171	0x3d0bc6d2	0.034125157
172	0xbb8801f5	-0.004150624
173	0xbcf76a7f	-0.030202148
174	0xbcbf07ed	-0.023319209
175	0xbd2d4b46	-0.042308114
176	0x3d200737	0.03906938
177	0x3a705e65	0.00091693393
178	0xbbbe21bc	-0.0058023613
179	0x3cecdce6	0.028913926
180	0xbd6b46de	-0.05744063
181	0x3d447e2e	0.047971897
182	0x3d6bcf6b	0.057570856
183	0xbc6911bf	-0.014225422
184	0x3d27be15	0.04095276
185	0xbccac577	-0.024752362
186	0x3c61a389	0.0137719
187	0x3d053cd1	0.032528702
188	0x3c650c27	0.013979948
189	0xbd2329a0	-0.03983462
190	0x3d48e9b4	0.049051
191	0xbde386de	-0.11109708
192	0x3d1a03ae	0.037601165
193	0x3d969f19	0.07354564
194	0x34e7e649	4.3194657e-07
195	0xbdd651ec	-0.10464844
196	0xbe031a10	-0.12802911
197	0xbd8c6227	-0.068546586
198	0xbca775d5	-0.020441929
199	0x3d4ccd5d	0.050000537
200	0xbdafad83	-0.085780166
201	0x3d2261ae	0.039643936
202	0x3cff8e18	0.031195685
203	0x3d7230d8	0.059128612
204	0x3d093cbc	0.033505186
205	0x3da2e802	0.07954408
206	0x3db711fe	0.089389786
207	0xbde0505d	-0.10952828
208	0xbc7570ef	-0.014980539
209	0x3cfb20a2	0.030655209
210	0xbd081418	-0.033222288
211	0xbde7fb24	-0.11327198
212	0xbd820c56	-0.06350009
213	0xbd21ebeb	-0.03953163
214	0xbcae7001	-0.021293642
215	0x3d810c35	0.063011564
216	0x3d65bc0d	0.056087542
217	0xbd8bea79	-0.068318315
218	0x3e0253c4	0.12727267
219	0x3db04e0e	0.08608638
220	0xbde010f0	-0.109407306
221	0x3d3d8c8e	0.04627662
222	0xbcb305b9	-0.021853315
223	0xbcc5fdcc	-0.024168871
224	0xbd3f4d1c	-0.046704397
225	0x3c0fc423	0.00877479
226	0x3d0fef1c	0.03514014
227	0xbcd9f6bf	-0.026606916
228	0xbcccd2b9	-0.025002824
229	0xbda82270	-0.082096934
230	0x3da62e62	0.081143156
231	0x3d2d330d	0.042285014
232	0x3d24f3b8	0.04027149
233	0xbdfe6ebc	-0.12423465
234	0xbcf09441	-0.029367568
235	0x3baf8d75	0.005357439
236	0xbe08cdef	-0.13359807
237	0x3d34bed5	0.044127304
238	0xbc8d47ca	-0.017246146
239	0x3d46a573	0.04849763
240	0x3ddb7f31	0.10717619
241	0xbd6db2bc	-0.058031783
242	0x3d9d3ddf	0.076778166
243	0xbdb77a59	-0.08958883
244	0x3d2ab2ea	0.041674532
245	0x3db55c24	0.08855465
246	0x3de7f040	0.11325121
247	0xbd88012a	-0.06640847
248	0xbda67f78	-0.081297815
249	0x3d9158dd	0.070970275
250	0xbc382ea4	-0.011241589
251	0x3c061df4	0.008185852
252	0xbbc28145	-0.0059358203
253	0xbdbf994f	-0.09355413
254	0x3d57b9ed	0.052667547
255	0x3dcbb0c4	0.09945825

action_model._continuous_distribution.log_sigma f4 [1, 3]
0	0x00000000	0.0
1	0x00000000	0.0
2	0x00000000	0.0

action_model._continuous_distribution.mu.weight f4 [3, 256]
0	0xbba01d4c	-0.004886305
1	0x3afca5e7	0.0019275517
2	0x3c91729f	0.01775485
3	0x3c321c62	0.010871025
4	0x3adb444a	0.0016728726
5	0xbc4a3148	-0.012340851
6	0x3cca77e5	0.024715373
7	0x3bfd1d80	0.007724464
8	0xbbf5ba03	-0.007498981
9	0xbc6cd35b	-0.014454688
10	0x3c31c9d7	0.010851345
11	0xbc3ce5f4	-0.0115294345
12	0xbcede068	-0.02903767
13	0x3c3ae9db	0.011408295
14	0xbae82e3b	-0.0017713973
15	0x3bb22655	0.0054366984
16	0x3c03d7b2	0.008047031
17	0x3c5e506a	0.013568977
18	0xbb4aa7e8	-0.0030922834
19	0xba3292b7	-0.00068120233
20	0xbc783e3a	-0.015151555
21	0x3cd4361a	0.025904704
22	0xbb993c11	-0.00467635
23	0xbc346120	-0.0110094845
24	0xbc360f2b	-0.011112015
25	0x3c834c2d	0.016027534
26	0x3a9150cc	0.0011086701
27	0x3b5009ea	0.003174419
28	0x3b139a9c	0.0022522574
29	0xbbea48ca	-0.0071497904
30	0xb9c67c1a	-0.00037857966
31	0x3bc90bb3	0.006135428
32	0xbc895547	-0.016764296
33	0xbcabba49	-0.020962851
34	0x3c200fc8	0.009769388
35	0x3bb5c65b	0.0055473275
36	0x3ca4e156	0.02012698
37	0xbc8086e3	-0.015689319
38	0x3c4211bb	0.011845048
39	0xbc0b7cbe	-0.008513628
40	0x3c0418fe	0.008062599
41	0x38ad4043	8.2612525e-05
42	0x3c95c586	0.018282663
43	0xbc1f6bfd	-0.009730336
44	0x3c80f457	0.01574151
45	0xbac27f64	-0.0014838991
46	0x3ac1419f	0.0014744288
47	0xbb8f0af8	-0.0043653212
48	0xbc54ac62	-0.012980552
49	0xbca7ef22	-0.02049977
50	0xbc2e8b1a	-0.010653282
51	0xbc85ffaf	-0.016357271
52	0x3bd1cd18	0.006402623
53	0x3a8ddaf4	0.0010822699
54	0xbbf3312d	-0.0074216337
55	0xbab4e7ae	-0.0013801956
56	0x3b349963	0.0027557246
57	0xbbdace1b	-0.0066774017
58	0x3c81275b	0.015765836
59	0x3bfe13fb	0.0077538467
60	0xbc4844b0	-0.012223408
61	0x3bfd46fd	0.0077294097
62	0x3b7e6617	0.0038818175
63	0x3bd3a45f	0.0064588035
64	0x3c9576b8	0.018245086
65	0x3c11b332	0.008892821
66	0x3c021eda	0.007941926
67	0x3c5ee8ea	0.013605336
68	0x3c573ca0	0.013137013
69	0x3c220da5	0.009890948
70	0xbb6654ed	-0.0035145835
71	0x3c12380a	0.008924494
72	0x3c01f860	0.007932752
73	0xbc3cc9b6	-0.011522701
74	0x3c51176a	0.01276193
75	0xbc142aef	-0.009043439
76	0x3c0a2e38	0.008433871
77	0xba645bcf	-0.00087111903
78	0xb9241fd4	-0.00015652116
79	0x3bfa448a	0.007637565
80	0x3c2dee91	0.010615961
81	0xbc34ce1f	-0.011035471
82	0xbb7c9508	-0.0038540978
83	0xbb8d1433	-0.0043053865
84	0xb8c9ddeb	-9.625762e-05
85	0xbbf2a90f	-0.0074054073
86	0xbabc1737	-0.001435018
87	0x3c83051f	0.015993653
88	0x3ca77038	0.020439252
89	0xbc357e18	-0.011077426
90	0xb8129777	-3.4950175e-05
91	0xbbd58fcb	-0.0065173856
92	0xbbe3d2cf	-0.0069526206
93	0xbb9e54fe	-0.004831909
94	0xbbdfb933	-0.0068274974
95	0x3a17acfb	0.0005785969
96	0xbc10c547	-0.008836097
97	0xbc83d356	-0.016091984
98	0x3c18c8b8	0.009325199
99	0x3bec7497	0.007216047
100	0x3b59a833	0.0033211827
101	0xbc17029f	-0.0092169335
102	0xbc588f3f	-0.013217746
103	0xbc803da5	-0.015654394
104	0x3c3dea88	0.011591561
105	0xbaf3c593	-0.001859831
106	0x3c7436d2	0.014905648
107	0x3c40829e	0.011749892
108	0xbb306923	-0.0026918135
109	0xbb1e95f1	-0.0024198259
110	0x3be1e1e7	0.0068933847
111	0x3c94c08f	0.018158225
112	0xbbe89492	-0.007097789
113	0xbb34d40b	-0.0027592208
114	0x3c861efd	0.016372198
115	0xbc6d06af	-0.0144669255
116	0x3bb9d471	0.005671077
117	0xbb257bdb	-0.0025250826
118	0x39d7c330	0.00041153422
119	0xbc73a7e7	-0.014871574
120	0xba80218a	-0.000977562
121	0x3c338e9e	0.010959296
122	0x3ceb6da0	0.028738797
123	0xbc845bf3	-0.016157126
124	0xbb28834b	-0.0025713022
125	0x3ce1d615	0.027567903
126	0x3cf69c6d	0.030103887
127	0xbb9a0f14	-0.0047015045
128	0x3bef5e13	0.0073049157
129	0x3c71731f	0.01473692
130	0x3c1a93ef	0.009434684
131	0x398fbb4f	0.0002741464
132	0xbcafe493	-0.021471297
133	0x3aad2da3	0.0013212453
134	0x3c02e9b6	0.007990291
135	0x3c288db0	0.010287687
136	0xbaca91fb	-0.0015454883
137	0xbac91f97	-0.0015344498
138	0xbc879cf8	-0.01655434
139	0xb8b9b9db	-8.856106e-05
140	0xbc269ddf	-0.010169475
141	0xba8e2cfe	-0.0010847149
142	0x3ca6ffa5	0.020385573
143	0x3bd7e1f8	0.006588217
144	0x3c88b9ef	0.016690223
145	0xbbf8edff	-0.0075967307
146	0xbc700bff	-0.014651298
147	0xbcb749f0	-0.022374123
148	0xbb84c4f0	-0.004051797
149	0xbc72fba8	-0.014830507
150	0x3c56266a	0.013070682
151	0x3be5d9c2	0.007014484
152	0xbc2b7f8b	-0.01046742
153	0x3be9c4a5	0.0071340376
154	0x3c769d1b	0.015052105
155	0x3b91b013	0.0044460385
156	0xbcb09717	-0.02155642
157	0x3caedbc3	0.021345025
158	0xbcda3802	-0.026638035
159	0x3bb12f4b	0.005407249
160	0xb808b27e	-3.259116e-05
161	0xbc2139bb	-0.009840424
162	0x3b92bd37	0.0044781226
163	0xbc4747cd	-0.012163115
164	0x3c4ea357	0.012612185
165	0xbb8a9015	-0.0042286017
166	0xbbd75def	-0.006572477
167	0xbc3e90e0	-0.011631221
168	0xbc08d7d3	-0.008352238
169	0x3c0159fb	0.007894988
170	0x39d4b0e0	0.00040567573
171	0x3a7f6a2a	0.00097432977
172	0x3c562eca	0.013072679
173	0xbca219d3	-0.019787705
174	0x3c8a1a86	0.01685835
175	0xbca02bab	-0.019552073
176	0x3b1a5cf2	0.0023553935
177	0x3c00f31d	0.007870463
178	0x3b917a31	0.004439615
179	0x3c98b8f9	0.01864289
180	0xba93d2df	-0.0011278054
181	0x3b193f30	0.002338361
182	0xbb9b6c08	-0.004743103
183	0x3bb70f23	0.0055865212
184	0x3c94593a	0.018108953
185	0x3cc5a9ad	0.02412876
186	0xbb340206	-0.0027467026
187	0xbc1230e6	-0.008922791
188	0x3ad5d2b2	0.0016313402
189	0xba921518	-0.0011145202
190	0x3b31e0b7	0.0027141997
191	0x3c29c475	0.01036178
192	0x3c6a7140	0.0143092275
193	0x3c5e4f5a	0.013568724
194	0xba8a051d	-0.0010530088
195	0xbc2ffe5f	-0.010741799
196	0xbc7d3818	-0.015455268
197	0x3992a2b8	0.00027968525
198	0x3c4ae4dd	0.012383667
199	0xbab1f863	-0.0013578053
200	0x3a6e62ff	0.0009093731
201	0xbc8d34ef	-0.017237155
202	0xbc04fa1a	-0.0081162695
203	0x3c0627e8	0.008188225
204	0xbc5b9dfa	-0.013404364
205	0xbc8154b8	-0.015787467
206	0x3c8cbbbe	0.017179366
207	0x3b42def8	0.002973495
208	0xbb7ae6db	-0.0038284573
209	0xbb7b2f1f	-0.0038327647
210	0x3b4624cc	0.0030234335
211	0xbc22d2e2	-0.009937974
212	0xbcb6e450	-0.022325665
213	0x3c1a0a55	0.009401877
214	0xbb64584a	-0.0034842663
215	0x3c574b50	0.0131405145
216	0x3c3beee8	0.011470534
217	0xbcce28b8	-0.0251659
218	0xbc037930	-0.008024499
219	0x3bd409ff	0.006470918
220	0xbcabf2ce	-0.020989802
221	0xbc1e3577	-0.009656302
222	0xbb32a9c2	-0.0027261828
223	0x3c3324f7	0.010934106
224	0x3c85ce92	0.016333852
225	0x3c4fa75f	0.012674182
226	0xbaba9d25	-0.0014237507
227	0x3b5524c8	0.0032523144
228	0xbc192f83	-0.009349707
229	0xba8461ad	-0.001009991
230	0xba5ede20	-0.0008501727
231	0x3b9588eb	0.004563441
232	0x3c636a9f	0.013880401
233	0x3c17f4ad	0.009274644
234	0xbc5254af	-0.012837573
235	0x3bfb0a72	0.0076611573
236	0x3c80a443	0.015703326
237	0x3d2c4657	0.04205927
238	0xba7e2d60	-0.00096960925
239	0xbc218a64	-0.009859655
240	0xbbac0e4f	-0.005250729
241	0xbc5fdf28	-0.013664044
242	0x3ac61540	0.0015112534
243	0xbc44d4eb	-0.012013654
244	0xbc84b753	-0.016200697
245	0x3bfb7920	0.0076743513
246	0x3c0be410	0.008538261
247	0xbaa7a553	-0.0012790359
248	0xba6884a8	-0.0008869865
249	0xbcb9d3ee	-0.022684064
250	0x3b014308	0.0019723792
251	0x3c2bb31b	0.010479714
252	0x3c1233ce	0.008923484
253	0x3b00da90	0.0019661523
254	0xbbffaf02	-0.007802845
255	0xbbad4b1f	-0.005288496

action_model._continuous_distribution.mu.bias f4 [3]
0	0x00000000	0.0
1	0x00000000	0.0
2	0x00000000	0.0

action_model._discrete_distribution.branches.0.weight f4 [1, 256]
0	0x3bdc7cc3	0.00672874
1	0x3c157f21	0.009124548
2	0x3c0cabd5	0.00858589
3	0xb9afe46f	-0.00033548797
4	0x3b0afcd0	0.0021207817
5	0xbb6236cb	-0.0034517522
6	0x3a25de36	0.00063273625
7	0x3b6a1795	0.0035719622
8	0x3bc9e993	0.0061618774
9	0x3aca5b0e	0.0015438513
10	0x3c5775db	0.0131506575
11	0x3a903019	0.0011000662
12	0x3af99e83	0.0019044433
13	0x39774db0	0.00023584696
14	0x3ad5fb28	0.0016325461
15	0x3bc74f6d	0.0060824663
16	0xb8ff085b	-0.00012160904
17	0xbc0bb2e3	-0.008526537
18	0x3be5f3ad	0.007017574
19	0x3b8f6b0f	0.004376776
20	0x3af33998	0.0018556593
21	0x3ba0dabc	0.0049088877
22	0x3c1e9f53	0.009681541
23	0xbbdbc93b	-0.006707338
24	0xba7ebec8	-0.00097177597
25	0x3bac568c	0.0052593406
26	0x3b1c1b5a	0.0023820014
27	0x3b52f00d	0.0032186538
28	0xbac2ee25	-0.0014871998
29	0xbacf57e0	-0.0015819035
30	0xbc150c22	-0.009097131
31	0xbc055a46	-0.008139199
32	0xb8efa212	-0.00011426596
33	0xbc1de1a0	-0.009636313
34	0xbc437713	-0.011930245
35	0x3c4c3c17	0.012465498
36	0x398174bf	0.0002469178
37	0xbb409b47	-0.0029389428
38	0x3b97df63	0.004634784
39	0x3bb09c11	0.0053896983
40	0x3ba36535	0.00498643
41	0xbbaffb36	-0.005370523
42	0xbbdfb568	-0.006827045
43	0x3a4415bd	0.0007480046
44	0xbc80b6b0	-0.015712112
45	0x3baf3bab	0.005347689
46	0xbb84aa17	-0.0040485966
47	0x3b583cd7	0.0032995248
48	0x3c0d7d04	0.008635763
49	0x3ba1c9f9	0.004937407
50	0xbbbcecf5	-0.005765552
51	0x39feaefa	0.00048577023
52	0xbbe89528	-0.007097859
53	0xbc4bae73	-0.012431729
54	0xbb457361	-0.0030128586
55	0x3b9ea33b	0.004841236
56	0x3b871e1d	0.004123463
57	0xbb8eeed1	-0.004361965
58	0xbaeeb74b	-0.0018212585
59	0x3bc26d74	0.005933458
60	0xbb700b1f	-0.0036627722
61	0xbbafca0a	-0.005364661
62	0xbbde240a	-0.0067791985
63	0x397fd093	0.00024396395
64	0xbc0608b8	-0.00818079
65	0xb9ec3313	-0.0004505148
66	0x3c392907	0.011301286
67	0xbc16f3ac	-0.009213369
68	0xbb04ccbf	-0.002026364
69	0x3c47be03	0.012191298
70	0x3a28d3be	0.00064402435
71	0x3b767645	0.0037607115
72	0xbb851a7f	-0.0040619965
73	0x3bc79d0d	0.00609172
74	0x3c36c8ee	0.011156304
75	0x3a451cde	0.0007519255
76	0xbb548715	-0.0032429148
77	0x3be39eb7	0.0069464105
78	0xbab3791f	-0.0013692713
79	0xbbb56c87	-0.005536619
80	0x3a47a391	0.0007615621
81	0xbbcbeb5e	-0.0062231263
82	0xbb0b9e9b	-0.0021304253
83	0x3bcac765	0.0061883205
84	0xbbccacfa	-0.0062462064
85	0xbad4dd65	-0.0016240297
86	0xba94bdc4	-0.0011348058
87	0x3905e4c3	0.00012769089
88	0xbc360177	-0.011108748
89	0x3b5c156f	0.0033582111
90	0x3c287547	0.010281867
91	0x3ae69808	0.0017592916
92	0xbbe889d5	-0.007096509
93	0xbaeafda8	-0.0017928379
94	0xbb65250f	-0.0034964716
95	0xb90f4a8e	-0.00013665317
96	0xbb693fff	-0.0035591123
97	0xbb62bbb8	-0.0034596752
98	0x3bb131a5	0.0054075294
99	0xbc127f7b	-0.0089415265
100	0x3c234eeb	0.009967546
101	0xbb5008b2	-0.0031743464
102	0x3be3a3c5	0.006947013
103	0xbba329a1	-0.004979328
104	0xbbf4c58d	-0.007469839
105	0x3bbd0ca3	0.0057693287
106	0xbc194bb9	-0.009356433
107	0xbc23cad7	-0.009997091
108	0x3b08e63f	0.002088919
109	0xbbb154f9	-0.005411741
110	0x3c5d0478	0.013489835
111	0xba3e636d	-0.00072627404
112	0xb9cf16e0	-0.0003949916
113	0x3c15a428	0.009133376
114	0xbb1b995e	-0.0023742537
115	0x3ad2d678	0.0016085645
116	0x3b483adb	0.0030552659
117	0xbbbd29d6	-0.0057728095
118	0xb9f089e5	-0.00045879107
119	0x3ab3fc23	0.0013731759
120	0xbafa461f	-0.0019094384
121	0xbc008851	-0.007845
122	0xbc3bf0e6	-0.011471009
123	0x3a1e217c	0.0006032211
124	0xb99394ed	-0.00028148983
125	0x3b1dea54	0.002409597
126	0x3ae2655b	0.0017272638
127	0x3b41c963	0.0029569499
128	0xbb36aedf	-0.0027875227
129	0x3a997379	0.0011707387
130	0x3bfd624a	0.0077326642
131	0xbb9d40d1	-0.0047989865
132	0x3a8b14d8	0.001061107
133	0xba9fce32	-0.0012192188
134	0xbbc753d7	-0.0060829925
135	0x3bc3f5d8	0.0059802346
136	0x3b28c025	0.0025749293
137	0x3b05a0e5	0.002039009
138	0x3bcb5671	0.006205373
139	0xbc047b64	-0.008086059
140	0x3bcbde31	0.0062215556
141	0xbc1e63b8	-0.0096673295
142	0x3b5981ad	0.0033188865
143	0x3aa12840	0.0012295321
144	0xbab216a3	-0.0013587069
145	0xbb225ec3	-0.002477572
146	0x399dac0b	0.00030073556
147	0x39b8e189	0.00035263252
148	0xba0f9683	-0.0005477445
149	0x3bbe6db7	0.005811419
150	0xbb8baae5	-0.0042623156
151	0x3c056467	0.008141614
152	0xbaf45667	-0.0018641473
153	0x3be56625	0.007000702
154	0xb99f0b82	-0.00030335417
155	0x3c02d94a	0.007986376
156	0xb8226f7f	-3.872765e-05
157	0x3a96a30d	0.0011492685
158	0x3bef6a17	0.007306348
159	0x3c243b27	0.010023869
160	0x3c6e25fb	0.014535422
161	0xbc3440f4	-0.011001814
162	0xbc8c0854	-0.017093815
163	0xba2a4ae4	-0.0006496145
164	0xbb926d8a	-0.0044686245
165	0x3b2a13d5	0.0025951762
166	0x3a6fe103	0.0009150656
167	0xbbf10823	-0.0073557063
168	0x3b048a71	0.002022412
169	0x3b51cb5d	0.0032012083
170	0x3c0afac7	0.008482642
171	0xb8866813	-6.409003e-05
172	0x3b30f05f	0.002699874
173	0xba979814	-0.0011565709
174	0xbb506662	-0.0031799306
175	0x3c7f8ca7	0.015597499
176	0x3c37ca3c	0.01121765
177	0x3ba06f71	0.0048960974
178	0xbb08a81e	-0.0020852159
179	0xbbb23620	-0.005438581
180	0xbb5f32ed	-0.0034057454
181	0xbc404f16	-0.011737606
182	0xbb8c08c3	-0.0042735054
183	0xbb274bb3	-0.0025527298
184	0x3c305c55	0.010764201
185	0x3b7894d0	0.0037930496
186	0xbaa98910	-0.0012934525
187	0xb916827f	-0.00014353728
188	0xbab0d397	-0.0013490793
189	0xbbecfb9a	-0.0072321417
190	0xbac192bf	-0.0014768465
191	0xbb9818b7	-0.004641618
192	0xbc644685	-0.013932829
193	0xbbb81154	-0.0056173
194	0x3b8a8437	0.004227187
195	0xbb0937ad	-0.0020937726
196	0xba841dd6	-0.0010079693
197	0x3c27cac1	0.010241211
198	0xba0b0867	-0.0005303681
199	0x3b4d9cdf	0.003137402
200	0xbbb095c5	-0.0053889477
201	0xbb9193b8	-0.0044426583
202	0x3be54dba	0.006997791
203	0xbc5741eb	-0.013138275
204	0x3aa8f7bc	0.0012891213
205	0x3aa58a49	0.0012629713
206	0xbb80cfa9	-0.003931005
207	0xbb6f97aa	-0.0036558905
208	0x3b48d51a	0.0030644597
209	0xbbcf0c0f	-0.006318576
210	0x3b2940dd	0.0025826015
211	0xbb809b9f	-0.0039248015
212	0xbba8a383	-0.0051464452
213	0xba95e888	-0.0011437098
214	0xbbcf3187	-0.006323043
215	0x3b1066e5	0.0022033986
216	0xbbd7d3ff	-0.006586551
217	0x3bc5fff6	0.006042476
218	0x3ab5b208	0.0013862262
219	0xbaeba22a	-0.0017977406
220	0xbc035f8d	-0.008018387
221	0x3c3a8766	0.011384821
222	0xbb20de27	-0.0024546476
223	0xbb815ec2	-0.0039480636
224	0xbb860259	-0.0040896353
225	0xbb501db5	-0.0031755988
226	0x3be1b902	0.0068885097
227	0xbb53ce17	-0.0032318884
228	0x3bacaabb	0.005269376
229	0x3a83ac04	0.0010045771
230	0xba451905	-0.0007518682
231	0xbb9521da	-0.0045511546
232	0xbb9e552e	-0.0048319316
233	0x3b18cf00	0.002331674
234	0xb91ab98f	-0.0001475571
235	0xbbc95c87	-0.0061450633
236	0x3b9b783b	0.004744557
237	0x3c9d8ebb	0.019233098
238	0xbb9764c7	-0.004620168
239	0x39dade1a	0.0004174568
240	0x3b666e17	0.0035160834
241	0x3aa67c4c	0.0012701838
242	0xbbb4b632	-0.0055148834
243	0x3ba0cb7d	0.00490707
244	0xbb8f1858	-0.0043669157
245	0xbb326bbf	-0.0027224866
246	0xbaac9175	-0.0013165908
247	0x398bff09	0.00026702162
248	0x3b85af5c	0.0040797424
249	0xbb0c47f3	-0.002140519
250	0xbb527cad	-0.003211777
251	0xbb9d3f70	-0.004798822
252	0x3b87f8af	0.0041495184
253	0x3a37a037	0.000700477
254	0x3bb84be2	0.0056242803
255	0xbbf85155	-0.007578055

onnx::Div_80 f4 [36]
0	0x3eecb697	0.46233055
1	0x3cb4cc7c	0.022070162
2	0x3eecd0fc	0.46253192
3	0x3d3c934f	0.046038922
4	0x3ef19817	0.47186348
5	0x3cb4cc7c	0.022070162
6	0x3ef1aea0	0.4720354
7	0x3e11ef77	0.14251505
8	0x3ef1aea5	0.47203556
9	0x3cb4cc7c	0.022070162
10	0x3ef19862	0.4718657
11	0x3e5620dd	0.20910974
12	0x3ef1aea5	0.47203556
13	0x3cb4cc7c	0.022070162
14	0x3ef19862	0.4718657
15	0x3e8987d7	0.2686145
16	0x3ef1aea5	0.47203556
17	0x3cb4cc7c	0.022070162
18	0x3ef19862	0.4718657
19	0x3e9b19ca	0.30293113
20	0x3ef1aea5	0.47203556
21	0x3cb4cc7c	0.022070162
22	0x3ef19862	0.4718657
23	0x3ea98568	0.33109593
24	0x3ef1aea5	0.47203556
25	0x3cb4cc7c	0.022070162
26	0x3ef19862	0.4718657
27	0x3eb0cb37	0.3453004
28	0x3ef1aea5	0.47203556
29	0x3cb4cc7c	0.022070162
30	0x3ef19862	0.4718657
31	0x3eb5edbc	0.3553294
32	0x3ef1aea5	0.47203556
33	0x3cb4cc7c	0.022070162
34	0x3ef19862	0.4718657
35	0x3eba1233	0.3634201

onnx::Div_83 f4 [7]
0	0x3e512999	0.20426024
1	0x3e457cd1	0.19285895
2	0x3e0d1238	0.13776481
3	0x3e1d6eb2	0.15374258
4	0x3cb4e717	0.022082848
5	0x3cb4cd02	0.022070412
6	0x3cbf6f56	0.023368519
