results/testRun/Car/Car-10749.pt (torch, 638023 bytes, 29 tensors)

network_body.observation_encoder.processors.0.normalizer.running_mean f4 [36]
00000000: fa26 323f 0000 0000 f1a5 9b3e 09e3 383f
00000010: ab3f 383f 0000 0000 a174 8f3e 7d08 2d3f
00000020: a459 5b3f 0000 0000 e280 123e 2579 193f
00000030: 02f5 7f3f 0000 0000 0000 0000 5ae3 c03e
00000040: 685a 6d3f 0000 0000 ebfa 943d 3bdf c43e
00000050: 02f5 7f3f 0000 0000 0000 0000 4d88 853e
00000060: 02f5 7f3f 0000 0000 0000 0000 8462 873e
00000070: 02f5 7f3f 0000 0000 0000 0000 b778 623e
00000080: 02f5 7f3f 0000 0000 0000 0000 d640 5d3e
0.69590724 0.0 0.3040004 0.7222143 0.7197215 0.0 0.28018668 0.6759108
0.85683656 0.0 0.14306977 0.59950477 0.9998323 0.0 0.0 0.37673455
0.92716074 0.0 0.07274421 0.3845156 0.9998323 0.0 0.0 0.26080552
0.9998323 0.0 0.0 0.2644235 0.9998323 0.0 0.0 0.22116362
0.9998323 0.0 0.0 0.21606764

network_body.observation_encoder.processors.0.normalizer.running_variance f4 [36]
00000000: c83e 0e45 0000 803f 8c38 0e45 ce0a 5e44
00000010: 5598 0745 0000 803f 4191 0745 5be2 4c44
00000020: 8ff5 a444 0000 803f b4de a444 bdd1 2544
00000030: 78f9 ff3f 0000 803f 0000 803f 7ce9 e042
00000040: eebd 3544 0000 803f 5387 3544 d8d5 d243
00000050: 78f9 ff3f 0000 803f 0000 803f 4c1d 0642
00000060: 78f9 ff3f 0000 803f 0000 803f 2916 b942
00000070: 78f9 ff3f 0000 803f 0000 803f 25e5 ac41
00000080: 78f9 ff3f 0000 803f 0000 803f 8109 1742
2275.9238 1.0 2275.5342 888.1688 2169.5208 1.0 2169.0784 819.5368
1319.6737 1.0 1318.9595 663.27716 1.9998007 1.0 1.0 112.456024
726.96765 1.0 726.11444 421.67065 1.9998007 1.0 1.0 33.52861
1.9998007 1.0 1.0 92.54328 1.9998007 1.0 1.0 21.611887
1.9998007 1.0 1.0 37.75928

network_body.observation_encoder.processors.1.normalizer.running_mean f4 [7]
00000000: ff6e fd3d 9ca6 1b3e 7bfe 113f c4d4 8d3f
00000010: 8419 8236 6e34 dd36 ee25 093b
0.123746864 0.15200275 0.5702893 1.1080556 3.8772723e-06 6.592417e-06 0.002092715

network_body.observation_encoder.processors.1.normalizer.running_variance f4 [7]
00000000: 3cb5 0645 b809 f943 15eb 8245 483b a946
00000010: 0a76 813f e903 803f d091 1740
2155.3271 498.07593 4189.3853 21661.64 1.0114148 1.0001193 2.3682747

network_body.processors.0.normalizer.running_mean f4 [36]
00000000: fa26 323f 0000 0000 f1a5 9b3e 09e3 383f
00000010: ab3f 383f 0000 0000 a174 8f3e 7d08 2d3f
00000020: a459 5b3f 0000 0000 e280 123e 2579 193f
00000030: 02f5 7f3f 0000 0000 0000 0000 5ae3 c03e
00000040: 685a 6d3f 0000 0000 ebfa 943d 3bdf c43e
00000050: 02f5 7f3f 0000 0000 0000 0000 4d88 853e
00000060: 02f5 7f3f 0000 0000 0000 0000 8462 873e
00000070: 02f5 7f3f 0000 0000 0000 0000 b778 623e
00000080: 02f5 7f3f 0000 0000 0000 0000 d640 5d3e
0.69590724 0.0 0.3040004 0.7222143 0.7197215 0.0 0.28018668 0.6759108
0.85683656 0.0 0.14306977 0.59950477 0.9998323 0.0 0.0 0.37673455
0.92716074 0.0 0.07274421 0.3845156 0.9998323 0.0 0.0 0.26080552
0.9998323 0.0 0.0 0.2644235 0.9998323 0.0 0.0 0.22116362
0.9998323 0.0 0.0 0.21606764

network_body.processors.0.normalizer.running_variance f4 [36]
00000000: c83e 0e45 0000 803f 8c38 0e45 ce0a 5e44
00000010: 5598 0745 0000 803f 4191 0745 5be2 4c44
00000020: 8ff5 a444 0000 803f b4de a444 bdd1 2544
00000030: 78f9 ff3f 0000 803f 0000 803f 7ce9 e042
00000040: eebd 3544 0000 803f 5387 3544 d8d5 d243
00000050: 78f9 ff3f 0000 803f 0000 803f 4c1d 0642
00000060: 78f9 ff3f 0000 803f 0000 803f 2916 b942
00000070: 78f9 ff3f 0000 803f 0000 803f 25e5 ac41
00000080: 78f9 ff3f 0000 803f 0000 803f 8109 1742
2275.9238 1.0 2275.5342 888.1688 2169.5208 1.0 2169.0784 819.5368
1319.6737 1.0 1318.9595 663.27716 1.9998007 1.0 1.0 112.456024
726.96765 1.0 726.11444 421.67065 1.9998007 1.0 1.0 33.52861
1.9998007 1.0 1.0 92.54328 1.9998007 1.0 1.0 21.611887
1.9998007 1.0 1.0 37.75928

network_body.processors.1.normalizer.running_mean f4 [7]
00000000: ff6e fd3d 9ca6 1b3e 7bfe 113f c4d4 8d3f
00000010: 8419 8236 6e34 dd36 ee25 093b
0.123746864 0.15200275 0.5702893 1.1080556 3.8772723e-06 6.592417e-06 0.002092715

network_body.processors.1.normalizer.running_variance f4 [7]
00000000: 3cb5 0645 b809 f943 15eb 8245 483b a946
00000010: 0a76 813f e903 803f d091 1740
2155.3271 498.07593 4189.3853 21661.64 1.0114148 1.0001193 2.3682747

network_body._body_endoder.seq_layers.0.weight f4 [256, 43]
00000000: c758 e8bd 17b6 c7be 243e 09be 5d82 c6be
00000010: c7dc 7a3e 4471 083e 864d abbd b9a4 bbbe
00000020: e148 e33d 624c 08be 9aae 043e ab62 cdbd
00000030: 3651 d8bd 6d42 25be f8d8 f63b 7a75 553d
00000040: e602 96be 1857 b2bd 336c 8c3e a02d a4bd
00000050: 25d4 8bbc ccf3 79be c82b a5bd 9b1f aa3d
00000060: 96d4 b2bd e45a 8ebe ecdc 27bc 8bd6 43bd
00000070: 28c2 6cbe 1b2e 023c 3763 6dbd cb9d 8bbc
00000080: 0855 ec3b 928c 69be d141 49be 21db e83d
00000090: 635e 213d ad90 9cbd a878 8bbe fc97 d63c
000000a0: 57fc bebe b56c 43bb 35f2 4f3d c7fc 42be
000000b0: d884 e2bd 7d44 323e 7368 283d ddb2 503e
000000c0: a544 3abe 4580 2b3d dcc3 82bd b9b4 09be
000000d0: 0462 193e 19c1 f8bd 40db 243d dd73 1fbe
000000e0: 3978 1e3e d5d9 5abe 5388 76be b22e 38be
000000f0: 6508 f0bd 7d5d 1abd 3ae7 e5bd 9da4 4f3e
00000100: 0680 543d 35d4 763e a893 61bc f1a1 8e3d
00000110: 7af1 b23b 4a0c a8bd d79a eb3d 0ad9 113e
00000120: 630d 1a3d f8f6 f4bd 339c b3be 7f2f 16be
00000130: d8ab 40be b215 893e 1f7b 9cbd f4e2 45bd
00000140: 4003 7c3d fe13 803e d2ba 513e e324 03be
00000150: da11 1d3e a2b9 24be b7a0 483e 3c61 7c3d
00000160: e32e b4bd fd27 08be 890e b9bc fb39 0cbd
00000170: 2da7 753e 2d38 5f3d 9d45 64bd 0ca4 a6bd
00000180: 1f09 a53c 18a6 273e 2d77 043e 609d 67bd
00000190: 283d bdbd ad73 663e 70ed 60be 0818 8ebd
000001a0: cf9a 743e 8db5 1c3d 7d9b da3d c8e4 403d
000001b0: 5e11 19bd b496 a43d 46f0 bdbc 6e62 2cbd
000001c0: 179c 1e3e 953b 853e 800f 7b3d 8f94 043e
000001d0: a91c d9bd 6627 1cbe 4c15 133e ff3a 4bbe
000001e0: 7db7 37bd 3ffa 9d3d efdc 0fbd dbfa ecbd
000001f0: 93f1 453e af32 193d 6c4f b03d 3e4b ab3d
00000200: 1618 0c3e a905 b0bd 9f8c 9c3e 076d 87be
00000210: 615f 42be 3c48 733d b46b dcbd 7c83 1bbe
00000220: df99 50be 8a50 3e3d 6d19 9c3d 410a 8c3e
00000230: 3456 29be e692 233c bd53 c1be 959c 633d
00000240: e0af 94bb d5fb a2bd 18c3 083e 8d78 47bd
00000250: 7f5d d73d 4134 c73d c6b1 0abe c373 0b3d
00000260: d975 b3bd 0c79 a43d 258a 4bbe 6f4e e73d
00000270: 6001 dd3d 2181 133e ced0 8ebe cde6 2bbe
00000280: 7f95 b13c 8ad2 8b3e 89c3 d0bd cfe4 03bd
00000290: b2d3 c4bc 2de4 19be 6b06 ba3d 596e 8c3d
000002a0: 5c9a 29be fe88 383e 3189 053e d04a 82be
000002b0: 6fc3 14be 2835 83bd 81ba 2fbd 1399 29be
000002c0: f489 aabe 4357 c63b 5eaf 753d 83c1 813d
000002d0: b0e5 f53d 70a9 c53d c503 d13d 556e ae3c
000002e0: 4a6d 5d3d e99f 4abd 82ab 31be 5f46 db3d
000002f0: 1bc6 4abe e081 ddbd f2ec 623e 5c94 233e
00000300: 7ee1 1abc 7006 e33d 6829 213e 2dd3 e13d
00000310: ac5a 443b d5e1 b8ba ab89 fbbd 948e 44bc
00000320: a718 573e 5027 093e 023a 0cbd c5aa 85bc
00000330: 1250 193d c9d0 1a3e d6cf 3b3e cb9c 403e
00000340: b0ec 16bd 7386 963c d3b8 933d 3290 57be
00000350: 91d7 183e fb6a adbd f4a0 8e3e 803b 8e3d
00000360: 4790 433e 6037 023e b06a 063e e2e7 c53d
00000370: 2793 543c 0265 313e 5a1e 02be 1a45 a8bd
00000380: b1e9 dd3d 1a6c 533c 3194 1c3e 1258 bb3d
00000390: 1e79 ddbd 839d aabd b281 babc ac27 90be
000003a0: b356 b9bd 6d6a 01be 2fa7 e8bc 6d26 ffbc
000003b0: ff7d 383e 2eab 3f3e ea6e 773e 059d d2bd
000003c0: cbfe 503d 37c7 343e 1624 48be 56c6 9a3e
000003d0: 8025 92bd a478 9fbd feda c43c 5d38 16be
000003e0: 4b67 47bc 74fe e43c 0bac 2c3d aea1 68be
000003f0: 310d f53c 16d0 393d 1c65 80be 12ac 82be
-0.11345058 -0.3900611 -0.13402611 -0.38771334 0.24498282 0.13324457 -0.08364396 -0.3664911
0.11097885 -0.13310388 0.1295723 -0.10028585 -0.10562365 -0.1613862 0.007533189 0.052113988
-0.29299086 -0.08708018 0.274263 -0.08016515 -0.017068932 -0.24409407 -0.08064991 0.083068095
-0.08731954 -0.2780372 -0.010245543 -0.047812026 -0.2312094 0.007945563 -0.057955947 -0.017043015
0.007212285 -0.2280753 -0.19654013 0.113699205 0.039396655 -0.07644782 -0.2724049 0.026195519
-0.37301895 -0.0029819433 0.050768096 -0.1904174 -0.11060494 0.17408939 0.041115236 0.20380731
-0.18190248 0.041870374 -0.063850135 -0.13447846 0.14978796 -0.121462055 0.040248156 -0.15571542
0.15475549 -0.21372159 -0.24075441 -0.17986563 -0.11720351 -0.037686814 -0.112257436 0.20277639
0.051879905 0.24104388 -0.013768114 0.069644816 0.005460915 -0.08205469 0.11504143 0.1424295
0.037610423 -0.11961168 -0.35080108 -0.14666556 -0.18815553 0.26774365 -0.07640671 -0.048312142
0.061526537 0.25015253 0.20481423 -0.1280704 0.15338841 -0.16086438 0.19592558 0.061616167
-0.087980054 -0.13296504 -0.022589939 -0.034234982 0.23989554 0.054496933 -0.05573045 -0.08136758
0.02014595 0.16371953 0.12936087 -0.05654657 -0.0924018 0.22505064 -0.21965575 -0.06938177
0.2388718 0.038259078 0.10674188 0.047093183 -0.03737008 0.08036557 -0.02318586 -0.042086057
0.15489231 0.2602202 0.06129408 0.12947296 -0.106011696 -0.15249404 0.14363593 -0.19846724
-0.044852722 0.07713746 -0.035122808 -0.115712844 0.19330435 0.03740185 0.086088985 0.08363961
0.13681063 -0.085948296 0.30576035 -0.2645037 -0.18981697 0.05939506 -0.1076273 -0.15186876
-0.20371197 0.046463527 0.07622037 0.27351573 -0.1653679 0.009983754 -0.377592 0.05556925
-0.0045375675 -0.079581894 0.13355672 -0.04869895 0.1051588 0.097267635 -0.13544378 0.034045946
-0.08762712 0.080309 -0.19876917 0.11294257 0.10791278 0.14404728 -0.2789368 -0.16787262
0.02167773 0.27309066 -0.10193545 -0.03220063 -0.024026725 -0.15028448 0.090832554 0.06856985
-0.1656279 0.18021008 0.13040616 -0.25447702 -0.14527677 -0.06406623 -0.042902473 -0.165623
-0.33308375 0.006052883 0.059981696 0.063357376 0.120067 0.09651458 0.10205797 0.021292845
0.054059304 -0.04946891 -0.17350581 0.107067816 -0.19802134 -0.10815787 0.221607 0.15974563
-0.009453176 0.11085212 0.15738451 0.11026607 0.0029961271 -0.0014105389 -0.122821175 -0.011996884
0.21005498 0.13393903 -0.034235008 -0.01631678 0.037429877 0.15118708 0.18341002 0.18809812
-0.036846817 0.018374657 0.07212987 -0.210511 0.14925982 -0.084676705 0.27857172 0.069449425
0.19098006 0.12716436 0.13126636 0.09663369 0.012974537 0.17323688 -0.1270689 -0.08216305
0.10835589 0.012904191 0.15290906 0.091476575 -0.10814117 -0.08330824 -0.022766922 -0.28155267
-0.0904974 -0.12638254 -0.028400032 -0.031146253 0.18016814 0.18717644 0.24163404 -0.10283855
0.05102424 0.1765412 -0.19545016 0.30229443 -0.07136059 -0.07786682 0.024030205 -0.14669938
-0.012170623 0.027953364 0.04215626 -0.22717926 0.029913517 0.04536446 -0.2507714 -0.25521904

network_body._body_endoder.seq_layers.0.bias f4 [256]
00000000: 0000 0000 0000 0000 0000 0000 0000 0000
00000010: 0000 0000 0000 0000 0000 0000 0000 0000
00000020: 0000 0000 0000 0000 0000 0000 0000 0000
00000030: 0000 0000 0000 0000 0000 0000 0000 0000
00000040: 0000 0000 0000 0000 0000 0000 0000 0000
00000050: 0000 0000 0000 0000 0000 0000 0000 0000
00000060: 0000 0000 0000 0000 0000 0000 0000 0000
00000070: 0000 0000 0000 0000 0000 0000 0000 0000
00000080: 0000 0000 0000 0000 0000 0000 0000 0000
00000090: 0000 0000 0000 0000 0000 0000 0000 0000
000000a0: 0000 0000 0000 0000 0000 0000 0000 0000
000000b0: 0000 0000 0000 0000 0000 0000 0000 0000
000000c0: 0000 0000 0000 0000 0000 0000 0000 0000
000000d0: 0000 0000 0000 0000 0000 0000 0000 0000
000000e0: 0000 0000 0000 0000 0000 0000 0000 0000
000000f0: 0000 0000 0000 0000 0000 0000 0000 0000
00000100: 0000 0000 0000 0000 0000 0000 0000 0000
00000110: 0000 0000 0000 0000 0000 0000 0000 0000
00000120: 0000 0000 0000 0000 0000 0000 0000 0000
00000130: 0000 0000 0000 0000 0000 0000 0000 0000
00000140: 0000 0000 0000 0000 0000 0000 0000 0000
00000150: 0000 0000 0000 0000 0000 0000 0000 0000
00000160: 0000 0000 0000 0000 0000 0000 0000 0000
00000170: 0000 0000 0000 0000 0000 0000 0000 0000
00000180: 0000 0000 0000 0000 0000 0000 0000 0000
00000190: 0000 0000 0000 0000 0000 0000 0000 0000
000001a0: 0000 0000 0000 0000 0000 0000 0000 0000
000001b0: 0000 0000 0000 0000 0000 0000 0000 0000
000001c0: 0000 0000 0000 0000 0000 0000 0000 0000
000001d0: 0000 0000 0000 0000 0000 0000 0000 0000
000001e0: 0000 0000 0000 0000 0000 0000 0000 0000
000001f0: 0000 0000 0000 0000 0000 0000 0000 0000
00000200: 0000 0000 0000 0000 0000 0000 0000 0000
00000210: 0000 0000 0000 0000 0000 0000 0000 0000
00000220: 0000 0000 0000 0000 0000 0000 0000 0000
00000230: 0000 0000 0000 0000 0000 0000 0000 0000
00000240: 0000 0000 0000 0000 0000 0000 0000 0000
00000250: 0000 0000 0000 0000 0000 0000 0000 0000
00000260: 0000 0000 0000 0000 0000 0000 0000 0000
00000270: 0000 0000 0000 0000 0000 0000 0000 0000
00000280: 0000 0000 0000 0000 0000 0000 0000 0000
00000290: 0000 0000 0000 0000 0000 0000 0000 0000
000002a0: 0000 0000 0000 0000 0000 0000 0000 0000
000002b0: 0000 0000 0000 0000 0000 0000 0000 0000
000002c0: 0000 0000 0000 0000 0000 0000 0000 0000
000002d0: 0000 0000 0000 0000 0000 0000 0000 0000
000002e0: 0000 0000 0000 0000 0000 0000 0000 0000
000002f0: 0000 0000 0000 0000 0000 0000 0000 0000
00000300: 0000 0000 0000 0000 0000 0000 0000 0000
00000310: 0000 0000 0000 0000 0000 0000 0000 0000
00000320: 0000 0000 0000 0000 0000 0000 0000 0000
00000330: 0000 0000 0000 0000 0000 0000 0000 0000
00000340: 0000 0000 0000 0000 0000 0000 0000 0000
00000350: 0000 0000 0000 0000 0000 0000 0000 0000
00000360: 0000 0000 0000 0000 0000 0000 0000 0000
00000370: 0000 0000 0000 0000 0000 0000 0000 0000
00000380: 0000 0000 0000 0000 0000 0000 0000 0000
00000390: 0000 0000 0000 0000 0000 0000 0000 0000
000003a0: 0000 0000 0000 0000 0000 0000 0000 0000
000003b0: 0000 0000 0000 0000 0000 0000 0000 0000
000003c0: 0000 0000 0000 0000 0000 0000 0000 0000
000003d0: 0000 0000 0000 0000 0000 0000 0000 0000
000003e0: 0000 0000 0000 0000 0000 0000 0000 0000
000003f0: 0000 0000 0000 0000 0000 0000 0000 0000
0.0 0.0 0.0 0.0 0.0 0.0 0.0 0.0
0.0 0.0 0.0 0.0 0.0 0.0 0.0 0.0
0.0 0.0 0.0 0.0 0.0 0.0 0.0 0.0
0.0 0.0 0.0 0.0 0.0 0.0 0.0 0.0
0.0 0.0 0.0 0.0 0.0 0.0 0.0 0.0
0.0 0.0 0.0 0.0 0.0 0.0 0.0 0.0
0.0 0.0 0.0 0.0 0.0 0.0 0.0 0.0
0.0 0.0 0.0 0.0 0.0 0.0 0.0 0.0
0.0 0.0 0.0 0.0 0.0 0.0 0.0 0.0
0.0 0.0 0.0 0.0 0.0 0.0 0.0 0.0
0.0 0.0 0.0 0.0 0.0 0.0 0.0 0.0
0.0 0.0 0.0 0.0 0.0 0.0 0.0 0.0
0.0 0.0 0.0 0.0 0.0 0.0 0.0 0.0
0.0 0.0 0.0 0.0 0.0 0.0 0.0 0.0
0.0 0.0 0.0 0.0 0.0 0.0 0.0 0.0
0.0 0.0 0.0 0.0 0.0 0.0 0.0 0.0
0.0 0.0 0.0 0.0 0.0 0.0 0.0 0.0
0.0 0.0 0.0 0.0 0.0 0.0 0.0 0.0
0.0 0.0 0.0 0.0 0.0 0.0 0.0 0.0
0.0 0.0 0.0 0.0 0.0 0.0 0.0 0.0
0.0 0.0 0.0 0.0 0.0 0.0 0.0 0.0
0.0 0.0 0.0 0.0 0.0 0.0 0.0 0.0
0.0 0.0 0.0 0.0 0.0 0.0 0.0 0.0
0.0 0.0 0.0 0.0 0.0 0.0 0.0 0.0
0.0 0.0 0.0 0.0 0.0 0.0 0.0 0.0
0.0 0.0 0.0 0.0 0.0 0.0 0.0 0.0
0.0 0.0 0.0 0.0 0.0 0.0 0.0 0.0
0.0 0.0 0.0 0.0 0.0 0.0 0.0 0.0
0.0 0.0 0.0 0.0 0.0 0.0 0.0 0.0
0.0 0.0 0.0 0.0 0.0 0.0 0.0 0.0
0.0 0.0 0.0 0.0 0.0 0.0 0.0 0.0
0.0 0.0 0.0 0.0 0.0 0.0 0.0 0.0

network_body._body_endoder.seq_layers.2.weight f4 [256, 256]
00000000: 827b d13d 0865 e03d bec7 e3bc e9d5 8a3d
00000010: 3233 633d c0b6 723b 7e4f 4abc 8798 343d
00000020: d423 1d3b 172e a03c 0992 a7bd 6642 14be
00000030: 5614 a73c f146 493d 1a75 ea3c f5ba 013d
00000040: f3ff 1c3d 3382 40be ff3c c0bd d7f4 b13d
00000050: 7c1a 56bd 8a49 12bd f79c 72bd 5e48 abbd
00000060: be1b a43d ac3f b53d 5e36 613d 3ab8 663d
00000070: 306a e7bc 5c95 7b3d d16d 6a3d 0689 a03d
00000080: 1fb9 933c 665e 0bbb e13c 0dbd d660 8b3b
00000090: 8edb 543d 53fa c9bc ac12 84bd ec35 623b
000000a0: 8ac3 883d d9b9 3ebb ece9 d6ba da68 a9bd
000000b0: b412 ffbb 44a0 873d 5054 21bd dffc 0a3d
000000c0: 32a9 a23c 15f9 efbc 8005 453d 4526 933d
000000d0: 05f8 1cbd 2270 c1bc ba79 ab3c 7959 a1bd
000000e0: b493 103d 1156 003d d5d9 8f3d 8fbc 823c
000000f0: 82c5 dfbd 0ded 1d3c 8ddf a6bd 2f58 45bd
00000100: c041 f13c 6253 99bb a396 843c 46e4 ab3d
00000110: aafe 163d d7a2 463d cdfd afbd b4bd 013e
00000120: 42e7 213d 5815 9e3d 2ff7 dabd deed acbd
00000130: c4e7 d53d e46b 0cbc daf3 50bd 2c56 983c
00000140: c4c3 01bc 20bc a7bd bd9a 27bd 5e43 b63d
00000150: 05a1 003e 5312 0fbe 5d56 34bd d10b f9bc
00000160: 122d 7ebc 3acf 9abd 401a babd f424 533c
00000170: 8d19 85bd e3d1 28bb 04cc 8abd 665c 93bd
00000180: b6ed 6c3d 5374 973d d52b 173e a914 743d
00000190: d731 c83c f625 e03c 4f17 9dbc 8499 bd3c
000001a0: bb15 503c b0fe d63b 46ba e23c 27aa 7bbd
000001b0: ccf6 b33c 3634 13bd 4421 0abc bfe4 ca3d
000001c0: 34e6 e23d 9a73 e2bb b98f dbbb 5008 13bb
000001d0: 73ab cd3c 0451 3c3c 636f a83d d692 2d3c
000001e0: b770 fdbd 8dff 933d 079d cb3b 39db d4bd
000001f0: 13b4 10bb 2b16 833d 912d bebc 9e36 73bd
00000200: 6b2d 943d 6e1d 65bc 7509 c4bd fbf6 a43d
00000210: bde0 b7bd 7ef0 c23d 13d8 ff3d f698 8a3d
00000220: 28d8 e1bc 04e7 ec3c 3c1d 51bc a97d 973d
00000230: 36f9 c8bc 6361 11be 9667 13be 30cb f93c
00000240: cc7b 40bd 6491 753c 7d7e 00be bff3 4d3d
00000250: a4c0 963d 0306 01be 4b31 73bd f57f a7bc
00000260: cae0 403c 852f d0bc 3c37 893d ef28 87bd
00000270: b469 813d 59fc f03c a04a 3e3d b31c 123c
00000280: acee 353d 3020 b6bc f165 9d3c 2950 18bd
00000290: de37 43bd 30ae 7e3d e19b 743d 6022 17bd
000002a0: 5f7d f4bd 00dd d13c ddc4 2c3d f3c3 5ebd
000002b0: b881 00bb 1b1e ad3d 72d2 3a3b 49e8 873d
000002c0: c4cd c7bd 26e7 f03b 0861 d4bc c21e 52bd
000002d0: 52ef 36bd 8ed0 453d be3e 24bd 0078 98bc
000002e0: 5a5d 2fbc e713 a7bd cc5c 89bd a08d 543d
000002f0: 8f62 243c 1b84 aa3c 0b4f d3bd 8850 673c
00000300: 666f 97bd 29a7 8f3d 9a1e 77bd 4282 87bd
00000310: 47fd d03d 6099 983d ea37 ee3d 11f3 cdbd
00000320: b016 c23b 9f78 10bd 3a48 533d 7a94 f33d
00000330: 1750 663d a067 813b 304c 4bbc 1026 553b
00000340: 36f3 61bc 1f0e 1fbd f618 653d d42f 41ba
00000350: b255 403d 3611 d53c a5a0 8dbd caa1 86bd
00000360: e8ef 22be 7c87 a73c f976 3abc 7406 aebd
00000370: 3e25 29bd b5cf 753d 5944 f33c dbd7 89bd
00000380: ab0b 9bbb ecf3 a3bc e318 c4bd d1e2 513d
00000390: 4a67 50bc bea5 9ebc c935 5fbd 9800 5fbc
000003a0: 73ef ff3a f240 8dbd b36e c8bd b0a4 bf3a
000003b0: 4d90 99bd d69a 093e 3787 0b3d 48b9 6e3d
000003c0: ba3e 55bd b761 233d 389f 50bd f504 61bd
000003d0: 7fd9 d13b 0bcc b03b d52f 493c 38ec d13c
000003e0: da34 cabd 83ad b63d e3da c53d 593c 4bbd
000003f0: 8838 4f3b a1cc 253b 8026 4c3d dbc2 8e3d
0.10228635 0.1095677 -0.027805205 0.067790814 0.055468746 0.0037035197 -0.012348054 0.044090774
0.0023977654 0.019553227 -0.08182151 -0.14478454 0.02039544 0.04913992 0.028620292 0.031672437
0.03833003 -0.18799667 -0.09386634 0.086892776 -0.05227135 -0.035714664 -0.059231725 -0.08363412
0.08013104 0.08850035 0.05498349 0.056328036 -0.028248876 0.061421737 0.057233635 0.07838635
0.018032609 -0.0021265983 -0.034481887 0.004253487 0.051967196 -0.024655497 -0.06448874 0.0034517003
0.06677921 -0.0029102473 -0.0016396618 -0.08271952 -0.007784212 0.06622365 -0.039387047 0.033932563
0.01985607 -0.029293576 0.04810095 0.07185034 -0.038322467 -0.02361304 0.020932067 -0.07878394
0.03529711 0.03133208 0.0702397 0.015959052 -0.109263435 0.009639037 -0.08148108 -0.0481798
0.029450297 -0.0046791295 0.01618511 0.08393149 0.03686396 0.04849514 -0.085933305 0.12670022
0.039527185 0.07718915 -0.10691678 -0.08443807 0.104445964 -0.008570645 -0.051013805 0.018595777
-0.007920209 -0.08190179 -0.040919054 0.08899568 0.12561424 -0.13971834 -0.044027675 -0.030401142
-0.015513675 -0.075590566 -0.09087038 0.012887228 -0.06499014 -0.0025759868 -0.06777194 -0.07195358
0.057843886 0.07395234 0.14762814 0.059590016 0.024437828 0.027361851 -0.019176153 0.023144491
0.012700493 0.006561123 0.027676713 -0.061441567 0.021968268 -0.035938464 -0.008430783 0.09906911
0.11079064 -0.0069107534 -0.0067004827 -0.0022435375 0.025106167 0.011493925 0.0822437 0.01059409
-0.12375014 0.07226477 0.0062137875 -0.10393376 -0.002207999 0.064007126 -0.023215087 -0.05937826
0.07235225 -0.013984067 -0.09572116 0.0805492 -0.08978412 0.095185265 0.12492385 0.06767456
-0.027568892 0.02891875 -0.012763318 0.07397015 -0.024532896 -0.14197306 -0.14394984 0.030492395
-0.046993062 0.014988277 -0.12548251 0.050281283 0.07360962 -0.1259995 -0.05937318 -0.020446757
0.011772344 -0.025413284 0.06699988 -0.06599604 0.063189894 0.029417204 0.046457887 0.008917975
0.04441707 -0.022232145 0.019213649 -0.03718582 -0.0476607 0.062177837 0.05971897 -0.036898017
-0.11937975 0.025618076 0.04217993 -0.05438609 -0.0019608568 0.08453008 0.0028506783 0.06636102
-0.097560436 0.007351774 -0.025925174 -0.051298864 -0.044661827 0.048294596 -0.040098898 -0.018611908
-0.010703409 -0.08158093 -0.06707153 0.051892877 0.010033264 0.020814946 -0.103178106 0.014118321
-0.073942944 0.07014305 -0.06033192 -0.066166416 0.10204559 0.07451129 0.116317585 -0.10056127
0.0059231147 -0.035271283 0.051582552 0.11893554 0.056228723 0.0039491206 -0.012408301 0.0032523908
-0.013790896 -0.038831826 0.055932008 -0.00073694927 0.046956725 0.026009183 -0.06915406 -0.065738276
-0.1591183 0.020450346 -0.011380904 -0.084973246 -0.041295283 0.060012538 0.029695677 -0.06730624
-0.0047316155 -0.020013772 -0.09575059 0.0512417 -0.0127199385 -0.019366141 -0.054494653 -0.013610981
0.0019526317 -0.06897153 -0.09786739 0.0014621224 -0.07498226 0.13437971 0.034064498 0.058282167
-0.052061774 0.03988811 -0.050933093 -0.054936368 0.0064041014 0.0053954176 0.01227947 0.025625333
-0.09873362 0.089198135 0.0966089 -0.0496181 0.0031619389 0.002529897 0.049841404 0.069707595

network_body._body_endoder.seq_layers.2.bias f4 [256]
00000000: 0000 0000 0000 0000 0000 0000 0000 0000
00000010: 0000 0000 0000 0000 0000 0000 0000 0000
00000020: 0000 0000 0000 0000 0000 0000 0000 0000
00000030: 0000 0000 0000 0000 0000 0000 0000 0000
00000040: 0000 0000 0000 0000 0000 0000 0000 0000
00000050: 0000 0000 0000 0000 0000 0000 0000 0000
00000060: 0000 0000 0000 0000 0000 0000 0000 0000
00000070: 0000 0000 0000 0000 0000 0000 0000 0000
00000080: 0000 0000 0000 0000 0000 0000 0000 0000
00000090: 0000 0000 0000 0000 0000 0000 0000 0000
000000a0: 0000 0000 0000 0000 0000 0000 0000 0000
000000b0: 0000 0000 0000 0000 0000 0000 0000 0000
000000c0: 0000 0000 0000 0000 0000 0000 0000 0000
000000d0: 0000 0000 0000 0000 0000 0000 0000 0000
000000e0: 0000 0000 0000 0000 0000 0000 0000 0000
000000f0: 0000 0000 0000 0000 0000 0000 0000 0000
00000100: 0000 0000 0000 0000 0000 0000 0000 0000
00000110: 0000 0000 0000 0000 0000 0000 0000 0000
00000120: 0000 0000 0000 0000 0000 0000 0000 0000
00000130: 0000 0000 0000 0000 0000 0000 0000 0000
00000140: 0000 0000 0000 0000 0000 0000 0000 0000
00000150: 0000 0000 0000 0000 0000 0000 0000 0000
00000160: 0000 0000 0000 0000 0000 0000 0000 0000
00000170: 0000 0000 0000 0000 0000 0000 0000 0000
00000180: 0000 0000 0000 0000 0000 0000 0000 0000
00000190: 0000 0000 0000 0000 0000 0000 0000 0000
000001a0: 0000 0000 0000 0000 0000 0000 0000 0000
000001b0: 0000 0000 0000 0000 0000 0000 0000 0000
000001c0: 0000 0000 0000 0000 0000 0000 0000 0000
000001d0: 0000 0000 0000 0000 0000 0000 0000 0000
000001e0: 0000 0000 0000 0000 0000 0000 0000 0000
000001f0: 0000 0000 0000 0000 0000 0000 0000 0000
00000200: 0000 0000 0000 0000 0000 0000 0000 0000
00000210: 0000 0000 0000 0000 0000 0000 0000 0000
00000220: 0000 0000 0000 0000 0000 0000 0000 0000
00000230: 0000 0000 0000 0000 0000 0000 0000 0000
00000240: 0000 0000 0000 0000 0000 0000 0000 0000
00000250: 0000 0000 0000 0000 0000 0000 0000 0000
00000260: 0000 0000 0000 0000 0000 0000 0000 0000
00000270: 0000 0000 0000 0000 0000 0000 0000 0000
00000280: 0000 0000 0000 0000 0000 0000 0000 0000
00000290: 0000 0000 0000 0000 0000 0000 0000 0000
000002a0: 0000 0000 0000 0000 0000 0000 0000 0000
000002b0: 0000 0000 0000 0000 0000 0000 0000 0000
000002c0: 0000 0000 0000 0000 0000 0000 0000 0000
000002d0: 0000 0000 0000 0000 0000 0000 0000 0000
000002e0: 0000 0000 0000 0000 0000 0000 0000 0000
000002f0: 0000 0000 0000 0000 0000 0000 0000 0000
00000300: 0000 0000 0000 0000 0000 0000 0000 0000
00000310: 0000 0000 0000 0000 0000 0000 0000 0000
00000320: 0000 0000 0000 0000 0000 0000 0000 0000
00000330: 0000 0000 0000 0000 0000 0000 0000 0000
00000340: 0000 0000 0000 0000 0000 0000 0000 0000
00000350: 0000 0000 0000 0000 0000 0000 0000 0000
00000360: 0000 0000 0000 0000 0000 0000 0000 0000
00000370: 0000 0000 0000 0000 0000 0000 0000 0000
00000380: 0000 0000 0000 0000 0000 0000 0000 0000
00000390: 0000 0000 0000 0000 0000 0000 0000 0000
000003a0: 0000 0000 0000 0000 0000 0000 0000 0000
000003b0: 0000 0000 0000 0000 0000 0000 0000 0000
000003c0: 0000 0000 0000 0000 0000 0000 0000 0000
000003d0: 0000 0000 0000 0000 0000 0000 0000 0000
000003e0: 0000 0000 0000 0000 0000 0000 0000 0000
000003f0: 0000 0000 0000 0000 0000 0000 0000 0000
0.0 0.0 0.0 0.0 0.0 0.0 0.0 0.0
0.0 0.0 0.0 0.0 0.0 0.0 0.0 0.0
0.0 0.0 0.0 0.0 0.0 0.0 0.0 0.0
0.0 0.0 0.0 0.0 0.0 0.0 0.0 0.0
0.0 0.0 0.0 0.0 0.0 0.0 0.0 0.0
0.0 0.0 0.0 0.0 0.0 0.0 0.0 0.0
0.0 0.0 0.0 0.0 0.0 0.0 0.0 0.0
0.0 0.0 0.0 0.0 0.0 0.0 0.0 0.0
0.0 0.0 0.0 0.0 0.0 0.0 0.0 0.0
0.0 0.0 0.0 0.0 0.0 0.0 0.0 0.0
0.0 0.0 0.0 0.0 0.0 0.0 0.0 0.0
0.0 0.0 0.0 0.0 0.0 0.0 0.0 0.0
0.0 0.0 0.0 0.0 0.0 0.0 0.0 0.0
0.0 0.0 0.0 0.0 0.0 0.0 0.0 0.0
0.0 0.0 0.0 0.0 0.0 0.0 0.0 0.0
0.0 0.0 0.0 0.0 0.0 0.0 0.0 0.0
0.0 0.0 0.0 0.0 0.0 0.0 0.0 0.0
0.0 0.0 0.0 0.0 0.0 0.0 0.0 0.0
0.0 0.0 0.0 0.0 0.0 0.0 0.0 0.0
0.0 0.0 0.0 0.0 0.0 0.0 0.0 0.0
0.0 0.0 0.0 0.0 0.0 0.0 0.0 0.0
0.0 0.0 0.0 0.0 0.0 0.0 0.0 0.0
0.0 0.0 0.0 0.0 0.0 0.0 0.0 0.0
0.0 0.0 0.0 0.0 0.0 0.0 0.0 0.0
0.0 0.0 0.0 0.0 0.0 0.0 0.0 0.0
0.0 0.0 0.0 0.0 0.0 0.0 0.0 0.0
0.0 0.0 0.0 0.0 0.0 0.0 0.0 0.0
0.0 0.0 0.0 0.0 0.0 0.0 0.0 0.0
0.0 0.0 0.0 0.0 0.0 0.0 0.0 0.0
0.0 0.0 0.0 0.0 0.0 0.0 0.0 0.0
0.0 0.0 0.0 0.0 0.0 0.0 0.0 0.0
0.0 0.0 0.0 0.0 0.0 0.0 0.0 0.0

action_model._continuous_distribution.log_sigma f4 [1, 3]
00000000: 0000 0000 0000 0000 0000 0000
0.0 0.0 0.0

action_model._continuous_distribution.mu.weight f4 [3, 256]
00000000: d23e 3d3c fa9c 693c 2328 6938 2bf6 e53b
00000010: 3a92 d1bb 8f97 a73c 5b78 56bc 9731 2cbb
00000020: 7ba7 063b 1f14 99bc 8062 86bc 1369 cf3c
00000030: 5384 803b 8bb5 30bb 4463 0c3c baac eabb
00000040: b310 5dbb 1289 2b3c 60ff 06bd 83f3 e6bb
00000050: 5ddb f3bc 173b a5bb d3be eebb 04df 34bb
00000060: b8e0 d63a 2e0d 37bc 2afb b43c 47a1 883b
00000070: b6e4 09bc 7b76 09bc 97ad 083d 926b 57bc
00000080: 84df 803c 5b4a 86bb 0a9f a73b 7729 33bb
00000090: 8b53 1dbc 8db2 e9bc 81d1 b6bb 5692 a33b
000000a0: b7ae 063c 0261 3d3b 6b11 143c 1f32 e03b
000000b0: 6fc6 593b 5ffc 49bc e40b c9bc 3b9d b3bc
000000c0: dbe4 22bc 6b19 28bc 5c85 99bc 4bd2 d5bb
000000d0: 2398 b03b d87e b1bb b79e a23b 1332 5d3c
000000e0: 7ac1 9cbb 9f9c bbbc 1bf1 9ebb 1316 e53b
000000f0: 5235 13ba 6f7b c43b d592 413b 3ff2 2fbb
00000100: 802e df3b ed8e 423c f2f5 22bc 34f5 a03c
00000110: a621 053d 387f a03a 70ef 703c 0c2b a0ba
00000120: 82c6 8c3c 9bad 4bb7 27ad ef3b badd f93a
00000130: d453 1d3b f982 c5b9 a0ae bdbb 773a 223c
00000140: 6520 4d3b 7f5e 04bb 6f56 2b3c 65fa ac3c
00000150: a8eb 613c 5fb4 433c 497a 85bc 4b72 9e3a
00000160: c2d6 5cbc 2a4b 74bb fd40 9dbc e5b8 033b
00000170: affd 96bc be10 cc3b 752e 573c b7f1 df3b
00000180: 0f83 813c 97b2 5c3c 5853 cfbb da86 51bb
00000190: 8092 f73c 7ab6 e3bb 327b d23b 4bc4 463c
000001a0: ed39 9c3c 5343 733c b1cb 8e3c 76b8 01bb
000001b0: c68b 403a 9700 c53b f78d d73b 2328 34bc
000001c0: e94e 17ba 4887 4ebb ea87 493c 38f2 ddba
000001d0: 782b d63c eda4 bb3b a66f cc3b f0bc 71bc
000001e0: 3073 983b 7357 9fbc 058b df3b 3202 31bb
000001f0: b5de 363b efa7 22bc d984 1f3b 3a9d da3b
00000200: a5ab 50bc aa17 da3c f0f2 a5ba 8c83 493c
00000210: c9f6 bebb d60a 103c 7372 8fbc 7617 1f3c
00000220: d5e6 d839 f95e 06bc 2741 be3b d7aa 9cbb
00000230: a073 78bb b3c8 acbc 78f6 9439 286f d83b
00000240: ab1a 3c3c 8263 88bc da9b 76bb 9bbf 01bc
00000250: dc1a 993c 0d5d fc3c 488b d33b c175 1e3d
00000260: 3ad4 01bc 5483 3abc 650e 9239 23a8 e63b
00000270: 7b71 f1bc fdc3 d03b f26e 123b 8b48 98bc
00000280: ff77 c2bb 4210 1a3c 2b48 f73b 5fe2 84bc
00000290: 3355 7ebc 525f ebbb 1b79 b63b eaba 693c
000002a0: b3b3 a9bc db03 693c a7ca 863a 3a49 b2bc
000002b0: 0df5 233c 5a1b e1ba a1bd 013a 12c8 a6bb
000002c0: 08c4 f9bb baab 75bc f30e 97bb 47cc 94bc
000002d0: d1b1 8e3c 25ca a1bc ed3c 4d3c d050 51bc
000002e0: 7784 533b 8854 4e3c 819e 1abc 628c 813c
000002f0: ecdf b93b 441e a03c 5572 7dbb b7ee 403c
00000300: 5ee9 813c 6d3b 0bbc 37e0 383c 3599 70bb
00000310: fa28 633c 3d60 c5ba 8451 253c fb72 363c
00000320: 8d75 cebb 9f38 2a3c 0493 36bc 95d8 fa3b
00000330: ce4e 103c df91 1abd 2640 a2bc c321 39bb
00000340: d3a2 ce3c e3aa 853b 785b d83b 676b 9cbc
00000350: b0b8 69bb 5d58 a6ba 1d32 6a3a 95d0 80bc
00000360: 5b19 cebb 7b3d 183c 1963 03bc a307 19bb
00000370: ea5f ddba 5b0d f43b afef ef3c 8a26 12bc
00000380: 8122 8e3a 7c15 bebb 492e 183c e1b5 16bc
00000390: bd55 003c 1f2a c53c 7f6e e4bb 52d4 5f3b
000003a0: da30 2ebc 0e81 193c 0553 373b 3296 f73a
000003b0: 47fb 94bc 3d8f eb3a 2f33 b63b 6508 5abb
000003c0: 47ff a039 cf2d 49bb 6558 8c3c b3a2 0a3b
000003d0: 0aa3 5a3b 831d 0a3b 02fe 613c a221 f43c
000003e0: 5dd3 7b3c 8398 ae3b 37d0 ef3b e677 b3bb
000003f0: 690e bfbb 5667 993c d765 cc3b 0a52 30bc
0.011550622 0.014258618 5.558891e-05 0.007017871 -0.0063956054 0.020458011 -0.013090218 -0.0026274675
0.0020546603 -0.018686352 -0.01640439 0.025318658 0.0039220243 -0.0026963677 0.008568589 -0.007161704
-0.0033731877 0.010469692 -0.03295839 -0.007048072 -0.029767687 -0.0050424444 -0.0072859316 -0.0027598748
0.0016393876 -0.011172576 0.02209242 0.0041696164 -0.008416345 -0.008390064 0.033368673 -0.013148205
0.01573158 -0.0040982193 0.0051153945 -0.0027337947 -0.009602438 -0.028527522 -0.005579174 0.00499181
0.008220366 0.0028896932 0.009037356 0.0068419124 0.0033229848 -0.012328236 -0.024541803 -0.02192556
-0.009942259 -0.010259966 -0.018740349 -0.006525313 0.00538923 -0.0054167323 0.004962768 0.013500708
-0.0047838064 -0.022901831 -0.0048505194 0.006991157 -0.00056155503 0.0059961597 0.0029536982 -0.002684727
0.006810963 0.0118748965 -0.009946333 0.019648172 0.032502793 0.0012244945 0.014705524 -0.001221986
0.0171845 -1.2140164e-05 0.0073143425 0.0019063272 0.0024006264 -0.0003767235 -0.005788639 0.009901634
0.0031299826 -0.0020197926 0.010457619 0.021115491 0.013789095 0.011944859 -0.016293662 0.0012088505
-0.013478937 -0.0037276247 -0.019196028 0.002009922 -0.018431513 0.0062275818 0.013133635 0.0068342346
0.015809564 0.0134703135 -0.006327074 -0.0031971247 0.030221224 -0.006949243 0.0064233774 0.012131761
0.01907059 0.014847594 0.017431112 -0.0019793785 0.00073450466 0.006012033 0.006578203 -0.010995897
-0.00057719514 -0.003151374 0.012300471 -0.0016933149 0.026143774 0.005726448 0.0062388955 -0.014754519
0.0046524033 -0.019450879 0.0068219923 -0.0027009365 0.002790374 -0.009927734 0.0024340658 0.006671575
-0.012736236 0.026622612 -0.0012660902 0.01229943 -0.005827759 0.008791646 -0.017510628 0.009710183
0.00041370714 -0.008201354 0.0058061066 -0.004781108 -0.0037910715 -0.021091795 0.00028412393 0.0066050477
0.0114809675 -0.016649012 -0.0037629516 -0.007919217 0.018689565 0.030806089 0.0064558126 0.038686518
-0.007924134 -0.01138385 0.00027858015 0.0070390864 -0.029473057 0.00637102 0.002234396 -0.018589279
-0.005934715 0.00940329 0.007546445 -0.016221223 -0.015523243 -0.007182994 0.005568636 0.014265755
-0.02071557 0.014222111 0.0010283784 -0.021763433 0.010007155 -0.0017174289 0.00049492164 -0.005089768
-0.0076222457 -0.014994556 -0.0046099364 -0.018163813 0.017418774 -0.01974971 0.012526733 -0.012775615
0.0032275 0.012593396 -0.009437204 0.01581401 0.0056724455 0.019545682 -0.0038672884 0.011775664
0.015858348 -0.008498055 0.011283926 -0.0036712412 0.01386475 -0.0015058588 0.010090236 0.011135812
-0.0063006342 0.010389476 -0.01114345 0.007655213 0.008807851 -0.03773677 -0.019805979 -0.0028248883
0.025224125 0.004079209 0.006602701 -0.019094182 -0.003566306 -0.0012691129 0.0008933859 -0.01572446
-0.0062896437 0.009292002 -0.008019232 -0.00233505 -0.0016889547 0.007447881 0.029289095 -0.008920321
0.0010844023 -0.005800901 0.009288379 -0.009198637 0.007832942 0.024067936 -0.00697118 0.0034153652
-0.010631764 0.009369148 0.0027973067 0.0018889366 -0.018186225 0.0017971765 0.005560301 -0.0033269164
0.00030707775 -0.003069747 0.017131994 0.0021154105 0.003336134 0.002107472 0.01379347 0.029801194
0.015370217 0.0053282394 0.0073185223 -0.0054769395 -0.0058305752 0.018726032 0.006237726 -0.010761747

action_model._continuous_distribution.mu.bias f4 [3]
00000000: 0000 0000 0000 0000 0000 0000
0.0 0.0 0.0

action_model._discrete_distribution.branches.0.weight f4 [1, 256]
00000000: 035f 273c 000b 8fbb 2e50 213c ef0e 893a
00000010: 6a70 fdba c30e 023c 71fd 123b 309c e43b
00000020: 07d4 0ebb f77e 5aba 25ee 533b 63b5 673c
00000030: 6bf3 103c 77be f03a bd3c 763a 953a 853c
00000040: 7f12 56ba d35c b4bb f083 2a3c 5ab5 8cbb
00000050: 1636 3b39 4295 693b c73a 32ba 6a90 633b
00000060: 05ff c0bb f78d 02bc 9786 6436 6bdd 39bb
00000070: b7d5 6439 d586 7dbb ae92 aeba 7f08 d0bb
00000080: a859 5fbb cf27 c6bb 4b2a 2ebc 73d3 ddbb
00000090: dfd5 003c 4355 19bc 770b 923b 1892 c6bb
000000a0: 28ea 32bc e378 6a3b 979b ddbb d0ac 87bb
000000b0: a20a 5d3a efe5 bdbb ad6c 953b bb6d 9cbb
000000c0: abf4 5c3b b896 eb39 4f62 0eba 33f3 533b
000000d0: adea 3838 6ee1 a93a 69d6 ac3b 6fa8 0c3c
000000e0: 43ff 58bc eb0e 25bc 5089 04bc 2398 bc39
000000f0: 7104 bc3b 818d 2bbc 3d97 6f3b a8bd 7db9
00000100: bb70 f73b 7a64 0bbb 5896 dfbb 0e8f 383b
00000110: e562 d339 d36e 0fbc 8d50 a9bb 5050 cdb8
00000120: ddfa 793c be26 06b9 7b38 203b b225 623b
00000130: c719 28bc 53c3 cabb 3f6c fa3b e30e 61bc
00000140: 4779 94ba 18ff d53a 7bf2 5abb eb45 cabb
00000150: 8b8c 63bb 2a03 cb3b a366 773c 1b47 82bb
00000160: ad1f 9eba 88d2 9e3a 1f8a 833b ac37 313c
00000170: 0b3e f2bb 8fee debb 5ec2 abbb 5f0b 193b
00000180: 47de 4e3b a24f c33b 8346 e8ba 9583 323c
00000190: 1871 093a 8a01 3b3b c882 7cbb cc05 1cbc
000001a0: d06b 943b c2d6 d5bb bb87 0b3c bb01 133c
000001b0: 19b1 06bb ad23 a8bb 4aee 07ba b829 e0bb
000001c0: 1aa8 19bc 075a 2bbb cbbd 54ba dbc5 abbb
000001d0: 7d77 26bc bc29 02bc 7b5f 993b b525 dfbb
000001e0: 30d1 4f3a 556d 2c3b bf1b b33b f0cb f7ba
000001f0: 5b29 d8bb c205 cb3b 8799 8a3a edc8 71bb
00000200: 9cc7 33bc c5a1 f6bb bf90 a6b9 e518 703a
00000210: 4ad7 8f3b 8a15 983b c9db ca3a d834 82bb
00000220: 7458 183c 9266 133c a95b 2d3a 5dc4 65bb
00000230: 9f1b 123b c237 8d3a 3cf0 27bb 93ce 443c
00000240: aa45 2f3c 55e4 e23a 6050 ee3b ae41 c6ba
00000250: 7fea 353b 61ca a9bb aa7e 3dbc b2d0 b43a
00000260: 43ac bbbb 265e 8a3b b3d0 113c 33e2 d9bb
00000270: b72a 273b 48d4 4f39 7a12 1ebc 5cf0 0dbb
00000280: dd44 c3ba 77ee 3d3a 6aa5 433c f6ba c0bb
00000290: b966 ab3b df29 7c3a dff0 7a3a 713c b4bb
000002a0: ef2b ad3b 5fde 65bb 8c1b 413b fbf7 39bb
000002b0: fc29 30bb 9342 253b 37ab c0bb 390e 4abc
000002c0: 3b81 7c3c 4d09 46bb c314 c7bb c260 953b
000002d0: 31b9 15bc c719 c53b adee 2cbb ee71 9bba
000002e0: 72fd 1abc f421 323b 7f02 95bb a544 303b
000002f0: 7f03 a6bb c2ea 29bc 1a90 613b 93a1 803b
00000300: 1b90 61bb efe8 80ba 904a cdb8 2c1b 11b9
00000310: d8b7 443b 5a6f cabb 4144 93bb 5102 bd3b
00000320: bfa7 dfba 55ff 98bc 0acf 20ba 956d 02bc
00000330: ee11 223b 4722 083c eb6a 813b e233 d63a
00000340: 84ba 9e3b 94ab bbbb df60 de3b cee1 363b
00000350: 3f59 b5bb b0ef 95bb 554d b8bb 0ada 4139
00000360: 1809 783b fffb 6f3b 030e 1d3b 5d92 5d3b
00000370: e34b b03b 52bb 41bc 4339 13bc a21d 283c
00000380: f324 8d3b 46d3 163b 4a2a 063c dc53 1c3c
00000390: 8cab bbb5 347f 013c c308 a4ba f65a aebb
000003a0: 1b21 c93b b7f9 03bb f6b9 243c dfbc e7bb
000003b0: a51b febb 83b7 cc3a 8451 18bb 33e5 05bc
000003c0: df48 2bbb 4f4f 783b bf1b e23b 23d3 0fbc
000003d0: 9b35 2ebb 075e c6bb 1655 4b3c dbc4 5c3c
000003e0: a8c8 933b c82c 68bb b3c3 cfba 22f0 00bb
000003f0: 30c2 543b 2f07 05bb 2bdd 543a d547 02bc
0.010215524 -0.004365325 0.0098457765 0.0010456721 -0.001933587 0.00793809 0.0022428895 0.006976627
-0.0021793859 -0.0008334959 0.003233799 0.014142367 0.008847098 0.001836731 0.0009393206 0.016263286
-0.0008166208 -0.0055042296 0.010407433 -0.0042940797 0.00017853858 0.0035641943 -0.00067989196 0.0034723529
-0.0058897757 -0.007968417 3.405299e-06 -0.0028360735 0.0002182339 -0.0038685102 -0.001331886 -0.006348669
-0.003408054 -0.006047226 -0.010630201 -0.0067695915 0.007863491 -0.009358707 0.004456933 -0.006059896
-0.010920085 0.003577762 -0.0067629325 -0.004140474 0.00084320654 -0.0057952325 0.0045600743 -0.004773823
0.003371517 0.00044934987 -0.0005431519 0.0032341003 4.4087577e-05 0.001296086 0.005274583 0.00858508
-0.013244453 -0.0100743575 -0.0080893785 0.00035971505 0.005737834 -0.010470749 0.003655865 -0.00024198613
0.0075512803 -0.0021269605 -0.0068233423 0.002816144 0.00040318738 -0.00875445 -0.005167073 -9.790121e-05
0.015257564 -0.00012793668 0.0024447727 0.0034507331 -0.010260052 -0.0061878352 0.0076422985 -0.013736459
-0.0011327647 0.0016326634 -0.003340869 -0.0061728857 -0.0034721221 0.0061954455 0.015100154 -0.0039757616
-0.0012063883 0.0012117187 0.004014268 0.010816496 -0.00739265 -0.0068033407 -0.0052416762 0.0023352725
0.0031565593 0.0059604207 -0.001772121 0.010895629 0.00052429875 0.0028534853 -0.00385301 -0.009522866
0.004529454 -0.0065258453 0.008516247 0.008972581 -0.0020552336 -0.005131206 -0.0005185349 -0.0068409108
-0.009378457 -0.002614619 -0.00081154396 -0.005242092 -0.010160324 -0.007944521 0.0046805716 -0.006809915
0.00079275947 0.0026310284 0.005465954 -0.0018905383 -0.006596727 0.0061957547 0.0010574319 -0.0036893443
-0.010972884 -0.0075266086 -0.00031769832 0.0009158983 0.004389678 0.0046412395 0.0015476878 -0.0039735846
0.009298433 0.008996623 0.00066130847 -0.0035059669 0.0022294295 0.0010774063 -0.0025625369 0.012012142
0.010697762 0.001731048 0.007272765 -0.0015125775 0.0027758179 -0.005181596 -0.011565844 0.0013795106
-0.0057273223 0.004222649 0.008899855 -0.0066492795 0.0025507638 0.0001982014 -0.00964796 -0.0021658158
-0.0014897842 0.0007245312 0.011941293 -0.0058816625 0.0052307514 0.00096192764 0.0009572636 -0.0055003692
0.0052847783 -0.003507517 0.0029465882 -0.0028376568 -0.0026880493 0.0025216683 -0.0058797854 -0.0123324925
0.01541167 -0.0030217946 -0.006075473 0.0045586536 -0.009138391 0.006015036 -0.002638738 -0.0011859515
-0.00945984 0.0027180882 -0.0045474167 0.0026896384 -0.0050663347 -0.010370912 0.0034418167 0.003925511
-0.003441817 -0.0009835045 -9.78905e-05 -0.000138384 0.0030016806 -0.006177825 -0.0044942205 0.0057680984
-0.0017063542 -0.01867644 -0.0006134367 -0.007960697 0.0024729925 0.008308954 0.003949513 0.0016342367
0.0048440117 -0.005727241 0.0067864503 0.0027905586 -0.0055343206 -0.004575692 -0.005624453 0.0001848714
0.0037847217 0.0036618707 0.002396465 0.0033809163 0.00538014 -0.011824446 -0.00898582 0.010260971
0.004307383 0.0023014112 0.008188793 0.009541478 -1.3982512e-06 0.007903863 -0.0012514818 -0.005320902
0.0061379797 -0.0020137855 0.010054102 -0.0070720757 -0.0077547603 0.0015618656 -0.0023241946 -0.008172321
-0.0026135964 0.0037889068 0.0069002802 -0.008778366 -0.0026582244 -0.0060536894 0.012410423 0.013474668
0.004510004 -0.0035427082 -0.001585117 -0.001967438 0.0032464378 -0.0020298471 0.0008120115 -0.007951696

network_body.observation_encoder.processors.0.normalizer.running_mean f4 [36]
00000000: fa26 323f 0000 0000 f1a5 9b3e 09e3 383f
00000010: ab3f 383f 0000 0000 a174 8f3e 7d08 2d3f
00000020: a459 5b3f 0000 0000 e280 123e 2579 193f
00000030: 02f5 7f3f 0000 0000 0000 0000 5ae3 c03e
00000040: 685a 6d3f 0000 0000 ebfa 943d 3bdf c43e
00000050: 02f5 7f3f 0000 0000 0000 0000 4d88 853e
00000060: 02f5 7f3f 0000 0000 0000 0000 8462 873e
00000070: 02f5 7f3f 0000 0000 0000 0000 b778 623e
00000080: 02f5 7f3f 0000 0000 0000 0000 d640 5d3e
0.69590724 0.0 0.3040004 0.7222143 0.7197215 0.0 0.28018668 0.6759108
0.85683656 0.0 0.14306977 0.59950477 0.9998323 0.0 0.0 0.37673455
0.92716074 0.0 0.07274421 0.3845156 0.9998323 0.0 0.0 0.26080552
0.9998323 0.0 0.0 0.2644235 0.9998323 0.0 0.0 0.22116362
0.9998323 0.0 0.0 0.21606764

network_body.observation_encoder.processors.0.normalizer.running_variance f4 [36]
00000000: c83e 0e45 0000 803f 8c38 0e45 ce0a 5e44
00000010: 5598 0745 0000 803f 4191 0745 5be2 4c44
00000020: 8ff5 a444 0000 803f b4de a444 bdd1 2544
00000030: 78f9 ff3f 0000 803f 0000 803f 7ce9 e042
00000040: eebd 3544 0000 803f 5387 3544 d8d5 d243
00000050: 78f9 ff3f 0000 803f 0000 803f 4c1d 0642
00000060: 78f9 ff3f 0000 803f 0000 803f 2916 b942
00000070: 78f9 ff3f 0000 803f 0000 803f 25e5 ac41
00000080: 78f9 ff3f 0000 803f 0000 803f 8109 1742
2275.9238 1.0 2275.5342 888.1688 2169.5208 1.0 2169.0784 819.5368
1319.6737 1.0 1318.9595 663.27716 1.9998007 1.0 1.0 112.456024
726.96765 1.0 726.11444 421.67065 1.9998007 1.0 1.0 33.52861
1.9998007 1.0 1.0 92.54328 1.9998007 1.0 1.0 21.611887
1.9998007 1.0 1.0 37.75928

network_body.observation_encoder.processors.1.normalizer.running_mean f4 [7]
00000000: ff6e fd3d 9ca6 1b3e 7bfe 113f c4d4 8d3f
00000010: 8419 8236 6e34 dd36 ee25 093b
0.123746864 0.15200275 0.5702893 1.1080556 3.8772723e-06 6.592417e-06 0.002092715

network_body.observation_encoder.processors.1.normalizer.running_variance f4 [7]
00000000: 3cb5 0645 b809 f943 15eb 8245 483b a946
00000010: 0a76 813f e903 803f d091 1740
2155.3271 498.07593 4189.3853 21661.64 1.0114148 1.0001193 2.3682747

network_body.processors.0.normalizer.running_mean f4 [36]
00000000: fa26 323f 0000 0000 f1a5 9b3e 09e3 383f
00000010: ab3f 383f 0000 0000 a174 8f3e 7d08 2d3f
00000020: a459 5b3f 0000 0000 e280 123e 2579 193f
00000030: 02f5 7f3f 0000 0000 0000 0000 5ae3 c03e
00000040: 685a 6d3f 0000 0000 ebfa 943d 3bdf c43e
00000050: 02f5 7f3f 0000 0000 0000 0000 4d88 853e
00000060: 02f5 7f3f 0000 0000 0000 0000 8462 873e
00000070: 02f5 7f3f 0000 0000 0000 0000 b778 623e
00000080: 02f5 7f3f 0000 0000 0000 0000 d640 5d3e
0.69590724 0.0 0.3040004 0.7222143 0.7197215 0.0 0.28018668 0.6759108
0.85683656 0.0 0.14306977 0.59950477 0.9998323 0.0 0.0 0.37673455
0.92716074 0.0 0.07274421 0.3845156 0.9998323 0.0 0.0 0.26080552
0.9998323 0.0 0.0 0.2644235 0.9998323 0.0 0.0 0.22116362
0.9998323 0.0 0.0 0.21606764

network_body.processors.0.normalizer.running_variance f4 [36]
00000000: c83e 0e45 0000 803f 8c38 0e45 ce0a 5e44
00000010: 5598 0745 0000 803f 4191 0745 5be2 4c44
00000020: 8ff5 a444 0000 803f b4de a444 bdd1 2544
00000030: 78f9 ff3f 0000 803f 0000 803f 7ce9 e042
00000040: eebd 3544 0000 803f 5387 3544 d8d5 d243
00000050: 78f9 ff3f 0000 803f 0000 803f 4c1d 0642
00000060: 78f9 ff3f 0000 803f 0000 803f 2916 b942
00000070: 78f9 ff3f 0000 803f 0000 803f 25e5 ac41
00000080: 78f9 ff3f 0000 803f 0000 803f 8109 1742
2275.9238 1.0 2275.5342 888.1688 2169.5208 1.0 2169.0784 819.5368
1319.6737 1.0 1318.9595 663.27716 1.9998007 1.0 1.0 112.456024
726.96765 1.0 726.11444 421.67065 1.9998007 1.0 1.0 33.52861
1.9998007 1.0 1.0 92.54328 1.9998007 1.0 1.0 21.611887
1.9998007 1.0 1.0 37.75928

network_body.processors.1.normalizer.running_mean f4 [7]
00000000: ff6e fd3d 9ca6 1b3e 7bfe 113f c4d4 8d3f
00000010: 8419 8236 6e34 dd36 ee25 093b
0.123746864 0.15200275 0.5702893 1.1080556 3.8772723e-06 6.592417e-06 0.002092715

network_body.processors.1.normalizer.running_variance f4 [7]
00000000: 3cb5 0645 b809 f943 15eb 8245 483b a946
00000010: 0a76 813f e903 803f d091 1740
2155.3271 498.07593 4189.3853 21661.64 1.0114148 1.0001193 2.3682747

network_body._body_endoder.seq_layers.0.weight f4 [256, 43]
00000000: 58cf 6cbe d3b2 d4ba 017c 0dbe f78b 4a3c
00000010: 0d73 c9be e15a 23be 3299 4abe 7de9 5fbe
00000020: b489 94be a12a b9bd 6bab 183d 3a81 4ebd
00000030: 8199 8dbd 4478 e0bd 3aee 003e 2ef9 fbbd
00000040: 7eea 72bc f998 f53d 8dd6 99be 293f 063e
00000050: 1f46 f3bd bffd e9bd d12f 453e 5bbf 5f3d
00000060: 855f 893e 8038 e1bd 2a2f 0cbc 6800 b5be
00000070: 379c bfbd 931b 5bbe fc7e 063e d0bf 41be
00000080: 46fa c8bc 2ebb 233e 900f 843e 8713 93bd
00000090: 7c14 8dbe 3fc2 acbe 8d01 a63b 3c9c 833d
000000a0: eb4f c13d 6e7d dbbd 7994 1a3e 0fec 403e
000000b0: efbe a2bd 0b36 fcbd 10d0 34be 5816 663e
000000c0: 6cfc ba3d a52f 70bd 743b abbd 364c ea3d
000000d0: 674c fe3d 281f cf3c fb82 47bc cc97 73bd
000000e0: cb69 0ebd 1fdf 82bb c815 8ebd f23a 853e
000000f0: d45b 76bd 34d8 d9bd 897c 8d3d 8c66 70be
00000100: c9ac c23c 01e7 a1bd 2390 183e 0352 73be
00000110: 3a99 aebe 84cc 103c a8cc 2dbe 7b8b 20bd
00000120: 13d3 13be 73ed dfbd 43bd d43d 3340 973d
00000130: 354f 383e 65af 273e 7793 ba3d 72c6 8b3b
00000140: d821 71be 9e00 34be eea6 2d3e c1d4 5d3d
00000150: f13b d1ba ff1d d4bd 379a bc3e 80f7 143c
00000160: 8f25 24be 8e0f 5c3e bfda 94bd 42cc 6a3d
00000170: e7e5 4d3d 89ca a0bd 924a 2d3e 0630 e7be
00000180: 9b25 f9bd 0020 e63d 3ad7 683c 5f47 78be
00000190: 504b 7b3e 447e 353d 5de9 2e3e 21aa 3f3d
000001a0: 678a 573d 6c2d 8bbc 690e 183d 97a4 c53d
000001b0: a0e1 ed3d 88d4 873e 9de4 38bd a1c0 eebd
000001c0: 5629 00be 177e 683e 07f4 2b3e a979 6f3e
000001d0: 7ce7 623d e303 a9bc 69b0 b6bd 7a63 5f3e
000001e0: 9dba ecbd 5b41 babc 189d c4be 7cff 0e3d
000001f0: 8f55 45be 4ce5 733d 4058 0ebe 0ada dd3d
00000200: 3cef 42be 0b30 7f3d 1105 2e3e 29b7 b53d
00000210: 3e72 de3d 9e9f 55bc e810 113e 5130 3e3d
00000220: 8c0d 30bd 3e6c 28be f27c 2f3e eb86 16be
00000230: 858d c23a 1b18 fc3d 0db2 5bbe 185f 58bd
00000240: 94fa fc3d 98b8 ed3d b7fd 323e 7f72 913d
00000250: 5451 8cbc 4078 18be 100e 913d 291a 3abd
00000260: 4e30 93be 31d5 b63d e268 d63d bd77 4ebd
00000270: afe8 5b3d 5d79 3d3d 4c15 e03d 9523 523e
00000280: 4d72 83bc 86dc 1cbd 2b05 2d3e 30a6 ab3d
00000290: 3d17 04be 99ea 233d 53c4 863c 4dab ef3c
000002a0: e9bf eabd 8ca2 933e d684 86bd 6d0d 0bbe
000002b0: 7096 42bd 923c c23d 5040 37bd 1e3d 7dbe
000002c0: 24fe f7bd a45a 0fbe 6524 25be b82e 533e
000002d0: 24f1 5fbe 97f9 27bd 2e71 9c3b a88f 403d
000002e0: 38db 913d 977e a2be b597 23be 4abb 253e
000002f0: 4040 c9bd 777c 99bb a4fb e83d 6a02 65be
00000300: 2b07 ac3e 5f2c 2ebe 5df1 35be 74a7 babc
00000310: 26fd 9e3d 80ee e33c 9018 493d 75d9 5d3d
00000320: b045 463d b9d9 41be d943 033e ecd4 69be
00000330: 4d5e 413e e29d f83d 009d 2a3e 4671 753e
00000340: 457d 99be 644b c6bc 08d2 52bd 8d28 3cbd
00000350: 5c46 3f3e afc5 5d3e 2e19 08be 5cec a7be
00000360: 68ce 933d 9971 c8bd a83a aabd 63b2 e33c
00000370: 8162 463d 8851 323d 6d12 8fbe d669 cf3d
00000380: 90ed 0fbe 7edb 733e 9835 f4bd 0a0d dbbc
00000390: 1e81 01be c1c0 7e3d c90f 003e 145b 233e
000003a0: ecb0 0a3e 0d93 0d3d ccdd 0b3e fb57 ae3c
000003b0: 47fa 2cbd 7b0f 7d3e ff4f 193d 7be1 4e3d
000003c0: 69eb 343e 82ad 223e 29c9 e4bd 82a4 dbbd
000003d0: bea2 56bd 05ab b6bd e811 ee3d 5119 fd3b
000003e0: 952d dd3d f139 d1bd ad52 05bb ea26 893e
000003f0: 11f9 9a3c 13ab 89be da95 6ebd 6f64 dbbd
-0.2312597 -0.001622761 -0.13816835 0.012362472 -0.3934559 -0.15952636 -0.19785002 -0.21866412
-0.2901131 -0.09041334 0.037272852 -0.05041621 -0.06914044 -0.10960439 0.12590876 -0.12303387
-0.014826415 0.11992068 -0.30046502 0.13110031 -0.11878609 -0.11425351 0.19256522 0.05462585
0.26830688 -0.10997105 -0.008556167 -0.35351872 -0.093559675 -0.21397237 0.13134378 -0.18920827
-0.024533402 0.15989372 0.25793123 -0.07181459 -0.2755469 -0.33741948 0.005066103 0.06426284
0.09439071 -0.10717283 0.150957 0.18840049 -0.07946574 -0.123149954 -0.17657495 0.22469461
0.09130177 -0.058639187 -0.08360949 0.11440317 0.12416916 0.025283411 -0.012177224 -0.059470937
-0.03476886 -0.0039938833 -0.06937748 0.26021534 -0.060146168 -0.106369406 0.06908519 -0.23476619
0.023764031 -0.079053886 0.14898734 -0.23761754 -0.34101278 0.008837823 -0.16972601 -0.03919552
-0.14435987 -0.10933962 0.10387661 0.07385292 0.17998965 0.16375501 0.09110158 0.0042656
-0.23548067 -0.1757836 0.1695821 0.054157976 -0.0015963299 -0.10357284 0.36836407 0.009092212
-0.16029952 0.21490309 -0.07268285 0.0573237 0.05026808 -0.078511305 0.16922978 -0.45153826
-0.12165376 0.11236572 0.01421147 -0.24245976 0.24540448 0.04430987 0.17081209 0.046793107
0.052622225 -0.016989432 0.037123118 0.09650534 0.116153 0.26529336 -0.045139898 -0.11657835
-0.12515768 0.2270435 0.16792308 0.23386253 0.055396542 -0.020631736 -0.08920366 0.21815291
-0.11559031 -0.022736242 -0.38401103 0.034911618 -0.1927092 0.059544846 -0.13900852 0.10832603
-0.19036573 0.062301677 0.1699412 0.08872826 0.10861634 -0.013038544 0.14166605 0.046432797
-0.04298167 -0.16447541 0.17137507 -0.14699905 0.0014843201 0.12309285 -0.2145464 -0.052825063
0.123524815 0.11607474 0.17479597 0.071019165 -0.017128624 -0.14889622 0.0708276 -0.045435105
-0.2874779 0.08927382 0.104692236 -0.05040716 0.0536887 0.04625832 0.10941562 0.20521386
-0.016045714 -0.038296245 0.16896503 0.08381307 -0.1289949 0.04001865 0.016451037 0.029256487
-0.11462385 0.2883495 -0.06568305 -0.1357934 -0.04750675 0.09484209 -0.044739068 -0.24730346
-0.1210902 -0.1399942 -0.16127165 0.2062329 -0.21869332 -0.04100951 0.0047742343 0.047012
0.07121891 -0.31737205 -0.1597584 0.16184726 -0.09826708 -0.004684027 0.11376122 -0.22364202
0.3359922 -0.17009114 -0.17767854 -0.022784926 0.07763128 0.027823687 0.04909569 0.05416246
0.048406303 -0.18930711 0.1281885 -0.2283513 0.18883629 0.12139489 0.16661453 0.23968992
-0.29978386 -0.02420587 -0.051469833 -0.04593711 0.18679184 0.21657442 -0.13290855 -0.32797515
0.07217103 -0.09787292 -0.08311969 0.027795022 0.048433784 0.043534786 -0.27943745 0.101276085
-0.14055467 0.23814198 -0.11924285 -0.026739616 -0.1264691 0.062195543 0.12506022 0.15952712
0.13544053 0.034564067 0.13658828 0.021282187 -0.04223087 0.24712937 0.037429806 0.050508004
0.17667927 0.158865 -0.11171181 -0.10724737 -0.052401297 -0.08919338 0.11624509 0.007723965
0.1079971 -0.102161296 -0.0020343468 0.26787502 0.018917592 -0.26888332 -0.05824838 -0.107125156
