results/testRun/Car/Car-17128.pt (torch, 638023 bytes, 29 tensors)

network_body.observation_encoder.processors.0.normalizer.running_mean f4 [36]
0	0x3f7ff530	0.999835
1	0x00000000	0.0
2	0x00000000	0.0
3	0x3f2ab059	0.66675335
4	0x3f785172	0.96999276
5	0x00000000	0.0
6	0x3cf55811	0.02994922
7	0x3f2ceae9	0.67545944
8	0x3efffc2d	0.49997082
9	0x00000000	0.0
10	0x3efffc2c	0.4999708
11	0x3f32a3ce	0.69781196
12	0x3f005dbb	0.5014302
13	0x00000000	0.0
14	0x3eff3ce1	0.49851134
15	0x3f316482	0.6929399
16	0x3f439936	0.76405656
17	0x00000000	0.0
18	0x3e71848b	0.23585717
19	0x3f023110	0.50856113
20	0x3f48c855	0.7843068
21	0x00000000	0.0
22	0x3e5cc612	0.21559933
23	0x3ef0fafc	0.47066486
24	0x3f7ff530	0.999835
25	0x00000000	0.0
26	0x00000000	0.0
27	0x3e8c74e0	0.2743292
28	0x3f7ff530	0.999835
29	0x00000000	0.0
30	0x00000000	0.0
31	0x3e8acb82	0.2710839
32	0x3f7ff530	0.999835
33	0x00000000	0.0
34	0x00000000	0.0
35	0x3e6eab69	0.23307575

network_body.observation_encoder.processors.0.normalizer.running_variance f4 [36]
0	0x3ffff9b0	1.9998074
1	0x3f800000	1.0
2	0x3f800000	1.0
3	0x43bbc679	375.55057
4	0x43f9c9aa	499.5755
5	0x3f800000	1.0
6	0x43f95169	498.63602
7	0x4401ca73	519.16327
8	0x4585da00	4283.25
9	0x3f800000	1.0
10	0x4585da00	4283.25
11	0x44c75b68	1594.8564
12	0x4585d9b7	4283.2144
13	0x3f800000	1.0
14	0x4585d9b9	4283.2153
15	0x44c9d607	1614.6884
16	0x454106de	3088.4292
17	0x3f800000	1.0
18	0x4541021e	3088.1323
19	0x44aa4611	1362.1896
20	0x4535219c	2898.1006
21	0x3f800000	1.0
22	0x45351cbc	2897.796
23	0x44a910a0	1352.5195
24	0x3ffff9b0	1.9998074
25	0x3f800000	1.0
26	0x3f800000	1.0
27	0x4189b86f	17.215055
28	0x3ffff9b0	1.9998074
29	0x3f800000	1.0
30	0x3f800000	1.0
31	0x41abbe92	21.468052
32	0x3ffff9b0	1.9998074
33	0x3f800000	1.0
34	0x3f800000	1.0
35	0x41106745	9.025212

network_body.observation_encoder.processors.1.normalizer.running_mean f4 [7]
0	0xbd1a93bf	-0.037738558
1	0x3eeae708	0.45879388
2	0x3f51c2f7	0.8193812
3	0x3db843f6	0.089973375
4	0xb59ba6fd	-1.1597e-06
5	0x350d2b10	5.258926e-07
6	0x38e0d1e8	0.000107202504

network_body.observation_encoder.processors.1.normalizer.running_variance f4 [7]
0	0x43caf1a3	405.8878
1	0x44885188	1090.5479
2	0x43fc3c78	504.4724
3	0x4249d999	50.462498
4	0x3f8019ae	1.0007837
5	0x3f80007e	1.000015
6	0x3f8a6d09	1.0814525

network_body.processors.0.normalizer.running_mean f4 [36]
0	0x3f7ff530	0.999835
1	0x00000000	0.0
2	0x00000000	0.0
3	0x3f2ab059	0.66675335
4	0x3f785172	0.96999276
5	0x00000000	0.0
6	0x3cf55811	0.02994922
7	0x3f2ceae9	0.67545944
8	0x3efffc2d	0.49997082
9	0x00000000	0.0
10	0x3efffc2c	0.4999708
11	0x3f32a3ce	0.69781196
12	0x3f005dbb	0.5014302
13	0x00000000	0.0
14	0x3eff3ce1	0.49851134
15	0x3f316482	0.6929399
16	0x3f439936	0.76405656
17	0x00000000	0.0
18	0x3e71848b	0.23585717
19	0x3f023110	0.50856113
20	0x3f48c855	0.7843068
21	0x00000000	0.0
22	0x3e5cc612	0.21559933
23	0x3ef0fafc	0.47066486
24	0x3f7ff530	0.999835
25	0x00000000	0.0
26	0x00000000	0.0
27	0x3e8c74e0	0.2743292
28	0x3f7ff530	0.999835
29	0x00000000	0.0
30	0x00000000	0.0
31	0x3e8acb82	0.2710839
32	0x3f7ff530	0.999835
33	0x00000000	0.0
34	0x00000000	0.0
35	0x3e6eab69	0.23307575

network_body.processors.0.normalizer.running_variance f4 [36]
0	0x3ffff9b0	1.9998074
1	0x3f800000	1.0
2	0x3f800000	1.0
3	0x43bbc679	375.55057
4	0x43f9c9aa	499.5755
5	0x3f800000	1.0
6	0x43f95169	498.63602
7	0x4401ca73	519.16327
8	0x4585da00	4283.25
9	0x3f800000	1.0
10	0x4585da00	4283.25
11	0x44c75b68	1594.8564
12	0x4585d9b7	4283.2144
13	0x3f800000	1.0
14	0x4585d9b9	4283.2153
15	0x44c9d607	1614.6884
16	0x454106de	3088.4292
17	0x3f800000	1.0
18	0x4541021e	3088.1323
19	0x44aa4611	1362.1896
20	0x4535219c	2898.1006
21	0x3f800000	1.0
22	0x45351cbc	2897.796
23	0x44a910a0	1352.5195
24	0x3ffff9b0	1.9998074
25	0x3f800000	1.0
26	0x3f800000	1.0
27	0x4189b86f	17.215055
28	0x3ffff9b0	1.9998074
29	0x3f800000	1.0
30	0x3f800000	1.0
31	0x41abbe92	21.468052
32	0x3ffff9b0	1.9998074
33	0x3f800000	1.0
34	0x3f800000	1.0
35	0x41106745	9.025212

network_body.processors.1.normalizer.running_mean f4 [7]
0	0xbd1a93bf	-0.037738558
1	0x3eeae708	0.45879388
2	0x3f51c2f7	0.8193812
3	0x3db843f6	0.089973375
4	0xb59ba6fd	-1.1597e-06
5	0x350d2b10	5.258926e-07
6	0x38e0d1e8	0.000107202504

network_body.processors.1.normalizer.running_variance f4 [7]
0	0x43caf1a3	405.8878
1	0x44885188	1090.5479
2	0x43fc3c78	504.4724
3	0x4249d999	50.462498
4	0x3f8019ae	1.0007837
5	0x3f80007e	1.000015
6	0x3f8a6d09	1.0814525

network_body._body_endoder.seq_layers.0.weight f4 [256, 43]
0	0xbe1e6f68	-0.15472186
1	0x3e431f32	0.19054869
2	0xbdf80201	-0.12109757
3	0xbd9ea8de	-0.077470526
4	0xbdd18a21	-0.10231424
5	0x3df3b076	0.11898892
6	0x3e9c94e3	0.30582342
7	0xbe8836d0	-0.2660432
8	0xbd9a4d4d	-0.07534275
9	0xbd00cad0	-0.031443417
10	0x3e5ade04	0.21373755
11	0x3d94b374	0.072607905
12	0x3dee19a9	0.11625988
13	0xbbf7859f	-0.0075537707
14	0x3d9253de	0.07144903
15	0xbe0f7183	-0.14008145
16	0x3cff4d48	0.03116478
17	0x3d01f16e	0.031724386
18	0xbdfc5c5f	-0.12322306
19	0xbca9560a	-0.02067091
20	0xbc1da352	-0.009621458
21	0x3b0503af	0.0020296385
22	0xbc9775f6	-0.018488865
23	0x3e1a7b13	0.15086012
24	0xbd963a0f	-0.073352925
25	0x3c56eed9	0.013118469
26	0xbe31def1	-0.17370202
27	0x3d92fad8	0.07176751
28	0xbdc77dda	-0.09740801
29	0xbb923270	-0.004461579
30	0xbe755af6	-0.2396048
31	0x3d3c3df2	0.045957513
32	0x3d702b87	0.05863526
33	0x3e3cb1b8	0.1842717
34	0xbdb211e3	-0.08694818
35	0xbd97da63	-0.07414701
36	0x3d553c34	0.052059367
37	0x3d889d9f	0.06670689
38	0x3c523df8	0.012832157
39	0xbc4c1b53	-0.0124576865
40	0x3d3b76ab	0.045767467
41	0x3d35e103	0.04440404
42	0xbd33d11f	-0.043900605
43	0x3da7170d	0.081586935
44	0x3d18165f	0.03713071
45	0xbd2429c1	-0.040078882
46	0xbcd06b4a	-0.025441784
47	0xbe5761ca	-0.21033397
48	0x3e72ec1c	0.23722881
49	0xbca12bc5	-0.019674191
50	0xbe2f8b2d	-0.17142935
51	0x3daa67e9	0.083206005
52	0x3e0aa906	0.1354104
53	0xbd057754	-0.032584503
54	0x3d033628	0.03203407
55	0x3dbe3bcf	0.09288751
56	0x3d79471c	0.06085883
57	0xbe41671a	-0.18886986
58	0xbd198428	-0.03747955
59	0x3de0828b	0.10962399
60	0xbd96a66e	-0.07355963
61	0xbdb823e7	-0.08991223
62	0x3c109135	0.008823683
63	0x3dab7599	0.08372039
64	0xbd573db3	-0.052549075
65	0x3dc7937a	0.09744926
66	0x3d60022c	0.05468957
67	0x3ccd5b62	0.025067989
68	0xbdb1d10c	-0.08682451
69	0xbe381ff8	-0.17980945
70	0x3e783475	0.24238761
71	0x3da8e4be	0.08246754
72	0x3cfa336c	0.030542098
73	0x3e47d761	0.19515754
74	0x3e10f63b	0.1415643
75	0xbd9f545a	-0.07779761
76	0x3c759e73	0.0149913905
77	0x3d72f283	0.05931331
78	0xbed08792	-0.40728432
79	0xbe54d9ca	-0.20786205
80	0x3e489184	0.1958676
81	0x3d208580	0.039189816
82	0x3de82758	0.11335629
83	0x3e447a9c	0.19187397
84	0xbe379b88	-0.17930424
85	0xbe54b461	-0.20771934
86	0x3c1aeacb	0.009455393
87	0xbed9a602	-0.42509466
88	0x3c8a32e7	0.016869975
89	0x3d5444cb	0.05182342
90	0x3e9e7590	0.30949068
91	0xbe12865f	-0.14309071
92	0xbe172847	-0.14761458
93	0xbdd4cb2f	-0.10390317
94	0xbdc64126	-0.09680395
95	0xbd4346ed	-0.047675062
96	0xbe2330a4	-0.15936524
97	0x3e4494e1	0.19197418
98	0x3e855db4	0.26048052
99	0xbdfd0f2b	-0.12356409
100	0x3e7d4c92	0.2473624
101	0x3d9decdd	0.07711194
102	0xbe7c0ba6	-0.24613819
103	0xbe7347bc	-0.23757833
104	0xbe1fc1b5	-0.15601237
105	0x3dcdc647	0.10047584
106	0x3e8e8f5f	0.27843758
107	0xbe9bd654	-0.30436957
108	0xbd17736f	-0.03697532
109	0x3e49ec2e	0.19719002
110	0x3e494fde	0.19659373
111	0xbbeafab7	-0.007171001
112	0xbe45ceab	-0.19317119
113	0x3e227d9d	0.1586823
114	0x3dcbf109	0.09958083
115	0x3d123c81	0.035702232
116	0x3e1b6880	0.15176582
117	0x3e114468	0.14186251
118	0x3e0cd55a	0.13753262
119	0x3e822740	0.2542057
120	0x3e8bcaec	0.27303255
121	0x3d4b001e	0.04956066
122	0x3e116f7f	0.14202689
123	0xbd2eb158	-0.042649597
124	0x3e4cc52a	0.19997087
125	0xbe22bbe0	-0.15891981
126	0xbbdf6ee2	-0.006818638
127	0x3da298fb	0.07939335
128	0x3dcc8d9c	0.09987947
129	0x3e803e9a	0.2504776
130	0xbdc759ca	-0.09733923
131	0xbde57508	-0.112039626
132	0x3d043eb1	0.03228635
133	0x3de7934f	0.11307394
134	0xbd8deb33	-0.06929626
135	0x3dedad01	0.116052635
136	0x3d54c74e	0.051947884
137	0xbe172705	-0.14760979
138	0x3ad801b0	0.0016479995
139	0xbdb6282c	-0.08894381
140	0x3c2d8bb2	0.010592388
141	0xbe23582c	-0.15951604
142	0xbab3b687	-0.0013711014
143	0xbe41f1e9	-0.18939938
144	0x3e1e53d7	0.1546167
145	0x3d1803fa	0.037113167
146	0xbdc62f46	-0.096769854
147	0x3e1eea06	0.1551896
148	0x3dd9fa61	0.10643459
149	0x3e60ee48	0.21965897
150	0xbd65ae97	-0.056074705
151	0x3dc92b76	0.09822743
152	0x3e16026d	0.14649363
153	0xbd1e7cca	-0.038693227
154	0x3dd3ed9b	0.10348054
155	0x3cd3386b	0.025783738
156	0x3dddc374	0.10828295
157	0xbda68a5c	-0.08131859
158	0x3e006caa	0.12541452
159	0xbe49f8e1	-0.19723846
160	0xbe2f9bcd	-0.17149277
161	0xbe55919f	-0.20856331
162	0x3a2d7ed4	0.0006618325
163	0xbcaf304b	-0.021385333
164	0xbde43bba	-0.111442044
165	0xbdc1228e	-0.09430419
166	0x3e24703d	0.1605844
167	0xbdf547d8	-0.11976594
168	0x3e06fdff	0.1318283
169	0xbe467685	-0.19381149
170	0x3e2939f5	0.16526015
171	0xb98ef457	-0.00027266398
172	0x3d075631	0.033041183
173	0x3e8e4bec	0.277923
174	0xbaa2581b	-0.0012385877
175	0x3d1a22f3	0.037630986
176	0xbd63fd36	-0.055661403
177	0x3d472ae9	0.048624907
178	0xbe99c14f	-0.30030295
179	0xbd2a67ec	-0.041603014
180	0xbe102a89	-0.14078726
181	0xbe6cd620	-0.23128557
182	0x3db542c9	0.08850629
183	0xbe6128c0	-0.21988201
184	0x3c4efa5b	0.012632932
185	0x3d73e00f	0.05953985
186	0x3d90b51f	0.07065796
187	0x3db61072	0.088898554
188	0xbe3cf460	-0.18452597
189	0xbdb642d3	-0.088994645
190	0x3ea8c422	0.32962137
191	0x3b154056	0.0022773943
192	0xbdff394a	-0.12462099
193	0xbde7db29	-0.11321098
194	0x3e5ca4fc	0.21547312
195	0xbd19b047	-0.037521627
196	0x3e68b173	0.22723942
197	0x3d266a37	0.040628638
198	0xba6c3960	-0.0009011235
199	0xbcb1928c	-0.021676324
200	0x3c88939c	0.016671948
201	0x3e1840b1	0.14868428
202	0x3e92149d	0.28531352
203	0xbdbe955b	-0.09305831
204	0xbde63cbe	-0.112420544
205	0xbded42d6	-0.115850136
206	0xbe0e5779	-0.13900556
207	0x3ed5966a	0.4171632
208	0x3e20477b	0.15652268
209	0xbd803bc6	-0.06261401
210	0xbdf3d56c	-0.11905941
211	0x3e393050	0.18084836
212	0xbcd169ed	-0.025563205
213	0xbca030ff	-0.019554613
214	0x3c15ad63	0.009135577
215	0x3d4a79fc	0.04943274
216	0x3e04b862	0.12960961
217	0x3b6a299d	0.003573037
218	0xbcd7d523	-0.026346749
219	0xbe68cac0	-0.22733593
220	0x3e20366a	0.15645757
221	0x3e6cbc94	0.23118812
222	0xbc1c2253	-0.009529668
223	0xbd829cf4	-0.06377593
224	0xbda44805	-0.08021549
225	0xbe008541	-0.12550832
226	0x3d6fc12b	0.05853383
227	0x3e650179	0.22363843
228	0x3dc75878	0.09733671
229	0xbdfd63a2	-0.12372519
230	0xbc82f2d7	-0.015984936
231	0xbdf55db0	-0.1198076
232	0xbb1542e9	-0.0022775477
233	0xbdc8675c	-0.09785339
234	0x3cad6853	0.02116791
235	0xbddcd3bc	-0.107825726
236	0x3dc7faee	0.09764658
237	0x3da8d5fd	0.0824394
238	0x3e5f900a	0.2183229
239	0x3e244fdf	0.16046093
240	0xbe1530f6	-0.14569458
241	0x3def7554	0.116923004
242	0x396b8ac6	0.00022463044
243	0xbe811b72	-0.25216252
244	0x3db25400	0.08707428
245	0xbd595717	-0.05306157
246	0x3e86c688	0.26323342
247	0xbe4059bd	-0.18784232
248	0x3d493047	0.049118306
249	0x3d72c95a	0.059274055
250	0xbd715ad4	-0.05892451
251	0x3e24bf7d	0.16088672
252	0x3e0171b9	0.12641038
253	0xbe6988af	-0.22806047
254	0xbd0c51f4	-0.034257844
255	0x3e115e3c	0.14196104

network_body._body_endoder.seq_layers.0.bias f4 [256]
0	0x00000000	0.0
1	0x00000000	0.0
2	0x00000000	0.0
3	0x00000000	0.0
4	0x00000000	0.0
5	0x00000000	0.0
6	0x00000000	0.0
7	0x00000000	0.0
8	0x00000000	0.0
9	0x00000000	0.0
10	0x00000000	0.0
11	0x00000000	0.0
12	0x00000000	0.0
13	0x00000000	0.0
14	0x00000000	0.0
15	0x00000000	0.0
16	0x00000000	0.0
17	0x00000000	0.0
18	0x00000000	0.0
19	0x00000000	0.0
20	0x00000000	0.0
21	0x00000000	0.0
22	0x00000000	0.0
23	0x00000000	0.0
24	0x00000000	0.0
25	0x00000000	0.0
26	0x00000000	0.0
27	0x00000000	0.0
28	0x00000000	0.0
29	0x00000000	0.0
30	0x00000000	0.0
31	0x00000000	0.0
32	0x00000000	0.0
33	0x00000000	0.0
34	0x00000000	0.0
35	0x00000000	0.0
36	0x00000000	0.0
37	0x00000000	0.0
38	0x00000000	0.0
39	0x00000000	0.0
40	0x00000000	0.0
41	0x00000000	0.0
42	0x00000000	0.0
43	0x00000000	0.0
44	0x00000000	0.0
45	0x00000000	0.0
46	0x00000000	0.0
47	0x00000000	0.0
48	0x00000000	0.0
49	0x00000000	0.0
50	0x00000000	0.0
51	0x00000000	0.0
52	0x00000000	0.0
53	0x00000000	0.0
54	0x00000000	0.0
55	0x00000000	0.0
56	0x00000000	0.0
57	0x00000000	0.0
58	0x00000000	0.0
59	0x00000000	0.0
60	0x00000000	0.0
61	0x00000000	0.0
62	0x00000000	0.0
63	0x00000000	0.0
64	0x00000000	0.0
65	0x00000000	0.0
66	0x00000000	0.0
67	0x00000000	0.0
68	0x00000000	0.0
69	0x00000000	0.0
70	0x00000000	0.0
71	0x00000000	0.0
72	0x00000000	0.0
73	0x00000000	0.0
74	0x00000000	0.0
75	0x00000000	0.0
76	0x00000000	0.0
77	0x00000000	0.0
78	0x00000000	0.0
79	0x00000000	0.0
80	0x00000000	0.0
81	0x00000000	0.0
82	0x00000000	0.0
83	0x00000000	0.0
84	0x00000000	0.0
85	0x00000000	0.0
86	0x00000000	0.0
87	0x00000000	0.0
88	0x00000000	0.0
89	0x00000000	0.0
90	0x00000000	0.0
91	0x00000000	0.0
92	0x00000000	0.0
93	0x00000000	0.0
94	0x00000000	0.0
95	0x00000000	0.0
96	0x00000000	0.0
97	0x00000000	0.0
98	0x00000000	0.0
99	0x00000000	0.0
100	0x00000000	0.0
101	0x00000000	0.0
102	0x00000000	0.0
103	0x00000000	0.0
104	0x00000000	0.0
105	0x00000000	0.0
106	0x00000000	0.0
107	0x00000000	0.0
108	0x00000000	0.0
109	0x00000000	0.0
110	0x00000000	0.0
111	0x00000000	0.0
112	0x00000000	0.0
113	0x00000000	0.0
114	0x00000000	0.0
115	0x00000000	0.0
116	0x00000000	0.0
117	0x00000000	0.0
118	0x00000000	0.0
119	0x00000000	0.0
120	0x00000000	0.0
121	0x00000000	0.0
122	0x00000000	0.0
123	0x00000000	0.0
124	0x00000000	0.0
125	0x00000000	0.0
126	0x00000000	0.0
127	0x00000000	0.0
128	0x00000000	0.0
129	0x00000000	0.0
130	0x00000000	0.0
131	0x00000000	0.0
132	0x00000000	0.0
133	0x00000000	0.0
134	0x00000000	0.0
135	0x00000000	0.0
136	0x00000000	0.0
137	0x00000000	0.0
138	0x00000000	0.0
139	0x00000000	0.0
140	0x00000000	0.0
141	0x00000000	0.0
142	0x00000000	0.0
143	0x00000000	0.0
144	0x00000000	0.0
145	0x00000000	0.0
146	0x00000000	0.0
147	0x00000000	0.0
148	0x00000000	0.0
149	0x00000000	0.0
150	0x00000000	0.0
151	0x00000000	0.0
152	0x00000000	0.0
153	0x00000000	0.0
154	0x00000000	0.0
155	0x00000000	0.0
156	0x00000000	0.0
157	0x00000000	0.0
158	0x00000000	0.0
159	0x00000000	0.0
160	0x00000000	0.0
161	0x00000000	0.0
162	0x00000000	0.0
163	0x00000000	0.0
164	0x00000000	0.0
165	0x00000000	0.0
166	0x00000000	0.0
167	0x00000000	0.0
168	0x00000000	0.0
169	0x00000000	0.0
170	0x00000000	0.0
171	0x00000000	0.0
172	0x00000000	0.0
173	0x00000000	0.0
174	0x00000000	0.0
175	0x00000000	0.0
176	0x00000000	0.0
177	0x00000000	0.0
178	0x00000000	0.0
179	0x00000000	0.0
180	0x00000000	0.0
181	0x00000000	0.0
182	0x00000000	0.0
183	0x00000000	0.0
184	0x00000000	0.0
185	0x00000000	0.0
186	0x00000000	0.0
187	0x00000000	0.0
188	0x00000000	0.0
189	0x00000000	0.0
190	0x00000000	0.0
191	0x00000000	0.0
192	0x00000000	0.0
193	0x00000000	0.0
194	0x00000000	0.0
195	0x00000000	0.0
196	0x00000000	0.0
197	0x00000000	0.0
198	0x00000000	0.0
199	0x00000000	0.0
200	0x00000000	0.0
201	0x00000000	0.0
202	0x00000000	0.0
203	0x00000000	0.0
204	0x00000000	0.0
205	0x00000000	0.0
206	0x00000000	0.0
207	0x00000000	0.0
208	0x00000000	0.0
209	0x00000000	0.0
210	0x00000000	0.0
211	0x00000000	0.0
212	0x00000000	0.0
213	0x00000000	0.0
214	0x00000000	0.0
215	0x00000000	0.0
216	0x00000000	0.0
217	0x00000000	0.0
218	0x00000000	0.0
219	0x00000000	0.0
220	0x00000000	0.0
221	0x00000000	0.0
222	0x00000000	0.0
223	0x00000000	0.0
224	0x00000000	0.0
225	0x00000000	0.0
226	0x00000000	0.0
227	0x00000000	0.0
228	0x00000000	0.0
229	0x00000000	0.0
230	0x00000000	0.0
231	0x00000000	0.0
232	0x00000000	0.0
233	0x00000000	0.0
234	0x00000000	0.0
235	0x00000000	0.0
236	0x00000000	0.0
237	0x00000000	0.0
238	0x00000000	0.0
239	0x00000000	0.0
240	0x00000000	0.0
241	0x00000000	0.0
242	0x00000000	0.0
243	0x00000000	0.0
244	0x00000000	0.0
245	0x00000000	0.0
246	0x00000000	0.0
247	0x00000000	0.0
248	0x00000000	0.0
249	0x00000000	0.0
250	0x00000000	0.0
251	0x00000000	0.0
252	0x00000000	0.0
253	0x00000000	0.0
254	0x00000000	0.0
255	0x00000000	0.0

network_body._body_endoder.seq_layers.2.weight f4 [256, 256]
0	0x3cc2c814	0.023777045
1	0xbcd28128	-0.025696352
2	0xbcd52b0e	-0.026021507
3	0xbd589339	-0.052874777
4	0x3d83c05d	0.06433175
5	0xbdd40dfc	-0.1035423
6	0x3c4fb484	0.012677316
7	0xbd272b51	-0.040812794
8	0xbb0ef0ea	-0.0021811076
9	0x3b811cb1	0.003940188
10	0xbd3cde81	-0.046110634
11	0x3d95f4cc	0.07322082
12	0x370d23b5	8.412569e-06
13	0x3ba05171	0.004892521
14	0xbbd959f5	-0.006633038
15	0xbd57b7c9	-0.052665506
16	0x3ca08d6d	0.019598687
17	0x3d955f07	0.07293516
18	0x3d25dad1	0.040491883
19	0xbdddfe4b	-0.10839518
20	0xbcad35a5	-0.021143744
21	0xbaeb0cb6	-0.0017932865
22	0x3d943f36	0.07238619
23	0xbdd1e69d	-0.10249064
24	0x3de886b8	0.113538206
25	0x3c2a9189	0.010410675
26	0xbdb62476	-0.08893673
27	0x3d398a46	0.045297883
28	0xbcc177d8	-0.023616716
29	0x3d680544	0.056645647
30	0xbd656cff	-0.05601215
31	0x3da6e580	0.081492424
32	0x3d55d774	0.052207425
33	0xbd1cd03c	-0.038284525
34	0xbd59f613	-0.05321319
35	0x3d047fac	0.03234832
36	0x3d6425e9	0.055700216
37	0x3d57df32	0.05270309
38	0x3c4c9b96	0.012488266
39	0xbe1d87e1	-0.15383865
40	0xbd05ca53	-0.032663655
41	0x3d8e1a15	0.069385685
42	0x3cb57083	0.022148376
43	0x3ccee341	0.025254847
44	0x3dab2b6c	0.083578914
45	0x3d05615f	0.032563563
46	0x3d9d8dca	0.0769306
47	0xbcbc0a0f	-0.022954015
48	0xbbca8d15	-0.006181369
49	0xbd2940b4	-0.04132147
50	0xbdbc8bc0	-0.09206343
51	0x3c60f000	0.013729095
52	0x3b18e308	0.002332868
53	0x3c36c68d	0.011155737
54	0x3d4b6f17	0.04966649
55	0x3d7f5d77	0.062344994
56	0x3cd8a205	0.026444444
57	0xbd51a93b	-0.05118678
58	0x3dad6565	0.08466605
59	0xbd18203e	-0.037140124
60	0x3d50bdbc	0.050962195
61	0x3cb096a7	0.021556212
62	0x3d5aff43	0.053466093
63	0xbcf8042d	-0.030275429
64	0xbdb5bebf	-0.088742726
65	0x3ca615e3	0.020274108
66	0xbd218393	-0.03943212
67	0xbcb17e3e	-0.021666642
68	0x3d06387b	0.032768708
69	0xbdd8e49c	-0.10590479
70	0x3d8970bb	0.06710955
71	0x3dd23cfb	0.10265537
72	0xbd65b400	-0.056079865
73	0x3d74334d	0.059619237
74	0x3d588c21	0.052868012
75	0x3ce1a3b0	0.027543873
76	0x3d27ff74	0.041015103
77	0xbdc5a1d0	-0.09650004
78	0x3df780f9	0.120851465
79	0x3b25db00	0.0025307536
80	0xbe00c593	-0.12575369
81	0x3d050386	0.032474063
82	0x3d6871b9	0.05674908
83	0x3caf7cba	0.021421779
84	0xbe0adaa3	-0.13559966
85	0x3d31cf94	0.043410853
86	0x3d85747b	0.065163575
87	0xbc1e1f8e	-0.009651078
88	0x3c4f6519	0.012658381
89	0x3d641f87	0.05569413
90	0x3ce66318	0.028123423
91	0xbced9d5f	-0.029005704
92	0xbcc6beb9	-0.024260866
93	0x3d9a07f8	0.07521051
94	0xbd82bae9	-0.063833065
95	0x3d66217c	0.056184277
96	0x3d88fe83	0.06689169
97	0xbccfa6de	-0.025348123
98	0x3d5a0b82	0.05323363
99	0xbd4761fa	-0.048677422
100	0x3c66e109	0.0140917385
101	0xbd987d4b	-0.07445773
102	0xbcbfa832	-0.023395631
103	0x3d803db0	0.06261766
104	0xbc977037	-0.018486125
105	0xbd8d8de6	-0.069118306
106	0x3dda1b72	0.10649766
107	0xbd07e7f1	-0.03318018
108	0xbba3097a	-0.004975495
109	0x3d3f383b	0.046684485
110	0x3b98c961	0.004662678
111	0xbd33cc23	-0.04389585
112	0x3bc422e1	0.005985603
113	0x3b92426f	0.004463486
114	0xbd6921b3	-0.056916904
115	0xbc0634e6	-0.008191323
116	0xbce08db5	-0.027411321
117	0xbd802fae	-0.06259094
118	0xbcae9e0e	-0.0213156
119	0xbdb4d446	-0.088295504
120	0xbd9ae792	-0.075637
121	0x3dd58166	0.104250714
122	0xbd289704	-0.041159645
123	0xbdb03ac9	-0.086049624
124	0x3d595d8f	0.05306774
125	0xbbdc1de7	-0.006717432
126	0x3a4ea4d7	0.00078828394
127	0xbcf0b529	-0.029383259
128	0xbcc7a81a	-0.02437215
129	0x3d2fe93e	0.042947046
130	0x3db308cf	0.087419145
131	0xbcd43b74	-0.025907256
132	0xbce1ef1b	-0.027579835
133	0xbc83f7a4	-0.016109295
134	0x3d7b56ae	0.06136196
135	0x3d465090	0.048416674
136	0xbca5cb6e	-0.020238604
137	0xbdc55219	-0.096347995
138	0x3cc2958a	0.023752946
139	0x3d8da1f9	0.069156595
140	0xbbe8583d	-0.007090597
141	0x3da5c679	0.08094496
142	0x3d6f1fc9	0.058379922
143	0xbd2ca6c8	-0.042151242
144	0x3d9b0d4d	0.07570896
145	0x3bfc1ddd	0.0076939897
146	0x3c8c5540	0.017130494
147	0x3cc7f027	0.024406506
148	0x393873c1	0.00017590729
149	0x3c868ab1	0.016423555
150	0xbd89490f	-0.06703388
151	0xbd4e3c77	-0.050350633
152	0x3cdf1c59	0.027235197
153	0x3dfbaf14	0.12289253
154	0x3d6e80da	0.05822835
155	0x3cef95db	0.029246261
156	0xbccb9634	-0.024851896
157	0xbdab6bee	-0.08370195
158	0x3be2515d	0.006906672
159	0x3d05c924	0.032662526
160	0xbd36c394	-0.04462011
161	0xbc9ce8f8	-0.019154057
162	0xbda13068	-0.07870561
163	0xbc88c32f	-0.016694633
164	0x3c4017ed	0.011724454
165	0xbc884f35	-0.016639331
166	0x3c308f05	0.010776286
167	0xbd700972	-0.058602758
168	0x3d83fbcc	0.06444511
169	0x3c7ec742	0.015550436
170	0x3a083841	0.0005196371
171	0xbd5969bc	-0.05307935
172	0x3c9712e6	0.018441629
173	0x3d6cdd92	0.057828493
174	0x3d1153ef	0.035480436
175	0x3e4d2fec	0.20037812
176	0xbd85a490	-0.065255284
177	0xbdd1f494	-0.10251728
178	0x3db5370d	0.08848391
179	0x3cf77b6e	0.030210223
180	0x3db06543	0.08613064
181	0xbcf4a28a	-0.02986266
182	0xbd06a16f	-0.0328688
183	0x3d77d11a	0.06050215
184	0xbdca9087	-0.09890848
185	0x3c243807	0.010023124
186	0xbe251cad	-0.1612422
187	0xbd138ab5	-0.036020953
188	0xbd5cb573	-0.05388398
189	0xbd085d7d	-0.033292282
190	0x3db43def	0.088008754
191	0x3d38c831	0.045112792
192	0x3d38a31d	0.045077432
193	0x3da5b93c	0.08091971
194	0x3daca8a6	0.08430605
195	0x3c8215bd	0.015879506
196	0x3dbdafce	0.09262048
197	0x3d445315	0.047930796
198	0xbd610a0f	-0.054941233
199	0x3cab656c	0.020922385
200	0xbd9dd6ed	-0.077070095
201	0xb9e626d5	-0.0004389795
202	0xbd0056c6	-0.031332754
203	0xbc3eba98	-0.011641167
204	0xbc24f366	-0.010067796
205	0xbbadb187	-0.005300704
206	0x3dfe8e9a	0.12429543
207	0xbcd4b155	-0.025963465
208	0x3d79579e	0.060874574
209	0xbccafd10	-0.024778873
210	0xbc020e21	-0.007937939
211	0x3d2c5484	0.042072788
212	0x3d0035cc	0.031301305
213	0x3d250c0c	0.040294692
214	0x3c105fd3	0.008811909
215	0x3db4782b	0.08811983
216	0xbd041c03	-0.032253277
217	0xbd89e5ea	-0.06733306
218	0xbd8f9d14	-0.07012382
219	0xbd73b6c3	-0.059500467
220	0xbd2f8bb4	-0.04285784
221	0xbd078666	-0.033087157
222	0x3c82b57a	0.015955675
223	0x3d4b404e	0.049621873
224	0x3cb47308	0.022027507
225	0xbd417448	-0.047230035
226	0xbd9343e9	-0.07190687
227	0x3e22d9af	0.15903352
228	0xbdc5c8ac	-0.09657416
229	0xbd73b0e1	-0.059494857
230	0x3d336839	0.043800566
231	0xbdf6e793	-0.12055888
232	0x3c722012	0.014778154
233	0xbd31e737	-0.043433394
234	0x3c5ad826	0.013357198
235	0xbb513a86	-0.0031925752
236	0xbc7aa787	-0.015298731
237	0xbd7c16a7	-0.06154504
238	0x3d7af28a	0.06126646
239	0x3cc9e28b	0.024644157
240	0xbc19044b	-0.009339402
241	0x3bd681c0	0.006546229
242	0x3db48c27	0.088157944
243	0x3da10fa6	0.07864313
244	0x3dcad44b	0.09903773
245	0x3d93d062	0.0721748
246	0x3c8fb418	0.01754193
247	0x3da5a7cc	0.08088645
248	0xbdb4acc1	-0.08822013
249	0xbc0a02cc	-0.008423518
250	0xbe326121	-0.17419864
251	0x3dc17fce	0.09448205
252	0xbcdaef24	-0.02672536
253	0x3df41a9f	0.1191914
254	0xbd06a40e	-0.0328713
255	0xbd128cb9	-0.035778735

network_body._body_endoder.seq_layers.2.bias f4 [256]
0	0x00000000	0.0
1	0x00000000	0.0
2	0x00000000	0.0
3	0x00000000	0.0
4	0x00000000	0.0
5	0x00000000	0.0
6	0x00000000	0.0
7	0x00000000	0.0
8	0x00000000	0.0
9	0x00000000	0.0
10	0x00000000	0.0
11	0x00000000	0.0
12	0x00000000	0.0
13	0x00000000	0.0
14	0x00000000	0.0
15	0x00000000	0.0
16	0x00000000	0.0
17	0x00000000	0.0
18	0x00000000	0.0
19	0x00000000	0.0
20	0x00000000	0.0
21	0x00000000	0.0
22	0x00000000	0.0
23	0x00000000	0.0
24	0x00000000	0.0
25	0x00000000	0.0
26	0x00000000	0.0
27	0x00000000	0.0
28	0x00000000	0.0
29	0x00000000	0.0
30	0x00000000	0.0
31	0x00000000	0.0
32	0x00000000	0.0
33	0x00000000	0.0
34	0x00000000	0.0
35	0x00000000	0.0
36	0x00000000	0.0
37	0x00000000	0.0
38	0x00000000	0.0
39	0x00000000	0.0
40	0x00000000	0.0
41	0x00000000	0.0
42	0x00000000	0.0
43	0x00000000	0.0
44	0x00000000	0.0
45	0x00000000	0.0
46	0x00000000	0.0
47	0x00000000	0.0
48	0x00000000	0.0
49	0x00000000	0.0
50	0x00000000	0.0
51	0x00000000	0.0
52	0x00000000	0.0
53	0x00000000	0.0
54	0x00000000	0.0
55	0x00000000	0.0
56	0x00000000	0.0
57	0x00000000	0.0
58	0x00000000	0.0
59	0x00000000	0.0
60	0x00000000	0.0
61	0x00000000	0.0
62	0x00000000	0.0
63	0x00000000	0.0
64	0x00000000	0.0
65	0x00000000	0.0
66	0x00000000	0.0
67	0x00000000	0.0
68	0x00000000	0.0
69	0x00000000	0.0
70	0x00000000	0.0
71	0x00000000	0.0
72	0x00000000	0.0
73	0x00000000	0.0
74	0x00000000	0.0
75	0x00000000	0.0
76	0x00000000	0.0
77	0x00000000	0.0
78	0x00000000	0.0
79	0x00000000	0.0
80	0x00000000	0.0
81	0x00000000	0.0
82	0x00000000	0.0
83	0x00000000	0.0
84	0x00000000	0.0
85	0x00000000	0.0
86	0x00000000	0.0
87	0x00000000	0.0
88	0x00000000	0.0
89	0x00000000	0.0
90	0x00000000	0.0
91	0x00000000	0.0
92	0x00000000	0.0
93	0x00000000	0.0
94	0x00000000	0.0
95	0x00000000	0.0
96	0x00000000	0.0
97	0x00000000	0.0
98	0x00000000	0.0
99	0x00000000	0.0
100	0x00000000	0.0
101	0x00000000	0.0
102	0x00000000	0.0
103	0x00000000	0.0
104	0x00000000	0.0
105	0x00000000	0.0
106	0x00000000	0.0
107	0x00000000	0.0
108	0x00000000	0.0
109	0x00000000	0.0
110	0x00000000	0.0
111	0x00000000	0.0
112	0x00000000	0.0
113	0x00000000	0.0
114	0x00000000	0.0
115	0x00000000	0.0
116	0x00000000	0.0
117	0x00000000	0.0
118	0x00000000	0.0
119	0x00000000	0.0
120	0x00000000	0.0
121	0x00000000	0.0
122	0x00000000	0.0
123	0x00000000	0.0
124	0x00000000	0.0
125	0x00000000	0.0
126	0x00000000	0.0
127	0x00000000	0.0
128	0x00000000	0.0
129	0x00000000	0.0
130	0x00000000	0.0
131	0x00000000	0.0
132	0x00000000	0.0
133	0x00000000	0.0
134	0x00000000	0.0
135	0x00000000	0.0
136	0x00000000	0.0
137	0x00000000	0.0
138	0x00000000	0.0
139	0x00000000	0.0
140	0x00000000	0.0
141	0x00000000	0.0
142	0x00000000	0.0
143	0x00000000	0.0
144	0x00000000	0.0
145	0x00000000	0.0
146	0x00000000	0.0
147	0x00000000	0.0
148	0x00000000	0.0
149	0x00000000	0.0
150	0x00000000	0.0
151	0x00000000	0.0
152	0x00000000	0.0
153	0x00000000	0.0
154	0x00000000	0.0
155	0x00000000	0.0
156	0x00000000	0.0
157	0x00000000	0.0
158	0x00000000	0.0
159	0x00000000	0.0
160	0x00000000	0.0
161	0x00000000	0.0
162	0x00000000	0.0
163	0x00000000	0.0
164	0x00000000	0.0
165	0x00000000	0.0
166	0x00000000	0.0
167	0x00000000	0.0
168	0x00000000	0.0
169	0x00000000	0.0
170	0x00000000	0.0
171	0x00000000	0.0
172	0x00000000	0.0
173	0x00000000	0.0
174	0x00000000	0.0
175	0x00000000	0.0
176	0x00000000	0.0
177	0x00000000	0.0
178	0x00000000	0.0
179	0x00000000	0.0
180	0x00000000	0.0
181	0x00000000	0.0
182	0x00000000	0.0
183	0x00000000	0.0
184	0x00000000	0.0
185	0x00000000	0.0
186	0x00000000	0.0
187	0x00000000	0.0
188	0x00000000	0.0
189	0x00000000	0.0
190	0x00000000	0.0
191	0x00000000	0.0
192	0x00000000	0.0
193	0x00000000	0.0
194	0x00000000	0.0
195	0x00000000	0.0
196	0x00000000	0.0
197	0x00000000	0.0
198	0x00000000	0.0
199	0x00000000	0.0
200	0x00000000	0.0
201	0x00000000	0.0
202	0x00000000	0.0
203	0x00000000	0.0
204	0x00000000	0.0
205	0x00000000	0.0
206	0x00000000	0.0
207	0x00000000	0.0
208	0x00000000	0.0
209	0x00000000	0.0
210	0x00000000	0.0
211	0x00000000	0.0
212	0x00000000	0.0
213	0x00000000	0.0
214	0x00000000	0.0
215	0x00000000	0.0
216	0x00000000	0.0
217	0x00000000	0.0
218	0x00000000	0.0
219	0x00000000	0.0
220	0x00000000	0.0
221	0x00000000	0.0
222	0x00000000	0.0
223	0x00000000	0.0
224	0x00000000	0.0
225	0x00000000	0.0
226	0x00000000	0.0
227	0x00000000	0.0
228	0x00000000	0.0
229	0x00000000	0.0
230	0x00000000	0.0
231	0x00000000	0.0
232	0x00000000	0.0
233	0x00000000	0.0
234	0x00000000	0.0
235	0x00000000	0.0
236	0x00000000	0.0
237	0x00000000	0.0
238	0x00000000	0.0
239	0x00000000	0.0
240	0x00000000	0.0
241	0x00000000	0.0
242	0x00000000	0.0
243	0x00000000	0.0
244	0x00000000	0.0
245	0x00000000	0.0
246	0x00000000	0.0
247	0x00000000	0.0
248	0x00000000	0.0
249	0x00000000	0.0
250	0x00000000	0.0
251	0x00000000	0.0
252	0x00000000	0.0
253	0x00000000	0.0
254	0x00000000	0.0
255	0x00000000	0.0

action_model._continuous_distribution.log_sigma f4 [1, 3]
0	0x00000000	0.0
1	0x00000000	0.0
2	0x00000000	0.0

action_model._continuous_distribution.mu.weight f4 [3, 256]
0	0x3c395b91	0.011313335
1	0xbbbf81cf	-0.005844332
2	0x3a9c19eb	0.001190958
3	0x3bea51b2	0.007150852
4	0x3ce86c57	0.028371973
5	0x3c31278b	0.01081265
6	0xbc497031	-0.012294815
7	0xbc5db013	-0.013530749
8	0x39e9de43	0.0004460682
9	0xbb57c580	-0.0032924116
10	0xb960da25	-0.0002144357
11	0xbc73acb2	-0.014872717
12	0xbc07769f	-0.008268028
13	0xbb1e7ff2	-0.0024185148
14	0xbbf84a72	-0.007577234
15	0xbc9abeb3	-0.01888976
16	0xbc98195e	-0.018566784
17	0x3b716110	0.0036831535
18	0xbba814a7	-0.005129415
19	0xbc1f718b	-0.009731661
20	0x3976d085	0.00023538068
21	0xbc61ad5a	-0.01377424
22	0xba689f60	-0.00088738464
23	0x3b35dbda	0.002774945
24	0x3b3ecf41	0.0029115232
25	0xbb62f798	-0.003463244
26	0xba7a4fe8	-0.000954865
27	0x3b1c3030	0.0023832433
28	0xbc05fe0f	-0.008178248
29	0xbcd35d32	-0.025801275
30	0xbc668a3b	-0.014071043
31	0xbc862dbc	-0.01637923
32	0xbc0d4e24	-0.008624587
33	0xbc00e621	-0.007867367
34	0x39487904	0.00019118568
35	0x398eabe3	0.00027212416
36	0xbbec774a	-0.007216369
37	0xbbc56f79	-0.0060252515
38	0x3b80f087	0.003934923
39	0x3c8b22f9	0.01698445
40	0xbc7ea232	-0.0155416
41	0xbc151bfd	-0.009100911
42	0xba7646e5	-0.00093947194
43	0x3b078dbb	0.0020683843
44	0xbbc36717	-0.005963217
45	0x3b5ea7f5	0.0033974622
46	0x3c95d588	0.018290296
47	0x3b005203	0.0019580133
48	0x3d0f1dc5	0.0349405
49	0xbb71480b	-0.0036816623
50	0xbc4f102d	-0.012638134
51	0x3b192947	0.002337055
52	0xbc960643	-0.018313533
53	0xbbae0f1d	-0.0053118602
54	0x3bba063b	0.0056770123
55	0x3c842827	0.016132427
56	0xb9cc384d	-0.0003895186
57	0xbcd5686f	-0.026050774
58	0x3ab5d2a9	0.0013871986
59	0xbc284627	-0.010270632
60	0xbc1a4842	-0.009416642
61	0xb96005c3	-0.00021364451
62	0x3b8e9448	0.0043511726
63	0x387ac8cf	5.9791662e-05
64	0xbb21017d	-0.0024567537
65	0xbcc952ad	-0.024575556
66	0x3b4062e3	0.0029355816
67	0x3c7cc4f3	0.015427816
68	0xbb84d590	-0.004053779
69	0x3bdf29b7	0.0068103927
70	0x3c8df0de	0.017326768
71	0x3bc099a0	0.0058776885
72	0xbca55489	-0.020181911
73	0x3bb04e77	0.0053804475
74	0x3d057a98	0.032587618
75	0x3a8a2e57	0.0010542375
76	0xba3eae96	-0.000727394
77	0x3c0649c7	0.008196301
78	0x3cfec29b	0.031098654
79	0x3bfccf77	0.0077151614
80	0x3c2ad19b	0.01042595
81	0x3c05a3aa	0.008156696
82	0xbb19f3fc	-0.0023491373
83	0x3c351ed7	0.011054716
84	0xbb29e75e	-0.002592526
85	0xbc4d4fea	-0.01253126
86	0xbcbb326b	-0.02285119
87	0xbc3ab72a	-0.011396209
88	0x3b8b572f	0.0042523365
89	0x3c8818d3	0.0166134
90	0x3bf707c5	0.007538768
91	0xbbc71c22	-0.0060763517
92	0x3c30fc96	0.010802409
93	0x3c062d0e	0.008189453
94	0x3a823a15	0.0009935523
95	0xbbe76acf	-0.007062293
96	0xbc53890f	-0.012911095
97	0x3bb96ab2	0.005658471
98	0xb9d8a530	-0.00041321805
99	0xbcca549b	-0.024698546
100	0xbc40177a	-0.011724347
101	0x3c1e74ca	0.009671399
102	0x3ad9226f	0.0016566048
103	0x3b5f30aa	0.0034056106
104	0x3bbc334f	0.005743421
105	0xbc800a79	-0.015629994
106	0x3a07f7ef	0.00051867863
107	0xbbbe61c2	-0.0058099935
108	0xbb829fa7	-0.003986317
109	0xbc0deefe	-0.008662937
110	0x3baad7f5	0.0052137324
111	0x3ca517ef	0.020153014
112	0x3bdf9be7	0.006824005
113	0xbc29306f	-0.010326489
114	0x3b82f5e5	0.003996598
115	0x3cc94355	0.02456824
116	0x3cf645f0	0.030062646
117	0x3ad5893f	0.0016291513
118	0xbcb4e0a9	-0.022079783
119	0xbb4ce36f	-0.003126349
120	0xb93dd25a	-0.00018102807
121	0xbb2fc2c1	-0.0026818963
122	0x3aba0054	0.0014190772
123	0xbc88703c	-0.01665508
124	0x3c59ae33	0.013286161
125	0x3c97c328	0.018525675
126	0xbc2f8924	-0.010713849
127	0x3a6f440b	0.00091272657
128	0xbca6c4b1	-0.020357462
129	0x3c82492a	0.015904028
130	0xbaf33287	-0.0018554487
131	0x3aafd8d3	0.0013416059
132	0xbb56703a	-0.00327207
133	0xbc1bf1f3	-0.009518134
134	0x3c2f567f	0.010701775
135	0xbc23b569	-0.009991982
136	0x3c4b0097	0.012390277
137	0xbad0c362	-0.0015927369
138	0xbad28402	-0.001606107
139	0xbbfb1bf0	-0.0076632425
140	0xbb13a2dd	-0.0022527494
141	0xbac431c6	-0.0014968447
142	0xbbe12d18	-0.0068718307
143	0xbcba4dfb	-0.022742262
144	0xbcda1717	-0.026622338
145	0xbc5c7e4b	-0.013457845
146	0xbb154d6f	-0.002278175
147	0x3c3671eb	0.011135559
148	0xbb59c8ad	-0.0033231184
149	0xbc61e608	-0.013787754
150	0x387e8825	6.0685114e-05
151	0xbb0c81d8	-0.0021439698
152	0x3c37d5b5	0.011220385
153	0xbc8ac154	-0.01693789
154	0x3bbc55b4	0.0057475213
155	0xbbce6555	-0.006298701
156	0x3d015205	0.03157236
157	0xbc54fbd2	-0.012999492
158	0xbb4f9902	-0.0031676893
159	0x3c0023a6	0.007820999
160	0x398fb5c7	0.0002741052
161	0xbc28175d	-0.0102594765
162	0xbc428886	-0.01187337
163	0x3c0ca931	0.00858526
164	0xbb80be77	-0.003928955
165	0xbc4f7ed7	-0.012664518
166	0xbc490aef	-0.012270673
167	0xbc856cfe	-0.016287323
168	0x3b47ad63	0.0030468337
169	0xbc49c965	-0.012316083
170	0x3c028558	0.007966362
171	0x3b8ee72a	0.004361053
172	0x3b9f4ced	0.004861465
173	0xbc0f483d	-0.00874525
174	0x3b6ff3b0	0.0036613755
175	0xbc88d54c	-0.01670327
176	0xbc652f97	-0.013988397
177	0x3bd87550	0.0066057816
178	0x3c6d5057	0.014484487
179	0x3c2b9969	0.010473588
180	0x3c7d9aa8	0.015478767
181	0x3b887ba3	0.0041651293
182	0x3c9325cf	0.017962364
183	0x3a1c1da1	0.0005955343
184	0xbca928af	-0.020649282
185	0xbbdf6918	-0.006817948
186	0xbc568e8b	-0.013095508
187	0xbd10d1fb	-0.035356503
188	0xba686648	-0.0008865339
189	0x3c9c821f	0.019105015
190	0x3d0cf691	0.03441483
191	0x3ab4164d	0.0013739556
192	0xb9b32321	-0.00034167714
193	0x3bd2ece2	0.00643693
194	0x3c4be73e	0.012445269
195	0xbae2d0a7	-0.0017304615
196	0xb9921939	-0.00027866082
197	0x3cbc9cbf	0.023023961
198	0xbb9eccc8	-0.004846189
199	0x3caee44d	0.021349097
200	0xbd1f444e	-0.0388835
201	0x380c3357	3.3426415e-05
202	0xbc45bdc8	-0.012069173
203	0x3be30e65	0.006929206
204	0xbb69f7db	-0.0035700712
205	0x3c83fcd7	0.016111774
206	0xbbfc90ff	-0.0077077146
207	0x3a044ce4	0.0005046858
208	0xbb5e55ad	-0.0033925578
209	0xbcc16aff	-0.02361059
210	0x3ae70fbf	0.0017628594
211	0xbc878052	-0.01654068
212	0x3cebe9ca	0.028798003
213	0xbbbd23f1	-0.005772107
214	0x3c1e71e8	0.009670712
215	0xbbccbc6d	-0.006248048
216	0xbca72b93	-0.02040652
217	0xbbf539ad	-0.007483682
218	0x3c39fc69	0.011351683
219	0x3a5db947	0.00084580894
220	0xbc38f88a	-0.011289725
221	0xbca94522	-0.020662848
222	0x3b57d117	0.0032931024
223	0xbc3059fa	-0.01076364
224	0x3cf9d7c3	0.030498391
225	0xbbc35dee	-0.005962125
226	0xbc0a3391	-0.008435146
227	0x3ca1c42f	0.019746868
228	0xbce109b7	-0.027470453
229	0xba1cdf47	-0.00059841987
230	0xbc36df43	-0.011161628
231	0x3c66acb7	0.014079264
232	0x3b5bf4fb	0.0033562768
233	0xbb8c6ff9	-0.004285809
234	0x39d31e23	0.0004026751
235	0x3c034d9b	0.008014108
236	0xbc29644f	-0.010338857
237	0xbbfb90df	-0.007677182
238	0x3caa222b	0.020768246
239	0xbb7d5182	-0.0038653319
240	0x3c848125	0.016174862
241	0x3cc6c20c	0.02426245
242	0xbc2c7c50	-0.010527685
243	0xbc86aade	-0.016438898
244	0xbc72bb2b	-0.014815132
245	0xbbcef39f	-0.006315663
246	0xbbf99e5d	-0.0076177553
247	0xbb28b3ff	-0.0025742052
248	0xbcb320f8	-0.021866307
249	0xbc53dd23	-0.012931141
250	0xbcc65753	-0.024211561
251	0x3bab3377	0.005224641
252	0xbb684758	-0.0035442915
253	0x39ed8d38	0.0004530938
254	0xbc291eff	-0.010322331
255	0x3cbdd322	0.023171965

action_model._continuous_distribution.mu.bias f4 [3]
0	0x00000000	0.0
1	0x00000000	0.0
2	0x00000000	0.0

action_model._discrete_distribution.branches.0.weight f4 [1, 256]
0	0xbc2008d5	-0.009767731
1	0xba9af942	-0.0011823552
2	0x3bd8310b	0.0065976433
3	0xbc74dfbb	-0.01494592
4	0x3b635913	0.0034690544
5	0x395c7ce7	0.00021027365
6	0xbb5e6360	-0.0033933744
7	0xba24211b	-0.00062610366
8	0x3a863514	0.0010239207
9	0x3a937495	0.0011249954
10	0xba8a83fd	-0.00105679
11	0x3b0e0c4c	0.002167481
12	0xbb733bc2	-0.0037114476
13	0x3b70ab47	0.0036723183
14	0xbbb8a8f4	-0.005635375
15	0x3ad9d41b	0.0016618998
16	0xb83719e9	-4.365473e-05
17	0xbb601207	-0.0034190433
18	0x3b1bc0d7	0.0023766065
19	0xbba6731b	-0.0050796396
20	0xbc339c62	-0.010962578
21	0x3a4655f8	0.0007565911
22	0xbbb0a18f	-0.005390353
23	0x3c1b9818	0.009496711
24	0xbc4f02cb	-0.012634943
25	0x3bbc03e6	0.0057377694
26	0xbb123293	-0.0022307977
27	0xba577f13	-0.00082205347
28	0xbb61f4c8	-0.0034478176
29	0x3ab5b3bd	0.001386277
30	0x3b1166bb	0.0022186476
31	0xbbabbe54	-0.0052411947
32	0x3c8d13e8	0.017221406
33	0xb97b85b7	-0.00023987038
34	0xbb8b7386	-0.004255715
35	0xbb09ed47	-0.002104597
36	0xbb3e1fac	-0.0029010577
37	0xbb089f33	-0.0020846843
38	0xbbd3bdf7	-0.0064618546
39	0xbc1455a6	-0.009053623
40	0xba8ea366	-0.0010882437
41	0xbb908101	-0.0044099097
42	0xbc21fd43	-0.009887042
43	0x3bdb9137	0.0067006606
44	0xb7e15b47	-2.6864594e-05
45	0x3b90e230	0.004421495
46	0x3b741065	0.0037241217
47	0xb72846e1	-1.0030083e-05
48	0xbb67c74b	-0.003536659
49	0x3b514d05	0.0031936776
50	0x3c175136	0.009235671
51	0xbb3576cf	-0.0027689224
52	0xbc0fb2e7	-0.008770681
53	0xbc124535	-0.008927633
54	0x3b5bc1c5	0.0033532244
55	0xbc25a101	-0.010109187
56	0xb96e1413	-0.00022704927
57	0xba5a60a0	-0.0008330438
58	0xbb82a0ce	-0.0039864546
59	0xbace8ded	-0.001575885
60	0x3b53165b	0.003220937
61	0x3a7d4cdb	0.00096626364
62	0x3c199c2e	0.009375615
63	0x3ba55b0c	0.005046254
64	0x3b081e3b	0.0020769972
65	0x3b9b81b3	0.004745686
66	0x3a63d30b	0.00086908106
67	0xbbb498bb	-0.005511371
68	0xbb4d06fa	-0.0031284676
69	0x3bde996f	0.006793193
70	0x3c0c8dad	0.0085787
71	0x3ac57bdb	0.0015066819
72	0xbbd69d70	-0.0065495297
73	0xbb2bcddf	-0.0026215238
74	0xbb264347	-0.002536969
75	0x3c5759c0	0.013143957
76	0xbc0cdf1a	-0.008598113
77	0xbc879ce0	-0.016554296
78	0x3b65b8e8	0.003505284
79	0x3c26329e	0.010143904
80	0x3a9166eb	0.0011093294
81	0x399e96af	0.00030248376
82	0x3c03c9b7	0.008043698
83	0xbc33a94c	-0.0109656565
84	0x39c103fb	0.00036814794
85	0xbbec1b77	-0.0072054225
86	0x3c5f79f0	0.013639912
87	0xbb81ed3c	-0.003965048
88	0xbb6e9592	-0.0036405069
89	0x3ba243b2	0.0049519176
90	0x3b76fd98	0.0037687775
91	0xbb0e22e8	-0.0021688286
92	0x3b5e9d2f	0.00339682
93	0xbb276b42	-0.0025546108
94	0x3b4e83f5	0.0031511758
95	0xbbd0e01a	-0.0063743712
96	0x3c319275	0.010838141
97	0x3b912107	0.004428986
98	0xbbe2148b	-0.0068994216
99	0xb9d4b95b	-0.00040573892
100	0xbb94482f	-0.0045252065
101	0x3bab9c11	0.0052371104
102	0x3a86be9f	0.0010280198
103	0xbab44602	-0.0013753774
104	0x3b82b2f8	0.00398862
105	0xbbb5c273	-0.005546862
106	0x3b122c7a	0.0022304342
107	0x3bd6b21f	0.0065519954
108	0x3af81598	0.0018927334
109	0xbb8643e5	-0.004097449
110	0x3b1190c3	0.002221153
111	0x3aae27d7	0.001328702
112	0x39608d38	0.00021414913
113	0xbb86a315	-0.0041087964
114	0xbafe853d	-0.001941837
115	0xbc0e3253	-0.00867899
116	0x3beeedf3	0.0072915494
117	0xbc54f03d	-0.01299673
118	0xbc816a4f	-0.015797762
119	0xbc526388	-0.012841113
120	0x3b887dde	0.004165395
121	0x3b8771c5	0.0041334354
122	0x3c08f3a8	0.008358873
123	0xbc0b4d79	-0.008502358
124	0xbb91cece	-0.004449702
125	0xba3925af	-0.0007062805
126	0x3c1d8357	0.009613833
127	0xbaf1fed0	-0.0018462781
128	0xbc0e96ee	-0.008702977
129	0xbbfa349b	-0.0076356656
130	0x3ac8f962	0.0015333111
131	0xbc2bf747	-0.010495967
132	0xbba6759f	-0.0050799395
133	0x3b9ee8b7	0.004849519
134	0xbaf709f8	-0.0018847575
135	0xb9fea54d	-0.00048569814
136	0x3ac77333	0.0015216827
137	0xbb0eb5eb	-0.0021775912
138	0x3a929e88	0.0011186162
139	0x39805e92	0.00024484523
140	0xbc290d15	-0.01031806
141	0x3b4586ca	0.0030140155
142	0xbbcf886d	-0.006333402
143	0x3c0956a5	0.008382474
144	0xbb733ac5	-0.0037113887
145	0xbc087742	-0.0083292145
146	0xbc0ad378	-0.00847327
147	0x3bb354c7	0.0054727527
148	0x3bf80213	0.0075686066
149	0xbb8d551f	-0.0043131257
150	0xbb1339bc	-0.0022464832
151	0x38ae395e	8.307652e-05
152	0x3b36e4e8	0.0027907435
153	0xb92edefb	-0.00016677
154	0xbaa58ae2	-0.0012629891
155	0x3b42e5fe	0.0029739137
156	0xba7f2d23	-0.0009734204
157	0x3b805d12	0.003917345
158	0x3bbda50b	0.005787497
159	0xbc0c9042	-0.008579316
160	0xbc1badff	-0.009501933
161	0xbb0d31d3	-0.002154459
162	0xbb7b8ea7	-0.0038384588
163	0x3c122ada	0.008921349
164	0x3ab19bbc	0.0013550441
165	0xbb46b583	-0.0030320592
166	0xbbd6b910	-0.006552823
167	0x3c06ac1f	0.008219748
168	0xba85e679	-0.0010215781
169	0xbb22ec02	-0.002485991
170	0x3b93e622	0.004513518
171	0xbc28ffbf	-0.010314881
172	0x3c343107	0.010998017
173	0x3c798c05	0.015231137
174	0xbb99f38f	-0.004698224
175	0x3ad8f03f	0.0016551091
176	0x3b9f2a54	0.004857341
177	0xb9f5cc9f	-0.00046882496
178	0x399b991c	0.0002967798
179	0x3c56d5a5	0.01311246
180	0x3a9c3307	0.0011917063
181	0x3be41333	0.0069602965
182	0x3b93eb47	0.004514131
183	0xb983d668	-0.00025146012
184	0xbb611710	-0.0034346022
185	0x3bb94da0	0.0056550056
186	0xbb00ef8e	-0.0019674036
187	0xbb0d8ba7	-0.0021598132
188	0xbb8535ab	-0.0040652356
189	0x3b654e15	0.0034989167
190	0xbb94e22b	-0.004543563
191	0xbbfe48c0	-0.0077601373
192	0x38bdb923	9.046707e-05
193	0x3b82b1b0	0.003988467
194	0x38ecac72	0.000112854774
195	0x3bf39f2d	0.0074347467
196	0x3b0b21c1	0.0021229836
197	0xbaac3a53	-0.001313994
198	0xbbf9d098	-0.0076237433
199	0x3b149e95	0.002267753
200	0xba4016e3	-0.0007327629
201	0xb99822f8	-0.00029017753
202	0xb9fbcf23	-0.0004802878
203	0xba4e157b	-0.0007861477
204	0xbb9788a3	-0.0046244427
205	0xba9e4426	-0.0012074753
206	0x3bb0306f	0.0053768675
207	0x3aaea6b0	0.0013324823
208	0x3a049ce3	0.00050587783
209	0xba3c2289	-0.0007176777
210	0x3c013ce0	0.007888049
211	0x3a7c2dff	0.0009619891
212	0x3c39b356	0.011334261
213	0xbba8501b	-0.0051365024
214	0x3b1f5965	0.0024314758
215	0xbbfcae8f	-0.0077112387
216	0xbc18b7ed	-0.009321195
217	0x3b60161f	0.0034192873
218	0xbc438cff	-0.011935472
219	0xbaba7a7c	-0.0014227177
220	0xbac3d040	-0.0014939383
221	0x3c164180	0.00917089
222	0xbbb819db	-0.0056183166
223	0x3b16dbd3	0.002301921
224	0xbb0bdf53	-0.0021342828
225	0x3b89dc7c	0.004207192
226	0x3ba550d7	0.0050450373
227	0x3ba38d42	0.0049912045
228	0x38591782	5.1758725e-05
229	0xbbbf3240	-0.0058348477
230	0xbb669553	-0.003518422
231	0x39c65dab	0.0003783529
232	0xbad242f5	-0.0016041683
233	0xbc25001b	-0.010070826
234	0x3be72457	0.0070538926
235	0x3bd16382	0.006390036
236	0x3b6632e2	0.0035125543
237	0xba77d2f5	-0.00094537373
238	0xbc4c341a	-0.012463594
239	0xba97c9f7	-0.0011580576
240	0x3b1c31ff	0.002383351
241	0x3baf75bc	0.005354611
242	0x3b9796ca	0.0046261298
243	0x3bc323fa	0.0059552165
244	0xbc25d0f2	-0.010120617
245	0xba86f76b	-0.0010297125
246	0xbc493cf4	-0.012282599
247	0xbc138b21	-0.009005339
248	0xbbcd478f	-0.006264634
249	0x3b976e02	0.0046212683
250	0xbbf4ff1b	-0.0074767
251	0xba9af4eb	-0.0011822259
252	0xbbd6b892	-0.006552764
253	0x3b459657	0.0030149424
254	0xbb7eb7d5	-0.0038866897
255	0xbbb80e55	-0.005616943

network_body.observation_encoder.processors.0.normalizer.running_mean f4 [36]
0	0x3f7ff530	0.999835
1	0x00000000	0.0
2	0x00000000	0.0
3	0x3f2ab059	0.66675335
4	0x3f785172	0.96999276
5	0x00000000	0.0
6	0x3cf55811	0.02994922
7	0x3f2ceae9	0.67545944
8	0x3efffc2d	0.49997082
9	0x00000000	0.0
10	0x3efffc2c	0.4999708
11	0x3f32a3ce	0.69781196
12	0x3f005dbb	0.5014302
13	0x00000000	0.0
14	0x3eff3ce1	0.49851134
15	0x3f316482	0.6929399
16	0x3f439936	0.76405656
17	0x00000000	0.0
18	0x3e71848b	0.23585717
19	0x3f023110	0.50856113
20	0x3f48c855	0.7843068
21	0x00000000	0.0
22	0x3e5cc612	0.21559933
23	0x3ef0fafc	0.47066486
24	0x3f7ff530	0.999835
25	0x00000000	0.0
26	0x00000000	0.0
27	0x3e8c74e0	0.2743292
28	0x3f7ff530	0.999835
29	0x00000000	0.0
30	0x00000000	0.0
31	0x3e8acb82	0.2710839
32	0x3f7ff530	0.999835
33	0x00000000	0.0
34	0x00000000	0.0
35	0x3e6eab69	0.23307575

network_body.observation_encoder.processors.0.normalizer.running_variance f4 [36]
0	0x3ffff9b0	1.9998074
1	0x3f800000	1.0
2	0x3f800000	1.0
3	0x43bbc679	375.55057
4	0x43f9c9aa	499.5755
5	0x3f800000	1.0
6	0x43f95169	498.63602
7	0x4401ca73	519.16327
8	0x4585da00	4283.25
9	0x3f800000	1.0
10	0x4585da00	4283.25
11	0x44c75b68	1594.8564
12	0x4585d9b7	4283.2144
13	0x3f800000	1.0
14	0x4585d9b9	4283.2153
15	0x44c9d607	1614.6884
16	0x454106de	3088.4292
17	0x3f800000	1.0
18	0x4541021e	3088.1323
19	0x44aa4611	1362.1896
20	0x4535219c	2898.1006
21	0x3f800000	1.0
22	0x45351cbc	2897.796
23	0x44a910a0	1352.5195
24	0x3ffff9b0	1.9998074
25	0x3f800000	1.0
26	0x3f800000	1.0
27	0x4189b86f	17.215055
28	0x3ffff9b0	1.9998074
29	0x3f800000	1.0
30	0x3f800000	1.0
31	0x41abbe92	21.468052
32	0x3ffff9b0	1.9998074
33	0x3f800000	1.0
34	0x3f800000	1.0
35	0x41106745	9.025212

network_body.observation_encoder.processors.1.normalizer.running_mean f4 [7]
0	0xbd1a93bf	-0.037738558
1	0x3eeae708	0.45879388
2	0x3f51c2f7	0.8193812
3	0x3db843f6	0.089973375
4	0xb59ba6fd	-1.1597e-06
5	0x350d2b10	5.258926e-07
6	0x38e0d1e8	0.000107202504

network_body.observation_encoder.processors.1.normalizer.running_variance f4 [7]
0	0x43caf1a3	405.8878
1	0x44885188	1090.5479
2	0x43fc3c78	504.4724
3	0x4249d999	50.462498
4	0x3f8019ae	1.0007837
5	0x3f80007e	1.000015
6	0x3f8a6d09	1.0814525

network_body.processors.0.normalizer.running_mean f4 [36]
0	0x3f7ff530	0.999835
1	0x00000000	0.0
2	0x00000000	0.0
3	0x3f2ab059	0.66675335
4	0x3f785172	0.96999276
5	0x00000000	0.0
6	0x3cf55811	0.02994922
7	0x3f2ceae9	0.67545944
8	0x3efffc2d	0.49997082
9	0x00000000	0.0
10	0x3efffc2c	0.4999708
11	0x3f32a3ce	0.69781196
12	0x3f005dbb	0.5014302
13	0x00000000	0.0
14	0x3eff3ce1	0.49851134
15	0x3f316482	0.6929399
16	0x3f439936	0.76405656
17	0x00000000	0.0
18	0x3e71848b	0.23585717
19	0x3f023110	0.50856113
20	0x3f48c855	0.7843068
21	0x00000000	0.0
22	0x3e5cc612	0.21559933
23	0x3ef0fafc	0.47066486
24	0x3f7ff530	0.999835
25	0x00000000	0.0
26	0x00000000	0.0
27	0x3e8c74e0	0.2743292
28	0x3f7ff530	0.999835
29	0x00000000	0.0
30	0x00000000	0.0
31	0x3e8acb82	0.2710839
32	0x3f7ff530	0.999835
33	0x00000000	0.0
34	0x00000000	0.0
35	0x3e6eab69	0.23307575

network_body.processors.0.normalizer.running_variance f4 [36]
0	0x3ffff9b0	1.9998074
1	0x3f800000	1.0
2	0x3f800000	1.0
3	0x43bbc679	375.55057
4	0x43f9c9aa	499.5755
5	0x3f800000	1.0
6	0x43f95169	498.63602
7	0x4401ca73	519.16327
8	0x4585da00	4283.25
9	0x3f800000	1.0
10	0x4585da00	4283.25
11	0x44c75b68	1594.8564
12	0x4585d9b7	4283.2144
13	0x3f800000	1.0
14	0x4585d9b9	4283.2153
15	0x44c9d607	1614.6884
16	0x454106de	3088.4292
17	0x3f800000	1.0
18	0x4541021e	3088.1323
19	0x44aa4611	1362.1896
20	0x4535219c	2898.1006
21	0x3f800000	1.0
22	0x45351cbc	2897.796
23	0x44a910a0	1352.5195
24	0x3ffff9b0	1.9998074
25	0x3f800000	1.0
26	0x3f800000	1.0
27	0x4189b86f	17.215055
28	0x3ffff9b0	1.9998074
29	0x3f800000	1.0
30	0x3f800000	1.0
31	0x41abbe92	21.468052
32	0x3ffff9b0	1.9998074
33	0x3f800000	1.0
34	0x3f800000	1.0
35	0x41106745	9.025212

network_body.processors.1.normalizer.running_mean f4 [7]
0	0xbd1a93bf	-0.037738558
1	0x3eeae708	0.45879388
2	0x3f51c2f7	0.8193812
3	0x3db843f6	0.089973375
4	0xb59ba6fd	-1.1597e-06
5	0x350d2b10	5.258926e-07
6	0x38e0d1e8	0.000107202504

network_body.processors.1.normalizer.running_variance f4 [7]
0	0x43caf1a3	405.8878
1	0x44885188	1090.5479
2	0x43fc3c78	504.4724
3	0x4249d999	50.462498
4	0x3f8019ae	1.0007837
5	0x3f80007e	1.000015
6	0x3f8a6d09	1.0814525
