results/testRun/Car/Car-47292.onnx (onnx, 321562 bytes, 12 tensors)

network_body.observation_encoder.processors.0.normalizer.running_mean f4 [36]
0.33332613 0.0 0.66665226 0.87055117 0.4831373 0.0 0.5168457 0.91326886
0.6666518 0.0 0.33332595 0.7124089 0.62952244 0.0 0.37045684 0.7133563
0.6666518 0.0 0.33332595 0.59823287 0.7039506 0.0 0.2960274 0.56975985
0.6666518 0.0 0.33332595 0.5460195 0.6666518 0.0 0.33332595 0.4879958
0.6666518 0.0 0.33332595 0.5217214
00000000: b9a9 aa3e 0000 0000 b9a9 2a3f 71dc 5e3f
00000010: c65d f73e 0000 0000 0050 043f fdcb 693f
00000020: b1a9 2a3f 0000 0000 b3a9 aa3e 6e60 363f
00000030: 6228 213f 0000 0000 85ac bd3e 859e 363f
00000040: b1a9 2a3f 0000 0000 b3a9 aa3e ca25 193f
00000050: 1b36 343f 0000 0000 e790 973e c8db 113f
00000060: b1a9 2a3f 0000 0000 b3a9 aa3e efc7 0b3f
00000070: b1a9 2a3f 0000 0000 b3a9 aa3e 96da f93e
00000080: b1a9 2a3f 0000 0000 b3a9 aa3e 898f 053f

network_body.observation_encoder.processors.1.normalizer.running_mean f4 [7]
0.18176243 0.21812077 0.8944224 0.22049303 1.3450283e-06 2.8496714e-07 7.846714e-05
00000000: ee1f 3a3e 0d5b 5f3e def8 643f edc8 613e
00000010: d286 b435 96fd 9834 ba8e a438

network_body._body_endoder.seq_layers.0.weight f4 [256, 43]
-0.32271495 -0.0642442 -0.015308384 -0.011660273 0.0016994928 -0.08041801 0.16742519 0.05106755
-0.18876174 0.07683159 -0.35689184 0.040439032 -0.17064121 0.088609695 0.042735472 0.15441288
-0.040597778 -0.12606889 0.014921924 0.023541166 0.034093678 -0.14202361 0.04390896 -0.020620437
0.15023473 -0.024357587 -0.07851293 0.13979812 -0.0895419 0.048862986 0.060628463 -0.15249473
-0.123383865 0.12974891 -0.04292605 0.15414418 -0.22041367 0.16468905 -0.1777315 0.018814718
0.117588006 0.058082707 0.19388728 0.07103706 0.38117343 0.20841555 0.05878951 0.05430768
0.040675588 -0.048438996 0.005159756 0.09418413 -0.17933185 -0.18470281 0.08874322 -0.19306795
-0.0578021 -0.043442108 0.004154535 0.26267555 0.0063403067 0.0904218 0.17681031 0.15308681
0.05067654 -0.2301863 -0.088445224 0.010131644 0.3353129 -0.04363368 -0.27991185 -0.012048663
0.24861552 0.18380652 0.014955687 0.023611166 0.040251657 0.035875846 -0.18069439 0.1537233
0.02385625 0.10589443 -0.0802403 0.046939354 0.15257592 -0.1929025 0.100560755 -0.052441955
0.044594597 -0.09428308 0.106776014 0.024410995 0.06885708 0.16705622 -0.14925219 0.24197364
-0.12599866 0.10018618 0.09310044 -0.17310692 -0.15411155 -0.12799186 -0.07102542 -0.087211914
-0.17631371 0.15796532 -0.0977978 0.36081198 -0.014366065 0.041800983 0.22052597 -0.039048076
-0.1777782 -0.018061541 -0.101656705 0.012505612 0.17385505 0.13129018 0.138271 -0.07945764
-0.047319636 -0.26026097 -0.23736481 -0.09631033 -0.027638206 -0.07499352 -0.21344887 0.0014324692
-0.37932286 -0.15668528 0.27701366 -0.06909651 0.057214253 0.12765045 0.13942373 -0.008368005
-0.07590057 0.04064179 -0.0047906246 -0.106219076 0.24892005 0.105761014 -0.06717108 0.17114846
-0.14691515 0.05304988 -0.14090154 -0.12928087 0.027561476 -0.4506243 0.3325368 0.12079749
-0.066619575 0.29978022 -0.074350715 0.18099739 0.04167891 0.21682154 -0.0013510417 -0.0006273922
0.08370191 -0.013798785 -0.13779883 0.037028402 0.264221 0.08806404 0.26969984 -0.040909924
-0.012193207 -0.059941705 0.016843563 -0.29658684 -0.009794665 0.17302524 0.1506313 -0.044241477
0.21677616 0.12379327 0.24355944 0.2993749 0.024246484 0.18206404 -0.113840505 0.019689737
-0.08304344 0.07992711 -0.020482484 0.0795651 0.007454288 0.038838968 0.040668353 -0.14443119
0.13108748 0.011574525 0.0746373 -0.012561268 -0.15463443 -0.023619745 0.10312629 0.024168728
0.20369734 -0.06092315 0.041670874 -0.06778736 -0.13622828 -0.0013949776 0.09739015 0.0043168264
0.11162276 -0.14233556 -0.2660863 0.08267077 0.11309645 0.059044186 -0.15121034 0.050170444
-0.46881902 -0.0012653988 -0.0031783646 0.011852713 -0.087798774 -0.008787277 0.1474005 -0.06207401
0.06445709 0.19227952 0.08726662 -0.32053247 -0.14172801 0.22472279 -0.27657568 0.06268244
0.38345695 0.04625514 0.11221266 0.08970332 -0.09849856 -0.13719004 -0.38712254 0.05850611
-0.21809116 0.08096523 0.10556904 -0.17874369 -0.010946885 -0.043914527 -0.15970856 -0.37335068
-0.14046259 -0.1566557 0.09362932 0.041233104 -0.02407854 0.107716754 0.04755592 0.16804484
00000000: e53a a5be 7792 83bd 04d0 7abc bb0a 3fbc
00000010: 84c1 de3a 33b2 a4bd 8271 2b3e 352c 513d
00000020: c24a 41be e159 9d3d 87ba b6be 66a3 253d
00000030: 92bc 2ebe 0079 b53d 640b 2f3d 691e 1e3e
00000040: db49 26bd 3418 01be 167b 743c 67d9 c03c
00000050: d0a5 0b3d a36e 11be e2d9 333d 31ec a8bc
00000060: 22d7 193e 9089 c7bc 63cb a0bd 3d27 0f3e
00000070: be61 b7bd 8e24 483d 8d55 783d 9427 1cbe
00000080: aeb0 fcbd e6dc 043e 3ad3 2fbd f9d7 1d3e
00000090: 1fb4 61be 3fa4 283e 3fff 35be 5321 9a3c
000000a0: fbd1 f03d 22e8 6d3d 638a 463e e17b 913d
000000b0: 2a29 c33e e36a 553e 45cd 703d bb71 5e3d
000000c0: 729b 263d f867 46bd 2c13 a93b 9ce3 c03d
000000d0: c5a2 37be bc22 3dbe 01bf b53d 9bb3 45be
000000e0: e5c1 6cbd 5af0 31bd c422 883b 697d 863e
000000f0: 59c2 cf3b 112f b93d c30d 353e cac2 1c3e
00000100: 3492 4f3d f5b5 6bbe c522 b5bd 32ff 253c
00000110: 22ae ab3e 3bb9 32bd 9b50 8fbe c167 45bc
00000120: 1195 7e3e c737 3c3e b308 753c 346c c13c
00000130: ecde 243d 8df2 123d f307 39be a469 1d3e
00000140: 2f6e c33c 2edf d83d 0755 a4bd 7b43 403d
00000150: dd3c 1c3e 3c88 45be ccf2 cd3d 60cd 56bd
00000160: d3a8 363d 7d17 c1bd 62ad da3d 91f9 c73c
00000170: f104 8d3d c910 2b3e 91d5 18be f0c7 773e
00000180: cb05 01be 692e cd3d 72ab be3d f142 31be
00000190: 6bcf 1dbe 4c10 03be c775 91bd 299c b2bd
000001a0: 958b 34be a9c1 213e 374a c8bd 59bc b83e
000001b0: a55f 6bbc 8237 2b3d 8fd1 613e e0f0 1fbd
000001c0: 7d0b 36be ccf5 93bc 6431 d0bd 57e4 4c3c
000001d0: 0f07 323e ef70 063e ea96 0d3e b0ba a2bd
000001e0: 3cd2 41bd ed40 85be c30f 73be 5a3e c5bd
000001f0: 8569 e2bc 3496 99bd 5792 5abe b1c1 bb3a
00000200: 9b36 c2be 1b72 20be bcd4 8d3e 7982 8dbd
00000210: 7e59 6a3d cdb6 023e 18c5 0e3e f519 09bc
00000220: c271 9bbd 0178 263d acfa 9cbb 6389 d9bd
00000230: e6e4 7e3e 3b99 d83d fe90 89bd 8b41 2f3e
00000240: ed70 16be d54a 593d 7e48 10be 3462 04be
00000250: 9bc8 e13c 3ab8 e6be 4342 aa3e ad64 f73d
00000260: d86f 88bd cb7c 993e 3045 98bd 6157 393e
00000270: 81b7 2a3d 7706 5e3e 7015 b1ba 9477 24ba
00000280: e86b ab3d 4d14 62bc 231b 0dbe 18ab 173d
00000290: fa47 873e eb5a b43d 1916 8a3e 2a91 27bd
000002a0: 04c6 47bc 6f85 75bd 83fb 893c 3bda 97be
000002b0: cd79 20bc 872d 313e 173f 1a3e 8d36 35bd
000002c0: 92fa 5d3e 5387 fd3d a567 793e ab47 993e
000002d0: 90a0 c63c ff6e 3a3e 3625 e9bd 5f4c a13c
000002e0: ae12 aabd d3b0 a33d e2ca a7bc 07f3 a23d
000002f0: 1a43 f43b 9c15 1f3d dc93 263d c5e5 13be
00000300: cc3b 063e 14a3 3d3c 71db 983d c7cd 4dbc
00000310: 7d58 1ebe 327e c1bc e033 d33d 7ffd c53c
00000320: 0996 503e 8e8a 79bd 14af 2a3d 19d4 8abd
00000330: 6d7f 0bbe aed7 b6ba 7d74 c73d 2a74 8d3b
00000340: 799a e43d 6ac0 11be 773c 88be 4b4f a93d
00000350: 1d9f e73d 51d8 713d e2d6 1abe 867f 4d3d
00000360: 0c09 f0be bddb a5ba 1c4c 50bb e231 423c
00000370: d8cf b3bd 83f8 0fbc 28f0 163e 5141 7ebd
00000380: 1402 843d ece4 443e d7b8 b23d d51c a4be
00000390: 2621 11be bb1d 663e 549b 8dbe a75f 803d
000003a0: 7854 c43e 0876 3d3d c0cf e53d 60b6 b73d
000003b0: 9db9 c9bd 8c7b 0cbe ed34 c6be 1aa4 6f3d
000003c0: 4a53 5fbe 19d1 a53d 9534 d83d 9608 37be
000003d0: 905a 33bc b8df 33bd a48a 23be d227 bfbe
000003e0: 6dd5 0fbe 5a6a 20be bbc0 bf3d 0be4 283d
000003f0: 5c40 c5bc 9a9a dc3d ffc9 423d f213 2c3e

network_body._body_endoder.seq_layers.0.bias f4 [256]
-0.0024150477 -0.0031456037 0.0026419589 0.00453698 0.0037860752 0.004164754 0.004227698 -0.0011882622
0.0041674473 -0.00061166595 0.0027740912 0.004128184 0.0011800245 -0.0027606238 -0.003558147 -0.005473864
0.00265656 0.0026940748 -0.0019530385 -0.0016837564 -0.0021518942 0.0018524408 -0.0037536235 -0.003336918
0.00094736466 -0.0025493973 -0.0052260854 0.0005096924 0.0012813908 -0.0040399395 -0.0034670802 0.003461744
0.004312744 -0.003130016 -0.0033084918 0.0019386021 -0.0016388402 -0.004731222 0.0062377187 0.0037293504
0.0036738405 -0.004449511 0.0027496528 0.00067730463 0.0014366836 -0.00010006212 -0.0029471032 -0.0003336358
0.004107921 0.0020484366 -0.0044874907 -0.0025020402 0.005254849 -0.001844562 -0.0037427142 0.0029519273
-0.003980013 0.00028513875 -0.0018490272 6.6246525e-05 -0.0021405679 0.0035084886 0.0029541207 -0.003982174
0.001456692 0.0015662791 0.0005802049 0.0024448065 -0.0003754828 -0.0022421954 0.0016050085 0.0010492082
-0.0025080114 -0.003128086 3.5163866e-05 0.0031934697 -0.0026384261 -0.0028213179 -0.0035664851 0.0036514737
0.0025929108 -0.0011621477 0.0035947277 -0.001999616 0.00038324867 -0.003998146 -0.0027734635 -0.0010048614
0.002001959 0.0027689787 -0.003651482 0.0050078803 0.0039965874 0.0025610214 0.00204375 0.0037045486
0.00015488816 0.0038339365 0.0012001316 -0.00400858 -0.001389552 -0.0021674451 -0.002804526 0.0033751389
-0.0019220592 0.00059114705 0.0019875446 -0.0015840145 -0.004113595 0.003796626 0.0008261506 -0.00290253
-0.001288744 -0.0030637763 0.0024458496 -0.0019934832 -0.0013254265 -0.0065202164 -0.0013958871 -0.0017992593
-1.4553019e-05 0.0011588414 -0.0009168568 0.0021898586 -0.0025381094 -0.0010788159 0.003467767 0.00016625058
0.0023732146 -0.0021258972 -0.0014382391 -0.00065056374 0.0046521253 0.002231893 -0.003935974 -4.8652983e-06
0.00061291404 0.003022936 0.001230184 0.0039126026 0.00028633434 -0.00032164122 -0.0039141257 0.0005901659
-0.0057158954 -0.0024352665 0.0022108657 -0.005753738 0.0024011382 -0.002906081 -0.000660174 -0.004952749
-0.002492463 0.003911033 0.00013311567 0.0003539877 0.0018878172 -0.00463589 0.001923712 -0.00060888944
0.0034705512 -0.00073380495 -0.0018294213 -0.0035754754 -0.0028360419 -0.003860723 -0.0002767891 -0.004297208
-0.00030206802 0.0030141578 0.0024248858 -0.00091096933 0.003859627 -0.0044862367 -0.00192402 0.003516376
-0.0010699952 0.003936304 -0.0028435616 -0.00051287387 -0.0012148775 -0.001522134 0.0005664668 0.0015558184
-0.0028387117 -0.004211798 0.00033833616 -0.0013427478 -0.0029368324 0.0015207938 0.006076598 0.0032447155
0.0020208799 0.00072631025 -0.0032928032 -0.004278757 -0.004929052 0.0040660133 0.0032419567 -0.0017429754
0.0030696788 0.0041423948 0.004557053 0.006139462 -0.005490398 -0.00010993455 -0.0011400995 0.003306252
8.2306564e-05 -0.0047510527 -0.0044992543 -0.0009939964 -0.0022229746 0.0016172951 0.0044760928 -0.0029183547
-0.0026118075 -0.0003036571 0.0058756983 0.003573782 -0.0030474993 -0.004801667 0.0028844427 -0.0025185805
0.0039247614 0.0027791169 0.0025933222 0.0016726955 0.0047223517 -0.0025882195 0.0044376985 0.0048088976
0.0037167405 0.0031730542 0.0019964043 0.003135397 -0.0020143054 -0.0026528677 -0.003948104 -0.000578102
0.00036259682 0.002099253 -0.0020801944 -0.0015741597 0.0026518828 -0.0015972512 -0.0019386212 0.0019716125
-0.001122811 0.0008995058 -0.0034808267 -0.0057103448 -0.0056596715 -0.0025311576 0.0020470535 0.004840866
00000000: c745 1ebb 7926 4ebb b724 2d3b f2aa 943b
00000010: cd1f 783b 7d78 883b 8088 8a3b 77bf 9bba
00000020: 158f 883b 3558 20ba 87cd 353b b845 873b
00000030: 0dab 9a3a 95eb 34bb cd2f 69bb 195e b3bb
00000040: ae19 2e3b 138f 303b 19fd ffba 7db1 dcba
00000050: cb06 0dbb 99cd f23a 5aff 75bb 32b0 5abb
00000060: 9158 783a ca13 27bb 953f abbb e19c 053a
00000070: 57f4 a73a 7861 84bb f437 63bb 6dde 623b
00000080: eb51 8d3b f420 4dbb 48d3 58bb b118 fe3a
00000090: 5ace d6ba 5e08 9bbb c765 cc3b 1e68 743b
000000a0: d1c4 703b 34cd 91bb 8533 343b 258d 313a
000000b0: 1a4f bc3a 71d8 d1b8 3024 41bb d7eb aeb9
000000c0: bd9b 863b 103f 063b cd0b 93bb 45f9 23bb
000000d0: de30 ac3b 3bc5 f1ba 5348 75bb 1f75 413b
000000e0: c56a 82bb ad7e 9539 0f5b f2ba d5ed 8a38
000000f0: c548 0cbb acee 653b ec99 413b e67c 82bb
00000100: 79ee be3a 9b4b cd3a e418 183a 0c39 203b
00000110: 73dc c4b9 ccf1 12bb 265f d23a 9685 893a
00000120: 735d 24bb 9300 4dbb ea7c 1338 8849 513b
00000130: 72e9 2cbb dce5 38bb b1bb 69bb 904d 6f3b
00000140: d3ed 293b 3553 98ba 8695 6b3b fd0b 03bb
00000150: c4ee c839 e102 83bb ffc2 35bb 8eb5 83ba
00000160: 4c33 033b c177 353b b44d 6fbb 2519 a43b
00000170: cef5 823b cfd6 273b 6ff0 053b 03c8 723b
00000180: 7969 2239 c842 7b3b bc4d 9d3a 685a 83bb
00000190: a121 b6ba b20b 0ebb 23cc 37bb 6f31 5d3b
000001a0: 9bed fbba 35f7 1a3a 7741 023b b59e cfba
000001b0: 56cb 86bb d1d0 783b 0792 583a 5f38 3ebb
000001c0: 13eb a8ba a3c9 48bb 8c4a 203b 19a5 02bb
000001d0: efb9 adba 8aa7 d5bb 33f6 b6ba 20d5 ebba
000001e0: be28 74b7 44e4 973a 3859 70ba bb83 0f3b
000001f0: 6956 26bb 0e67 8dba 7a43 633b 8d53 2e39
00000200: ef87 1b3b a352 0bbb 4c83 bcba 988a 2aba
00000210: db70 983b f344 123b 58f9 80bb 9840 a3b6
00000220: f7ab 203a 731c 463b 203e a13a 4a35 803b
00000230: 251f 9639 f4a1 a8b9 1142 80bb 5db5 1a3a
00000240: 684c bbbb fe98 1fbb 2ce4 103b da89 bcbb
00000250: 6a5c 1d3b f373 3ebb 870f 2dba ab4a a2bb
00000260: 9758 23bb 1f28 803b f794 0b39 6d97 b939
00000270: a270 f73a aae8 97bb 1025 fc3a e19d 1fba
00000280: 3072 633b d15c 40ba 31c9 efba 8652 6abb
00000290: e3dc 39bb 2f04 7dbb 011e 91b9 98cf 8cbb
000002a0: e25e 9eb9 2d89 453b d5ea 1e3b 1ece 6eba
000002b0: ccf1 7c3b 4801 93bb 662f fcba 0073 663b
000002c0: 153f 8cba 1cfc 803b 0c5b 3abb 6272 06ba
000002d0: 863c 9fba 5882 c7ba f27e 143a 9aec cb3a
000002e0: ae09 3abb 1f03 8abb b662 b139 24ff afba
000002f0: df77 40bb 5f55 c73a 331e c73b 4ba5 543b
00000300: bd70 043b db65 3e3a 12cc 57bb d134 8cbb
00000310: e383 a1bb 313c 853b 0277 543b 8d74 e4ba
00000320: aa2c 493b edbc 873b 5553 953b 8a2d c93b
00000330: cce8 b3bb aa8c e6b8 646f 95ba b4ad 583b
00000340: 009c ac38 b8ae 9bbb 7b6e 93bb fc48 82ba
00000350: 53af 11bb 6bfb d33a 30ac 923b de41 3fbb
00000360: dc2a 2bbb 2b34 9fb9 ee88 c03b 1d36 6a3b
00000370: 8eb8 47bb 4d57 9dbb eb08 3d3b c50e 25bb
00000380: 499b 803b d821 363b baf4 293b 593e db3a
00000390: f5bd 9a3b 1e9f 29bb 1d6a 913b f593 9d3b
000003a0: 8f94 733b 04f3 4f3b 1bd6 023b 3c7b 4d3b
000003b0: 7002 04bb bcdb 2dbb 195f 81bb c58b 17ba
000003c0: ec1a be39 9f93 093b df53 08bb 0954 ceba
000003d0: 36cb 2d3b db5a d1ba 5519 feba 2b36 013b
000003e0: 492b 93ba d0cc 6b3a 951e 64bb d81d bbbb
000003f0: c474 b9bb c7e1 25bb dc27 063b 21a0 9e3b

network_body._body_endoder.seq_layers.2.weight f4 [256, 256]
0.05173917 0.007849788 -0.060310118 -0.2270592 -0.1203099 0.11635121 0.01545025 0.061830934
-0.007667643 0.101627246 -0.035115816 -0.007639993 0.03717934 0.035993945 0.015597553 -0.007994397
-0.037534393 -0.0636749 0.07324477 -0.039398137 -0.003466833 0.07103861 0.021400874 0.015561065
0.12394882 -0.0014201149 -0.08643983 0.03610975 0.029274577 0.027325578 -0.081066206 0.044541717
-0.052356027 -0.00857951 -0.033198785 -0.057641886 -0.03664299 -0.07806664 0.022374457 -0.08105304
-0.06482408 0.049579695 -0.039318297 -0.07461478 0.024499299 -0.0028975508 0.1294841 -0.096805535
-0.05442527 -0.11224341 -0.00291756 -0.029953409 -0.0874618 0.048778914 -0.076010205 -0.06725388
-0.061164867 -0.0049077175 0.052297257 -0.017231913 -0.021821005 -0.07058735 -0.03558018 0.15350217
-0.017672043 -0.07365402 0.0066550006 -0.044301767 -0.101202555 0.092344575 0.055393904 0.035670083
-0.025509298 0.063231036 -0.04957666 0.067961656 0.06813145 -0.017256267 -0.026660198 0.1462303
-0.0031013 0.05732059 0.0068266504 0.0380384 0.017893054 0.021206006 0.049688622 -0.01792199
-0.015340015 0.05459865 -0.0019272703 -0.022382777 0.011805561 -0.056018185 0.0036839284 0.016590519
0.026319694 0.025416933 0.1255297 -0.018292617 -0.009357975 0.065144695 -0.04162998 -0.14276911
0.035489593 0.03664403 -0.066249944 -0.012693381 0.074088246 0.06947231 0.11436863 0.015205408
0.025815142 -0.018029427 -0.059043337 -0.022800175 -0.038837012 0.016535982 -0.009901683 0.13378687
0.105212726 0.122671254 -0.010968276 -0.008245214 0.0979564 0.064052984 0.12609279 0.100011125
-0.1177485 0.032474928 0.07567198 -0.029708015 -0.0028574357 -0.11316086 -0.052424084 0.03708161
0.054281663 0.031098044 0.011652337 0.10677481 -0.08303614 0.045992512 0.078063376 0.14141184
0.041309092 0.10504117 0.03916368 0.019738102 -0.007837332 0.05081565 -0.015588519 -0.04324013
0.04028741 0.012318418 -0.08192941 -0.01095257 -0.009535606 -0.05436321 -0.040011942 -0.010737251
-0.08960782 -0.009814463 -0.09748143 -0.12940581 0.014466465 0.030550567 -0.11261232 0.022714416
0.03100074 0.041599303 0.04245746 -0.060583983 -0.051840227 -0.10287576 -0.019677686 0.022382889
0.014509568 0.050701488 0.05499059 0.08796071 -0.05228967 -0.04641747 -0.009502708 -0.1465142
0.008372968 0.034668803 -0.024204832 -0.032572422 0.053924926 0.039056335 -0.0058287038 0.05329132
0.081763044 -0.07315583 0.037514195 0.11486699 0.03377526 -0.019852113 -0.006624682 0.043639395
0.005070459 -0.0016148712 -0.14971517 -0.036700215 -0.05709873 -0.022569846 0.026716907 0.03608233
-0.07576446 0.08996601 -0.021984959 0.045670982 -0.013089678 -0.12650073 -0.07693513 -0.048281103
0.00049594016 -0.10019515 0.0038901085 -0.01854268 -0.027852472 0.0066153356 -0.023384614 -0.043562658
-0.016244533 0.021232605 -0.025856521 -0.029188452 -0.031970322 0.04997601 -0.20105295 -0.004760787
0.0700773 0.085750856 0.041245572 0.02652713 -0.12227301 -0.008034383 0.050841182 0.023766441
0.0064904555 -0.11804216 -0.056242093 0.028447576 0.06149962 0.0038788437 -0.020014033 -0.07425678
0.029877346 0.009147259 0.06298902 0.0335946 0.0056152833 -0.038140617 0.037350327 -0.06652545
00000000: 74ec 533d 669c 003c be07 77bd 3582 68be
00000010: 0965 f6bd 8b49 ee3d 0c23 7d3c 6f42 7d3d
00000020: da40 fbbb f221 d03d 9ad5 0fbd e858 fabb
00000030: 5d49 183d 636e 133d e18c 7f3c eefa 02bc
00000040: aabd 19bd fc67 82bd 5b01 963d f15f 21bd
00000050: ce33 63bb b17c 913d e350 af3c d6f3 7e3c
00000060: e1d8 fd3d 2623 baba 5e07 b1bd d1e7 133d
00000070: 3dd1 ef3c e4d9 df3c 0a06 a6bd 6071 363d
00000080: 4673 56bd 1391 0cbc 73fb 07bd e619 6cbd
00000090: f616 16bd 67e1 9fbd a34a b73c 23ff a5bd
000000a0: 7dc2 84bd 1414 4b3d 390c 21bd a2cf 98bd
000000b0: c1b2 c83c d6e4 3dbb 7b97 043e fb41 c6bd
000000c0: 08ed 5ebd dfdf e5bd 8934 3fbb da60 f5bc
000000d0: 2c1f b3bd 66cc 473d 3dab 9bbd 67bc 89bd
000000e0: 0388 7abd ebd0 a0bb a635 563d f129 8dbc
000000f0: f7c1 b2bc 1a90 90bd 86bc 11bd ac2f 1d3e
00000100: f6c4 90bc ebd7 96bd 3112 da3b c575 35bd
00000110: 4943 cfbd 271f bd3d b8e4 623d cb1a 123d
00000120: e0f8 d0bc 467f 813d e510 4bbd 7b2f 8b3d
00000130: 8088 8b3d 045d 8dbc 7d66 dabc 65bd 153e
00000140: 2e3f 4bbb ffc8 6a3d 18b2 df3b 27ce 1b3d
00000150: 7494 923c 38b8 ad3c 4c86 4b3d 23d1 92bc
00000160: b054 7bbc d6a2 5f3d 769c fcba 165c b7bc
00000170: 1d6c 413c 5373 65bd 106e 713b d7e8 873c
00000180: 669c d73c 2c37 d03c dc8a 003e 66da 95bc
00000190: 3152 19bc 956a 853d 3384 2abd 1132 12be
000001a0: 895d 113d 0d18 163d 0dae 87bd e6f7 4fbc
000001b0: 94bb 973d 8047 8e3d 1a3a ea3d 1b20 793c
000001c0: 477a d33c 73b2 93bc 6dd7 71bd 6fc7 babc
000001d0: 8f13 1fbd 7876 873c ab3a 22bc 6dff 083e
000001e0: c579 d73d 113b fb3d 49b4 33bc ef16 07bc
000001f0: 5d9d c83d 362e 833d 781e 013e a2d2 cc3d
00000200: 2026 f1bd 6e04 053d e9f9 9a3d 395e f3bc
00000210: d143 3bbb e2c0 e7bd a3ba 56bd e3e2 173d
00000220: 7356 5e3d 53c1 fe3c 72e9 3e3c c0ac da3d
00000230: da0e aabd a562 3c3d b1df 9f3d 44ce 103e
00000240: b933 293d d31f d73d 186a 203d cdb1 a13c
00000250: 2768 00bc 1224 503d fd66 7fbc 901c 31bd
00000260: 6904 253d 31d3 493c 9bca a7bd 6872 33bc
00000270: 3b3b 1cbc f5ab 5ebd 90e3 23bd 4beb 2fbc
00000280: 4e84 b7bd d7cc 20bc 58a4 c7bd f582 04be
00000290: c104 6d3c 2f45 fa3c 4aa1 e6bd 9513 ba3c
000002a0: 44f5 fd3c 0864 2a3d e0e7 2d3d e926 78bd
000002b0: 6b56 54bd 87b0 d2bd 1933 a1bc 525c b73c
000002c0: 8ab9 6d3c 5dac 4f3d d03d 613d bf24 b43d
000002d0: b12d 56bd 3f20 3ebd 3fb1 1bbc d207 16be
000002e0: c62e 093c e000 0e3d 3649 c6bc a96a 05bd
000002f0: 62e0 5c3d 89f9 1f3d b6fe bebb 0048 5a3d
00000300: 6273 a73d b9d2 95bd 7ca8 193d 623f eb3d
00000310: ed57 0a3d e6a0 a2bc dc13 d9bb 39bf 323d
00000320: 1826 a63b 16aa d3ba ef4e 19be f752 16bd
00000330: 5ce0 69bd 66e4 b8bc 6add da3c 11cb 133d
00000340: 662a 9bbd 1940 b83d cd19 b4bc 7f11 3b3d
00000350: 1776 56bc 6889 01be 2a90 9dbd 68c2 45bd
00000360: fb01 023a 1d33 cdbd 31f1 7e3b d2e6 97bc
00000370: de2a e4bc 75c5 d83b 1791 bfbc c26e 32bd
00000380: 4113 85bc 00f0 ad3c 0ed1 d3bc 9f1c efbc
00000390: 50f3 02bd a5b3 4c3d d3e0 4dbe 6000 9cbb
000003a0: b084 8f3d 259e af3d 1ef1 283d 6c4f d93c
000003b0: 466a fabd a5a2 03bc d83e 503d d7b1 c23c
000003c0: e3ad d43b 17c0 f1bd 1c5e 66bd e40a e93c
000003d0: 07e7 7b3d 3334 7e3b 78f4 a3bc f013 98bd
000003e0: 56c1 f43c 63de 153c 6300 813d 7e9a 093d
000003f0: 6900 b83b 5639 1cbd a8fc 183d 7f3e 88bd

network_body._body_endoder.seq_layers.2.bias f4 [256]
-0.0005889098 0.0013439204 0.00064973265 -0.0047960547 -0.000561384 -0.003594559 0.0034403426 -0.000778278
-0.0033467272 -0.0038476964 -0.0035472352 0.0017988434 -0.0007681269 0.0035327168 0.0034567837 0.0031847814
0.00043433864 0.0029887776 -0.003861946 -0.0012708347 0.00090440403 -0.003718561 0.002966092 0.0046370467
0.0028511707 -0.003913962 -0.0049332087 -0.00432592 0.003282517 -0.0027836768 0.0045673167 0.002347535
-0.003208528 -0.0044481633 -0.005361573 -0.004740923 -0.0027965105 0.0032410899 0.0016770958 -0.0021308928
0.0037676618 0.0037971935 -0.0045655626 0.004342106 0.0053176777 0.0031633223 -0.0015769858 -0.005468765
0.0023810097 -0.004743007 -0.0034652348 -7.9730635e-05 0.0008086351 0.0009800257 0.0014173996 -0.001344675
0.0016642926 0.00037097363 -0.0032136298 0.00552663 -0.004259298 -0.003581523 0.003493634 0.0019966117
0.0066725384 -0.001318754 -0.0033205005 -0.0034712674 0.0009816919 -0.001566407 0.0041335477 -0.0031720044
-0.0050694575 0.0036146576 0.0042992984 -0.0019761561 0.0033108182 0.0011354974 0.0021607634 -0.0016807765
-0.0054730657 0.0010674228 6.706705e-05 0.005594735 0.0003962623 0.0027750875 -0.0029566693 -0.0014657923
0.0015832745 -0.001409241 -0.004800944 0.001775931 0.0033929385 0.00023989021 -0.0037689267 0.0016506801
0.00038813212 -0.0014002548 0.00033611292 -0.0007500706 0.0051113297 -0.0022876125 -0.0042395387 0.0028756657
-0.00021593095 0.0038641605 -0.0032764175 0.003354123 0.004988447 0.0042205653 -0.003373481 0.0029443633
0.0026953092 -0.00231824 0.0037632745 -0.00024238831 -0.0009438735 -0.0022684752 0.003386132 -0.0028265242
-0.0017373668 0.005100915 0.0034991123 -0.0030211646 -0.0045876093 -0.0009739982 -0.0041648084 -0.004989925
-0.0029892714 -0.003662413 0.0039226105 0.0013776649 0.0031496848 -0.0040611182 0.0008566066 -0.0027103424
-0.0011719435 -0.0039101215 0.0022503764 0.0029854584 -0.0028270073 0.004452574 -0.0052673216 -0.0044733663
-0.0015812058 0.0032548462 0.0014339894 -0.002633757 0.0034885844 -0.005463424 -0.0012359098 0.0023561665
0.0044764974 -0.00065730157 0.0038840624 0.0033252984 0.0035230573 0.004002991 0.0023418947 -0.0024332583
0.0035247689 7.262867e-05 -0.005143234 -0.0045459494 0.0040746145 -0.0054720375 -0.0010143279 -0.0025091248
-0.0034556098 -0.00090806634 -0.00391402 0.0029205317 -0.0019145245 0.00359097 0.0010142693 -0.0020729224
-0.0029390503 -0.0028510606 -0.002803958 0.005184685 -0.0017180281 0.0023358974 0.0024065648 -0.0025817184
0.002737552 0.0032373108 0.0032639892 -0.0017135527 0.0037323113 0.0028489935 0.0013807472 -0.0035255793
-0.0029221324 0.00563244 0.0034070748 0.0050492827 -0.000496506 0.004022395 -0.0035028148 0.002473782
0.0053766714 0.00019965909 0.0014319636 0.0038482558 -0.0010860437 -0.0019893437 0.0018329694 -0.004417638
-0.0014749111 -0.00022662112 -0.0024094128 0.0049364106 0.0014460552 -0.00026763667 -0.0034456537 -0.0025863412
0.0022204542 0.00077214383 -0.0025721507 -0.00069489726 0.0062462525 -0.0036956926 -0.003246227 -0.004186847
0.0022607136 0.0033952885 0.0014877071 -0.0023679824 -0.0032636942 0.0030832028 -0.0038264887 0.005697365
0.0024931824 0.004585368 0.00026473738 -0.0045366436 0.0055182027 -0.0045902235 -0.0044572367 -0.0013685335
-0.00021001289 0.0021547591 0.0017317426 -0.0022056357 0.0015014799 -1.7390223e-05 0.005490765 -0.00025570608
0.003769802 -0.002195028 0.0028372803 -0.0040332493 -0.004376882 -0.0017367352 0.004282232 -0.0028712072
00000000: 1161 1aba 7c26 b03a d252 2a3a 3928 9dbb
00000010: d829 13ba b192 6bbb 5f77 613b 5a05 4cba
00000020: c454 5bbb a229 7cbb bb78 68bb 2bc7 eb3a
00000030: 205c 49ba 2785 673b 358b 623b c4b7 503b
00000040: f2b7 e339 5edf 433b b418 7dbb 2392 a6ba
00000050: 8715 6d3a 1ab3 73bb c462 423b 5ef2 973b
00000060: b5da 3a3b b140 80bb c1a6 a1bb 72c0 8dbb
00000070: 7f1f 573b 596e 36bb 6ea9 953b 1ad9 193b
00000080: 2b46 52bb e6c1 91bb 22b0 afbb bf59 9bbb
00000090: a945 37bb 7768 543b ffd1 db3a 73a6 0bbb
000000a0: e0ea 763b 56da 783b b79a 95bb 3a48 8e3b
000000b0: ea3f ae3b be4f 4f3b ddb2 ceba 5333 b3bb
000000c0: b70a 1c3b 3a6b 9bbb fe18 63bb 0f35 a7b8
000000d0: 95fa 533a 3574 803a 0ac8 b93a ce3f b0ba
000000e0: 6524 da3a 3d7f c239 c39b 52bb bc18 b53b
000000f0: 9591 8bbb fcb7 6abb 74f5 643b 96d9 023b
00000100: 4fa5 da3b 0bda acba c19c 59bb 347e 63bb
00000110: 1dac 803a e64f cdba b672 873b 67e1 4fbb
00000120: b11d a6bb e4e3 6c3b 21e1 8c3b 6682 01bb
00000130: 50fa 583b f8d4 943a 989b 0d3b 804d dcba
00000140: 6757 b3bb c4e8 8b3a 59a6 8c38 0a54 b73b
00000150: 6dc1 cf39 3ede 353b aec4 41bb d41f c0ba
00000160: e085 cf3a 48b6 b8ba 3d51 9dbb 5bc6 e83a
00000170: 105c 5e3b 0a8b 7b39 1900 77bb a25b d83a
00000180: 367e cb39 c188 b7ba 5038 b039 63a0 44ba
00000190: f17c a73b c5eb 15bb d4eb 8abb aa75 3c3b
000001a0: 866b 62b9 db3d 7d3b 2ab9 56bb d9d0 5b3b
000001b0: 2076 a33b ab4c 8a3b 9f15 5dbb 38f6 403b
000001c0: c9a3 303b 9ded 17bb 45a1 763b 9e29 7eb9
000001d0: 476e 77ba b3aa 14bb dee9 5d3b 353d 39bb
000001e0: 5bb8 e3ba 9425 a73b 5d51 653b bbfe 45bb
000001f0: a853 96bb ea53 7fba f278 88bb 8682 a3bb
00000200: a7e7 43bb 1805 70bb 3e89 803b c392 b43a
00000210: f16a 4e3b 2113 85bb e58d 603a 00a0 31bb
00000220: e69b 99ba 7a20 80bb 0d7b 133b aea7 433b
00000230: 5045 39bb e6e6 913b 7f99 acbb 5195 92bb
00000240: 7640 cfba 424f 553b b3f4 bb3a 1c9b 2cbb
00000250: bca0 643b 8606 b3bb 40fe a1ba ea69 1a3b
00000260: 95af 923b c34e 2cba c18b 7e3b 40ed 593b
00000270: 18e3 663b 862b 833b 797a 193b 4d77 1fbb
00000280: cfff 663b 3850 9838 9388 a8bb 30f6 94bb
00000290: 5884 853b c74e b3bb 32f3 84ba 2170 24bb
000002a0: 8377 62bb 4d0b 6eba 2e41 80bb 6466 3f3b
000002b0: c8f0 faba 7b56 6b3b 3bf1 843a ded9 07bb
000002c0: 159d 40bb dcd8 3abb 9cc2 37bb 4ae4 a93b
000002d0: 752f e1ba db15 193b 75b7 1d3b 0c32 29bb
000002e0: 8068 333b 1029 543b a7e8 553b 4a99 e0ba
000002f0: cb99 743b 2eb6 3a3b 30fa b43a 680d 67bb
00000300: 3f81 3fbb 5590 b83b 3b49 5f3b 7474 a53b
00000310: f427 02ba 4bce 833b 7b8f 65bb 2d1f 223b
00000320: ca2e b03b 945b 5139 bab0 bb3a 0533 7c3b
00000330: 9459 8eba a65f 02bb 3f40 f03a d5c1 90bb
00000340: ce51 c1ba 25a1 6db9 3de7 1dbb 9dc1 a13b
00000350: 9089 bd3a 9651 8cb9 7ad0 61bb 9b7f 29bb
00000360: 0a85 113b b269 4a3a 8791 28bb c429 36ba
00000370: 5dad cc3b 6f33 72bb a7be 54bb d131 89bb
00000380: 7b28 143b 7d83 5e3b 2bff c23a 2730 1bbb
00000390: b4e3 55bb 8f0f 4a3b d4c5 7abb f6b0 ba3b
000003a0: a964 233b db40 963b 73cc 8a39 20a8 94bb
000003b0: 0ad2 b43b 9669 96bb 030e 92bb 5d60 b3ba
000003c0: e836 5cb9 dc36 0d3b a4fb e23a 6d8c 10bb
000003d0: 4ecd c43a 38e1 91b7 e0eb b33b 4a10 86b9
000003e0: c80e 773b 75da 0fbb aaf1 393b 5929 84bb
000003f0: f36b 8fbb 2aa3 e3ba f751 8c3b dd2a 3cbb

action_model._continuous_distribution.log_sigma f4 [1, 3]
-0.0067496216 0.002809388 -0.0010610201
00000000: ee2b ddbb b61d 383b ed11 8bba

action_model._continuous_distribution.mu.weight f4 [3, 256]
0.0022539396 0.021360721 -0.0076191775 -0.008501499 -0.018175317 -0.006280076 0.00027606622 -0.008961462
-0.0005010325 -0.008799729 0.012917389 -0.0064918613 0.005319351 0.02084952 -0.01716745 0.0029014333
-0.009910255 -0.017312016 -0.005987737 -0.010006578 0.011008456 -0.009221212 0.022432085 -0.002962129
0.011990261 0.00221965 0.02210137 -0.011888515 0.012123209 -0.008637921 -0.005500324 -0.0127379475
-0.016469734 -0.006455586 0.001928373 -0.003858969 -0.020256164 0.01593904 0.026145905 -0.011913854
-0.0033433593 0.016457949 0.0014399883 0.0047074887 0.0040611187 0.0005752895 0.01615381 -0.0056457054
-0.005561799 -0.0035138277 -0.015838942 -0.009879381 0.0010634956 -0.008024126 -0.013945965 -0.029464204
0.011431482 -0.0057617575 -0.0076767467 0.0013610243 -0.0038626785 -0.0028590816 0.009349157 -0.0047484194
0.0047357376 -0.022124218 0.003916744 -0.017848635 0.0102113085 0.036013167 0.0061599016 -0.020238155
-0.007775773 -0.002413115 0.02003671 0.015771033 -0.011367231 -0.007864516 -0.00893678 0.020360284
-0.0010534883 -0.008519157 0.02140474 -0.0032963345 -0.004043748 -0.005028661 1.3203612e-05 0.004086092
-0.010582501 0.0018803157 -0.012387094 0.030386092 -0.01232111 -0.004428175 -0.010229408 0.008426619
-0.0132884495 -0.015907839 -0.009329115 -0.007101982 0.009550364 -0.008190939 -0.011566432 -0.016316256
-0.03696583 0.013568105 0.0023789294 -0.012044459 -0.004190385 0.0033773712 -0.010780909 0.01089792
0.013279376 0.019057117 -0.014162555 -0.024128802 -0.023120498 0.014811687 0.011808615 -0.020155769
-0.0030717638 -0.0062662535 0.00043078803 0.0024544802 0.005788164 -0.012129215 -0.0028493614 0.007990951
0.031407382 0.0064872866 -0.0013054245 -0.006129907 -0.0030451836 0.0018570198 -0.01225543 -0.0067523983
0.01115518 -0.0043508024 0.011874626 0.021101454 -0.0028853281 0.0029895161 -0.0017926705 -0.013133882
-0.0048217033 0.010830044 -0.016402474 -0.012734556 0.017968846 -0.022328999 -0.013464283 0.034033194
-0.0057363827 0.009481302 -0.0039942446 0.004525067 -0.00982838 0.017604994 0.024772722 0.020904288
-0.0064482726 -0.014449442 -0.01378026 -0.0075311377 0.010555395 0.001231963 0.0068134754 0.025887977
-0.010916464 -0.008564514 0.007940915 0.02104379 0.019820997 0.0029331523 -0.0024077795 0.0003784991
-0.025509093 -0.006422305 0.012580887 -0.0013140361 -0.017281087 -0.0046248487 -0.008972434 -0.0037165242
0.0039437697 -0.011591415 -0.0051561296 0.0070928116 0.004239386 -0.0059637465 -0.003990722 0.0059776125
0.00924141 -0.0037575925 0.013172659 -0.0012550491 -0.0046166237 0.015576431 -0.019538997 -0.005732464
-0.0017342551 -0.002349116 0.02228381 0.01873791 0.015212117 0.028674005 -0.0065310327 2.7071126e-06
-0.016377123 -0.031402882 -0.005802202 0.0022885413 -0.007881996 -0.012368172 -0.008273387 -0.01300885
0.026441688 0.01628611 -0.007903249 0.0015747184 -0.0048212465 0.0041765114 -0.0259476 -0.01881616
-0.021835018 0.0015622986 -0.008473187 0.004361869 -0.016943062 -0.0005788178 -0.0017889083 -0.0041926936
0.012682819 -0.007611904 0.009632426 -0.0049272445 -0.000859009 -0.01874604 -0.010940159 -0.015667263
-0.021193821 -0.013263917 -0.01923047 0.009980515 -0.012388184 0.0027803008 0.026196284 0.005362113
-0.0049792496 0.00041633926 -0.004590856 0.0052852533 0.0030978895 -0.016056517 -0.008127341 -0.0074335774
00000000: d5b6 133b aefc ae3c 4baa f9bb df49 0bbc
00000010: 67e4 94bc 19c9 cdbb fbbc 9039 19d3 12bc
00000020: b957 03ba bd2c 10bc 75a3 533c aeb9 d4bb
00000030: f34d ae3b 9dcc aa3c c1a2 8cbc f925 3e3b
00000040: 9f5e 22bc eed1 8dbc c734 c4bb a1f2 23bc
00000050: d05c 343c 9114 17bc 7ec3 b73c 4720 42bb
00000060: cd72 443c 8c77 113b ef0d b53c 0cc8 42bc
00000070: 6da0 463c 1186 0dbc 103c b4bb d3b2 50bc
00000080: 89eb 86bc 6189 d3bb 76c1 fc3a c2e6 7cbb
00000090: 41f0 a5bc 9792 823c f02f d63c 5332 43bc
000000a0: 431c 5bbb d2d2 863c fdbd bc3a 4741 9a3b
000000b0: 2213 853b 06cf 163a ff54 843c 9cff b8bb
000000c0: c03f b6bb 3f48 66bb abc0 81bc 21dd 21bc
000000d0: fe64 8b3a a077 03bc 9e7d 64bc ea5e f1bc
000000e0: 1c4b 3b3c 20cd bcbb 388d fbbb 6664 b23a
000000f0: fe24 7dbb 6e5f 3bbb 352d 193c a198 9bbb
00000100: 3f2e 9b3b d93d b5bc 0858 803b 4d37 92bc
00000110: 554d 273c 8b82 133d 00d9 c93b 7dca a5bc
00000120: e9cb febb 5a25 1ebb 0724 a43c 4132 813c
00000130: 9f3d 3abc 2cda 00bc 926b 12bc 9cca a63c
00000140: 3415 8aba ef93 0bbc fe58 af3c 5107 58bb
00000150: 6b81 84bb 77c7 a4bb 1585 5d37 a0e4 853b
00000160: 3a62 2dbc ed74 f63a 3df3 4abc 41ec f83c
00000170: 7bde 49bc 391a 91bb 3f99 27bc cd0f 0a3c
00000180: ccb7 59bc 2851 82bc 25d9 18bc beb7 e8bb
00000190: 2179 1c3c 4a33 06bc 2281 3dbc aba9 85bc
000001a0: 7b69 17bd c24c 5e3c d0e7 1b3b 1f56 45bc
000001b0: 7f4f 89bb e356 5d3b 69a2 30bc 308d 323c
000001c0: bd91 593c ac1d 9c3c 100a 68bc c4a9 c5bc
000001d0: 3367 bdbc b8ac 723c ec78 413c b61d a5bc
000001e0: a54f 49bb 2555 cdbb 64db e139 58db 203b
000001f0: a4aa bd3b 9db9 46bc 5abc 3abb 7aec 023c
00000200: 07a5 003d 4e93 d43b c71a abba 63dd c8bb
00000210: b491 47bb 3f67 f33a 00cb 48bc 3943 ddbb
00000220: 37c4 363c 2d91 8ebb cb8d 423c f5dc ac3c
00000230: c617 3dbb c2eb 433b 0af8 eaba 7e2f 57bc
00000240: 61ff 9dbb 7f70 313c 7b5e 86bc 99a4 50bc
00000250: 6733 933c 4eeb b6bc 4c99 5cbc 6466 0b3d
00000260: 44f8 bbbb 7757 1b3c 27e2 82bb 0347 943b
00000270: 3707 21bc 5938 903c 2af0 ca3c 783f ab3c
00000280: 084c d3bb 5abd 6cbc 9ac6 61bc c3c7 f6bb
00000290: 89f0 2c3c d279 a13a 9343 df3b 0613 d43c
000002a0: f8da 32bc 2d52 0cbc 9d1a 023c 0764 ac3c
000002b0: a55f a23c 213a 403b d6cb 1dbb 4a71 c639
000002c0: 72f8 d0bc 3372 d2bb 1120 4e3c bc3b acba
000002d0: 1191 8dbc 0b8c 97bb 1e01 13bc ee90 73bb
000002e0: bd3a 813b ebe9 3dbc c0f4 a8bb d16a e83b
000002f0: 8cea 8a3b 886b c3bb 9ac4 82bb d9df c33b
00000300: 4869 173c f141 76bb 23d2 573c 7680 a4ba
00000310: 0c47 97bb 4934 7f3c 3f10 a0bc 65d7 bbbb
00000320: f24f e3ba a0f3 19bb 898c b63c 3f80 993c
00000330: 3e3c 793c bfe5 ea3c 4602 d6bb d7ab 3536
00000340: 5129 86bc 4fa0 00bd 6620 bebb 5afb 153b
00000350: 7d23 01bc e0a3 4abc 1a8d 07bc 1223 55bc
00000360: 3d9c d83c 736a 853c a17c 01bc c866 ce3a
00000370: 8cfb 9dbb 1edb 883b 1090 d4bc 5924 9abc
00000380: 5adf b2bc 0bc6 cc3a 1fd3 0abc 02ee 8e3b
00000390: 2dcc 8abc cebb 17ba cd79 eaba dd62 89bb
000003a0: 99cb 4f3c 476d f9bb 53d1 1d3c b974 a1bb
000003b0: 1e2f 61ba 4c91 99bc 5a3e 33bc a258 80bc
000003c0: aa9e adbc e650 59bc 3889 9dbc 5085 233c
000003d0: cff7 4abc b535 363b 9799 d63c aab4 af3b
000003e0: f928 a3bb 1c48 da39 e46e 96bb eb2f ad3b
000003f0: f605 4b3b f588 83bc 8a28 05bc 5e95 f3bb

action_model._continuous_distribution.mu.bias f4 [3]
0.0014247773 0.0047507235 0.0014958723
00000000: 98bf ba3a f5ab 9b3b 2511 c43a

action_model._discrete_distribution.branches.0.weight f4 [1, 256]
-0.0073933587 -0.01441099 0.0025534197 -0.0015533667 0.002880693 0.0015522646 0.002287323 -0.003526274
0.0006204754 0.008266167 0.0010194572 -0.009700782 0.0031767357 0.005736822 -0.0029182131 -0.01422807
-0.004092448 -0.0017790504 -0.0022555948 -0.0046101282 -0.013762546 -0.009589655 0.0017349873 -0.00327008
0.0017691482 0.0027102034 -0.0023694395 0.003914134 -0.012056662 -0.005174963 0.0010849686 -0.0049854564
0.0021004963 0.0046791965 -0.0038344902 -0.0035038542 0.0021718002 0.0019918287 -0.00093529606 -0.00019742419
-0.0040518153 -0.0051774406 0.0031615198 0.0031045873 -0.0022703675 -0.009398555 0.0029621935 -0.00027327912
-0.008261445 -0.004336634 -0.0044770855 0.008733109 -0.0058375387 -0.0034570422 0.0034934126 -0.0011105698
0.0020367776 -0.0040713036 0.007934964 -0.0039175972 0.0035317496 -0.006730763 -0.011655101 0.008481145
-0.0020601084 -0.0008221349 -0.0011112875 -0.0060886685 0.005899587 -0.0032760215 4.7810126e-06 -0.002478155
0.0003371256 0.007079869 0.0047069136 0.0076046693 0.0088582225 -0.00898056 -0.0082349805 -0.0010796965
-0.008488751 0.0032073432 0.0020334802 0.005043199 0.0058572493 -0.0054919575 0.0040644873 0.0009422757
-0.0048779133 -0.0037425829 -6.374317e-05 0.006153151 -0.0012465016 -0.00026952437 0.009489446 0.0023787126
-0.0041912617 -0.0019821962 0.00035643418 -0.0006170389 0.003666057 0.005427686 0.0022559422 0.00034668096
-0.0021760503 -0.003728797 -0.0028759898 0.0015599538 0.0073020034 0.002337706 0.0020922672 -4.60438e-05
-0.0040753135 0.011556374 0.008893665 -0.010736781 -0.0130372215 0.008183067 0.0050618215 0.0006467154
0.008933323 -0.0022674869 0.006119237 0.005872626 -0.011078882 0.0063140653 0.002994574 -0.0040762373
0.0059584635 0.009282937 0.0042088474 0.0047373143 -0.0035781153 -0.008381885 -0.00668046 -0.002307967
-0.0014934618 -0.0041173263 0.0044198115 -0.0014990828 -0.009921177 -0.005018059 0.006769786 0.005435238
-0.0012637444 -0.0016997941 -7.659988e-05 -0.007142263 0.0029028333 0.009288887 -0.0018710804 -0.001990932
-0.0035476002 0.0016583694 -0.001238695 0.008462773 -0.0023673608 0.0014667604 -0.007784155 -0.012990804
0.0059735808 -0.006253769 0.0040549734 0.0008035347 0.0028334064 0.013646612 -0.004578001 0.0071546487
-0.0031294653 -0.014478003 0.007252102 -0.00029546345 0.004005774 0.002359607 0.009673936 0.0017990861
-0.0015698228 -0.005195644 0.0035423946 -0.004190878 -0.0063012703 -0.01223209 -0.010226036 0.01725529
-0.0017144543 0.0046745716 -0.0063297786 -0.0020665338 0.0018958328 0.007587438 -0.0052901865 -0.0058699953
-0.004228797 -0.0018503318 0.0013586036 0.0013883838 -0.012992735 -0.0067492984 -0.00755843 -0.009797314
-0.0035526974 0.0026433843 0.003939737 0.0068527996 0.0060499716 -0.0029804427 -0.011054414 0.0023116085
0.0056474465 0.0053152717 -0.010395495 0.0036781915 0.0032325627 0.008406552 0.0009884336 0.0058879876
-0.0012787536 0.0014353455 0.0072961426 -0.0010871579 0.0076240296 0.013803258 0.0025977835 0.0010815817
0.00644935 -0.0055720937 -0.004051629 -0.0026628952 0.00096735824 -0.008383337 -0.00044388516 0.01035356
0.0025655408 0.006870468 -0.0016182257 0.0012966071 0.001858547 -0.010379235 0.0037434518 0.012426137
-0.0057351366 0.0016043857 -0.004121213 0.007511064 -0.00915658 0.0033475987 -0.0074717673 -0.0056200363
-0.00090445066 0.0014031677 0.0076366127 -0.0024292315 -0.0037327935 -0.0027331295 0.0052493773 -0.0040338743
00000000: fd43 f2bb 131c 6cbc 4657 273b 569a cbba
00000010: 02ca 3c3b 5b75 cb3a e9e6 153b 1019 67bb
00000020: 66a7 223a d16e 073c 4f9f 853a 07f0 1ebc
00000030: c830 503b f3fb bb3b 7e3f 3fbb da1c 69bc
00000040: f119 86bb 072f e9ba 9ad2 13bb 8f10 97bb
00000050: 4d7c 61bc ee1d 1dbc 8368 e33a d74e 56bb
00000060: c3e2 e73a ab9d 313b 9948 1bbb 2342 803b
00000070: 4e89 45bc bc92 a9bb 8135 8e3a 0a5d a3bb
00000080: 7ba8 093b f253 993b 124c 7bbb eba0 65bb
00000090: c354 0e3b 5789 023b a82e 75ba a703 4fb9
000000a0: 17c5 84bb 85a7 a9bb 8031 4f3b 5576 4b3b
000000b0: 72ca 14bb 66fc 19bc 5c21 423b e746 8fb9
000000c0: 035b 07bc 531a 8ebb 84b4 92bb 5015 0f3c
000000d0: d348 bfbb 8b8f 62bb bdf1 643b 8a90 91ba
000000e0: 757b 053b 9268 85bb a701 023c 305f 80bb
000000f0: ed74 673b bb8d dcbb 09f5 3ebc 80f4 0a3c
00000100: e202 07bb 8a84 57ba 9fa8 91ba 7483 c7bb
00000110: 5351 c13b 85b2 56bb 966c a036 8b68 22bb
00000120: 3bc0 b039 3ffe e73b 743c 9a3b 9730 f93b
00000130: 1422 113c 3323 13bc 03ec 06bc 9a84 8dba
00000140: 6714 0bbc 4a32 523b 2344 053b 6b41 a53b
00000150: 2bee bf3b e1f5 b3bb 642f 853b 0d03 773a
00000160: e7d6 9fbb 1f46 75bb dbad 85b8 5fa0 c93b
00000170: a761 a3ba f34e 8db9 9f79 1b3c 2de4 1b3b
00000180: da56 89bb bce7 01bb c9df ba39 c8c0 21ba
00000190: 3b42 703b bbda b13b 6ed8 133b bbc2 b539
000001a0: 119c 0ebb d55e 74bb 1a7b 3cbb 5d77 cc3a
000001b0: a545 ef3b 3334 193b 6b1e 093b 271f 41b8
000001c0: 358a 85bb f256 3d3c bcb6 113c 53e9 2fbc
000001d0: 129a 55bc 4512 063c a3dd a53b 5688 293a
000001e0: 135d 123c 1e9a 14bb e183 c83b 286f c03b
000001f0: 3384 35bc 38e6 ce3b 9d40 443b f591 85bb
00000200: 373f c33b 7617 183c 5fea 893b 793b 9b3b
00000210: d07e 6abb 2c54 09bc c3e7 dabb 4341 17bb
00000220: 43c0 c3ba a3ea 86bb 11d4 903b df7c c4ba
00000230: 6f8c 22bc 886e a4bb 15d5 dd3b 151a b23b
00000240: 3aa4 a5ba a0cb deba 3fa4 a0b8 a509 eabb
00000250: 763d 3e3b 6a30 183c 0a3f f5ba 4c7a 02bb
00000260: db7e 68bb a55d d93a b55b a2ba 71a7 0a3c
00000270: b925 1bbb 5040 c03a 3a12 ffbb 62d7 54bc
00000280: 07be c33b 6bec ccbb 95df 843b 4da4 523a
00000290: acb0 393b 0a96 5f3c 0e03 96bb 8b71 ea3b
000002a0: b717 4dbb 2535 6dbc 0aa3 ed3b 6fe8 9ab9
000002b0: de42 833b a3a3 1a3b 6e7f 1e3c 50cf eb3a
000002c0: 83c2 cdba 3940 aabb 8527 683b a253 89bb
000002d0: e37a cebb 1b69 48bc 1b8b 27bc f75a 8d3c
000002e0: 8ab7 e0ba 262d 993b 086a cfbb af6e 07bb
000002f0: 987d f83a 0ba0 f83b 4d59 adbb 1759 c0bb
00000300: b891 8abb d586 f2ba 2c13 b23a 6efa b53a
00000310: 7bdf 54bc 3829 ddbb b5ac f7bb ea84 20bc
00000320: 5fd4 68bb a13c 2d3b e918 813b 738d e03b
00000330: d73e c63b 8853 43bb 931d 35bc 5b7e 173b
00000340: 370e b93b bb2b ae3b de51 2abc d00d 713b
00000350: 67d9 533b a2bb 093c 548e 813a 05f0 c03b
00000360: da9b a7ba 3422 bc3a 7b14 ef3b f77e 8eba
00000370: ffd2 f93b 0f27 623c 933f 2a3b dcc3 8d3a
00000380: 1255 d33b 1c96 b6bb 87c3 84bb f883 2ebb
00000390: 5096 7d3a 445a 09bc 42b9 e8b9 faa1 293c
000003a0: a222 283b aa21 e13b a51a d4ba eaf2 a93a
000003b0: 7d9a f33a ab0d 2abc b354 753b ff96 4b3c
000003c0: d0ed bbbb 404a d23a 3e0b 87bb 5f1f f63b
000003d0: 7b05 16bc 6363 5b3b bad5 f4bb 4828 b8bb
000003e0: a818 6dba 7fea b73a 8d3c fa3b be33 1fbb
000003f0: e2a1 74bb 4e1e 33bb f802 ac3b 972e 84bb

onnx::Div_80 f4 [36]
0.47150028 0.004598345 0.47149327 0.20625347 0.49974167 0.004598345 0.4997304 0.122677624
0.4714912 0.004598345 0.47148255 0.23420553 0.48295614 0.004598345 0.48294955 0.29668185
0.4714912 0.004598345 0.47148255 0.28918192 0.45655093 0.004598345 0.45654047 0.34901017
0.4714912 0.004598345 0.47148255 0.3224892 0.4714912 0.004598345 0.47148255 0.36624718
0.4714912 0.004598345 0.47148255 0.33871055
00000000: 7c68 f13e b7ad 963b 9167 f13e 1c34 533e
00000010: 24de ff3e b7ad 963b aadc ff3e 683e fb3d
00000020: 4b67 f13e b7ad 963b 2966 f13e 93d3 6f3e
00000030: 0746 f73e b7ad 963b 2a45 f73e afe6 973e
00000040: 4b67 f13e b7ad 963b 2966 f13e a70f 943e
00000050: 0bc1 e93e b7ad 963b acbf e93e 76b1 b23e
00000060: 4b67 f13e b7ad 963b 2966 f13e 4e1d a53e
00000070: 4b67 f13e b7ad 963b 2966 f13e c084 bb3e
00000080: 4b67 f13e b7ad 963b 2966 f13e 786b ad3e

onnx::Div_83 f4 [7]
0.27610788 0.17491944 0.11229299 0.14073706 0.0046019144 0.004598397 0.0050211446
00000000: 035e 8d3e 151e 333e def9 e53d 601d 103e
00000010: a8cb 963b 26ae 963b 6a88 a43b
