results/testRun/Car/Car-4410.onnx (onnx, 320597 bytes, 11 tensors)

network_body.observation_encoder.processors.0.normalizer.running_mean f4 [36]
000000 c3 a0 aa 3e 00 00 00 00 c9 a0 2a 3f d2 84 63 3f
       0.33325776 0.0 0.6665159 0.8887454
000010 b5 a0 2a 3f 00 00 00 00 cc a0 aa 3e e0 e1 39 3f
       0.6665147 0.0 0.33325803 0.7261028
000020 cf 00 29 3f 00 00 00 00 bd e0 ad 3e e3 1e 6a 3f
       0.6601686 0.0 0.33960524 0.9145338
000030 b5 a0 2a 3f 00 00 00 00 cc a0 aa 3e aa 2b 14 3f
       0.6665147 0.0 0.33325803 0.57879126
000040 ce a0 aa 3e 00 00 00 00 c0 a0 2a 3f c3 1a 4e 3f
       0.3332581 0.0 0.66651535 0.80509585
000050 b5 a0 2a 3f 00 00 00 00 cc a0 aa 3e 5f 46 06 3f
       0.6665147 0.0 0.33325803 0.5245113
000060 b5 a0 2a 3f 00 00 00 00 cc a0 aa 3e d9 f6 08 3f
       0.6665147 0.0 0.33325803 0.5350166
000070 b5 a0 2a 3f 00 00 00 00 cc a0 aa 3e ae 0c 00 3f
       0.6665147 0.0 0.33325803 0.5001935
000080 b5 a0 2a 3f 00 00 00 00 cc a0 aa 3e e3 f5 fd 3e
       0.6665147 0.0 0.33325803 0.4960166

network_body.observation_encoder.processors.1.normalizer.running_mean f4 [7]
000000 c8 f2 79 3e 09 38 91 3e ac a0 5e 3f 8f b7 5d 3e
       0.2440902 0.28363064 0.86963916 0.21652053
000010 69 78 6b 36 84 1f 4e 36 04 16 64 3a
       3.5087817e-06 3.0714737e-06 0.00087007903

network_body._body_endoder.seq_layers.0.weight f4 [256, 43]
000000 66 43 58 3c 78 2e b0 bc 42 55 6b 3a 20 f2 90 3c
       0.013199663 -0.021506533 0.0008977243 0.01769358
000010 80 d8 3e be b8 ea 24 be bb db 07 be 68 69 40 bd
       -0.18637276 -0.16105163 -0.13267414 -0.046975523
000020 72 03 8b 3d 44 20 88 be a1 d9 01 3e 60 4b 17 be
       0.067877665 -0.26587117 0.12680675 -0.14774847
000030 06 d5 30 3e d5 fa 87 bd fa b4 a8 bd 5d 45 ac bd
       0.17268762 -0.06639639 -0.082376435 -0.084116675
000040 d8 75 90 3e 73 b5 76 be 85 7b 95 3e 14 01 09 bd
       0.28214908 -0.24092655 0.291958 -0.033448294
000050 6a fa 82 be 60 18 ed bd 5e 5b 08 3e 45 7e 88 be
       -0.25581676 -0.11576915 0.13316104 -0.26658836
000060 9b ca aa 3e 3f c0 8d 3e 0b 63 17 3e ef cc cc bc
       0.333577 0.27685735 0.14783876 -0.025000064
000070 89 d6 fd 3d 1c de af 3e 71 c8 fa bc db eb 50 bd
       0.12394435 0.34349144 -0.030613156 -0.05100618
000080 12 18 7e bc cf bd 1d bd 7d 6a 0c 3e 05 67 92 3b
       -0.0155086685 -0.038511094 0.13712497 0.0044678473
000090 8b cf 5f 3d 87 6f 85 3e 7f 34 58 ba 34 6a 31 bd
       0.054641288 0.2606165 -0.00082475686 -0.043314174
0000a0 9f 38 d5 bc 61 07 8c bc bc 7a c9 3c 6c 34 04 3c
       -0.026027976 -0.017093362 0.024594657 0.008069139
0000b0 f2 64 7e 3e 15 b7 21 3e 41 ac 6f bd 8a e8 05 3d
       0.24843195 0.15792497 -0.058513884 0.03269247
0000c0 79 24 14 3e 1f f3 4a be 28 fd 80 3d ec 36 3f be
       0.14467038 -0.19819306 0.06298286 -0.18673295
0000d0 6b 35 93 3d 98 86 f3 3d 80 2e 72 3d f6 36 f0 3d
       0.07187923 0.11890906 0.059126377 0.11729233
0000e0 7a 92 c6 3d 1a 7f fb 3d 52 12 5e 3d c6 50 8a be
       0.09695907 0.12280102 0.05421669 -0.2701475
0000f0 d7 53 7f 3d 2c 2d 34 3e fe b8 93 be da 00 9c 3d
       0.062335815 0.17595357 -0.28852075 0.0761735
000100 98 87 67 be ca 0f 6f 3d d1 e2 35 3d 83 a4 f1 bd
       -0.22610319 0.058364667 0.044405762 -0.11798956
000110 9b be 72 3e ee b3 c4 bc 90 b6 94 bd 0f 22 d2 3d
       0.23705523 -0.024011578 -0.072613835 0.102604024
000120 c7 87 1f 3e b0 d7 8a be 78 76 d6 bd 70 1c c0 be
       0.15579139 -0.27117682 -0.10471815 -0.37521696
000130 6e 30 18 3e d8 26 c4 bd d3 a1 18 be 34 38 5a bd
       0.14862224 -0.09577721 -0.14905481 -0.053276256
000140 16 eb 32 be bd 75 5f 3e 49 ee 0d 3e 23 67 b9 bd
       -0.1747249 0.21822257 0.1386043 -0.09052875
000150 30 a4 06 3e 0e ed 6d be 24 83 9a 3d f2 e9 53 3d
       0.1314857 -0.2323496 0.07544544 0.05173678
000160 02 02 ec bc 44 56 2a 3e 15 00 61 bd d8 50 e2 3d
       -0.028809551 0.1663447 -0.05493172 0.11050576
000170 9f 94 e0 bd 8c 6a d4 bd bc 86 78 3d f6 18 27 3d
       -0.10965847 -0.10371885 0.060675368 0.04079529
000180 c1 a3 64 be 18 a4 14 be b8 36 1d 3d 2c 10 9b 3d
       -0.22328092 -0.14515722 0.038382262 0.07571444
000190 90 e7 25 bc c0 fa cc be fd bc 1f be da 9c f7 3d
       -0.01012601 -0.40035057 -0.15599437 0.12090464
0001a0 cf 0f 13 bd 91 09 15 bd 9b cc 11 be 07 8f d0 bd
       -0.035903748 -0.036386076 -0.14238207 -0.1018353
0001b0 66 b3 aa 3c b9 45 e1 be f0 0e 3f 3d 90 c5 18 3e
       0.020837497 -0.43998507 0.046645105 0.14919114
0001c0 07 91 6d ba 60 f1 9c be 4e f9 15 bc 2f 3c 60 3e
       -0.0009062443 -0.30652905 -0.009153677 0.21897958
0001d0 b6 ed 64 bd 7d e8 ee bd 34 10 0b be 90 d4 ba 3d
       -0.05589076 -0.11665437 -0.135804 0.09122574
0001e0 74 a6 49 3e d1 0a 16 3e 53 6a 84 3d 5a d1 0a be
       0.19692403 0.14652564 0.06465592 -0.13556424
0001f0 ed af e0 3c 94 19 e9 bd f9 69 84 3d cf 60 e5 bd
       0.027427638 -0.11381832 0.06465525 -0.112001054
000200 41 1b 91 3c c8 89 06 be 58 cf 46 bc f9 65 10 bd
       0.017713191 -0.13138497 -0.012134396 -0.0352535
000210 97 23 3c 3c 85 d4 74 bd 30 30 67 3c a4 d2 25 bc
       0.011483095 -0.059772987 0.01411061 -0.010121021
000220 62 5f 6f be 4e c8 3e 3c c8 eb f9 3d 6c d5 77 be
       -0.2337623 0.011644436 0.12203175 -0.24202508
000230 1e 08 1d 3e 47 07 f3 3c cc d1 8c 3a ee 8a a8 3d
       0.15335128 0.029666556 0.0010743677 0.08229624
000240 c6 c9 a1 3d b6 0d 9f be a5 1a 91 3b de 80 63 3e
       0.07899813 -0.31065148 0.004428225 0.22217128
000250 f6 b7 95 3d f9 b5 57 be c5 57 16 3e 0c 05 81 bd
       0.073104784 -0.21065511 0.14681919 -0.06299791
000260 43 a5 00 be 35 0b 1c 3e 72 04 08 3d 1f 0c 63 be
       -0.12563042 0.1523865 0.033207364 -0.22172593
000270 98 c5 cb 3b 6e 02 5c 3e db fb f1 3d 0e 81 07 be
       0.0062186234 0.21485302 0.11815616 -0.13232824
000280 6b 16 72 3d 7f 7d 1b 3d 1f ef 64 3e 14 8a d3 3e
       0.05910341 0.03796148 0.22356842 0.41316283
000290 d1 d6 7b 3d 30 37 98 3d c6 49 a6 3e cd 85 99 bd
       0.06148416 0.07432401 0.3247816 -0.074962236
0002a0 1f 85 da bc 48 1b 59 3e b3 6c cd bb 87 92 65 be
       -0.026674805 0.21201813 -0.0062690615 -0.22419177
0002b0 a2 92 84 3d 55 4f 23 bd 23 6c 58 3e 5e 90 5b be
       0.064732805 -0.03987058 0.21135001 -0.2144179
0002c0 67 83 ff 3d de 2b 16 bc 06 22 90 bd b5 3d 56 bd
       0.12476235 -0.009165732 -0.070377395 -0.052304942
0002d0 ce cc 50 bc cf e6 0f be 0b f2 35 be f7 f6 05 3e
       -0.012744142 -0.1405289 -0.17768113 0.13082491
0002e0 0d cc 9d be f8 c5 81 bd 49 5e 85 bd 53 7a 61 be
       -0.3081974 -0.06336588 -0.06512124 -0.22019319
0002f0 d4 a8 06 be d1 8a 62 3e d1 79 97 3c 64 b2 96 3d
       -0.1315034 0.22123267 0.018490704 0.07358244
000300 90 4b df bd 3a b9 06 bd 7c 2f 60 be 17 ea a6 3d
       -0.10903084 -0.03289149 -0.21893114 0.08150118
000310 30 18 33 3e 11 70 03 be 3b 70 9c 3d e3 fb 8b be
       0.17489696 -0.12835719 0.07638594 -0.27340612
000320 09 28 37 3e d4 41 53 bd 48 b9 e9 3c 1c b3 83 3e
       0.17886366 -0.05157645 0.028530732 0.25722587
000330 17 81 ef bd 3f 92 8e be 09 13 80 3e 02 b1 53 3d
       -0.11694544 -0.27845952 0.25014523 0.05168248
000340 eb 8d eb 3d 0c 20 ad bb 31 b4 17 bd dd 2d 7e 3e
       0.11501678 -0.0052833613 -0.03703708 0.24822183
000350 c2 ea 5e bd ac 18 ae 3d 8a a3 e4 3d c1 ea 8e be
       -0.0544231 0.085007995 0.11164005 -0.27913478
000360 18 80 af 3e f4 8c 10 be 3c db 11 be c8 85 a6 be
       0.34277415 -0.1411627 -0.14243788 -0.32523942
000370 be fb 4e bd 92 5c 90 3c 79 78 e0 bd 76 23 9d 3e
       -0.05053305 0.017622266 -0.10960478 0.30691117
000380 d9 8c f2 bd 3a 2f 8c 3e d9 d6 0b be 7c 05 6f be
       -0.11843271 0.2737978 -0.13656177 -0.23341936
000390 41 1b cf 3d 6d 86 d5 3d 8e d2 51 3c d0 19 a6 3e
       0.1011262 0.1042603 0.012806548 0.32441568
0003a0 76 61 20 ba 36 6c 43 bc a1 db 20 be 08 8f 70 3e
       -0.00061180384 -0.011927655 -0.15708782 0.23492062
0003b0 66 40 c7 3d c6 86 75 bd ee e6 46 be 4f fa 25 bd
       0.0972908 -0.059942983 -0.1942403 -0.040521916
0003c0 75 2f 02 3e 8f 8b 30 3b 54 82 85 be 64 47 51 3d
       0.12713416 0.0026938652 -0.26075995 0.051093474
0003d0 ed f3 9b 3c 24 c7 7b bc f4 36 bc bd 10 ea e1 bd
       0.019037211 -0.015367303 -0.09190169 -0.11030972
0003e0 50 4f 2b 3e 99 b8 d6 bd f4 01 54 bd 79 cd 3b be
       0.16729474 -0.10484428 -0.051759675 -0.183401
0003f0 0a 23 1a 3e cd c5 44 be b7 be 10 be 14 65 00 3e
       0.15052429 -0.1921608 -0.14135252 0.12538558

network_body._body_endoder.seq_layers.0.bias f4 [256]
000000 00 00 00 00 00 00 00 00 00 00 00 00 00 00 00 00
       0.0 0.0 0.0 0.0
000010 00 00 00 00 00 00 00 00 00 00 00 00 00 00 00 00
       0.0 0.0 0.0 0.0
000020 00 00 00 00 00 00 00 00 00 00 00 00 00 00 00 00
       0.0 0.0 0.0 0.0
000030 00 00 00 00 00 00 00 00 00 00 00 00 00 00 00 00
       0.0 0.0 0.0 0.0
000040 00 00 00 00 00 00 00 00 00 00 00 00 00 00 00 00
       0.0 0.0 0.0 0.0
000050 00 00 00 00 00 00 00 00 00 00 00 00 00 00 00 00
       0.0 0.0 0.0 0.0
000060 00 00 00 00 00 00 00 00 00 00 00 00 00 00 00 00
       0.0 0.0 0.0 0.0
000070 00 00 00 00 00 00 00 00 00 00 00 00 00 00 00 00
       0.0 0.0 0.0 0.0
000080 00 00 00 00 00 00 00 00 00 00 00 00 00 00 00 00
       0.0 0.0 0.0 0.0
000090 00 00 00 00 00 00 00 00 00 00 00 00 00 00 00 00
       0.0 0.0 0.0 0.0
0000a0 00 00 00 00 00 00 00 00 00 00 00 00 00 00 00 00
       0.0 0.0 0.0 0.0
0000b0 00 00 00 00 00 00 00 00 00 00 00 00 00 00 00 00
       0.0 0.0 0.0 0.0
0000c0 00 00 00 00 00 00 00 00 00 00 00 00 00 00 00 00
       0.0 0.0 0.0 0.0
0000d0 00 00 00 00 00 00 00 00 00 00 00 00 00 00 00 00
       0.0 0.0 0.0 0.0
0000e0 00 00 00 00 00 00 00 00 00 00 00 00 00 00 00 00
       0.0 0.0 0.0 0.0
0000f0 00 00 00 00 00 00 00 00 00 00 00 00 00 00 00 00
       0.0 0.0 0.0 0.0
000100 00 00 00 00 00 00 00 00 00 00 00 00 00 00 00 00
       0.0 0.0 0.0 0.0
000110 00 00 00 00 00 00 00 00 00 00 00 00 00 00 00 00
       0.0 0.0 0.0 0.0
000120 00 00 00 00 00 00 00 00 00 00 00 00 00 00 00 00
       0.0 0.0 0.0 0.0
000130 00 00 00 00 00 00 00 00 00 00 00 00 00 00 00 00
       0.0 0.0 0.0 0.0
000140 00 00 00 00 00 00 00 00 00 00 00 00 00 00 00 00
       0.0 0.0 0.0 0.0
000150 00 00 00 00 00 00 00 00 00 00 00 00 00 00 00 00
       0.0 0.0 0.0 0.0
000160 00 00 00 00 00 00 00 00 00 00 00 00 00 00 00 00
       0.0 0.0 0.0 0.0
000170 00 00 00 00 00 00 00 00 00 00 00 00 00 00 00 00
       0.0 0.0 0.0 0.0
000180 00 00 00 00 00 00 00 00 00 00 00 00 00 00 00 00
       0.0 0.0 0.0 0.0
000190 00 00 00 00 00 00 00 00 00 00 00 00 00 00 00 00
       0.0 0.0 0.0 0.0
0001a0 00 00 00 00 00 00 00 00 00 00 00 00 00 00 00 00
       0.0 0.0 0.0 0.0
0001b0 00 00 00 00 00 00 00 00 00 00 00 00 00 00 00 00
       0.0 0.0 0.0 0.0
0001c0 00 00 00 00 00 00 00 00 00 00 00 00 00 00 00 00
       0.0 0.0 0.0 0.0
0001d0 00 00 00 00 00 00 00 00 00 00 00 00 00 00 00 00
       0.0 0.0 0.0 0.0
0001e0 00 00 00 00 00 00 00 00 00 00 00 00 00 00 00 00
       0.0 0.0 0.0 0.0
0001f0 00 00 00 00 00 00 00 00 00 00 00 00 00 00 00 00
       0.0 0.0 0.0 0.0
000200 00 00 00 00 00 00 00 00 00 00 00 00 00 00 00 00
       0.0 0.0 0.0 0.0
000210 00 00 00 00 00 00 00 00 00 00 00 00 00 00 00 00
       0.0 0.0 0.0 0.0
000220 00 00 00 00 00 00 00 00 00 00 00 00 00 00 00 00
       0.0 0.0 0.0 0.0
000230 00 00 00 00 00 00 00 00 00 00 00 00 00 00 00 00
       0.0 0.0 0.0 0.0
000240 00 00 00 00 00 00 00 00 00 00 00 00 00 00 00 00
       0.0 0.0 0.0 0.0
000250 00 00 00 00 00 00 00 00 00 00 00 00 00 00 00 00
       0.0 0.0 0.0 0.0
000260 00 00 00 00 00 00 00 00 00 00 00 00 00 00 00 00
       0.0 0.0 0.0 0.0
000270 00 00 00 00 00 00 00 00 00 00 00 00 00 00 00 00
       0.0 0.0 0.0 0.0
000280 00 00 00 00 00 00 00 00 00 00 00 00 00 00 00 00
       0.0 0.0 0.0 0.0
000290 00 00 00 00 00 00 00 00 00 00 00 00 00 00 00 00
       0.0 0.0 0.0 0.0
0002a0 00 00 00 00 00 00 00 00 00 00 00 00 00 00 00 00
       0.0 0.0 0.0 0.0
0002b0 00 00 00 00 00 00 00 00 00 00 00 00 00 00 00 00
       0.0 0.0 0.0 0.0
0002c0 00 00 00 00 00 00 00 00 00 00 00 00 00 00 00 00
       0.0 0.0 0.0 0.0
0002d0 00 00 00 00 00 00 00 00 00 00 00 00 00 00 00 00
       0.0 0.0 0.0 0.0
0002e0 00 00 00 00 00 00 00 00 00 00 00 00 00 00 00 00
       0.0 0.0 0.0 0.0
0002f0 00 00 00 00 00 00 00 00 00 00 00 00 00 00 00 00
       0.0 0.0 0.0 0.0
000300 00 00 00 00 00 00 00 00 00 00 00 00 00 00 00 00
       0.0 0.0 0.0 0.0
000310 00 00 00 00 00 00 00 00 00 00 00 00 00 00 00 00
       0.0 0.0 0.0 0.0
000320 00 00 00 00 00 00 00 00 00 00 00 00 00 00 00 00
       0.0 0.0 0.0 0.0
000330 00 00 00 00 00 00 00 00 00 00 00 00 00 00 00 00
       0.0 0.0 0.0 0.0
000340 00 00 00 00 00 00 00 00 00 00 00 00 00 00 00 00
       0.0 0.0 0.0 0.0
000350 00 00 00 00 00 00 00 00 00 00 00 00 00 00 00 00
       0.0 0.0 0.0 0.0
000360 00 00 00 00 00 00 00 00 00 00 00 00 00 00 00 00
       0.0 0.0 0.0 0.0
000370 00 00 00 00 00 00 00 00 00 00 00 00 00 00 00 00
       0.0 0.0 0.0 0.0
000380 00 00 00 00 00 00 00 00 00 00 00 00 00 00 00 00
       0.0 0.0 0.0 0.0
000390 00 00 00 00 00 00 00 00 00 00 00 00 00 00 00 00
       0.0 0.0 0.0 0.0
0003a0 00 00 00 00 00 00 00 00 00 00 00 00 00 00 00 00
       0.0 0.0 0.0 0.0
0003b0 00 00 00 00 00 00 00 00 00 00 00 00 00 00 00 00
       0.0 0.0 0.0 0.0
0003c0 00 00 00 00 00 00 00 00 00 00 00 00 00 00 00 00
       0.0 0.0 0.0 0.0
0003d0 00 00 00 00 00 00 00 00 00 00 00 00 00 00 00 00
       0.0 0.0 0.0 0.0
0003e0 00 00 00 00 00 00 00 00 00 00 00 00 00 00 00 00
       0.0 0.0 0.0 0.0
0003f0 00 00 00 00 00 00 00 00 00 00 00 00 00 00 00 00
       0.0 0.0 0.0 0.0

network_body._body_endoder.seq_layers.2.weight f4 [256, 256]
000000 e2 49 a4 bd 61 06 1d bd 7b 8c 45 3d 4a d1 cb 3b
       -0.080219045 -0.03833616 0.048229676 0.0062200176
000010 d3 65 a5 3d f8 8c 7a bd c8 8b c3 3c 3d cf 14 bd
       0.08076062 -0.061169595 0.023870364 -0.03633045
000020 d3 f8 9d 3b a0 e3 1e be 94 6a a3 3c 38 8b 31 bd
       0.004820922 -0.1551652 0.019948281 -0.04334566
000030 cd 64 0f 3a 2f 34 aa 3d e8 c9 00 3e bf 8a 6c bd
       0.00054700376 0.083107345 0.12577021 -0.057749506
000040 dc d2 a9 bc 3f 42 de 3c 2e c0 c1 bc e6 06 04 3d
       -0.020730428 0.027131198 -0.023651209 0.03223314
000050 87 d9 45 bd 1c 28 c1 3c 3e 2a 41 bc fd 53 c6 bc
       -0.048303153 0.023578696 -0.0117898565 -0.02420997
000060 59 40 ed bd b9 88 4f bd 6b 90 07 bd a6 e3 b0 3c
       -0.11584539 -0.0506675 -0.033096712 0.021592926
000070 97 5a 8e 3c cb 59 0f be ba c8 20 bd f7 18 c9 3d
       0.017377181 -0.13999097 -0.039253928 0.09819215
000080 26 e3 27 3e 5c 66 a7 bc 3d ce d4 3c a6 03 f3 3c
       0.16395244 -0.020434551 0.025977248 0.029664826
000090 b3 d5 27 3c 3d ae 70 3d 88 f9 d1 bc 27 fd 5a 3d
       0.010243821 0.058759917 -0.025631681 0.05346408
0000a0 44 2e af bb b5 79 1b be 87 77 0f be 69 45 93 3c
       -0.0053460915 -0.15183146 -0.1401044 0.017977433
0000b0 1d 12 22 be 38 b8 09 3d 84 c2 28 3d ab 48 55 bd
       -0.15827222 0.03362295 0.04120113 -0.052071255
0000c0 db c1 6f 3c 3f 1b 4f 3e 43 18 46 3b ee 18 0c bd
       0.014633621 0.20225237 0.0030226863 -0.034203462
0000d0 05 03 0a bd f4 5d 98 bd ed 3e 84 3d da 30 f4 bc
       -0.033694286 -0.07439795 0.06457315 -0.02980845
0000e0 d7 01 8a 3d 7f ba c1 bd bf 16 0d bd 88 2e 29 bd
       0.06738632 -0.094593994 -0.03444552 -0.04130414
0000f0 9a c7 b6 bd 28 93 5f bc 9b db fd bc d8 fb ca 3c
       -0.0892479 -0.013645925 -0.030988505 0.024778292
000100 71 2d e4 3c 27 55 06 3d e8 0e 49 bd 69 ea 37 bd
       0.0278537 0.03279605 -0.04908648 -0.044901285
000110 b8 29 95 bd 0f ac 9d 3d 11 32 0c 3b 87 84 0f bd
       -0.07283348 0.07698833 0.0021392147 -0.035038497
000120 0f 94 b4 ba 37 e6 06 bd af 82 a9 3c 6b e5 89 bc
       -0.0013777035 -0.032934394 0.020692198 -0.016833028
000130 b7 3b 2d 3d d8 6f 24 3d e3 71 aa 3c 72 ce 35 bc
       0.042293277 0.040145725 0.020806259 -0.011096584
000140 c6 9d 31 bb 0a d8 e3 bd e4 90 68 bd 9f ec 53 bd
       -0.0027102097 -0.111251906 -0.056778803 -0.05173933
000150 76 3d e0 3c 1f e2 1b 3d 35 6b 50 3c c9 4e 9e bd
       0.027373057 0.038057443 0.012720873 -0.07729871
000160 00 5c 15 bd 8b af a7 bc d8 99 18 bc df 91 1c 3e
       -0.03646469 -0.020469448 -0.009314023 0.1529002
000170 b5 71 7b 3c 29 e3 0f bc 8d 16 47 bd 40 94 41 3c
       0.015346934 -0.008782187 -0.04860549 0.011815131
000180 ec 52 ce bc 82 a0 54 3d 89 27 00 3e 28 7c c2 3a
       -0.025186025 0.051910885 0.12515081 0.0014838027
000190 55 d3 29 bc c4 c3 36 3d ed d2 5e bd 56 a5 4d bd
       -0.010365327 0.04462029 -0.054400373 -0.050206505
0001a0 68 15 03 bd 41 ce 72 3d a7 8f e3 3d 60 a0 d5 bc
       -0.032002836 0.05927873 0.11111384 -0.02607745
0001b0 97 54 9d bc 2a 39 d8 bc 0a b7 bf 3d 30 16 00 bc
       -0.019205375 -0.026394445 0.09361084 -0.00781779
0001c0 8b 6e 3a 3d 22 71 50 bb 84 e3 03 bc dc d9 42 3c
       0.04551558 -0.0031805714 -0.008049849 0.011892762
0001d0 9a 2a cf bb ba 33 01 be a0 f5 34 bd f0 6d 8a bd
       -0.006322217 -0.12617388 -0.04417956 -0.0675925
0001e0 cc 5c 28 3d 17 8b 7a 3d 42 37 39 bd 48 31 52 3b
       0.041104123 0.061167803 -0.045218714 0.003207283
0001f0 ae c9 82 3d 4d c2 b3 3c e4 5c 9b 3c ed e0 a1 bd
       0.063861236 0.021943236 0.018965192 -0.07904229
000200 dd e8 88 3d ce 81 cc bd e1 dd b6 3d 24 93 eb 3c
       0.0668504 -0.09985696 0.08929039 0.028756686
000210 48 dd fe 3c f0 1b cc bb 43 0d 14 3d 87 e4 bb 3a
       0.031111374 -0.0062289163 0.03614546 0.0014335074
000220 a9 f6 8c bc ad b1 b8 3d bf d3 23 bd 53 3b 07 be
       -0.01720746 0.09018264 -0.03999686 -0.13206224
000230 94 09 03 3d 70 a0 89 3c 78 2b c4 3c f5 39 3b 3d
       0.031991556 0.016800135 0.023946509 0.04570957
000240 90 80 0a bb 84 ca a4 3d 5c 58 90 bc d2 d5 b8 3d
       -0.0021133758 0.08046439 -0.017620258 0.09025158
000250 0c 08 66 3d ee 5c 80 3d 22 72 d5 bb 3d 96 ca bc
       0.056160018 0.06267725 -0.00651385 -0.024729842
000260 c0 76 8e 3d fb aa de ba a5 ef 3b 3c ae 01 ec bd
       0.069562435 -0.0016988212 0.01147071 -0.11523758
000270 e3 5a 06 3c 4a 08 f9 3d 9c c8 9a 3c 5b 16 9d bd
       0.00820038 0.12159784 0.018894486 -0.076702796
000280 a8 5b ad bd cb 62 57 bd 84 76 5f bc d8 18 dc bc
       -0.08464748 -0.05258445 -0.013639096 -0.026867315
000290 9f 7b e3 3d b2 01 f0 bd 49 b9 4c 3d 73 45 05 3e
       0.11107563 -0.11719073 0.04998139 0.13014774
0002a0 d1 cf 8f bd d0 d0 1a 3c 1f 77 c8 bc a0 08 ae 3d
       -0.0702206 0.009449199 -0.024470864 0.08497739
0002b0 ed 82 9a bd 58 b4 1a be c1 dc 6d 3d a4 a6 27 ba
       -0.07544503 -0.15107858 0.058071855 -0.0006395376
0002c0 27 55 2c 3d 08 f3 c1 3d 0c 76 9c 3c 2d 5e 0d be
       0.042073395 0.09470183 0.019099258 -0.13805456
0002d0 7e c1 38 bd fb be 94 bd e4 2a f3 3d b0 ee 45 bd
       -0.045106404 -0.07262989 0.11873415 -0.048323333
0002e0 05 39 9e bd 5c 09 e6 bc a7 11 17 3c 8c d4 08 3d
       -0.07725719 -0.028080635 0.009220517 0.033405825
0002f0 9f 32 49 3c 0a f0 b1 bc 2d 17 c0 3d 95 86 42 3d
       0.012280135 -0.021720905 0.093794204 0.04749163
000300 4a 6c 92 3d db bb 35 3d b0 b0 ae bc 88 bc 1f 3d
       0.07149561 0.044368606 -0.021324486 0.038998157
000310 4c 51 a4 bd 69 d9 1a bd 34 94 c6 bc 6a c0 d0 3c
       -0.08023319 -0.037804995 -0.02424059 0.025482375
000320 a9 5c 9b bd f3 c7 b8 3d 53 f5 42 bc 2b 1c e0 bb
       -0.07586033 0.09022512 -0.01189931 -0.0068392954
000330 08 99 22 3d 84 5e e1 bd 55 12 02 3d 5d 4d 3f bc
       0.039696723 -0.110043555 0.031755764 -0.01167616
000340 c4 9a 77 3c f7 e4 5b bc 39 a4 e7 bd ce e5 9c bd
       0.015112583 -0.013421289 -0.1131062 -0.07661019
000350 85 4b 36 3d ff 54 b6 bc a5 ba 86 3d 6e 0c 95 bd
       0.044505615 -0.022257326 0.06578568 -0.072777614
000360 e2 8c e1 bb dd 2b 11 3e 9e d9 7b bd 76 69 d6 bc
       -0.0068832496 0.14176889 -0.061486833 -0.026173335
000370 9b f8 7c bd 82 d0 a0 bd a7 06 b3 39 13 b3 18 bb
       -0.061760526 -0.0785227 0.00034146497 -0.0023300096
000380 63 c7 5d 3c ff cc 4d 3b 4d bc ce 3d 60 68 7c ba
       0.013536307 0.0031402705 0.10094509 -0.000962859
000390 12 52 1c bd c7 9c 86 bd 91 b2 a2 bc 15 05 89 3d
       -0.038164206 -0.06572872 -0.019860538 0.066904224
0003a0 64 87 5b 3d 94 e6 a9 bd 67 98 91 3d e2 9e 5b bd
       0.053595915 -0.082959324 0.071091466 -0.05361832
0003b0 ce f0 a6 bd 1d 5e 95 bc 1a a0 79 bd 4e a0 27 bd
       -0.081513986 -0.018233353 -0.0609437 -0.040924363
0003c0 4c e9 24 bc 20 98 ff bc 35 05 82 bd 94 8f 49 3c
       -0.010065388 -0.031200469 -0.063486494 0.012302298
0003d0 b4 f8 bf bc 02 b4 08 3c ca 3c 39 bd c1 72 3b bc
       -0.02343402 0.008343698 -0.04522399 -0.011440934
0003e0 7d 3f 7e 3d c4 20 6a bd 60 23 c3 bd 52 ab 93 3d
       0.062072266 -0.057160154 -0.095282316 0.07210411
0003f0 05 93 ad bc 66 0d dd 3c c7 73 85 bb 8b 1a 02 bc
       -0.021188268 0.026983928 -0.0040726396 -0.007940899

action_model._continuous_distribution.log_sigma f4 [1, 3]
000000 00 00 00 00 00 00 00 00 00 00 00 00
       0.0 0.0 0.0

action_model._continuous_distribution.mu.weight f4 [3, 256]
000000 7a 03 8d 3c 3f 00 7c 3c c7 75 82 3b 14 68 9e 3a
       0.017213572 0.015380918 0.0039813253 0.0012085461
000010 af 35 32 bc fb 35 3f bc 60 25 50 3b db 33 aa 3b
       -0.010877057 -0.011670585 0.0031760558 0.00519417
000020 3f 31 2f 3c e2 08 67 bc 5d fb de 3a da 12 d2 bb
       0.0106928935 -0.014101239 0.0017012168 -0.0064109387
000030 1a 51 50 bb 87 54 2d 3c ff a2 71 bb cd aa 86 bb
       -0.0031786622 0.010579235 -0.0036870835 -0.0041097165
000040 b6 ae b6 3c 2d 3c b7 3c 13 c7 e0 bb b7 6b 60 bc
       0.022300106 0.022367561 -0.006859669 -0.013697556
000050 52 83 09 3c 8c 70 c0 bc da 2e 28 bc 97 55 47 3c
       0.008393126 -0.023491167 -0.0102650765 0.012166402
000060 0f 0c 84 ba e7 60 30 3b 57 41 92 bb 73 ed 37 bb
       -0.0010074395 0.0026913227 -0.0044633555 -0.0028065115
000070 af bf 98 3a 0b c6 82 3b 8d a1 d5 3b ef 97 98 3c
       0.0011653806 0.0039908937 0.0065195025 0.018627135
000080 75 71 15 bc 9e 1d c1 bb 0b 3f f2 bb 66 09 2b bc
       -0.009121289 -0.005893423 -0.007392769 -0.0104392525
000090 7b 0d 99 3b 5f 17 71 bb 65 19 46 bc f8 e1 d2 3a
       0.0046707965 -0.0036787612 -0.012091015 0.0016089072
0000a0 39 9a 28 3b 1c e6 b5 bc cc e8 17 3c 5e d7 c8 ba
       0.002572669 -0.022204451 0.009271812 -0.0015322973
0000b0 89 ab 2c 3a 9d fe 8f bc 0b eb dc bb 75 a1 08 bc
       0.000658684 -0.017577464 -0.0067418865 -0.008339276
0000c0 47 69 1a 3c 5d 72 7d bc aa 99 e8 3b fd be 7e 39
       0.009424514 -0.015469161 0.0070983963 0.00024294476
0000d0 e2 66 78 3c f4 29 20 ba 2b c3 a6 bb 03 34 f9 bb
       0.015161248 -0.0006109767 -0.005089184 -0.0076050772
0000e0 93 7a e1 3a 48 5a d7 3b 9c 89 90 ba 25 3c 75 3c
       0.0017202668 0.0065720417 -0.0011027339 0.014967953
0000f0 6f 6d 90 ba 83 93 bf 3c bf 0c e3 bb 54 51 a9 3b
       -0.0011018942 0.023385769 -0.0069290097 0.005167166
000100 3d c4 62 bb 98 4a ec 3b f4 60 c6 3b ea c6 22 3b
       -0.003460183 0.0072110407 0.006054038 0.00248378
000110 6b ed 24 3c 6c 1d c5 bc e0 be 7a bc ba 75 fc 3b
       0.0100663705 -0.024061881 -0.015304297 0.007704464
000120 a0 27 73 bc c1 03 29 bc cd 68 ef 3a a3 c7 69 3b
       -0.01484099 -0.010315836 0.0018265486 0.0035671971
000130 a4 ab 9b bb 30 75 8c ba 1c 6b 8a 3c 2c 09 3d bc
       -0.0047506858 -0.0010716077 0.016896777 -0.011537831
000140 98 05 9e 3a 95 0b 9c 3c d1 b0 a1 bb 28 29 c0 3c
       0.001205611 0.019048491 -0.0049344082 0.023457125
000150 b8 d4 bd 3b da e9 3e 3c 17 41 22 bb d7 1a 20 3c
       0.0057931803 0.011652434 -0.0024758035 0.009772024
000160 ab 1a 84 bc 3d c0 e7 bb c7 09 cd bb 0e 93 07 3c
       -0.016125998 -0.007072477 -0.006257269 0.008274807
000170 9e 5e 1e 3b fb 41 45 3c 96 00 84 bc 82 8c 06 bc
       0.0024165283 0.012039657 -0.01611356 -0.008212211
000180 9f 3e 11 3c 6f 6d 2d bc 12 31 5d bc c7 1f 37 bc
       0.008865028 -0.010585173 -0.013500469 -0.01117701
000190 03 01 0d bc 67 e1 3c bb 63 79 81 3c f3 49 49 3c
       -0.008606198 -0.0028820874 0.015804952 0.012285697
0001a0 a5 ae d8 ba 7d ea 26 3c 54 fc a2 3b 1b 7a 7c bc
       -0.001653154 0.010187742 0.0049739275 -0.015409972
0001b0 df 90 f1 3b cf d1 b6 3a 55 67 ee ba 78 ed 3a bb
       0.0073720063 0.0013948026 -0.0018188754 -0.002852289
0001c0 83 c5 80 3c 95 af d3 bc fa 4b 55 bc ea 0f 18 3b
       0.01571918 -0.02584056 -0.0130186025 0.0023202845
0001d0 a3 a1 1b 3a 67 d2 2c 3b 2b 12 ea bb a8 27 bf bb
       0.00059368665 0.0026370527 -0.007143279 -0.005833585
0001e0 75 72 5e 3b 8b f4 43 3c 9b 3b 05 bc 62 a7 5e 3c
       0.0033942733 0.011960159 -0.008131887 0.013589712
0001f0 b2 be 1f bc e9 73 9b bc 3f 80 97 bb 38 d9 b6 3c
       -0.009750055 -0.018976169 -0.0046234424 0.022320375
000200 77 94 e4 3c 87 7b c2 3b c7 cc ae bb 6d d9 24 3c
       0.027902825 0.0059351358 -0.00533447 0.010061604
000210 49 56 c0 3b af 0c 0f ba 1b 19 8c 3c 18 c6 e0 b9
       0.005869661 -0.0005456907 0.017101815 -0.000428722
000220 b2 0d 4d 3b 72 48 a2 bb 33 2d b4 bc ed 5c 05 bb
       0.003128868 -0.004952484 -0.021994209 -0.0020349578
000230 82 d1 3b 3d 51 fe 32 bc 32 67 73 3b 03 fa cd bb
       0.0458541 -0.010924892 0.0037140367 -0.0062859072
000240 4e 30 44 3c 75 8c 80 3b 98 9c a7 3c 96 ce 15 3c
       0.011974407 0.003922994 0.020460412 0.009143492
000250 97 d1 49 bc 7c 85 14 3c 21 5f 4c 3c d3 e6 4e bc
       -0.0123180365 0.009065028 0.012473852 -0.012628275
000260 be 80 33 3c d4 da c7 bb e3 7c f0 bb 88 de 9a 3c
       0.0109559875 -0.0060990844 -0.0073391064 0.01890494
000270 2f 43 a3 3a af 28 92 bb 6f 13 35 3b e5 72 f4 bb
       0.0012455935 -0.0044604163 0.0027629992 -0.0074599856
000280 57 32 f1 3b 82 ac da 3b d3 7e cb 3b 0d 75 f1 bc
       0.0073607373 0.0066733966 0.006210187 -0.02947476
000290 21 69 93 3b 78 da b5 3c 83 a3 ed bb f1 00 c1 3c
       0.0044986163 0.0221989 -0.007252158 0.02356002
0002a0 f5 05 23 ba 5a 1a 35 bb 92 5a a3 ba 73 88 e5 3b
       -0.0006218844 -0.0027634115 -0.0012462905 0.0070047914
0002b0 e7 29 a2 3c cd e3 28 3b 33 a6 6f bc b3 16 57 bc
       0.019795371 0.0025770545 -0.014627027 -0.0131279705
0002c0 bb 45 2c bc 2a e5 98 bc 6d 44 e2 3b 4a 77 4d 3b
       -0.010514672 -0.018663961 0.0069051296 0.003135162
0002d0 a4 54 8b bc cb 4c 19 bd ee 8f be b9 f7 ff 8a 3a
       -0.017008133 -0.03742675 -0.0003634686 0.0010604848
0002e0 5d e4 a3 bc ec d4 88 3b 3b a2 94 bb ed a3 d1 39
       -0.020006353 0.004175773 -0.004535941 0.0003998572
0002f0 00 2a e2 3c 17 3d 1d bc d8 6d b7 bb 9c 52 2c bc
       0.027607918 -0.0095970845 -0.005597811 -0.0105177425
000300 4f 30 d0 3b 68 9b 46 bc 63 b2 8d 3c 3c 42 38 bb
       0.006353415 -0.012122013 0.017296975 -0.002811565
000310 1e 18 12 bb 24 d1 25 bc c6 65 8f bc e6 4f 18 3c
       -0.0022292207 -0.010120664 -0.017504584 0.009296393
000320 cf 85 8d 3c 0b 4a 8a 3b f7 a4 04 3c d8 7f a7 bc
       0.017275719 0.0042202524 0.008095971 -0.020446703
000330 22 e3 1a bc e3 40 ce 3b f7 88 c1 3b f3 91 88 bb
       -0.009453567 0.006294356 0.00590622 -0.004167789
000340 e0 05 0c bb 3d b2 df 3a 64 38 a4 3c 4e 27 a5 3c
       -0.0021365806 0.0017066669 0.02004642 0.020160343
000350 11 32 86 3b 9d dd c8 bc 10 8a 99 bc d7 cd 47 bc
       0.004095324 -0.024519736 -0.018742591 -0.012195072
000360 b5 72 cd bb c3 fd 03 3b 9b 93 8e 3c e0 58 23 3c
       -0.0062697777 0.0020140267 0.017404368 0.00996992
000370 2d 0c e8 3b 32 e7 e9 3c a0 e4 76 bb c0 97 fa ba
       0.0070815296 0.028552625 -0.0037672892 -0.0019118711
000380 d3 f7 b3 bc d9 8f 23 bc 53 a0 3d 3c 0b 6b 36 3a
       -0.021968758 -0.009983026 0.011573869 0.00069586997
000390 4c 61 44 3c bb f5 ba 3a 6f 28 8a bc 63 68 38 bc
       0.011986088 0.0014263907 -0.016864983 -0.0112553565
0003a0 92 35 ec bb 40 25 64 3c cb 0f b0 bb 38 59 6d 3c
       -0.0072085345 0.013924897 -0.0053729764 0.014486603
0003b0 35 e4 ef ba 3f 2c 86 3c 08 6a 29 bc 6f 95 72 3c
       -0.0018302264 0.01637852 -0.010340221 0.014806136
0003c0 2d f7 2e 3c e1 9c 29 bc 03 81 be 3a 09 02 8e bc
       0.0106790485 -0.010352344 0.0014534298 -0.017334955
0003d0 9b 8e 81 3c ba e6 69 bc 53 ae ea b9 dc 4c 11 bb
       0.01581507 -0.014276201 -0.0004476184 -0.0022171056
0003e0 23 8f 08 bd 8c 34 cc 3a 65 10 87 3c ca 55 10 bc
       -0.03333963 0.0015579625 0.01648731 -0.008809516
0003f0 e0 71 e2 3c 01 51 11 bd 9a 52 7c 3a 71 19 9a 3b
       0.02764219 -0.035477642 0.00096253457 0.00470274

action_model._continuous_distribution.mu.bias f4 [3]
000000 00 00 00 00 00 00 00 00 00 00 00 00
       0.0 0.0 0.0

action_model._discrete_distribution.branches.0.weight f4 [1, 256]
000000 e7 9d ee 3a 1f 74 fa bb 8f ce 10 bc 7f 19 47 ba
       0.0018205018 -0.0076432372 -0.00883831 -0.0007595047
000010 83 85 c1 bb e0 c1 56 3c 60 b5 a6 3b 57 64 c1 bb
       -0.0059058084 0.013107747 0.0050875396 -0.005901854
000020 78 d1 dd 3a 28 5c 61 bb 53 59 09 bc d8 7b ef bb
       0.0016923388 -0.0034387205 -0.008383113 -0.0073084645
000030 7d 41 ea bb 13 42 ef 3b 8b 8b d9 39 d9 b6 2d bb
       -0.00714892 0.007301578 0.00041493433 -0.002650669
000040 3c 1a cb bb dd 65 47 bc 35 86 20 3b 28 dc d0 39
       -0.0061981957 -0.012170282 0.0024494056 0.0003983688
000050 f3 3e c8 bb 34 40 9f 3a 16 de c6 3b cf 9d 1b bc
       -0.0061110198 0.0012149871 0.006068955 -0.009498074
000060 c8 71 7a bc 65 93 7f bb 93 5c fc 3b ce 17 a9 3b
       -0.015285917 -0.0038997766 0.0077014654 0.0051603084
000070 c6 b1 89 bb 3a e0 f3 3b 36 24 83 3b a3 f9 b5 bb
       -0.0042021004 0.0074425014 0.0040021194 -0.0055534407
000080 eb 90 bd 3b 84 bf be bb fa ae 54 3c fc 75 be bb
       0.005785098 -0.0058211703 0.012981171 -0.0058124047
000090 54 cf 95 bb 61 15 9f b8 d3 05 c0 3b 11 5c bb 3a
       -0.0045718346 -7.585693e-05 0.0058600693 0.0014294406
0000a0 55 3e 8f ba 72 8d f3 3b d7 a0 14 bc ff ad 26 3c
       -0.001092861 0.007432633 -0.00907155 0.01017332
0000b0 85 57 b6 3b e7 7b a1 3a 07 77 14 3b 3d 67 d1 3b
       0.0055646324 0.0012320251 0.0022653954 0.006390481
0000c0 ba 5e 8e 3b 6b c8 45 bc fc b1 b5 bb 8a 61 d9 3b
       0.0043447884 -0.012071709 -0.005544899 0.006633942
0000d0 fd 38 ac b9 42 86 76 ba 3d 96 9b 3b 6f 7d 59 3b
       -0.00032848856 -0.0009404161 0.0047481344 0.0033186337
0000e0 bf bd 1d bb eb 0a a2 3b 20 b6 5c 3b af e6 ce 3a
       -0.0024069396 0.004945149 0.003367789 0.0015785302
0000f0 e2 e2 71 3b 4a 99 e8 bb 0b 30 0f bc 99 28 46 bb
       0.0036908914 -0.0070983516 -0.008739482 -0.00302366
000100 71 e4 17 3c 4f 04 be 3b 0b 33 ac ba 4c 60 07 bc
       0.009270773 0.0057988535 -0.0013137771 -0.008262705
000110 17 2a 6f 3a 80 f8 96 b9 c3 97 59 3b f0 2c 7a 3b
       0.00091233983 -0.00028795376 0.003320203 0.0038173757
000120 e8 ea 8f 3c 80 50 f0 3a 0f e4 04 ba a9 c9 3c ba
       0.017568067 0.0018334538 -0.0005069384 -0.00072016806
000130 2b a0 91 bb 88 f1 f4 3b ab 1d 01 3c c0 e6 d9 bb
       -0.0044441423 0.007475082 0.007880609 -0.006649822
000140 c1 99 28 bb 5b b5 9f ba 55 08 5d 3b 49 63 01 3c
       -0.002572641 -0.0012184785 0.003372689 0.007897207
000150 c9 bd a4 ba ec f5 92 3b e4 70 30 37 23 b6 89 bb
       -0.0012568767 0.0044848826 1.0516702e-05 -0.0042026206
000160 7b 39 1c bb c8 f4 3f 3a a7 25 54 3b 72 9d b5 bb
       -0.0023837972 0.0007322547 0.0032371075 -0.0055424506
000170 40 71 06 bc 32 f1 0d bb 6b 6d 5d 3c 57 d9 9c bb
       -0.008205712 -0.0021658656 0.013514857 -0.004786651
000180 c1 ce 11 bc e9 27 02 3c 0f 08 a5 3b 82 0d 89 bc
       -0.008899392 0.007944086 0.005036361 -0.016730074
000190 d7 a6 02 ba 2f 5e 63 bc 8d 2d 5e bb 4f dc 52 3b
       -0.00049839675 -0.013877436 -0.0033901662 0.0032174771
0001a0 2d 98 c5 bb 75 10 64 3b 37 e2 1a 3c f2 9e b7 bb
       -0.0060301037 0.0034799848 0.009453348 -0.0056036646
0001b0 e7 da 3d bc 85 2f f4 3a 57 cc 09 bc f2 0f 7c 3c
       -0.011587835 0.0018629885 -0.008410535 0.015384661
0001c0 4d 31 a6 3a c7 2e 87 bc 2a 2f bc 3a 03 ea 07 3a
       0.0012679488 -0.016501797 0.0014357318 0.0005184712
0001d0 2e 6b 80 bc 97 42 b3 ba 67 6c 1e 3c fb f3 83 bb
       -0.015676107 -0.0013676462 0.0096694 -0.0040268875
0001e0 73 62 f4 bb 88 64 35 bb 9b 84 99 bb 3e ee 16 3c
       -0.007458025 -0.002767833 -0.0046849973 0.009212075
0001f0 d3 d9 d1 3b ca 03 f2 3a d7 da b8 3a bd e7 5b bc
       0.0064041405 0.0018464264 0.0014103305 -0.01342195
000200 ff 70 17 bc a2 65 b3 bb 30 c8 b4 3b 7b 43 1b bc
       -0.009243249 -0.005474762 0.0055170283 -0.009476538
000210 e4 73 0a bc 61 eb 0d bb de e8 c8 ba 89 b2 9a 3b
       -0.008450482 -0.002165519 -0.0015328189 0.00472099
000220 cb 20 79 3b 78 a5 ad 3b bf a7 c5 bb b3 20 88 3a
       0.003801393 0.0052992664 -0.00603196 0.0010385722
000230 d9 e7 c4 bb b3 88 cb ba ca 99 e1 3b c5 aa 09 3b
       -0.0060090837 -0.001552841 0.006884788 0.0021006328
000240 17 4b e2 39 12 cc e7 3b 23 60 08 bc ff a6 06 3a
       0.00043162025 0.0070738876 -0.008323702 0.00051365787
000250 1f 5d 20 3c dd 70 6b 3b 93 e8 a3 bb 35 27 ef 3a
       0.009787827 0.0035925426 -0.0050020902 0.0018245938
000260 aa 0b 9e 3a ad 88 91 3b 49 70 10 3c b3 a0 86 b8
       0.001205792 0.004441342 0.008815833 -6.4195505e-05
000270 d7 95 03 bc fe 1d 4c 3c 6f fd 00 bc bb 4e 3e 3a
       -0.00803133 0.012458323 -0.007872923 0.00072596566
000280 86 a6 0f bc b2 e6 fb 3b 31 76 3b bb 60 66 b8 ba
       -0.00876773 0.007687413 -0.0028604383 -0.0014068596
000290 59 4b 1f 3c 53 07 eb 3b ed a7 fc ba a9 24 2e 3c
       0.009722554 0.007172504 -0.001927612 0.010628858
0002a0 7b 61 bc bb b7 42 cb bb 73 bd 87 bb 22 5f e1 bb
       -0.0057489253 -0.0062030214 -0.004142457 -0.006877796
0002b0 6b 28 ab ba fd 9a 1f ba ab 35 f9 3b fb 33 73 bb
       -0.001305831 -0.00060884637 0.0076052747 -0.003710984
0002c0 f1 21 30 3c 49 02 48 3c 3f f8 7b bb f7 9b 7e bb
       0.01075028 0.012207576 -0.0038447527 -0.0038850287
0002d0 10 c1 69 3b 08 5a cf b9 bc d1 a8 bb 5c fa ab 3b
       0.0035668053 -0.00039549195 -0.0051519554 0.005248351
0002e0 c3 a2 24 bc ba ff 63 bb 1f 48 51 bb 47 9a 68 3b
       -0.010048571 -0.0034789876 -0.0031933857 0.0035492347
0002f0 8d 31 fd 39 e5 22 ec bb 58 51 f1 bb ea c9 ba bb
       0.0004829284 -0.007206308 -0.0073644333 -0.0057003396
000300 7a 4c 65 ba 91 78 1e bc f4 80 06 bc 41 7a c2 3a
       -0.00087470526 -0.0096723 -0.008209456 0.001483746
000310 5e 9e 4a 3c b2 dc 69 3b e5 e3 82 3b f9 82 be bb
       0.012366859 0.0035684523 0.0039944523 -0.005813953
000320 1d fb 54 3b 53 21 42 3b 42 80 8e bb d2 0f 7a 3b
       0.0032498308 0.0029621914 -0.0043487856 0.0038156402
000330 66 8c 34 bc 66 8c 31 3c fe 67 b3 3a 20 e2 db 3b
       -0.011019802 0.010836696 0.0013687608 0.006710306
000340 8a 83 04 3b f2 b6 b9 39 bf 13 d3 3b c9 be af 3a
       0.0020220005 0.00035422255 0.006441563 0.0013408299
000350 16 be 46 bc b0 30 97 3b c3 b1 74 bc 1f 6b 2c 3a
       -0.012130281 0.0046139583 -0.01493496 0.00065772416
000360 78 0a fb ba 0b d1 2e bb c2 38 0e bb b2 90 f1 3b
       -0.00191529 -0.0026674892 -0.002170131 0.0073719854
000370 48 4d fd bb 76 4a b2 ba 20 a8 ca bb cb 7d 95 3b
       -0.00773016 -0.0013602513 -0.006184593 0.004562115
000380 e0 b4 a9 ba 7f f6 ac 3a 57 cd 53 3b c8 a3 8c bb
       -0.0012947582 0.001319602 0.0032318437 -0.004291985
000390 cf 31 50 bb a3 67 88 bb b5 d7 76 3b 95 d2 b2 3b
       -0.003176797 -0.004162745 0.0037665193 0.0054572322
0003a0 4f fa b3 bb af 3a 9c ba f0 c9 57 bb e5 8e 8a 39
       -0.0054924856 -0.0011919345 -0.003292676 0.00026427876
0003b0 8e 8c 80 bb 8d 93 ab bb 2f ac bc ba 1d a0 da bb
       -0.0039230054 -0.0052360953 -0.0014394576 -0.006671919
0003c0 d0 01 8d 3b 86 67 9c 39 9f 17 db 3b 8a b4 81 ba
       0.0043031946 0.0002983177 0.0066861655 -0.0009895724
0003d0 a8 e7 1a bb 3f be 04 bc 8f 3b c2 bb e3 d8 0f 3b
       -0.0023636613 -0.008101999 -0.00592751 0.0021949343
0003e0 6f 9b 2b bb 93 b8 9c bb 34 f5 9c bb 0b f8 2b 3c
       -0.0026185175 -0.004782745 -0.0047899727 0.01049615
0003f0 38 71 a8 b8 c9 3f 0d bb c2 f5 98 bb 47 94 29 bb
       -8.031953e-05 -0.0021552911 -0.0046679685 -0.0025875734

onnx::Div_80 f4 [36]
000000 2d 78 f1 3e 9f b0 76 3c 89 82 f1 3e ea 6d 22 3e
       0.47162 0.015056758 0.47169903 0.15862241
000010 90 82 f1 3e 9f b0 76 3c 91 78 f1 3e b8 c1 5b 3e
       0.47169924 0.015056758 0.47162297 0.21460617
000020 dc a1 f2 3e 9f b0 76 3c d8 97 f2 3e ca 48 b7 3d
       0.47389114 0.015056758 0.47381473 0.0894943
000030 90 82 f1 3e 9f b0 76 3c 91 78 f1 3e e2 b3 98 3e
       0.47169924 0.015056758 0.47162297 0.2982474
000040 e7 77 f1 3e 9f b0 76 3c 95 82 f1 3e 8a 53 8d 3e
       0.4716179 0.015056758 0.4716994 0.27602798
000050 90 82 f1 3e 9f b0 76 3c 91 78 f1 3e f6 7e ac 3e
       0.47169924 0.015056758 0.47162297 0.33690614
000060 90 82 f1 3e 9f b0 76 3c 91 78 f1 3e b2 86 a8 3e
       0.47169924 0.015056758 0.47162297 0.32915264
000070 90 82 f1 3e 9f b0 76 3c 91 78 f1 3e 58 60 b5 3e
       0.47169924 0.015056758 0.47162297 0.35425067
000080 90 82 f1 3e 9f b0 76 3c 91 78 f1 3e a2 a3 b6 3e
       0.47169924 0.015056758 0.47162297 0.35671717

onnx::Div_83 f4 [7]
000000 70 2d 53 3e 51 d9 68 3e d9 f7 cb 3d c1 b1 2f 3e
       0.20622802 0.2273915 0.099593826 0.17157651
000010 20 f3 76 3c 57 b1 76 3c 45 d1 88 3c
       0.015072614 0.01505693 0.01670135
