results/testRun/Car/checkpoint.pt (torch, 638123 bytes, 29 tensors)

network_body.observation_encoder.processors.0.normalizer.running_mean f4 [36]
00000000: a349 bd3e 0000 0000 0757 213f b1c9 6e3f
00000010: 9e0d 0b3f 0000 0000 53dc e93e 1398 4b3f
00000020: 3b29 433f 0000 0000 5f4a 733e 6256 3f3f
00000030: 9d65 713f 0000 0000 fc5e 693d 03d4 d83e
00000040: 58d4 6c3f 0000 0000 333b 993d e733 ee3e
00000050: 1df6 7f3f 0000 0000 0000 0000 1955 8c3e
00000060: 1df6 7f3f 0000 0000 0000 0000 fbdd 973e
00000070: 1df6 7f3f 0000 0000 0000 0000 7227 6d3e
00000080: 1df6 7f3f 0000 0000 0000 0000 01da 7f3e
0.36970243 0.0 0.6302342 0.93276507 0.54317653 0.0 0.45675907 0.7952892
0.7623479 0.0 0.23758839 0.74741185 0.94295675 0.0 0.05697535 0.42349252
0.9251151 0.0 0.074819945 0.46523973 0.99984914 0.0 0.0 0.27408674
0.99984914 0.0 0.0 0.29661545 0.99984914 0.0 0.0 0.23159578
0.99984914 0.0 0.0 0.24985506

network_body.observation_encoder.processors.0.normalizer.running_variance f4 [36]
00000000: ad95 6445 0000 803f d499 6445 7a10 2043
00000010: f367 7345 0000 803f 8d66 7345 1e15 3244
00000020: c1bc 3145 0000 803f 59b4 3145 ff0e 0044
00000030: 9e3c 5344 0000 803f 2c04 5344 29a2 ae43
00000040: d000 8844 0000 803f 0ee6 8744 8a59 e343
00000050: 5ffb ff3f 0000 803f 0000 803f 811d 7741
00000060: 5ffb ff3f 0000 803f 0000 803f 6dab 4a41
00000070: 5ffb ff3f 0000 803f 0000 803f f5c9 4c41
00000080: 5ffb ff3f 0000 803f 0000 803f ba20 0f41
3657.3547 1.0 3657.6143 160.06436 3894.4968 1.0 3894.4094 712.32996
2843.797 1.0 2843.2717 512.2343 844.94714 1.0 844.0652 349.26688
1088.0254 1.0 1087.1892 454.69952 1.9998587 1.0 1.0 15.444703
1.9998587 1.0 1.0 12.666852 1.9998587 1.0 1.0 12.799306
1.9998587 1.0 1.0 8.94549

network_body.observation_encoder.processors.1.normalizer.running_mean f4 [7]
00000000: 17a8 eb3c 5773 f93c 27c5 4c3e a7ca 1741
00000010: acd3 9237 4cab 1037 d301 2e3b
0.028766675 0.030450506 0.19997083 9.486976 1.7503124e-05 8.622952e-06 0.002655138

network_body.observation_encoder.processors.1.normalizer.running_variance f4 [7]
00000000: 1324 b945 6fb6 a343 8248 0946 43f6 8948
00000010: c595 823f 6407 803f 8476 6640
5924.5093 327.42526 8786.127 282546.1 1.0201956 1.0002255 3.6009836

network_body.processors.0.normalizer.running_mean f4 [36]
00000000: a349 bd3e 0000 0000 0757 213f b1c9 6e3f
00000010: 9e0d 0b3f 0000 0000 53dc e93e 1398 4b3f
00000020: 3b29 433f 0000 0000 5f4a 733e 6256 3f3f
00000030: 9d65 713f 0000 0000 fc5e 693d 03d4 d83e
00000040: 58d4 6c3f 0000 0000 333b 993d e733 ee3e
00000050: 1df6 7f3f 0000 0000 0000 0000 1955 8c3e
00000060: 1df6 7f3f 0000 0000 0000 0000 fbdd 973e
00000070: 1df6 7f3f 0000 0000 0000 0000 7227 6d3e
00000080: 1df6 7f3f 0000 0000 0000 0000 01da 7f3e
0.36970243 0.0 0.6302342 0.93276507 0.54317653 0.0 0.45675907 0.7952892
0.7623479 0.0 0.23758839 0.74741185 0.94295675 0.0 0.05697535 0.42349252
0.9251151 0.0 0.074819945 0.46523973 0.99984914 0.0 0.0 0.27408674
0.99984914 0.0 0.0 0.29661545 0.99984914 0.0 0.0 0.23159578
0.99984914 0.0 0.0 0.24985506

network_body.processors.0.normalizer.running_variance f4 [36]
00000000: ad95 6445 0000 803f d499 6445 7a10 2043
00000010: f367 7345 0000 803f 8d66 7345 1e15 3244
00000020: c1bc 3145 0000 803f 59b4 3145 ff0e 0044
00000030: 9e3c 5344 0000 803f 2c04 5344 29a2 ae43
00000040: d000 8844 0000 803f 0ee6 8744 8a59 e343
00000050: 5ffb ff3f 0000 803f 0000 803f 811d 7741
00000060: 5ffb ff3f 0000 803f 0000 803f 6dab 4a41
00000070: 5ffb ff3f 0000 803f 0000 803f f5c9 4c41
00000080: 5ffb ff3f 0000 803f 0000 803f ba20 0f41
3657.3547 1.0 3657.6143 160.06436 3894.4968 1.0 3894.4094 712.32996
2843.797 1.0 2843.2717 512.2343 844.94714 1.0 844.0652 349.26688
1088.0254 1.0 1087.1892 454.69952 1.9998587 1.0 1.0 15.444703
1.9998587 1.0 1.0 12.666852 1.9998587 1.0 1.0 12.799306
1.9998587 1.0 1.0 8.94549

network_body.processors.1.normalizer.running_mean f4 [7]
00000000: 17a8 eb3c 5773 f93c 27c5 4c3e a7ca 1741
00000010: acd3 9237 4cab 1037 d301 2e3b
0.028766675 0.030450506 0.19997083 9.486976 1.7503124e-05 8.622952e-06 0.002655138

network_body.processors.1.normalizer.running_variance f4 [7]
00000000: 1324 b945 6fb6 a343 8248 0946 43f6 8948
00000010: c595 823f 6407 803f 8476 6640
5924.5093 327.42526 8786.127 282546.1 1.0201956 1.0002255 3.6009836

network_body._body_endoder.seq_layers.0.weight f4 [256, 43]
00000000: cce6 a43b 4301 363e 50ad 303e be3e 4b3d
00000010: afa2 22be 36cc c93e 9325 033b f421 d6bd
00000020: 92d4 993d 88b6 223d 80aa eebc a928 66bd
00000030: 735c a4be ec76 46be d8e4 0fbd a10e 0e3e
00000040: 8de9 e83c fdb3 273e aa5e 583e 4d4c a63b
00000050: 4f37 3fbe 3a48 6dbd 8796 143d 9637 113e
00000060: 8401 84bd aae7 c63e b336 d03d fdb6 293c
00000070: e462 d03c 537a 4fbe 5c76 8d3d db02 e03b
00000080: 2f74 f7bd 5221 dc3d 871c 11bb ab7b ac3d
00000090: 0149 7b3d 657b 89bd e657 7fbb 4de6 1b3e
000000a0: 6d1e a7bd d14d 183d d4c8 563e 2fa6 0abd
000000b0: 58bc d4bd 36f2 0dbe 9384 03bb 66e4 a1be
000000c0: 4b21 4bbe 5019 12bd 356a 8f3e fd35 25be
000000d0: faa3 61be 8cc1 af3d 94bc 02bd bfd5 943e
000000e0: 1323 5dbb de73 9c3d 628e bc3c ea5e babd
000000f0: e3c0 203c 0b7a 813e 6fc3 a23c f437 0dbe
00000100: fc3d 4ebe 939b 30be 827d 22be aa11 233e
00000110: 59a4 1ebd 22d8 dabd 7e17 4a3d 5dd3 05be
00000120: 422e bfbd 4a91 75ba 7cb9 5a3d 4800 983e
00000130: 1681 4fbc 2e88 7bbd 1c09 383c f5b5 bcbd
00000140: 2fd9 8b3d 03d3 c23b b986 0abe f6f6 293e
00000150: 9fa4 bd3c ab36 413b 20e2 133d 40b2 c13d
00000160: 428f 2f3e 4788 e03d 4e7a f8bb ca3e 17bc
00000170: 16da ac3c 24cc 1cbc 29d6 a43d 4f5d 933e
00000180: 1218 cabc 0194 783d d1ae 44bc 4b7a 4bbd
00000190: 122c 793d 4819 a63e 93b7 d93d 9b3e 873e
000001a0: 110d 92bd 9f60 613d 3683 b33e 2e2a 323c
000001b0: 1781 c1bc 0921 17be 7333 5ebe a8b5 07bd
000001c0: c829 e53c 03a1 3fbd b03a 1bbe 697f 8cbd
000001d0: 130b 103e 3707 33be dfdf 803e 4733 a8bd
000001e0: ba3d 6bbe 5283 973d 8ac6 213d 5321 b4bd
000001f0: f275 00be 1a46 533d 4dc8 8a3e adb5 153d
00000200: f1f4 71bd 63aa ad3d dc2b ecbd 6b50 c63d
00000210: 24a6 f13b f1aa 8c3d cd39 5b3d 6043 a9bd
00000220: cfd8 f3bd e652 dcbc 653c 913d d112 303b
00000230: 0455 30be 4603 8b3e b81b 4d3d 39b3 7cbe
00000240: 07ca 3e3d 3edc a8be df58 10be 2337 7bbd
00000250: 8cd3 803d 21d0 363d 6510 8dbe 2700 4dbe
00000260: 3b9e 17bd 28a1 533c f94f 1cbe 65a1 04be
00000270: 731f bcbd 12b1 423e 0337 9c3d f9f4 5c3e
00000280: 13db 123e 162a 893b 46d2 69be 0cd4 853e
00000290: 3d40 32bd 8789 54bd 4555 813d 06e0 613e
000002a0: 636e 5bbe e874 a0be 7459 0bbd 0c72 82be
000002b0: 2d7a 9dbd 91b2 21be 5dfa 553e 6e8b 66be
000002c0: 9e5a b33c 56d8 1b3e 506d a2bd bd29 05be
000002d0: e77f aabd 21dc 4cbe bb5d 0d3d 183f e3bd
000002e0: 346b 0ebe b693 e53d 8f6d bd3c dc1b 9fbe
000002f0: 7a92 523d a6a0 84bc 4d5c c9bd 83c2 08bd
00000300: 9f14 843d 26ec 8b3e b597 1abe 0495 afba
00000310: c60f a7bd ce75 80bd 4e99 08bd 2b3d 06ba
00000320: f125 34be 4e0b 9bbd 033e fdbd 8968 22be
00000330: bb87 043c 9287 663e ff28 90bd b598 483e
00000340: 3487 7ebc efa7 eabd dc33 9c3c fd3a 953e
00000350: 9c63 96be fb7b fdbd 9b1b 293d 4ed2 153e
00000360: 37b5 26be 0735 be3d bd01 6e3e 0fbc f7bd
00000370: 8935 1b3e 334b e8bd 4f07 963e 1cf0 acbd
00000380: e93e 64be 3b45 8bbd a907 c73d b9e9 9dbd
00000390: 651a 0bbe 9b4b 2c3e 16d1 213d 04c2 073e
000003a0: bbde 84be 755d e2be 1d51 823e 2276 723d
000003b0: 7c4e 92be bab8 b6bd ef42 c5bd d14f 0a3c
000003c0: 1e91 bbbd f212 32bd a05d 563d f01b ff3d
000003d0: 7f81 983d 7552 6e3d 2664 5cbd 4cdd 21be
000003e0: 550b 033e e8a2 90be d52c 40bd fafb 1f3e
000003f0: 7263 47be 333b d0bc 24ce 6bbd b1d8 75bd
0.005032396 0.17773919 0.17253613 0.049620382 -0.15882371 0.39413613 0.002001141 -0.10455695
0.07511248 0.039724857 -0.029134035 -0.05619112 -0.32101783 -0.19381303 -0.03513035 0.13872768
0.028431678 0.16377254 0.21129861 0.0050750137 -0.18673442 -0.05793021 0.036276367 0.1418136
-0.064456016 0.3884862 0.10166683 0.010358569 0.02543778 -0.20261507 0.06907341 0.006836278
-0.12082707 0.10748543 -0.0022142248 0.08422025 0.06134892 -0.06712989 -0.0038962304 0.15224572
-0.081601 0.037183587 0.20975047 -0.03384989 -0.10387486 -0.13861927 -0.0020068034 -0.31619567
-0.19836919 -0.03566867 0.28010717 -0.16133876 -0.22035208 0.08581838 -0.031918123 0.29069325
-0.003374283 0.076392874 0.023017112 -0.09100135 0.009811613 0.25288424 0.01986858 -0.13790876
-0.20140833 -0.17246847 -0.1586819 0.15924707 -0.038730953 -0.10685755 0.04933881 -0.1306891
-0.09334995 -0.0009367658 0.053399548 0.29687715 -0.012665054 -0.061409168 0.011232641 -0.09214393
0.06828534 0.0059455647 -0.13527955 0.16598114 0.023149787 0.0029482048 0.03610432 0.094578266
0.17144492 0.10963493 -0.007582939 -0.009231279 0.021100085 -0.009570155 0.0804866 0.28782126
-0.02466968 0.060688023 -0.01200457 -0.049677175 0.060833044 0.32441163 0.10630717 0.26414952
-0.071313985 0.055023786 0.35061044 0.010874314 -0.023621125 -0.14758696 -0.21699314 -0.033132225
0.027974024 -0.046784412 -0.15159106 -0.06860239 0.14066724 -0.17483221 0.251708 -0.082129054
-0.22972766 0.07398094 0.039495982 -0.087954186 -0.12544993 0.051580526 0.27105942 0.036550213
-0.059071485 0.08479764 -0.11531803 0.09683307 0.007374542 0.06868542 0.05352192 -0.08264804
-0.11906587 -0.026894998 0.070915975 0.0026866684 -0.17219931 0.27150935 0.050075263 -0.24677743
0.046579387 -0.3298053 -0.14096402 -0.06133188 0.06290349 0.04463208 -0.2755157 -0.2001959
-0.037016135 0.012916841 -0.15264882 -0.12952192 -0.09185686 0.1901286 0.0762768 0.21577825
0.14341383 0.0041859252 -0.22834119 0.2613834 -0.043518294 -0.05188897 0.06315092 0.22058114
-0.21428828 -0.31339192 -0.034020856 -0.25477636 -0.07689319 -0.15790774 0.20896287 -0.22514126
0.021893796 0.15219244 -0.07931006 -0.13004203 -0.08325177 -0.20005848 0.034513216 -0.110960186
-0.13908082 0.11209814 0.02312353 -0.31075943 0.051409222 -0.016189884 -0.09832058 -0.033388626
0.06449246 0.27328604 -0.15096934 -0.001339585 -0.081573054 -0.062724695 -0.033349328 -0.0005120809
-0.17592598 -0.075705156 -0.123653434 -0.1586019 0.008089001 0.22512653 -0.070390694 0.19589503
-0.015535165 -0.11457812 0.019067697 0.29146567 -0.2937287 -0.12377163 0.041286092 0.14631006
-0.16280065 0.09287458 0.2324285 -0.12096416 0.15157141 -0.11342468 0.2930245 -0.08444235
-0.22289623 -0.06800314 0.09718258 -0.07710595 -0.13584287 0.16825716 0.03950604 0.13257605
-0.2595118 -0.44211927 0.2545251 0.05919469 -0.28575504 -0.089219525 -0.09631907 0.008441881
-0.09158538 -0.0434751 0.05233538 0.124565005 0.074465744 0.058184106 -0.053806446 -0.15807074
0.12797292 -0.28249288 -0.046917755 0.15623465 -0.19471529 -0.025418853 -0.057569638 -0.060021106

network_body._body_endoder.seq_layers.0.bias f4 [256]
00000000: 0000 0000 0000 0000 0000 0000 0000 0000
00000010: 0000 0000 0000 0000 0000 0000 0000 0000
00000020: 0000 0000 0000 0000 0000 0000 0000 0000
00000030: 0000 0000 0000 0000 0000 0000 0000 0000
00000040: 0000 0000 0000 0000 0000 0000 0000 0000
00000050: 0000 0000 0000 0000 0000 0000 0000 0000
00000060: 0000 0000 0000 0000 0000 0000 0000 0000
00000070: 0000 0000 0000 0000 0000 0000 0000 0000
00000080: 0000 0000 0000 0000 0000 0000 0000 0000
00000090: 0000 0000 0000 0000 0000 0000 0000 0000
000000a0: 0000 0000 0000 0000 0000 0000 0000 0000
000000b0: 0000 0000 0000 0000 0000 0000 0000 0000
000000c0: 0000 0000 0000 0000 0000 0000 0000 0000
000000d0: 0000 0000 0000 0000 0000 0000 0000 0000
000000e0: 0000 0000 0000 0000 0000 0000 0000 0000
000000f0: 0000 0000 0000 0000 0000 0000 0000 0000
00000100: 0000 0000 0000 0000 0000 0000 0000 0000
00000110: 0000 0000 0000 0000 0000 0000 0000 0000
00000120: 0000 0000 0000 0000 0000 0000 0000 0000
00000130: 0000 0000 0000 0000 0000 0000 0000 0000
00000140: 0000 0000 0000 0000 0000 0000 0000 0000
00000150: 0000 0000 0000 0000 0000 0000 0000 0000
00000160: 0000 0000 0000 0000 0000 0000 0000 0000
00000170: 0000 0000 0000 0000 0000 0000 0000 0000
00000180: 0000 0000 0000 0000 0000 0000 0000 0000
00000190: 0000 0000 0000 0000 0000 0000 0000 0000
000001a0: 0000 0000 0000 0000 0000 0000 0000 0000
000001b0: 0000 0000 0000 0000 0000 0000 0000 0000
000001c0: 0000 0000 0000 0000 0000 0000 0000 0000
000001d0: 0000 0000 0000 0000 0000 0000 0000 0000
000001e0: 0000 0000 0000 0000 0000 0000 0000 0000
000001f0: 0000 0000 0000 0000 0000 0000 0000 0000
00000200: 0000 0000 0000 0000 0000 0000 0000 0000
00000210: 0000 0000 0000 0000 0000 0000 0000 0000
00000220: 0000 0000 0000 0000 0000 0000 0000 0000
00000230: 0000 0000 0000 0000 0000 0000 0000 0000
00000240: 0000 0000 0000 0000 0000 0000 0000 0000
00000250: 0000 0000 0000 0000 0000 0000 0000 0000
00000260: 0000 0000 0000 0000 0000 0000 0000 0000
00000270: 0000 0000 0000 0000 0000 0000 0000 0000
00000280: 0000 0000 0000 0000 0000 0000 0000 0000
00000290: 0000 0000 0000 0000 0000 0000 0000 0000
000002a0: 0000 0000 0000 0000 0000 0000 0000 0000
000002b0: 0000 0000 0000 0000 0000 0000 0000 0000
000002c0: 0000 0000 0000 0000 0000 0000 0000 0000
000002d0: 0000 0000 0000 0000 0000 0000 0000 0000
000002e0: 0000 0000 0000 0000 0000 0000 0000 0000
000002f0: 0000 0000 0000 0000 0000 0000 0000 0000
00000300: 0000 0000 0000 0000 0000 0000 0000 0000
00000310: 0000 0000 0000 0000 0000 0000 0000 0000
00000320: 0000 0000 0000 0000 0000 0000 0000 0000
00000330: 0000 0000 0000 0000 0000 0000 0000 0000
00000340: 0000 0000 0000 0000 0000 0000 0000 0000
00000350: 0000 0000 0000 0000 0000 0000 0000 0000
00000360: 0000 0000 0000 0000 0000 0000 0000 0000
00000370: 0000 0000 0000 0000 0000 0000 0000 0000
00000380: 0000 0000 0000 0000 0000 0000 0000 0000
00000390: 0000 0000 0000 0000 0000 0000 0000 0000
000003a0: 0000 0000 0000 0000 0000 0000 0000 0000
000003b0: 0000 0000 0000 0000 0000 0000 0000 0000
000003c0: 0000 0000 0000 0000 0000 0000 0000 0000
000003d0: 0000 0000 0000 0000 0000 0000 0000 0000
000003e0: 0000 0000 0000 0000 0000 0000 0000 0000
000003f0: 0000 0000 0000 0000 0000 0000 0000 0000
0.0 0.0 0.0 0.0 0.0 0.0 0.0 0.0
0.0 0.0 0.0 0.0 0.0 0.0 0.0 0.0
0.0 0.0 0.0 0.0 0.0 0.0 0.0 0.0
0.0 0.0 0.0 0.0 0.0 0.0 0.0 0.0
0.0 0.0 0.0 0.0 0.0 0.0 0.0 0.0
0.0 0.0 0.0 0.0 0.0 0.0 0.0 0.0
0.0 0.0 0.0 0.0 0.0 0.0 0.0 0.0
0.0 0.0 0.0 0.0 0.0 0.0 0.0 0.0
0.0 0.0 0.0 0.0 0.0 0.0 0.0 0.0
0.0 0.0 0.0 0.0 0.0 0.0 0.0 0.0
0.0 0.0 0.0 0.0 0.0 0.0 0.0 0.0
0.0 0.0 0.0 0.0 0.0 0.0 0.0 0.0
0.0 0.0 0.0 0.0 0.0 0.0 0.0 0.0
0.0 0.0 0.0 0.0 0.0 0.0 0.0 0.0
0.0 0.0 0.0 0.0 0.0 0.0 0.0 0.0
0.0 0.0 0.0 0.0 0.0 0.0 0.0 0.0
0.0 0.0 0.0 0.0 0.0 0.0 0.0 0.0
0.0 0.0 0.0 0.0 0.0 0.0 0.0 0.0
0.0 0.0 0.0 0.0 0.0 0.0 0.0 0.0
0.0 0.0 0.0 0.0 0.0 0.0 0.0 0.0
0.0 0.0 0.0 0.0 0.0 0.0 0.0 0.0
0.0 0.0 0.0 0.0 0.0 0.0 0.0 0.0
0.0 0.0 0.0 0.0 0.0 0.0 0.0 0.0
0.0 0.0 0.0 0.0 0.0 0.0 0.0 0.0
0.0 0.0 0.0 0.0 0.0 0.0 0.0 0.0
0.0 0.0 0.0 0.0 0.0 0.0 0.0 0.0
0.0 0.0 0.0 0.0 0.0 0.0 0.0 0.0
0.0 0.0 0.0 0.0 0.0 0.0 0.0 0.0
0.0 0.0 0.0 0.0 0.0 0.0 0.0 0.0
0.0 0.0 0.0 0.0 0.0 0.0 0.0 0.0
0.0 0.0 0.0 0.0 0.0 0.0 0.0 0.0
0.0 0.0 0.0 0.0 0.0 0.0 0.0 0.0

network_body._body_endoder.seq_layers.2.weight f4 [256, 256]
00000000: c59c 63bd fb93 8f3c af61 1abc 19f4 8bbd
00000010: eca4 083d 224c 563d ff5d 02be 81ba 03bd
00000020: 34eb 073d a4b0 c53d c7ea ddbc 1f03 793c
00000030: 0ba9 0b3c c628 113d c8b0 7e3d 6d2a 26bc
00000040: 510d 17bd 33eb 92bd 0d56 9a3c 7456 c73c
00000050: c35c 333c 663f bebd 347a 55bd b6ad a4bd
00000060: fdce 633d df80 03ba 76ef 913d 1e19 cabd
00000070: 87fe a93d 0a12 53bd 6414 823d acf4 263e
00000080: 3059 13be 4ccf 8abb eaf9 a4bc f3e8 993c
00000090: e7e0 e8bc ed72 553d 1f52 363e aa4e 85bc
000000a0: d828 283d 56d6 acbd 7226 a1bb 2c30 703c
000000b0: 5d54 623d 73e3 013e 87ea 02bd 8d50 c3bd
000000c0: 6e7b 0bbd b6ec c0bc 11bf 35bd 9be2 48bd
000000d0: 3901 ae3c cf28 003d eb28 923d 9f7d 1f3d
000000e0: cd1d 1bbe dae9 7a3b e25b 08bd 0178 803d
000000f0: 1831 bc3b fbe1 8abd f485 64bd 2e6b 12be
00000100: a01e f7bd dba6 48bd 3789 483c 0cc0 c0bd
00000110: b55f 05bd 2fa7 7abd 1b18 713d 8347 0f3d
00000120: 11c5 8fbd cdf4 00bd 5e5b cb3c b718 3cbd
00000130: a50f 07bd 6928 113c 6f8b ec3c 441f 7ebd
00000140: df8f 2f3e 2b3f 113b dca3 033c f34d 28bd
00000150: 51e7 6c3c 0296 be3d 3f00 4e3d 4d54 fdbb
00000160: ba31 f338 2075 6bbc 7279 893c a00f 633d
00000170: 5c15 9bbd daa5 3b3d c9f3 16bd 2d51 dbbd
00000180: 4f85 72bd d4af 01bd 0e26 b8bd 0175 7c3d
00000190: 46ab 103c 77c0 9e3c f5f5 763d dc76 abbd
000001a0: 8648 cd3d 8bc6 f53b 7da2 34bd bf9d 59bc
000001b0: 5a5f 73bd ef38 413c 3239 8dbd 3906 58bd
000001c0: d887 49bd 6cf3 883d ccf1 083d c37c bfbd
000001d0: 684b 353d d76a b2bd d00a 72bd 51f7 0c3d
000001e0: f46b 95bc 4cb2 233d e7d1 533c f496 b63b
000001f0: fbb2 693d 0435 873d 7eb8 773d b472 833d
00000200: d0cd 12bd 2c44 b73b 0620 4ebd 325d 4ebd
00000210: 161f 4ebc b886 a6bd b46d 113d 61e8 3d3d
00000220: 8d46 e63c 1898 89bd e9da 9c3d 5ad6 dabb
00000230: 3113 8c3d b1a1 edbc 4e65 5a3d 86b7 bbbc
00000240: d3cd 913d 190a 473d 8d93 753b 6e9e 57bc
00000250: 68df 81bd ed24 b9bc ab32 f63c 3205 b33c
00000260: 2ac9 a9bb 0063 93bd 7b14 213b b7f3 0d3e
00000270: ec90 3abd 324c f0bc 1618 353d fc96 b1bd
00000280: f46d f63c caba 22bd c208 c53d 8607 79bd
00000290: eee2 e43b 9a4f b23d d0a0 813a 4082 8bbd
000002a0: 3f35 9f3d c957 163d 6cba 9b3d acf8 723c
000002b0: 2444 bfbd 5ba1 fabc 4fef ee3c 9fd0 3d3d
000002c0: 3636 18be 39f3 753d e952 4dbd 2d18 713d
000002d0: 927d eb3c f3e9 793d a69c f1bc 9f8e 1d3d
000002e0: f002 e1bc 1b6c 8dbd 3427 a9bd 4583 f4bd
000002f0: 5133 00bd 6881 24bd 8147 ee3d ec6d d4bd
00000300: 6993 103d 4103 56bc d737 683d db77 ab3c
00000310: e8c9 973c e2c3 84bd 3135 253c cf07 5c3c
00000320: 8797 46bd 68e5 f7bd 3f92 8abb f888 20bd
00000330: c873 3dbd 586a 0c39 0b27 4bbd 599e e13d
00000340: 9b94 3dbd c16c 743d 98ae b43c 7376 073c
00000350: 21be 7abd 8c26 7cbd ec72 533c 7794 0a3c
00000360: c0f1 663d 500f 6dbc 1d06 873d 48e6 90bc
00000370: c17b 46bd 1b64 983d 2448 343a ea0f 643c
00000380: f6a4 9fbd dc75 c93a d3de 9a3d 9399 a73c
00000390: ff00 303d b32d c43c f0a1 b03d 1612 ae3b
000003a0: 85ec 1e3d 9324 b3bd 608e 323c 535a 7abb
000003b0: 5453 aabc 12ff ee3c e6d6 283d c3ea 9dbd
000003c0: f5b0 20bd 15de bdbc ec36 ee3c 652a f03c
000003d0: 29ff 8e3b 9c95 403d 3877 3cbd 58c8 573d
000003e0: 08f2 cd3c 3ec2 4c3c 5e7e c2bd e809 553d
000003f0: 97a9 5dbd f483 d4bc 2d10 a1bd 7a6f 8abc
-0.05556943 0.017526617 -0.009422704 -0.06833667 0.033360407 0.0523187 -0.12731169 -0.032160286
0.03318329 0.09652832 -0.02708949 0.015198498 0.00852419 0.035439275 0.06218031 -0.010141951
-0.036877934 -0.07173767 0.01883986 0.024333216 0.010947409 -0.09289436 -0.052118495 -0.08040945
0.05561732 -0.00050164567 0.07125752 -0.09868072 0.083005 -0.051530875 0.063515455 0.16304272
-0.14389491 -0.0042361375 -0.0201387 0.018787837 -0.028427554 0.052111555 0.17804764 -0.016272862
0.041054577 -0.08439319 -0.004917913 0.014659923 0.055256236 0.12684421 -0.031961944 -0.09536848
-0.03405326 -0.023550373 -0.04437167 -0.049044233 0.021240817 0.031288918 0.07136711 0.03893816
-0.15148087 0.003828636 -0.03329075 0.06272889 0.005743157 -0.067813836 -0.05579181 -0.14298698
-0.12066388 -0.04898725 0.012239746 -0.0941163 -0.032561976 -0.061194595 0.05886088 0.03498031
-0.07020009 -0.03148346 0.02482384 -0.045922007 -0.032973904 0.008859732 0.02887508 -0.062041536
0.17144726 0.0022162895 0.008034673 -0.041089963 0.014459447 0.093059555 0.050293203 -0.0077309967
0.00011596405 -0.0143711865 0.016781542 0.055434823 -0.07572433 0.045812465 -0.036853585 -0.107088424
-0.059209164 -0.031661823 -0.08991633 0.06163502 0.008829897 0.019378884 0.060293157 -0.0837228
0.100235984 0.007500475 -0.044100273 -0.0132822385 -0.059417106 0.011793359 -0.06895675 -0.05274031
-0.049201816 0.06687054 0.03343372 -0.09349968 0.044261366 -0.08711784 -0.059092343 0.034415547
-0.018239953 0.03996496 0.012928463 0.0055721942 0.057055455 0.06601909 0.06047868 0.06418362
-0.03584081 0.0055928435 -0.05032351 -0.050381847 -0.012580654 -0.08131164 0.03550501 0.046364192
0.028109813 -0.06718463 0.07658941 -0.0066783847 0.06839598 -0.029007765 0.053319268 -0.02291466
0.07119336 0.048593614 0.003747198 -0.013160331 -0.063414395 -0.022600615 0.030053457 0.021853063
-0.0051814513 -0.07196617 0.0024578858 0.13862501 -0.045548365 -0.029333208 0.044212423 -0.08671376
0.030081727 -0.039728917 0.09620811 -0.06079819 0.00698506 0.08706589 0.0009889845 -0.068119526
0.07773828 0.036704812 0.076039165 0.014829796 -0.09339169 -0.030594518 0.029166846 0.046341535
-0.1486443 0.06004641 -0.050127897 0.058860946 0.0287464 0.061014127 -0.029493641 0.038466092
-0.027467221 -0.06905385 -0.082594305 -0.119391 -0.03129894 -0.040162474 0.11634732 -0.103725284
0.03529683 -0.013062299 0.056693878 0.020931175 0.018528894 -0.06482674 0.010083483 0.013429596
-0.04848435 -0.12104303 -0.0042288597 -0.039193124 -0.046252996 0.00013391057 -0.04959778 0.110165305
-0.0462843 0.05967403 0.022055909 0.008267987 -0.061216477 -0.0615602 0.0129058175 0.008458248
0.056382895 -0.014468983 0.06592963 -0.017687932 -0.048457865 0.074409686 0.0006877205 0.01391981
-0.07795136 0.0015370208 0.075620316 0.020458972 0.0429697 0.023947572 0.08624637 0.0053122146
0.03879978 -0.0874721 0.010898203 -0.003820081 -0.020791687 0.029174361 0.041220568 -0.07710793
-0.03923126 -0.023177186 0.029078923 0.02931709 0.0043639136 0.04701768 -0.046012133 0.052681297
0.025139824 0.012497483 -0.09496759 0.0520114 -0.05411681 -0.025941826 -0.078644134 -0.01689886

network_body._body_endoder.seq_layers.2.bias f4 [256]
00000000: 0000 0000 0000 0000 0000 0000 0000 0000
00000010: 0000 0000 0000 0000 0000 0000 0000 0000
00000020: 0000 0000 0000 0000 0000 0000 0000 0000
00000030: 0000 0000 0000 0000 0000 0000 0000 0000
00000040: 0000 0000 0000 0000 0000 0000 0000 0000
00000050: 0000 0000 0000 0000 0000 0000 0000 0000
00000060: 0000 0000 0000 0000 0000 0000 0000 0000
00000070: 0000 0000 0000 0000 0000 0000 0000 0000
00000080: 0000 0000 0000 0000 0000 0000 0000 0000
00000090: 0000 0000 0000 0000 0000 0000 0000 0000
000000a0: 0000 0000 0000 0000 0000 0000 0000 0000
000000b0: 0000 0000 0000 0000 0000 0000 0000 0000
000000c0: 0000 0000 0000 0000 0000 0000 0000 0000
000000d0: 0000 0000 0000 0000 0000 0000 0000 0000
000000e0: 0000 0000 0000 0000 0000 0000 0000 0000
000000f0: 0000 0000 0000 0000 0000 0000 0000 0000
00000100: 0000 0000 0000 0000 0000 0000 0000 0000
00000110: 0000 0000 0000 0000 0000 0000 0000 0000
00000120: 0000 0000 0000 0000 0000 0000 0000 0000
00000130: 0000 0000 0000 0000 0000 0000 0000 0000
00000140: 0000 0000 0000 0000 0000 0000 0000 0000
00000150: 0000 0000 0000 0000 0000 0000 0000 0000
00000160: 0000 0000 0000 0000 0000 0000 0000 0000
00000170: 0000 0000 0000 0000 0000 0000 0000 0000
00000180: 0000 0000 0000 0000 0000 0000 0000 0000
00000190: 0000 0000 0000 0000 0000 0000 0000 0000
000001a0: 0000 0000 0000 0000 0000 0000 0000 0000
000001b0: 0000 0000 0000 0000 0000 0000 0000 0000
000001c0: 0000 0000 0000 0000 0000 0000 0000 0000
000001d0: 0000 0000 0000 0000 0000 0000 0000 0000
000001e0: 0000 0000 0000 0000 0000 0000 0000 0000
000001f0: 0000 0000 0000 0000 0000 0000 0000 0000
00000200: 0000 0000 0000 0000 0000 0000 0000 0000
00000210: 0000 0000 0000 0000 0000 0000 0000 0000
00000220: 0000 0000 0000 0000 0000 0000 0000 0000
00000230: 0000 0000 0000 0000 0000 0000 0000 0000
00000240: 0000 0000 0000 0000 0000 0000 0000 0000
00000250: 0000 0000 0000 0000 0000 0000 0000 0000
00000260: 0000 0000 0000 0000 0000 0000 0000 0000
00000270: 0000 0000 0000 0000 0000 0000 0000 0000
00000280: 0000 0000 0000 0000 0000 0000 0000 0000
00000290: 0000 0000 0000 0000 0000 0000 0000 0000
000002a0: 0000 0000 0000 0000 0000 0000 0000 0000
000002b0: 0000 0000 0000 0000 0000 0000 0000 0000
000002c0: 0000 0000 0000 0000 0000 0000 0000 0000
000002d0: 0000 0000 0000 0000 0000 0000 0000 0000
000002e0: 0000 0000 0000 0000 0000 0000 0000 0000
000002f0: 0000 0000 0000 0000 0000 0000 0000 0000
00000300: 0000 0000 0000 0000 0000 0000 0000 0000
00000310: 0000 0000 0000 0000 0000 0000 0000 0000
00000320: 0000 0000 0000 0000 0000 0000 0000 0000
00000330: 0000 0000 0000 0000 0000 0000 0000 0000
00000340: 0000 0000 0000 0000 0000 0000 0000 0000
00000350: 0000 0000 0000 0000 0000 0000 0000 0000
00000360: 0000 0000 0000 0000 0000 0000 0000 0000
00000370: 0000 0000 0000 0000 0000 0000 0000 0000
00000380: 0000 0000 0000 0000 0000 0000 0000 0000
00000390: 0000 0000 0000 0000 0000 0000 0000 0000
000003a0: 0000 0000 0000 0000 0000 0000 0000 0000
000003b0: 0000 0000 0000 0000 0000 0000 0000 0000
000003c0: 0000 0000 0000 0000 0000 0000 0000 0000
000003d0: 0000 0000 0000 0000 0000 0000 0000 0000
000003e0: 0000 0000 0000 0000 0000 0000 0000 0000
000003f0: 0000 0000 0000 0000 0000 0000 0000 0000
0.0 0.0 0.0 0.0 0.0 0.0 0.0 0.0
0.0 0.0 0.0 0.0 0.0 0.0 0.0 0.0
0.0 0.0 0.0 0.0 0.0 0.0 0.0 0.0
0.0 0.0 0.0 0.0 0.0 0.0 0.0 0.0
0.0 0.0 0.0 0.0 0.0 0.0 0.0 0.0
0.0 0.0 0.0 0.0 0.0 0.0 0.0 0.0
0.0 0.0 0.0 0.0 0.0 0.0 0.0 0.0
0.0 0.0 0.0 0.0 0.0 0.0 0.0 0.0
0.0 0.0 0.0 0.0 0.0 0.0 0.0 0.0
0.0 0.0 0.0 0.0 0.0 0.0 0.0 0.0
0.0 0.0 0.0 0.0 0.0 0.0 0.0 0.0
0.0 0.0 0.0 0.0 0.0 0.0 0.0 0.0
0.0 0.0 0.0 0.0 0.0 0.0 0.0 0.0
0.0 0.0 0.0 0.0 0.0 0.0 0.0 0.0
0.0 0.0 0.0 0.0 0.0 0.0 0.0 0.0
0.0 0.0 0.0 0.0 0.0 0.0 0.0 0.0
0.0 0.0 0.0 0.0 0.0 0.0 0.0 0.0
0.0 0.0 0.0 0.0 0.0 0.0 0.0 0.0
0.0 0.0 0.0 0.0 0.0 0.0 0.0 0.0
0.0 0.0 0.0 0.0 0.0 0.0 0.0 0.0
0.0 0.0 0.0 0.0 0.0 0.0 0.0 0.0
0.0 0.0 0.0 0.0 0.0 0.0 0.0 0.0
0.0 0.0 0.0 0.0 0.0 0.0 0.0 0.0
0.0 0.0 0.0 0.0 0.0 0.0 0.0 0.0
0.0 0.0 0.0 0.0 0.0 0.0 0.0 0.0
0.0 0.0 0.0 0.0 0.0 0.0 0.0 0.0
0.0 0.0 0.0 0.0 0.0 0.0 0.0 0.0
0.0 0.0 0.0 0.0 0.0 0.0 0.0 0.0
0.0 0.0 0.0 0.0 0.0 0.0 0.0 0.0
0.0 0.0 0.0 0.0 0.0 0.0 0.0 0.0
0.0 0.0 0.0 0.0 0.0 0.0 0.0 0.0
0.0 0.0 0.0 0.0 0.0 0.0 0.0 0.0

action_model._continuous_distribution.log_sigma f4 [1, 3]
00000000: 0000 0000 0000 0000 0000 0000
0.0 0.0 0.0

action_model._continuous_distribution.mu.weight f4 [3, 256]
00000000: cf1e ab3b 6fdd b63c 9807 6c3b 4d89 92bc
00000010: 825e dfbb 0b1d 953c 8129 453c d80d f5bb
00000020: 4709 283c b2c2 f53c 8023 693c 8d9f 13bc
00000030: 80df d9bb 636a f6bb 8a13 1ebc 2fea 4c3c
00000040: 3364 c9bb d3ec ae3b c751 85bc 918d 08bb
00000050: 0d07 893b bb43 dcbb 1fc9 aa3b c7ba ddbc
00000060: a87a 7c3c 6bc4 65bb 828f f1bb 545d 403b
00000070: f26c 5c3c 0576 f7bc 8094 9bbb a931 a33b
00000080: 2d7e e13b ac35 3bbb 833d 10bb 905b e3ba
00000090: 6552 d73c 0710 cbbb abd0 eebb 423c a9b9
000000a0: 1fc5 7ab9 28f9 56bc cc91 873c 7aca cf3a
000000b0: d5cd adbb bfd4 2bbb 6ad5 693c 0fd8 3f3c
000000c0: fb03 203c 5b73 02bc 3895 ccbb df50 5e3b
000000d0: 8036 b8bc 854a 2b3c 0be6 013b 497a 3dbb
000000e0: a777 f3bb 665a 313c f48e b4bb 1de1 a2bb
000000f0: 469f 193b aa6c 4ebc bb0f 2e3c 32e7 403c
00000100: 9e25 0dbc 8af5 493c cfc7 10bc 28da 2cbc
00000110: 5f0a 9ebc 707e 8d3c 0273 563c 3aee 8dba
00000120: 934f 5ebc fd19 503c 65c2 913c 106c f2bb
00000130: 5b1f 193c 6fad aebc f2db dfbc bc00 93bc
00000140: cfef 223c c239 e13b 03cf ed3c 9385 203c
00000150: 4859 f43c 2d14 783c 2f6d c33c 739f cd3c
00000160: 4c03 a93b fb04 183b 4231 53b9 0fca c73b
00000170: b39b fbbb 8279 da3b 5a22 41bc 57f9 04bb
00000180: eb71 f83b 318c 2e3c bed3 263c f5eb 803c
00000190: 1a22 603a 9601 3b3c 67da 9abb 7360 3dbc
000001a0: 5097 413c 66b4 053b 80b1 193b 87c9 65bc
000001b0: 47ca 593c 4b2e a9bb a817 623c fe42 a8bc
000001c0: 8b15 c03c dcab 2cbc e514 22bc 6320 22bc
000001d0: 367d b3bb 198e bd3a 8fd6 d23c e868 7ebc
000001e0: 379b 6c3c c624 473b 80f1 673b f2a8 d3bb
000001f0: 29b5 a6bb 1d16 c0bb 60c7 6e3b aaa5 be3c
00000200: e35b 5d3b 3f67 9b3b 3217 12bc cf2e 703b
00000210: 3590 61bb dd8f 713c 6f8d 67ba 87ea 68bb
00000220: 6fb9 883c 4aad 9bbc 073e 2dbc 0d11 edba
00000230: 5094 5bbc a554 dd3b b7fc 36bc 13e4 33bc
00000240: 98a1 a2bb 1824 133b f376 8cbc 56ce 94bb
00000250: 76c9 2cbc 2a29 73bc 3959 313c 90de cc3b
00000260: 4f91 02bc a9b7 37bc bf9b 223c a472 b7bb
00000270: 432f 37bc c20b 86bc 2344 7a3c 2d85 23bc
00000280: 7fe1 e0bb b7d4 81b9 c3a8 da3c 4341 54bc
00000290: 3c5a ae3c 86b6 20b9 f698 1bbb d0a2 683c
000002a0: 7b0d 0d3c 1797 353c 134b 073c c725 9abc
000002b0: 48f5 11bc 4442 a5bb c535 dc3b cac8 64bc
000002c0: 58a3 80bc a2be 3a3c cda1 5a3c f474 853b
000002d0: 3861 9f3b 82ad 583c ca31 5bbc 9f56 d6bb
000002e0: 61c6 ab3c c1b1 8dbc 75e8 74bc bbcc 67bc
000002f0: 38a2 d43b 1f0b b63c 0463 993b 25a0 d93c
00000300: 18ad d03b 9011 28ba a766 dcbb c1c0 09bc
00000310: 8d92 23ba 842a 053c 777b ceb9 1416 1b3b
00000320: 4d19 ebbb 32a3 613c 0b29 a6bc 08c5 fab9
00000330: 3558 e1b9 f4a1 873c 4f06 d93c d50a e6b9
00000340: 3b6d 393c 0a34 163c 1fc0 723c 0bf2 5bbc
00000350: 01e3 273c d6f6 1ebc ce43 bfba c5aa cebb
00000360: 8367 8d3a 60ab c03b d93b 24bc 9114 c9bb
00000370: 2f90 86bb e53f 40bc 9058 d73b e150 853c
00000380: cd9b 6dba fb7b 4b3b 17ac f5bc cc9c 95ba
00000390: 46e7 273c c3fe b23c 63a4 babb 3fa6 303c
000003a0: 6356 963b 3094 d13b 289c 793b df93 4c3c
000003b0: db07 fc3c a1da 273b 1d19 a2ba 6e52 30bb
000003c0: 036d 8a3c f56d 803c 5f9e 5bbc 362d 9cba
000003d0: 72bb ef3c d52c 283c 4b8f 08bc 83a9 7d3c
000003e0: c7a0 063c 6b57 413c 34b7 463b e541 7dbb
000003f0: 87ba a4bb 0314 95bb 92d3 28bc 28ae 593a
0.0052221785 0.022322385 0.0036015268 -0.017887736 -0.006816686 0.018202325 0.012033821 -0.007478457
0.010256118 0.030000065 0.014229655 -0.009010208 -0.0066489577 -0.0075200065 -0.009648213 0.012507006
-0.006145978 0.0053382902 -0.016274346 -0.0020836333 0.0041817487 -0.0067219413 0.005211964 -0.027066601
0.015410103 -0.0035059701 -0.007371844 0.0029352503 0.013453709 -0.030207643 -0.004747927 0.004980285
0.0068814964 -0.0028565926 -0.002200932 -0.0017346013 0.026284406 -0.006196979 -0.0072880588 -0.00032279087
-0.00023915291 -0.013120927 0.016549014 0.0015853189 -0.005304078 -0.0026219336 0.014272073 0.011709227
0.009766574 -0.007962073 -0.006243374 0.0033922715 -0.022486925 0.010454779 0.0019820954 -0.0028912
-0.007430035 0.010824775 -0.0055102054 -0.0049706833 0.0023440882 -0.01259915 0.010623868 0.011773871
-0.008614926 0.0123266075 -0.008836701 -0.010550059 -0.019292055 0.017272204 0.013088943 -0.0010828443
-0.013568777 0.012701509 0.01779289 -0.007398136 0.009345855 -0.021322934 -0.027326558 -0.017944686
0.00994487 0.0068733403 0.029029375 0.009797472 0.029827729 0.015141529 0.023855774 0.025100445
0.0051578637 0.0023196328 -0.00020140878 0.0060970853 -0.007678473 0.006667317 -0.011787975 -0.002029022
0.0075819395 0.010653541 0.010182319 0.015737513 0.00085500034 0.011413952 -0.0047257426 -0.01155864
0.011815861 0.0020401715 0.0023451746 -0.014025099 0.013292856 -0.0051629893 0.013799585 -0.020539757
0.023447772 -0.010539021 -0.009892677 -0.009895417 -0.005477573 0.0014461904 0.025737075 -0.015527941
0.014441303 0.003038691 0.0035391748 -0.006459349 -0.005087514 -0.005862011 0.0036434755 0.023272354
0.0033776693 0.0047425325 -0.008916663 0.0036648994 -0.003441823 0.014743772 -0.0008833026 -0.003554018
0.016689984 -0.01900353 -0.0105738705 -0.0018086747 -0.01340206 0.006754475 -0.01116865 -0.01097967
-0.004963111 0.0022451933 -0.017146563 -0.0045411987 -0.010546079 -0.014841357 0.010824495 0.0062521175
-0.007969215 -0.011213222 0.009924828 -0.005598383 -0.011180702 -0.016363028 0.015275034 -0.009980482
-0.0068628187 -0.00024763282 0.0266918 -0.012955013 0.021283261 -0.00015326784 -0.0023742295 0.014198974
0.008609171 0.011083386 0.008257645 -0.018816842 -0.008908577 -0.0050433 0.006720277 -0.0139638875
-0.015702888 0.0113979895 0.01334424 0.00407278 0.0048638843 0.013224961 -0.01337857 -0.0065410878
0.020968618 -0.017296674 -0.014948 -0.014147933 0.0064890645 0.0222221 0.004680993 0.02656562
0.0063682906 -0.00064113084 -0.0067261043 -0.0084077725 -0.00062397943 0.008127812 -0.0003938337 0.0023664283
-0.007174647 0.013771819 -0.020283243 -0.00047830516 -0.00042981064 0.016556717 0.026492266 -0.0004387709
0.0113175465 0.0091676805 0.014816313 -0.013424407 0.010246993 -0.009702405 -0.0014592351 -0.0063069784
0.0010788295 0.0058798045 -0.010024034 -0.006136485 -0.0041065435 -0.011733984 0.006571837 0.016273918
-0.00090640486 0.003104924 -0.029989285 -0.0011414527 0.010248011 0.021849995 -0.005695866 0.010781824
0.004587935 0.006395839 0.003808746 0.012486427 0.030765465 0.002561249 -0.0012367103 -0.00269046
0.016897684 0.015677432 -0.013404458 -0.0011915329 0.029264186 0.010264595 -0.008334945 0.015482309
0.008217043 0.011800627 0.00303216 -0.0038644013 -0.0050271186 -0.0045495047 -0.010304349 0.00083038444

action_model._continuous_distribution.mu.bias f4 [3]
00000000: 0000 0000 0000 0000 0000 0000
0.0 0.0 0.0

action_model._discrete_distribution.branches.0.weight f4 [1, 256]
00000000: f02b d53b 85fe f03b 37cc 563a e890 dfba
00000010: a82e 9e39 fbcd 2b3c f08b e3bb 269c c5bb
00000020: 92cf 79bb d878 2e3c 17ba b1bb e528 dabb
00000030: 92d7 0fbc 7218 68bb 02a2 fdbb 898c 023a
00000040: 42db eebb c403 8f3b 7f4a edbb c3e2 0cbb
00000050: f03f cabb 3246 3a39 37b2 c1b8 d817 36bc
00000060: ff62 16bc 3269 233b 508c 83ba 13a4 aebb
00000070: 1bde 943b 27ac 403a 66a3 9d3b ceea 8e3b
00000080: a31e 773c 74e6 023c 718f aeb9 7b9e c43a
00000090: 6329 86bc 52eb e23b ed4c da3b ab22 caba
000000a0: f8d2 a1ba 25d5 2a39 1b78 6dba 1fe6 623b
000000b0: 94d1 1cbb a2e1 e43b 3557 493b cbed 693c
000000c0: d73b 103c 08d6 933b 90cf aabb 577c a5b9
000000d0: a89a 123a db9d a53b 6b52 eaba 87b5 2f3b
000000e0: d79d 823b 9506 06bc c534 56b9 fc75 9bba
000000f0: 3a31 b8bb 3b4f ba3b 2564 093c 74d7 453b
00000100: 8585 133c cb20 563b 94c9 aebb 2cf1 2eb9
00000110: 5302 5e3a 07d3 04bb cf27 eabb 2a74 babb
00000120: 1a1c f13b e212 5a38 3d29 8d3a ebf5 4a3c
00000130: 6b66 9b3b 47d4 a8bb 6b19 4cbb 5017 4fbc
00000140: 2038 e9bb 702a 553b cd57 1839 2ccd 47bb
00000150: 2002 1a3b f8ca a6ba 3f65 403b 082a 73bc
00000160: b7f6 44ba 1fcb b73a 7ff2 043c 2fed 9f3b
00000170: 7b59 ed3a 9c2a 063b cd68 413b fc41 34bb
00000180: 5316 213b ffda 60bb 905a 5cbb 70b0 f73b
00000190: 9ab2 52bb 7f88 913b d825 d23b 82ad 5abb
000001a0: 2b4a ccbb ef68 92ba 6ae9 1abb 4b08 4cba
000001b0: b5f4 2bbb a716 c0bb bb73 8ebb 2fca d33a
000001c0: afbe 3abc 8e41 113b 785b 2bbc f0c4 0bbc
000001d0: 2577 533b e0cc cf3b 1885 693b c78b 063c
000001e0: cd89 2c3c 7438 b23b 2187 3a3c 5cfb 82b8
000001f0: 80d4 1c39 9b3c 29bb bbca 163c 6b8b f9bb
00000200: 1f9e 3ebc 7e50 2c3b c535 cf3b face af3b
00000210: d1aa 3fbb 9155 9f3a 1b63 5d3b 90b2 71bb
00000220: c307 d7bb 66d6 4bbb 0bc6 8d3b 3551 89bb
00000230: 96ff ae3b f391 90bb fa30 793b 6ca9 b43b
00000240: 685b bb3a cdd9 583c 4b52 053b 5063 99bb
00000250: d8bd 61bb 5fc3 0fbc cf07 ef3b c530 a33a
00000260: e2db 5e3b fe43 a8ba b352 86b9 77ff fd39
00000270: d3b8 e1b9 f8b2 16bc 7cf3 353c 0b05 663b
00000280: 48d7 0ebb 1514 8f3b f9d3 ba3b dad1 533b
00000290: 43a0 74bb faa2 79ba 722f eb3b 609f 043c
000002a0: a334 b0bb 8beb 8cbb fddc 3abb c85a 933a
000002b0: cb70 cbba 3bdc 033c 273e c53b 98d9 7f3b
000002c0: 2f9e 113c a4cf 303a 111d c339 658b f83a
000002d0: ca0f 52bc 7575 c5bb 57db 353c 2f38 a2bb
000002e0: 4f35 dfb9 95d5 d43b 4507 5fbb bf2c e43a
000002f0: 2721 993b 7c5f 843b d844 583b 6420 c73b
00000300: 7e41 8d3b eb79 833c a20b e53a ee74 ac39
00000310: f324 76bb 30a4 9eba 5f45 293b ce01 23bb
00000320: 8b06 993b 737a 213b c09e 69bb d685 05bc
00000330: 3046 013b 32c2 89ba 667b 46bc 52c7 ed3b
00000340: bb4d ab3a e207 e43b dbb4 c8bb 3f5d f93a
00000350: e375 7eba e0ca 0abc e537 97bb 4d94 283a
00000360: 6dbb 043c e73e 2fbc 0915 c93b 55fe 173b
00000370: f2f3 c3bb 0250 073c 8a76 4eba a0e2 603a
00000380: 29e4 363c 3d47 663b 07b0 d2ba bc93 8dbb
00000390: 52b0 3a3a e3d4 73bb 6f0b 4839 9ed4 a53b
000003a0: 2353 c8bb b8b8 c13a 7405 953a 67f2 ac3b
000003b0: bcbf bc3b c1ae 95bb 421a d73a c54e 293a
000003c0: a9d8 8a3b 0f81 96ba 56fe 163c 8d8d f4bb
000003d0: 8076 b3bb b710 b43b 8357 65ba 7ec9 343c
000003e0: 85cb 9a3b edbd f83a 5fe9 833c 97cd bd3b
000003f0: f5fa c83b 6e11 af3b 67bc 2a3c b360 d7ba
0.006505482 0.00735456 0.00081938825 -0.0017056735 0.0003017087 0.010486121 -0.006944172 -0.0060305772
-0.0038118106 0.010648929 -0.005423795 -0.006657707 -0.008779423 -0.0035414961 -0.00774026 0.0004980048
-0.007289321 0.0043644626 -0.0072415466 -0.0021497465 -0.0061721727 0.00017764492 -9.236152e-05 -0.011114083
-0.009178876 0.0024934527 -0.0010036323 -0.0053296178 0.0045430786 0.00073498714 0.0048107384 0.004361487
0.015082988 0.007989515 -0.00033294738 0.0015000844 -0.016377157 0.006925025 0.0066620023 -0.0015421709
-0.0012346199 0.00016291866 -0.00090587296 0.0034622026 -0.002392863 0.0069849053 0.0030722145 0.014277886
0.008803329 0.0045115985 -0.0052127317 -0.00031563893 0.00055925036 0.005054218 -0.0017877346 0.002681108
0.003986101 -0.00818028 -0.00020428289 -0.0011860724 -0.0056211026 0.0056857145 0.008385693 0.0030188235
0.0090040015 0.0032673355 -0.0053340886 -0.00016683777 0.0008468974 -0.0020267384 -0.007145859 -0.0056901174
0.0073580863 5.1992836e-05 0.0010769736 0.012387733 0.004742434 -0.0051522586 -0.003114308 -0.0126398355
-0.0071172863 0.0032526515 0.00014528558 -0.0030487282 0.0023499802 -0.0012725284 0.0029357222 -0.014841564
-0.000751357 0.0014022327 0.008114456 0.0048805694 0.0018108332 0.0020472175 0.002951193 -0.002750515
0.0024579957 -0.003431022 -0.0033623315 0.007558875 -0.0032149912 0.0044413204 0.0064132027 -0.003336758
-0.0062344274 -0.0011170189 -0.002363766 -0.0007783218 -0.0026238386 -0.0058620754 -0.0043472922 0.0016158278
-0.011398002 0.0022164318 -0.01045882 -0.00853084 0.003226706 0.0063415617 0.0035632309 0.008212036
0.010530901 0.0054388586 0.011384756 -6.2457024e-05 0.00014956482 -0.0025823477 0.009203608 -0.007615497
-0.011634379 0.0026293094 0.0063235485 0.0053652497 -0.0029246102 0.0012156238 0.0033780995 -0.0036880113
-0.0065622046 -0.0031103133 0.004326587 -0.004190589 0.005340527 -0.0044119298 0.0038023577 0.0055133607
0.0014294209 0.0132355215 0.002034324 -0.0046810284 -0.003444543 -0.008774607 0.007294632 0.0012450448
0.0034005572 -0.0012837646 -0.00025620087 0.00048446257 -0.0004305305 -0.009197943 0.0111054145 0.003509822
-0.0021795798 0.0043664076 0.0057015386 0.0032321126 -0.0037326969 -0.00095228816 0.007177287 0.008094639
-0.0053773685 -0.00430054 -0.0028513067 0.0011242265 -0.0015521286 0.0080481125 0.006019372 0.0039039608
0.008887812 0.0006744808 0.00037214955 0.0018962441 -0.012821147 -0.006025965 0.011099658 -0.0049505453
-0.00042573593 0.0064951875 -0.0034031433 0.0017408355 0.0046731415 0.004039703 0.0033000018 0.0060768593
0.004310786 0.016049346 0.001747478 0.00032893516 -0.0037558645 -0.0012103375 0.0025828702 -0.0024872902
0.0046699694 0.0024639636 -0.00356476 -0.008149585 0.0019725673 -0.0010510145 -0.012114381 0.007256427
0.001306943 0.0069589475 -0.0061250753 0.0019024982 -0.00097068975 -0.008471221 -0.0046148174 0.000643079
0.008101326 -0.010696149 0.006136541 0.0023192365 -0.0059800083 0.008258821 -0.000787594 0.00085786916
0.011162796 0.0035137676 -0.0016074189 -0.00432059 0.00071216107 -0.0037205748 0.00019077746 0.0050607463
-0.0061134263 0.0014779782 0.0011369423 0.00527792 0.005760161 -0.0045679514 0.0016411024 0.0006458576
0.0042372537 -0.0011482554 0.009215912 -0.007463163 -0.005476773 0.0054951566 -0.0008748697 0.011034368
0.0047239684 0.0018977501 0.016102491 0.0057923305 0.006133432 0.005342654 0.010420895 -0.0016432017

network_body.observation_encoder.processors.0.normalizer.running_mean f4 [36]
00000000: a349 bd3e 0000 0000 0757 213f b1c9 6e3f
00000010: 9e0d 0b3f 0000 0000 53dc e93e 1398 4b3f
00000020: 3b29 433f 0000 0000 5f4a 733e 6256 3f3f
00000030: 9d65 713f 0000 0000 fc5e 693d 03d4 d83e
00000040: 58d4 6c3f 0000 0000 333b 993d e733 ee3e
00000050: 1df6 7f3f 0000 0000 0000 0000 1955 8c3e
00000060: 1df6 7f3f 0000 0000 0000 0000 fbdd 973e
00000070: 1df6 7f3f 0000 0000 0000 0000 7227 6d3e
00000080: 1df6 7f3f 0000 0000 0000 0000 01da 7f3e
0.36970243 0.0 0.6302342 0.93276507 0.54317653 0.0 0.45675907 0.7952892
0.7623479 0.0 0.23758839 0.74741185 0.94295675 0.0 0.05697535 0.42349252
0.9251151 0.0 0.074819945 0.46523973 0.99984914 0.0 0.0 0.27408674
0.99984914 0.0 0.0 0.29661545 0.99984914 0.0 0.0 0.23159578
0.99984914 0.0 0.0 0.24985506

network_body.observation_encoder.processors.0.normalizer.running_variance f4 [36]
00000000: ad95 6445 0000 803f d499 6445 7a10 2043
00000010: f367 7345 0000 803f 8d66 7345 1e15 3244
00000020: c1bc 3145 0000 803f 59b4 3145 ff0e 0044
00000030: 9e3c 5344 0000 803f 2c04 5344 29a2 ae43
00000040: d000 8844 0000 803f 0ee6 8744 8a59 e343
00000050: 5ffb ff3f 0000 803f 0000 803f 811d 7741
00000060: 5ffb ff3f 0000 803f 0000 803f 6dab 4a41
00000070: 5ffb ff3f 0000 803f 0000 803f f5c9 4c41
00000080: 5ffb ff3f 0000 803f 0000 803f ba20 0f41
3657.3547 1.0 3657.6143 160.06436 3894.4968 1.0 3894.4094 712.32996
2843.797 1.0 2843.2717 512.2343 844.94714 1.0 844.0652 349.26688
1088.0254 1.0 1087.1892 454.69952 1.9998587 1.0 1.0 15.444703
1.9998587 1.0 1.0 12.666852 1.9998587 1.0 1.0 12.799306
1.9998587 1.0 1.0 8.94549

network_body.observation_encoder.processors.1.normalizer.running_mean f4 [7]
00000000: 17a8 eb3c 5773 f93c 27c5 4c3e a7ca 1741
00000010: acd3 9237 4cab 1037 d301 2e3b
0.028766675 0.030450506 0.19997083 9.486976 1.7503124e-05 8.622952e-06 0.002655138

network_body.observation_encoder.processors.1.normalizer.running_variance f4 [7]
00000000: 1324 b945 6fb6 a343 8248 0946 43f6 8948
00000010: c595 823f 6407 803f 8476 6640
5924.5093 327.42526 8786.127 282546.1 1.0201956 1.0002255 3.6009836

network_body.processors.0.normalizer.running_mean f4 [36]
00000000: a349 bd3e 0000 0000 0757 213f b1c9 6e3f
00000010: 9e0d 0b3f 0000 0000 53dc e93e 1398 4b3f
00000020: 3b29 433f 0000 0000 5f4a 733e 6256 3f3f
00000030: 9d65 713f 0000 0000 fc5e 693d 03d4 d83e
00000040: 58d4 6c3f 0000 0000 333b 993d e733 ee3e
00000050: 1df6 7f3f 0000 0000 0000 0000 1955 8c3e
00000060: 1df6 7f3f 0000 0000 0000 0000 fbdd 973e
00000070: 1df6 7f3f 0000 0000 0000 0000 7227 6d3e
00000080: 1df6 7f3f 0000 0000 0000 0000 01da 7f3e
0.36970243 0.0 0.6302342 0.93276507 0.54317653 0.0 0.45675907 0.7952892
0.7623479 0.0 0.23758839 0.74741185 0.94295675 0.0 0.05697535 0.42349252
0.9251151 0.0 0.074819945 0.46523973 0.99984914 0.0 0.0 0.27408674
0.99984914 0.0 0.0 0.29661545 0.99984914 0.0 0.0 0.23159578
0.99984914 0.0 0.0 0.24985506

network_body.processors.0.normalizer.running_variance f4 [36]
00000000: ad95 6445 0000 803f d499 6445 7a10 2043
00000010: f367 7345 0000 803f 8d66 7345 1e15 3244
00000020: c1bc 3145 0000 803f 59b4 3145 ff0e 0044
00000030: 9e3c 5344 0000 803f 2c04 5344 29a2 ae43
00000040: d000 8844 0000 803f 0ee6 8744 8a59 e343
00000050: 5ffb ff3f 0000 803f 0000 803f 811d 7741
00000060: 5ffb ff3f 0000 803f 0000 803f 6dab 4a41
00000070: 5ffb ff3f 0000 803f 0000 803f f5c9 4c41
00000080: 5ffb ff3f 0000 803f 0000 803f ba20 0f41
3657.3547 1.0 3657.6143 160.06436 3894.4968 1.0 3894.4094 712.32996
2843.797 1.0 2843.2717 512.2343 844.94714 1.0 844.0652 349.26688
1088.0254 1.0 1087.1892 454.69952 1.9998587 1.0 1.0 15.444703
1.9998587 1.0 1.0 12.666852 1.9998587 1.0 1.0 12.799306
1.9998587 1.0 1.0 8.94549

network_body.processors.1.normalizer.running_mean f4 [7]
00000000: 17a8 eb3c 5773 f93c 27c5 4c3e a7ca 1741
00000010: acd3 9237 4cab 1037 d301 2e3b
0.028766675 0.030450506 0.19997083 9.486976 1.7503124e-05 8.622952e-06 0.002655138

network_body.processors.1.normalizer.running_variance f4 [7]
00000000: 1324 b945 6fb6 a343 8248 0946 43f6 8948
00000010: c595 823f 6407 803f 8476 6640
5924.5093 327.42526 8786.127 282546.1 1.0201956 1.0002255 3.6009836

network_body._body_endoder.seq_layers.0.weight f4 [256, 43]
00000000: 87ba 5c3e 65e9 2dbe be78 1c3e d6e0 143e
00000010: 3c0f 413e 86ee a73c cd60 89bd 437d 63bc
00000020: 2b43 723d 9b56 9dbe 7225 a43d 761a 2c3e
00000030: 1cf7 93bd d713 d9bd e4c1 cb3b 261f 1f3b
00000040: d7f9 68be 24ad 7aba 4689 3cbd 3026 81bc
00000050: 85ce cabd 77f5 903b dc3f 37be 7660 803e
00000060: 83ec 783e d52c 173e 2088 d7bc 3657 b3be
00000070: e840 c2be bb84 41be 63ab 843e d854 3fbe
00000080: 12f8 adbd f457 1b3c 3eea a13c e860 5abd
00000090: 4076 03bd 6f6e b3be c294 713d 07a2 5d3d
000000a0: aa86 023e d846 673e 249d 56bd bbd7 b4bd
000000b0: f3bd 543e 4c58 203e 1473 893e 750b 743e
000000c0: c22f 4d3d 9431 533e a214 833d a061 1bbe
000000d0: 30df e0bd ca7b 86be 1217 b33d 529b 94bc
000000e0: 5f6c 14be 6b78 d7bd 65a4 27be 1ca2 2cbe
000000f0: 8be2 e2bd 7fe7 2ebc 21dc 043e dae2 233d
00000100: eef3 4ebd 10d5 143d 84a3 7ebe be9f 3f3d
00000110: 284e 44be 6f45 613e ced4 13be c131 b33d
00000120: 6652 533d cc17 413e a321 3a3e 63d1 38be
00000130: 7d81 183e 644e 083e b29b 773d f697 003e
00000140: 2ac4 0c3e f7e8 503e b52c 0d3e 396a 89be
00000150: 3cb1 4c3e 5ded 713b c51c cc3c a4fd 4bbd
00000160: dea6 dabc 1e11 1a3e 98d7 753e 41d2 5c3c
00000170: 9980 ad3d aa07 94bc f5d9 cb3c bb58 bb3a
00000180: c5b5 353d 45c6 86bd 5984 68be a7d5 6bbd
00000190: bd74 66be 9dad 7e3d 44c3 dabd 50ff 90bc
000001a0: 4d40 1fbd 1050 20bd 3368 dbbd 1067 353e
000001b0: 8064 b63d 172f e63d 6521 143e 04ef 81bd
000001c0: b22f 023e 1b49 833e b89e 40bd e6fd 6ebd
000001d0: ec79 933e 6f9b 60bd 169e f23d fd67 2ebe
000001e0: 6b04 353e 0189 943b fec0 1e3d ff54 b4bd
000001f0: 5cdf 403e 76c2 173d 8981 b63e 94d7 b43e
00000200: 0292 c1bc 52dd 1bbe e0c6 79be edf3 9abe
00000210: ac9f 9dbd 29e2 59be 9515 42bd 670f 88bd
00000220: 5e78 b8bd 8205 0dbe 5c17 1fbe 4fb7 60be
00000230: ecff 083e 6a63 1dbe 2687 383e 58e3 b63c
00000240: f4e6 8cbe 471e ba3d aefb 15bd 01e2 003d
00000250: 672d 96bd e8a2 5dbd 7514 3fbd c4fc b83d
00000260: 706b 2b3e 5316 dbbd f3be 103e 601c e93c
00000270: ded2 41be 0064 0cbe c48b 06bd 855b 7dbe
00000280: d897 3bbd d77d b43c 828b 8e3e 6b21 d4bc
00000290: dda3 2abe b479 09be 17d6 f33d 5e97 27bd
000002a0: e1dd ad3e c55a 273d 87cf 0a3e ad9b 4e3e
000002b0: 86bf a13e abc0 873e 8953 ff3d 2e21 51be
000002c0: c686 bdbc b187 643e bb26 4fbe b141 1ebd
000002d0: fd93 6a3e d093 8dbd 81aa acbe d43f 11bc
000002e0: b24c 2a3e 2c68 df3d 28d6 4bbe 27bd a2be
000002f0: 6133 b4bc 69c1 353e 37b5 0abe 4b36 b7bd
00000300: 4087 64be 7efc 513e b994 c63d 6c56 36be
00000310: 7cd0 1abe 9b18 1d3e df4a 1d3d c2ba 37be
00000320: 712e d9bd ab5d 91bd c9f5 563e d071 4a3e
00000330: b50b be3e 7b44 5f3d c4c5 753d 4a93 a13d
00000340: d4dc 9f3d 84fc 803e 461e 233c 3a3d 0cbe
00000350: d08a 4d3e 9c60 6e3d 37ce 773e ca43 c5be
00000360: 6c41 ebbd 0fbd 80bc f6cb 6dbe 0db2 02be
00000370: 59ab 1fbe ade2 033e 39a6 9dbd ce9a 89bd
00000380: 9fd3 c8bd 8b28 74bd 576d 483e 2ac3 03bc
00000390: c373 adbd 9357 f63d 1962 f53d ac0b 013e
000003a0: 2048 033e 761c 333d 47da 46be 30d8 8abe
000003b0: 4bbc ce3b 44f6 6ebe 25a8 bb3d eed1 cf3e
000003c0: 7133 de3c 34c8 7bbc 7db9 11be 2625 eb3c
000003d0: 43c5 c63d b1c7 893d 83fa 0a3e 4277 41be
000003e0: 9e81 1fbe 0257 9cbd 7a20 c1bd 451b 04be
000003f0: 50a8 273d bed3 933e 2110 cd3e d3fb 38be
0.2155553 -0.16983564 0.15280434 0.14538893 0.18853468 0.020499479 -0.067079164 -0.013884845
0.059146088 -0.30730137 0.080149546 0.16806969 -0.07224867 -0.10599487 0.006218182 0.002428004
-0.22751556 -0.0009562543 -0.04602935 -0.01576528 -0.09902672 0.004423793 -0.17895454 0.25073594
0.24308972 0.14763196 -0.026310027 -0.35027474 -0.37940145 -0.18898289 0.25912008 -0.18684709
-0.08494581 0.009481419 0.019765016 -0.053315073 -0.032095194 -0.35045192 0.058979757 0.0541096
0.12746683 0.22585618 -0.052395955 -0.0883021 0.20775585 0.15658683 0.2684561 0.23832496
0.050094374 0.20624381 0.0640042 -0.1517396 -0.1098007 -0.2626632 0.08744635 -0.018140469
-0.14494465 -0.10521015 -0.16371305 -0.16858715 -0.11078366 -0.01067531 0.12974598 0.040011264
-0.0505256 0.036336005 -0.24867064 0.0467832 -0.19170439 0.21999143 -0.14436647 0.08749724
0.051592253 0.18856734 0.18176894 -0.18048625 0.14893146 0.13311154 0.060451217 0.12557968
0.13746706 0.20401369 0.13786586 -0.26838854 0.19989485 0.0036915161 0.024916062 -0.049802437
-0.026690897 0.15045592 0.24008024 0.013477863 0.08471794 -0.01807006 0.024884203 0.0014293412
0.044362802 -0.06580786 -0.22706737 -0.0575768 -0.2250547 0.06217729 -0.10681775 -0.017699867
-0.03887968 -0.039138854 -0.10713234 0.17715096 0.089058876 0.112394504 0.14465864 -0.06344417
0.12713507 0.25641713 -0.047026366 -0.058347605 0.28803957 -0.054835733 0.11846559 -0.17031856
0.17677467 0.0045329337 0.03875827 -0.08805274 0.18835205 0.037050687 0.35645702 0.35320723
-0.023629192 -0.15221146 -0.24392271 -0.30264226 -0.076964706 -0.2127768 -0.047383863 -0.06643563
-0.09007333 -0.13771632 -0.15536255 -0.21944927 0.13378876 -0.15369955 0.18020305 0.022325203
-0.27519953 0.09087806 -0.036616974 0.031465534 -0.073328786 -0.054110438 -0.04665037 0.09032586
0.16740203 -0.106976174 0.14135341 0.028455913 -0.18928096 -0.13710022 -0.032848135 -0.24741943
-0.045799106 0.022032661 0.2784081 -0.025894841 -0.16664071 -0.13425332 0.11906069 -0.04091584
0.33958343 0.04085805 0.13555728 0.20176573 0.31591433 0.26514181 0.12467105 -0.20422813
-0.023135554 0.22317387 -0.20229618 -0.038636867 0.22908016 -0.069129586 -0.33723834 -0.0088653155
0.1663082 0.10908541 -0.19905913 -0.31784937 -0.021997156 0.17749561 -0.1354569 -0.089459024
-0.22317219 0.20506474 0.09696335 -0.17806405 -0.15118593 0.15341417 0.03840148 -0.17942336
-0.10604561 -0.07097944 0.20992197 0.19769979 0.37118307 0.054508667 0.060003057 0.07889421
0.078057915 0.25192654 0.009955948 -0.13695231 0.20072484 0.058197603 0.24199758 -0.3852828
-0.114870876 -0.01571515 -0.23222336 -0.12763233 -0.15592708 0.12879439 -0.0769772 -0.0671898
-0.098059885 -0.059608977 0.1957296 -0.008042136 -0.084693454 0.12028422 0.11981601 0.12602109
0.12820482 0.043728314 -0.19419204 -0.27118063 0.0063090674 -0.2333613 0.091629304 0.4058985
0.027124139 -0.015367556 -0.14230914 0.028704237 0.097055934 0.06727541 0.13572125 -0.1889315
-0.15576789 -0.07633783 -0.094300225 -0.12901028 0.040932 0.28872484 0.40051368 -0.18064813
