results/ppo/RedCar/RedCar-902877.pt (torch, 704337 bytes, 28 tensors)

network_body.observation_encoder.processors.0.normalizer.running_mean f4 [68]
000000 79 ec 0d 3f 8d 8b ba 3b c6 3c e1 3e 77 26 4d 3f
       0.55438954 0.0056929053 0.4399168 0.8013682
000010 06 23 01 3f d5 83 9b 3b 87 4b fb 3e 9d f0 54 3f
       0.50444067 0.00474594 0.4908106 0.83179647
000020 65 0e 35 3f 7e 76 a3 3b e5 54 93 3e 16 df 35 3f
       0.7072509 0.0049884906 0.28775707 0.7104353
000030 dd 3a 11 3f 47 a1 85 3b 75 73 db 3e ef c6 4b 3f
       0.56730443 0.0040780636 0.42861524 0.79600424
000040 de a3 51 3f d3 01 9b 3b 2a 98 34 3e 32 f1 15 3f
       0.81890666 0.004730442 0.17636171 0.5857116
000050 9d a2 32 3f 97 fd 99 3b 4b 52 98 3e 58 d4 34 3f
       0.6977938 0.0046994197 0.29750285 0.7063651
000060 bc fe 5f 3f f0 ed 93 3b 4d c9 f6 3d 21 f3 f2 3e
       0.8749807 0.0045144483 0.12050114 0.47451118
000070 1d b0 4b 3f 69 2c ac 3b 9e dc 4b 3e 9f 48 16 3f
       0.795656 0.0052543175 0.19908378 0.5870456
000080 28 fd 6a 3f 3f d0 58 3b 0c 50 a1 3d 9a e8 c3 3e
       0.91792536 0.0033083109 0.07876596 0.38263398
000090 05 a9 5e 3f 7e 9c 98 3b ea 95 00 3e e5 f7 f3 3e
       0.86976653 0.004657327 0.12557188 0.47650066
0000a0 d7 8a 75 3f f1 03 58 3b 89 d1 19 3d 01 76 9c 3e
       0.9591498 0.0032961334 0.037553344 0.3055878
0000b0 32 c0 6f 3f e3 2a 93 3b 5f 96 71 3d af 2c c5 3e
       0.9365264 0.0044911965 0.058981296 0.38510653
0000c0 de f6 7b 3f 90 75 66 3b 8c a0 48 3c 28 ef 81 3e
       0.98423564 0.0035165288 0.012245309 0.25377774
0000d0 9e 47 79 3f 7e 09 82 3b 18 84 b6 3c 22 ac a6 3e
       0.97374904 0.0039684167 0.022279784 0.32553202
0000e0 87 92 7d 3f 51 8c af 3b d4 71 87 3b 98 9e 65 3e
       0.9905171 0.005357303 0.0041334424 0.2242378
0000f0 df de 7c 3f ba 05 93 3b 5f 5c fd 3b fa 43 95 3e
       0.98777574 0.0044867666 0.0077319588 0.29153425
000100 b4 4e 7d 3f 41 c6 0f 3c 8d 14 e5 3a c0 ec 53 3e
       0.98948216 0.008775295 0.0017477438 0.20695782

network_body.observation_encoder.processors.0.normalizer.running_variance f4 [68]
000000 28 d3 59 48 41 bf 9f 45 37 3e 59 48 6a e0 3f 47
       223052.62 5111.9067 222456.86 49120.414
000010 a1 69 5c 48 62 4e 85 45 cd 5b 5c 48 81 81 2c 47
       225702.52 4265.798 225647.2 44161.504
000020 a2 8e 36 48 95 13 8c 45 33 b5 34 48 59 0f 67 47
       186938.53 4482.4478 185044.8 59151.348
000030 ee 6f 58 48 26 3f 65 45 69 f0 57 48 b0 28 47 47
       221631.72 3667.9468 221121.64 50984.688
000040 e3 c1 02 48 f8 dd 84 45 bf 13 00 48 78 3b 7b 47
       133895.55 4251.746 131150.98 64315.47
000050 b7 ef 39 48 a8 00 84 45 26 46 38 48 6b 2f 6b 47
       190398.86 4224.082 188696.6 60207.418
000060 59 e6 c0 47 91 a9 7d 45 7d e4 ba 47 8d 5b 68 47
       98764.695 4058.598 95688.98 59483.55
000070 36 5b 0f 48 1a 81 93 45 f4 96 0c 48 ee 0f 72 47
       146796.84 4720.1377 143963.81 61967.93
000080 4b db 84 47 d7 21 3a 45 96 eb 7f 47 fc 6b 39 47
       68022.586 2978.115 65515.586 47467.984
000090 c8 be c7 47 a0 d3 82 45 9d a1 c1 47 f6 a6 4a 47
       102269.56 4186.453 99139.23 51878.96
0000a0 29 31 0a 47 de 72 39 45 7b f3 fe 46 38 79 df 46
       35377.16 2967.1792 32633.74 28604.61
0000b0 44 a8 51 47 7d 5b 7c 45 d6 c0 43 47 af 6a 02 47
       53672.266 4037.718 50112.836 33386.684
0000c0 8c e2 5a 46 b2 cc 45 45 a2 a6 2a 46 e0 a9 66 46
       14008.637 3164.7935 10921.658 14762.469
0000d0 c5 4d b4 46 49 1b 5f 45 ab a9 99 46 dd 5f 93 46
       23078.885 3569.7053 19668.834 18863.932
0000e0 aa a5 04 46 f1 60 96 45 42 59 68 45 9f 1c 0a 46
       8489.416 4812.1177 3717.5786 8839.155
0000f0 95 4c 2a 46 f0 1b 7c 45 73 80 d8 45 67 21 34 46
       10899.1455 4033.746 6928.056 11528.351
000100 98 ec 12 46 38 74 f5 45 2d 07 c5 44 d8 51 c9 45
       9403.148 7854.5273 1576.2242 6442.2305

network_body.observation_encoder.processors.1.normalizer.running_mean f4 [8]
000000 db c1 bb 3d 9d 0c ba 3d d9 82 9f 3e ec 48 a3 3c
       0.09167834 0.09084437 0.31154516 0.019932233
000010 76 2e 34 b9 f8 45 00 3e ba a2 38 40 d9 82 9f 3e
       -0.00017183446 0.12526691 2.884932 0.31154516

network_body.observation_encoder.processors.1.normalizer.running_variance f4 [8]
000000 73 4d 9e 48 88 4e c9 46 7a d7 db 48 cb ec bd 42
       324203.6 25767.266 450235.8 94.96249
000010 8d 2c 02 41 14 f9 5a 47 63 0f 43 4a 7a d7 db 48
       8.135877 56057.08 3.1958648e+06 450235.8

network_body.processors.0.normalizer.running_mean f4 [68]
000000 79 ec 0d 3f 8d 8b ba 3b c6 3c e1 3e 77 26 4d 3f
       0.55438954 0.0056929053 0.4399168 0.8013682
000010 06 23 01 3f d5 83 9b 3b 87 4b fb 3e 9d f0 54 3f
       0.50444067 0.00474594 0.4908106 0.83179647
000020 65 0e 35 3f 7e 76 a3 3b e5 54 93 3e 16 df 35 3f
       0.7072509 0.0049884906 0.28775707 0.7104353
000030 dd 3a 11 3f 47 a1 85 3b 75 73 db 3e ef c6 4b 3f
       0.56730443 0.0040780636 0.42861524 0.79600424
000040 de a3 51 3f d3 01 9b 3b 2a 98 34 3e 32 f1 15 3f
       0.81890666 0.004730442 0.17636171 0.5857116
000050 9d a2 32 3f 97 fd 99 3b 4b 52 98 3e 58 d4 34 3f
       0.6977938 0.0046994197 0.29750285 0.7063651
000060 bc fe 5f 3f f0 ed 93 3b 4d c9 f6 3d 21 f3 f2 3e
       0.8749807 0.0045144483 0.12050114 0.47451118
000070 1d b0 4b 3f 69 2c ac 3b 9e dc 4b 3e 9f 48 16 3f
       0.795656 0.0052543175 0.19908378 0.5870456
000080 28 fd 6a 3f 3f d0 58 3b 0c 50 a1 3d 9a e8 c3 3e
       0.91792536 0.0033083109 0.07876596 0.38263398
000090 05 a9 5e 3f 7e 9c 98 3b ea 95 00 3e e5 f7 f3 3e
       0.86976653 0.004657327 0.12557188 0.47650066
0000a0 d7 8a 75 3f f1 03 58 3b 89 d1 19 3d 01 76 9c 3e
       0.9591498 0.0032961334 0.037553344 0.3055878
0000b0 32 c0 6f 3f e3 2a 93 3b 5f 96 71 3d af 2c c5 3e
       0.9365264 0.0044911965 0.058981296 0.38510653
0000c0 de f6 7b 3f 90 75 66 3b 8c a0 48 3c 28 ef 81 3e
       0.98423564 0.0035165288 0.012245309 0.25377774
0000d0 9e 47 79 3f 7e 09 82 3b 18 84 b6 3c 22 ac a6 3e
       0.97374904 0.0039684167 0.022279784 0.32553202
0000e0 87 92 7d 3f 51 8c af 3b d4 71 87 3b 98 9e 65 3e
       0.9905171 0.005357303 0.0041334424 0.2242378
0000f0 df de 7c 3f ba 05 93 3b 5f 5c fd 3b fa 43 95 3e
       0.98777574 0.0044867666 0.0077319588 0.29153425
000100 b4 4e 7d 3f 41 c6 0f 3c 8d 14 e5 3a c0 ec 53 3e
       0.98948216 0.008775295 0.0017477438 0.20695782

network_body.processors.0.normalizer.running_variance f4 [68]
000000 28 d3 59 48 41 bf 9f 45 37 3e 59 48 6a e0 3f 47
       223052.62 5111.9067 222456.86 49120.414
000010 a1 69 5c 48 62 4e 85 45 cd 5b 5c 48 81 81 2c 47
       225702.52 4265.798 225647.2 44161.504
000020 a2 8e 36 48 95 13 8c 45 33 b5 34 48 59 0f 67 47
       186938.53 4482.4478 185044.8 59151.348
000030 ee 6f 58 48 26 3f 65 45 69 f0 57 48 b0 28 47 47
       221631.72 3667.9468 221121.64 50984.688
000040 e3 c1 02 48 f8 dd 84 45 bf 13 00 48 78 3b 7b 47
       133895.55 4251.746 131150.98 64315.47
000050 b7 ef 39 48 a8 00 84 45 26 46 38 48 6b 2f 6b 47
       190398.86 4224.082 188696.6 60207.418
000060 59 e6 c0 47 91 a9 7d 45 7d e4 ba 47 8d 5b 68 47
       98764.695 4058.598 95688.98 59483.55
000070 36 5b 0f 48 1a 81 93 45 f4 96 0c 48 ee 0f 72 47
       146796.84 4720.1377 143963.81 61967.93
000080 4b db 84 47 d7 21 3a 45 96 eb 7f 47 fc 6b 39 47
       68022.586 2978.115 65515.586 47467.984
000090 c8 be c7 47 a0 d3 82 45 9d a1 c1 47 f6 a6 4a 47
       102269.56 4186.453 99139.23 51878.96
0000a0 29 31 0a 47 de 72 39 45 7b f3 fe 46 38 79 df 46
       35377.16 2967.1792 32633.74 28604.61
0000b0 44 a8 51 47 7d 5b 7c 45 d6 c0 43 47 af 6a 02 47
       53672.266 4037.718 50112.836 33386.684
0000c0 8c e2 5a 46 b2 cc 45 45 a2 a6 2a 46 e0 a9 66 46
       14008.637 3164.7935 10921.658 14762.469
0000d0 c5 4d b4 46 49 1b 5f 45 ab a9 99 46 dd 5f 93 46
       23078.885 3569.7053 19668.834 18863.932
0000e0 aa a5 04 46 f1 60 96 45 42 59 68 45 9f 1c 0a 46
       8489.416 4812.1177 3717.5786 8839.155
0000f0 95 4c 2a 46 f0 1b 7c 45 73 80 d8 45 67 21 34 46
       10899.1455 4033.746 6928.056 11528.351
000100 98 ec 12 46 38 74 f5 45 2d 07 c5 44 d8 51 c9 45
       9403.148 7854.5273 1576.2242 6442.2305

network_body.processors.1.normalizer.running_mean f4 [8]
000000 db c1 bb 3d 9d 0c ba 3d d9 82 9f 3e ec 48 a3 3c
       0.09167834 0.09084437 0.31154516 0.019932233
000010 76 2e 34 b9 f8 45 00 3e ba a2 38 40 d9 82 9f 3e
       -0.00017183446 0.12526691 2.884932 0.31154516

network_body.processors.1.normalizer.running_variance f4 [8]
000000 73 4d 9e 48 88 4e c9 46 7a d7 db 48 cb ec bd 42
       324203.6 25767.266 450235.8 94.96249
000010 8d 2c 02 41 14 f9 5a 47 63 0f 43 4a 7a d7 db 48
       8.135877 56057.08 3.1958648e+06 450235.8

network_body._body_endoder.seq_layers.0.weight f4 [256, 76]
000000 00 db 05 bc 31 c2 85 3a 46 42 8b 3d e0 ea 60 3c
       -0.008169889 0.0010204968 0.0679975 0.013727874
000010 5e 0a 44 3d 3a 33 4c be b4 ba 73 bc 98 4a a0 3d
       0.04786145 -0.19941416 -0.014876056 0.07826728
000020 67 bf 0e be 4e f4 7b bc 10 fa 9e 3d e1 47 96 3d
       -0.13940202 -0.015378071 0.077625394 0.073379286
000030 7e 1d 42 bd 3b ad 46 bd a5 a9 01 3e 4b 72 76 3c
       -0.047391407 -0.04850505 0.1266237 0.015041898
000040 e4 3c 32 3d 3b 65 16 3e a4 68 9a bc 71 f1 6a bb
       0.0435151 0.14687054 -0.018848725 -0.0035849477
000050 72 2a f1 3d 55 3b 38 bc 3d 3c 36 bd 17 40 85 be
       0.11775674 -0.011244615 -0.04449104 -0.2602546
000060 6f 90 1c 3c 09 21 9c 3b 72 b8 84 bd e8 42 72 3d
       0.00955592 0.0047646803 -0.06480493 0.059145838
000070 dc 4a ef bc 03 15 1a 3e d8 0f a3 bd 42 4c c6 3b
       -0.0292105 0.15047078 -0.07962006 0.006051571
000080 92 f3 96 3c 84 9f 14 bd 5e 8d b1 bd 7b 6e e9 bd
       0.01842669 -0.03628494 -0.08669542 -0.113980256
000090 ab 03 ac 3d 1d c7 b4 bd 39 8a 65 3e eb 1d 8b bd
       0.08399137 -0.0882704 0.22416009 -0.06792816
0000a0 86 68 e0 bd 5c 09 a4 bd 55 e1 eb bd fc 9e 8d 3d
       -0.10957436 -0.08009598 -0.11517588 0.069150895
0000b0 0c 14 04 3c 77 07 23 be 08 ff 8b 3d 47 0e 7f bd
       0.00806142 -0.15920816 0.06835753 -0.062269475
0000c0 43 63 d2 3d 9c 00 a9 3d 31 df 8e 3d c0 0f 38 bd
       0.10272839 0.08252069 0.06976164 -0.044936895
0000d0 ff 6f 0d 3e 57 7b 10 3e 04 f3 6d bd 66 99 9c bc
       0.13812254 0.1410955 -0.058093086 -0.019116115
0000e0 c6 3d fc 3c 45 42 35 bd e1 f0 51 bd d0 d8 78 be
       0.030791175 -0.044252653 -0.05125511 -0.24301457
0000f0 60 13 94 3d 8a 35 ef 3c 20 30 b3 3d d5 65 68 bd
       0.07230258 0.029200334 0.087494135 -0.05673774
000100 58 54 a9 bd b9 89 23 3e 76 19 13 be a0 2a cb bd
       -0.082680404 0.15970506 -0.14365181 -0.099202394
000110 0b bc 5f 3c 03 bc 93 bd ae 08 ef bc b1 ef f5 bc
       0.013655673 -0.07213595 -0.029178943 -0.03002152
000120 2f 4c 11 bc c8 ab e1 bd 12 d9 b5 b9 26 1f cd bd
       -0.008868261 -0.11019093 -0.0003468474 -0.10015707
000130 a7 bc b0 bd 22 22 30 3e 32 5f 0e 3d 2b 9e c7 bd
       -0.086297326 0.1720052 0.034758754 -0.09746965
000140 d8 54 89 be 44 97 6c 3d 41 3e 53 3c 24 09 28 3e
       -0.26822543 0.057761446 0.01289326 0.16409737
000150 d2 fe c6 3d 16 fb 07 be 6b 93 16 bd 7e 73 44 bd
       0.09716572 -0.13279375 -0.036761682 -0.047961704
000160 2d 6f 03 3c fe 3b 36 bd 74 5f 0a 3e ea ce 20 be
       0.008022112 -0.044490807 0.13512975 -0.15703931
000170 6f 4b 94 3d 4a e5 ff 3d 5b 70 dd 3d c4 1b 83 3d
       0.0724095 0.12494905 0.10812446 0.0640178
000180 da ec 42 3a 11 30 ad 3d 7d 0c 22 3e 21 4d b1 bc
       0.00074358063 0.084564336 0.15825076 -0.021643223
000190 ad f3 25 3d 84 25 d5 bc 79 43 ce 3c 08 ed 06 be
       0.04051559 -0.026018865 0.025178658 -0.13176358
0001a0 dc 01 08 3e a8 93 1d bd 61 88 4f 38 12 24 fe 3c
       0.1328196 -0.038470894 4.947966e-05 0.031023059
0001b0 80 9d de bc 99 ed de 3d 3f b6 62 3e 5a 9a 0b bc
       -0.027174711 0.10885162 0.22139834 -0.008520687
0001c0 62 7d 28 3e 0f 0d 95 3d 54 95 0c 3e c2 42 a7 3d
       0.1645408 0.07277881 0.13728839 0.0816703
0001d0 85 73 37 bd 05 b0 49 bb 5d 78 f7 bd 14 69 35 3e
       -0.044787902 -0.0030775082 -0.12083504 0.17715865
0001e0 80 9e 09 be 4f 4b 98 3c 3e 2c c3 bb 1c 9e 71 3d
       -0.13439369 0.018590597 -0.005956202 0.058988675
0001f0 69 7e 89 3d c6 2d 90 bd 81 c5 37 3b 3d ca 1a 3c
       0.06713564 -0.070399806 0.0028041305 0.009447631
000200 c9 4c 43 3d 0b 92 e2 3d df ac a1 3d 2b 0e 88 bd
       0.04768065 0.11063012 0.07894301 -0.06643327
000210 0f 6f b3 bd 00 34 5b 3c 8a 3a a6 3d 1e 2e e7 3d
       -0.08761417 0.013379097 0.08116634 0.11288093
000220 40 37 4b bc fe bf 47 bc a4 d5 7b be c7 c8 37 be
       -0.012403309 -0.012191771 -0.24593216 -0.17947684
000230 8b 92 fd bd 34 59 2d bd e4 42 c2 3d dd 61 05 3e
       -0.123814665 -0.0423214 0.094854146 0.13025613
000240 40 62 83 be 90 32 9f 3c 88 2d d2 3c 53 21 dd 3d
       -0.25660896 0.01943329 0.025656477 0.10797372
000250 df 0a 9f 3b 42 e5 3a bd 97 74 e8 bd 30 a7 ad bd
       0.004853591 -0.045628794 -0.11350363 -0.08479154
000260 7c a7 c7 bc 54 31 87 3b 0f 12 bc bd 10 12 ff bc
       -0.024371855 0.0041257534 -0.09183132 -0.031136543
000270 83 f0 fb 3d 54 8a 1f 3b ab 6b e3 3d f4 b9 d1 3c
       0.12301733 0.0024343925 0.111045204 0.025601365
000280 ee f3 9d 3d c2 7b b6 bc ad b5 82 bd a8 b1 18 3e
       0.077125415 -0.02227581 -0.06382308 0.1491152
000290 74 9f 35 3e 88 87 c5 bc 9c 12 0b 3d bd 2b 99 bc
       0.17736608 -0.024112478 0.033953294 -0.018697614
0002a0 06 1e 91 bd e7 82 8b 3d ab 95 e8 bd f3 bb b8 3d
       -0.07085805 0.06812077 -0.11356672 0.090202235
0002b0 be 90 b9 3c 3a 2f 3c 3e 5e 98 6e 3c ab 25 2d bc
       0.022652026 0.1837739 0.014562694 -0.010568063
0002c0 f5 c6 09 3e 20 39 ee bc f0 4f bf bd c7 e4 ee 3b
       0.13454802 -0.029079974 -0.09341419 0.007290456
0002d0 1d 7e 3f be ff 7b eb 3b 71 66 ac bd 83 7d 89 3c
       -0.18700452 0.0071864123 -0.08417977 0.016783481
0002e0 15 6c 0c be 11 9f 16 3b 93 92 56 3e 85 89 1c 3e
       -0.13713105 0.0022982995 0.20954351 0.15286835
0002f0 69 72 90 3e 81 51 3c 3c b4 41 8e bd 8a 01 a8 bd
       0.28212288 0.011494041 -0.069461256 -0.082034186
000300 94 b3 68 bc c1 a0 0d 3e f4 d5 a4 bd ce 0b 0f bd
       -0.014202971 0.13830854 -0.08048621 -0.034923367
000310 33 c1 04 3e e2 4a 9a bc 1d 65 e7 3d 6c 7b 56 3e
       0.12964325 -0.018834535 0.11298583 0.20945519
000320 0d d7 8c 3c c8 92 f2 3d a3 11 04 3e 03 fe 02 3d
       0.017192388 0.118444026 0.12897353 0.031980526
000330 11 7e 8a 3b 38 3e 15 3e 4b e7 c3 3c 35 48 47 be
       0.004226454 0.14574516 0.023914 -0.19461139
000340 2d 7a 1b be 66 c3 29 3e 95 b5 fa 3d fd c5 a5 3c
       -0.15183325 0.16578445 0.12241665 0.02023601
000350 7c 94 3a be f6 4b 3e bc 67 f8 a7 3d 30 72 36 3a
       -0.18220705 -0.01161479 0.08201676 0.0006959764
000360 d6 0f 1b 3e a2 f1 55 3e 6a c7 35 3e cb 22 b6 3d
       0.1514276 0.20892957 0.17751852 0.08893355
000370 f9 46 e8 bc 58 5a 33 bc 16 e5 35 bd 6b 2e 42 3e
       -0.028354155 -0.010946833 -0.044407926 0.1896302
000380 8a 91 0a 3e f7 ee 1d be 7a a7 18 bd e8 49 c8 be
       0.13532081 -0.15423189 -0.037269093 -0.39118886
000390 51 ca bc bd ff 51 5c bc 09 25 4c 3e a2 60 6f 3d
       -0.09218276 -0.013447284 0.19936003 0.058441766
0003a0 0d c3 ad be 93 bc 28 3d bd 20 21 bd 4c ce e0 bd
       -0.33937874 0.041195463 -0.039337862 -0.10976848
0003b0 82 58 fd 3d 6d ec e1 3d 2a 6c 9f 3c ae 9e a1 3d
       0.12370397 0.11031423 0.019460756 0.07891594
0003c0 71 e0 ea bd 22 54 b5 bd 17 13 0f bd 18 4f 96 bd
       -0.1146859 -0.08853938 -0.034930315 -0.07339305
0003d0 7c 94 22 be f5 6d cd bc c4 49 8e be 84 3e c8 3c
       -0.15876955 -0.025076846 -0.27790654 0.024443872
0003e0 34 56 79 be 77 d2 bd 3c 88 ec 37 3e 14 2d a2 bd
       -0.2434929 0.023171647 0.17961323 -0.07918754
0003f0 16 5c 47 3e 5d 7e 0b 3c aa d8 30 be 7e a4 02 be
       0.19468722 0.008514014 -0.17270151 -0.12758061

network_body._body_endoder.seq_layers.0.bias f4 [256]
000000 00 00 00 00 00 00 00 00 00 00 00 00 00 00 00 00
       0.0 0.0 0.0 0.0
000010 00 00 00 00 00 00 00 00 00 00 00 00 00 00 00 00
       0.0 0.0 0.0 0.0
000020 00 00 00 00 00 00 00 00 00 00 00 00 00 00 00 00
       0.0 0.0 0.0 0.0
000030 00 00 00 00 00 00 00 00 00 00 00 00 00 00 00 00
       0.0 0.0 0.0 0.0
000040 00 00 00 00 00 00 00 00 00 00 00 00 00 00 00 00
       0.0 0.0 0.0 0.0
000050 00 00 00 00 00 00 00 00 00 00 00 00 00 00 00 00
       0.0 0.0 0.0 0.0
000060 00 00 00 00 00 00 00 00 00 00 00 00 00 00 00 00
       0.0 0.0 0.0 0.0
000070 00 00 00 00 00 00 00 00 00 00 00 00 00 00 00 00
       0.0 0.0 0.0 0.0
000080 00 00 00 00 00 00 00 00 00 00 00 00 00 00 00 00
       0.0 0.0 0.0 0.0
000090 00 00 00 00 00 00 00 00 00 00 00 00 00 00 00 00
       0.0 0.0 0.0 0.0
0000a0 00 00 00 00 00 00 00 00 00 00 00 00 00 00 00 00
       0.0 0.0 0.0 0.0
0000b0 00 00 00 00 00 00 00 00 00 00 00 00 00 00 00 00
       0.0 0.0 0.0 0.0
0000c0 00 00 00 00 00 00 00 00 00 00 00 00 00 00 00 00
       0.0 0.0 0.0 0.0
0000d0 00 00 00 00 00 00 00 00 00 00 00 00 00 00 00 00
       0.0 0.0 0.0 0.0
0000e0 00 00 00 00 00 00 00 00 00 00 00 00 00 00 00 00
       0.0 0.0 0.0 0.0
0000f0 00 00 00 00 00 00 00 00 00 00 00 00 00 00 00 00
       0.0 0.0 0.0 0.0
000100 00 00 00 00 00 00 00 00 00 00 00 00 00 00 00 00
       0.0 0.0 0.0 0.0
000110 00 00 00 00 00 00 00 00 00 00 00 00 00 00 00 00
       0.0 0.0 0.0 0.0
000120 00 00 00 00 00 00 00 00 00 00 00 00 00 00 00 00
       0.0 0.0 0.0 0.0
000130 00 00 00 00 00 00 00 00 00 00 00 00 00 00 00 00
       0.0 0.0 0.0 0.0
000140 00 00 00 00 00 00 00 00 00 00 00 00 00 00 00 00
       0.0 0.0 0.0 0.0
000150 00 00 00 00 00 00 00 00 00 00 00 00 00 00 00 00
       0.0 0.0 0.0 0.0
000160 00 00 00 00 00 00 00 00 00 00 00 00 00 00 00 00
       0.0 0.0 0.0 0.0
000170 00 00 00 00 00 00 00 00 00 00 00 00 00 00 00 00
       0.0 0.0 0.0 0.0
000180 00 00 00 00 00 00 00 00 00 00 00 00 00 00 00 00
       0.0 0.0 0.0 0.0
000190 00 00 00 00 00 00 00 00 00 00 00 00 00 00 00 00
       0.0 0.0 0.0 0.0
0001a0 00 00 00 00 00 00 00 00 00 00 00 00 00 00 00 00
       0.0 0.0 0.0 0.0
0001b0 00 00 00 00 00 00 00 00 00 00 00 00 00 00 00 00
       0.0 0.0 0.0 0.0
0001c0 00 00 00 00 00 00 00 00 00 00 00 00 00 00 00 00
       0.0 0.0 0.0 0.0
0001d0 00 00 00 00 00 00 00 00 00 00 00 00 00 00 00 00
       0.0 0.0 0.0 0.0
0001e0 00 00 00 00 00 00 00 00 00 00 00 00 00 00 00 00
       0.0 0.0 0.0 0.0
0001f0 00 00 00 00 00 00 00 00 00 00 00 00 00 00 00 00
       0.0 0.0 0.0 0.0
000200 00 00 00 00 00 00 00 00 00 00 00 00 00 00 00 00
       0.0 0.0 0.0 0.0
000210 00 00 00 00 00 00 00 00 00 00 00 00 00 00 00 00
       0.0 0.0 0.0 0.0
000220 00 00 00 00 00 00 00 00 00 00 00 00 00 00 00 00
       0.0 0.0 0.0 0.0
000230 00 00 00 00 00 00 00 00 00 00 00 00 00 00 00 00
       0.0 0.0 0.0 0.0
000240 00 00 00 00 00 00 00 00 00 00 00 00 00 00 00 00
       0.0 0.0 0.0 0.0
000250 00 00 00 00 00 00 00 00 00 00 00 00 00 00 00 00
       0.0 0.0 0.0 0.0
000260 00 00 00 00 00 00 00 00 00 00 00 00 00 00 00 00
       0.0 0.0 0.0 0.0
000270 00 00 00 00 00 00 00 00 00 00 00 00 00 00 00 00
       0.0 0.0 0.0 0.0
000280 00 00 00 00 00 00 00 00 00 00 00 00 00 00 00 00
       0.0 0.0 0.0 0.0
000290 00 00 00 00 00 00 00 00 00 00 00 00 00 00 00 00
       0.0 0.0 0.0 0.0
0002a0 00 00 00 00 00 00 00 00 00 00 00 00 00 00 00 00
       0.0 0.0 0.0 0.0
0002b0 00 00 00 00 00 00 00 00 00 00 00 00 00 00 00 00
       0.0 0.0 0.0 0.0
0002c0 00 00 00 00 00 00 00 00 00 00 00 00 00 00 00 00
       0.0 0.0 0.0 0.0
0002d0 00 00 00 00 00 00 00 00 00 00 00 00 00 00 00 00
       0.0 0.0 0.0 0.0
0002e0 00 00 00 00 00 00 00 00 00 00 00 00 00 00 00 00
       0.0 0.0 0.0 0.0
0002f0 00 00 00 00 00 00 00 00 00 00 00 00 00 00 00 00
       0.0 0.0 0.0 0.0
000300 00 00 00 00 00 00 00 00 00 00 00 00 00 00 00 00
       0.0 0.0 0.0 0.0
000310 00 00 00 00 00 00 00 00 00 00 00 00 00 00 00 00
       0.0 0.0 0.0 0.0
000320 00 00 00 00 00 00 00 00 00 00 00 00 00 00 00 00
       0.0 0.0 0.0 0.0
000330 00 00 00 00 00 00 00 00 00 00 00 00 00 00 00 00
       0.0 0.0 0.0 0.0
000340 00 00 00 00 00 00 00 00 00 00 00 00 00 00 00 00
       0.0 0.0 0.0 0.0
000350 00 00 00 00 00 00 00 00 00 00 00 00 00 00 00 00
       0.0 0.0 0.0 0.0
000360 00 00 00 00 00 00 00 00 00 00 00 00 00 00 00 00
       0.0 0.0 0.0 0.0
000370 00 00 00 00 00 00 00 00 00 00 00 00 00 00 00 00
       0.0 0.0 0.0 0.0
000380 00 00 00 00 00 00 00 00 00 00 00 00 00 00 00 00
       0.0 0.0 0.0 0.0
000390 00 00 00 00 00 00 00 00 00 00 00 00 00 00 00 00
       0.0 0.0 0.0 0.0
0003a0 00 00 00 00 00 00 00 00 00 00 00 00 00 00 00 00
       0.0 0.0 0.0 0.0
0003b0 00 00 00 00 00 00 00 00 00 00 00 00 00 00 00 00
       0.0 0.0 0.0 0.0
0003c0 00 00 00 00 00 00 00 00 00 00 00 00 00 00 00 00
       0.0 0.0 0.0 0.0
0003d0 00 00 00 00 00 00 00 00 00 00 00 00 00 00 00 00
       0.0 0.0 0.0 0.0
0003e0 00 00 00 00 00 00 00 00 00 00 00 00 00 00 00 00
       0.0 0.0 0.0 0.0
0003f0 00 00 00 00 00 00 00 00 00 00 00 00 00 00 00 00
       0.0 0.0 0.0 0.0

network_body._body_endoder.seq_layers.2.weight f4 [256, 256]
000000 94 92 ed 3d 49 9f d9 3b 58 dd f4 3c 66 d1 14 bd
       0.11600223 0.0066413027 0.029890701 -0.03633251
000010 82 41 9c bc 75 e0 2c 3d 4a 40 b5 3d cf 33 92 3c
       -0.019074205 0.042206246 0.08850153 0.01784697
000020 3a 6e 0e 3e 5e 5c 1d bd 72 6f 00 3d 23 d8 9d bc
       0.13909236 -0.038418166 0.031356283 -0.019268101
000030 e9 8d 3d 3d db c6 1c bd ac 5a 03 bb d5 3e 81 bd
       0.046277914 -0.03827558 -0.0020043058 -0.063108124
000040 7c 9a 83 bc 5b 8b da bd e4 f4 aa 3d 5f 48 2a bd
       -0.016064875 -0.10671111 0.083474904 -0.041572925
000050 d0 78 85 bd 28 38 6f 3d fa c1 d5 bd 60 ff 62 3d
       -0.06517184 0.058403164 -0.10437389 0.055419326
000060 e0 86 84 3d a3 0e 40 3b 29 a0 46 bd bf 1e 11 3e
       0.06471038 0.00293056 -0.048492584 0.14171885
000070 b6 62 94 bd 4f d0 88 bb 2e 8f 80 3c a2 18 f0 3d
       -0.0724539 -0.004175223 0.015693273 0.11723448
000080 aa 9c 72 3d f0 0b 11 3c ae 8f 5a 3d 05 ec a2 3d
       0.059231438 0.008852944 0.05335968 0.079551734
000090 b0 20 4a bb ca 80 b4 bd 41 8a 32 3d 34 81 50 3d
       -0.0030842237 -0.08813627 0.04358888 0.050904468
0000a0 38 28 03 be 21 f2 0f bd 02 0e bd bd 93 e4 4d 3b
       -0.12808311 -0.03514302 -0.092311874 0.0031416758
0000b0 4d 08 66 3d 33 62 58 3d 30 f8 b1 bc 09 28 7f bd
       0.05616026 0.052828025 -0.02172479 -0.06229404
0000c0 28 ba e1 3d a0 bf 86 bd 62 c6 44 3d 48 b4 dd bc
       0.110218346 -0.06579518 0.048040755 -0.027063504
0000d0 5c f5 a8 bd af e8 63 bc 89 be 80 3c 27 90 4d 3d
       -0.082499236 -0.013910457 0.015715854 0.050186303
0000e0 e0 2a bc 3c 2f c1 b9 3c f1 cc 9f bd 05 25 71 bb
       0.022969663 0.022675125 -0.07802761 -0.0036795747
0000f0 c2 c8 91 bd f8 71 b5 bc 2a 4c ad 3c 6e dd a2 3c
       -0.0711837 -0.022149071 0.021154482 0.019880977
000100 b4 9a 7a 3c 0c 2e 9e bc ad ef c8 3c fe e3 33 bc
       0.015295673 -0.019309066 0.024528349 -0.010979651
000110 08 d2 0a 3d 00 9a 52 bd 3c 7f 26 3d 1f 1f ec 3d
       0.033891708 -0.051416397 0.040648684 0.115293734
000120 61 f5 ba bd 20 a6 64 3d 49 6b 8f 3c 02 d4 b5 3d
       -0.091288336 0.05582249 0.017507212 0.08878328
000130 ae 99 21 b8 04 2e 14 3e 33 ad 03 3d f4 95 fa 3c
       -3.8528517e-05 0.14470679 0.032147598 0.030589081
000140 af bd 8f 3d 9b 16 22 bd b7 b8 39 bc f7 a6 60 bd
       0.07018601 -0.03957234 -0.011335543 -0.05484673
000150 28 6b f4 bc d6 0b ca 3c b1 06 e5 bd b7 04 23 bd
       -0.029836252 0.024663847 -0.11182917 -0.03979942
000160 5c 12 a4 3d 78 bb 8b 3d e8 30 3f bc 9a a6 66 3d
       0.08011314 0.06822866 -0.011669375 0.056311227
000170 0c a0 ed 3c a0 be a9 3d 14 09 34 bd e3 15 0a bd
       0.02900698 0.08288312 -0.04395397 -0.03371228
000180 bb 87 c1 3c 31 ed d7 bb 7d 09 60 3c d1 72 c5 3d
       0.023624292 -0.0065895547 0.013674137 0.0964104
000190 85 bf c9 3c 2e 5f b9 3c ac 32 f8 3b 3a 04 70 bc
       0.024627456 0.022628393 0.0075744 -0.014649445
0001a0 06 4e 84 3c 01 f5 a4 bd e1 c2 18 3c 18 79 6b b9
       0.016150486 -0.08054543 0.0093238065 -0.00022456457
0001b0 d2 9b 74 3d a5 de 97 bd bc 61 ee 3d 95 66 0c be
       0.059718914 -0.07415513 0.11639735 -0.13711007
0001c0 cc 41 b2 bd a8 e2 2e 3d 06 c4 b1 3d df 39 28 bd
       -0.08703956 0.042696625 0.08679967 -0.041070815
0001d0 e8 fe cf 3d 4c cd 2f 3d bb 34 17 bd 75 43 14 3c
       0.101560414 0.042920396 -0.036915522 0.009049286
0001e0 ae 7d 35 bd 64 53 3e 3d af 73 8c 3c 0a 3f 88 3d
       -0.04430931 0.046466246 0.017145006 0.06652649
0001f0 f4 0c a0 bb 75 ae b8 bd b0 bb 81 3d 2d e3 bc bd
       -0.0048843566 -0.0901765 0.06334627 -0.09223018
000200 fd 36 b5 3a 59 2b c2 3c 44 fe 50 3c 6d 83 21 be
       0.0013825592 0.02370231 0.012755934 -0.15772791
000210 6e 20 ce bc 35 ef 11 bd 35 af 79 bd 0e a7 a8 ba
       -0.025161948 -0.035628516 -0.060958106 -0.0012867169
000220 6e 30 ab 3c b9 50 84 3d 41 41 98 3d 21 ab 4d bc
       0.020897117 0.06460709 0.07434321 -0.012553007
000230 8e 45 10 3e 32 52 69 bc 9c a9 e9 3d 42 75 a9 3d
       0.14089033 -0.014240788 0.114093035 0.08274318
000240 92 32 b6 bd 02 27 d1 3d 21 54 3c bd 84 19 15 3d
       -0.08896364 0.10212518 -0.04597867 0.036401287
000250 19 88 8f bd 77 28 e4 3d da c0 a9 3a 21 61 cf bd
       -0.070083804 0.111405306 0.0012951151 -0.10125948
000260 5c ff 7a 3d 5b ac 97 3d ab 6e 83 3c 4b 09 4c 3d
       0.061278686 0.07405921 0.016043982 0.04981355
000270 39 53 2c 3d 97 2b 34 bd b3 07 4a 3a 34 08 7e bd
       0.042071555 -0.043986883 0.0007706836 -0.06201954
000280 e1 5a 68 3c 33 ab e5 bc c8 db c2 3c 46 d5 0a 3d
       0.0141818235 -0.028035736 0.02378644 0.0338948
000290 2a af 94 bd 12 7b 44 bd 5f 09 5a 3c 7c 51 55 3c
       -0.072599724 -0.04796893 0.013307898 0.013019916
0002a0 57 7e 55 bc 7a 13 c2 bd 3b eb 38 bc 38 45 92 3d
       -0.01303061 -0.09476371 -0.011286552 0.07142109
0002b0 20 6c ba bd bb 4b d7 bc e9 71 31 3d c9 e1 2b bd
       -0.091026545 -0.026281228 0.043321524 -0.041963372
0002c0 fd 3f 7b bd de 99 f3 3c 20 58 93 3c 4d d5 37 bd
       -0.06134032 0.029736456 0.017986357 -0.044881154
0002d0 a8 4b 86 3d 5a 2e 8f 3d d9 43 92 3c 43 a6 88 3d
       0.06557399 0.06991263 0.017854618 0.06672337
0002e0 51 bf 45 bd c0 be 2e bd 24 3c 9d bb 3c 39 e7 bb
       -0.048278157 -0.042662382 -0.004798429 -0.0070563834
0002f0 c8 fa f3 3b fa 16 ed bc d4 69 74 bd 03 f2 6f 3d
       0.007445667 -0.02894162 -0.059671238 0.05858041
000300 49 fd a0 bc 45 cd 1a bd 56 0c e8 ba bd 7f 11 be
       -0.019652026 -0.037793417 -0.0017703872 -0.14208885
000310 d5 32 8e bc 15 b2 cc 3c a4 2a 2a 3d f4 79 aa 3c
       -0.017358223 0.02498726 0.04154457 0.020810105
000320 47 4b 0f 3d 67 07 83 3d e0 7e 17 3d 92 3b 67 bc
       0.0349839 0.06397896 0.03698623 -0.014113324
000330 55 30 bf bd 45 36 e7 3c 80 ee 26 3d d6 cd 4c bd
       -0.093353905 0.02822412 0.040754795 -0.050000988
000340 9e ed ba bd f4 54 55 bd 1f e7 a3 3d 0d a7 65 bc
       -0.09127353 -0.05208297 0.08003067 -0.014016879
000350 8a 18 93 bc 37 f9 49 bc fc 4b 95 3c ad 76 5e bd
       -0.017956037 -0.012327484 0.018224709 -0.054312397
000360 f8 73 81 be b9 75 43 bd a4 f0 14 3e ec 68 d7 3d
       -0.2528379 -0.04771969 0.14544922 0.10518059
000370 1a 19 84 3a 1b 46 47 3d b9 c5 69 3c 43 bd bd bc
       0.0010078282 0.048650842 0.014268332 -0.023161536
000380 e5 56 93 bd 82 b1 6d 3d 41 fe ae bc 19 dd 9a bc
       -0.07194308 0.058030613 -0.021361472 -0.018904256
000390 69 6e dc 3a 03 ce 45 bd 68 bd 9c 3b 5d 21 78 3d
       0.0016817573 -0.04829217 0.004783321 0.060578693
0003a0 c9 eb 0a 3e cd 31 31 3d 64 16 a5 3d a7 48 8b 3c
       0.13566507 0.043260384 0.08060911 0.017002417
0003b0 b7 d4 81 3d e1 44 a1 3d 4c ed eb bc 14 e7 fa bb
       0.063394 0.07874466 -0.028799675 -0.007656941
0003c0 1d 0f 89 bc dc ac 4f 3c 74 18 3c 3d 34 ef 42 3c
       -0.01673084 0.01267549 0.045921758 0.011897851
0003d0 65 fe b3 3d 8f 65 d0 3c 6b 86 b5 3c 00 24 06 3d
       0.08788756 0.025439052 0.022158822 0.032749176
0003e0 5c d1 e6 bb 89 17 74 bd 2b ea 5d 3d 29 92 be ba
       -0.0070440006 -0.059592757 0.054178398 -0.0014539409
0003f0 94 67 f6 bd 37 35 a2 3d 6c 80 ee bc 6c 75 91 3c
       -0.12031475 0.07920306 -0.02911397 0.017756186

network_body._body_endoder.seq_layers.2.bias f4 [256]
000000 00 00 00 00 00 00 00 00 00 00 00 00 00 00 00 00
       0.0 0.0 0.0 0.0
000010 00 00 00 00 00 00 00 00 00 00 00 00 00 00 00 00
       0.0 0.0 0.0 0.0
000020 00 00 00 00 00 00 00 00 00 00 00 00 00 00 00 00
       0.0 0.0 0.0 0.0
000030 00 00 00 00 00 00 00 00 00 00 00 00 00 00 00 00
       0.0 0.0 0.0 0.0
000040 00 00 00 00 00 00 00 00 00 00 00 00 00 00 00 00
       0.0 0.0 0.0 0.0
000050 00 00 00 00 00 00 00 00 00 00 00 00 00 00 00 00
       0.0 0.0 0.0 0.0
000060 00 00 00 00 00 00 00 00 00 00 00 00 00 00 00 00
       0.0 0.0 0.0 0.0
000070 00 00 00 00 00 00 00 00 00 00 00 00 00 00 00 00
       0.0 0.0 0.0 0.0
000080 00 00 00 00 00 00 00 00 00 00 00 00 00 00 00 00
       0.0 0.0 0.0 0.0
000090 00 00 00 00 00 00 00 00 00 00 00 00 00 00 00 00
       0.0 0.0 0.0 0.0
0000a0 00 00 00 00 00 00 00 00 00 00 00 00 00 00 00 00
       0.0 0.0 0.0 0.0
0000b0 00 00 00 00 00 00 00 00 00 00 00 00 00 00 00 00
       0.0 0.0 0.0 0.0
0000c0 00 00 00 00 00 00 00 00 00 00 00 00 00 00 00 00
       0.0 0.0 0.0 0.0
0000d0 00 00 00 00 00 00 00 00 00 00 00 00 00 00 00 00
       0.0 0.0 0.0 0.0
0000e0 00 00 00 00 00 00 00 00 00 00 00 00 00 00 00 00
       0.0 0.0 0.0 0.0
0000f0 00 00 00 00 00 00 00 00 00 00 00 00 00 00 00 00
       0.0 0.0 0.0 0.0
000100 00 00 00 00 00 00 00 00 00 00 00 00 00 00 00 00
       0.0 0.0 0.0 0.0
000110 00 00 00 00 00 00 00 00 00 00 00 00 00 00 00 00
       0.0 0.0 0.0 0.0
000120 00 00 00 00 00 00 00 00 00 00 00 00 00 00 00 00
       0.0 0.0 0.0 0.0
000130 00 00 00 00 00 00 00 00 00 00 00 00 00 00 00 00
       0.0 0.0 0.0 0.0
000140 00 00 00 00 00 00 00 00 00 00 00 00 00 00 00 00
       0.0 0.0 0.0 0.0
000150 00 00 00 00 00 00 00 00 00 00 00 00 00 00 00 00
       0.0 0.0 0.0 0.0
000160 00 00 00 00 00 00 00 00 00 00 00 00 00 00 00 00
       0.0 0.0 0.0 0.0
000170 00 00 00 00 00 00 00 00 00 00 00 00 00 00 00 00
       0.0 0.0 0.0 0.0
000180 00 00 00 00 00 00 00 00 00 00 00 00 00 00 00 00
       0.0 0.0 0.0 0.0
000190 00 00 00 00 00 00 00 00 00 00 00 00 00 00 00 00
       0.0 0.0 0.0 0.0
0001a0 00 00 00 00 00 00 00 00 00 00 00 00 00 00 00 00
       0.0 0.0 0.0 0.0
0001b0 00 00 00 00 00 00 00 00 00 00 00 00 00 00 00 00
       0.0 0.0 0.0 0.0
0001c0 00 00 00 00 00 00 00 00 00 00 00 00 00 00 00 00
       0.0 0.0 0.0 0.0
0001d0 00 00 00 00 00 00 00 00 00 00 00 00 00 00 00 00
       0.0 0.0 0.0 0.0
0001e0 00 00 00 00 00 00 00 00 00 00 00 00 00 00 00 00
       0.0 0.0 0.0 0.0
0001f0 00 00 00 00 00 00 00 00 00 00 00 00 00 00 00 00
       0.0 0.0 0.0 0.0
000200 00 00 00 00 00 00 00 00 00 00 00 00 00 00 00 00
       0.0 0.0 0.0 0.0
000210 00 00 00 00 00 00 00 00 00 00 00 00 00 00 00 00
       0.0 0.0 0.0 0.0
000220 00 00 00 00 00 00 00 00 00 00 00 00 00 00 00 00
       0.0 0.0 0.0 0.0
000230 00 00 00 00 00 00 00 00 00 00 00 00 00 00 00 00
       0.0 0.0 0.0 0.0
000240 00 00 00 00 00 00 00 00 00 00 00 00 00 00 00 00
       0.0 0.0 0.0 0.0
000250 00 00 00 00 00 00 00 00 00 00 00 00 00 00 00 00
       0.0 0.0 0.0 0.0
000260 00 00 00 00 00 00 00 00 00 00 00 00 00 00 00 00
       0.0 0.0 0.0 0.0
000270 00 00 00 00 00 00 00 00 00 00 00 00 00 00 00 00
       0.0 0.0 0.0 0.0
000280 00 00 00 00 00 00 00 00 00 00 00 00 00 00 00 00
       0.0 0.0 0.0 0.0
000290 00 00 00 00 00 00 00 00 00 00 00 00 00 00 00 00
       0.0 0.0 0.0 0.0
0002a0 00 00 00 00 00 00 00 00 00 00 00 00 00 00 00 00
       0.0 0.0 0.0 0.0
0002b0 00 00 00 00 00 00 00 00 00 00 00 00 00 00 00 00
       0.0 0.0 0.0 0.0
0002c0 00 00 00 00 00 00 00 00 00 00 00 00 00 00 00 00
       0.0 0.0 0.0 0.0
0002d0 00 00 00 00 00 00 00 00 00 00 00 00 00 00 00 00
       0.0 0.0 0.0 0.0
0002e0 00 00 00 00 00 00 00 00 00 00 00 00 00 00 00 00
       0.0 0.0 0.0 0.0
0002f0 00 00 00 00 00 00 00 00 00 00 00 00 00 00 00 00
       0.0 0.0 0.0 0.0
000300 00 00 00 00 00 00 00 00 00 00 00 00 00 00 00 00
       0.0 0.0 0.0 0.0
000310 00 00 00 00 00 00 00 00 00 00 00 00 00 00 00 00
       0.0 0.0 0.0 0.0
000320 00 00 00 00 00 00 00 00 00 00 00 00 00 00 00 00
       0.0 0.0 0.0 0.0
000330 00 00 00 00 00 00 00 00 00 00 00 00 00 00 00 00
       0.0 0.0 0.0 0.0
000340 00 00 00 00 00 00 00 00 00 00 00 00 00 00 00 00
       0.0 0.0 0.0 0.0
000350 00 00 00 00 00 00 00 00 00 00 00 00 00 00 00 00
       0.0 0.0 0.0 0.0
000360 00 00 00 00 00 00 00 00 00 00 00 00 00 00 00 00
       0.0 0.0 0.0 0.0
000370 00 00 00 00 00 00 00 00 00 00 00 00 00 00 00 00
       0.0 0.0 0.0 0.0
000380 00 00 00 00 00 00 00 00 00 00 00 00 00 00 00 00
       0.0 0.0 0.0 0.0
000390 00 00 00 00 00 00 00 00 00 00 00 00 00 00 00 00
       0.0 0.0 0.0 0.0
0003a0 00 00 00 00 00 00 00 00 00 00 00 00 00 00 00 00
       0.0 0.0 0.0 0.0
0003b0 00 00 00 00 00 00 00 00 00 00 00 00 00 00 00 00
       0.0 0.0 0.0 0.0
0003c0 00 00 00 00 00 00 00 00 00 00 00 00 00 00 00 00
       0.0 0.0 0.0 0.0
0003d0 00 00 00 00 00 00 00 00 00 00 00 00 00 00 00 00
       0.0 0.0 0.0 0.0
0003e0 00 00 00 00 00 00 00 00 00 00 00 00 00 00 00 00
       0.0 0.0 0.0 0.0
0003f0 00 00 00 00 00 00 00 00 00 00 00 00 00 00 00 00
       0.0 0.0 0.0 0.0

action_model._continuous_distribution.log_sigma f4 [1, 3]
000000 8a e0 0f 3c 0d 6a 97 be 0f 5a db bc
       0.008781562 -0.29573098 -0.026776342

action_model._continuous_distribution.mu.weight f4 [3, 256]
000000 53 b6 b7 bc 40 54 43 bc db 85 34 3c ae 84 12 bc
       -0.022425806 -0.011921942 0.011018242 -0.008942766
000010 0b a3 b1 3b 8e 28 af bc 3d 0f ae 3a 50 da 3a 3c
       0.0054210476 -0.021381643 0.0013279688 0.011404589
000020 cc 16 85 ba b3 36 97 3c 7d e3 fa bb 93 d8 32 3c
       -0.0010153889 0.0184587 -0.0076565132 0.010915893
000030 ee 2a 11 bb 71 1e 0e 3c 17 7b 91 ba 9f 38 a5 3c
       -0.0022150832 0.00867425 -0.0011099306 0.0201686
000040 3d 9b a7 3c ee b6 c4 3c d7 80 21 bc 5d ea 12 bc
       0.020459766 0.024013009 -0.009857378 -0.008967009
000050 bf 95 42 bc c0 20 ed 3c c1 89 33 3c cb 28 ae 3c
       -0.011876523 0.02894628 0.010958136 0.021259686
000060 07 48 d4 bb 18 f2 25 3c b0 33 e8 3c bf 77 26 3b
       -0.006478313 0.01012852 0.028344959 0.0025400964
000070 70 0d 5d 3b 67 f1 01 3d 07 6a e0 bc e1 23 4a bc
       0.0033729933 0.03172436 -0.027394308 -0.012337656
000080 6e 5a b8 bc bc aa c1 3b 7d 3a 0f bc 29 3e bf bb
       -0.022504058 0.0059102457 -0.008741972 -0.0058362675
000090 25 2a c6 bc cf 19 9d 3b f5 66 a8 bc d9 ab 07 3c
       -0.024190018 0.0047943364 -0.020556906 0.008280718
0000a0 80 4d c2 3b f3 5a 95 bb 13 78 f0 3b 4f 17 7e b9
       0.005929649 -0.004557961 0.0073385327 -0.00024232011
0000b0 93 bf 95 bb 75 64 74 bc a7 ba 9d bc 56 e5 35 bb
       -0.0045699566 -0.014916529 -0.019254042 -0.0027755103
0000c0 17 aa bd bb 19 e5 33 3c 1e 93 bb ba c2 a1 eb bc
       -0.0057880986 0.010979914 -0.0014310812 -0.028763656
0000d0 15 fc d3 3c 5d 19 b3 bb 1c 47 08 ba a0 e3 1c bc
       0.025877038 -0.00546567 -0.00051985844 -0.009575754
0000e0 4e fe c2 bb 48 d8 76 bb a0 d6 6f 3c 03 72 6d 3c
       -0.0059507256 -0.0037665535 0.014638573 0.014492515
0000f0 23 d9 cf bc 50 c5 e1 3c ca a5 cb 3b 5e d5 29 3c
       -0.025372094 0.027559906 0.006214832 0.010365812
000100 e8 74 6a bb 6f 5f 38 39 ff ad 7a 3c d5 84 8f bc
       -0.0035775248 0.00017583159 0.015300273 -0.017519394
000110 4b 8b 2c b9 58 82 fb 3c 02 51 58 3b dd 96 f3 3b
       -0.00016455089 0.030701801 0.0033007269 0.007433756
000120 be ec bf 3b de c8 97 bc 23 9f d2 bb 92 03 d0 ba
       0.0058570793 -0.018528398 -0.006427662 -0.0015870205
000130 d3 e7 05 3c d2 2a 6e 3c 82 7c e3 bb 57 6a d3 3a
       0.008172947 0.014536576 -0.0069423327 0.0016129714
000140 ca bf 16 3c df 73 ea bc ef 61 6f bc 0f d3 a1 ba
       0.0092009995 -0.028619705 -0.0146107515 -0.0012346226
000150 a9 9e 82 3a a7 bd e2 bb 07 5b 11 3c 69 35 b2 bb
       0.0009965497 -0.006919581 0.0088718 -0.005438496
000160 3f 0a 03 bc 83 e1 5f bc 6f 37 2b bb 22 99 50 3c
       -0.007998048 -0.013664606 -0.002612557 0.012731822
000170 ea eb 3c bc 02 f5 10 bb a2 b1 b4 3b bf 96 66 bc
       -0.011530856 -0.0022118692 0.0055143395 -0.014074027
000180 4f 87 91 bb 05 61 b4 3b c0 05 0c 3b 97 4e 03 bc
       -0.004441179 0.0055047297 0.0021365732 -0.008014343
000190 c3 f3 a4 3b c7 fb ab 3c 27 fc 8d bb c2 2c 6a 3c
       0.0050339415 0.02099408 -0.0043330374 0.014292898
0001a0 f3 3c 40 bc 6d b3 ea 3b 53 1b 1b 3b df 18 2f 3c
       -0.011733281 0.0071625025 0.002366741 0.010687082
0001b0 63 62 d0 bb 6d e1 44 bc 49 ec 26 ba 5e 62 8d bc
       -0.006359385 -0.012016636 -0.00063676067 -0.01725882
0001c0 9a 5d 2c bc 05 ab d1 3b 68 78 e7 3c cf aa 01 3c
       -0.010520363 0.006398561 0.028255656 0.007914259
0001d0 0e ee 32 3a ef e9 20 3c 0f 93 69 bc 19 0f 96 bc
       0.0006825634 0.009821399 -0.014256253 -0.018317746
0001e0 69 ad c5 bb 0e 80 32 3c 55 12 8f bb 8d 96 a5 bb
       -0.006032635 0.010894788 -0.004366199 -0.0050533474
0001f0 f3 a7 f0 bb 1f b4 b6 3c 9c 23 a4 3c d9 a1 b8 3c
       -0.00734424 0.022302685 0.020036511 0.022538112
000200 b2 cc 59 bc 96 58 03 bb a8 fe ac 3c e6 e2 93 bc
       -0.013293432 -0.0020041815 0.021117523 -0.01805253
000210 96 0c 3f 3c a3 3a 1f 3c d0 b1 f6 3b ed a3 5e bc
       0.011660716 0.00971857 0.007528521 -0.013588888
000220 c7 cd f9 39 33 3b 25 bc 33 87 09 3c a5 39 9d bc
       0.00047646297 -0.010084915 0.00839405 -0.019192526
000230 92 38 91 ba ed 30 6e bb 3f b8 9f bc 55 2d 33 3c
       -0.0011079481 -0.003634508 -0.019497035 0.010936101
000240 37 71 ba bc 1f b2 b9 3c fe 0e 3d 3b 75 29 0e bc
       -0.022759063 0.022667943 0.0028848047 -0.008676876
000250 3a 48 ff ba 22 73 e9 3a 65 66 12 bc 53 3c af ba
       -0.0019476481 0.0017810802 -0.008935546 -0.0013369418
000260 37 c1 91 bc 5a 40 95 bb d7 10 2c 3c a1 91 33 3c
       -0.017792327 -0.0045547904 0.010502062 0.010960014
000270 40 1d 8c 3b 30 b0 52 3c db 94 89 3b db 6d 31 bc
       0.004275948 0.012859389 0.004198653 -0.010829414
000280 35 93 63 bb 55 1e 83 3b cd c5 d7 ba 4a 77 9c 3c
       -0.0034725193 0.0040014186 -0.0016462147 0.01909985
000290 df a2 52 3b a3 09 26 bc dc c6 9c 3b e6 f1 00 3c
       0.0032140536 -0.0101341335 0.004784448 0.007870173
0002a0 d2 ef 81 bc f7 79 97 3b 8d da 71 3c 0d d2 f8 3a
       -0.015861426 0.0046226936 0.014761579 0.0018983498
0002b0 8a c2 00 3c 0f b5 af 3b 94 63 15 bc bb 52 6a bc
       0.007858882 0.00536216 -0.00911798 -0.014301951
0002c0 d2 d8 6a bb 3c 85 47 3b a8 b3 de 3c 43 c2 66 bc
       -0.0035834801 0.0030444404 0.027185276 -0.014084402
0002d0 7f b3 c3 bc 8d b5 55 3b b7 41 c7 b8 94 84 4b bc
       -0.023889301 0.0032609433 -9.5013e-05 -0.012421746
0002e0 ef 7f c5 bb 2d dc 10 3c 57 27 7f 3c 65 5b 3c bc
       -0.0060272138 0.0088415565 0.015573344 -0.0114963995
0002f0 27 1c 05 bc 97 9a 14 3b db 94 92 3c 77 ee 92 3b
       -0.008124388 0.002267515 0.017893245 0.0044839936
000300 6e ac 88 bc c1 91 2b 3c 27 69 1e 3c 93 ab 0c bc
       -0.016683783 0.010471762 0.009668625 -0.008585828
000310 6b 9b 9c 3c f3 70 f0 3b cd 5e 08 bc 1b 6d 96 bc
       0.019117078 0.0073376833 -0.0083233835 -0.018362572
000320 1f 3b 4e bc 70 15 5c 3a 7b be 02 3c c5 26 7e 3b
       -0.012587338 0.00083955284 0.007979984 0.0038780433
000330 4f a9 0a bd 5f 5a eb bc 9a ce 8d bb 10 fc a1 bc
       -0.03385287 -0.028729616 -0.0043276073 -0.019773513
000340 85 ef 8c 3b a8 79 f0 bb b8 c9 eb 3b 82 cb 3a bb
       0.004301014 -0.0073387213 0.0071956776 -0.0028502648
000350 93 9c 78 bc ef e2 f2 3b 62 56 e6 3c 0b 7d e6 3b
       -0.015174049 0.0074123065 0.028117362 0.0070339493
000360 6d ee 0d bc 63 f5 4b 3c 3a 89 fa 3b 07 26 a3 3b
       -0.008662802 0.0124486415 0.007645753 0.0049788984
000370 1f 57 9f bc 6f e0 10 3c 52 c6 a8 3c dd 19 44 bc
       -0.019450722 0.008842572 0.020602379 -0.011969057
000380 ce b7 46 bb 82 14 97 bb ec b6 84 bb a3 d1 2d 3c
       -0.0030321958 -0.004610599 -0.0040501263 0.010609063
000390 a0 60 d1 3a f9 5f 88 3b 90 b0 e2 b7 6f f2 c1 3c
       0.0015974231 0.0041618315 -2.7023518e-05 0.023675172
0003a0 12 47 d1 39 d3 c8 db bb f3 b2 a3 bb f0 6d 86 bc
       0.00039916538 -0.0067072897 -0.0049956976 -0.016409844
0003b0 f9 56 31 ba e3 47 9d 3c 1c 62 11 3c 68 ba d7 3c
       -0.0006764974 0.019199317 0.008873489 0.026334003
0003c0 c2 91 86 3c a1 56 17 bc 45 75 df 3b 38 3e 0c bc
       0.016426925 -0.009236963 0.0068193995 -0.008559756
0003d0 16 af 82 3c f3 45 8e 3c f3 91 f3 b9 d0 90 cb bb
       0.015952628 0.017367339 -0.00046457312 -0.0062123314
0003e0 94 0b 9f bc c0 3d a4 3b ab 66 49 bd bb 68 0d 3c
       -0.0194147 0.005012244 -0.049170177 0.008630927
0003f0 75 c5 6a 3c 83 a9 7e bc 8e 83 19 3c 23 c1 40 bc
       0.014329304 -0.015543344 0.009369744 -0.011764797

action_model._continuous_distribution.mu.bias f4 [3]
000000 16 b3 a4 3c 8f 52 2b bc 0e 0b 68 bc
       0.020104926 -0.010456695 -0.014162792

network_body.observation_encoder.processors.0.normalizer.running_mean f4 [68]
000000 79 ec 0d 3f 8d 8b ba 3b c6 3c e1 3e 77 26 4d 3f
       0.55438954 0.0056929053 0.4399168 0.8013682
000010 06 23 01 3f d5 83 9b 3b 87 4b fb 3e 9d f0 54 3f
       0.50444067 0.00474594 0.4908106 0.83179647
000020 65 0e 35 3f 7e 76 a3 3b e5 54 93 3e 16 df 35 3f
       0.7072509 0.0049884906 0.28775707 0.7104353
000030 dd 3a 11 3f 47 a1 85 3b 75 73 db 3e ef c6 4b 3f
       0.56730443 0.0040780636 0.42861524 0.79600424
000040 de a3 51 3f d3 01 9b 3b 2a 98 34 3e 32 f1 15 3f
       0.81890666 0.004730442 0.17636171 0.5857116
000050 9d a2 32 3f 97 fd 99 3b 4b 52 98 3e 58 d4 34 3f
       0.6977938 0.0046994197 0.29750285 0.7063651
000060 bc fe 5f 3f f0 ed 93 3b 4d c9 f6 3d 21 f3 f2 3e
       0.8749807 0.0045144483 0.12050114 0.47451118
000070 1d b0 4b 3f 69 2c ac 3b 9e dc 4b 3e 9f 48 16 3f
       0.795656 0.0052543175 0.19908378 0.5870456
000080 28 fd 6a 3f 3f d0 58 3b 0c 50 a1 3d 9a e8 c3 3e
       0.91792536 0.0033083109 0.07876596 0.38263398
000090 05 a9 5e 3f 7e 9c 98 3b ea 95 00 3e e5 f7 f3 3e
       0.86976653 0.004657327 0.12557188 0.47650066
0000a0 d7 8a 75 3f f1 03 58 3b 89 d1 19 3d 01 76 9c 3e
       0.9591498 0.0032961334 0.037553344 0.3055878
0000b0 32 c0 6f 3f e3 2a 93 3b 5f 96 71 3d af 2c c5 3e
       0.9365264 0.0044911965 0.058981296 0.38510653
0000c0 de f6 7b 3f 90 75 66 3b 8c a0 48 3c 28 ef 81 3e
       0.98423564 0.0035165288 0.012245309 0.25377774
0000d0 9e 47 79 3f 7e 09 82 3b 18 84 b6 3c 22 ac a6 3e
       0.97374904 0.0039684167 0.022279784 0.32553202
0000e0 87 92 7d 3f 51 8c af 3b d4 71 87 3b 98 9e 65 3e
       0.9905171 0.005357303 0.0041334424 0.2242378
0000f0 df de 7c 3f ba 05 93 3b 5f 5c fd 3b fa 43 95 3e
       0.98777574 0.0044867666 0.0077319588 0.29153425
000100 b4 4e 7d 3f 41 c6 0f 3c 8d 14 e5 3a c0 ec 53 3e
       0.98948216 0.008775295 0.0017477438 0.20695782

network_body.observation_encoder.processors.0.normalizer.running_variance f4 [68]
000000 28 d3 59 48 41 bf 9f 45 37 3e 59 48 6a e0 3f 47
       223052.62 5111.9067 222456.86 49120.414
000010 a1 69 5c 48 62 4e 85 45 cd 5b 5c 48 81 81 2c 47
       225702.52 4265.798 225647.2 44161.504
000020 a2 8e 36 48 95 13 8c 45 33 b5 34 48 59 0f 67 47
       186938.53 4482.4478 185044.8 59151.348
000030 ee 6f 58 48 26 3f 65 45 69 f0 57 48 b0 28 47 47
       221631.72 3667.9468 221121.64 50984.688
000040 e3 c1 02 48 f8 dd 84 45 bf 13 00 48 78 3b 7b 47
       133895.55 4251.746 131150.98 64315.47
000050 b7 ef 39 48 a8 00 84 45 26 46 38 48 6b 2f 6b 47
       190398.86 4224.082 188696.6 60207.418
000060 59 e6 c0 47 91 a9 7d 45 7d e4 ba 47 8d 5b 68 47
       98764.695 4058.598 95688.98 59483.55
000070 36 5b 0f 48 1a 81 93 45 f4 96 0c 48 ee 0f 72 47
       146796.84 4720.1377 143963.81 61967.93
000080 4b db 84 47 d7 21 3a 45 96 eb 7f 47 fc 6b 39 47
       68022.586 2978.115 65515.586 47467.984
000090 c8 be c7 47 a0 d3 82 45 9d a1 c1 47 f6 a6 4a 47
       102269.56 4186.453 99139.23 51878.96
0000a0 29 31 0a 47 de 72 39 45 7b f3 fe 46 38 79 df 46
       35377.16 2967.1792 32633.74 28604.61
0000b0 44 a8 51 47 7d 5b 7c 45 d6 c0 43 47 af 6a 02 47
       53672.266 4037.718 50112.836 33386.684
0000c0 8c e2 5a 46 b2 cc 45 45 a2 a6 2a 46 e0 a9 66 46
       14008.637 3164.7935 10921.658 14762.469
0000d0 c5 4d b4 46 49 1b 5f 45 ab a9 99 46 dd 5f 93 46
       23078.885 3569.7053 19668.834 18863.932
0000e0 aa a5 04 46 f1 60 96 45 42 59 68 45 9f 1c 0a 46
       8489.416 4812.1177 3717.5786 8839.155
0000f0 95 4c 2a 46 f0 1b 7c 45 73 80 d8 45 67 21 34 46
       10899.1455 4033.746 6928.056 11528.351
000100 98 ec 12 46 38 74 f5 45 2d 07 c5 44 d8 51 c9 45
       9403.148 7854.5273 1576.2242 6442.2305

network_body.observation_encoder.processors.1.normalizer.running_mean f4 [8]
000000 db c1 bb 3d 9d 0c ba 3d d9 82 9f 3e ec 48 a3 3c
       0.09167834 0.09084437 0.31154516 0.019932233
000010 76 2e 34 b9 f8 45 00 3e ba a2 38 40 d9 82 9f 3e
       -0.00017183446 0.12526691 2.884932 0.31154516

network_body.observation_encoder.processors.1.normalizer.running_variance f4 [8]
000000 73 4d 9e 48 88 4e c9 46 7a d7 db 48 cb ec bd 42
       324203.6 25767.266 450235.8 94.96249
000010 8d 2c 02 41 14 f9 5a 47 63 0f 43 4a 7a d7 db 48
       8.135877 56057.08 3.1958648e+06 450235.8

network_body.processors.0.normalizer.running_mean f4 [68]
000000 79 ec 0d 3f 8d 8b ba 3b c6 3c e1 3e 77 26 4d 3f
       0.55438954 0.0056929053 0.4399168 0.8013682
000010 06 23 01 3f d5 83 9b 3b 87 4b fb 3e 9d f0 54 3f
       0.50444067 0.00474594 0.4908106 0.83179647
000020 65 0e 35 3f 7e 76 a3 3b e5 54 93 3e 16 df 35 3f
       0.7072509 0.0049884906 0.28775707 0.7104353
000030 dd 3a 11 3f 47 a1 85 3b 75 73 db 3e ef c6 4b 3f
       0.56730443 0.0040780636 0.42861524 0.79600424
000040 de a3 51 3f d3 01 9b 3b 2a 98 34 3e 32 f1 15 3f
       0.81890666 0.004730442 0.17636171 0.5857116
000050 9d a2 32 3f 97 fd 99 3b 4b 52 98 3e 58 d4 34 3f
       0.6977938 0.0046994197 0.29750285 0.7063651
000060 bc fe 5f 3f f0 ed 93 3b 4d c9 f6 3d 21 f3 f2 3e
       0.8749807 0.0045144483 0.12050114 0.47451118
000070 1d b0 4b 3f 69 2c ac 3b 9e dc 4b 3e 9f 48 16 3f
       0.795656 0.0052543175 0.19908378 0.5870456
000080 28 fd 6a 3f 3f d0 58 3b 0c 50 a1 3d 9a e8 c3 3e
       0.91792536 0.0033083109 0.07876596 0.38263398
000090 05 a9 5e 3f 7e 9c 98 3b ea 95 00 3e e5 f7 f3 3e
       0.86976653 0.004657327 0.12557188 0.47650066
0000a0 d7 8a 75 3f f1 03 58 3b 89 d1 19 3d 01 76 9c 3e
       0.9591498 0.0032961334 0.037553344 0.3055878
0000b0 32 c0 6f 3f e3 2a 93 3b 5f 96 71 3d af 2c c5 3e
       0.9365264 0.0044911965 0.058981296 0.38510653
0000c0 de f6 7b 3f 90 75 66 3b 8c a0 48 3c 28 ef 81 3e
       0.98423564 0.0035165288 0.012245309 0.25377774
0000d0 9e 47 79 3f 7e 09 82 3b 18 84 b6 3c 22 ac a6 3e
       0.97374904 0.0039684167 0.022279784 0.32553202
0000e0 87 92 7d 3f 51 8c af 3b d4 71 87 3b 98 9e 65 3e
       0.9905171 0.005357303 0.0041334424 0.2242378
0000f0 df de 7c 3f ba 05 93 3b 5f 5c fd 3b fa 43 95 3e
       0.98777574 0.0044867666 0.0077319588 0.29153425
000100 b4 4e 7d 3f 41 c6 0f 3c 8d 14 e5 3a c0 ec 53 3e
       0.98948216 0.008775295 0.0017477438 0.20695782

network_body.processors.0.normalizer.running_variance f4 [68]
000000 28 d3 59 48 41 bf 9f 45 37 3e 59 48 6a e0 3f 47
       223052.62 5111.9067 222456.86 49120.414
000010 a1 69 5c 48 62 4e 85 45 cd 5b 5c 48 81 81 2c 47
       225702.52 4265.798 225647.2 44161.504
000020 a2 8e 36 48 95 13 8c 45 33 b5 34 48 59 0f 67 47
       186938.53 4482.4478 185044.8 59151.348
000030 ee 6f 58 48 26 3f 65 45 69 f0 57 48 b0 28 47 47
       221631.72 3667.9468 221121.64 50984.688
000040 e3 c1 02 48 f8 dd 84 45 bf 13 00 48 78 3b 7b 47
       133895.55 4251.746 131150.98 64315.47
000050 b7 ef 39 48 a8 00 84 45 26 46 38 48 6b 2f 6b 47
       190398.86 4224.082 188696.6 60207.418
000060 59 e6 c0 47 91 a9 7d 45 7d e4 ba 47 8d 5b 68 47
       98764.695 4058.598 95688.98 59483.55
000070 36 5b 0f 48 1a 81 93 45 f4 96 0c 48 ee 0f 72 47
       146796.84 4720.1377 143963.81 61967.93
000080 4b db 84 47 d7 21 3a 45 96 eb 7f 47 fc 6b 39 47
       68022.586 2978.115 65515.586 47467.984
000090 c8 be c7 47 a0 d3 82 45 9d a1 c1 47 f6 a6 4a 47
       102269.56 4186.453 99139.23 51878.96
0000a0 29 31 0a 47 de 72 39 45 7b f3 fe 46 38 79 df 46
       35377.16 2967.1792 32633.74 28604.61
0000b0 44 a8 51 47 7d 5b 7c 45 d6 c0 43 47 af 6a 02 47
       53672.266 4037.718 50112.836 33386.684
0000c0 8c e2 5a 46 b2 cc 45 45 a2 a6 2a 46 e0 a9 66 46
       14008.637 3164.7935 10921.658 14762.469
0000d0 c5 4d b4 46 49 1b 5f 45 ab a9 99 46 dd 5f 93 46
       23078.885 3569.7053 19668.834 18863.932
0000e0 aa a5 04 46 f1 60 96 45 42 59 68 45 9f 1c 0a 46
       8489.416 4812.1177 3717.5786 8839.155
0000f0 95 4c 2a 46 f0 1b 7c 45 73 80 d8 45 67 21 34 46
       10899.1455 4033.746 6928.056 11528.351
000100 98 ec 12 46 38 74 f5 45 2d 07 c5 44 d8 51 c9 45
       9403.148 7854.5273 1576.2242 6442.2305

network_body.processors.1.normalizer.running_mean f4 [8]
000000 db c1 bb 3d 9d 0c ba 3d d9 82 9f 3e ec 48 a3 3c
       0.09167834 0.09084437 0.31154516 0.019932233
000010 76 2e 34 b9 f8 45 00 3e ba a2 38 40 d9 82 9f 3e
       -0.00017183446 0.12526691 2.884932 0.31154516

network_body.processors.1.normalizer.running_variance f4 [8]
000000 73 4d 9e 48 88 4e c9 46 7a d7 db 48 cb ec bd 42
       324203.6 25767.266 450235.8 94.96249
000010 8d 2c 02 41 14 f9 5a 47 63 0f 43 4a 7a d7 db 48
       8.135877 56057.08 3.1958648e+06 450235.8
