results/ppo/RedCar/RedCar-1999500.onnx (onnx, 351914 bytes, 11 tensors)

network_body.observation_encoder.processors.0.normalizer.running_mean f4 [68]
00000000: a5c8 4a3f 3ff6 bf3c 51de 3c3e 35fa 003f
00000010: a1ee 283f 9a9d 003d ff0e 9e3e 828a 193f
00000020: 4bf4 5e3f 9e33 b93b 6dca fc3d 3334 d33e
00000030: 42e1 273f 4837 b33c df09 a53e 6b72 243f
00000040: 3fa7 703f d5ca 853b 23d2 643d 6707 ab3e
00000050: 163c 293f b597 083d ad74 9c3e 0b79 263f
00000060: 7018 773f 418b 3f3b 9f80 023d b4d7 8b3e
00000070: e65f 463f 66d9 143d b549 413e 6caf 233f
00000080: 4e06 7a3f c8ab 1a3b bbdd ab3c 0c87 693e
00000090: 08ed 4f3f 353b cf3c 0964 263e 8857 223f
000000a0: 83a1 7b3f d872 043b 417e 763c a4df 493e
000000b0: 99f6 3b3f 364a 8d3c 777c 7e3e 2847 1f3f
000000c0: dac5 7c3f ca64 fb3a 3b19 2f3c 22bd 343e
000000d0: c590 2d3f c7e3 393c 370f 9f3e d781 153f
000000e0: ff22 7e3f aa37 bb3a bcac bf3b fce9 253e
000000f0: 3ff9 323f 671c 093c b8c4 953e 6955 0a3f
00000100: 5e09 7f3f 99cd 7a3a 6cd7 373b 35d5 1c3e
0.7921241 0.023432849 0.18444182 0.50381786 0.6598912 0.0314003 0.30870816 0.5997697
0.8709151 0.005651905 0.12343297 0.41250762 0.6557809 0.021876946 0.32234094 0.6423709
0.940052 0.0040830174 0.055864464 0.33404085 0.6610731 0.033347804 0.30557767 0.65028447
0.96521664 0.002922729 0.031860944 0.27313006 0.7749008 0.03634014 0.18875773 0.6393955
0.9766587 0.0023600925 0.020979753 0.22805423 0.81221056 0.025296787 0.16249098 0.6341481
0.9829332 0.0020210054 0.01504475 0.19714218 0.73423153 0.0172473 0.24852167 0.6221795
0.987394 0.0019179818 0.010687168 0.17650273 0.67799026 0.01134581 0.31066296 0.58401245
0.9927215 0.0014283557 0.005849449 0.16202539 0.6991157 0.008368588 0.29251647 0.54036576
0.9962367 0.00095673796 0.0028051985 0.15315707

network_body.observation_encoder.processors.1.normalizer.running_mean f4 [8]
00000000: 1ed4 06be d90c c43d 44bd 203f 2c84 693b
00000010: 7e59 6037 0d1f 103e a493 0740 487c 133f
-0.13166854 0.09572763 0.62788796 0.003563176 1.3372277e-05 0.14074345 2.1183863 0.57611513

network_body._body_endoder.seq_layers.0.weight f4 [256, 76]
00000000: 059c afbd cec0 e3bd 978b 363d 2d20 903e
00000010: 0db8 973a 4989 193d 3ccb 683d dc17 3dbe
00000020: 691d acbd 8fc2 f03d 06e5 6dbd 8afd b33e
00000030: d110 d7bc 5279 073c 119b b8bc 0870 0b3c
00000040: 93d7 9cbd 4a35 20bd 5822 acbc da41 793d
00000050: 5c3e 0fbe 540f 123e 072f 273d 1247 ad3d
00000060: e248 323e 0f12 8e3c 287b a5bb c4ff ec3b
00000070: 64d6 273c df1c b0bd 3ce8 503e 9dc6 adbe
00000080: 75db dbbd b571 3ebe 1398 9f3d 4b53 9bbd
00000090: bb12 983c 36c2 d03c 6879 e3bd 062b 6d3d
000000a0: e087 813d ef03 233e 38c5 0ebd 4db5 0abd
000000b0: 0bea c93d 5e13 08bc 9ed6 2fbe d828 183e
000000c0: b0e3 d2bd 8725 623d b31b 433e e1b3 eebd
000000d0: 8e42 84bd dea4 69bc 0110 e3bd a47a 8ebd
000000e0: 742a ab3c 65bd 453d 5a82 13be c9b0 69be
000000f0: 138b cfbd d8c6 00bd 12ac f6bd c26e 17bd
00000100: 135b 5bbe 325d 883d 45b7 f9bc 6365 83bd
00000110: 9c2a 4e3e 399e 33be 8b68 9b3d 0f43 9fbd
00000120: 8a75 1bbd 3e46 02be 00e4 5b3e 590e 1a3c
00000130: e342 e5bc 17ae d43b dd5d 5b3b eedd a9bd
00000140: fe9a 033d 4e1b dabc 61c9 febc cec2 1cbc
00000150: f857 0f3d fddc 80bd 44ae 20bd f0c7 0d3c
00000160: 5e9a acbd 0485 84be 5e3f f7bd bb3a 28bd
00000170: 1bd1 80bd 443b b3bd de04 793d 381b 9d3d
00000180: 0aae dc3d d4a1 703e 6c26 eabb 4095 1d3e
00000190: 3427 163e 8d2c c73c e453 b8bd 49d6 fa3b
000001a0: 6d13 c13d 53ca 1ebd 64f8 5d3d a676 853d
000001b0: fd3f ed3d 2357 823d 8089 03bd b026 c4bd
000001c0: 3b6b 483c dfdb a5bd ffde 743d 4656 d4bb
000001d0: 1896 9c3d 8c46 593d a9a4 e9bd adc1 15be
000001e0: 5f9e efbd 95d0 bc3c 2641 6f3e d22e 20bd
000001f0: cb94 c0bc ed20 3fbe 91c1 18be 8cf2 36bd
00000200: 72a0 2bbe 465c 163d 7f50 d8bc b6ed 6bbe
00000210: dd5a cfbd a12d 593c a345 893e 75c4 093e
00000220: 76d3 993d 11ce f8bd 9aaf e4bc 9c15 b73d
00000230: 577a 56bd 96de 50bd 50c6 903d e26d 3abc
00000240: 267b a4bc 8339 473e 41a9 4dbe fef6 25be
00000250: 4042 5f3d 641e fb3d c8b8 563e f4eb 103c
00000260: 6a68 593e d59f c53c a78b 05bc 7f17 753d
00000270: 72a8 803d 54ca 28bd 9b16 23be 5e95 5fbd
00000280: 6ec6 86bc 34b5 803d daf2 0bbe 7317 ebbd
00000290: 5cc9 c3bd 3d33 0ebe fb41 5abe 2d21 f9bc
000002a0: 09e9 acbe 6631 dcbd 7ea1 7f3d 00d0 223d
000002b0: f04a 2a3d 9732 083e b672 153e 1126 a93d
000002c0: c817 24bd e6bc 9dbd 94fd 42be e34b a3bd
000002d0: b57a babd 87d6 dc3d e10e 823d 3f7a 793b
000002e0: 4b38 94bd 5adb 4abc c796 cf3d 485b f7bd
000002f0: ecd1 033e 2303 bcbd f077 d7bc aef5 43bd
00000300: 93f0 3f3e 89a9 f3bd 3714 3cbd f7d2 9ebd
00000310: 9fcb 013e 6f3f 2cbe 7f00 713e f706 12bd
00000320: c1e7 b0be 2261 a63d 79fb 053e 9ee7 e13d
00000330: 8fe3 f53a 0061 263d a1f7 493d 6de1 babd
00000340: 99a1 dcbd cbe1 3cbe 8b49 aabd 270b 90bd
00000350: a52b 11bd 8d25 32bc 449e 343e 88c7 193e
00000360: 5758 493c abdf 323d 8dd0 08bd 7c8e 093e
00000370: c1be 473e 4630 d8bb b2e4 f23d 790e 503d
00000380: fe9f 5a3c c61a fdbd db58 84be 7fc3 52bc
00000390: 63b3 60bc 8fdf 1c3e 1c8e 373e 1307 193d
000003a0: f7d2 c03e 34c7 9dbd c769 45be dade f2bd
000003b0: aa4b e6bd e45f 53bd 6680 b0bd 4b8b 683d
000003c0: ea65 afbc 8600 353d 1ee4 b13d 61cf f43d
000003d0: a10a eb3c f98c a43d 9c60 b6bd ce38 e7bd
000003e0: f3eb 9e3d d29b 43bd fb24 70be 6995 87bc
000003f0: b1d1 24be b38c 543d 6e1a 153d ed9d 52be
-0.0857468 -0.11120759 0.044566717 0.28149548 0.0011575237 0.03748444 0.056834444 -0.18466133
-0.08404047 0.11755859 -0.058079742 0.35154372 -0.026253136 0.008268671 -0.022534879 0.008510597
-0.07658305 -0.03911332 -0.02101247 0.060853817 -0.13988632 0.1426366 0.040816333 0.08460821
0.17410615 0.017342595 -0.0050500818 0.007232638 0.010243986 -0.08599257 0.2040109 -0.33940592
-0.107352175 -0.18598063 0.07792678 -0.07584246 0.018563619 0.025483232 -0.11107141 0.05790236
0.06324744 0.1591947 -0.03485605 -0.03386431 0.09859093 -0.008305399 -0.17171714 0.1485933
-0.10297334 0.05521157 0.19053535 -0.11655403 -0.06458007 -0.014260499 -0.11087037 -0.069569856
0.020894267 0.048276324 -0.14405194 -0.22821344 -0.10133948 -0.031439632 -0.120445386 -0.03697086
-0.21421461 0.066584006 -0.030482898 -0.06415822 0.20133442 -0.17540826 0.07588299 -0.07776462
-0.03795389 -0.12722108 0.21473694 0.009402835 -0.027985996 0.0064904797 0.0033472695 -0.08294283
0.032130234 -0.026624348 -0.031101884 -0.009567929 0.034996003 -0.0629215 -0.039228693 0.008653626
-0.08427881 -0.25882733 -0.12072633 -0.041071635 -0.06289884 -0.087515384 0.060795657 0.07671207
0.10775383 0.23499233 -0.0071456935 0.15388966 0.14663392 0.024313236 -0.09000376 0.0076549393
0.09427533 -0.03876717 0.054191962 0.06516771 0.115844704 0.06364276 -0.032113552 -0.095776916
0.012232597 -0.08098578 0.05978298 -0.006480011 0.076458156 0.053045794 -0.114083596 -0.14624663
-0.11700129 0.023048678 0.23364696 -0.03910715 -0.02350845 -0.18664904 -0.1491759 -0.044664904
-0.16760424 0.036709093 -0.026405571 -0.23039898 -0.10124753 0.013255508 0.2681094 0.13453849
0.07511036 -0.12148679 -0.027915765 0.089396685 -0.052362766 -0.050993524 0.07069075 -0.011378737
-0.020078253 0.19455533 -0.20084096 -0.16207501 0.05450654 0.12261656 0.20968926 0.008845318
0.21231237 0.024124065 -0.0081509715 0.05983686 0.062821284 -0.04120858 -0.15926592 -0.054585807
-0.01645204 0.06284562 -0.1366686 -0.11479082 -0.09559891 -0.13886733 -0.21314232 -0.030411327
-0.33771542 -0.107516095 0.06240987 0.039749146 0.041575372 0.13300548 0.1459454 0.08259214
-0.040061742 -0.07702045 -0.19042045 -0.079734586 -0.09105436 0.10783105 0.06350494 0.003806725
-0.072372995 -0.012381399 0.1013618 -0.120779574 0.12873048 -0.09180286 -0.026302308 -0.04784172
0.18744116 -0.11897571 -0.045917716 -0.07755082 0.12675332 -0.16821073 0.23535345 -0.035651173
-0.34551814 0.08123995 0.1308421 0.110305056 0.0018759834 0.04061985 0.049308423 -0.09125028
-0.1077301 -0.18445508 -0.083148085 -0.07033377 -0.035442013 -0.010873211 0.17638499 0.15017521
0.012289128 0.043670338 -0.033402015 0.1343326 0.1950636 -0.0065975515 0.118600264 0.050795052
0.013343809 -0.12358622 -0.2584904 -0.012863993 -0.013714644 0.15319656 0.17925304 0.037360262
0.37660953 -0.077040106 -0.19278632 -0.11858912 -0.112449005 -0.05160512 -0.0861824 0.056773465
-0.021410901 0.044189952 0.08686088 0.11953617 0.028691592 0.08034701 -0.089051455 -0.112901315
0.077598475 -0.047756024 -0.23451607 -0.016550737 -0.16095616 0.051891994 0.03640216 -0.20568056

network_body._body_endoder.seq_layers.0.bias f4 [256]
00000000: bb13 253c b608 ef3c 1ac8 41bc 354f ae3b
00000010: 4655 2a3c 3ef4 d53b 1a20 343c 88b9 013d
00000020: c434 c9bb 7ebd 3d3c 3419 853c 75f0 9e3a
00000030: 8b4e 913b 84b8 2f3d 78a9 0a3d e2a2 f6bb
00000040: ef68 a23c 2010 7e3c c3d3 333c 5e2d 9b3c
00000050: 8633 233d ccfc 4f3b f110 313d 883c 383c
00000060: 1ec7 e4bc 23b8 02bc 3b7e cb3b 26c5 dfbb
00000070: dd5d 163b c84d 833c 43c3 0a3d 8fa0 abbc
00000080: 9b49 5e3d 19b4 873c 525f 333b 2db6 e43c
00000090: 7e4b e43c d68d 92bc 3e07 873c ca11 d23c
000000a0: 0db0 c73a 8c54 91bb 3af9 15bc 62b6 be3c
000000b0: f462 23bb 630b 03bd 25f8 b03c cda8 a6bc
000000c0: c302 0eb9 6688 2a3c 8559 96bc 6699 e93c
000000d0: 7264 0a3c 8b1a abbb 9199 31bb f5c9 e0bb
000000e0: 4df0 43bc c553 2c3c e784 293c 0d4a 6a3c
000000f0: e96d 70bc 1646 48bc f248 ebbc 24c0 393b
00000100: a367 943c fea5 263c 80c2 c83c 3a72 8abb
00000110: c1b4 e33b 6a8c 86bc f3d3 5ebb 4fc5 d03c
00000120: b6e8 e4bc 7935 54bc 00f1 5b3c 298a b93c
00000130: 2a6c ab3c 282e 48bb 25e4 2b3d 2c70 debc
00000140: b3a8 0ebd cfed bebc df3a 1a3d 2b1f 863b
00000150: b47b 843c 6a79 803c 2903 87bc 2558 ea3b
00000160: bd03 833c 58c0 ce3c bf3a 8c3c c270 7f3b
00000170: e770 563c 175a 12bb 16d7 2f3a b387 bb3c
00000180: 17dc 073b 3b9c 04bd b1d2 653c 7d3f aa3c
00000190: 3ef8 63bc bb78 b9bc 73dd 0e3d d755 89bc
000001a0: eb0b e63c 9267 ca3c de27 9b3c 5783 8abb
000001b0: b4fd 1bbc 33b0 0abd 6747 49bc 6f6f 583c
000001c0: 5ee2 d73c 3e96 42bc 56af 023d c375 8dbc
000001d0: f207 1e3b 6a5c aa3b c5f3 9c3c fc2d 82bc
000001e0: 0c91 473d 7f10 d83b 258c c73b b7cc 0939
000001f0: 1ada 923c b50a 0b3d 3a43 aa3c 1efa 003c
00000200: af29 94ba 9e2d cb3c 2ffe b2bb d7f6 f13b
00000210: eb8f af3c c58e 943c 8f12 ce3b 453e e63c
00000220: 00f5 293c df0f f7bb 6b39 05bc 4b08 823c
00000230: 947c 64bb 45cf f0bc 0365 d0bc 9b2f b23c
00000240: c7ad ab3c 30ae 063d 7726 4cbc 7ecc 8339
00000250: b9ff 6e3c 4310 af3c 9f7a d5bc d644 703c
00000260: f13a 25bb 86f5 1f3c d8b3 8cbc 694a 37bc
00000270: 1e3f 553c 074f c23c 8b93 963c fb85 8a3c
00000280: 7078 7c3c 37c7 7d3c a155 ed3c b4d3 2b3d
00000290: 1221 863c 6f14 df3a d04d ab3c 9c28 243c
000002a0: 5aba 353c 2b54 90bb 0ce1 0dbb c3f8 e33c
000002b0: 849a a23c dca7 30bc 3c1b 073d ac00 533c
000002c0: a3b6 b43c f41a 073d c7b6 d2bc c746 0dbd
000002d0: 84b8 023d fda1 2f3a 3d43 4e3d 2026 4d3b
000002e0: 19bc 2d3d 894e e6bc 2e19 2e3d 16a5 1fbb
000002f0: ffe0 013d b368 723c 9f1d d6bc e410 4f3c
00000300: d276 f0bc eb53 b13c a529 a5b9 50ed 9a3b
00000310: c1c5 c73c c07e ad3c a8b8 44bc 4e89 02bc
00000320: 95c2 073d b5bc d83c 3c13 01bc 3b5b 46bc
00000330: 9697 013d f443 61bc 79ce 5cbc 20ce f6bb
00000340: 0358 163d a968 10bd 2a4c 1c3d efc6 103d
00000350: 957f 0cbc 1832 8d3c 61d4 13bd 5ad9 c3bc
00000360: fcab c93c 6754 b2bc dceb 2e3c e049 c0bc
00000370: b11d 44bc e09b 8ebc a396 843c 3b39 f1bc
00000380: c918 033c 4f50 0fbb 6fd2 813c 6b95 56bc
00000390: 4920 e4bb 1b0c 033b 3ec7 f73c e958 8dbb
000003a0: 0013 6dbb a1b6 aa3c 4885 313d 1cdd 9c3c
000003b0: 9b47 debc afcd 2f3c eb0d e43c fdbc 05bb
000003c0: ab32 ac3c 5169 d43c a824 543b c4b3 153c
000003d0: c32e b2bc ad40 0cbc 4ad1 013d b59c 193d
000003e0: f1ab 7f3c af17 8abc 30da 40bc 7cae 803c
000003f0: be01 723c aa67 abbc 7e95 23bd 42a0 fe3b
0.010075505 0.029178958 -0.011827493 0.005319501 0.010396307 0.00652936 0.010993982 0.031671077
-0.0061403234 0.011580823 0.01624737 0.0012126105 0.004434412 0.042900577 0.033853024 -0.0075267414
0.019825427 0.015506774 0.010975781 0.018942531 0.03984406 0.0031736372 0.043229047 0.0112449005
-0.027926978 -0.007978472 0.006210116 -0.006828922 0.002294413 0.0160283 0.033877622 -0.020950584
0.054269414 0.01656537 0.0027370048 0.0279189 0.027868029 -0.017889898 0.016482946 0.025643248
0.0015234962 -0.0044351276 -0.0091536585 0.023280326 -0.0024930807 -0.03199328 0.0216027 -0.020344162
-0.00013543204 0.0104084965 -0.018353233 0.028515529 0.0084468 -0.00522167 -0.002709959 -0.0068600127
-0.011959148 0.010518019 0.010346628 0.014299882 -0.014674642 -0.012223741 -0.028721306 0.0028343285
0.018115824 0.010171412 0.024506807 -0.0042250426 0.006949038 -0.016424377 -0.0034000843 0.02548471
-0.027942996 -0.012952202 0.013424158 0.022648888 0.0209256 -0.003054509 0.041965622 -0.027153097
-0.034828853 -0.023306755 0.0376538 0.004093071 0.016172267 0.015682895 -0.016480999 0.007151621
0.015992993 0.025238201 0.017117856 0.003897712 0.013088441 -0.002233153 0.00067077705 0.022891855
0.002073055 -0.032375555 0.0140272835 0.020782227 -0.013914166 -0.022640577 0.03487916 -0.016764564
0.028081855 0.02470759 0.018939909 -0.0042270827 -0.009520937 -0.033859443 -0.01228509 0.013210162
0.026353057 -0.011876641 0.031905495 -0.017268067 0.0024113622 0.005199005 0.019159207 -0.015891068
0.04872231 0.0065937634 0.0060897046 0.000131416 0.017926265 0.033945758 0.02078401 0.007872133
-0.0011303927 0.024802025 -0.00546243 0.007384162 0.02143093 0.018134484 0.0062888335 0.028105864
0.010373354 -0.007539734 -0.008131365 0.015873095 -0.0034864293 -0.029395709 -0.025438791 0.021751216
0.020956887 0.032880962 -0.012460343 0.00025138626 0.014587336 0.021370059 -0.026059447 0.014664849
-0.0025212134 0.009763127 -0.0171756 -0.011187174 0.013015537 0.023719324 0.0183809 0.01690959
0.015409574 0.015489391 0.028971495 0.041949943 0.016373191 0.001701964 0.020911127 0.010019448
0.011091793 -0.004404565 -0.002164903 0.02782858 0.01984907 -0.010782208 0.032984957 0.012878578
0.022059744 0.03298469 -0.02572192 -0.034491327 0.03191425 0.00066998583 0.050357092 0.0031303242
0.042415712 -0.02811362 0.042504482 -0.0024359873 0.031708714 0.01479547 -0.026137171 0.012638304
-0.029353533 0.02164646 -0.0003150228 0.004727997 0.024386289 0.021178603 -0.012006916 -0.007967306
0.033144552 0.02645717 -0.007878121 -0.012106712 0.031638704 -0.013749111 -0.013476961 -0.0075318962
0.03670503 -0.03525606 0.038158573 0.035345968 -0.00857534 0.0172358 -0.036091212 -0.023907352
0.024618141 -0.021768762 0.01067635 -0.023472726 -0.01196997 -0.017408311 0.01618511 -0.029446235
0.008001515 -0.0021867936 0.015847413 -0.013097147 -0.0069618565 0.001999623 0.030246373 -0.0043135774
-0.0036174655 0.020839037 0.043339998 0.019148402 -0.027133754 0.010730191 0.027838668 -0.0020406835
0.021020254 0.025929125 0.0032370482 0.009137098 -0.021750813 -0.008560342 0.031693734 0.037502963
0.015604959 -0.016856996 -0.01177077 0.0157082 0.014770923 -0.020923454 -0.03993749 0.007770569

network_body._body_endoder.seq_layers.2.weight f4 [256, 256]
00000000: a434 c2bd 87b1 1cbe 1433 053e d5d8 1cbe
00000010: a75b 97bc a34e a83b 4454 9e3c fa04 afbc
00000020: cc86 8abd 2f40 0e3c f32f a2bd 09c0 353d
00000030: b352 35bd 4583 dbbd 5019 dd3d e518 cabd
00000040: f99a b03d bad6 90bd d28e 3cbd 93d1 053c
00000050: bbcb c3bc e53c 7e3c 7191 01be f57f 3b3d
00000060: f612 f63d a898 6fbb 1b21 b63c eac1 7fbc
00000070: effd 873d d94a 00bc c4d8 2a3d 6417 94bd
00000080: dabf 91bc 38cc 893d 4ce0 b13d a9c9 0d3e
00000090: 55fe f6bc 3357 8e3c 7f64 b2bc 36a0 3fbd
000000a0: 3aee 95bc 85ff d83c b9b2 a63d cbfd efbc
000000b0: 0d00 763c 9f47 80bc e610 3e3d 686c cdbc
000000c0: a6e1 af3d 50ee a4bd 3d77 2cbe 46e8 4fbb
000000d0: b906 c6bd 3a28 343e 100f 1e3c 33c9 3abd
000000e0: 79d1 56b9 4912 7f3d 3b34 a0bd d4e2 133c
000000f0: cb06 1bbd 2850 033d 60f1 8a3d 9b8e f6bb
00000100: 8f21 02be 2c20 cb3d 23f2 ca3d cb87 dcbc
00000110: 0f9a 28bd 7992 913b 0b8f 6abd ef22 a5bd
00000120: a12c b6bb ae1b 06bd defc 7dbd e83f 943d
00000130: b47c 4c3d bc23 83bc c484 193d dbe9 173d
00000140: f347 643d 6299 a6bc 48cf b7ba cc76 44bd
00000150: a096 303e 03dc 01bd 2ed3 64bb 5c08 8abd
00000160: c6e1 323d 9cd4 79bd 8614 25bd 165e d73c
00000170: 4a39 b8bc 4cca 4d3d 20f9 753d af19 693d
00000180: a8b0 34bd b655 1bbc fbb7 82bd 7f24 42bc
00000190: 4444 803c c6d9 82bd 9fb9 f2bc 76b8 273c
000001a0: 1ce4 1c3d 2b48 f93c 3b5b 36bd e88b 21bd
000001b0: 1b0a 1b3d a9e1 9e3d 6237 04bd 6b4a 01bb
000001c0: d0db 30bd ceb9 183c c5b3 bcbc c3e2 d9bd
000001d0: d5af 773d 760e 50bd 64f3 6f3d 0e46 913c
000001e0: 4b10 01be 5798 bbba 3064 d0bc a5f4 adbc
000001f0: de96 af3c 608a 3fbe fe1a 34bb 99db 42be
00000200: 4fd3 c4bd 5dc3 6f3d e17b 263d 2511 76bd
00000210: d667 7cbd a803 893c ea68 1cbc f772 00bd
00000220: f481 643d 37dd d0bd b9ff e23c d28b 093d
00000230: c046 0bbd e927 323d db41 6abd d9fe 27bb
00000240: 4c84 773d c073 06be 9c09 8a3d 94c4 223d
00000250: a02c bebd 32a0 a93c 3c04 92bd 5d2f c13d
00000260: 88b3 7abc 0823 7c3d e3b6 7bbd 1ca3 fd3c
00000270: c2e7 c83d 11c9 c5bb e508 493d a446 5fbd
00000280: b21e c5bc 9238 d2bc 2a23 2e3d 0fd2 a63c
00000290: 0ba8 4fbd dc02 49bd bae8 48bd 7b7e 343a
000002a0: a1ee f5bc a449 5f3d c391 ff3d 8de1 e7bc
000002b0: 4c17 c3bd f12b 853b 22d7 a93c f719 4bbd
000002c0: 38a7 28bd 48e0 b9bc 6551 653d 9c6e cdbd
000002d0: 1cf7 a8bd 4023 9ebc 780b bb3d d3e3 74bc
000002e0: cc10 36bd 407d a13d 4dbc c0bd cf24 293d
000002f0: 123e 35bc 4a02 be3d 4467 d4bc a767 d8bc
00000300: e08d 013e 09e4 a3bd 9af5 983c 6eb4 933d
00000310: 16b7 5bbd fdff 583d 6f4a a63d acb8 513d
00000320: a8eb 183c 2c54 b5bc d4dc 043e e34f c2bd
00000330: c0b4 52bc 599c 1a3d 8d14 68bc 2906 5fbd
00000340: 1716 c03d 6d31 143c 257b 743a 6e5a 9d3a
00000350: 3012 253d ece3 043a f819 54bb a902 2e3d
00000360: 92f4 fa3b 38ae 0bbd d41b a93c 2ec9 ef3c
00000370: 837e 0f3d 0625 63bd 8b91 8d3b d6c0 413d
00000380: c88b 2abc 7cfe 303d b2c1 6b3c 8e2a 8a3a
00000390: a92a 1dbd d8f2 23bb b80f 1ebe 7808 34bc
000003a0: 8990 5a3d 9e19 583d 538e ea3d a07c dcbc
000003b0: c04d d33d 1d97 fc3c b4d4 99bd 17ee c53d
000003c0: 0241 053c 9bb8 b6bd 1574 493d 0ba8 3fbd
000003d0: ef04 453d d987 1dbe 9e24 b03d 0758 8dbd
000003e0: 77de 2f3c 3f25 c3bc 0160 a43c 17af c1bd
000003f0: 5217 843d 37bb 6b3d 646b 5d3d 09ce dcbd
-0.09482697 -0.15302096 0.13007766 -0.1531709 -0.01847632 0.0051363274 0.01932729 -0.021364678
-0.06763992 0.008682295 -0.07919302 0.044372592 -0.04426832 -0.10718397 0.107958436 -0.098680295
0.08623309 -0.07072206 -0.04603464 0.008167642 -0.023900857 0.015517448 -0.12653138 0.045776326
0.12015335 -0.0036559496 0.022232583 -0.015610198 0.06640231 -0.007830345 0.04171063 -0.07231024
-0.017791677 0.06728405 0.08685359 0.13846458 -0.030150572 0.017375564 -0.021776436 -0.04678365
-0.018302072 0.026489029 0.081395574 -0.029295823 0.015014661 -0.015659152 0.046402834 -0.025076106
0.08587961 -0.08053267 -0.16842361 -0.003172414 -0.09669251 0.1759347 0.009647146 -0.045602035
-0.00020486665 0.062273297 -0.07822462 0.009026248 -0.037848275 0.032058865 0.0678432 -0.007524324
-0.12708114 0.09918246 0.09909465 -0.02692022 -0.041162547 0.0044425097 -0.057265323 -0.08063304
-0.0055595194 -0.03274124 -0.06200873 0.07238752 0.049923614 -0.01600825 0.03748013 0.037088256
0.05573268 -0.02033681 -0.0014023567 -0.047964856 0.17244959 -0.03170396 -0.0034915912 -0.06739876
0.043672346 -0.060993776 -0.040302776 0.02628998 -0.022488255 0.050241753 0.060052037 0.05690926
-0.044113785 -0.009480884 -0.06382748 -0.011849522 0.015657552 -0.06389193 -0.029629527 0.01023685
0.03830348 0.03042992 -0.044520598 -0.039440066 0.037851434 0.07757885 -0.03227938 -0.0019728194
-0.04317838 0.009321643 -0.02303494 -0.106389545 0.06047042 -0.05079504 0.058581725 0.0177336
-0.12603872 -0.0014312369 -0.025438398 -0.02123482 0.021434244 -0.1870513 -0.002748191 -0.19029082
-0.096106164 0.058535922 0.040645484 -0.060074944 -0.061622463 0.016725376 -0.009546498 -0.03135964
0.055787995 -0.101984434 0.027709829 0.03358061 -0.03400302 0.043495093 -0.05719171 -0.0025634079
0.060428903 -0.13130093 0.06740114 0.039738253 -0.09285855 0.02070627 -0.07129714 0.09432862
-0.015301593 0.061556846 -0.06145371 0.030961566 0.09809829 -0.006035932 0.049080748 -0.054510728
-0.024062488 -0.02566174 0.042514004 0.020363836 -0.050697368 -0.049074993 -0.04905007 0.0006885302
-0.030021014 0.05451359 0.12478974 -0.028305793 -0.09525928 0.004064076 0.020732466 -0.04958531
-0.041175097 -0.022689953 0.055985827 -0.10030863 -0.082502574 -0.019303918 0.09133047 -0.014946896
-0.044449612 0.07885218 -0.094109155 0.04129487 -0.011062162 0.0927778 -0.025928147 -0.026416613
0.12651777 -0.08002479 0.0186718 0.072121486 -0.0536414 0.052978504 0.08119666 0.051201507
0.009333529 -0.022134863 0.12974864 -0.094878934 -0.012860477 0.03774676 -0.014165056 -0.054449234
0.09379213 0.009044987 0.00093262113 0.00120051 0.040300548 0.00050693634 -0.0032364111 0.042483006
0.0076585496 -0.034101695 0.020643152 0.029270735 0.03503276 -0.05545523 0.0043203286 0.047303043
-0.010409303 0.043211445 0.014389442 0.0010541247 -0.038370762 -0.0025016572 -0.15435684 -0.010988347
0.053360496 0.052758805 0.114529274 -0.026914895 0.10317564 0.030833775 -0.07511273 0.09664553
0.008133175 -0.089219294 0.04918297 -0.046791118 0.04810041 -0.15383853 0.08600734 -0.069015555
0.010734192 -0.023821471 0.02006531 -0.09457224 0.064497605 0.05755159 0.054057494 -0.107814856

network_body._body_endoder.seq_layers.2.bias f4 [256]
00000000: 335e 27bc a5c5 c43b 5402 903b c330 8f3b
00000010: 4f66 1abc 7fc6 453c 0a48 fb3b 74cc 90ba
00000020: 0935 4d3c 9c46 24bc f532 1e3d 0ca2 a13c
00000030: 5f95 13bc dc27 153d d2c6 c3bc 31e8 24bd
00000040: 3540 b7ba 70c3 f2bc 378e d83b dc1d d33c
00000050: a34d 403b f61b fd3c 758c b2bc 427e 4fbc
00000060: 4efd 82bc f255 21bc 6581 3f3c 00f9 6f3c
00000070: b364 013d ee54 09bd a277 06bc c072 d93c
00000080: 644f 2c3d 89cc 53bc 444a 6ebc 029a 163d
00000090: ff05 b2bc 1584 07bc 80a0 983c 2c72 11bc
000000a0: 298d 2cbb e615 003d 66dd 463c 24df 123d
000000b0: a4a1 083d 75c7 b9ba b724 8cbc 5b89 bbbc
000000c0: 2b1c 55bc 4ca0 8e3c 24bb 023d f438 db3b
000000d0: efd7 be3c 92d6 f93c 212a ce3c d9f5 d13c
000000e0: 708c 0c3d 0f6f bfbc 45a6 d63c f103 9d3c
000000f0: 8b14 83bc b9f6 353d df4f 9d3c 6a6c 4fbb
00000100: 70a7 ac3c 63c1 2f3d ee38 a33b ceff ed3c
00000110: bcdb 41bc 9e1c dd3b bd55 413c 112a 48bb
00000120: b189 1bbd 0f46 893c c276 eb3a a79a d0bc
00000130: 87b3 edbc adeb e23c 9ab7 0fbd 7c85 81bc
00000140: 0396 33bd 9e53 26bc 6118 fe3b c788 2a3c
00000150: b4ff 4a3c eea0 63bb 396c 15bd 70dd 9abc
00000160: a2b1 28bc 41ee 53bc 609f db3c 51df 953b
00000170: fe4d b63c be3b 0d3c d731 b6bc 249f 433c
00000180: 6603 05bd 7460 a03b 5e3c 19bd ee55 b0bb
00000190: 5440 f43c c525 00bc 3bf9 08bc 7596 313c
000001a0: 679e 123d 87be f53c 918a c93c bd78 99bb
000001b0: d6d0 973c 50d1 a8bc 4971 62bc c61d dcbc
000001c0: 5b47 913c 99b3 f93b 21ee 8abc f128 06bd
000001d0: 7019 213c c82f d33c a138 ab3c 2a71 b8bc
000001e0: 156e 8f3c 8568 04bc 8eb5 b5bc f2f5 bb3c
000001f0: 8f9e 18bb 77fe 6bbb 5abd 68bc c738 603c
00000200: 2165 d73c a652 d83c a0d7 8c39 c9f5 53bc
00000210: a751 06bb 7792 ebbb acd2 b53c c067 533a
00000220: 3c06 5b3c f172 b83c 3588 fa3c f0e8 9c3c
00000230: 97f1 d63c 4ccc 2139 9a59 65bc 1a9b 86bc
00000240: 14d9 cbbb 65bc 1bbd aa25 bdbc 45ba f5bc
00000250: 6f1f b9bc 1a96 08bc 9e43 953c 8952 e23c
00000260: 8c8d 873c fa95 4bbb 9597 aa3c 814b 86bc
00000270: 8caa a8bc 8cd3 8ebc a435 f8bc 8691 ae3c
00000280: d633 8ebc 6b6f a0b7 260b 0cbb 016a a03c
00000290: fe2e 8d3c c4b0 ebbb 2d5e bbbc 6a10 86bc
000002a0: 6b2b 543c a21d 573c 4843 27b9 d037 b9bc
000002b0: cc96 ad3c fe12 debb 4f18 06bb ad39 893c
000002c0: 4b41 fd3c ce0c f03c 9f56 d83b b80f fe3c
000002d0: d079 263d 648c 963b 49bb 8a3c bb5d b03c
000002e0: d75d 273d fc0e 143c fed4 3cbc 6026 063d
000002f0: f7e4 733c 6e1e 05bc 0c84 46bc bb37 923c
00000300: 47de f2bb 66d9 243b 3040 3fbc 88ec 81bc
00000310: c253 063d 890d 8abc 275d 163c 4ece 493c
00000320: 3bff b6bb 4790 d23c 6b79 ac3a f2d0 0a3c
00000330: 9877 833c 705f 8ebc 8d9b 8dbb 76f0 03bd
00000340: 07bc e53c ddaf 81bb c899 3bba 56a7 1d3d
00000350: 086c 453c 46fb 78bb b332 00bd e06d bebc
00000360: a830 6c3c 394f 823c 55bf 8abb 6103 9fbc
00000370: 0dd0 cd3c dd24 0d3c a3d0 2f3c c83a 3a3b
00000380: d564 95bb b4f3 b43b 5c85 fa3c a724 103d
00000390: b27b d8bb 8270 1d3d 6c9f 42bc 39bd b7bb
000003a0: c090 bebc 2c2c 44ba f29d 093c 4464 e13c
000003b0: f702 f7bb 2b7a 953c 9ca1 0a3d 33f1 9cbc
000003c0: 78f1 f5bb dde3 68bc 6ef5 f33c 99fc f7bc
000003d0: e721 203c 4eba 16bd 3955 ec38 0ffd 0cbd
000003e0: c5cd 243d 7432 48bb a608 c63c 614f bc3c
000003f0: cde2 c0bc 6182 4abd 26ba f5bb c1d1 513c
-0.01021533 0.0060050064 0.004394809 0.0043698265 -0.009423806 0.012071251 0.0076685 -0.001104726
0.012524852 -0.0100266 0.038622815 0.01973059 -0.009007781 0.036414966 -0.023898516 -0.040260497
-0.0013980927 -0.029634207 0.00660875 0.025771074 0.002934315 0.030897122 -0.02179549 -0.01266438
-0.015989926 -0.009847151 0.011688565 0.014646769 0.031590175 -0.03352826 -0.008207234 0.026543975
0.0420679 -0.012927183 -0.0145440735 0.036767967 -0.021731375 -0.008271237 0.01863122 -0.008877318
-0.0026329255 0.031270884 0.012137746 0.035857335 0.033357278 -0.0014173823 -0.01710735 -0.022892645
-0.013007204 0.01741042 0.031916752 0.006690139 0.023296325 0.030497823 0.025166573 0.025629925
0.03431362 -0.023368387 0.02620233 0.019166918 -0.016001007 0.044424746 0.019203125 -0.0031650313
0.021075934 0.042909037 0.004981152 0.029052641 -0.011832174 0.006747796 0.011800227 -0.0030542652
-0.03797311 0.01675704 0.001796447 -0.025464369 -0.02901627 0.02770027 -0.035087205 -0.01581072
-0.043844234 -0.010151772 0.007754371 0.010408587 0.012390066 -0.0034733373 -0.036480162 -0.018904418
-0.010296257 -0.012935222 0.026809394 0.0045737405 0.022253986 0.008620201 -0.022240562 0.011939798
-0.032473944 0.0048943106 -0.037411086 -0.0053813374 0.02981583 -0.007821505 -0.008360202 0.010839094
0.035795595 0.029998077 0.024602206 -0.0046835826 0.018532198 -0.02060762 -0.013820955 -0.026869666
0.01773422 0.0076202867 -0.016959252 -0.03275389 0.009832725 0.02577962 0.020901026 -0.022514898
0.017508546 -0.00808156 -0.022181299 0.022944424 -0.0023287868 -0.0036009827 -0.014205301 0.013685412
0.02629334 0.026406597 0.00026863534 -0.012937018 -0.0020495446 -0.007189091 0.022195183 0.0008064471
0.013368186 0.022515746 0.030582527 0.019154042 0.026238246 0.00015430263 -0.013998413 -0.01643138
-0.006220946 -0.038021464 -0.023089249 -0.029996047 -0.022597997 -0.008336568 0.018220719 0.027627246
0.016546987 -0.0031064735 0.020824233 -0.016393425 -0.020589136 -0.017434858 -0.030299015 0.021309625
-0.017358702 -1.912537e-05 -0.002136895 0.019581797 0.017234322 -0.007192703 -0.022872055 -0.016365249
0.012949805 0.013129624 -0.00015951425 -0.022609621 0.02119007 -0.0067771664 -0.0020461266 0.016751135
0.030914923 0.02930298 0.006602123 0.031013355 0.040643513 0.0045943726 0.016935008 0.02152907
0.040860977 0.009036776 -0.011525391 0.03275144 0.014886132 -0.008124931 -0.012116443 0.01784884
-0.0074117514 0.0025153994 -0.011673018 -0.015859857 0.03279472 -0.016852157 0.009177483 0.012317253
-0.005584625 0.025703562 0.0013158744 0.008472668 0.016048238 -0.017379493 -0.0043215216 -0.032211743
0.02804376 -0.003957732 -0.0007156399 0.038489662 0.012049682 -0.0037991568 -0.03129835 -0.023245752
0.014415897 0.015906917 -0.0042342343 -0.01941079 0.02512362 0.008614746 0.010730895 0.0028416384
-0.0045591393 0.0055222157 0.030581169 0.035191204 -0.0066065425 0.038437374 -0.011878829 -0.005607274
-0.023262382 -0.0007483389 0.0083994735 0.02751363 -0.0075381952 0.01824673 0.03384553 -0.019157982
-0.007505592 -0.014214483 0.029780116 -0.030271815 0.009773708 -0.036798768 0.00011269231 -0.034421023
0.0402353 -0.003054765 0.024174046 0.02298707 -0.023545647 -0.049440745 -0.0074989973 0.012806357

action_model._continuous_distribution.log_sigma f4 [1, 3]
00000000: dbb2 16bd 1d55 d6bd 6282 14bd
-0.036791664 -0.10465453 -0.036257155

action_model._continuous_distribution.mu.weight f4 [3, 256]
00000000: 81a0 c0bb 2300 473c b611 133c f700 cdbc
00000010: 83ab fcbb 3fc5 0c3b 01ad d03c a26a a0bb
00000020: 3c8b f43c 54ab 1f3c 773f e13c 6a7f ef3b
00000030: 2b58 9dbc f6b2 323d d31f 13bd 22df c8bb
00000040: 5bcb 31bc 7779 2abc ffce e8bc 135c 783c
00000050: 6e4d 583b 4039 55bb 622d 45bc 6af4 95bc
00000060: b61f dd3b b3b8 133c 3694 81bb a6c9 333c
00000070: 8b17 a13c 7ba5 9ebc ebb4 69bc 85cc 903b
00000080: 3bea 093d 5a9d 88bc e7ae 17bd fbc8 063d
00000090: cb02 a8bc c389 7a3c 4eb4 0ebc ec47 ebbc
000000a0: f6f9 71bc 3aeb a1bb c4dd 8dbb 74a1 073d
000000b0: a65c ce3c 3203 8a3b fac1 88bb 5929 babc
000000c0: f1e1 0c3c 4766 423c 9a26 9f3c b16c 073b
000000d0: e5ef 133d 8c36 fe3c b7c8 6c3a ae1f e73c
000000e0: 866a 163d df4a 2fbd 5cc4 1ebc fbeb 003c
000000f0: 740e 76bd 9e8c 673d 989f ea3c bec1 91bc
00000100: a3a2 c53c 4418 2e3d 94fc e439 08b2 d73c
00000110: 7698 533b d772 8e3c 95dd 973c 0e9c a6bc
00000120: 6511 4dbb 0892 8bbc 62c3 0cbd aaae 17bd
00000130: da0f d7bc 5b48 863c b58a 09bd c681 53bc
00000140: 8764 0e3c 006f 573c 4428 8b3b cc09 43bc
00000150: fa4c bc3c f7ec 00bc 41eb b1bc 01a1 3abc
00000160: a27d aabc 0dc1 03bb b292 04bc e29f 42bc
00000170: fdad 8c3c b59d 14bd ce57 04bd 395f 9a3c
00000180: dcea 263b a4ac 4bbc aa84 b8bc 6552 acbc
00000190: c6c4 363c dc00 36bc 9efc febc f4ba c1bb
000001a0: 2539 143d ef48 023d f0c9 693c 101e cd3c
000001b0: f6b3 873c 7e42 4cbc 7e2b 82bd 1134 7abd
000001c0: a06c d1bb 5af3 00bc 28a8 40bd 5224 40bd
000001d0: 35eb 8a3b 5690 f83c 8042 d13c b2ef 5a3c
000001e0: ef11 923b 2d48 cbbc b86a 5fbd 3dc5 603b
000001f0: d3b5 663a 72c1 46bb 26e2 07ba 67c8 e5bb
00000200: 40af 0e3d 135a 743c c05b f5bb 54f3 41bd
00000210: 7ddf 12bd 9d03 d7bb f916 4d3c b6be 11bc
00000220: 9489 b63c 2e98 b03c 01ca 093d d092 c53c
00000230: 4d84 d33c 343a afba d51b 76bc 7ab8 88bc
00000240: b64f 5bbc 17e9 9abc db7d 86bc 8f01 48bc
00000250: 80b0 c2bc db08 23bd 9ac8 a03c 698f 963c
00000260: b180 873b bab2 993c 53fe 833b 2f55 93bb
00000270: 4050 54bc 2386 7dbb 0de2 96bc 5cfb 3c3d
00000280: 09c3 06bc b9a4 673c e1ec f6bc b684 1f3c
00000290: 405a b23c 2a20 4a3c 5cc2 f5bb c9ca cfbc
000002a0: 00fc 9e3c 6d46 7d3c c77a 08bb 53f5 bebc
000002b0: f5b2 ccbb 41a7 34bd b409 c73c 0b30 0439
000002c0: ccb9 bb3c 882b 553b d2ce 723c 563d ed3c
000002d0: be6b 763c 0c8c 813c 7dd7 a8bb adc7 fd3c
000002e0: af3a 3e3d 4b48 973c ffe2 0fbc f7eb 163d
000002f0: 966b d3bb 53b2 63bd 9487 65bd 06c7 d23c
00000300: e9ea 3b3c d5c4 0e3c 9e20 f73b 711a 35bd
00000310: f416 2b3b 76a9 673b 3058 5dbc db2f 8a3b
00000320: 54c1 cdbc ad72 083d 309b abbb 3ec2 643d
00000330: 60bb f83c 83d2 27bb 31d0 f1bc afd1 07bd
00000340: 0aa3 023c e947 1cbc d3eb ebbc 4e03 193d
00000350: f8d2 813c b52d 9bbc a377 2ebc 8709 8dbc
00000360: e0bd 8c39 94bf 2c3a 18ab 23bc c712 13bc
00000370: 757b 683c 4c39 9d3b d8d9 f839 b01a 1c3c
00000380: 8c5a 46bc e339 883b f076 983c fa9b 433c
00000390: 82b1 f1bb 4837 6f3c c397 4ebd ade3 7abc
000003a0: 35ea 65bc 0fac e83c a9f9 043c 25f4 f33c
000003b0: a6dc dfbb bab9 413c 5514 bb3c 7813 4b3c
000003c0: 68be 88bd 220b 1abc 452a 5b3c c93c 37ba
000003d0: a749 0dbd 7f28 e5bc df65 ec3b cbc6 c1bc
000003e0: 4c14 f53c 7c74 293c 4e5d e73c 7d99 8ebc
000003f0: e245 d0bc 84a5 bbbc 3fee 20bc 29cc f5ba
-0.0058785086 0.012146029 0.008976391 -0.025024874 -0.0077108755 0.0021479873 0.02547312 -0.004895524
0.029851548 0.009745438 0.027496083 0.00730889 -0.01920708 0.0436277 -0.03591902 -0.006130115
-0.010851706 -0.010404936 -0.028419016 0.015158671 0.0033005136 -0.0032535344 -0.012034746 -0.018305022
0.006748165 0.009016204 -0.0039544357 0.01097337 0.019664546 -0.019366017 -0.014264326 0.004418912
0.033670645 -0.016676594 -0.037032034 0.032906514 -0.020509144 0.015291634 -0.00870998 -0.028720818
-0.014769068 -0.0049413713 -0.004329415 0.033112958 0.025190663 0.0042118067 -0.0041735144 -0.022724794
0.0085987905 0.011865205 0.019427586 0.002066415 0.036117453 0.03103187 0.00090325944 0.028213348
0.036722682 -0.042796012 -0.00969037 0.007868762 -0.060072377 0.056530587 0.028640553 -0.017792579
0.024125403 0.04250361 0.00043675734 0.02633001 0.0032286919 0.017388744 0.018538276 -0.020338085
-0.0031290886 -0.017037407 -0.03436602 -0.037031807 -0.026252676 0.016391924 -0.033579547 -0.012909358
0.00869096 0.013149023 0.0042467434 -0.011904191 0.022985924 -0.007868997 -0.021718623 -0.011390925
-0.02081186 -0.002010408 -0.0080916155 -0.011878939 0.017172808 -0.036283214 -0.0323103 0.018844234
0.0025469577 -0.012431297 -0.022524197 -0.021035383 0.011155313 -0.011108603 -0.031126317 -0.005912179
0.03618731 0.031807836 0.014269337 0.025038749 0.016565304 -0.012467025 -0.06355952 -0.06108481
-0.006391123 -0.0078705195 -0.047035366 -0.046909638 0.0042394646 0.030342262 0.025544405 0.013362812
0.0044577043 -0.02481469 -0.054545134 0.003429725 0.00088008976 -0.0030327705 -0.000518354 -0.007012415
0.0348351 0.0149140535 -0.007487744 -0.047351196 -0.035857666 -0.00656171 0.012517684 -0.008895567
0.0222824 0.02155694 0.03363991 0.024117857 0.025819922 -0.0013368786 -0.015021284 -0.016689528
-0.013385704 -0.018909974 -0.016417434 -0.012207403 -0.023765802 -0.039803367 0.019626904 0.01837893
0.0041352143 0.018761981 0.0040281205 -0.0044962387 -0.012958586 -0.0038684688 -0.018418336 0.046138152
-0.008225211 0.014138394 -0.03014225 0.009736231 0.02177155 0.01233677 -0.007499976 -0.02536525
0.019407272 0.015458685 -0.0020825134 -0.02331034 -0.0062469193 -0.04410482 0.024296619 0.00012606398
0.022915743 0.0032527167 0.014819818 0.028959911 0.015040336 0.01581385 -0.0051526413 0.030979002
0.046442684 0.01846709 -0.008782147 0.036846127 -0.006452034 -0.055589985 -0.0560375 0.025729667
0.011469581 0.008713921 0.00754173 -0.04421467 0.002610621 0.003534881 -0.013509795 0.0042171306
-0.0251166 0.03331249 -0.0052370057 0.055849306 0.030362785 -0.0025607652 -0.029518219 -0.033158954
0.007973442 -0.009538629 -0.028798973 0.037356667 0.015847668 -0.018942693 -0.010648641 -0.017216457
0.0002684435 0.00065898267 -0.009989522 -0.008976645 0.014189591 0.00479809 0.00047464552 0.009527847
-0.012106549 0.0041572913 0.018611401 0.011939043 -0.007375897 0.014600582 -0.0504377 -0.015313071
-0.01403289 0.028402356 0.008116164 0.029779503 -0.0068317233 0.011824066 0.022836844 0.012394778
-0.06676942 -0.009402068 0.013376777 -0.00069899537 -0.03449407 -0.027973412 0.0072142924 -0.023654362
0.029916905 0.010342713 0.028242733 -0.017407173 -0.025423948 -0.022906072 -0.009822427 -0.0018752861

action_model._continuous_distribution.mu.bias f4 [3]
00000000: 1a65 e83c 886a c63b c890 e6bc
0.028368521 0.00605518 -0.028145209

onnx::Div_61 f4 [68]
00000000: 5bc3 cf3e f3e7 1a3e 8c93 c63e 06f9 a43e
00000010: de8e f23e 8695 323e 2b86 ec3e de85 ac3e
00000020: c0ab ab3e c089 993d 0d6a a83e 94ea 9d3e
00000030: 0842 f33e 55cb 153e 904b ef3e 86c7 a13e
00000040: c316 733e d09a 823d 372c 6b3e 9e45 893e
00000050: 465a f23e 80da 373e a0da eb3e d680 943e
00000060: b4a1 3b3e 5222 5d3d a1d8 333e 4bd0 653e
00000070: e6d5 d53e a4a0 3f3e 9c5a c83e 6d51 853e
00000080: 779b 1a3e e7c5 463d f4c1 123e 949d 3e3e
00000090: 5bf5 c73e 98cb 203e 9ce0 bc3e 3761 873e
000000a0: eda0 043e 86f9 373d 1c4f f93d 5d54 213e
000000b0: 172c e23e 6d51 053e 9c43 dd3e b1b8 983e
000000c0: 4a7d e43d fd3b 333d 2097 d23d f62e 0b3e
000000d0: 023b ef3e fce8 d83d 9def ec3e 107c a23e
000000e0: 1517 ae3d 19b8 1a3d cd2e 9c3d 509b eb3d
000000f0: 4dd3 ea3e 2d92 ba3d 27eb e83e 3000 a43e
00000100: 8ac9 7a3d 5855 fd3c eea7 583d d70a cb3d
0.40578732 0.15127544 0.38784444 0.3222124 0.47374624 0.17439851 0.46196112 0.33695883
0.33529472 0.07496977 0.3289341 0.3084303 0.47511315 0.14628346 0.46737337 0.31597537
0.23739152 0.063771844 0.22966085 0.26810926 0.47334498 0.17954445 0.46065235 0.29004544
0.18323404 0.05398781 0.17563106 0.22442739 0.41764754 0.18713623 0.3913163 0.26038685
0.15098368 0.048528578 0.143318 0.18614799 0.3905438 0.15702665 0.36890113 0.26441357
0.12952013 0.0449157 0.12173292 0.15754838 0.44174263 0.13019343 0.43215644 0.29828408
0.111567095 0.04375838 0.10282731 0.13592133 0.46724707 0.10591313 0.4627656 0.31735277
0.08500496 0.037773225 0.07626114 0.11504233 0.45864335 0.09109912 0.45491907 0.32031393
0.06122736 0.030924484 0.052894525 0.09914177

onnx::Div_64 f4 [8]
00000000: dffc 163f a1d9 283e a85e e73e a2b2 f43b
00000010: 49fa 9c3a bbb1 8d3e 603e c23f 29fc bf3e
0.589796 0.16489269 0.45189404 0.0074675838 0.0011976446 0.2767466 1.5175285 0.3749707
