results/ppo/RedCar/RedCar-999891.onnx (onnx, 351914 bytes, 11 tensors)

network_body.observation_encoder.processors.0.normalizer.running_mean f4 [68]
00000000: 5c26 213f bb75 d03b 4071 ba3e ba11 2f3f
00000010: 1ace 273f 1ed5 b63b 7488 ad3e d97a 313f
00000020: c15a 2e3f adef aa3b 9b9e a03e 366c 213f
00000030: a07a 353f 6553 f93b 6025 913e 5056 253f
00000040: f0a7 4a3f 7453 563b d506 523e 2868 0e3f
00000050: a508 403f dd93 ec3b 8178 783e 539d 153f
00000060: 53d8 663f 2471 f63a 0b63 c53d 308c eb3e
00000070: d504 513f ab81 d53b 4540 353e ec76 053f
00000080: ddd6 733f 590f 983a 17d0 3d3d d000 bc3e
00000090: d4da 5d3f a270 b43b ddf0 023e 3b36 ee3e
000000a0: b65a 793f db03 8f3a 49b7 cb3c fca3 9c3e
000000b0: c906 683f 29e0 a03b 89bb b53d c0c6 d43e
000000c0: 1974 7c3f a735 7c3a 2832 533c 40f6 873e
000000d0: 9544 653f d72b 9f3b 0ae8 cb3d d18f c73e
000000e0: 2e4a 7d3f ff5c 863a e8a5 1c3c 7d35 773e
000000f0: e13a 633f cbe2 733b f388 de3d 9b1a bc3e
00000100: 52de 7d3f 6cb0 8a3a 331e ee3b 660b 673e
0.62949157 0.006361691 0.36414528 0.68386424 0.6554886 0.005579605 0.33893168 0.69328076
0.6810723 0.00521656 0.31371006 0.6305574 0.70890236 0.0076088184 0.28348827 0.6458483
0.791625 0.003270355 0.20510419 0.5562768 0.7501319 0.007219775 0.24264719 0.5844318
0.90173835 0.0018802029 0.096380316 0.46005392 0.81648 0.0065157018 0.17700298 0.52134585
0.9524973 0.0011601254 0.046341028 0.3671937 0.8666203 0.005506591 0.12787195 0.4652575
0.9740404 0.0010911183 0.02486767 0.3059386 0.90635353 0.0049095345 0.0887366 0.41557884
0.9861465 0.0009621032 0.012890376 0.2655506 0.8955777 0.004857521 0.09956367 0.3897691
0.98941314 0.0010251104 0.0095610395 0.24141498 0.8876172 0.0037214037 0.10865965 0.36739048
0.9916736 0.0010581142 0.0072667836 0.22562942

network_body.observation_encoder.processors.1.normalizer.running_mean f4 [8]
00000000: d78d e3bd 16ac e43d bd95 8e3e 51c7 a03b
00000010: 57b8 4836 0000 0000 68c5 2340 d89b d83e
-0.11111038 0.11165635 0.27848616 0.004906573 2.9909622e-06 0.0 2.5589237 0.423064

network_body._body_endoder.seq_layers.0.weight f4 [256, 76]
00000000: 39f1 143d fa2c f4bd 654e f73d 2c76 783d
00000010: 26e9 7a3b 5798 9bbd c7f8 9a3d 8b0d 63be
00000020: b389 d03d fafc ce3c e043 13bd 6007 2bbd
00000030: 5090 b03e 150f bebd 1020 6e3c 754a 853d
00000040: 11ae 523d 7e02 e63d 001e 923c 3ed0 36bd
00000050: 7d3f 8dbd a749 d5bd a5f8 eebd db71 b53c
00000060: 1c7e 76bd de2e ed3d fed3 a3bd 547b 553d
00000070: b8c1 0d3d f4e0 cbbd 5d8d 1ebd c550 06bc
00000080: dee5 d6bd 02c2 81bd 4fbe 8ebd d7cc b13b
00000090: 1c78 483d 7269 013e fe82 953d a830 1a3e
000000a0: 5c03 843d 683f aabd 07e2 1abe 0760 c5bd
000000b0: 813b 213e 566b 8e3c e3cd eb3c b177 62bd
000000c0: 695b b4bc d1b7 153e 0910 7bbd 2a81 43bd
000000d0: 3ef8 81bd f135 01bb 7c38 0cbd 1b45 8bbd
000000e0: 765a 19be 5208 513e b92e c9bd 489c 11be
000000f0: 711c b1bd ecfa d23b 4164 6cbd 1dee 123d
00000100: d333 ab3d 59a2 4d3c cd43 d5bd 03b2 a6bd
00000110: 828c 3b3e f4e9 ee3d 7172 883d a56e 27be
00000120: aa12 113d 1270 91bd a3f3 923e a9a1 93be
00000130: 7815 d43d 445a 0d3e 40c2 8dbd 521f 9ebe
00000140: c968 d3bd e0c2 38bd 9c43 b8be 2e3c 9d3c
00000150: 91c9 bdbd bcde 29be b1e9 373e 81e5 68bd
00000160: 24c5 f8bc 92e9 f8bd 6775 74bd f8fb a63d
00000170: b75b 763d 851b 1a3e 2559 37be 40fd 7c3d
00000180: b991 293c e2c7 8bbd 9f49 abbc fc1b f3bd
00000190: 3e9f 423c 55ca 9ebd e7b5 d7bd a3fa 51bd
000001a0: 6913 2bbd 51f3 70bb 4820 a03c 4b42 3abe
000001b0: b289 80bd 7dc2 303e d388 e5bd 5e16 22bd
000001c0: aba0 e3bd bede e2bc 11bc 9c3d 5dc9 643d
000001d0: f236 ce3d 8678 453d 6862 cebc 51d3 7cbd
000001e0: 8fc0 bd3d fda6 febc c396 dc3d b24b c4bd
000001f0: b101 a3bd 2d5c 003d 9d52 1f3d f679 f9bd
00000200: 0339 d63c 9ad5 7a3d f943 1d3e 82dd 2e3e
00000210: 03b6 79bc a958 ba3d 7cf1 013c e0bb bcbb
00000220: c9f8 11be e6ef c3bd 18fb b13d 4e0e 1d3e
00000230: d351 4dbd 31df 03bd 6d77 87bb cae1 d13d
00000240: 483a 2cbe 9a27 973e 55fe 003e a0fb b53d
00000250: 80a6 463d f99a f5bd 9b1a f3bd 882a afbd
00000260: 8f71 e6bd 3370 0b3e 5488 90bd e1b2 8c3d
00000270: 8b3f 923c a4c6 c03c 8399 d83c 8bdc 393d
00000280: 2d8c 0f3e 9fc6 033e 5753 b53c 53f5 68be
00000290: 6a02 e53d 9797 073d 5e56 5d3d 3340 f8bc
000002a0: ba62 013e 3345 cc3c 63e2 08be 77e1 6dbd
000002b0: a7ab f13d 8271 073e 26f9 b33d aa0d 3d3d
000002c0: 11f5 a4bd 9e5e 5a3d 95c0 18be cbf8 96bd
000002d0: 13fe 2b3e f633 4abd 77a7 1f3d 3239 9e3d
000002e0: aa26 2cbe 3834 2abe e7e4 11bd a65f 7ebc
000002f0: 85e4 57be cb26 8f3d c534 30bd 77b6 f5bd
00000300: 13d5 193c 4c37 243e 9baa 2fbd a3e4 113e
00000310: c7df 983c 6d5a 263e 5489 263e 661e 91be
00000320: bf15 c2bc b752 7cbd 9cea 713d 53af 763e
00000330: 7866 123e bb22 81be b8b4 143d 88f0 8b3e
00000340: f935 34bd bbd7 013e 3fbf d13d 67db 173e
00000350: 15f8 613d eda0 de3d 45ea 99bd 0c6e 9f3d
00000360: 74ba ff3c bb85 063d 3359 333e 9e7c 54bd
00000370: 3192 80bc 9677 c4bc 7a8e bcbd 73d3 e73d
00000380: 91ba 723d a6be f13d bcf5 403e 86f6 313e
00000390: 7b16 0e3e f7a4 18bc d14d 26be bdec 91bd
000003a0: 9fcf 0abe 4851 813d 6b4c a2ba 0029 17be
000003b0: 51d7 0ebe a8b7 12be 1e72 953d 5dc8 28be
000003c0: e451 5abe 7cf6 d6bd f581 4ebd 4168 f63b
000003d0: cfc1 11be e41f ff3d be8e 723e e046 013e
000003e0: 8f0c c03d 9b82 8abb c845 7abd 7b6c 9bbd
000003f0: 6522 ebbd c211 9abe fa6a 563d 6617 e7bd
0.03636286 -0.11922641 0.120754994 0.060659572 0.003828594 -0.07597416 0.07566982 -0.22173135
0.10182514 0.025267113 -0.035953403 -0.04175508 0.34485102 -0.092802204 0.0145340115 0.06508342
0.051435534 0.11230944 0.01783657 -0.04463219 -0.06896875 -0.10414439 -0.11668519 0.022149017
-0.06017886 0.11581205 -0.07999419 0.052119568 0.034608573 -0.09955016 -0.038709033 -0.008197968
-0.104930624 -0.06335832 -0.06969892 0.00542603 0.04894267 0.1263788 0.073003754 0.15057623
0.06445953 -0.08312875 -0.15125285 -0.096374564 0.15745355 0.017385166 0.028784698 -0.055289928
-0.022016244 0.14620902 -0.06129459 -0.047730602 -0.063461766 -0.001971599 -0.034233555 -0.0680029
-0.14975914 0.2041333 -0.09823365 -0.14219773 -0.08648003 0.0064386036 -0.057712797 0.035871614
0.08359494 0.012550914 -0.104133226 -0.08139422 0.18315318 0.11665717 0.06662453 -0.16350801
0.03541819 -0.07101454 0.28701505 -0.28834274 0.10355657 0.13803965 -0.06921816 -0.3088327
-0.103227206 -0.045107722 -0.35989082 0.019193735 -0.09266961 -0.16588873 0.1796024 -0.056859497
-0.030367441 -0.12153925 -0.059682276 0.08153528 0.06014606 0.1504956 -0.179051 0.061764956
0.010349684 -0.06825234 -0.020909129 -0.11870572 0.011878787 -0.077534355 -0.10532742 -0.051264416
-0.041766558 -0.0036766122 0.019546643 -0.18189351 -0.06276263 0.17261691 -0.11207738 -0.039572112
-0.11114629 -0.027694102 0.07653058 0.055856097 0.10069074 0.048210643 -0.025193408 -0.061724965
0.09265243 -0.031085486 0.10770943 -0.0958475 -0.07959307 0.031337906 0.038897146 -0.12181465
0.026150232 0.061238863 0.15357961 0.17076686 -0.015241149 0.09098942 0.0079311095 -0.005759701
-0.1425506 -0.09567241 0.086904705 0.15337488 -0.05012686 -0.032195274 -0.0041341097 0.10248144
-0.16819108 0.295224 0.1259702 0.08885884 0.04849863 -0.11992449 -0.11870309 -0.08553034
-0.11252128 0.1361702 -0.070572525 0.06870056 0.017852565 0.02353222 0.026440388 0.04537634
0.14018317 0.12868737 0.022134466 -0.22749834 0.11182101 0.03310355 0.054037444 -0.03030405
0.12635317 0.02493534 -0.1336761 -0.05807635 0.11800318 0.13226894 0.08787756 0.04615561
-0.08054555 0.05331289 -0.14917214 -0.07371672 0.1679614 -0.04936596 0.038978066 0.07725753
-0.16811624 -0.16621482 -0.03561869 -0.015525734 -0.21083267 0.06989821 -0.043019075 -0.11997693
0.00938918 0.16036719 -0.04288731 0.14247374 0.018661393 0.16245432 0.16263324 -0.28343505
-0.02369201 -0.06160232 0.05906163 0.24090318 0.14296901 -0.2522181 0.03630516 0.27331948
-0.043996785 0.12679951 0.102415554 0.14829789 0.05516823 0.10870538 -0.075153865 0.07784662
0.031216837 0.03284238 0.17514496 -0.051876657 -0.01569471 -0.023982804 -0.09206863 0.113196276
0.059259955 0.118039414 0.1884374 0.17379197 0.13875763 -0.009316674 -0.16240622 -0.07125232
-0.13555764 0.06314331 -0.0012382393 -0.14761734 -0.13949324 -0.14327872 0.07297157 -0.16482683
-0.21320301 -0.10496232 -0.050416905 0.0075197523 -0.14234088 0.124572545 0.23687264 0.12624693
0.09377395 -0.004226995 -0.061101705 -0.075890504 -0.114811696 -0.30091673 0.052348115 -0.1128376

network_body._body_endoder.seq_layers.0.bias f4 [256]
00000000: 9940 ef3a 0ce1 fe3b 56d6 bdbc e848 b2ba
00000010: 832a a43c d729 ba3b d9b3 ec3b 5869 60bc
00000020: 0838 6e3c 34ec e13a fc09 e33b 5692 963c
00000030: e092 b1bc a50f 9fbc 6b41 003c faf2 373b
00000040: 03ef 4c3c cc2d 13bb 9849 6c3c 58ec 0b3c
00000050: 8909 463c a139 0bbc 6fc5 9eba bbf6 9eba
00000060: 925d 9bbc e319 5bbc 66fc 153c 470d 7f3b
00000070: 1a48 f63b 207c 403b 1427 05bb 3e64 aa3b
00000080: e280 0a3b f4b1 c53b 770e f03b b203 6fba
00000090: f9dc 9bbb 8a71 7dbb ccfc 933b eabd 583b
000000a0: a7e8 dc3b ec3a d43a 1227 1cbc 5253 7a3c
000000b0: cf02 ec3b 9159 273b 5795 45bb e212 353c
000000c0: 8b3e 803c 9d99 b03c 6b4a 84bb 2e83 7dba
000000d0: ddad fd3c 32ee 1bbc 8b64 763c 7675 273c
000000e0: b409 403b d158 c5bb 196a f9bb 1765 573c
000000f0: 65b5 b73b a552 993c 115f ed3c f301 dfbb
00000100: 168a 8d3a 7132 08bb 2c48 90bc 9af9 6dbb
00000110: 2e2a 00ba c9aa 913b 6ef5 b0bb 17eb fd3c
00000120: c83f c63c 2e39 293c d6e6 243c 97c2 83bb
00000130: c428 8cbc 02d9 11bc 93e1 f63b 1ed3 853b
00000140: b237 48bc a117 87bc 235c 23bc bd2e 833c
00000150: 5a7b 3d3c 6d1b fe3a b1d0 b6ba 9cef 183c
00000160: be28 ecb9 a604 7bbc f5e9 fc3b 5edf 503c
00000170: d147 a33c 3414 d1bc 18fd 243c 7682 2fbc
00000180: 4d6a 7b3b 311b b33c dc42 003c b572 98b9
00000190: ee2b 24bc d387 1f3b 04bf a73b fcd0 8e3c
000001a0: 6312 01bc 7cdd fd3c 5c14 0dbc a8fe 03bb
000001b0: 4f88 9bbc 03f3 07bc 0f03 143c 6366 be3c
000001c0: 3029 4e3a 4385 4cbc 2570 ca3a 936a 5f3c
000001d0: 2da9 c33b e5ee 133d f511 673c 46a4 e0bb
000001e0: bc31 96bc 8086 73bc ae12 c03b ed24 a53b
000001f0: a678 213c f724 133c d77a 9a3c 1b0a 16bc
00000200: 965a 32bc 85e5 603c 3dc4 f83b 09c8 a73c
00000210: 5f1c 873c dae8 713c ff5a d1ba 31cf 613c
00000220: 76f5 87bb d549 c3bb a9f8 21bc 615d 1fbc
00000230: 223f 7a3c 936f babb 4b25 94ba fd46 bbbb
00000240: 88b3 903b 3865 573c 80ea b13b 8598 7b3c
00000250: 7945 ba3b b1a5 743b 3b4f 7dbc 8b8f a3bb
00000260: 7cb1 fb3b 2759 143c 23d0 21bc 5ce6 183c
00000270: 4915 1b3c 11e5 b73b 4105 95bc 7331 a93a
00000280: d2bc 023c 20d7 e13b 3064 b6bb 68db 963b
00000290: fd72 e83b eb9f e9bb 9969 a9b7 0004 643c
000002a0: bb88 473a f048 7f3c a097 8c3c b21b 403c
000002b0: a447 85ba 55be 74bc 3471 d2bb 5723 f63a
000002c0: 3973 41ba eed1 623c 8405 b03c ac0d 183c
000002d0: 9407 34bb 2987 9e3b 275e 093b 029d 5b3b
000002e0: 3d21 043a 6904 01bc 9243 17bb c808 d0bb
000002f0: 263d e63b 3491 8e3b 69a9 55bb cc69 c33c
00000300: 5bc4 6e3b df7b 23bb c70a 89bb d502 1fb9
00000310: 87d9 7b3c 5c05 3c3b b09d 113c 294f 6c3c
00000320: 35ba c4bb 445e c5bb aa37 80bb c915 7d3c
00000330: eb1a 05bc 8491 f3bb 04e9 c43c 7e0a 5abc
00000340: 2b8a 0cbb 202b 043b e1cb 973b 7bf1 b4ba
00000350: a7b7 083c ebd1 ec3b 4c29 673c 9a43 523c
00000360: 7605 61b9 9f77 11bc fd96 be3b 419f 7f3c
00000370: ac7e 863c ea1d 0a3c 2059 593c dbac dbbb
00000380: 5be0 7c3b ed20 b33a fd43 a13c ab18 393c
00000390: 8d19 43bc e0c7 2fbc 1001 c13b 9878 05bc
000003a0: 5f70 793c 37bd a53a 15ae be3b 7397 1dbc
000003b0: 58cc e3bb 465c b93b f539 943c a300 90ba
000003c0: 62a4 f93b b2ac 343c 2948 4c3c fb28 dd3b
000003d0: d413 fdbb 97c6 68bc f638 7bba 16ce dcbb
000003e0: feba d2bb 070a ab3c 4401 9cbb 6be1 ad3b
000003f0: d6e8 ddba 6567 ce3b 6206 933c 2c9f ec3c
0.0018253505 0.0077782925 -0.023173492 -0.001360205 0.020039802 0.005681257 0.007223588 -0.013696991
0.014539726 0.0017236532 0.0069286805 0.018380325 -0.02167648 -0.01941664 0.007828097 0.002806841
0.012508157 -0.0022457717 0.014421843 0.008540235 0.012087234 -0.0084976265 -0.0012113283 -0.0012127975
-0.018965516 -0.013372871 0.009154415 0.0038917826 0.0075159194 0.002937086 -0.0020317482 0.005199938
0.002113395 0.0060331766 0.007325943 -0.0009117677 -0.0047565666 -0.003867241 0.0045162197 0.0033072182
0.0067416015 0.0016191876 -0.009530799 0.015278654 0.0072024832 0.0025535563 -0.0030148828 0.011051865
0.015654823 0.021557624 -0.0040371916 -0.00096707314 0.030966694 -0.009517239 0.01503862 0.010220876
0.0029302659 -0.0060225506 -0.007611525 0.01314666 0.0056063407 0.018716166 0.028975995 -0.0068056523
0.0010798599 -0.0020782019 -0.01761254 -0.0036312104 -0.0004889098 0.004445408 -0.0054003512 0.030995889
0.024200335 0.010328574 0.010064801 -0.0040209997 -0.017109282 -0.008901836 0.0075342148 0.004084005
-0.01222031 -0.01649076 -0.009970698 0.016013497 0.011565054 0.0019386836 -0.0013947693 0.009334471
-0.00045043783 -0.0153209325 0.0077183195 0.012748567 0.019931706 -0.025522329 0.010070108 -0.010712257
0.003836292 0.021863552 0.0078284405 -0.00029077163 -0.010020239 0.0024342432 0.0051192064 0.017433636
-0.007877919 0.030989401 -0.008610811 -0.00201408 -0.018985895 -0.008297685 0.009033932 0.023242181
0.0007864414 -0.012482944 0.0015444799 0.013636249 0.005971095 0.0361165 0.014103402 -0.0068555204
-0.018334262 -0.01486361 0.005861602 0.0050398023 0.009855425 0.008980981 0.018857403 -0.009157683
-0.010885855 0.013726597 0.007591753 0.020481126 0.01649302 0.014764989 -0.0015972554 0.013782308
-0.0041491343 -0.005959729 -0.009885945 -0.009726853 0.015273841 -0.00568957 -0.0011302618 -0.0057152496
0.004415933 0.013146691 0.005429566 0.015356188 0.0056845513 0.0037330205 -0.015460785 -0.004991477
0.00768107 0.009054459 -0.009876284 0.009332266 0.009465524 0.0056120236 -0.018190982 0.0012908414
0.007979589 0.0068921 -0.0055661425 0.004603792 0.007093786 -0.0071296594 -2.0195543e-05 0.013916969
0.0007611622 0.0155813545 0.017162144 0.011725353 -0.0010168445 -0.014937957 -0.0064221863 0.0018778843
-0.0007379535 0.013843996 0.021487005 0.009280603 -0.0027470337 0.0048378897 0.002096066 0.0033510332
0.0005040353 -0.007874587 -0.0023081047 -0.006348703 0.0070263324 0.0043508057 -0.0032602197 0.023854159
0.0036432955 -0.002494566 -0.004182193 -0.00015164477 0.015371687 0.0028689718 0.008887693 0.01442317
-0.006003643 -0.0060232 -0.0039128857 0.0154470885 -0.0081240935 -0.0074331183 0.024036892 -0.013308166
-0.002144466 0.0020167306 0.0046324586 -0.0013804877 0.008344567 0.0072271726 0.014108967 0.0128335
-0.00021459706 -0.008878618 0.005816339 0.015601934 0.016417824 0.008429984 0.013265878 -0.0067039556
0.0038585875 0.0013666429 0.01968574 0.011297385 -0.011907947 -0.010728806 0.0058900192 -0.008146428
0.015224545 0.0012644891 0.005819092 -0.009618628 -0.00695185 0.005656752 0.018094042 -0.0010986518
0.007618473 0.011027502 0.012468376 0.00674927 -0.007723311 -0.014207504 -0.0009583378 -0.0067384345
-0.0064309826 0.020878805 -0.004760893 0.005306413 -0.0016930352 0.0062989467 0.01794738 0.028884493

network_body._body_endoder.seq_layers.2.weight f4 [256, 256]
00000000: d6ae 50bd e932 d23d c738 d9bd ff95 24bd
00000010: b580 273d da03 4e3b 5b28 6c3d b5de 40ba
00000020: 0fc4 abbc 5af5 a2ba 3e95 96bd d2e4 e23d
00000030: 9e4f 46bd e5ad 2dbd 4c00 cd3d 1e43 aebc
00000040: cb8e adbc cc70 203c b63c e23a 9dcb a8bb
00000050: 60cf 94bd 8729 773c f418 8ebc 6dc7 b3bd
00000060: ea29 503d d0ea c8bd f40a c93d 9547 35bd
00000070: cbdb c4bd d058 ec3a 85a3 2cbc d62c bfbd
00000080: 7016 de3c 2965 803c 498d 343d 1be0 023e
00000090: 0b56 98bd 0a1b 8bbc 12c0 14bd b2cf d7bc
000000a0: f1ae 5f3b 8297 213e 0651 66bb 150e c43c
000000b0: 0907 8d3a 0834 a0bd 55ff 2bbd ffd4 123d
000000c0: 1887 a6bc 9ddf 8abd 6169 4abd 1249 aebc
000000d0: dbd6 453d d458 e2bd 3869 2ebe 761b 973d
000000e0: e462 cdbd 158f d43c bb23 0c3e 177f 463d
000000f0: 5241 b03c dd64 3bbc 58db 53bd c77e 82bc
00000100: 1ce2 04bd 346b 8dbd 2aa8 93bd 774b a33b
00000110: ce27 2b3d 66e1 043d d5c5 90bd 4adc d03b
00000120: a77a 09bd 0561 883b 72d7 0abd 9a4d b53b
00000130: 3ce8 f53b 8379 9d3a 62bc 04bd d105 6abb
00000140: 6c99 353c 1a9c 903c 9481 f7bc b205 10bd
00000150: c6c6 9cbd 95f7 d63d 80d7 9c3b 2d44 0f3d
00000160: 1aec 8d3c 8b74 973b 3d33 183d 4b07 3ebd
00000170: a3a9 863b c0db 223c 855f 2d3d ac2b 84bd
00000180: 7336 af3d b86b e93c ad1f 25be c050 03bd
00000190: e1b2 913c 95b9 e53c 9651 c93d 213d 2d3d
000001a0: 4469 1e3d d3cc c0bc af44 923d 09c0 d03d
000001b0: d2ba 23bd 7a45 f73c e82b c0bc 0eea b7bb
000001c0: fc48 cfbc 230a 61bd 641a b9bd b3d9 8ebd
000001d0: 23f0 863d b1d0 043d 24eb 183d 63a6 d8bb
000001e0: 6fb6 fb3b c32b 0b3e ab6a f4bd 6c57 5bbc
000001f0: 66d6 61bd 8576 dd3d eedd 86bb 12f6 cabc
00000200: bdb8 0bbd 1694 933c 1446 863b a324 12be
00000210: 86bd 91bc 3f3f 20bd 5706 743d dcfb eebc
00000220: d886 1ebe 870e 013d e924 07bd be60 b2bc
00000230: 9c1d 063c 42ac 5f3d e590 0bbc c97a 2d3d
00000240: 95a1 6a3d 083d a73d d11d 90bd 7ad2 3c3d
00000250: 076e c1bc 20b3 f93d 3d9c 9f3a 2a68 dbbb
00000260: 2651 b73a cab4 993d 0e5d f43a 04ad e83d
00000270: ae1e e73c a691 d43c e7f5 5a3d e644 43bd
00000280: f18e d1bc 541a 533d b8ae ba3c 3dd1 b83c
00000290: 8f6a 25bc 3252 1dba 23ad 8abd 0bc6 943d
000002a0: 7ddd 093d 94fd fd3d 4f94 e73c b36d 9c3d
000002b0: d8f9 183d 0966 923c 0d19 a93c 142d 423d
000002c0: 7cd0 0fbd 6308 a9bd 9235 6ebc 6434 873d
000002d0: be16 06bd 0c04 45bd 7825 f53c 0f93 3b3d
000002e0: 07b5 07bc e38e d93c 92ad abbd a442 033d
000002f0: cb5f 073d cf89 01bd e80a 70bd f40e edbc
00000300: 792e 9b3d 9903 0c3e 0ade 30bd 8fba 653d
00000310: a318 323b c926 f83c 5789 59bd dc8b 983d
00000320: 1aa7 2fbb 8dc1 55bd 9423 763d dfa9 e8b8
00000330: a50f 153c fc1c 51bc e123 063b 4d9c 683d
00000340: b0f8 613d 076b 98bd a6d3 bb3d 3426 08be
00000350: a046 06bd f2d7 493d ed9e 1d3d 60cc 9d3c
00000360: 5928 1abe fae5 683b b36c 7b3d f36f 28bd
00000370: 21bf b53d 951d d13c 6e8f 903c c605 2dbd
00000380: 4454 96bd 3b13 e4bc f90d 2a3d 7ff5 893d
00000390: 0969 263d 7099 debd e605 0cbd 072f 8b3d
000003a0: 702c 383d 8afd 053c cd6d 9d3d fa9f ccbc
000003b0: c2b5 fe3c a18f dcbd f5f5 d9bc 0d07 01bd
000003c0: ff86 40bd 2bac b13c 3f4d c4bc f7ca 2dbc
000003d0: 6f1e d8bc 1c7d 49bd de32 06bd 3435 253d
000003e0: 2b20 2dbc dca0 523d 1b03 d5bd f00d 12ba
000003f0: b4e3 32bb 828f 983b dddc fe3c 7f4c acbd
-0.050947987 0.102636166 -0.106065325 -0.04018211 0.04089423 0.0031435401 0.057655673 -0.00073574047
-0.020967511 -0.001243274 -0.073526844 0.110788 -0.048415773 -0.042402167 0.10009822 -0.021272238
-0.021186253 0.009792518 0.0017260525 -0.0051512257 -0.07266116 0.0150855845 -0.017345883 -0.08778272
0.050821222 -0.09810412 0.09816542 -0.04425772 -0.09612235 0.0018031839 -0.010537033 -0.09334724
0.027110308 0.015673237 0.044080053 0.12780802 -0.074382864 -0.016980667 -0.036315985 -0.026344154
0.0034131373 0.15780452 -0.0035143509 0.023932496 0.0010759543 -0.07822424 -0.04199155 0.03584766
-0.02032809 -0.06780932 -0.049416903 -0.021275077 0.048300605 -0.11052099 -0.17032325 0.07378285
-0.100286275 0.025947133 0.13685505 0.048461046 0.021515522 -0.011437622 -0.051722854 -0.015929593
-0.032442197 -0.06905213 -0.07209809 0.0049833613 0.041786008 0.03244152 -0.070689835 0.0063739168
-0.033564236 0.0041619563 -0.03389687 0.0055329325 0.007504491 0.0012014363 -0.03240622 -0.0035709033
0.011083942 0.01765256 -0.030213155 -0.03516168 -0.076551005 0.10496441 0.004786432 0.034977127
0.017324496 0.0046220473 0.03715824 -0.046393674 0.0041095777 0.009940088 0.042327423 -0.06453642
0.08555307 0.028493747 -0.16125365 -0.03205943 0.017785491 0.028042594 0.098300144 0.042294625
0.038674608 -0.023535168 0.071420066 0.10192878 -0.039973088 0.030184496 -0.023458436 -0.0056126183
-0.025303356 -0.054941308 -0.09038237 -0.069751166 0.06588771 0.032425586 0.037333623 -0.0066116317
0.00768166 0.13590913 -0.11934408 -0.013387542 -0.055136107 0.108136214 -0.0041158115 -0.024775539
-0.034111727 0.018014949 0.0040977094 -0.14271788 -0.017790567 -0.039122816 0.05957636 -0.02917283
-0.15481126 0.031507995 -0.032994185 -0.021774646 0.00818577 0.054607637 -0.008518432 0.042353425
0.057283003 0.08165938 -0.07036937 0.046099164 -0.023612035 0.121923685 0.00121773 -0.006695767
0.0013985976 0.07505186 0.0018643455 0.11361125 0.028212871 0.025948357 0.053457167 -0.04767313
-0.025580855 0.05153878 0.02278839 0.02256071 -0.010096206 -0.0006001323 -0.067713045 0.07264336
0.033658493 0.12401882 0.028268961 0.07638111 0.037347645 0.01787092 0.020641828 0.04740627
-0.035110936 -0.08253553 -0.014539139 0.066017896 -0.032736532 -0.048099563 0.029925093 0.045794543
-0.008282906 0.026557392 -0.08382715 0.032045975 0.03305034 -0.031625565 -0.05860415 -0.028937794
0.07577223 0.13673247 -0.043180503 0.05608612 0.002717533 0.030291932 -0.053109493 0.07448551
-0.002680248 -0.052186538 0.060092524 -0.00011094263 0.009097968 -0.012763258 0.0020468163 0.056789685
0.055168808 -0.07442289 0.09171228 -0.13295823 -0.032782197 0.049278207 0.03848164 0.019262493
-0.15054454 0.0035537467 0.06138296 -0.041122388 0.088743456 0.025526801 0.017646518 -0.042241834
-0.07340291 -0.027841201 0.04151723 0.06736278 0.040627513 -0.1086911 -0.034185313 0.06796079
0.044964254 0.008178124 0.076869585 -0.024978627 0.031092528 -0.107695825 -0.02660654 -0.031500865
-0.047003742 0.021688541 -0.023962615 -0.010607473 -0.0263817 -0.04919158 -0.032763354 0.04033394
-0.0105667515 0.05142294 -0.10400983 -0.0005571535 -0.0027296366 0.0046557793 0.031111175 -0.08413028

network_body._body_endoder.seq_layers.2.bias f4 [256]
00000000: a15d 833c 56f7 9439 298f de3b 14cb 413c
00000010: f488 c8ba 3760 133b 81e5 5abc 80f2 3c3c
00000020: cca4 663c b9d4 923b 9176 35bc 0ee9 8a3c
00000030: ae2d 0e3c 5415 d0ba 9a9d 04bc b3ab 22bc
00000040: f5c4 cdba 7e7c 383a d67a b53b b5a7 5fbb
00000050: 101f b03c a4e4 2f3c da2c abbb 0f74 993b
00000060: c364 94bb 0b9d a63b b102 1ebc d043 cb3a
00000070: f34d b83a 29b7 18bc 714b 8f3b 92c2 503c
00000080: 8777 013c ce28 a0bb 4d2b 21bc 5e3c eb3a
00000090: 7a1a 7dbc f504 893c ac5b 913b 4d59 ae3b
000000a0: a2b1 933b a3a9 8b3c 8e45 67bb c66b 6e3c
000000b0: df87 21bc dbea 5e3c a293 d238 7137 8f3b
000000c0: b1e5 48ba dd60 a83a 9723 84bc 0cc0 883b
000000d0: 0d72 06bc 49cf 05bc de0e 283b aa6e 813c
000000e0: 6e83 30bc b44c 80bb 123f 023c 3810 753c
000000f0: 82b6 7f3c 59c5 f938 9c2e 76bb 3dc3 6fba
00000100: 631b cfbb 1065 593c d2c1 5fbb fb02 6abc
00000110: ad09 74bb 448b 04bb 81c8 f43b 7f77 bb3b
00000120: 494b 88bb 67c3 1f3c 2f11 c9b9 4374 81bc
00000130: d2db 67bb f4f1 343b 5be3 6ebb f016 d23b
00000140: 2ed2 6b3c 1c1a f6bb 00d2 04bc f38f 383c
00000150: 93f3 0c3c c947 e8bb e538 2d3c 6344 0cbc
00000160: d735 4ebb a6a5 0e3c 633f 7b3c 23d6 053c
00000170: 12d4 fb3b 68bb fa3b 0e07 133c 1724 08bc
00000180: 9ecc 503c 8f42 fb3a 8e28 033c 0e60 503c
00000190: 6040 8a3b 49ab bc3b 0817 91bc 1426 a63c
000001a0: e786 49bc 678b a73a 221d 743c 433c a23c
000001b0: 8312 4f3b 23b3 113c 0ca9 cfbb 8903 0cbb
000001c0: 7847 823b c5de 2a38 a82d d63b c673 2e3c
000001d0: c15e 063c b525 003c 5a61 ecbb 7833 6a3c
000001e0: 163c 2db8 5862 1d3c 01be 6dbb 6a80 15bc
000001f0: 97b5 8fba 43d9 433c 5ebc 703b 2e2b acb9
00000200: 269d 17bc b2d4 38bb 889c 203c df01 21bb
00000210: a873 3139 1af8 da3c 9db9 ca3b c4e6 e53b
00000220: 87f2 d03b ff44 6bbc 4279 02ba 9e6f 503c
00000230: 44fb b2bb 49cf 49bb b33e 3d3c 2369 abbb
00000240: 3be7 2239 2e29 8d3c 4490 f8ba 36ed 133a
00000250: d05d a03b 08d5 afbb 3649 24bc 640e cdbb
00000260: 5514 52bc 2145 cfbb ae20 2dbb 8c2d 4d3c
00000270: 5905 34bc 8a1b 6eb9 30af e53b 4962 69bb
00000280: b30c 993c 4e60 fc3b 9e59 20bc 9e42 64bb
00000290: 9cb1 a53b bddf 413c 620b c338 9a8d 56b8
000002a0: 655f 16b9 388d 063c 7e2a 813b b7f2 6fbc
000002b0: 429b 21ba dd1a 283b f81d 8a3b 5976 603c
000002c0: 7bb9 c0ba 0e09 cfba fee8 0e3c 78a3 773a
000002d0: 3a48 46bb 4fc6 a73c d36e 5abc c82e 983c
000002e0: 63ad c23b 6aa0 043c 362f 03bc 69c3 99ba
000002f0: 051a 893b b689 8c3b 587d 433c 4a00 b1bb
00000300: 1cee 50bc 14ff ec3b fea3 0cbc 2977 8f3b
00000310: eaa8 4c3c dcd9 543c 264e 543c 3814 15bb
00000320: 1276 153c 22a3 0c3c b9f9 9e3a 34ec da3b
00000330: 5e3e 15bc e4b2 65bb fc7d f43b c3b0 20bc
00000340: 7a5f 22bc 59d7 283c 2478 433b ff04 dbb9
00000350: 0335 08bc 28cc 393c c9f6 073b 029a ef3b
00000360: 4002 14ba eebc 20bc 4020 e03b 7968 abbb
00000370: 2790 663a d0db e5b9 ae6c 58bb 2dfc 113c
00000380: 1fcf e03c 5152 03bb 0257 3f3c c077 d1bb
00000390: 6014 c7bb 8501 12bc d6df cf3c 6cee 053c
000003a0: 11cd 9f3b 7ba0 843b 2345 1dbc 2331 273c
000003b0: cee7 e7ba ed36 89bb 51e2 6d3c e7ba 3c3a
000003c0: a0c7 9539 27fc 683b 4acb 5f3b 2821 033c
000003d0: bc14 63b9 0694 16bc 931a 0b3b a10f a13b
000003e0: c563 933c 70b1 3cbb de25 473c c328 283c
000003f0: a44c 32bb 1a6b 693a 14e6 0a3c 4e5a 503c
0.016035857 0.0002841304 0.0067919684 0.011828203 -0.0015299604 0.0022487768 -0.013360382 0.011532426
0.014077377 0.004480925 -0.011075632 0.016956832 0.008677883 -0.0015875497 -0.008094216 -0.009928632
-0.0015698957 0.0007037594 0.005538325 -0.003412706 0.021499187 0.0107356645 -0.0052238526 0.0046830247
-0.0045286133 0.005084639 -0.009644196 0.0015507881 0.0014061317 -0.0093210125 0.004373007 0.012741702
0.007902033 -0.004887677 -0.009836984 0.0017947068 -0.015448207 0.016725997 0.004435977 0.005320704
0.0045072595 0.017048663 -0.003528926 0.014552062 -0.009859054 0.013605799 0.00010041079 0.004370623
-0.0007663621 0.001284625 -0.016130252 0.0041732844 -0.008205903 -0.008167096 0.0025643627 0.015799839
-0.010773523 -0.0039153937 0.007949607 0.01495748 0.015607478 0.00011910004 -0.0037564402 -0.0009146219
-0.0063204034 0.013268724 -0.0034142626 -0.014282937 -0.0037237213 -0.002022461 0.007470191 0.005721032
-0.0041593653 0.009751177 -0.0003835051 -0.015802508 -0.0035378826 0.0027610036 -0.0036451432 0.006411426
0.014393372 -0.0075104367 -0.0081067085 0.011264789 0.0086029945 -0.0070886356 0.010572647 -0.008561227
-0.0031465197 0.008706486 0.015334937 0.00816873 0.007685193 0.007651735 0.00897385 -0.008309386
0.012744097 0.0019169616 0.008005274 0.012718214 0.0042191 0.0057577235 -0.017711177 0.020281829
-0.01230023 0.0012782634 0.014899524 0.019804126 0.0031596727 0.008892807 -0.0063372906 -0.0021364412
0.003975805 4.073863e-05 0.0065362044 0.01064772 0.008201302 0.00782149 -0.0072137536 0.014294498
-4.1302374e-05 0.0096059665 -0.0036276581 -0.009124855 -0.0010964152 0.011953655 0.003673337 -0.00032838568
-0.009253776 -0.0028202948 0.009802945 -0.0024567766 0.0001692312 0.026729632 0.0061866776 0.007016035
0.0063765678 -0.014359712 -0.0004977175 0.012721924 -0.005462082 -0.0030793718 0.011550593 -0.005231039
0.00015535664 0.01723155 -0.0018963893 0.0005642952 0.004893996 -0.0053659715 -0.0100272205 -0.006257819
-0.01282223 -0.0063253795 -0.0026417184 0.012523066 -0.010987603 -0.00022707708 0.0070094094 -0.003561156
0.018682813 0.00770191 -0.009786991 -0.0034829746 0.005056573 0.0118331285 9.300445e-05 -5.1153453e-05
-0.00014340652 0.00821238 0.003941833 -0.01464527 -0.0006164798 0.0025650777 0.0042149983 0.013700091
-0.0014703715 -0.0015795545 0.008722542 0.0009446661 -0.0030255453 0.020480303 -0.013332087 0.018576995
0.0059410795 0.008094886 -0.008006861 -0.001173121 0.00418401 0.0042888774 0.01193174 -0.005401646
-0.012752082 0.007232556 -0.008584021 0.0043782187 0.012491444 0.012991395 0.012958085 -0.0022747647
0.009122388 0.008583816 0.0012128867 0.0066809896 -0.009109108 -0.0035049254 0.0074613076 -0.009807768
-0.009910459 0.010305249 0.0029826248 -0.00041774657 -0.00831342 0.011340179 0.002074646 0.0073120603
-0.0005646087 -0.009810669 0.006839782 -0.00523096 0.0008795284 -0.00043842057 -0.0033023763 0.008910221
0.027442513 -0.0020038078 0.011678459 -0.006392449 -0.006075427 -0.008911495 0.025375288 0.00817452
0.0048767407 0.004047451 -0.009599003 0.010204586 -0.0017692985 -0.004187456 0.01451929 0.00071994815
0.00028568227 0.0035550685 0.003414827 0.008003511 -0.00021656131 -0.009190565 0.0021225556 0.004915193
0.01799191 -0.0028792284 0.012155024 0.010263625 -0.0027206326 0.0008904204 0.008477706 0.012716843

action_model._continuous_distribution.log_sigma f4 [1, 3]
00000000: ce8f a3bc 9610 88bd 2cd6 b8bc
-0.019966032 -0.066437885 -0.022563063

action_model._continuous_distribution.mu.weight f4 [3, 256]
00000000: 415c 963a d4e9 cbbc 32f7 d93c fc43 0e3d
00000010: ae3b debc 8465 963c 68d5 a6bb 1c23 5c3b
00000020: 6193 6e3a c5aa db3c 1a5b 1b3b 309c 4d3d
00000030: 11f5 2e3d c936 f0ba 79c0 b6bc 49e1 fdba
00000040: abb0 29bc 2ac5 c4bb d7b4 843c b75c f6bb
00000050: 9797 563b b58e 6a3c 2349 36bd 502e 15bd
00000060: d633 edbc 5031 973b 208f 75bc db61 2b3c
00000070: d134 8e3b d349 15bd cfc4 c1bc b061 543c
00000080: 969c ff3b 613d d5bc b836 11bc 0f02 27bd
00000090: 4177 443b b174 43bc 6480 403c f86e f6bc
000000a0: 47c1 003d c200 d8bc cf48 80bc c257 e03c
000000b0: aa84 3ebc 3612 3a3d 55ed 4b3b 304d d23a
000000c0: e987 96ba 7ac4 5e3b b5ee 23bc 42d4 4d3c
000000d0: 6fd0 5fbc e591 c33a b7e2 123c e7bc adba
000000e0: 57ab efbc 9993 c93b 5823 4dbc c851 c4bb
000000f0: aa76 353c d6f9 bbbc 13f1 443c 6fa4 2cbd
00000100: 4311 0abc 5906 253d f0d6 85bc e366 13bd
00000110: dfcb ecbc 8ce8 ed3b a825 093d 4ac6 05bb
00000120: e09d 203a 2167 023c 7da3 b43c 8169 3abd
00000130: 220c 843a 3c2d 99bc ab75 17bd f88b 593c
00000140: 7193 5ebc 21af 9bbb 48d2 20bc c525 123d
00000150: 5dc2 bf3c 67c0 17bb 9d12 b7bc 0c56 93bb
00000160: 75cd c9ba 1b15 993c 76bd c1bb af9a 77bd
00000170: f600 673c dd2a 58bc 5268 36bc a79c a7bb
00000180: 3810 a43c 72cb d6bc 12b9 043c 99dd 413c
00000190: c464 a93c ac88 26bc ff5e 263b f94b c13c
000001a0: 11f1 b8bc 82a4 ac3a 1462 0d3c c300 343d
000001b0: 5ca9 c3bb 69cb 15bc f6de 32bb b8ae d43a
000001c0: 610a 533c 4e0d f8bc 1bff 97bc 7880 c4bc
000001d0: 517d 613c 9e98 a53c a4b0 8abc 7019 e23c
000001e0: 1ff1 afb9 f985 50ba 33ad 1d3c 1626 94bb
000001f0: 8f88 283c 31a6 a6bc b75d 9b3b 831b 0a3c
00000200: 8aec dabb 7631 453c bea9 74bc 61c7 863c
00000210: 8925 d43a a37b 093d 9a79 853c 3b4b 973b
00000220: fa01 773c 3f57 9fbb f435 dbbc c5dd ed3c
00000230: 6cdd 2ebc 042c a0bc 9fed f13c 2eee 4639
00000240: ea14 2fbc 731c a43c f4f8 d6bb 5758 343c
00000250: 2c80 7bbc f162 2cbc d430 3cbb a18a 21bd
00000260: 9a7b d6bc 9afb dbbc 75d8 423b ec80 ee3b
00000270: b0c0 e5bc dc5f 503c 1bfb 563b 7113 2bbc
00000280: 04c9 413c 68eb c6bb e503 a2ba 74f6 91bb
00000290: 7bbe 1c3c 15bb 093d 8e5a 6bbc efc0 45ba
000002a0: 5dc9 1bbd 5637 293a aaa9 db3b e158 d7bb
000002b0: dcca 3a3c bec8 87bb b25f 983b 6b31 453d
000002c0: 475c 91bc 9778 5db9 3852 8a3c f37f 00bb
000002d0: fe73 243b 3cee 833d ba8c 82bc 119e fa3c
000002e0: f64e 783b 2cec 27bd 4447 1cbd 7d93 933c
000002f0: d167 ef3b 868a 3bbc 1d61 dc3c 5ccd cfbc
00000300: ae3c 15bc 30af 283d 051d 85ba d4cb 213c
00000310: 8510 173c 22d9 e23c 458e 063d 9656 f1bb
00000320: c6ec 2fbc b346 413c c17e 5b3c 59a3 6c3c
00000330: 7994 f3bc 915c 59b9 980c 50bb 54dc d73a
00000340: ea8f 90bc 84ea 9a3c be60 823c 53ae 62bc
00000350: 0e0c 04bd 10f6 1a3d 9aa6 833c 08b7 d63b
00000360: 318f 853b 2959 08bc 1683 6dbc d3a7 4f3b
00000370: 99b3 1bbd bd23 983c 0dfa a7bc fa94 e23c
00000380: 6991 ca3c bb1d 973c a93f e93c 5d8a 05bc
00000390: c0bc 3bbb 7ed6 00bd 8cf4 31bc f164 8a3c
000003a0: 5999 2e3c 4a20 f2bc ec5f afbc fbae fb3c
000003b0: 0443 5a3a b1de f63b 0461 e73c 5577 abbb
000003c0: 827b 373c 0d9e 343c a4de ff3c ca6c 473c
000003d0: 9a7d e1bc cb64 0ebd adee 733b f1ef 85bc
000003e0: 866c c439 5d8e 25bc a076 533c 48d2 113d
000003f0: 78a1 0ebd 587a 65bb 5686 41bc c73b 95bb
0.0011471586 -0.024891771 0.02660713 0.034732804 -0.027128067 0.018358953 -0.005091358 0.0033590263
0.00091009407 0.026814828 0.0023705424 0.05019778 0.042714182 -0.0018326874 -0.022308575 -0.0019369508
-0.010357062 -0.006004949 0.016199512 -0.0075183767 0.0032744163 0.014316251 -0.044503342 -0.03642112
-0.028955381 0.004614033 -0.014987737 0.010460342 0.0043397923 -0.036447357 -0.023653416 0.012962744
0.007800649 -0.026030244 -0.008863144 -0.040773448 0.0029978307 -0.011929677 0.011749361 -0.03008221
0.031434324 -0.026367549 -0.015659718 0.027385596 -0.011628309 0.045427524 0.0031116803 0.0016044732
-0.0011484596 0.003399162 -0.010005643 0.012562813 -0.013660534 0.0014920799 0.008965186 -0.001325515
-0.029256506 0.006151628 -0.012520634 -0.0059911944 0.011075655 -0.02294628 0.012020367 -0.042149004
-0.008426967 0.040289257 -0.016337842 -0.035986792 -0.028905807 0.0072603878 0.033483177 -0.002041238
0.0006127041 0.007959158 0.022050614 -0.045510773 0.0010074417 -0.018698327 -0.03697745 0.013278
-0.013584957 -0.0047511016 -0.00981576 0.03568055 0.02340811 -0.0023155452 -0.022347743 -0.0044963416
-0.0015396314 0.018686822 -0.005912478 -0.060450252 0.01409935 -0.013193813 -0.01113327 -0.00511511
0.020027265 -0.026220057 0.008100765 0.011832618 0.020677932 -0.010164421 0.0025386212 0.023595797
-0.022575887 0.0013171586 0.008629341 0.04394604 -0.005971117 -0.009142735 -0.002729354 0.0016226387
0.0128808925 -0.030279782 -0.018554261 -0.02398704 0.013762788 0.020214375 -0.016929932 0.02760002
-0.0003355825 -0.0007954534 0.009623813 -0.0045211418 0.010286464 -0.020342918 0.0047413963 0.008429411
-0.0066810297 0.012035718 -0.014933048 0.016452493 0.0016185503 0.033565175 0.016293336 0.0046171225
0.015076155 -0.0048626955 -0.026759125 0.029036412 -0.010672908 -0.019552238 0.029532252 0.0001897148
-0.010686139 0.020033097 -0.0065604392 0.01100739 -0.015350383 -0.010521636 -0.0028715627 -0.039438847
-0.026181985 -0.026853371 0.002973107 0.0072785523 -0.028045982 0.012718167 0.003280348 -0.010441647
0.011827711 -0.006070543 -0.001236078 -0.0044544283 0.009566898 0.03362568 -0.014364852 -0.0007543703
-0.038033832 0.0006455084 0.006703575 -0.0065718745 0.0114009045 -0.0041438034 0.0046500796 0.04814283
-0.017744197 -0.00021121126 0.016884908 -0.0019607514 0.002509355 0.06441924 -0.015936244 0.03059295
0.0037888861 -0.040996715 -0.0381539 0.018014664 0.007306077 -0.011446601 0.026901776 -0.025366478
-0.009108705 0.041182697 -0.0010155743 0.009875257 0.009220247 0.027691428 0.032850523 -0.007365058
-0.0107376035 0.011796641 0.01339692 0.014443242 -0.029733883 -0.00020729216 -0.0031745788 0.0016468861
-0.017646749 0.018910654 0.01591527 -0.013835507 -0.03223806 0.03783232 0.016070653 0.0065525807
0.0040759076 -0.008322039 -0.014496585 0.0031685724 -0.038013075 0.018571729 -0.020504976 0.027658928
0.02472754 0.018446794 0.028472738 -0.008150664 -0.002864644 -0.031454556 -0.010861527 0.016893836
0.010656678 -0.029556412 -0.021408044 0.030723086 0.0008326026 0.007533871 0.028244503 -0.0052327313
0.01119888 0.01102401 0.031234093 0.012171933 -0.027525712 -0.034764092 0.003722112 -0.016349765
0.0003746489 -0.010104743 0.0129067 0.03560093 -0.034821957 -0.003501555 -0.011811813 -0.004554245

action_model._continuous_distribution.mu.bias f4 [3]
00000000: de32 653c a395 b839 5c2a bd3b
0.013989178 0.00035206703 0.005772872

onnx::Div_61 f4 [68]
00000000: 1d44 f73e 65d7 a23d a65e f63e 7702 a73e
00000010: bf4e f33e b490 983d a05a f23e c4ff 9d3e
00000020: a99f ee3e d58b 933d 8e91 ed3e 6189 ad3e
00000030: f695 e83e a0f9 b13d 1dc1 e63e 8618 9a3e
00000040: 9ef2 cf3e 0ae4 693d 2cbc ce3e 2daf a83e
00000050: faa9 dd3e 5e66 ad3d 947c db3e 473d 993e
00000060: 2a68 983e f57c 313d 2d19 973e d85b 933e
00000070: 1831 c63e a7c9 a43d 976a c33e 9909 943e
00000080: 5bd1 593e c07d 0b3d 3545 573e 5b31 6c3e
00000090: 9e12 ae3e d291 973d 51fb aa3e 62c7 8d3e
000000a0: c1d5 223e a549 073d 6f76 1f3e d929 3f3e
000000b0: 672a 953e 4629 8f3d 4298 913e aaf8 863e
000000c0: 7562 ef3d 961b fe3c eb06 e73d 69c1 1c3e
000000d0: 0193 9c3e a567 8e3d 794d 993e 1861 8b3e
000000e0: 3e9e d13d ce23 033d 364e c73d 45a6 0a3e
000000f0: 70b5 a13e 1570 793d 6257 9f3e 4077 8d3e
00000100: b71a ba3d d43a 053d 86f5 ad3d 9200 f83d
0.48294154 0.079512395 0.48119086 0.32619068 0.47521016 0.07449475 0.47334766 0.30859196
0.46606186 0.07204405 0.46400112 0.33893874 0.4542691 0.0869019 0.4506921 0.30096835
0.4061479 0.05710224 0.4037794 0.3294615 0.43293744 0.084667906 0.42868483 0.29929563
0.2976697 0.04333206 0.29511395 0.2878101 0.3870933 0.08046275 0.3816726 0.28913572
0.21271269 0.03405547 0.21022494 0.23065703 0.3399858 0.0740086 0.33394864 0.2769118
0.15901853 0.033029217 0.15572523 0.18668307 0.29133913 0.06990294 0.28436476 0.2636159
0.11688701 0.031019013 0.112806164 0.15308155 0.30580905 0.069533624 0.2994192 0.27222514
0.102352604 0.032016568 0.097317144 0.1353999 0.31583738 0.060897905 0.31121355 0.27630043
0.09087127 0.032526806 0.084940955 0.12109484

onnx::Div_64 f4 [8]
00000000: 2e62 173f a232 693e 4a4f 343f aa2b 033c
00000010: ad4a ba3a 3e14 833a e2cd db3f d404 cd3e
0.59134185 0.22773221 0.70433486 0.008006016 0.0014212929 0.001000054 1.7172205 0.40042746
