results/ppo/RedCar/RedCar-999636.onnx (onnx, 351914 bytes, 11 tensors)

network_body.observation_encoder.processors.0.normalizer.running_mean f4 [68]
000000 f9 8b 3d 3f 00 10 8b 3d e4 47 44 3e ea f1 17 3f
       0.74041706 0.06790161 0.19168049 0.59353507
000010 a4 84 17 3f a4 cc 2c 3d f4 5c bb 3e 91 8d 2e 3f
       0.5918677 0.042187348 0.36594355 0.68184763
000020 61 2a 55 3f 0b bc a8 3c e4 3e 16 3e ef 65 07 3f
       0.8326779 0.020597478 0.14672428 0.52889913
000030 59 d0 06 3f b4 09 a8 3c 9f de e7 3e 92 16 35 3f
       0.52661663 0.02051244 0.45287034 0.70737565
000040 59 42 5c 3f fd 59 c4 3b 93 d3 08 3e ed 2b f2 3e
       0.8603874 0.0059921728 0.13361959 0.47299138
000050 42 71 1c 3f f5 02 8a 3c 2e 7d be 3e 8e c5 29 3f
       0.6111032 0.016847113 0.3720488 0.6631707
000060 a6 ca 59 3f 17 51 4e 3b c6 9b 15 3e 41 3c e0 3e
       0.8507484 0.0031481439 0.14610204 0.4379597
000070 f2 95 48 3f e2 4a 26 3c 32 43 53 3e b0 a9 14 3f
       0.783538 0.010149689 0.20631102 0.5807142
000080 0d c9 58 3f ed b3 23 3b cf 4c 1a 3e 52 55 cc 3e
       0.8468178 0.002497907 0.15068363 0.39908844
000090 07 1e 67 3f 6f 7a d8 3b b5 87 b9 3d 30 69 f8 3e
       0.90280193 0.006606392 0.09059087 0.48517752
0000a0 85 4b 5e 3f 8d 04 15 3b ba 7d 04 3e d8 5d b5 3e
       0.86833984 0.0022738308 0.12938586 0.3542316
0000b0 ec 90 6f 3f fb a6 aa 3b c7 9b 71 3d 5f 67 d1 3e
       0.9358051 0.005207894 0.05898645 0.40899178
0000c0 9b 42 63 3f f7 ce 01 3b 0c dc e1 3d 82 b1 a0 3e
       0.88773507 0.0019807199 0.11028299 0.31385428
0000d0 a9 1d 72 3f 0b 75 a2 3b 7b d5 49 3d bb 04 b7 3e
       0.9457651 0.0049578003 0.049275856 0.35745797
0000e0 8f c2 6e 3f 76 71 97 3a 0d 8d 87 3d 0c 88 8a 3e
       0.9326562 0.00115542 0.066187 0.2705692
0000f0 16 5d 76 3f ac 1d 95 3b 4e 89 07 3d e0 1e a4 3e
       0.9623579 0.0045506563 0.03308993 0.32054806
000100 86 20 78 3f cd 2d 1f 3a 98 f2 f6 3c 85 e2 70 3e
       0.96924627 0.00060721935 0.030144975 0.2352391

network_body.observation_encoder.processors.1.normalizer.running_mean f4 [8]
000000 e6 86 f4 bd cf 50 b2 3d cd c1 e1 3e 33 57 b4 3a
       -0.11939792 0.08706819 0.4409317 0.0013758898
000010 0d 39 a7 37 e7 f0 95 3d 91 50 3a 40 da 6c 03 3f
       1.9934518e-05 0.07321339 2.9111674 0.5133797

network_body._body_endoder.seq_layers.0.weight f4 [256, 76]
000000 6d d5 65 3d 3b c5 e5 bd 94 7b 8a 3d 1b 5d 3f bd
       0.05611174 -0.11219259 0.06761852 -0.04671965
000010 d4 be 76 3d a9 91 29 3e 77 e7 58 3e be 47 98 3c
       0.06024058 0.16559471 0.21182047 0.018588897
000020 bd 1b 9f 3d 1a 6f 0b bc 4f e0 0a be 2a a5 07 3d
       0.077689625 -0.008510375 -0.1356213 0.033116497
000030 e3 77 01 3e 48 1a a7 3d d3 93 1c be 1b e9 03 be
       0.1264339 0.081593096 -0.15290765 -0.12881891
000040 5a ac 14 3e 15 19 2f be b5 80 83 bd ce a5 1e be
       0.14518872 -0.17099412 -0.06421033 -0.15492937
000050 a5 e4 a6 bd 46 d6 c6 3d cc f0 e0 bd 08 f9 43 bd
       -0.08149079 0.09708838 -0.10983428 -0.047844917
000060 d1 d8 7b 3d c9 f8 87 bc 32 05 20 be 1c c1 32 bb
       0.06148607 -0.016598122 -0.15626982 -0.0027275747
000070 ce 78 ee 3c bd 60 a6 bd 2e f7 e4 3d 42 ec 7b 3c
       0.029110339 -0.0812392 0.11179958 0.0153761525
000080 3f fe 5e 3e 4f 32 b1 3d bc 41 50 3c 31 b8 87 be
       0.21776675 0.08652174 0.012710985 -0.26507714
000090 ff a7 c6 bd e8 f3 c3 bd 4c 04 e7 bd e1 e4 4a be
       -0.097000115 -0.09568006 -0.112801164 -0.19813873
0000a0 b2 79 ec bd 38 11 9a 3d ff a7 00 be 02 73 28 3c
       -0.11546649 0.075228155 -0.12564085 0.010281326
0000b0 29 bb c6 bc 8d 61 30 3e 4a 39 72 3e 35 5a 29 3d
       -0.024259167 0.17224713 0.23654667 0.041345794
0000c0 47 0f 94 3e 43 e5 32 3e d2 81 8a bd 5f 7a d6 bc
       0.28917906 0.17470269 -0.067630425 -0.026181398
0000d0 c8 bc a3 3c 42 df 89 bc 89 aa cc 3d 8a 0c 59 bc
       0.019987479 -0.01683009 0.099934645 -0.013247618
0000e0 c2 4e 67 3e 15 d8 0a 3e 9d 18 03 bd 32 f0 fc b9
       0.22588637 0.13558991 -0.032005895 -0.00048244145
0000f0 05 38 91 bc f3 65 5a 3e c6 d8 60 3d 9d 60 03 bd
       -0.017726908 0.21327953 0.05489423 -0.03207456
000100 76 57 11 bc 3e d2 27 3c e5 49 7a be 09 66 e7 bc
       -0.00887095 0.010242997 -0.24442251 -0.028246896
000110 79 2e fe 3d ae 23 83 be a8 a5 ff 3d ab e6 eb bd
       0.12411208 -0.2561316 0.12482768 -0.11518606
000120 e5 38 4c 3b f5 96 84 3e 54 0c 61 3d db 4e 91 3d
       0.0031161841 0.2589642 0.054943398 0.070951186
000130 fa 4b 0f be 5a 60 42 be 09 87 3c 3e 59 52 a0 bd
       -0.13993827 -0.18982068 0.18410887 -0.078282066
000140 cd 50 8e 3a 71 34 b9 3c f6 db 44 3d 71 92 e5 3b
       0.0010857821 0.022608014 0.048061334 0.0070059826
000150 27 d9 2c 3c 17 e8 20 be 1c e5 6b be e0 18 e7 bd
       0.01054982 -0.15713535 -0.23036617 -0.112840414
000160 0a 30 e8 3d a7 24 75 3d be 8d 45 3e 7e 96 2e 3e
       0.11337288 0.059849408 0.19292352 0.17049596
000170 b5 cc bb bc ad cf 8a bd 21 a4 85 bd fe c6 22 3e
       -0.02292476 -0.06777892 -0.06525446 0.15896222
000180 c5 8b 88 bd c9 ba 98 bd 0f 34 f0 bd 7d 1d 2e bd
       -0.06667284 -0.074575014 -0.117286794 -0.04250859
000190 90 11 94 bd 17 bd 39 3d 73 6e 1f 3e f0 71 66 bd
       -0.07229912 0.045346346 0.15569477 -0.056261003
0001a0 92 a1 e3 3c a2 14 57 bc d2 18 ba 3d 6c b4 b1 3d
       0.027787004 -0.013127478 0.09086765 0.08676991
0001b0 9d 9c 26 3d f6 a2 51 3d 10 a5 ab 3c 4d d9 92 bd
       0.0406767 0.051180802 0.020952731 -0.07170353
0001c0 f4 a7 4c be ef b8 44 be a4 87 64 3e 42 a7 26 3d
       -0.19985944 -0.19211172 0.22317368 0.040686853
0001d0 54 f9 f3 3c b6 6b 64 3d 95 65 bd 3d 0b a0 38 3e
       0.029781975 0.055766784 0.09247891 0.18029802
0001e0 09 90 cc 3d 26 e0 65 3d 86 f2 0a bc f8 cf f5 3d
       0.0998841 0.056121968 -0.008480674 0.120025575
0001f0 2c e4 71 3d 7a a4 8e be de fd b1 3d fd 73 36 3e
       0.059055492 -0.2785986 0.086909994 0.17817684
000200 1f 65 84 3d 27 b1 d2 3c 42 0a c4 bd 47 73 98 bd
       0.064646 0.025719238 -0.09572269 -0.074438624
000210 44 e3 da 3c 3b ce 43 3d f2 0c 75 be 19 90 f6 bd
       0.026719697 0.0478041 -0.2393072 -0.12039203
000220 62 49 f6 3c b5 0f 84 be 0a 03 be 3b 92 e2 38 3d
       0.030064289 -0.25793234 0.005798702 0.04513795
000230 b6 db 51 3e b4 5b 27 bd 0d 6c c6 bd 78 97 99 bd
       0.2049397 -0.04085894 -0.09688578 -0.074995935
000240 5c 89 d5 bd 69 2d 11 3e 02 98 bc bb 9b 74 44 bd
       -0.1042659 0.14177479 -0.0057554254 -0.047962766
000250 df 65 9e 3d cb 8e fa 3d 46 d6 c6 bd d0 8c fe ba
       0.07734274 0.12234267 -0.09708838 -0.0019420628
000260 ca 93 7c bd 8a 75 5d bd 1f d6 34 3e f0 27 23 be
       -0.06166438 -0.054067172 0.17659806 -0.15933204
000270 14 db 4e bd 93 91 82 3d 4c da d6 3d 2e be b0 bc
       -0.050501898 0.06375422 0.104908556 -0.02157506
000280 7b dc fe bd d1 5d 09 bd 5f b7 09 3e af 2b 18 be
       -0.12444397 -0.033536736 0.13448857 -0.14860414
000290 80 05 80 bd be 26 f3 34 32 06 a3 bc 4e 8f 44 bd
       -0.06251049 4.5290466e-07 -0.019900415 -0.04798823
0002a0 2a d7 d8 bd 75 ee a0 3d 15 4a 1b 3e 81 9c e6 3c
       -0.10587914 0.07857982 0.15164979 0.028150799
0002b0 7e 5c a8 bd 43 6f e2 bc 62 51 86 bd 5d 86 86 3d
       -0.082207665 -0.027640944 -0.06558491 0.065685965
0002c0 e7 81 81 bd 13 0c 05 be 5b 11 c3 3c da dd e7 bd
       -0.06323605 -0.12992887 0.023811987 -0.11321612
0002d0 04 4b ed bb 5d fa 32 be 89 d7 08 be f1 ac 29 3e
       -0.0072416086 -0.17478319 -0.1336347 0.16569878
0002e0 a3 33 73 bc 31 a0 81 be eb f8 a4 bd 3d df b6 bd
       -0.014843854 -0.2531753 -0.0805529 -0.08929298
0002f0 84 3f 61 3e 59 2c 46 be e7 54 25 3c 9b 94 00 3e
       0.21996886 -0.19352855 0.010091043 0.12556688
000300 29 bc 05 3e 1e 8d 5a bd ef 4c 16 bb 61 e0 9f bd
       0.13060059 -0.053357236 -0.002293404 -0.07806469
000310 84 ca 69 bd 94 b7 d2 3a 9f 77 3c 3e a1 2d a9 bc
       -0.0570779 0.0016076439 0.18405007 -0.02065164
000320 db ea ef bd 3f 2a 4e bd bf 7a 77 bd a9 ea a0 bd
       -0.11714717 -0.050333258 -0.060419794 -0.07857258
000330 b6 85 95 bc dd a6 2f 3e d5 e6 d0 3d 1c 50 9f 3d
       -0.018252235 0.17153497 0.10200278 0.077789515
000340 03 10 f6 bd 25 cb 6d bd 7e 3f dc 3a e0 55 87 3d
       -0.12014773 -0.05805506 0.001680359 0.06608176
000350 89 1f bb 3c ec f1 73 bc 36 8c 93 bd 8e 8e 8b bd
       0.022842186 -0.014889222 -0.072044775 -0.068142995
000360 f5 9a fb 3b 63 c9 dc bd c7 18 e7 bd d4 03 cd bd
       0.0076783844 -0.10780599 -0.11284023 -0.10010496
000370 9b 06 58 3e c5 ef 3b bd fb 72 66 bc 0e 6e b0 3d
       0.2109627 -0.04588296 -0.014065499 0.08614741
000380 cb e1 8e 3c c9 66 54 3d fa cb df bd 5d 50 e4 3d
       0.01744165 0.051855836 -0.10927577 0.111481406
000390 36 b2 92 3d 31 72 1c be e1 f6 38 3e 57 6e 4d 3e
       0.07162897 -0.15277936 0.18062927 0.20061623
0003a0 b4 b4 03 3d b0 a8 5e 3e dd e3 08 be 62 3a 90 bd
       0.032154754 0.21744037 -0.13368173 -0.07042386
0003b0 92 10 2d 3d d0 c0 d1 3d 94 22 df bc 6d 5b 15 bd
       0.04225213 0.10241854 -0.027238168 -0.036464144
0003c0 8f 1d d0 3d fc 76 7d be 8d 62 b0 bd dd e0 f3 3d
       0.10161888 -0.2475242 -0.08612547 0.11908124
0003d0 b0 cb 0d 3d b0 a8 e1 3c 99 d0 26 3d 66 35 08 bd
       0.03461808 0.027546257 0.040726278 -0.03325405
0003e0 dd 88 14 be cd 2d d9 bd ee b1 14 3e 78 e6 1a be
       -0.14505334 -0.10604439 0.14521 -0.1512698
0003f0 1b 9d 0b 3d 4a a0 71 be 5a c3 e5 3a 5c d0 a6 bb
       0.034085374 -0.23596302 0.0017529533 -0.0050907563

network_body._body_endoder.seq_layers.0.bias f4 [256]
000000 03 15 78 3c b2 be 2b 3c 7e 6a 33 3c 32 53 48 3c
       0.015141728 0.010482477 0.010950683 0.012226867
000010 3c 6a 67 3b 96 99 8e 3b 8f 70 22 bd 0e dd ae 3c
       0.0035311123 0.004351805 -0.039658125 0.021345641
000020 aa 97 02 bd 83 fc fe bb 0a 00 af bb 42 9c e3 3c
       -0.03188292 -0.0077815666 -0.005340581 0.02778447
000030 d1 60 cc 3b 97 8d e8 bb 6a d3 82 bc 7c 28 03 39
       0.0062371274 -0.007096957 -0.01596995 0.00012508215
000040 b5 1a c4 3b 38 98 31 3c 6c 9c 3d bb a7 d6 75 bc
       0.005984629 0.010839514 -0.0028932346 -0.01500479
000050 2f 41 1e bb 62 1d 09 3c 21 15 d7 3b f5 db e6 bc
       -0.002414774 0.008368822 0.006563798 -0.028181056
000060 ce a8 4b 3b ba 25 7e 3b f5 92 52 3b 3b 6b b8 3c
       0.0031075957 0.003877981 0.003213105 0.022512069
000070 91 2e fa bb 1c f5 81 3c f3 e8 70 3b a0 70 aa 3c
       -0.0076349457 0.015863948 0.0036759942 0.020805657
000080 d1 c0 90 3c 6d 55 d5 ba 6a 4b 8b 3c 01 86 93 3c
       0.017670067 -0.0016276069 0.017003734 0.018008234
000090 a5 83 a3 ba 15 ba 14 3c ec d9 6f 3c c4 92 ce 3b
       -0.0012475146 0.009077569 0.014639359 0.006304117
0000a0 e0 c4 16 bc af f5 50 3b 95 f7 91 3c 9e 75 da bc
       -0.009202212 0.003188472 0.017818252 -0.026667412
0000b0 f5 15 b4 bb 4d 7a ed bb 80 c9 44 3a 16 ad d4 3b
       -0.0054957815 -0.0072472454 0.00075068325 0.00649036
0000c0 7f 30 db 3c df 75 c2 bc ed 12 1d 3c 9b a4 2e 3b
       0.026756523 -0.023737846 0.009587032 0.0026648405
0000d0 76 c7 b0 3c 45 83 80 3a 65 e4 35 3c 55 48 61 3c
       0.021579485 0.0009804746 0.011101817 0.013750155
0000e0 32 67 73 3c fe f4 cf 3b ab 13 87 3c c9 05 fe bb
       0.014856147 0.006346344 0.01648887 -0.0077521545
0000f0 8b 22 9f 3b fb 90 a5 3c be 26 91 3c 2c 3d 1f bc
       0.0048564128 0.020210734 0.017718669 -0.009719174
000100 0b 4c 28 3b 8d 09 b9 bb 04 cd 95 bc c3 a9 99 3c
       0.002568009 -0.0056468905 -0.018286236 0.018757707
000110 7e fb a6 bc 0a 90 99 39 b8 12 3d 3c be 02 6a 3c
       -0.020383593 0.00029289752 0.011540107 0.01428288
000120 d0 78 1e bb 1d bf 77 3c 05 6e 29 3c 28 f2 81 3b
       -0.0024180897 0.015121249 0.010341172 0.003965635
000130 13 a5 23 3c 4b 9a 0d 3c d4 57 22 3b 1b 44 52 bb
       0.009988087 0.008642743 0.0024771588 -0.003208405
000140 24 65 a4 3a 4b 71 8c bc 5c 6f 6b 3c db d3 c7 bb
       0.0012542349 -0.017143866 0.014369812 -0.006098253
000150 46 a2 34 3b d0 b5 60 bb 6a 9d 39 39 d4 df f6 bb
       0.0027562543 -0.0034288056 0.00017701616 -0.0075340066
000160 0e af 13 bc d2 97 60 3c a1 f6 46 3c 9a 08 64 3c
       -0.009013904 0.013708072 0.012143762 0.013918066
000170 0b 92 eb bb 82 01 95 bc 03 4f 8d 3b ee 12 95 3c
       -0.0071890405 -0.018189196 0.0043123974 0.018197503
000180 ca 81 96 3c ff 0d 15 bc d4 35 fa 3c 60 c4 61 3c
       0.018372435 -0.009097575 0.030543245 0.01377973
000190 5a ba b1 bb de 99 7b 3c e0 ae 98 3b a0 3b 96 3b
       -0.005423826 0.015356509 0.0046595186 0.0045847446
0001a0 72 7c 85 3c c9 ce 21 3c b7 d9 b9 bc cc bd 9d bc
       0.016294692 0.009875962 -0.022686822 -0.019255541
0001b0 3b 72 85 38 44 3f 00 bc e3 fe 61 3c cb 7d c8 3c
       6.363211e-05 -0.007827584 0.01379368 0.024474045
0001c0 b8 5f 81 3c 90 0d 16 3c 2e 1c 7d bc 97 b4 62 3c
       0.015792713 0.009158507 -0.015448613 0.013837001
0001d0 89 46 70 3c ca e1 fd b9 f3 3d e4 ba e1 9f 5e 3c
       0.014665254 -0.00048424146 -0.0017413482 0.013587923
0001e0 69 f8 42 3a 4b e5 8a ba 9a f0 b2 ba ae 0a 36 bc
       0.00074375287 -0.0010596899 -0.0013652027 -0.011110945
0001f0 59 c8 26 3c 3b a6 25 bc 8f 01 36 3c 17 15 97 3b
       0.010179603 -0.010110433 0.01110877 0.0046106684
000200 da b1 86 bc ee 42 8e 3a af c8 17 3c a3 e8 0d 3d
       -0.016442228 0.0010853687 0.009264155 0.034645688
000210 76 bb 07 bd 76 8e cf ba fe bd ac 3a 2a 73 f0 bc
       -0.03313776 -0.0015835303 0.0013179181 -0.02935179
000220 5b e4 85 bc 5a d4 b2 3c 16 3f 91 bc c2 d2 12 3c
       -0.01634424 0.021829773 -0.017730277 0.008961381
000230 49 a2 4c ba 0e 31 cd bb 28 ff e8 3a c8 1f 8b 3c
       -0.0007806165 -0.0062619513 0.0017776238 0.016982928
000240 11 6f 18 bd 37 25 c2 3b 1c d0 6c bb b8 22 ad bb
       -0.037215296 0.0059248465 -0.0036134785 -0.00528368
000250 55 b4 bd 39 e0 93 bb bc cc 8b ba bc 1a 42 73 3b
       0.00036183247 -0.02289766 -0.022771738 0.0037118257
000260 38 3a c7 bb ee 98 67 bb 44 e3 71 39 2a ef 27 3c
       -0.0060799383 -0.0035338956 0.00023068214 0.010249892
000270 84 38 6d 3c f3 7e c8 3c ec 3d 01 3b 84 fd 8b bb
       0.014478806 0.024474597 0.0019720746 -0.004272165
000280 58 b9 23 3b 49 d1 d7 bb 77 17 39 3c fc e9 3c bc
       0.00249823 -0.006586228 0.011297098 -0.011530396
000290 21 52 8f 3a 6d c1 6f bb c9 57 1a 3c 60 bf 0c bc
       0.001093451 -0.0036583797 0.009420344 -0.008590549
0002a0 0d d3 18 3c c6 19 8a bc 2e cb 62 3c a6 06 8f 39
       0.009327662 -0.016857993 0.013842387 0.0002728004
0002b0 cb ea cf 3c 88 d4 13 3c 4d e0 93 bc 27 df 1c 3d
       0.025380513 0.009022839 -0.01805129 0.038298752
0002c0 23 bb 10 bc 29 48 42 3b 9f 77 17 3c 39 ff ea 3c
       -0.008833679 0.0029645062 0.0092448285 0.028686153
0002d0 f8 6f 58 bb 9a 57 00 3b d8 2e b1 bb 0f f6 da ba
       -0.0033025723 0.0019583465 -0.0054071955 -0.0016705411
0002e0 d5 37 ad bc 51 df 84 bb 9e 85 93 3b 1a 4e 18 ba
       -0.021144787 -0.0040549417 0.0045020124 -0.0005809978
0002f0 c5 a6 c2 3c 6f 89 0a 3c 2b b7 c3 bb 11 7c 5a 3c
       0.023761163 0.008455618 -0.005972763 0.013335244
000300 21 a3 83 3b 2f df 9c 3c b5 de 30 3a 0c bc 0b bc
       0.004017249 0.019149391 0.0006747053 -0.008528721
000310 d8 a3 d5 bb 86 1e 22 bc 54 ea f6 3b 7c 6a 92 bb
       -0.006519776 -0.009894973 0.0075352583 -0.0044682603
000320 3c 49 d6 bc 23 d6 bb 3c ce 75 fb ba e6 79 ab 3b
       -0.026157968 0.022929257 -0.0019184889 0.0052330373
000330 ca a1 8f 3c a1 42 91 3c 5c 39 d9 bb 72 c4 69 3c
       0.017533202 0.017731966 -0.006629152 0.014268028
000340 da a9 53 bc 67 b2 e0 3c 8a 81 57 bc e9 2f d0 bb
       -0.012918914 0.027428819 -0.013153443 -0.0063533676
000350 41 3d b6 b9 70 44 92 3c 87 54 e3 3c 88 b1 ee 3b
       -0.00034759383 0.0178549 0.027750267 0.007284347
000360 5c 08 ee ba a9 f2 08 3b dd 89 af 3c 9e b4 1c 3d
       -0.001816045 0.002089659 0.021428043 0.038258187
000370 69 1e 4e 3c 27 38 24 bc 58 a0 8b bc 15 58 ee 3c
       0.0125804925 -0.010023153 -0.017044231 0.029094735
000380 a6 a9 c8 bb 3e dc 7d 3b e5 1b 7e bb 11 f4 02 bd
       -0.0061237393 0.003873601 -0.003877395 -0.03197104
000390 45 89 c2 3c 50 28 c3 3a 96 e6 08 3c 79 21 ad 3c
       0.023747096 0.0014889333 0.008355757 0.021134125
0003a0 28 75 b7 3c 3a f6 1d bc f3 b6 a9 bb 09 83 da 3c
       0.022394732 -0.0096412245 -0.00517928 0.02667381
0003b0 45 a6 c7 3c ad 47 7e 3c d7 90 5a 3c 33 62 cd bb
       0.024371276 0.0155200185 0.013340197 -0.00626781
0003c0 1a 59 e8 bb 36 41 b0 3b 2f 56 e6 3c 83 60 8a 3b
       -0.0070907 0.0053788675 0.028117267 0.004222931
0003d0 bc cf 56 bc 85 02 67 b9 fb 25 16 3c ec 18 37 3c
       -0.013111051 -0.00022030815 0.009164329 0.011175375
0003e0 60 74 b8 bc 52 89 60 3c 40 c6 f4 ba 50 fe 3e 3c
       -0.02251643 0.013704615 -0.0018674806 0.0116573125
0003f0 3c c8 a1 bc 47 91 3d 3b 82 29 7e 3c 31 3e de 3c
       -0.0197488 0.0028925703 0.015512826 0.027129265

network_body._body_endoder.seq_layers.2.weight f4 [256, 256]
000000 96 a9 e3 bd 7e 34 69 3c 92 f5 62 bb 6e d2 12 3b
       -0.1111633 0.0142337065 -0.0034631235 0.0022403258
000010 4e 8b 98 3d 0c 37 bc bd a0 f6 5c 3d 72 eb ac 3d
       0.07448445 -0.09190187 0.053946137 0.08443345
000020 7c 4b 63 bb 59 59 35 3d 2c 7d be 3c 6a ec 67 3d
       -0.0034682443 0.04427466 0.023253046 0.056621946
000030 87 07 9f bc 7f a3 e2 3c 4a 22 80 bd aa 3d 93 3c
       -0.019412769 0.027665852 -0.0625654 0.01797374
000040 43 26 67 bd d9 64 f3 3c 00 b9 6b 3d 2e ab 40 3d
       -0.056432974 0.029711174 0.057549477 0.04703825
000050 33 db 94 3d a2 cc bb 3b 10 2a 6e 3d 5f 96 85 ba
       0.072683714 0.0057311812 0.058145583 -0.0010191909
000060 25 46 8f bd 2c 67 39 bd 9e bf 7d bd ec 2f 47 bc
       -0.06995801 -0.045264408 -0.06195032 -0.012157422
000070 b2 f6 e7 3d 08 ce a9 bb 37 9b 1b 3b 63 01 0e 3d
       0.1132635 -0.0051820315 0.0023743638 0.03466929
000080 79 e9 80 bd 51 f0 32 bd 67 3d a9 bd 97 a2 a5 bd
       -0.062945314 -0.043686215 -0.08263665 -0.08087652
000090 bd f8 ce 3d 04 3b d6 3d 72 d0 86 3d 86 93 d6 bd
       0.10106037 0.10460475 0.065827265 -0.104773566
0000a0 26 39 93 3d 07 3a b8 bd e5 dc eb bc f1 dc 4b bd
       0.071886346 -0.08995443 -0.028791854 -0.049771253
0000b0 e3 f8 04 3c 6f 03 0c 3e 8d 62 3a 3e 35 82 ec 3c
       0.00811598 0.13673185 0.18201657 0.028870681
0000c0 49 73 e7 bd dc 6c ea bc 15 32 a1 bd e0 c8 d0 bc
       -0.11301286 -0.028616361 -0.078708805 -0.02548641
0000d0 2e 96 22 be 3b 48 07 bc 3b 6e f3 bd de 95 83 bd
       -0.15877602 -0.008256967 -0.11886259 -0.06425069
0000e0 60 f8 cf 3b 5f 55 91 3d a8 29 cb bd 74 4a 99 3c
       0.0063467473 0.07096361 -0.09920055 0.01871226
0000f0 a9 9f 55 bd 85 7e 8f 3d 74 43 6a bc d0 a3 08 bd
       -0.052154217 0.070065536 -0.014298309 -0.03335935
000100 0e 7d 45 3d 41 68 e2 bc 80 b1 d2 bc 64 1e 4f bd
       0.048214965 -0.027637603 -0.025719404 -0.050566092
000110 b9 ca 9e bc e4 a6 90 3c 30 69 72 bc 85 ac 69 bd
       -0.019383775 0.017657705 -0.0147955865 -0.057049293
000120 5c 0b 5e bd 25 76 09 3e df b7 0a be ce 0c 41 3c
       -0.054210052 0.13423975 -0.13546704 0.011782838
000130 e7 3f 06 bd 72 14 87 3c 92 38 fa bc 47 f3 ea 3d
       -0.032775786 0.016489241 -0.030544553 0.11472183
000140 0e d8 d8 3d 9e 7b 33 ba 36 6a 40 3d cb 58 27 38
       0.10588084 -0.00068467285 0.04697629 3.9898598e-05
000150 b2 13 0c 3c f7 94 81 3d 3f 62 c7 3d 31 96 c1 3d
       0.008549618 0.06327241 0.09735536 0.09452475
000160 1b 6e 51 3d 1f bf 91 bd 23 04 1f bd c0 d9 17 3e
       0.051130395 -0.071165316 -0.038822304 0.14829159
000170 35 99 a6 3d 19 5d ae 3d 63 a6 e1 bd 0f 71 71 bd
       0.08134691 0.08513851 -0.11018064 -0.05894571
000180 93 33 32 be d8 c0 bc 3d 6b 2a 90 bd 09 73 60 3c
       -0.17402487 0.092164695 -0.070393406 0.0136993015
000190 af ae 12 bd 56 b0 39 3c f8 b0 17 bd 25 6b 14 3c
       -0.035811123 0.011333546 -0.037034005 0.009058748
0001a0 58 97 d0 bc 66 fa c4 3d 44 59 e7 bd 97 eb dc bc
       -0.025462791 0.09618072 -0.11296323 -0.026967807
0001b0 df 5d 5a bd 9e a0 88 bc 45 5a 87 3d fe 8c 45 bd
       -0.05331218 -0.01667815 0.066090144 -0.048230164
0001c0 64 a8 e6 bd 64 71 72 3b 0c 3b 10 bd 97 5d 08 bd
       -0.11262587 0.0036993856 -0.03521256 -0.03329238
0001d0 34 33 9e 3d f2 53 4e 3c 12 ea 00 3e ca b0 08 bd
       0.0772461 0.012593256 0.1258929 -0.033371724
0001e0 9e 57 35 3d 63 90 8e bc c2 06 ca 3c 0d 23 64 3d
       0.04427301 -0.017402833 0.024661426 0.05569749
0001f0 9a 21 6a 3c 11 44 bc 3c c3 bd b1 bd 99 3f a9 3d
       0.014290238 0.022981675 -0.08678772 0.082640834
000200 52 59 a7 bd ed ab d4 bd 9e 11 cd bc 5d fa b9 3d
       -0.081713334 -0.10384355 -0.025032815 0.09080956
000210 18 a4 1b ba 48 f5 dd 3c 49 51 49 3d 9f f0 2e 3c
       -0.00059372326 0.027094498 0.049149785 0.010677486
000220 7d 8f 8c bd 15 a7 e5 bc d9 32 0f 3d f1 79 f6 3c
       -0.06863306 -0.028033772 0.0349606 0.030087443
000230 4e d5 38 3d 2d 63 97 3d b3 d5 02 3d c0 37 11 3d
       0.0451253 0.07391963 0.03194208 0.035453558
000240 28 46 e6 3d fd a4 8f bd 08 8c 61 bd 51 23 7a bc
       0.1124385 -0.07013891 -0.055065185 -0.015267209
000250 2a b5 a5 3c 41 33 cb bd 21 67 05 bb 12 3c 1c 3e
       0.020227987 -0.09921885 -0.002035566 0.1525729
000260 d9 20 e6 3d 73 51 13 3e 6c 37 0c be e9 1e a0 bd
       0.11236734 0.14386539 -0.13693017 -0.07818396
000270 2a 56 fc ba 93 00 2a bd a5 9f da bd 6b c7 17 be
       -0.0019251753 -0.041504454 -0.10674981 -0.14822166
000280 e2 7d 22 bd 79 26 2d 3d 85 20 c6 bb 5a 87 eb bb
       -0.039670832 0.04227302 -0.006046357 -0.007187766
000290 e9 5e 00 bd 2d 69 23 3c 5b a7 ca bd a0 c8 11 3d
       -0.031340513 0.009973806 -0.09895202 0.03559172
0002a0 b1 6f 85 3c 66 5c 58 3d 71 29 83 bd 51 18 ab bd
       0.01628861 0.052822493 -0.06404389 -0.08354247
0002b0 ae 31 3e bd 17 89 0b 3e 2f f7 f5 3c ae 2a b8 bd
       -0.046434097 0.13626514 0.030025093 -0.089925155
0002c0 a8 58 c8 3c e0 98 48 bb a0 2e 57 bd ff c0 c9 bd
       0.024456337 -0.0030608699 -0.0525347 -0.09851264
0002d0 b8 4d 8c 3d 17 bd f9 3d a4 3f 11 3c a6 2c 60 3d
       0.06850761 0.12194269 0.008865271 0.05473008
0002e0 28 bf 98 3d 69 ff a6 bc 02 6e 1c 3e 5a 80 5e 3c
       0.07458335 -0.02038546 0.1527634 0.013580406
0002f0 46 e2 0f bc 10 08 c0 bc 7d 5e 0c 3d e0 ee a3 3d
       -0.008781975 -0.023441344 0.0342698 0.08004546
000300 94 06 89 3c 68 87 15 3d 5b 59 6e bc f0 9d 78 3a
       0.01672677 0.036506087 -0.014547671 0.0009483984
000310 d0 1a 36 3e 99 cd 0e 3d c4 6e 70 bd 29 1e d1 bc
       0.17783666 0.034864042 -0.058699384 -0.025527077
000320 73 57 f9 bc 63 94 03 bd be 95 61 3d 5f 96 d4 bc
       -0.030437207 -0.032123934 0.055074446 -0.025950609
000330 57 fb af bd c0 8d 5f bc 4e 3e 58 3d fe 8b b2 3d
       -0.08592861 -0.013644636 0.052793793 0.08718108
000340 92 9d 00 be 67 1d 11 bc 92 96 bb bd 3f 54 4b 3d
       -0.12560108 -0.008857108 -0.091595784 0.04964089
000350 47 2b bc 3d d7 db be bd 54 ac d1 3c 2c 5f 6d 3d
       0.09187942 -0.09319275 0.025594868 0.05795209
000360 84 b3 97 bd 70 c3 e6 bc e0 88 73 bc 69 0b f4 3d
       -0.07407287 -0.028169364 -0.0148641765 0.11916239
000370 34 6b 3d bc 74 30 42 bd ac 85 6c 3c b1 57 92 3c
       -0.011561204 -0.04740949 0.014436167 0.01786408
000380 48 73 1d 3d 5c 74 f9 3d 68 28 63 3c f1 69 46 bd
       0.03844002 0.12180397 0.013864614 -0.048440877
000390 bc 6d 70 bd c5 23 1b bd f6 89 06 bd fa 4e d1 bb
       -0.0586984 -0.03787591 -0.032846414 -0.0063875886
0003a0 86 1c 46 bd 6c c9 83 bc 81 8e 0d 3d aa 35 b7 3d
       -0.048367046 -0.016087256 0.03455973 0.089457825
0003b0 ab 14 56 bd 66 3b 1a bd d9 6f bc bd 02 23 34 3d
       -0.052265804 -0.037654303 -0.09201021 0.0439787
0003c0 01 ee 53 bd 71 6c 9b 3d fe 52 57 bd 0a 9f ab bd
       -0.05174065 0.07589043 -0.052569382 -0.08379944
0003d0 aa 70 5c 3c a7 02 86 3b c8 4e f5 bd 8b e9 a1 bc
       0.013454596 0.0040896717 -0.11977917 -0.019764682
0003e0 b2 89 23 bd 28 68 78 3b 12 10 16 3d 10 34 b3 bd
       -0.03992624 0.003790388 0.03663642 -0.087501645
0003f0 b7 67 b8 bc f0 5b 61 3d 0d ee 4b bd d7 73 da bc
       -0.022510393 0.05501932 -0.04978757 -0.026666565

network_body._body_endoder.seq_layers.2.bias f4 [256]
000000 1c c0 08 bc 30 76 a2 bc 85 61 8c ba 95 59 44 bc
       -0.008346584 -0.019831747 -0.0010710215 -0.011984249
000010 f4 40 9b bc 1e a0 33 3c 5c c8 62 3b 2e e3 91 bc
       -0.01895187 0.010963468 0.0034604287 -0.017808523
000020 2d 45 69 bc dd 50 0e 3b 66 9d 79 bc 41 a7 ac 3c
       -0.014237684 0.0021715679 -0.015235281 0.021075847
000030 4e c8 0f 3c a9 90 da 3c 8e 46 44 3c b7 11 a7 3b
       0.008775784 0.026680307 0.011979712 0.0050985473
000040 c4 14 f4 bb 88 4c bb bb e9 20 53 bc 21 d0 72 bc
       -0.0074487645 -0.0057159103 -0.012886264 -0.01482013
000050 2e f8 a7 bb e9 f9 12 3c 77 10 47 bc 27 d0 8b bc
       -0.005126021 0.008970716 -0.012149922 -0.017067028
000060 ef dc a9 bc 96 2c 73 bc f4 25 24 bc 9c c8 1f 3c
       -0.020735232 -0.014842173 -0.010018814 0.009752419
000070 5f 68 db 3b 6d 8c 92 3b 4a ba 05 bb b9 e8 b4 3c
       0.0066957916 0.0044723065 -0.0020405226 0.022083627
000080 83 d4 42 bc 0c 75 2f 3c b1 5a 10 3c f1 e8 d7 3c
       -0.011891487 0.0107090585 0.008810685 0.026356192
000090 1b 66 9b 3c 38 ec 1b 3c a1 d3 a9 3b b0 34 5b 3c
       0.018969586 0.009516768 0.005182699 0.013379261
0000a0 24 0f ad bc 06 4d 49 bc 80 5b d4 3c 8e 2b 33 3c
       -0.021125384 -0.01228643 0.025922537 0.010935677
0000b0 5d 2a 15 3c a8 11 6a 38 52 44 aa b7 06 3a 90 39
       0.0091043385 5.580639e-05 -2.0297393e-05 0.0002750905
0000c0 62 5e c6 3b 56 86 21 3c 34 11 5d 3c 83 29 48 3c
       0.006053732 0.009858688 0.013492871 0.012216928
0000d0 f4 f9 4e 3b bf 17 6c 3c 06 cc 55 3b ff b6 ca 3b
       0.003158209 0.014409958 0.0032622828 0.0061863656
0000e0 ca b4 aa 3a d1 d8 3a 3c ee 01 b4 bc 10 b3 be bc
       0.001302385 0.011404232 -0.021973576 -0.023278743
0000f0 7c 27 ca 3c 65 7b c8 3c 59 b4 bb 3c a3 56 52 bc
       0.02467703 0.024472902 0.022913145 -0.012838039
000100 f7 db 84 3c 87 bb 9d bb 1d ae 39 bb 81 d9 8f bb
       0.016218169 -0.0048136148 -0.002833254 -0.004389942
000110 0b 14 18 bb 39 0c 8d bc 79 e6 29 3c 6a 56 bf 3c
       -0.0023205306 -0.017217742 0.01036989 0.023356635
000120 4e 96 a5 3c 05 b3 ef 3c 53 42 cb 3c 0b 93 cf 3c
       0.020213272 0.029260168 0.0248119 0.02533867
000130 a6 56 95 bc 32 91 52 3c e6 75 b2 3c 59 b0 21 bb
       -0.018229794 0.012852 0.021784734 -0.0024671762
000140 7f 69 4a bc be 98 88 bc e5 8e 9c bc cb 3a 07 bb
       -0.012354254 -0.016674396 -0.019111106 -0.0020634409
000150 05 82 c4 38 c4 4f cf 3c 53 24 7d bc dd 44 4e 3b
       9.370226e-05 0.02530659 -0.015450555 0.0031474151
000160 08 0d a3 bc ee 06 b4 3c 4f eb 3e 3c f1 e2 68 3c
       -0.019903675 0.02197596 0.011652782 0.014214263
000170 e3 06 ef 3b e8 35 b1 bc bb 2d 86 3b a7 bf 39 3c
       0.007294522 -0.02163215 0.004094807 0.011337197
000180 11 94 40 3c 75 e1 5c 3c 90 77 3b bb f0 34 a6 bc
       0.011754052 0.0134814875 -0.00286052 -0.020288914
000190 07 3a da bc 1a 0e be bb ee 07 cd bb ef 18 26 3c
       -0.026638998 -0.005800021 -0.006257049 0.010137781
0001a0 78 1d 1b 3a 4b 07 50 bc 2d 77 65 bc cc 31 8b 3c
       0.0005917172 -0.012697051 -0.0140054645 0.016991518
0001b0 e2 26 9d 3c 64 83 5a 3c 9e 07 79 3c cf 66 92 3c
       0.01918358 0.01333699 0.01519957 0.017871289
0001c0 53 0a 97 3c fe 64 c9 39 f7 75 5f 3c 53 50 5e bc
       0.01843754 0.00038412953 0.013638965 -0.0135689555
0001d0 d6 03 46 3c b1 5a 9b 3b 30 15 9a 3b f8 32 11 bc
       0.0120858755 0.004741036 0.004702233 -0.00886225
0001e0 df f1 7d 3c 57 51 22 3b 71 0b 5a bc fe e0 cb 3c
       0.015499561 0.002476772 -0.013308392 0.024887558
0001f0 6b 5f 77 bb cb 75 0f 3c 95 ea 29 bc d1 e4 49 bc
       -0.0037746083 0.008756111 -0.01037087 -0.0123226205
000200 5a 8f 7a bc 29 41 c1 3c 5e 1c d1 3c 18 db 06 3d
       -0.015292967 0.023590641 0.025526222 0.032923788
000210 a4 2f 31 3c 82 c1 bf 3b f1 76 9c 3c 7f 59 98 3c
       0.010814581 0.0058519254 0.019099684 0.018597363
000220 b6 f7 2f 3b 75 63 5d 3c b3 93 2b 3b 83 39 8a bc
       0.0026850528 0.013512482 0.0026180565 -0.016873127
000230 0d 9d 87 bc d1 5f 3b bc 37 60 13 bc 43 bc 0d 3c
       -0.01655438 -0.011436419 -0.008995107 0.008650842
000240 34 94 aa 3c b2 ef 3c bb d3 5b 59 bc a9 34 dc 3c
       0.020822622 -0.0028829393 -0.0132665215 0.02688058
000250 af f3 f7 3b 8d ee d0 3c 4b b9 2b 3c 35 b0 c9 3a
       0.007566891 0.025504375 0.010481189 0.0015387597
000260 9a de 5f 3c 2e 5b ba 3c 95 e0 0c 3c 75 99 ee 3b
       0.013663912 0.022748556 0.008598466 0.007281477
000270 ef 20 3b bc b9 35 36 bb a8 7f f9 ba d4 26 a0 3b
       -0.011421426 -0.0027803017 -0.0019035237 0.004887441
000280 2b 04 bb bc 97 e3 72 3c 6c 03 13 bc 24 0f c1 bb
       -0.022829136 0.014824769 -0.008972984 -0.0058916975
000290 5c c4 9e bc 28 ad 6b 3b fe 96 b6 39 64 f5 a5 bc
       -0.01938074 0.0035961363 0.00034826243 -0.020258613
0002a0 ed ea 8c 3c 7d a8 9b bb ee 2c 40 3c 97 03 09 3b
       0.017201865 -0.00475031 0.011729462 0.002090668
0002b0 80 9b b3 3b 54 47 57 bc 62 fd f7 bb 84 c1 10 3c
       0.0054811835 -0.013139565 -0.0075680474 0.0088352
0002c0 f3 06 58 bc c2 d9 8a bc 70 ec f9 3b 4e e9 73 bc
       -0.013185251 -0.016949538 0.0076270625 -0.014887167
0002d0 40 5f a3 bb b1 74 17 bc 58 b6 ce 3c 4d 41 89 bc
       -0.00498572 -0.00924413 0.025233433 -0.01675477
0002e0 1f a8 57 bc 39 c4 4d bb f6 bb 3a bc 11 33 e6 3b
       -0.013162642 -0.0031397475 -0.011397352 0.0070251306
0002f0 11 c5 41 3c 65 28 9e 3c 5f be 3f 3c 63 91 90 bc
       0.011826769 0.019306371 0.011703103 -0.01764745
000300 b8 37 47 bc 53 ad c3 3c d7 82 4d 3c 61 c8 e5 3b
       -0.0121592805 0.023886358 0.012543402 0.0070124124
000310 b9 1d 88 bb 03 5f ab 39 ed 43 9e 3c bc 80 42 3b
       -0.004153934 0.0003268645 0.019319499 0.0029678782
000320 66 4a bc bc 95 5c 94 39 7d 99 95 3c 11 d6 4c 3c
       -0.022984695 0.0002829774 0.018261665 0.012502209
000330 31 3b 65 bc 16 a5 89 bc 10 ee f8 3a f1 b7 2b bb
       -0.013991163 -0.016802352 0.0018991847 -0.0026202167
000340 3a 9a 9e 3b 71 7c 89 3c a0 5f 31 3c c6 28 37 3c
       0.0048401626 0.016782971 0.010826021 0.011179155
000350 cb 7e ad ba 42 e3 f4 bb fb 9d 96 3c c1 5d 59 3c
       -0.001323664 -0.0074733803 0.018385878 0.013266982
000360 dc 56 a0 bc de de a5 3c 5c 50 7e bc 47 61 2d bc
       -0.019572668 0.020247873 -0.015522089 -0.010582275
000370 96 ca c6 3c 7d 67 7a 39 b4 75 be bc 62 d0 4d bb
       0.024266522 0.0002388041 -0.023249485 -0.0031404723
000380 70 54 48 3c ff 57 c1 3c 0c 3a a1 3a 61 b2 d0 3c
       0.012227163 0.02360153 0.0012300625 0.025475683
000390 23 86 dc bb 14 d5 19 bc 65 49 8d 3c 66 ad 2a bc
       -0.0067298575 -0.009389181 0.017246911 -0.010417318
0003a0 8c 09 a7 39 02 cb 79 ba 92 fd 50 bc 91 e1 85 bb
       0.00031859835 -0.0009528847 -0.012755768 -0.0040857275
0003b0 1e 86 11 bc 40 82 d9 3a fe 03 9b 3c b2 26 17 bc
       -0.008882074 0.0016594604 0.018922802 -0.009225534
0003c0 95 39 9b bc 44 17 b0 bb 3d d6 43 3c 19 96 bd bc
       -0.018948356 -0.005373867 0.011952934 -0.023142861
0003d0 ee 34 34 3c 47 4c 27 3d 23 dc 8c 3c 3f 5a 6e 3c
       0.010998948 0.040844228 0.017194813 0.0145478835
0003e0 b8 97 c1 bc 41 4b c3 3c 94 ce d0 39 be 28 b6 ba
       -0.023631915 0.023839595 0.00039826764 -0.001389764
0003f0 3b 0b 87 3b 2e 8a a5 ba a5 47 fe bb f2 af 07 3b
       0.004121212 -0.0012629682 -0.0077600055 0.0020704237

action_model._continuous_distribution.log_sigma f4 [1, 3]
000000 bd be 63 3c 93 d3 d9 bc 5b bf d8 bc
       0.013900456 -0.026590144 -0.026458433

action_model._continuous_distribution.mu.weight f4 [3, 256]
000000 13 37 52 bd 3e a3 a9 bc a2 86 d1 bc 89 1f 8c bc
       -0.051322054 -0.020707723 -0.025576893 -0.01710488
000010 03 35 58 bc c0 2d 39 3d 8e 1a 03 3c 1f 02 4e bb
       -0.013196233 0.045209646 0.008001937 -0.003143437
000020 ff d7 b8 bc a9 7c 62 bc 1b bc 9d bc 9c 4e 99 3c
       -0.022563932 -0.013823667 -0.019254735 0.018714242
000030 d2 b2 c8 3a 0b 37 e1 3c 05 e9 b3 3c 7f 0a 6a 3c
       0.0015312082 0.027492067 0.021961698 0.014284729
000040 db a5 0b bd 1d 16 bf bc 67 13 ae bc 5a 09 45 3c
       -0.03409372 -0.023325974 -0.021249486 0.012026155
000050 e8 62 a4 3b 0c e6 7b 3c 59 f1 96 bc 9e 16 87 bc
       0.0050166734 0.015374672 -0.01842563 -0.016490277
000060 42 7b 24 3a ac d5 94 bc d1 54 08 bc e1 35 62 bb
       0.00062744704 -0.018168293 -0.008321003 -0.0034516978
000070 12 b9 90 3c db f3 3e 3c fd 6b 53 bb 8e 8c 1c 3d
       0.017666373 0.011654819 -0.003226041 0.03821998
000080 eb bf a0 3b 88 4e 16 3c 00 bf 27 3c e8 25 75 3c
       0.004905691 0.009173997 0.010238409 0.014962651
000090 21 2c fa 3c 17 14 8f 3c 52 93 4e 3c d4 4c 25 3d
       0.03053862 0.017465634 0.012608366 0.040356472
0000a0 b3 b7 14 bc d5 97 b8 39 6e 35 ef 3b e7 1e 8c 3c
       -0.009077 0.00035208339 0.0073000705 0.01710458
0000b0 20 ba 99 3c a7 5f 60 3c a8 74 b8 3c 59 cb 08 3c
       0.01876551 0.01369468 0.022516564 0.008349263
0000c0 b5 11 eb 3b 2d c1 86 3c 13 eb 8c 3b 91 11 50 3c
       0.0071737417 0.016449535 0.004300484 0.012699501
0000d0 6c 28 28 bc 7b 23 d8 3c 65 92 82 3c a8 71 2a 3b
       -0.010263544 0.026384106 0.015938947 0.0026007686
0000e0 b6 6a 5e 3c 8b 6a c0 3c 82 e5 1f bd 95 ed 02 bd
       0.013575247 0.023488304 -0.039037235 -0.031964857
0000f0 ff 49 1b 3d c0 ca 22 3d 2d bf af 3c 42 10 c2 bc
       0.037912365 0.03974414 0.021453464 -0.023689393
000100 2d 53 f9 3c 93 f6 30 bd 71 2f dd 3c c7 e5 62 3b
       0.03043517 -0.0432039 0.02700016 0.0034621821
000110 27 1b 69 3c d1 a2 01 bd d4 70 5c 3c af d6 9c 3c
       0.014227665 -0.031649414 0.013454635 0.019145338
000120 7a f7 a5 3c e6 15 b6 3c 3d e1 7b 3c 72 5b 0e 3d
       0.020259608 0.022227239 0.015373525 0.034755178
000130 f6 0a cb bc 9d 09 99 3c 2c c4 be 3c 60 e9 37 3a
       -0.0247855 0.018681342 0.023286901 0.00070156716
000140 bd 02 1a bd 7d dc 86 ba ea c1 85 bc e0 b7 f6 bb
       -0.037600268 -0.0010289099 -0.016327817 -0.007529244
000150 52 0c 53 3c 2e a2 84 3c 7f 13 ae bc 2c 0e 7a bb
       0.012881355 0.016190615 -0.02124953 -0.003815542
000160 a6 d3 55 bc b2 18 c3 3c 62 9c 6c 3c cb 12 15 3d
       -0.013050949 0.023815487 0.014441581 0.036394875
000170 99 be 91 bb d9 03 26 bc 24 11 db 3b f4 f4 90 bb
       -0.00444777 -0.010132753 0.006685393 -0.004423732
000180 fd 13 39 3c c6 da 51 3c 04 80 a5 bc f9 ab 1b bc
       0.0112962695 0.012808507 -0.020202644 -0.009501451
000190 96 f9 31 bc e1 b7 95 bc 0e 24 87 39 0a e5 bf bc
       -0.010862729 -0.018276157 0.0002577607 -0.023424644
0001a0 f4 c3 11 bd 00 53 db bb fc 92 fe bc 4b 90 23 3d
       -0.035587266 -0.006693244 -0.031075947 0.03993253
0001b0 a1 a2 b2 3c 30 59 02 3c 1f 0d 8f 3c 9c ff 20 3d
       0.021806063 0.007955834 0.017462311 0.039306268
0001c0 9b ba b3 3c 86 eb e2 b9 03 c4 62 3b 1d 35 2c bc
       0.021939566 -0.00043281558 0.0034601695 -0.01051071
0001d0 50 80 97 3c 8d 44 10 3b e9 42 fa 3b c8 65 cc bc
       0.018493801 0.0022013516 0.007637371 -0.024950877
0001e0 72 5a ad 3c 69 c0 a5 bc aa 56 43 bc 5d 19 4b 3b
       0.021161292 -0.02023335 -0.011922518 0.003099046
0001f0 85 fe 35 3c b6 70 0e 3d 74 63 ce 3b 65 a7 9c 3b
       0.0111080455 0.03477546 0.006298477 0.004780697
000200 7d 6a e3 bb e4 c8 02 3d b7 11 77 3c 5b 6e 1b 3d
       -0.0069401846 0.031929865 0.015079907 0.03794704
000210 77 cd 6b 3c 2d f8 38 bd f0 9a d0 3c 8b 20 a1 bb
       0.014392248 -0.045158554 0.025464505 -0.0049172095
000220 3d 43 df 3c 04 07 b7 ba 50 0c 01 3b 04 07 0f bd
       0.027253741 -0.0013963883 0.0019691177 -0.0349188
000230 88 17 6b bc af e3 dd 3a ca 42 04 bd a9 83 ab 3c
       -0.014348872 0.0016928817 -0.032290258 0.020936804
000240 de be 41 3c a3 cb 08 3c dd 7e b4 bc 4f 55 01 3d
       0.011825291 0.008349332 -0.02203315 0.031575497
000250 85 a8 f0 bb ae 00 b9 3c 9a e4 f2 3b 9a e5 22 bc
       -0.007344308 0.022583332 0.0074125053 -0.009942437
000260 54 59 91 3c 9f 2a a4 3c 9b 95 83 3b 16 5a e1 bb
       0.01774279 0.020039855 0.004015637 -0.006877194
000270 ab 53 ad bc 62 f5 61 3c f4 24 ac bc f0 61 d5 3c
       -0.02115806 0.013791414 -0.021013714 0.026047677
000280 57 77 40 bc 63 25 90 3c 81 0e 8b 3b b5 25 b4 bc
       -0.011747203 0.017595952 0.0042436724 -0.021990636
000290 22 76 06 bc 6f 0c c8 3b d8 a1 9f bc ca 2a 88 bc
       -0.008206876 0.006104998 -0.019486353 -0.016621966
0002a0 b9 9f e0 3b c4 8d da bc 5d 18 71 3c 1f f5 8d 3c
       0.006854978 -0.026678927 0.014715281 0.017328797
0002b0 8b 52 af 3b 90 9d 95 3c e0 8a a0 bc 20 6a e0 3a
       0.005350416 0.018263608 -0.01959747 0.0017121471
0002c0 ad 0d 05 bd 01 f3 ba bc 0c b2 8f 3c bb 95 dc bc
       -0.032483745 -0.022820951 0.017540954 -0.026926866
0002d0 00 38 f7 bc 29 aa 87 bc db d0 97 3c cd 15 5f bc
       -0.03017807 -0.01656063 0.018532207 -0.013616038
0002e0 81 17 3a bd a9 2e 3b 3c f1 13 fe bb 83 25 27 3c
       -0.04543257 0.011424699 -0.007753842 0.010201815
0002f0 bc ca ed ba 66 38 18 3d 68 09 1f bc 3c 98 94 bc
       -0.0018142085 0.03716316 -0.0097068325 -0.018138997
000300 60 40 6d bc 30 e6 d4 3c 84 1a 4c 3c 52 ef 11 3d
       -0.01448068 0.025988668 0.012457494 0.035628624
000310 10 b3 2c ba 53 f9 44 bb 55 31 03 3d 89 84 cb ba
       -0.00065879617 -0.0030055835 0.03202947 -0.001552717
000320 eb 38 05 bd 01 2a da 3b 90 e1 94 3c 97 86 8d 3b
       -0.032524984 0.0066578393 0.018173963 0.004319023
000330 07 6a 54 bc 40 1f c5 bb 93 01 5f bb 82 25 11 bc
       -0.012964732 -0.006015688 -0.0034028038 -0.00885904
000340 9e 47 3b bc 9f ca 27 3c 1b 5c 9c 3c ad e6 c7 3a
       -0.011430649 0.01024118 0.019086888 0.0015251242
000350 f5 d2 84 bc 29 38 97 bc ef 8d 1a 3d 0b fc 68 3c
       -0.016213873 -0.018459396 0.037733015 0.014220248
000360 b8 cb 0c bc 11 9c 17 3d 2a 85 63 3b be 12 8a bc
       -0.008593492 0.03701407 0.0034716823 -0.01685464
000370 cf 09 ae 3c 65 b1 5e 3c 6f 17 44 bc a6 cd c2 bc
       0.021244911 0.013592099 -0.011968478 -0.023779701
000380 fa 33 25 3d 20 15 51 3c 51 61 4d bc aa 8a 24 3d
       0.04033277 0.012761384 -0.012535409 0.040171303
000390 67 fd 5c bc 8e 0a 24 3c 50 a4 11 3d 1c c4 39 3c
       -0.01348815 0.010012282 0.03555709 0.01133826
0003a0 12 58 0e 3c 0f ca ca 3c 31 6c 03 bd 3f 06 88 bc
       0.00868799 0.024754552 -0.0320856 -0.01660454
0003b0 d0 70 94 bb f6 c4 9b bb 59 39 42 3c ee c7 25 3c
       -0.00453005 -0.004753704 0.011854493 0.010118468
0003c0 6a 19 95 bc 20 dd 08 bd 16 9c b4 3c 9e 8b 8c bc
       -0.018200595 -0.033414006 0.022047084 -0.017156418
0003d0 2c 58 0e bd 36 bc 03 3d d5 c2 2f 3d 21 a7 80 3c
       -0.034752056 0.032161914 0.042910416 0.015704693
0003e0 0e 67 03 bd 8d 55 dd 3c 2d 59 6e b4 17 5b 6f bc
       -0.032080702 0.027018333 -2.2197919e-07 -0.01460912
0003f0 6d 0b 94 3c 9f 55 b0 bc 6e 1b 3e bc 1c 72 e1 bb
       0.018071854 -0.021525202 -0.011603219 -0.006880058

action_model._continuous_distribution.mu.bias f4 [3]
000000 74 8e b3 3c ad 0f 21 3c 7e ad 36 bc
       0.021918513 0.009830398 -0.011149762

onnx::Div_61 f4 [68]
000000 e8 76 e0 3e f8 ce 80 3e 1d 89 c9 3e 4d 5f 95 3e
       0.43840718 0.25157905 0.39362422 0.2917427
000010 6f a4 fb 3e d7 d7 4d 3e c0 a0 f6 3e fe 40 a0 3e
       0.4914889 0.20101868 0.48169518 0.31299585
000020 9e 1c bf 3e e2 71 11 3e 7a 29 b5 3e f5 7d 97 3e
       0.3732652 0.14203599 0.35383207 0.29588285
000030 36 a3 ff 3e 90 26 11 3e 5e dc fe 3e 55 34 a8 3e
       0.49929208 0.14174867 0.49777502 0.32852426
000040 bd 73 b1 3e 50 12 9e 3d 87 34 ae 3e af d8 98 3e
       0.34658614 0.077183366 0.3402445 0.29852816
000050 b3 99 f9 3e 88 ca 03 3e f2 79 f7 3e fd 09 a9 3e
       0.48750076 0.12870228 0.48335224 0.33015433
000060 d5 71 b6 3e 83 7e 65 3d f2 d7 b4 3e 3a d7 9f 3e
       0.35633722 0.056028854 0.35321003 0.31218892
000070 d7 db d2 3e 9b 49 cd 3d 3e 2f cf 3e 62 77 9f 3e
       0.4118335 0.10023805 0.4046573 0.3114577
000080 82 67 b8 3e d4 7f 4c 3d ed 29 b7 3e cf 1b a1 3e
       0.3601647 0.049926594 0.35774174 0.3146653
000090 5b ab 97 3e 3e ec a5 3d 5a f5 92 3e 94 e3 8a 3e
       0.2962292 0.081017 0.28702813 0.27126753
0000a0 74 1e ad 3e 1f 23 43 3d 71 d7 ab 3e 63 d5 9a 3e
       0.33812296 0.047640916 0.33562806 0.30240926
0000b0 2a fc 7a 3e a5 6c 93 3d 7f 41 71 3e 30 fa 6d 3e
       0.24510255 0.07198457 0.23560141 0.2323997
0000c0 90 a2 a1 3e af 28 36 3d 82 61 a0 3e d1 d3 90 3e
       0.31569338 0.044472393 0.31324393 0.28286603
0000d0 07 eb 67 3e 0c dc 8f 3d f6 a3 5d 3e ab e1 51 3e
       0.2264825 0.070243925 0.21644577 0.20496242
0000e0 f9 50 80 3e 78 35 0b 3d d0 93 7e 3e 1f 81 76 3e
       0.25061777 0.03398654 0.24861073 0.24072693
0000f0 1a e6 42 3e 0a db 89 3d d1 2a 37 3e 3f 86 35 3e
       0.1903309 0.067312315 0.17887427 0.17726992
000100 75 cb 30 3e 8c f8 c9 3c bb 17 2f 3e ab 2b 44 3e
       0.17265113 0.02465465 0.17098896 0.19157283

onnx::Div_64 f4 [8]
000000 51 59 29 3f 26 b7 28 3e 47 96 10 3f fe 54 61 3b
       0.6615191 0.16476116 0.56479305 0.0034382935
000010 6b 4a 90 3a 8d 8c 26 3e 99 3c fe 3f bd c2 ac 3e
       0.0011008506 0.16264553 1.9862243 0.33742324
