results/ppo/RedCar/RedCar-8768.pt (torch, 156489 bytes, 21 tensors)

network_body.observation_encoder.processors.0.normalizer.running_mean f4 [8]
-0.0010225435 1.0715131e-05 -0.006743716 12.067859 0.0 -0.09217981 0.0 0.9939245
00000000: de06 86ba 23c5 3337 64fa dcbb f315 4141
00000010: 0000 0000 c5c8 bcbd 0000 0000 d671 7e3f

network_body.observation_encoder.processors.0.normalizer.running_variance f4 [8]
18.92376 1.003097 2037.8312 310105.9 1.0 30.367779 1.0 2.3472197
00000000: dc63 9741 7c65 803f 99ba fe44 3d6b 9748
00000010: 0000 803f 36f1 f241 0000 803f d938 1640

network_body.processors.0.normalizer.running_mean f4 [8]
-0.0010225435 1.0715131e-05 -0.006743716 12.067859 0.0 -0.09217981 0.0 0.9939245
00000000: de06 86ba 23c5 3337 64fa dcbb f315 4141
00000010: 0000 0000 c5c8 bcbd 0000 0000 d671 7e3f

network_body.processors.0.normalizer.running_variance f4 [8]
18.92376 1.003097 2037.8312 310105.9 1.0 30.367779 1.0 2.3472197
00000000: dc63 9741 7c65 803f 99ba fe44 3d6b 9748
00000010: 0000 803f 36f1 f241 0000 803f d938 1640

network_body._body_endoder.seq_layers.0.weight f4 [128, 8]
0.0238795 0.12330216 0.10875659 0.2616023 -0.7568775 0.08038287 -0.37394354 0.085967116
0.28856578 0.45848587 -0.253066 0.3966024 -0.3256512 -0.44878942 0.0064356993 0.13246758
-0.0069303312 0.054893963 0.42239583 0.7389305 -0.5325171 0.27402163 0.48027095 0.004790202
-0.17882995 0.1888376 0.5478897 0.21458639 -0.18402073 0.12699741 -0.1918242 0.233434
-0.1831886 -0.15893944 0.41052184 -0.018916022 0.016627561 0.29576302 -0.5729707 -0.37376684
-0.59766036 -0.49768767 0.06413152 0.03175297 0.2120088 0.2507476 -0.09025916 -0.79813176
0.29605404 0.05630012 -0.403775 0.17634441 0.066891074 -0.38544768 -0.038735323 0.15812044
-0.32479465 -0.36103168 0.1957015 0.032966275 0.07172807 -0.30859157 0.1815804 0.0114107635
0.48779982 -0.24329515 -0.08051004 1.0292856 -0.026567604 -0.019276861 -0.2009465 -0.19723672
-0.12580682 0.30333987 0.23706919 0.32275456 -0.006911935 -0.43949333 -0.6136952 -0.32468057
0.10578536 0.11623096 -0.25625464 -0.08162994 0.5953645 -0.20436224 -0.10054284 -0.13133815
-0.21582425 -0.92682034 -0.2837534 -0.09447941 0.0101060355 0.20442618 -0.05484117 -0.46050334
-0.099024184 0.36619344 0.22416501 0.23553213 0.010802528 0.29780942 -0.7530405 0.2485085
0.10934456 0.1556502 0.11694968 -0.21116585 -0.20633402 0.46971372 -0.0040553836 -0.17987604
0.0032720787 0.14338005 0.14215297 -0.4279909 0.5759288 -0.14676373 -0.6329293 -0.1665268
0.30307576 0.32747632 -0.58291036 0.40030035 0.13300948 0.13450663 -0.29574516 -0.23858365
-0.5295403 0.20717125 0.039089255 -0.024212563 -0.54209816 -0.013347147 -0.6607461 -0.063357726
-0.079333484 0.08884524 0.41758263 0.38972098 -0.25527138 -0.4394364 -0.40116617 0.56800926
-0.4566234 -0.35298118 0.05386844 0.13354461 -0.20965748 0.59190434 0.20014289 0.58766675
-0.27630612 -0.21652454 -0.121460296 -0.07542762 -0.08064624 -0.43349692 0.20395167 0.14039823
0.3906338 -0.35981312 0.51946276 0.13760251 -0.022204703 0.4034005 0.101631805 0.42200536
-0.80141336 0.36177936 0.59460676 0.063903734 -0.10934008 0.04133957 0.08750206 -0.20679328
-0.18331747 0.80600846 0.006672381 -0.21338831 0.021468723 0.06753682 0.1264493 0.5499632
-0.39940178 -0.21550716 -0.08770526 -0.27353537 -0.108484246 -0.19819279 0.37245503 0.031221408
0.17177127 -0.07777537 -0.3675325 0.31144837 0.24759457 0.047897536 -0.17047018 -0.22213867
0.0387252 0.5932962 -0.24460872 -0.20685466 0.20557222 -0.21175177 -0.66440123 0.07887059
-0.5125867 0.3102444 0.07368463 -0.3028943 -0.18117529 -0.14995651 -0.16627964 0.022556335
-0.062425904 0.06006794 0.67266095 0.4444184 -0.4339377 0.097448066 -0.2252067 0.23302521
0.14307907 0.20968068 0.11354721 0.52166605 -0.37155193 -0.10936915 -0.32170126 0.21814886
0.36338308 -0.10698225 -0.34943274 -0.22406673 -0.17344554 0.3494403 -0.38213795 -0.32984293
-0.29465848 -0.49891368 -0.46353924 0.4309143 0.08291571 -0.50855774 -0.13608252 -0.24407284
0.23039334 -0.5712297 -0.22374727 0.29082364 0.11673829 0.8660437 -0.4152073 0.12897754
00000000: f19e c33c d885 fc3d c6bb de3d bdf0 853e
00000010: b9c2 41bf c69f a43d 8775 bfbe 870f b03d
00000020: e5be 933e a9be ea3e de91 81be 780f cb3e
00000030: c1bb a6be bac7 e5be 8fe2 d23b 95a5 073e
00000040: d517 e3bb 7ed8 603d 4444 d83e 8d2a 3d3f
00000050: 0a53 08bf 904c 8c3e 13e6 f53e 20f7 9c3b
00000060: 331f 37be a55e 413e 8042 0c3f 89bc 5b3e
00000070: ee6f 3cbe 9c0b 023e 906d 44be 5309 6f3e
00000080: cb95 3bbe 05c1 22be eb2f d23e c6f5 9abc
00000090: 8636 883c 406e 973e 35ae 12bf 5e5e bfbe
000000a0: 4500 19bf ebd0 febe 6357 833d 670f 023d
000000b0: d618 593e fd61 803e cbd9 b8bd 5d52 4cbf
000000c0: 6594 973e f49a 663d 99bb cebe a193 343e
000000d0: 30fe 883d 6659 c5be eea8 1ebd 53ea 213e
000000e0: 7c4b a6be 25d9 b8be f965 483e a507 073d
000000f0: 2be6 923d b7ff 9dbe 36f0 393e 36f4 3a3c
00000100: e6c0 f93e 5d22 79be 73e2 a4bd a1bf 833f
00000110: 4ea4 d9bc 82ea 9dbc ebc4 4dbe 6cf8 49be
00000120: 81d3 00be 5d4f 9b3e 44c2 723e 1640 a53e
00000130: 837d e2bb 4505 e1be 211b 1dbf 883c a6be
00000140: ffa5 d83d 7f0a ee3d cf33 83be 992d a7bd
00000150: cf69 183f 5644 51be 68e9 cdbd 827d 06be
00000160: 0801 5dbe 1944 6dbf 2048 91be 6c7e c1bd
00000170: c993 253c 1955 513e 22a1 60bd 18c7 ebbe
00000180: 31cd cabd b57d bb3e 838b 653e 562f 713e
00000190: 16fd 303c 7a7a 983e 43c7 40bf 0379 7e3e
000001a0: 0af0 df3d c462 1f3e 5083 ef3d dc3b 58be
000001b0: 3a49 53be 517e f03e 06e3 84bb 6d31 38be
000001c0: 5f70 563b 38d2 123e 8c90 113e a021 dbbe
000001d0: 1270 133f 3b49 16be a807 22bf 0086 2abe
000001e0: bf2c 9b3e faaa a73e 9d39 15bf 2bf4 cc3e
000001f0: a333 083e 1bbc 093e e96b 97be 464f 74be
00000200: f48f 07bf b324 543e 0e1c 203d 6d59 c6bc
00000210: f2c6 0abf fead 5abc a826 29bf b2c1 81bd
00000220: 9879 a2bd 7ef4 b53d 64cd d53e 8289 c73e
00000230: eeb2 82be cffd e0be a765 cdbe 0e69 113f
00000240: 8bca e9be f3b9 b4be 27a5 5c3d ebbf 083e
00000250: 73b0 56be 0b87 173f 42f2 4c3e 5471 163f
00000260: ff77 8dbe 9cb8 5dbe 2dc0 f8bd cc79 9abd
00000270: db29 a5bd 4ff3 ddbe b5d8 503e 8ec4 0f3e
00000280: 2701 c83e 6d39 b8be 83fb 043f ace7 0c3e
00000290: a3e6 b5bc 838a ce3e 5624 d03d 1611 d83e
000002a0: 6d29 4dbf 253b b93e 2638 183f f6df 823d
000002b0: b1ed dfbd ae53 293d 4834 b33d 9ec1 53be
000002c0: 93b7 3bbe 9256 4e3f fda3 da3b 7782 5abe
000002d0: 2ddf af3c bf50 8a3d ed7b 013e 63ca 0c3f
000002e0: 647e ccbe e9ad 5cbe d19e b3bd d40c 8cbe
000002f0: fd2c debd 0df3 4abe 6db2 be3e 0ac4 ff3c
00000300: cfe4 2f3e b148 9fbd 382d bcbe 2976 9f3e
00000310: 6e89 7d3e 3530 443d bc8f 2ebe 5278 63be
00000320: 519e 1e3d 42e2 173f b57a 7abe b5d1 53be
00000330: 8681 523e 75d5 58be 3316 2abf e786 a13d
00000340: e238 03bf 5bd8 9e3e f8e7 963d f614 9bbe
00000350: 0486 39be 338e 19be 3645 2abe 10c8 b83c
00000360: 4eb2 7fbd cd09 763d 8233 2c3f cf8a e33e
00000370: 152d debe da92 c73d 969c 66be 299e 6e3e
00000380: 5283 123e 88b6 563e 718b e83d e88b 053f
00000390: 0e3c bebe effc dfbd 07b6 a4be 6a62 5f3e
000003a0: 590d ba3e 8319 dbbd d9e8 b2be c071 65be
000003b0: b59b 31be d7e9 b23e 96a7 c3be 2ce1 a8be
000003c0: 7add 96be 9d71 ffbe 0455 edbe cda0 dc3e
000003d0: b6cf a93d d730 02bf 3759 0bbe 3bee 79be
000003e0: 3bec 6b3e 1c3c 12bf 011e 65be d6e6 943e
000003f0: 7c14 ef3d 0ab5 5d3f 0d96 d4be b012 043e

network_body._body_endoder.seq_layers.0.bias f4 [128]
0.0 0.0 0.0 0.0 0.0 0.0 0.0 0.0
0.0 0.0 0.0 0.0 0.0 0.0 0.0 0.0
0.0 0.0 0.0 0.0 0.0 0.0 0.0 0.0
0.0 0.0 0.0 0.0 0.0 0.0 0.0 0.0
0.0 0.0 0.0 0.0 0.0 0.0 0.0 0.0
0.0 0.0 0.0 0.0 0.0 0.0 0.0 0.0
0.0 0.0 0.0 0.0 0.0 0.0 0.0 0.0
0.0 0.0 0.0 0.0 0.0 0.0 0.0 0.0
0.0 0.0 0.0 0.0 0.0 0.0 0.0 0.0
0.0 0.0 0.0 0.0 0.0 0.0 0.0 0.0
0.0 0.0 0.0 0.0 0.0 0.0 0.0 0.0
0.0 0.0 0.0 0.0 0.0 0.0 0.0 0.0
0.0 0.0 0.0 0.0 0.0 0.0 0.0 0.0
0.0 0.0 0.0 0.0 0.0 0.0 0.0 0.0
0.0 0.0 0.0 0.0 0.0 0.0 0.0 0.0
0.0 0.0 0.0 0.0 0.0 0.0 0.0 0.0
00000000: 0000 0000 0000 0000 0000 0000 0000 0000
00000010: 0000 0000 0000 0000 0000 0000 0000 0000
00000020: 0000 0000 0000 0000 0000 0000 0000 0000
00000030: 0000 0000 0000 0000 0000 0000 0000 0000
00000040: 0000 0000 0000 0000 0000 0000 0000 0000
00000050: 0000 0000 0000 0000 0000 0000 0000 0000
00000060: 0000 0000 0000 0000 0000 0000 0000 0000
00000070: 0000 0000 0000 0000 0000 0000 0000 0000
00000080: 0000 0000 0000 0000 0000 0000 0000 0000
00000090: 0000 0000 0000 0000 0000 0000 0000 0000
000000a0: 0000 0000 0000 0000 0000 0000 0000 0000
000000b0: 0000 0000 0000 0000 0000 0000 0000 0000
000000c0: 0000 0000 0000 0000 0000 0000 0000 0000
000000d0: 0000 0000 0000 0000 0000 0000 0000 0000
000000e0: 0000 0000 0000 0000 0000 0000 0000 0000
000000f0: 0000 0000 0000 0000 0000 0000 0000 0000
00000100: 0000 0000 0000 0000 0000 0000 0000 0000
00000110: 0000 0000 0000 0000 0000 0000 0000 0000
00000120: 0000 0000 0000 0000 0000 0000 0000 0000
00000130: 0000 0000 0000 0000 0000 0000 0000 0000
00000140: 0000 0000 0000 0000 0000 0000 0000 0000
00000150: 0000 0000 0000 0000 0000 0000 0000 0000
00000160: 0000 0000 0000 0000 0000 0000 0000 0000
00000170: 0000 0000 0000 0000 0000 0000 0000 0000
00000180: 0000 0000 0000 0000 0000 0000 0000 0000
00000190: 0000 0000 0000 0000 0000 0000 0000 0000
000001a0: 0000 0000 0000 0000 0000 0000 0000 0000
000001b0: 0000 0000 0000 0000 0000 0000 0000 0000
000001c0: 0000 0000 0000 0000 0000 0000 0000 0000
000001d0: 0000 0000 0000 0000 0000 0000 0000 0000
000001e0: 0000 0000 0000 0000 0000 0000 0000 0000
000001f0: 0000 0000 0000 0000 0000 0000 0000 0000

network_body._body_endoder.seq_layers.2.weight f4 [128, 128]
-0.020894611 0.025063735 -0.13611418 0.01663509 0.14594674 -0.030186407 0.060687732 -0.023811156
0.18702118 -0.05249174 0.052109927 0.09907899 -0.16151027 0.059901796 0.043282047 -0.09044484
-0.15320113 0.04965431 -0.1608986 0.017596016 0.033259533 -0.12358256 -0.13488594 -0.19339027
-0.019649815 0.014626168 0.090060554 0.10284693 0.025255408 0.1439385 0.0134163415 -0.026619317
-0.009048012 -0.058822505 -0.040044747 -0.022790004 0.00034459578 0.0090461755 -0.09416493 -0.19167341
-0.08715962 0.038725555 -0.0578543 -0.08468923 -0.06770606 0.10842518 -0.03411164 0.077314205
-0.03786792 0.018020863 0.124789305 -0.018808931 0.0060626455 0.012828787 0.052211035 0.10660196
0.050905347 -0.0046726763 -0.09470938 0.101701975 0.042169627 0.11163876 -0.00062762416 0.007729993
0.019310804 0.07566832 -0.0069479663 0.0049962555 -0.083993 -0.03974259 -0.114448145 -0.013880026
-0.09149299 0.13327125 0.013762662 -0.028129397 -0.059387796 0.0922491 0.023587858 -0.044260193
0.081428304 0.009827705 -0.006864882 0.0665067 -0.06795474 0.058077987 -0.035116278 0.017304333
0.19610816 0.07105516 -0.091725744 0.012077786 0.07494431 0.18827038 -0.036530737 -0.121124014
0.009124212 0.15046749 -0.02190259 -0.08594979 -0.041477907 0.018624958 -0.0539649 0.058949295
-0.19430608 0.08448466 -0.046170164 -0.16261585 0.052190594 0.019320253 -0.039169203 -0.0077813254
-0.08436637 -0.011738097 0.020650089 -0.005871739 -0.032926682 0.15947415 -0.1256534 -0.060513113
-0.06721744 -0.054774635 0.021228429 -0.08880181 -0.016037561 0.006736689 -0.02475893 -0.05476245
-0.013080542 0.10925817 0.043069407 -0.084910944 0.09815059 0.059160523 -0.05544647 -0.17789371
0.020889925 -0.1269068 -0.12985353 0.02518914 -0.048773993 -0.092233814 0.08977344 0.023431946
0.009139953 0.041295785 -0.103689075 -0.14806075 0.08230722 0.06268181 0.047360506 -0.109001726
-0.049995 -0.08766943 -0.07712847 0.17830709 -0.074346915 0.0804479 0.19793963 -0.012561163
-0.03365806 0.04817244 0.0805476 -0.1559934 -0.19348432 -0.017997684 -0.033808917 -0.019872764
-0.13574143 -0.050778184 0.086971514 0.062432285 -0.038972177 0.10324393 0.07705185 -0.08872884
0.07988934 -0.23461585 -0.023312151 -0.15112823 -0.020624647 -0.048822198 0.003415161 0.14941351
-0.058981676 0.091464795 0.030006325 0.029296285 0.020143097 0.1433518 0.03652295 -0.028127009
0.025326718 -0.14127477 -0.03276756 -0.06277344 0.061252363 0.14474776 -0.020481125 -0.053570956
0.18993941 0.07652507 -0.0974146 -0.011908825 -0.078033075 0.05423805 0.027831344 0.042004503
-0.1832201 0.03878541 0.039435644 0.040469065 -0.084242746 0.0001683429 0.011747288 -0.009299631
0.062445898 0.09262665 -0.00058823277 0.13260353 0.089243494 0.013827774 -0.17016286 0.08206418
0.026204668 0.0988968 0.06883379 -0.009059998 -0.012716439 -0.1463203 0.11232547 0.11166875
0.040496513 0.01977217 -0.01506616 -0.041037057 0.120682344 0.018518537 0.061746724 0.06558394
-0.14768262 -0.027731266 -0.1436679 -0.037410296 0.037286256 0.017718298 0.011721591 -0.107603945
-0.010258115 -0.039831657 -0.021260764 -0.094594225 0.0022067481 0.1004078 -0.20242274 0.09687505
00000000: 2d2b abbc 7652 cd3c 8461 0bbe 5046 883c
00000010: 1073 153e 7c49 f7bc b393 783d 9d0f c3bc
00000020: 7b82 3f3e 9401 57bd 3871 553d ede9 ca3d
00000030: f362 25be 965b 753d 8448 313d 253b b9bd
00000040: c2e0 1cbe 5162 4b3d 9ac2 24be 8525 903c
00000050: 263b 083d da18 fdbd 8a1f 0abe 1908 46be
00000060: a6f8 a0bc 98a2 6f3c ab71 b83d 69a1 d23d
00000070: 6ee4 ce3c 9d64 133e 37d0 5b3c c110 dabc
00000080: 1d3e 14bc deef 70bd f605 24bd 1ab2 babc
00000090: ddaa b439 6936 143c 8bd9 c0bd 0946 44be
000000a0: be80 b2bd b09e 1e3d a1f8 6cbd 8c71 adbd
000000b0: 7aa9 8abd 050e de3d a6b8 0bbd e956 9e3d
000000c0: 641b 1bbd 7da0 933c 8991 ff3d 3015 9abc
000000d0: 28a9 c63b d52f 523c 3ddb 553d 2152 da3d
000000e0: 2082 503d 401d 99bb fef6 c1bd 2049 d03d
000000f0: 0fba 2c3d dda2 e43d 2587 24ba e24b fd3b
00000100: b131 9e3c fef7 9a3d c4ab e3bb a1b7 a33b
00000110: 8604 acbd 20c9 22bd ca63 eabd 0c69 63bc
00000120: ad60 bbbd 4278 083e ca7c 613c 9f6f e6bc
00000130: 9e40 73bd 19ed bc3d 533b c13c 2d4a 35bd
00000140: e2c3 a63d 6204 213c cef2 e0bb aa34 883d
00000150: db2b 8bbd 2fe3 6d3d 16d6 0fbd d1c1 8d3c
00000160: 94d0 483e 5e85 913d b5da bbbd e8e1 453c
00000170: 677c 993d f3c9 403e 41a1 15bd de0f f8bd
00000180: b87d 153c 2614 1a3e 0f6d b3bc 7206 b0bd
00000190: bde4 29bd 5e93 983c 4d0a 5dbd d174 713d
000001a0: 2cf8 46be 4b06 ad3d ed1c 3dbd c584 26be
000001b0: cec5 553d 8245 9e3c e36f 20bd 7dfa febb
000001c0: 47c8 acbd 2651 40bc 602a a93c b767 c0bb
000001d0: 21de 06bd 314d 233e 49ab 00be 99dc 77bd
000001e0: 4ca9 89bd 5e5b 60bd 3ee7 ad3c b9dd b5bd
000001f0: 3461 83bc 71bf dc3b 3dd3 cabc 974e 60bd
00000200: c54f 56bc bfc2 df3d 8c69 303d cae5 adbd
00000210: 2d03 c93d 4e52 723d d61b 63bd c529 36be
00000220: 5921 ab3c dbf3 01be 53f8 04be 7559 ce3c
00000230: 3dc7 47bd 15e5 bcbd 23db b73d 5af4 bf3c
00000240: bebf 153c c525 293d f05a d4bd 3d9d 17be
00000250: b090 a83d 525f 803d 17fd 413d 4c3c dfbd
00000260: 8fc7 4cbd 088c b3bd 88f5 9dbd 2296 363e
00000270: 3243 98bd dec1 a43d b0b0 4a3e 56cd 4dbc
00000280: 09dd 09bd 7750 453d 24f6 a43d bcbc 1fbe
00000290: c120 46be e16f 93bc 387b 0abd 35cc a2bc
000002a0: cdff 0abe c9fc 4fbd 1f1e b23d ffb8 7f3d
000002b0: 4aa1 1fbd 8e71 d33d 5ccd 9d3d 77b7 b5bd
000002c0: 069d a33d 233f 70be 20f9 bebc 5cc1 1abe
000002d0: 05f5 a8bc c9f9 47bd e5d0 5f3b dbff 183e
000002e0: c596 71bd e551 bb3d d3cf f53c c3fe ef3c
000002f0: 2303 a53c d0ca 123e 1799 153d 9d6a e6bc
00000300: fa79 cf3c 55aa 10be 4737 06bd 5c8f 80bd
00000310: c2e3 7a3d c238 143e 08c8 a7bc 386d 5bbd
00000320: 7a7f 423e 2db9 9c3d 4e81 c7bd 3b1d 43bc
00000330: cecf 9fbd b828 5e3d 8ffe e33c ea0c 2c3d
00000340: 0d9e 3bbe 73dd 1e3d 4587 213d e4c2 253d
00000350: 7687 acbd 3485 3039 b277 403c 7b5d 18bc
00000360: 45c7 7f3d 0bb3 bd3d a233 1aba 38c9 073e
00000370: 4bc5 b63d e38d 623c 2c3f 2ebe 4411 a83d
00000380: 2cab d63c 688a ca3d bbf8 8c3d 6370 14bc
00000390: 9c58 50bc fdd4 15be e50a e63d 96b2 e43d
000003a0: acdf 253d 3ff9 a13c 0ed8 76bc 7916 28bd
000003b0: 4e28 f73d 30b4 973c 22ea 7c3d df50 863d
000003c0: 1d3a 17be ae2c e3bc ae1d 13be 8a3b 19bd
000003d0: 79b9 183d f725 913c eb0b 403c 755f dcbd
000003e0: a711 28bc 8526 23bd 0e2b aebc 9eba c1bd
000003f0: 179f 103b 9ba2 cd3d e847 4fbe 6d66 c63d

network_body._body_endoder.seq_layers.2.bias f4 [128]
0.0 0.0 0.0 0.0 0.0 0.0 0.0 0.0
0.0 0.0 0.0 0.0 0.0 0.0 0.0 0.0
0.0 0.0 0.0 0.0 0.0 0.0 0.0 0.0
0.0 0.0 0.0 0.0 0.0 0.0 0.0 0.0
0.0 0.0 0.0 0.0 0.0 0.0 0.0 0.0
0.0 0.0 0.0 0.0 0.0 0.0 0.0 0.0
0.0 0.0 0.0 0.0 0.0 0.0 0.0 0.0
0.0 0.0 0.0 0.0 0.0 0.0 0.0 0.0
0.0 0.0 0.0 0.0 0.0 0.0 0.0 0.0
0.0 0.0 0.0 0.0 0.0 0.0 0.0 0.0
0.0 0.0 0.0 0.0 0.0 0.0 0.0 0.0
0.0 0.0 0.0 0.0 0.0 0.0 0.0 0.0
0.0 0.0 0.0 0.0 0.0 0.0 0.0 0.0
0.0 0.0 0.0 0.0 0.0 0.0 0.0 0.0
0.0 0.0 0.0 0.0 0.0 0.0 0.0 0.0
0.0 0.0 0.0 0.0 0.0 0.0 0.0 0.0
00000000: 0000 0000 0000 0000 0000 0000 0000 0000
00000010: 0000 0000 0000 0000 0000 0000 0000 0000
00000020: 0000 0000 0000 0000 0000 0000 0000 0000
00000030: 0000 0000 0000 0000 0000 0000 0000 0000
00000040: 0000 0000 0000 0000 0000 0000 0000 0000
00000050: 0000 0000 0000 0000 0000 0000 0000 0000
00000060: 0000 0000 0000 0000 0000 0000 0000 0000
00000070: 0000 0000 0000 0000 0000 0000 0000 0000
00000080: 0000 0000 0000 0000 0000 0000 0000 0000
00000090: 0000 0000 0000 0000 0000 0000 0000 0000
000000a0: 0000 0000 0000 0000 0000 0000 0000 0000
000000b0: 0000 0000 0000 0000 0000 0000 0000 0000
000000c0: 0000 0000 0000 0000 0000 0000 0000 0000
000000d0: 0000 0000 0000 0000 0000 0000 0000 0000
000000e0: 0000 0000 0000 0000 0000 0000 0000 0000
000000f0: 0000 0000 0000 0000 0000 0000 0000 0000
00000100: 0000 0000 0000 0000 0000 0000 0000 0000
00000110: 0000 0000 0000 0000 0000 0000 0000 0000
00000120: 0000 0000 0000 0000 0000 0000 0000 0000
00000130: 0000 0000 0000 0000 0000 0000 0000 0000
00000140: 0000 0000 0000 0000 0000 0000 0000 0000
00000150: 0000 0000 0000 0000 0000 0000 0000 0000
00000160: 0000 0000 0000 0000 0000 0000 0000 0000
00000170: 0000 0000 0000 0000 0000 0000 0000 0000
00000180: 0000 0000 0000 0000 0000 0000 0000 0000
00000190: 0000 0000 0000 0000 0000 0000 0000 0000
000001a0: 0000 0000 0000 0000 0000 0000 0000 0000
000001b0: 0000 0000 0000 0000 0000 0000 0000 0000
000001c0: 0000 0000 0000 0000 0000 0000 0000 0000
000001d0: 0000 0000 0000 0000 0000 0000 0000 0000
000001e0: 0000 0000 0000 0000 0000 0000 0000 0000
000001f0: 0000 0000 0000 0000 0000 0000 0000 0000

action_model._continuous_distribution.log_sigma f4 [1, 3]
0.0 0.0 0.0
00000000: 0000 0000 0000 0000 0000 0000

action_model._continuous_distribution.mu.weight f4 [3, 128]
-0.014177478 -0.037539303 0.015756924 0.023729987 0.0021978973 -0.003741429 0.006140254 -0.0049767424
0.0033643793 -0.012364118 -0.0146041615 -0.006341804 -0.02811434 -0.015834471 -0.011742103 0.051769134
0.011761834 0.005344402 -0.009424011 0.0028206862 0.0019343805 0.0075615267 0.0038882082 0.0061958204
0.010355716 0.0037167636 -0.0013332518 0.00782481 0.0019599663 -0.00015465425 0.009917677 0.023514643
-0.024407059 -0.017853033 -0.00014286173 0.037068367 -0.012170533 -0.014387855 -0.012190512 0.011210029
0.002231799 -0.008875555 0.04187313 -0.012929765 -0.001419946 -0.001600389 -0.005753679 -0.018607369
0.009009789 -0.0062869946 -0.006067719 0.040089168 0.01269705 0.00027660737 0.009602205 -0.030215044
0.036817227 0.022878071 0.009630963 0.0053048665 -0.026921272 0.013729356 0.005855992 -0.007231027
0.0050933515 -0.0021491803 -0.05445818 0.015866404 -0.006947614 0.009307268 0.00013454967 0.011461681
0.010795132 -0.005794372 0.0017045997 -0.022490459 0.047404483 -0.018051704 -0.009260415 -0.011106728
-0.0039388514 0.011834274 -0.039186794 -0.004423946 0.023460558 -0.002212157 -0.0070429915 0.0076406263
0.025447983 0.032418825 0.017816111 0.0048192902 0.008783741 0.017276628 0.008358585 -0.0022685395
-0.022551084 0.008690602 0.027374733 0.0026738883 0.0040497473 0.004915938 0.03243892 0.010951436
-0.01309859 0.011750835 -0.014906483 0.02106749 0.052179117 0.0057208054 -0.03294299 0.017963901
0.008902099 0.00658373 -4.3309952e-05 0.0014023217 0.022451097 -0.011777646 0.008828855 -0.011761072
0.0039895177 0.016571654 0.0012756658 0.025280481 -0.018756764 0.01686324 0.02716197 0.0070309187
0.01346486 -0.013833691 -0.026132802 -0.004813395 0.003722806 0.035023775 -0.014127693 -0.018061139
-0.008328735 0.038592536 -0.0019727745 -0.0012920012 0.0047814655 0.038962957 0.0128859505 0.016437912
-0.0016295167 -0.005468866 -0.008064633 -0.0010059827 0.03170478 0.003361122 0.016396945 0.007425297
0.0040401784 0.010343683 -0.025514022 -0.001756171 0.016760033 0.028138006 -0.024164312 0.009862041
-0.021124246 -0.0024598353 0.01989313 0.014121122 0.019548416 0.01185359 -0.0053609735 0.018367356
0.0033813983 -0.023314094 0.016369903 0.00016681897 -0.005914838 0.009962594 0.0176189 -0.0020192268
0.01761697 -0.013025507 -0.0008134815 -0.0015443922 -0.002917704 -0.0030307455 -0.0035104894 -0.009282078
0.05195266 -0.0041121026 -0.02910677 -0.007268729 -0.005231213 -0.0018027377 0.012415715 0.030229343
0.0103037385 -0.0046925386 0.01873443 0.004799197 -0.012860897 -0.017176142 0.014263629 -0.0005341381
0.0032073117 -0.0072469534 0.00950903 0.006679535 0.018103424 0.023355944 0.017235374 -0.011673541
0.0036049986 -0.02591121 0.009862696 -0.0016851692 0.0034749382 -0.0063957046 0.0060080835 0.0055062366
-0.0439928 -0.04070999 0.009356006 0.019934995 -0.01705286 0.0027048455 -0.017084932 -0.015552309
-0.019870592 0.026250988 -0.047192935 0.0012924949 0.026159931 -0.04114374 -0.0008041869 0.014072823
0.012055028 -0.0113895815 0.037577637 -0.02806328 -0.016116792 -0.012213248 0.022777094 -0.024637869
-0.0023560699 0.015881648 0.0043228446 0.020368308 -0.0033297152 0.014412509 -0.018031545 -0.006436062
-0.0021246967 -0.014062447 -0.002087125 -0.009310692 -0.0048407405 -0.01593637 -0.021745322 0.02907121
00000000: a748 68bc d0c2 19bd aa14 813c 6465 c23c
00000010: 990a 103b c332 75bb 2f34 c93b f113 a3bb
00000020: eb7c 5c3b df92 4abc 4b46 6fbc e8ce cfbb
00000030: 0b50 e6bc 4bb7 81bc f361 40bc df0b 543d
00000040: b5b4 403c 1820 af3b 2b67 1abc 43db 383b
00000050: 0a8b fd3a afc6 f73b 4fd1 7e3b 4f06 cb3b
00000060: 05ab 293c f294 733b 82c0 aeba a233 003c
00000070: c772 003b af2a 22b9 c17d 223c c8a1 c03c
00000080: 50f1 c7bc 8640 92bc 27cd 15b9 00d5 173d
00000090: ea66 47bc 0abb 6bbc b7ba 47bc 45aa 373c
000000a0: 6043 123b c76a 11bc 2983 2b3d 5dd7 53bc
000000b0: 7b1d baba 25c4 d1ba 5c89 bcbb 7b6e 98bc
000000c0: cb9d 133c 2203 cebb b7d3 c6bb 8a34 243d
000000d0: 4a07 503c 9d05 9139 9152 1d3c 8a85 f7bc
000000e0: a9cd 163d cb6a bb3c 30cb 1d3c 72d4 ad3b
000000f0: 008a dcbc 18f1 603c 9fe3 bf3b 40f2 ecbb
00000100: 21e6 a63b 43d9 0cbb 8a0f 5fbd 43fa 813c
00000110: cfa8 e3bb 837d 183c e715 0d39 c6c9 3b3c
00000120: 11de 303c b7de bdbb e06c df3a e93d b8bc
00000130: 342b 423d 2be1 93bc ffb8 17bc fef8 35bc
00000140: 7b11 81bb 8be4 413c 5582 20bd c0f6 90bb
00000150: 5b30 c03c d6f9 10bb e5c8 e6bb 385e fa3b
00000160: 4a78 d03c 9ac9 043d 18f3 913c 23eb 9d3b
00000170: aee9 0f3c b787 8d3c 72f2 083c c7ab 14bb
00000180: 0dbd b8bc 0763 0e3c fa40 e03c 673c 2f3b
00000190: beb3 843b e015 a13b acde 043d a76d 333c
000001a0: 789b 56bc 9386 403c 523a 74bc bb95 ac3c
000001b0: c5b9 553d 9875 bb3b 3bef 06bd 0829 933c
000001c0: 1cda 113c 55bc d73b b5a7 35b8 1cce b73a
000001d0: 5deb b73c 07f7 40bc e7a6 103c 83b1 40bc
000001e0: 80ba 823b 47c1 873c 3e34 a73a 0319 cf3c
000001f0: c9a7 99bc c724 8a3c c882 de3c 9f63 e63b
00000200: b79b 5c3c b5a6 62bc 7514 d6bc afb9 9dbb
00000210: 52fa 733b 1775 0f3d d777 67bc f4f4 93bc
00000220: 3f75 08bc 3513 1e3d aa49 01bb 5e58 a9ba
00000230: d7ad 9c3b 9f97 1f3d 981f 533c cda8 863c
00000240: 8295 d5ba 2c34 b3bb 8621 04bc 2edb 83ba
00000250: dfdc 013d 4546 5c3b e352 863c e84f f33b
00000260: 7963 843b 8d78 293c c802 d1bc 522f e6ba
00000270: 564c 893c ad81 e63c 3cf4 c5bc 6694 213c
00000280: c10c adbc 3035 21bb ebf6 a23c 475c 673c
00000290: 0024 a03c 8f35 423c 1bab afbb 2377 963c
000002a0: 739a 5d3b 33fd bebc 2d1a 863c 20ec 2e39
000002b0: 42d1 c1bb 263a 233c 8355 903c 0155 04bb
000002c0: 7751 903c f068 55bc d23f 55ba 346d caba
000002d0: f336 3fbb 799f 46bb 3d10 66bb db13 18bc
000002e0: 50cc 543d d1be 86bb 5271 eebc 852e eebb
000002f0: 986a abbb d749 ecba 486b 4b3c 87a3 f73c
00000300: 03d1 283c dec3 99bb f378 993c 9542 9d3b
00000310: 83b6 52bc fbb4 8cbc ffb1 693c 6705 0cba
00000320: c331 523b da77 edbb c3cb 1b3c 00e0 da3b
00000330: a24d 943c f754 bf3c 3331 8d3c 6142 3fbc
00000340: d741 6c3b bf43 d4bc 2597 213c e5e0 dcba
00000350: cabb 633b 0f93 d1bb 75df c43b a96d b43b
00000360: cb31 34bd 85bf 26bd ef49 193c b74e a33c
00000370: 71b2 8bbc c743 313b b3f5 8bbc 1dcf 7ebc
00000380: a7c7 a2bc 500c d73c 614d 41bd ef68 a93a
00000390: 5a4d d63c 5786 28bd 12d0 52ba b391 663c
000003a0: 7482 453c 5e9b 3abc 02eb 193d f7e4 e5bc
000003b0: 5d07 84bc 131a 48bc 0797 ba3c 5bd5 c9bc
000003c0: 4b68 1abb 3b1a 823c a6a6 8d3b 70db a63c
000003d0: 5a37 5abb 7222 6c3c e4b6 93bc 9ae5 d2bb
000003e0: 7f3e 0bbb 2d66 66bc 26c8 08bb df8b 18bc
000003f0: 139f 9ebb fd8c 82bc 3f23 b2bc bf26 ee3c

action_model._continuous_distribution.mu.bias f4 [3]
0.0 0.0 0.0
00000000: 0000 0000 0000 0000 0000 0000

action_model._discrete_distribution.branches.0.weight f4 [1, 128]
-0.007904593 0.027620941 0.0066986415 -0.0033281595 0.00041795257 0.0009260871 -0.0053199856 0.01233352
0.0018967007 -0.0016643646 0.009643925 -0.00872298 0.011061408 -0.0059296843 -0.006184067 -0.00806844
0.0034997482 0.01397944 0.0061086267 -0.0020371643 9.548052e-05 0.006140997 0.0042600324 0.0211175
-0.008338586 -0.014611094 0.0100230845 0.011278662 -0.0035510014 0.009136978 0.0011320652 -0.0075685317
0.006542315 -0.013086257 0.006348292 0.008793575 -0.00017832078 -0.014219224 -0.005974976 -0.00059065205
-0.001354362 0.006537646 -0.0059735496 0.0055273683 0.009325466 0.0013251648 0.0038427175 0.0013147168
0.0062952302 0.005029564 0.01052645 0.0035060265 0.0034984832 -0.008790356 0.0033301362 0.007991098
0.0029102575 0.00037192533 0.0013288205 -0.005220835 0.0055132126 0.005705433 0.0074241706 -0.0018404688
0.012438156 -0.008462095 -0.0046409518 0.0076383944 0.013361931 0.004981181 -0.014518161 0.004104605
0.0031125299 0.014145109 0.005342034 3.793275e-05 -0.00039187787 0.004227918 -0.005528084 -0.007839477
0.00619027 -0.01771346 0.008617683 -0.009647055 0.0053176247 -0.0142470915 0.005961818 -0.0056717214
-0.0025148436 -0.0009027335 0.0008491717 0.0034725112 -0.009248042 -0.00022779962 0.011038705 0.0017187021
0.00025585384 -0.016130362 -0.0022623525 0.0035354395 0.0010667745 0.0053987233 -0.0023877101 -0.0018784842
0.018400898 -0.006556549 -0.0004452751 0.009298886 -0.0012698419 0.0048534903 0.01615568 0.0028633997
0.0030065617 -0.001616748 -0.0076290616 -0.0054849004 -0.0033146979 0.018662501 -0.0029434462 -0.014125414
-0.020096498 -0.0068048066 -0.004739221 -0.00648159 -0.00061838364 -0.002032935 -0.0014573324 0.001683852
00000000: 4482 01bc 5045 e23c 4780 db3b 401d 5abb
00000010: a520 db39 a7c4 723a 4653 aebb 8812 4a3c
00000020: b79a f83a cf26 daba 8e01 1e3c d4ea 0ebc
00000030: e83a 353c cc4d c2bb b7a3 cabb 7d31 04bc
00000040: 085c 653b 050a 653c e02a c83b f281 05bb
00000050: b73c c838 6b3a c93b be97 8b3b 9bfe ac3c
00000060: 919e 08bc 5f63 6fbc dd37 243c 23ca 383c
00000070: ebb7 68bb 43b3 153c ce61 943a 7201 f8bb
00000080: ea60 d63b bd67 56bc 5505 d03b ed12 103c
00000090: 9ffb 3ab9 c0f7 68bc bbc9 c3bb fdd5 1aba
000000a0: d984 b1ba c039 d63b c4bd c3bb ed1e b53b
000000b0: d7c9 183c 27b1 ad3a 1ad6 7b3b 9352 ac3a
000000c0: 3848 ce3b 0acf a43b 2277 2c3c 5dc5 653b
000000d0: cf46 653b 6d05 10bc 6a3e 5a3b 18ed 023c
000000e0: 05ba 3e3b f9fe c239 d12b ae3a 8a13 abbb
000000f0: 2ea8 b43b a4f4 ba3b 7546 f33b e33b f1ba
00000100: 68c9 4b3c 99a4 0abc 2013 98bb 7f4b fa3b
00000110: 00ec 5a3c 2d39 a33b 95dd 6dbc ec7f 863b
00000120: 96fb 4b3b e3c0 673c 3b0c af3b fb19 1f38
00000130: f574 cdb9 598a 8a3b ee24 b5bb 2671 00bc
00000140: c0d7 ca3b d11b 91bc 2f31 0d3c ae0e 1ebc
00000150: 783f ae3b a26c 69bc 5b5b c33b d9d9 b9bb
00000160: 13d0 24bb 6ba5 6cba f39a 5e3a 1293 633b
00000170: 1985 17bc 7fdd 6eb9 afdb 343c 1346 e13a
00000180: 1f24 8639 d223 84bc fa43 14bb d5b2 673b
00000190: 03d3 8b3a c6e7 b03b 217b 1cbb 7837 f6ba
000001a0: 7bbd 963c 52d8 d6bb d073 e9b9 5b5a 183c
000001b0: d370 a6ba 070a 9f3b eb58 843c e0a7 3b3b
000001c0: bc09 453b 10e9 d3ba 35fd f9bb aeba b3bb
000001d0: 673b 59bb 1ae2 983c d5e6 40bb 486e 67bc
000001e0: 69a1 a4bc dbfa debb 784b 9bbb 8563 d4bb
000001f0: 061b 22ba fd3a 05bb f603 bfba b3b4 dc3a

network_body.observation_encoder.processors.0.normalizer.running_mean f4 [8]
-0.0010225435 1.0715131e-05 -0.006743716 12.067859 0.0 -0.09217981 0.0 0.9939245
00000000: de06 86ba 23c5 3337 64fa dcbb f315 4141
00000010: 0000 0000 c5c8 bcbd 0000 0000 d671 7e3f

network_body.observation_encoder.processors.0.normalizer.running_variance f4 [8]
18.92376 1.003097 2037.8312 310105.9 1.0 30.367779 1.0 2.3472197
00000000: dc63 9741 7c65 803f 99ba fe44 3d6b 9748
00000010: 0000 803f 36f1 f241 0000 803f d938 1640

network_body.processors.0.normalizer.running_mean f4 [8]
-0.0010225435 1.0715131e-05 -0.006743716 12.067859 0.0 -0.09217981 0.0 0.9939245
00000000: de06 86ba 23c5 3337 64fa dcbb f315 4141
00000010: 0000 0000 c5c8 bcbd 0000 0000 d671 7e3f

network_body.processors.0.normalizer.running_variance f4 [8]
18.92376 1.003097 2037.8312 310105.9 1.0 30.367779 1.0 2.3472197
00000000: dc63 9741 7c65 803f 99ba fe44 3d6b 9748
00000010: 0000 803f 36f1 f241 0000 803f d938 1640

network_body._body_endoder.seq_layers.0.weight f4 [128, 8]
-0.0071715964 0.39751136 0.45411167 -0.5561886 -0.5551871 -0.30961746 0.41327634 0.14271133
0.047482476 0.12740402 0.16292088 -0.18270367 0.47736004 -0.059370637 0.20052218 0.27550772
0.33800083 -0.33232275 -0.035729956 0.24683268 0.18645592 -0.08430751 -0.40251803 -0.21299006
-0.49864835 0.017367449 -0.3741261 0.08195907 -0.045735266 0.10361872 -0.29681227 -0.6118603
0.34962952 -0.581989 0.0021630947 0.072234906 0.55400383 0.81321114 -0.3388653 -0.18160526
0.31114483 -1.0050814 -0.23325187 0.5280743 -0.5195876 0.44867772 0.4568028 -0.10614337
-0.014391082 0.0940702 0.27139235 0.18485574 -0.38732907 -0.07930738 -0.2385306 -0.30616108
-0.31802398 -0.30836406 -0.15254335 -0.36878866 -0.30358672 0.23195957 0.03756179 0.6317421
-0.19857562 -0.36184102 -0.44284225 0.3219866 0.30540887 -0.20158188 0.14283052 -0.054741763
0.19321744 -0.34432173 -0.40516734 0.51133364 0.10446876 0.33076665 -0.35428885 -0.06862544
0.18758541 0.39610395 0.12684022 0.13390608 -0.42606038 0.12886229 0.094342165 0.090433806
-0.2715192 -0.121020176 -0.3482525 0.22852771 -0.050152224 -0.55292964 0.13148482 0.014365925
-0.051174935 0.1923233 -0.3397873 -0.28116217 -0.21799764 -0.35156345 -0.1573931 0.40589416
0.6355933 0.04431142 -0.14155763 0.060288053 0.26990527 -0.21724062 0.23313165 -0.53024924
-0.10502128 0.29746738 0.24890257 0.756666 -0.060918607 0.22200382 -0.3410042 -0.04047454
-0.5447681 0.43517867 0.71994907 0.2455453 -0.23797725 -0.58840233 -0.5279494 0.61327016
0.6544604 -0.69865614 0.14709643 0.08044189 0.48617128 -0.45731318 -0.4602676 0.5615574
-0.36355206 -0.301643 0.29577795 -0.22277355 -0.40573528 -0.083955586 -0.35180455 -0.6352716
0.45283383 0.23987675 0.33481094 -0.0001740545 0.13673164 -0.066597916 -0.06978223 0.042448472
-0.5137947 0.3843143 0.16710663 0.14932263 0.23052514 0.15134189 -0.08076631 0.31184703
0.28236133 -0.046222974 -0.39214832 0.08483425 -0.29621452 -0.13574496 -0.7106724 0.28047508
0.15054782 0.31580263 0.23004194 -0.20287022 0.12651965 -0.11753488 -0.1833643 0.03683276
0.13474216 -0.74136645 0.19457282 0.7756401 -0.04813514 0.285953 0.30267295 -0.4744488
-0.268765 -0.083109684 -0.058944423 0.45179427 -0.22594371 -0.14856069 -0.10300683 -0.61697847
0.6225492 0.12858486 -0.50829864 0.6805068 -0.058464296 0.09308161 0.16820373 0.29282278
-0.30671185 0.5324107 -0.6403296 0.047058787 0.23404986 -0.29379582 0.26450762 -0.21313895
0.15458494 0.7817667 -0.019257337 0.113393925 0.19825365 0.6106222 -0.27179655 -0.079917274
-0.2938677 -0.1220253 -0.38194865 0.1703239 0.0967511 0.35072744 0.23298636 0.6026118
-0.46295285 -0.51296467 0.7690948 0.043032404 0.19547082 0.3769554 0.082160376 -0.6156895
0.0678856 -0.3821936 0.16045871 -0.006270338 -0.2146946 -0.5128933 0.17294523 0.078434676
-0.019589262 -0.04791909 -0.15079845 -0.10889455 0.061776552 -0.26701152 0.49572212 -0.48803663
0.19280916 -0.4439844 0.15125272 -0.35727638 0.6165845 -0.17766331 -0.6499018 0.07252295
00000000: b6ff eabb 9c86 cb3e 5381 e83e 6062 0ebf
00000010: be20 0ebf 2e86 9ebe f598 d33e eb22 123e
00000020: fc7c 423d 3376 023e bbd4 263e ac16 3bbe
00000030: 8968 f43e a02e 73bd b055 4d3e 590f 8d3e
00000040: 720e ad3e 3526 aabe 9359 12bd b5c1 7c3e
00000050: 4dee 3e3e 6aa9 acbd d816 cebe 111a 5abe
00000060: d64e ffbe 2e46 8e3c 758d bfbe 28da a73d
00000070: e754 3bbd 0d36 d43d c7f7 97be e0a2 1cbf
00000080: a402 b33e 3bfd 14bf b5c2 0d3b e5ef 933d
00000090: 32d3 0d3f 9b2e 503f c17f adbe bbf6 39be
000000a0: 604e 9f3e 82a6 80bf 94d9 6ebe e12f 073f
000000b0: b103 05bf 16b9 e53e 0ee2 e93e b261 d9bd
000000c0: 93c8 6bbc e1a7 c03d f0f3 8a3e d34a 3d3e
000000d0: ff4f c6be e86b a2bd 5e41 74be 25c1 9cbe
000000e0: 0ad4 a2be e5e1 9dbe 5334 1cbe ded1 bcbe
000000f0: b86f 9bbe cf86 6d3e 64da 193d dab9 213f
00000100: 6857 4bbe 3a43 b9be 38bc e2be 6ddb a43e
00000110: 8d5e 9c3e 7b6b 4ebe 2a42 123e e638 60bd
00000120: cbda 453e f04a b0be 1872 cfbe c3e6 023f
00000130: b8f3 d53d 3f5a a93e 5965 b5be 7f8b 8cbd
00000140: 6416 403e 23ce ca3e 67e2 013e ad1e 093e
00000150: 9624 dabe 7af4 033e 7736 c13d 5c35 b93d
00000160: 9104 8bbe 6dd9 f7bd 274e b2be 2b03 6a3e
00000170: 6b6c 4dbd cc8c 0dbf f5a3 063e 0f5f 6b3c
00000180: cf9c 51bd 66f0 443e 9af8 adbe 7df4 8fbe
00000190: c63a 5fbe 2000 b4be a82b 21be 5cd1 cf3e
000001a0: 3eb6 223f e47f 353d 7cf4 10be 9bf0 763d
000001b0: 0631 8a3e 5374 5ebe 10ba 6e3e 6abe 07bf
000001c0: 6615 d7bd a54d 983e 51e0 7e3e ddb4 413f
000001d0: ca85 79bd f854 633e 1a98 aebe a2c8 25bd
000001e0: ec75 0bbf bdcf de3e 954e 383f 3a70 7b3e
000001f0: 4fb0 73be 89a1 16bf b127 07bf 46ff 1c3f
00000200: b78a 273f 21db 32bf 72a0 163e b8be a43d
00000210: 71eb f83e f424 eabe 32a8 ebbe 3ac2 0f3f
00000220: 7f23 babe f470 9abe 3570 973e c01e 64be
00000230: 89bc cfbe e8f0 abbd ba1f b4be 29a1 22bf
00000240: d6d9 e73e 40a2 753e 576c ab3e 6682 36b9
00000250: 6103 0c3e 7d64 88bd fce9 8ebd 73de 2d3d
00000260: 0d88 03bf d8c4 c43e 001e 2b3e 08e8 183e
00000270: c80e 6c3e 5ef9 1a3e cf68 a5bd 6aaa 9f3e
00000280: aa91 903e 4d54 3dbd aac7 c8be 94bd ad3d
00000290: 6ea9 97be ba00 0bbe a0ee 35bf 6e9a 8f3e
000002a0: 3529 1a3e e2b0 a13e 1d90 6b3e 36bd 4fbe
000002b0: 5e8e 013e 21b6 f0bd dac3 3bbe f3dd 163d
000002c0: d9f9 093e 31ca 3dbf 193e 473e 5990 463f
000002d0: 5a29 45bd 6e68 923e f3f7 9a3e f4ea f2be
000002e0: 919b 89be 6935 aabd b56f 71bd 9451 e73e
000002f0: ca5d 67be 4b20 18be 3ff5 d2bd 4df2 1dbf
00000300: 625f 1f3f c0ab 033e dc1f 02bf b235 2e3f
00000310: 4278 6fbd 92a1 be3d 993d 2c3e deec 953e
00000320: 5609 9dbe 114c 083f a4ec 23bf b7c0 403d
00000330: c4aa 6f3e 686c 96be 8b6d 873e 1941 5abe
00000340: 844b 1e3e dd21 483f 90c1 9dbc 133b e83d
00000350: 0103 4b3e bd51 1c3f eb28 8bbe abab a3bd
00000360: d475 96be 67e8 f9bd c68e c3be 6369 2e3e
00000370: 7125 c63d 8c92 b33e fa93 6e3e c444 1a3f
00000380: 2808 edbe a751 03bf 66e3 443f bf42 303d
00000390: 8129 483e 4c00 c13e b343 a83d d49d 1dbf
000003a0: 9b07 8b3d e1ae c3be 4a4f 243e 6877 cdbb
000003b0: e7d8 5bbe fa4c 03bf 8e18 313e 5ca2 a03d
000003c0: a979 a0bc cf46 44bd e96a 1abe 1b04 dfbd
000003d0: 6909 7d3d bcb5 88be 4acf fd3e f0df f9be
000003e0: c46f 453e ec51 e3be fee1 1a3e eeec b6be
000003f0: 7bd8 1d3f 5fed 35be f75f 26bf ea86 943d

network_body._body_endoder.seq_layers.0.bias f4 [128]
0.0 0.0 0.0 0.0 0.0 0.0 0.0 0.0
0.0 0.0 0.0 0.0 0.0 0.0 0.0 0.0
0.0 0.0 0.0 0.0 0.0 0.0 0.0 0.0
0.0 0.0 0.0 0.0 0.0 0.0 0.0 0.0
0.0 0.0 0.0 0.0 0.0 0.0 0.0 0.0
0.0 0.0 0.0 0.0 0.0 0.0 0.0 0.0
0.0 0.0 0.0 0.0 0.0 0.0 0.0 0.0
0.0 0.0 0.0 0.0 0.0 0.0 0.0 0.0
0.0 0.0 0.0 0.0 0.0 0.0 0.0 0.0
0.0 0.0 0.0 0.0 0.0 0.0 0.0 0.0
0.0 0.0 0.0 0.0 0.0 0.0 0.0 0.0
0.0 0.0 0.0 0.0 0.0 0.0 0.0 0.0
0.0 0.0 0.0 0.0 0.0 0.0 0.0 0.0
0.0 0.0 0.0 0.0 0.0 0.0 0.0 0.0
0.0 0.0 0.0 0.0 0.0 0.0 0.0 0.0
0.0 0.0 0.0 0.0 0.0 0.0 0.0 0.0
00000000: 0000 0000 0000 0000 0000 0000 0000 0000
00000010: 0000 0000 0000 0000 0000 0000 0000 0000
00000020: 0000 0000 0000 0000 0000 0000 0000 0000
00000030: 0000 0000 0000 0000 0000 0000 0000 0000
00000040: 0000 0000 0000 0000 0000 0000 0000 0000
00000050: 0000 0000 0000 0000 0000 0000 0000 0000
00000060: 0000 0000 0000 0000 0000 0000 0000 0000
00000070: 0000 0000 0000 0000 0000 0000 0000 0000
00000080: 0000 0000 0000 0000 0000 0000 0000 0000
00000090: 0000 0000 0000 0000 0000 0000 0000 0000
000000a0: 0000 0000 0000 0000 0000 0000 0000 0000
000000b0: 0000 0000 0000 0000 0000 0000 0000 0000
000000c0: 0000 0000 0000 0000 0000 0000 0000 0000
000000d0: 0000 0000 0000 0000 0000 0000 0000 0000
000000e0: 0000 0000 0000 0000 0000 0000 0000 0000
000000f0: 0000 0000 0000 0000 0000 0000 0000 0000
00000100: 0000 0000 0000 0000 0000 0000 0000 0000
00000110: 0000 0000 0000 0000 0000 0000 0000 0000
00000120: 0000 0000 0000 0000 0000 0000 0000 0000
00000130: 0000 0000 0000 0000 0000 0000 0000 0000
00000140: 0000 0000 0000 0000 0000 0000 0000 0000
00000150: 0000 0000 0000 0000 0000 0000 0000 0000
00000160: 0000 0000 0000 0000 0000 0000 0000 0000
00000170: 0000 0000 0000 0000 0000 0000 0000 0000
00000180: 0000 0000 0000 0000 0000 0000 0000 0000
00000190: 0000 0000 0000 0000 0000 0000 0000 0000
000001a0: 0000 0000 0000 0000 0000 0000 0000 0000
000001b0: 0000 0000 0000 0000 0000 0000 0000 0000
000001c0: 0000 0000 0000 0000 0000 0000 0000 0000
000001d0: 0000 0000 0000 0000 0000 0000 0000 0000
000001e0: 0000 0000 0000 0000 0000 0000 0000 0000
000001f0: 0000 0000 0000 0000 0000 0000 0000 0000

network_body._body_endoder.seq_layers.2.weight f4 [128, 128]
-0.07782819 -0.097100444 -0.08526936 0.008535509 -0.09217927 -0.06992089 -0.0077617774 0.014545703
0.07212244 0.0060647945 0.19498518 -0.11114326 0.104698785 -0.15512674 0.010187461 -0.025052052
-0.081378706 -0.08225077 -0.15177248 0.015999978 -0.15576284 -0.024648061 0.012740995 0.13454115
0.03961614 0.07072547 0.08310146 -0.03648343 -0.106166825 0.0051815705 0.23673229 -0.025043175
0.120994546 -0.028006548 -0.07662701 0.19895652 -0.029077863 -0.015570118 -0.10112688 0.006809941
-0.09164035 -0.07472541 -0.17407472 0.02744695 0.03624249 0.019164005 -0.18370506 -0.04768062
0.013467733 0.08199575 -0.066404685 -0.009664184 0.07579607 -0.0067882426 -0.056178257 0.08124576
-0.04490633 -0.18655536 -0.01567028 -0.02312714 0.008129129 0.07559927 0.08789402 0.028909083
-0.0572722 0.06781555 0.08485067 0.079999596 0.20034209 0.033620216 -0.15736853 -0.15984698
0.058691584 0.009511147 -0.048957348 0.009377443 0.07336911 -0.06291395 -0.09883136 0.07398061
0.15009075 -0.08108462 0.18661785 -0.016678099 0.047924638 -0.016804045 0.025738874 -0.12296155
-0.026134899 -0.09431666 -0.044105787 -0.009980659 -0.08192487 0.03741885 0.16840307 0.12766191
0.0064726016 -0.043450493 -0.12057717 -0.09449493 0.119684786 -0.07325455 -0.03124669 -0.15611161
-0.02308562 0.1456991 -0.105528265 0.019852154 -0.03083932 -0.010907724 -0.0010150818 -0.11429547
-0.05811837 -0.048987497 -0.005802764 -0.015200971 0.042067844 -0.11216536 0.08681375 -0.066762246
0.10125426 -0.16008677 -0.1698861 -0.07236021 -0.21312267 0.046758357 0.10316423 -0.1209514
-0.10703604 0.032649223 -0.12612608 0.06306034 0.030861918 0.018651467 0.12738962 0.0014163647
0.08832341 -0.16217537 -0.048351463 -0.20139241 -0.019757846 0.119764686 0.22294264 0.14313541
-0.055941664 -0.1353369 -0.063791074 0.09393988 -0.062252134 -0.09335146 -0.13335896 -0.064674765
0.15885618 -0.044408154 -0.032124896 -0.11751008 0.15094624 -0.04226219 0.024670707 -0.086876884
0.19602303 0.04577029 0.04960283 0.025433874 0.09434155 -0.20258982 0.07416732 0.10172538
-0.05170851 0.01849333 -0.05320797 -0.14669515 -0.15645626 -0.017803261 0.0403352 0.009115066
-0.062903255 0.024674192 -0.1343162 0.023301661 -0.07717042 0.1277278 -0.040089972 0.1341577
0.07203757 0.040903464 -0.06997852 0.022731127 -0.08989836 -0.038809206 -0.07201594 0.11280062
-0.26315263 0.020332152 0.084991165 -0.08141346 0.13461003 -0.1670893 0.067667544 -0.035568487
0.14448541 -0.03543118 -0.0928853 0.026329696 -0.020851828 0.027193509 0.07814924 -0.11971217
-0.06372853 -0.091988854 0.084702596 -0.026066978 0.13059326 0.005405064 0.03108205 0.02888166
0.024337737 -0.11658169 0.0003261144 0.104195625 -0.0970558 -0.009017101 0.12699477 0.058131978
-0.020872932 -0.061542194 0.022957586 0.12692346 -0.13964316 -0.12744613 -0.1667521 -0.06231903
0.13427022 0.061944567 0.10808967 0.03605616 -0.017196825 -0.08420233 -0.203821 0.08395866
0.050279513 -0.07971362 0.00976444 -0.15366837 -0.08380437 -0.050381605 0.011406203 0.041496135
-0.0685336 0.052629042 0.030254936 0.13789886 -0.037559297 0.063171476 -0.15510686 -0.15102638
00000000: 6364 9fbd 99dc c6bd b4a1 aebd 85d8 0b3c
00000010: 7cc8 bcbd af32 8fbd 8256 febb 1a51 6e3c
00000020: eeb4 933d 2fbb c63b 32aa 473e 149f e3bd
00000030: 516c d63d 8bd9 1ebe 4fe9 263c f639 cdbc
00000040: e1a9 a6bd 1773 a8bd 3f6a 1bbe 6312 833c
00000050: 4b80 1fbe bbea c9bc 9bbf 503c 28c5 093e
00000060: 8944 223d 84d8 903d 1931 aa3d a66f 15bd
00000070: fe6d d9bd 2aca a93b f369 723e 5827 cdbc
00000080: fdcb f73d fd6d e5bc 9fee 9cbd 42bb 4b3e
00000090: b334 eebc cf19 7fbc 9c1b cfbd ed25 df3b
000000a0: f0ad bbbd a309 99bd a540 32be 6dd8 e03c
000000b0: 0173 143d d5fd 9c3c 2e1d 3cbe c14c 43bd
000000c0: c4a7 5c3c 63ed a73d 2eff 87bd 8756 1ebc
000000d0: f83a 9b3d e86f debb 2c1b 66bd 2d64 a63d
000000e0: b3ef 37bd 5e08 3fbe f65e 80bc 2175 bdbc
000000f0: 0a30 053c cad3 9a3d c801 b43d bed2 ec3c
00000100: 4196 6abd e1e2 8a3d 30c6 ad3d d4d6 a33d
00000110: 7a26 4d3e 5ab5 093d 3725 21be edae 23be
00000120: 9666 703d a4d4 1b3c 8087 48bd d9a3 193c
00000130: 8b42 963d 07d9 80bd 1968 cabd 2583 973d
00000140: 64b1 193e b10f a6bd c018 3f3e 82a0 88bc
00000150: a04c 443d a3a8 89bc 55da d23c 44d3 fbbd
00000160: db18 d6bc 1829 c1bd 45a8 34bd eb85 23bc
00000170: 3ac8 a7bd 8244 193d db71 2c3e ceb9 023e
00000180: 1e18 d43b 25f9 31bd 2af1 f6bd 8f86 c1bd
00000190: 4c1d f53d 7b06 96bd 0ff9 ffbc b9db 1fbe
000001a0: 0e1e bdbc 2532 153e 341f d8bd fca0 a23c
000001b0: bea2 fcbc 4fb6 32bc 7e0c 85ba be13 eabd
000001c0: 870d 6ebd 1da7 48bd 1d25 bebb 7e0d 79bc
000001d0: 554f 2c3d f4b6 e5bd 68cb b13d a5ba 88bd
000001e0: 655e cf3d c9ed 23be 9ff6 2dbe 9731 94bd
000001f0: d43c 5abe b185 3f3d c547 d33d 5eb5 f7bd
00000200: b635 dbbd 31bb 053d 3227 01be c825 813d
00000210: 22d2 fc3c f6ca 983c 6d72 023e 50a5 b93a
00000220: e7e2 b43d 4d11 26be 2f0c 46bd d039 4ebe
00000230: 35db a1bc 3047 f53d 134b 643e 1792 123e
00000240: 1623 65bd c295 0abe e5a4 82bd 8d63 c03d
00000250: 18fc 7ebd 0d2f bfbd 408f 08be 3474 84bd
00000260: 32ab 223e 53e5 35bd 6595 03bd 20a9 f0bd
00000270: a791 1a3e 1e1b 2dbd 391a ca3c 82ec b1bd
00000280: 43ba 483e a179 3b3d 562c 4b3d b35a d03c
00000290: 2436 c13d b573 4fbe 09e5 973d 6555 d03d
000002a0: 4dcc 53bd 537f 973c 9af0 59bd 4137 16be
000002b0: 1236 20be 25d8 91bc 8636 253d 5c57 153c
000002c0: 6cd3 80bd 8821 ca3c 308a 09be 20e3 be3c
000002d0: 860b 9ebd 14cb 023e 6235 24bd a360 093e
000002e0: 6f88 933d 648a 273d e650 8fbd a136 ba3c
000002f0: a21c b8bd 67f6 1ebd 187d 93bd 0304 e73d
00000300: f1bb 86be 9d8f a63c d90f ae3d 1abc a6bd
00000310: 36d7 093e 7519 2bbe 4895 8a3d 43b0 11bd
00000320: fcf3 133e 4920 11bd a63a bebd 60b1 d73c
00000330: 74d1 aabc ecc4 de3c b50c a03d a72b f5bd
00000340: 1b84 82bd a764 bcbd 8e78 ad3d 6a8a d5bc
00000350: 3dba 053e f71c b13b c99f fe3c 3b99 ec3c
00000360: ef5f c73c 62c2 eebd 55fa aa39 8464 d53d
00000370: 31c5 c6bd 76bc 13bc eb0a 023e cc1b 6e3d
00000380: b6fd aabc ab13 7cbd 8c11 bc3c 39f8 013e
00000390: 9efe 0ebe 3d81 02be 10c1 2abe 3d42 7fbd
000003a0: 227e 093e 96b9 7d3d 1e5e dd3d a0af 133d
000003b0: 5be0 8cbc 4572 acbd 74b6 50be 85f2 ab3d
000003c0: e4f1 4d3d e540 a3bd 08fb 1f3c 3e5b 1dbe
000003d0: a0a1 abbd f15c 4ebd 15e1 3a3c daf7 293d
000003e0: 585b 8cbd 8d91 573d 33d9 f73c 5c35 0d3e
000003f0: c7d7 19bd 0c60 813d 55d4 1ebe a9a6 1abe

network_body._body_endoder.seq_layers.2.bias f4 [128]
0.0 0.0 0.0 0.0 0.0 0.0 0.0 0.0
0.0 0.0 0.0 0.0 0.0 0.0 0.0 0.0
0.0 0.0 0.0 0.0 0.0 0.0 0.0 0.0
0.0 0.0 0.0 0.0 0.0 0.0 0.0 0.0
0.0 0.0 0.0 0.0 0.0 0.0 0.0 0.0
0.0 0.0 0.0 0.0 0.0 0.0 0.0 0.0
0.0 0.0 0.0 0.0 0.0 0.0 0.0 0.0
0.0 0.0 0.0 0.0 0.0 0.0 0.0 0.0
0.0 0.0 0.0 0.0 0.0 0.0 0.0 0.0
0.0 0.0 0.0 0.0 0.0 0.0 0.0 0.0
0.0 0.0 0.0 0.0 0.0 0.0 0.0 0.0
0.0 0.0 0.0 0.0 0.0 0.0 0.0 0.0
0.0 0.0 0.0 0.0 0.0 0.0 0.0 0.0
0.0 0.0 0.0 0.0 0.0 0.0 0.0 0.0
0.0 0.0 0.0 0.0 0.0 0.0 0.0 0.0
0.0 0.0 0.0 0.0 0.0 0.0 0.0 0.0
00000000: 0000 0000 0000 0000 0000 0000 0000 0000
00000010: 0000 0000 0000 0000 0000 0000 0000 0000
00000020: 0000 0000 0000 0000 0000 0000 0000 0000
00000030: 0000 0000 0000 0000 0000 0000 0000 0000
00000040: 0000 0000 0000 0000 0000 0000 0000 0000
00000050: 0000 0000 0000 0000 0000 0000 0000 0000
00000060: 0000 0000 0000 0000 0000 0000 0000 0000
00000070: 0000 0000 0000 0000 0000 0000 0000 0000
00000080: 0000 0000 0000 0000 0000 0000 0000 0000
00000090: 0000 0000 0000 0000 0000 0000 0000 0000
000000a0: 0000 0000 0000 0000 0000 0000 0000 0000
000000b0: 0000 0000 0000 0000 0000 0000 0000 0000
000000c0: 0000 0000 0000 0000 0000 0000 0000 0000
000000d0: 0000 0000 0000 0000 0000 0000 0000 0000
000000e0: 0000 0000 0000 0000 0000 0000 0000 0000
000000f0: 0000 0000 0000 0000 0000 0000 0000 0000
00000100: 0000 0000 0000 0000 0000 0000 0000 0000
00000110: 0000 0000 0000 0000 0000 0000 0000 0000
00000120: 0000 0000 0000 0000 0000 0000 0000 0000
00000130: 0000 0000 0000 0000 0000 0000 0000 0000
00000140: 0000 0000 0000 0000 0000 0000 0000 0000
00000150: 0000 0000 0000 0000 0000 0000 0000 0000
00000160: 0000 0000 0000 0000 0000 0000 0000 0000
00000170: 0000 0000 0000 0000 0000 0000 0000 0000
00000180: 0000 0000 0000 0000 0000 0000 0000 0000
00000190: 0000 0000 0000 0000 0000 0000 0000 0000
000001a0: 0000 0000 0000 0000 0000 0000 0000 0000
000001b0: 0000 0000 0000 0000 0000 0000 0000 0000
000001c0: 0000 0000 0000 0000 0000 0000 0000 0000
000001d0: 0000 0000 0000 0000 0000 0000 0000 0000
000001e0: 0000 0000 0000 0000 0000 0000 0000 0000
000001f0: 0000 0000 0000 0000 0000 0000 0000 0000

value_heads.value_heads.extrinsic.weight f4 [1, 128]
-0.17516403 -0.0693324 0.16318734 0.092823945 -0.14353776 0.056911036 -0.21167584 0.08322809
0.18403147 -0.13737632 -0.025613492 0.10186731 -0.13797818 0.011556449 0.1621625 0.17172094
0.044337243 0.18912366 -0.12074841 0.15703021 0.121203944 -0.13345729 -0.16608262 -0.20647545
0.085652895 0.059780095 0.04947487 0.137937 -0.17801578 -0.15877709 -0.07618119 0.1603895
-0.1784401 0.174812 -0.09217338 -0.14556801 0.017625935 -0.14080986 0.0920738 -0.20836467
0.19634059 -0.18073367 0.050007205 -0.17701235 0.034698196 0.19808407 0.21438973 0.14461705
-0.0028259188 0.11922851 0.20349655 -0.044888362 -0.014241816 -0.122304544 -0.19717936 -0.2112263
-0.02319175 -0.006769564 0.08734428 0.17453136 -0.09334701 -0.12925015 -0.1891102 -0.11571599
-0.017484007 -0.05671257 -0.10899943 0.17216475 -0.116863064 0.07726162 -0.17921479 0.0762459
0.2000692 -0.114708476 0.0749772 0.20324951 -0.0530683 0.088317305 -0.053699993 0.13356677
0.17221926 -0.09310487 0.12269786 -0.17521866 0.012834256 -0.03295356 0.19723874 -0.20995274
0.0340659 -0.13751055 0.16044997 -0.023210054 -0.20198537 -0.112027094 -0.18071115 0.053977575
0.18713906 0.14017041 0.13696343 -0.20992467 0.1822541 0.049839657 0.05185357 0.16774301
0.081587195 -0.039611492 0.20445253 -0.10964271 -0.08319508 -0.036964912 -0.19312239 0.20412016
0.13057189 -0.21310762 0.18244438 0.09117996 -0.0045051114 0.007086316 0.007375983 -0.17546056
0.11604187 -0.0005598465 0.011968467 0.119044356 0.20368306 -0.033500925 0.1382437 -0.062907994
00000000: 335e 33be 25fe 8dbd 951a 273e 7b1a be3d
00000010: 90fb 12be 8c1b 693d 8dc1 58be 7d73 aa3d
00000020: bf72 3c3e 61ac 0cbe 63d3 d1bc cf9f d03d
00000030: 274a 0dbe 4357 3d3c ed0d 263e 9dd7 2f3e
00000040: f89a 353d a2a9 413e f14a f7bd 87cc 203e
00000050: c639 f83d 07a9 08be 9011 2abe 4d6e 53be
00000060: c96a af3d f9db 743d 29a6 4a3d 5b3f 0d3e
00000070: c549 36be 7696 22be e204 9cbd 253d 243e
00000080: 00b9 36be eb01 333e 66c5 bcbd c80f 15be
00000090: 4464 903c 7630 10be 3091 bc3d 8c5d 55be
000000a0: 820d 493e 3f12 39be 5bd4 4c3d ba42 35be
000000b0: b21f 0e3d 8dd6 4a3e fb88 5b3e 7e16 143e
000000c0: 0d33 39bb 142e f43d 6661 503e dcdc 37bd
000000d0: 8156 69bc ce7a fabd 63e9 49be b54b 58be
000000e0: a0fc bdbc 38d3 ddbb 8fe1 b23d 59b8 323e
000000f0: b82c bfbd 275a 04be 1ba6 41be 81fc ecbd
00000100: 9f3a 8fbc 714b 68bd 183b dfbd f54b 303e
00000110: e755 efbd 573b 9e3d 1584 37be cf26 9c3d
00000120: f1de 4c3e 47ec eabd a58d 993d a420 503e
00000130: 255e 59bd b4df b43d 86f4 5bbd bac5 083e
00000140: 3f5a 303e c4ad bebd 0449 fb3d 856c 33be
00000150: c546 523c 50fa 06bd f4f8 493e dafd 56be
00000160: af88 0b3d 91cf 0cbe ff4c 243e 0323 bebc
00000170: 41d5 4ebe 766e e5bd 580c 39be 9717 5d3d
00000180: 62a1 3f3e d588 0f3e 2440 0c3e 7ef6 56be
00000190: d2a0 3a3e ab24 4c3d 6964 543d d3c4 2b3e
000001a0: 3017 a73d a93f 22bd 015c 513e 5b8c e0bd
000001b0: 2f62 aabd 8568 17bd e0c1 45be e004 513e
000001c0: a3b4 053e e238 5abe b3d2 3a3e 8fbc ba3d
000001d0: 9d9f 93bb 5434 e83b 3bb2 f13b efab 33be
000001e0: 5ca7 ed3d aac2 12ba 6417 443c 87cd f33d
000001f0: 4b92 503e 4438 09bd c28f 0d3e e8d5 80bd
