Assets/BlueCar.onnx (onnx, 311239 bytes, 12 tensors)

network_body.observation_encoder.processors.0.normalizer.running_mean f4 [22]
00000000: 8f51 793e 2ccc 233f 5813 303e 9bdb 173f
00000010: be69 a23d 201e 013f 13e4 873d 1cca e03e
00000020: f266 4d3d 4b28 b73e a8fd d43c fb2f 923e
00000030: e1bb 613c bf50 763e f11a 0f3c 3675 553e
00000040: 68af 9e3b eb4d 403e 955d d03b b26a 313e
00000050: fbd1 2a3b 90f5 2a3e
0.24347518 0.63983417 0.17194879 0.59319466 0.07930325 0.5043659 0.066352986 0.43904197
0.050147004 0.3577293 0.025999859 0.2855223 0.013777704 0.2405424 0.008734451 0.20845494
0.0048426874 0.18779723 0.006358812 0.17325857 0.00260651 0.16695237

network_body.observation_encoder.processors.1.normalizer.running_mean f4 [11]
00000000: 55c4 4d3f 61fa 76bb fae6 5d3f f488 f13e
00000010: 1adc 683e 0b01 8f3d 88be 213f 0000 0000
00000020: 7757 603d 0000 0000 b2ac e43d
0.80377704 -0.0037685859 0.8668057 0.471748 0.22740212 0.06982621 0.6318135 0.0
0.054770913 0.0 0.111657515

network_body._body_endoder.seq_layers.0.weight f4 [256, 33]
00000000: 2aff 973e de6e 48be 2769 b7bc b5f2 1b3e
00000010: 0214 aebd 3af8 2ebe 2b83 34be 0657 3abd
00000020: c797 85bd 1c7c 3e3e 620d 893e c81e 5b3d
00000030: cb14 dcbd b663 92bc a6bc 72be 1ae6 153e
00000040: 06d7 8b3e 9bc4 593e c4fc 873e ec47 863c
00000050: efc9 bbbe 3f60 743e 1b12 d8bd 33e6 e2bd
00000060: 212a dbbe c226 3cbd 019b eebd 541b b93d
00000070: 4230 c53b d87a b4bd ddd4 4e3b de6b 353e
00000080: 60b9 cd3d fe6b 58bc 7106 803d 8a5a 6fbd
00000090: f85b d63d 3322 8d3e a5f4 d7bb f87a 783e
000000a0: 1cd8 9fbe 29ec 943e 277c b63e d509 01bd
000000b0: dd25 b83a 8916 c63e b14e 63be 13e7 9f3e
000000c0: 4db7 513d 726c 523d 58ae 063e 75d1 633e
000000d0: 2a29 0fbd bc3c 8f3e b788 2fbd 9816 9ebe
000000e0: d68f e9bd 0f32 113e e84e 03bd 84a1 6a3e
000000f0: 9476 163d 636a 69bd e6d6 303e e76d bd3e
00000100: b45b 933e 928c 8abe b7cc 5c3e f9a5 90bd
00000110: 6b05 34be 1760 123e 9ec5 38be 7081 d1bd
00000120: a24a c1bd 3605 833c 117b 36be c783 193d
00000130: 546c 753d 7dd4 19be 3a26 f8bb 7376 1cbe
00000140: 8466 163e 111f 643e 76da e8bd 1652 73be
00000150: 7b66 dabd b4d7 1c3d 1702 9bbd 03e2 483d
00000160: 4642 c3bc 615d 9739 7df8 a2ba b50b 653e
00000170: 7c85 143e 5b9d 77bc 249a 02be be19 bc3d
00000180: caa3 053f c1e5 71bc dfa4 d83d 3f7c 00be
00000190: 0c96 113e e68c 51bd bd0d 79bd c0ae 4ebd
000001a0: 74ce 373c 8a73 923d e0e9 eabc a698 22be
000001b0: 62ef ebbd d6b5 5b3e 2030 f93b e37e 643c
000001c0: 460a 37ba 0a2d 79be fdca ea3e 7be0 ae3e
000001d0: 9150 85be dce0 96be 1eaa 063e 65d0 983d
000001e0: cac0 713e 7895 8c3e cc22 283d 3a6e c4be
000001f0: ef98 34be 736b 63bd 438a 7c3c 0653 46be
00000200: 06f6 213e c081 97be 719b 07bf e4f0 ccbd
00000210: 52d9 65bc b61f b1be 45f3 d53d f3b0 153e
00000220: 2006 883d eb3c a83e d907 9b3d ce01 523e
00000230: b779 6dbc 73a7 c4bd 8918 80bc d55c 4fbe
00000240: 4734 f2bc 291c 46be 945f 09bd 2f4a 39be
00000250: de1d c7bc d99b 0dbe f0f6 39be 58f1 febd
00000260: e8de af3c fc51 5cbe 6893 7e3e d0df c0be
00000270: 3321 6abc b788 003e d47c 5d3e c17c 10be
00000280: 1439 193c 7880 fc3d a1e6 9ebe 74ba 48be
00000290: c989 6d3e 7242 0c3c 6ddd 5a3e 62b0 643e
000002a0: 3a6c bfbd d209 043e 49c8 b2bc 968a 843e
000002b0: 40c4 673d 5b5a 41be c993 aa3d e260 fc3d
000002c0: c4f6 8b3d a28f 1f3e 733b 483d dc00 8cbe
000002d0: 4e16 e3be 69ae 62bd 426e 2fbe 3066 42bd
000002e0: 8eb6 f0bd 32f5 36bd 0c71 613d 0fa6 7c3e
000002f0: eebc 8b3e 2922 803e 934c 8f3d 4acd f1bc
00000300: a20b 19be 29ee 1abe 9f7b aa3e da41 59be
00000310: 5630 073e 77ee 0d3e 8b97 c73c 24b8 0f3c
00000320: 3473 4c3d d380 413e a11a a4be 93d6 5fbd
00000330: d5ac 733d 8b00 0ebe bc68 1fbe 5bef 92bd
00000340: d865 57bc e310 283e b577 9e3e 6f39 de3e
00000350: 5e13 823e e174 3cbd df84 7e3d 9ff5 283e
00000360: c661 0bbc 2169 50be cb7e 05be 0b67 a7be
00000370: 1397 c5bc 1b1a aebe 6a9b 91be ba91 81be
00000380: 100f a9be c39a d43e 5b4a 82bd 66f5 d1be
00000390: e3cf 933d b448 f93d 570e 79be 6d3e e8bc
000003a0: ba27 97bd e7ab 95be 19c5 31be 15a1 81bd
000003b0: 3e61 5fbe ba7b 7a3e 41ae 19bd 4384 11be
000003c0: 9819 f43d 1220 5b3d 38f0 3dbe b416 3a3e
000003d0: 6223 393e e170 8e3d 3e7b 2f3e 3981 82bd
000003e0: 5b0a 273e 799f ff3e e7f4 61bd 2889 c2be
000003f0: c9ad 393e 3a67 a43e ad6e 253e 71db 4ebd
0.29686862 -0.19573542 -0.022389008 0.15229304 -0.0849991 -0.17086878 -0.17628162 -0.04549315
-0.0652309 0.18602031 0.26768023 0.053496152 -0.107461534 -0.017869812 -0.23704776 0.14638558
0.27312487 0.21266405 0.26560032 0.016391717 -0.366775 0.2386484 -0.10550328 -0.11079063
-0.4280558 -0.0459354 -0.116506584 0.090384156 0.0060177157 -0.08812493 0.0031559982 0.1771693
0.10045123 -0.013209341 0.062512286 -0.058435954 0.104667604 0.27565154 -0.006590443 0.24265659
-0.31219566 0.29086426 0.35641596 -0.031503517 0.001404937 0.38689068 -0.22197987 0.31230983
0.0512002 0.051372953 0.13152444 0.2224787 -0.034951366 0.27976024 -0.04285499 -0.30876613
-0.11404388 0.14179252 -0.032057673 0.22913176 0.03673418 -0.056986224 0.17269477 0.3699791
0.287809 -0.27060372 0.21562468 -0.07062907 -0.17580192 0.14294468 -0.18044135 -0.10229766
-0.09438063 0.015993696 -0.17820384 0.03747919 0.059917763 -0.15022464 -0.0075729163 -0.1527956
0.14687544 0.22277476 -0.11369793 -0.23761782 -0.10664078 0.038291648 -0.07568758 0.049043667
-0.023835313 0.00028870537 -0.0012433674 0.22367747 0.14504045 -0.0151132 -0.12754112 0.091845974
0.5220305 -0.01476425 0.10578322 -0.12547396 0.14217395 -0.05115976 -0.060804117 -0.050459623
0.011218656 0.071509436 -0.028675973 -0.15878543 -0.11520268 0.21456084 0.007604614 0.013946268
-0.0006982427 -0.24333587 0.45857993 0.3415564 -0.2603803 -0.2946843 0.13150832 0.07461623
0.236087 0.27457786 0.04104881 -0.38365346 -0.17636465 -0.055522393 0.015413824 -0.19367608
0.15816507 -0.2959118 -0.5297156 -0.10006884 -0.014028864 -0.34594506 0.104467906 0.14618282
0.06641793 0.32858977 0.07569856 0.20508501 -0.014494351 -0.09602251 -0.0156367 -0.20250256
-0.029565943 -0.1934668 -0.033538416 -0.18094705 -0.024306234 -0.13828982 -0.18160605 -0.124483764
0.021468595 -0.2151565 0.24860919 -0.37670755 -0.014290142 0.12552153 0.2162965 -0.1411009
0.009351987 0.12329191 -0.3103533 -0.19602376 0.23197092 0.008560764 0.2137353 0.2233291
-0.093468145 0.12894371 -0.021824019 0.25886983 0.056583643 -0.18882124 0.08328969 0.123231664
0.06834176 0.15582135 0.04888482 -0.27344406 -0.44352955 -0.05534211 -0.17131904 -0.047460735
-0.117535695 -0.04466743 0.05503945 0.24672721 0.2729258 0.25026062 0.06997027 -0.029516835
-0.14945844 -0.15129913 0.3329744 -0.21216527 0.13202032 0.13860498 0.024364254 0.00877193
0.049914554 0.18896799 -0.32051566 -0.054647993 0.059490997 -0.13867395 -0.15567297 -0.0717456
-0.01314684 0.16412692 0.30950704 0.43403193 0.254054 -0.046009902 0.062138434 0.16499947
-0.008507198 -0.20352603 -0.13036649 -0.32695803 -0.02411989 -0.34004292 -0.28438884 -0.25306493
-0.33019304 0.41524324 -0.063618384 -0.41007537 0.072173856 0.1217207 -0.24321876 -0.02835008
-0.07380624 -0.29232714 -0.17360343 -0.06329552 -0.21814439 0.2446126 -0.037519697 -0.1421061
0.11918944 0.05349738 -0.18548667 0.18172723 0.18079904 0.06955124 0.17136857 -0.063723035
0.16312544 0.49926355 -0.055165198 -0.37995267 0.181327 0.32110006 0.161555 -0.050502244

network_body._body_endoder.seq_layers.0.bias f4 [256]
00000000: da4c bb39 96cf c9bc 1ad4 153d c434 913c
00000010: 800c 363c 94c3 a6ba 5074 b7bb e7b3 133d
00000020: 18f5 9cbc f780 3c39 faa8 e03c c637 7bbb
00000030: b1c8 29bc c66f 103d 5b1f a03c 873e e73c
00000040: 0e70 82bc 7c2e 8d3c 1dc4 9c3b 073d 1a3d
00000050: 7347 3abc 2b38 b9bb 1083 843c f192 a13a
00000060: a5d7 8e3b 3992 643c 0849 063c e462 f13c
00000070: a8d3 a73c da60 8e3a ac7b 5e3d 6b38 373d
00000080: 2248 033d 2fc1 8fbc a48f c13b 274e 8039
00000090: 3cf3 9dbc 3dd7 a63c 76cc 3f3b 42e3 5a3d
000000a0: 4b49 3c3d fd1d 823d 48eb 88bb 2529 8a3c
000000b0: beda c5bc 3c89 ce3c 20cf b23c 44fc f83c
000000c0: 43ce 9dbb 3fe8 e33c 71d1 f5bb 9613 03bd
000000d0: 763c bf3c aede 04bd 42ba 973c 68bd de3c
000000e0: 70af a23b 301f 083d 40f1 443d 8709 e5bb
000000f0: 831b da3b 7bf6 dc3c 131f f4bc a2b8 503b
00000100: 1649 5fbd 00c8 01bc fc59 533d 0136 efbc
00000110: 0852 323d 7748 ce3c 2a3d 87bc 7cde 503d
00000120: 68d0 3b3d 676d 993c df5e 68bc 2107 77bb
00000130: 861c 203d c554 cf3b 1a9b 4cbc 2551 1e3d
00000140: 3b52 2c3d a59c 833d 5317 2abd 9180 4cbd
00000150: 451f 713c 824e 873c 3bd7 a2bb a0a2 203d
00000160: a58b a93b ceaa a93c 172d 9d3c 6a3e 153d
00000170: 1008 dc3a ddf1 833c b492 1b3c 9c78 8cbc
00000180: 1ef2 2e3b b058 233c e88f ab3c e57d 093d
00000190: 7762 12bc ecae 043d b634 cd3b e8d7 87bc
000001a0: 1a36 df3c dd93 193d 09a0 a23c 2ecd 323d
000001b0: 8d2a 1ebd 64a1 393d fc6d 03bd ff8c 0d3d
000001c0: c8b5 763c 0f33 73bc dec9 adba 51ba 283c
000001d0: 1e6c 9ebc 4aac 7c3c 128c be3c 4820 9cbc
000001e0: d5c9 a33c b4bb cf3c 505a 5d3c 23f7 353d
000001f0: 6f8b 7fbc 03ac 0f3d 7ee3 07bd d6a5 0cbc
00000200: a86c 27bd 0bf7 51bc 53a5 f33c 3fb7 153d
00000210: ad49 b43c ed65 053d 64f5 393d d82e 143c
00000220: c025 bb3c efcf d73c 1623 063d 3f1d 60bc
00000230: 87df f93b 340f 12bd 41db c63c d337 ecbc
00000240: 2c0b 4b3c bf8a 543d a7a1 e03c 64d3 06ba
00000250: 7923 313d 5ceb 463d 81a1 f23c 21fb 573c
00000260: 8331 ef3c 7a81 613d 333e 2b3d 0e2d 763c
00000270: c512 17bd 96f9 33bc 4033 b83b f436 dabb
00000280: 1000 fabc 8752 263d 7432 b23c d190 0c3d
00000290: 4ffd d53c 0b1a 203d 6860 253c 9181 833c
000002a0: a363 333d 7268 4f3d a1a7 fd3c 287a 82bc
000002b0: a42f 373d 20ed 7cbc 61ee 1bbc 92ee 4fbc
000002c0: 1a73 503c 8fcb ac3b cb80 a73c f966 563d
000002d0: 990f 413c 0b91 aebc bdd9 b83c 8ac5 2b3c
000002e0: 0916 da3b 61c0 5bbc c66d a53c 1346 b0bc
000002f0: 82fa 17bc 0537 8f3c 352b dd3c 8b08 643c
00000300: 674d 14bd fa14 8c3c c4be 043d a2e3 503d
00000310: 8024 443d 91c4 97bc 2bde 173d f239 1d3c
00000320: cc9b 863c 7fd9 27bc 9686 c43c 7769 9abc
00000330: be27 1d3c 2b4c ea3a 68f3 7c3d f515 8d3d
00000340: 4639 ba3c 4850 52bc 66e2 60bc 5884 e43c
00000350: d4a9 8a3c 23b6 923a c533 49bc 7f10 1f3d
00000360: 561d 263d dd22 b2bb 65e0 37bc 20b2 31bc
00000370: 369c 293d b41a c33c a3d9 f03c a410 013d
00000380: c565 be3c 8591 353d 2195 ec3c 9979 1b3d
00000390: be8f 9dbc f41c 173d ffac 45bb ef67 ed3c
000003a0: 8614 05bd 6a3d 60bc 9852 2c3d 987e 6c3d
000003b0: 46e0 ef3c 47c6 483d b715 103c 8fd5 8b3c
000003c0: d46d 87bc 285b 423d af36 173d 8717 ff3c
000003d0: 9c23 02bd a597 2b3d a678 1ebc 3d8d 81bc
000003e0: 7003 a43c f972 6f3d 61b1 0a3d 8390 3cbb
000003f0: 7be2 173d ea28 773b 785c 963c e0e9 9a3d
0.00035724678 -0.024635118 0.03657923 0.017725356 0.011111379 -0.0012723082 -0.0055985823 0.03606024
-0.019159839 0.0001797712 0.027424324 -0.0038332804 -0.01036279 0.035262845 0.019546201 0.028228058
-0.015922572 0.01723408 0.0047841207 0.037655856 -0.011369574 -0.0056524477 0.016175777 0.0012327117
0.004359203 0.013950878 0.008196123 0.0294661 0.020486668 0.0010862604 0.05431716 0.04473154
0.032051213 -0.017548172 0.005907016 0.0002447229 -0.019281022 0.020366305 0.0029266155 0.053439386
0.045968335 0.06353376 -0.0041784383 0.016865322 -0.024152156 0.025211923 0.02182728 0.030393727
-0.004815848 0.027820705 -0.007501774 -0.0320011 0.02334426 -0.032438926 0.018521432 0.027189925
0.0049647614 0.033232868 0.048081636 -0.006989661 0.0066561117 0.026973 -0.029799974 0.003184833
-0.05451306 -0.007921219 0.051599488 -0.029200556 0.043535262 0.025181038 -0.016508657 0.050993428
0.04585305 0.018728925 -0.014182775 -0.0037693458 0.039089702 0.006327244 -0.012488151 0.038651604
0.04207061 0.06426362 -0.04152615 -0.049927298 0.014716928 0.016516928 -0.004969505 0.03921759
0.0051741176 0.020711329 0.01918654 0.036436476 0.0016787071 0.01610654 0.009495426 -0.017147355
0.0026694606 0.009969875 0.020942643 0.033567328 -0.008934609 0.03239338 0.006262387 -0.016582444
0.027247477 0.03749453 0.019851701 0.043652706 -0.0386148 0.04531993 -0.03208731 0.034558292
0.015057988 -0.014843716 -0.0013259014 0.010298328 -0.019338664 0.015421936 0.02326015 -0.019058362
0.019993702 0.025358059 0.013510302 0.04442514 -0.015597208 0.035076153 -0.033175938 -0.00858446
-0.040875107 -0.012815247 0.029741919 0.03655171 0.022007788 0.032567907 0.04540004 0.009044372
0.022845149 0.026344268 0.032748304 -0.013678848 0.0076255235 -0.03565903 0.02427447 -0.028835213
0.0123928 0.05189013 0.027420832 -0.0005143194 0.04324672 0.0485643 0.029618027 0.013182432
0.029198414 0.05505512 0.041807365 0.01502539 -0.036883134 -0.010984799 0.005621344 -0.006659383
-0.030517608 0.040606048 0.021752574 0.034317795 0.026121764 0.039087337 0.010093786 0.016052993
0.043796193 0.050636716 0.03096372 -0.01592739 0.044723168 -0.015437394 -0.009517283 -0.012691157
0.012722755 0.0052732895 0.020447155 0.052344296 0.011783504 -0.021309396 0.022564763 0.010484109
0.006655459 -0.013412566 0.020193946 -0.021517789 -0.009276034 0.01748229 0.026998142 0.013918052
-0.03620663 0.017099846 0.03240849 0.050998338 0.04788637 -0.018526347 0.03707711 0.009596335
0.016431712 -0.010244726 0.023989957 -0.018849118 0.009591995 0.0017875483 0.061755568 0.068889536
0.022732388 -0.012836523 -0.013725853 0.027895138 0.016926683 0.0011193197 -0.012280409 0.03883409
0.04055532 -0.005436285 -0.011222933 -0.010845691 0.04140874 0.023816444 0.029400652 0.03151001
0.023241887 0.04432823 0.028879704 0.03795776 -0.01923358 0.036892846 -0.0030162928 0.028980223
-0.032490276 -0.013686517 0.042070955 0.057737917 0.029281747 0.049017217 0.00879424 0.017069606
-0.016531862 0.047450215 0.036917385 0.031139148 -0.03177224 0.041892666 -0.0096723195 -0.015814418
0.02002117 0.058459256 0.033860568 -0.002877266 0.037081223 0.0037713596 0.01835464 0.07564139

network_body._body_endoder.seq_layers.2.weight f4 [256, 256]
00000000: 8016 b33d bb50 a6bc 78af 4d3d ac42 f3bd
00000010: 5885 9eba 5587 743d 6946 c43c 55ef 823d
00000020: 04f4 dfbc e6b6 1bbd 8465 30bd d95b 46bb
00000030: 6d03 6a3d 0df0 20bd 8c78 66bd 6e6f 3cbc
00000040: 87b0 f7bc 2f5f 333c 0e81 a63d b24d 32bc
00000050: a4e5 51ba 009e 043d 85c5 2f3d dd65 133d
00000060: 77df 033e 3599 563a 6d13 a33b 35f7 f03d
00000070: 4c24 e43d e2c5 183e 3d3c d2bd be4b 21bd
00000080: 44ae 253d a0a1 0e3e 3e3c e9bc 756c 60bc
00000090: c22c 0dbd db39 41bd ab5b 40bd bb2e a13d
000000a0: fd44 7dbd 739a b6bd d831 a2bd 09f8 713d
000000b0: 54b2 eb3d 633e a6bd 944c 283d b29a 573d
000000c0: 3985 7e3c 5c70 0cbd 58cd 5bbd f4b5 d6bd
000000d0: aed2 aabd d698 3ebc 6fd7 18bd a069 693d
000000e0: 758e 513d 945c 95bb 15ba af3d 7933 733d
000000f0: 410b 193e 1a66 c5bc 0ae2 263e 824f 663d
00000100: bc62 a0bc e17b 713d 343b ee3c 8f53 033e
00000110: 280a 78bc 67f9 bebc eeda a93d ca42 f33d
00000120: 768b 7c3c 7075 08be eb28 c3bc e1dc c03d
00000130: fb5e b13d 54b2 86bc 168f 793d 4cd7 a1bd
00000140: baa6 24bd 2fb7 d9bd b810 383d 2890 c13c
00000150: cc0f 033b ea6e a8bc 0598 38bd f3f5 4d3d
00000160: 2e0c d03d c7be 68bb ca81 f03d 0ef8 ecbd
00000170: 9402 05be 2cec c3bd c26f 9bbc 6784 75bb
00000180: 0183 2bbd e78e 813d ce4d 27bd e674 9cbd
00000190: 8207 e6bc 976f cbbd 4f27 05be af06 2dbd
000001a0: 6d60 0e3d b826 9cbd 4885 9b3d 23e2 afbc
000001b0: 6536 8e3c 84b5 6cbd 5cc1 2ebe edb4 7fbc
000001c0: ee08 86bd 7217 a73d 3e15 6c3d a562 c0bc
000001d0: fd95 96bd 5a43 0c3e c9fb d13d 9d19 f1bc
000001e0: afe6 c43d af8c e63c 51f5 afbd 68ec 18bc
000001f0: 898d 443b 050c 423d f9ab a1bc f185 b73d
00000200: 7e21 153b d992 55bd e028 80bd ca55 a7bd
00000210: 4fad 563d f630 56bd b951 4a3d c89c bebd
00000220: e3b3 8c3b 0fae 5e3d da5d 183d 4384 03bd
00000230: 4627 60bc 4085 1c3d e506 0abd 5018 5c3d
00000240: 47ac ca3d 6100 8cbd fe50 8a3d f575 fdbb
00000250: 10ec b8bc 0d1b e13b f51e 28bc d39a b33b
00000260: fc82 39be 12e7 7dbc 1961 07bb d8b2 b43c
00000270: 2f8c ba3c e4a2 ac3a 5bb1 053d 65a9 183d
00000280: 3876 a13c 2161 d33d 3c4a d13d a7eb c7bd
00000290: b3f8 d5bd e35b 8b3c 825e dd3d 609b b33b
000002a0: e91c 87bd 3719 a7bd b77d 48bd 8637 f5bd
000002b0: 6cfc 303d 1b27 ca3d 34eb 543d ac88 15be
000002c0: c54e b13b b60c a2bc 5ea0 233d 8aea b9ba
000002d0: 70b7 523d add4 48bd b403 7cbd 7c48 e3bb
000002e0: 92ec f33b 1809 493c 8f89 04be 573e 2dbd
000002f0: df77 85bd 3893 0dbe 7106 90bc 08ba 0bbe
00000300: 499a 093d 6977 253d 4ed5 f6bb e814 b5bd
00000310: 4169 1abd 530e 1abe 4067 1abc 002f a03d
00000320: 8376 c13c 9172 dc3d 2a5e f23c dc05 8b3d
00000330: 7e61 603c f2a9 66bd 1419 43bd 4c5a 343a
00000340: de4a 813d 5e67 88bb 65b0 36bd ec92 5b3c
00000350: f39a 8b3d fa85 2fbd 5563 fc3b 13fd 91bc
00000360: 9c50 a4bd 6dd1 9a3d 7f97 a63d c83e 913d
00000370: 3e71 f6bd a15e ea3c 7ea7 e9bb d9f2 bcbd
00000380: 348f 2c3d 2c6b e6bc 47b2 903d 2b37 22be
00000390: d59a 00bd 5fc9 543c 1f0e 2a3d fe0c 7d3d
000003a0: 3bae d73d e881 963d bd70 a53d 6e3c aebd
000003b0: 85ae 8fbd 4fdf a6bd d73c f83c 2750 3abd
000003c0: a018 903d fa37 4c3d ebfd c23b 07bd ddbc
000003d0: 3efe 92bc 12da eabd 0d18 babc 283e 733c
000003e0: 8340 473d b3a7 483d 00fe fabc 99ec c23d
000003f0: 1d5b 5d3c 995b acbd 7b1e 4fbd 8c08 bdbd
0.08744526 -0.020302167 0.05021617 -0.11877951 -0.0012094183 0.059699375 0.023959355 0.06393305
-0.027338035 -0.038016222 -0.043065563 -0.0030267148 0.057132173 -0.03929143 -0.056267306 -0.011501176
-0.030235542 0.0109479865 0.08130084 -0.010882782 -0.00080069364 0.032377243 0.04291298 0.035985816
0.12878214 0.0008186282 0.004976681 0.11765901 0.111397356 0.14919236 -0.10265396 -0.039378874
0.040449396 0.13928843 -0.028471109 -0.013697733 -0.034466513 -0.047174316 -0.04696242 0.07870241
-0.06183337 -0.089161776 -0.07919663 0.059074435 0.11508623 -0.08117368 0.041088656 0.052637763
0.015534692 -0.03428684 -0.053662628 -0.104839236 -0.08340965 -0.011633119 -0.03731483 0.056985497
0.05116125 -0.0045581553 0.08580414 0.05937526 0.149457 -0.024096537 0.16297165 0.05622817
-0.01957833 0.05895603 0.029080965 0.12824844 -0.01513914 -0.023312284 0.08293711 0.118779734
0.015414109 -0.13326049 -0.023823222 0.09417129 0.08660694 -0.016442455 0.060927473 -0.07902393
-0.040198065 -0.106306426 0.04493782 0.02362831 0.001999843 -0.0205607 -0.045066852 0.050283384
0.10158573 -0.0035514103 0.11743505 -0.1157075 -0.12989265 -0.095665306 -0.018974189 -0.003746295
-0.041872982 0.063260846 -0.040845685 -0.07639484 -0.028079752 -0.099333934 -0.13003276 -0.042242702
0.034759928 -0.076245725 0.07593781 -0.021470135 0.017359922 -0.057790294 -0.17065948 -0.015607101
-0.06544672 0.08158769 0.057637446 -0.023484537 -0.07352827 0.13697568 0.10253102 -0.029431159
0.09614312 0.028143255 -0.08591712 -0.009333707 0.0029991588 0.047374744 -0.019735323 0.08961094
0.0022755559 -0.052141998 -0.06257796 -0.0817066 0.052411374 -0.052292787 0.049394343 -0.093072474
0.004293905 0.054365214 0.03719888 -0.032108556 -0.0136812385 0.038213015 -0.03369798 0.053734124
0.098961405 -0.0683601 0.06753729 -0.007735009 -0.0225735 0.00686968 -0.010261287 0.005481103
-0.18116373 -0.015496986 -0.002065724 0.022057936 0.022771923 0.0013171104 0.032639842 0.037270922
0.019709691 0.1032126 0.10219237 -0.09761744 -0.10447826 0.017011588 0.108090416 0.0054811686
-0.06597311 -0.08159106 -0.048948016 -0.11973481 0.04320948 0.0987074 0.05198212 -0.14602917
0.0054110014 -0.019781452 0.03994786 -0.0014184278 0.05144447 -0.04903095 -0.06152697 -0.006936131
0.007443973 0.0122702345 -0.129431 -0.04229578 -0.06517004 -0.13825691 -0.017581197 -0.13645184
0.033594403 0.04039708 -0.007532752 -0.08841878 -0.037698034 -0.15044527 -0.009424031 0.078214645
0.023616081 0.10764039 0.029585917 0.06788227 0.013695119 -0.056314416 -0.04763134 0.00068799104
0.06313108 -0.004162713 -0.044601817 0.013401728 0.068166636 -0.04285238 0.007702271 -0.01782087
-0.080231875 0.07559476 0.08134364 0.07092053 -0.12033318 0.028609576 -0.0071305623 -0.09226007
0.042128757 -0.028127275 0.07065254 -0.15841357 -0.03139766 0.012987464 0.041517373 0.06177997
0.10531279 0.073489964 0.08078144 -0.0850762 -0.07015709 -0.081480615 0.030302448 -0.045486595
0.07035947 0.04985807 0.0059506795 -0.027067674 -0.017943498 -0.11467375 -0.022716546 0.014846362
0.048645508 0.048988055 -0.030638695 0.09517784 0.013510493 -0.08415908 -0.050566178 -0.09230146

network_body._body_endoder.seq_layers.2.bias f4 [256]
00000000: ca50 4b3c d27e fbbc 7c36 7abc 8b9a 8f3c
00000010: ec8b 4eba 7d3e 9cbc 42cf 4abb bdd1 ed3b
00000020: f378 a63c 8742 72bb f2e3 02bd 32af 0f3c
00000030: 5abb e53c fa51 9a3b 0af7 c7bc 77a9 ca3c
00000040: 3430 3c3d 5a5b e2bc 0cb8 e1bc d6db 2f3d
00000050: 04fd a63c 2556 993c 205a 033c a2b5 3a3b
00000060: f213 3c3d d204 923b 8fb6 bf3a a2bb 463d
00000070: 0142 8dbc 709d 373d 72a0 333d 29ab 8bbc
00000080: 50b3 8dbb 9b3c c0ba 7a6e e03c f0a0 64bc
00000090: 2e3c 043d e239 f83c c8c0 523d 6920 4bba
000000a0: 7e53 823b 32cb b23c ae3e cd3c 512c a83c
000000b0: a826 0d3b adef 353c 7633 43bc 8c17 95bb
000000c0: 5b19 e73c 50bf df3c 6751 bfba 55d4 b43c
000000d0: 7737 113d f677 afbc 11cd b63c 8601 e43b
000000e0: b51d d43c 5180 2abc 6a1d a0bc d69c e83c
000000f0: a29f 0a3d 82bc c3bb d46e 0c3b 3c49 f1ba
00000100: 1b4d b1bc 503b 19bc 2a02 d43c b322 4f3c
00000110: d047 57bc b208 46bc e76f c63c 9597 fa3a
00000120: e6cf 94bc a30a 01bb aaa3 1b3d 6a06 973c
00000130: 54e5 d23c 58a1 8fbb 9a9f 563d 31f3 02bd
00000140: 30ce 2c3d 90a9 473d 6df0 7bbc 677a 153d
00000150: 6c11 a8bc fa08 bc3c 28d4 823b 7ade 87bc
00000160: 85f3 d9bc 1c97 c53c f3f2 4cbc d562 7b3c
00000170: 1617 02bd 94aa 27bb 3851 b9bc 10ef c73c
00000180: 5de3 e93c de6a 9f3c 574f 863c 15b5 8c3c
00000190: 7241 693c 4eb8 ed3c 7a49 12bd f07e b13c
000001a0: b964 103d 43da 313d 7826 093d b431 043a
000001b0: 55a4 f8bb f2fa a43c 0264 1a3d 4141 9a3a
000001c0: 8ee6 9e3c 8e1c dbbc d9d5 143d 46e2 c7bc
000001d0: 8fd1 213d 4876 96bb 7e41 dcbc 8ab5 95bc
000001e0: cfb0 08bb b0c9 82bc 0b45 7cbc b5d9 073d
000001f0: bc47 143d b5db 63bc bd1b 6f3c 48b6 403d
00000200: 64d8 ae3c 21a8 a53b e72b 283d e902 b0bc
00000210: 4f83 e13b 104f e33c 46e7 2cbc 2b75 203d
00000220: d2c4 aebb d0d0 c9bc e0ea dfbc 8d0e 973c
00000230: 46b8 e63c 1279 873a fac7 96bc 01bb ed3c
00000240: 6898 fc3b 0c62 003d 9bc9 8cbb b6e4 043d
00000250: f42d c63b 452e ce3a 6b8f ecbb 41d4 ea3b
00000260: 7ca0 86bc 618e 253d 9e06 cc3c 78ef 773c
00000270: 6639 c43c 3398 353d 13e0 983c 2be4 bebc
00000280: 09f7 033d 563a 9c3b 475a 6abc 2d22 3c3c
00000290: 2aa8 afbc 8906 8fbc 0fbb c2bb 92fc bd3b
000002a0: 2841 fe3c 8318 7cb8 fadd 5e3c 2d9d f2bb
000002b0: 7720 afbc c392 073d 36c9 70ba 09f9 28bc
000002c0: 1331 26bd d260 183d c16c 8ebc b443 053d
000002d0: 7555 7c3c 5e7f 253c 52c8 8f3c 34fc c4bc
000002e0: 9c93 e23c 731e 173b b23b bbba 70da 353d
000002f0: 11e4 063d b6ca 703c 5021 8abc 7a9f b4bc
00000300: 4082 cd3c 3551 433c 86e5 d8bb 0803 a23c
00000310: df45 523d 3f4e 863c 52ce 1bbc 6798 b5bc
00000320: 304a 96bc e184 1c3d 87bc db3c ae3b e43c
00000330: ee6a 3d3d a737 b33c 9334 8abb 50a4 003d
00000340: b38e 02bd 6217 88bc 19b8 86bc e808 773c
00000350: 6d02 283d 74c7 d1bc 7670 90bc 34a1 71bc
00000360: 7f92 dd3b 041b 9c3b 7471 d6bc e53d a0bc
00000370: 08a4 d93c 68db b3bc 4241 dbbc d4ae 1ebc
00000380: 3f8b bc3c 9bab 313c e207 d93c 9c7f 2bbc
00000390: ded3 87bb 82d8 c93c 49df 5dbb 51b5 c33c
000003a0: e8a3 413d 468f a5ba c00f 323d d426 dfbb
000003b0: c19d 003d 57ec fe3c 0a68 44bb e30c de3b
000003c0: 2b8e e1bc dfa3 333b e6f4 1cbc 4015 d8bb
000003d0: 79cc c23c 5fd8 1a3d 153c 82ba 0018 afbc
000003e0: 9eca fb3c 304b 793c 76db 8d3c b36d e8bc
000003f0: ec12 82bc c55a f23c ae19 9c3c b848 d53c
0.012409398 -0.030700121 -0.015271779 0.017529747 -0.00078791264 -0.019072765 -0.003094629 0.0072576688
0.020321345 -0.0036965923 -0.031955667 0.008769797 0.028043438 0.0047094794 -0.02440979 0.02473901
0.045944408 -0.02763145 -0.02755358 0.04293426 0.02038432 0.018717835 0.008017093 0.002848961
0.04591746 0.004456141 0.001462655 0.048518784 -0.017243387 0.04482788 0.043854184 -0.017049389
-0.004324354 -0.0014666499 0.02739643 -0.013954386 0.032283954 0.030301038 0.05145338 -0.0007748665
0.003977238 0.021825407 0.025054302 0.020528944 0.0021537933 0.011104506 -0.011914125 -0.004549926
0.028210333 0.027312905 -0.0014596403 0.022073904 0.035453286 -0.021419507 0.02231458 0.0069581894
0.025893072 -0.01040657 -0.019545276 0.028395098 0.033843644 -0.0059733996 0.0021428363 -0.0018408666
-0.021643212 -0.00935252 0.025879938 0.01264255 -0.01313968 -0.012087034 0.024223281 0.0019118661
-0.01816554 -0.0019690178 0.03799788 0.018435676 0.025744118 -0.0043832473 0.0523983 -0.031970207
0.042188823 0.04874569 -0.015377146 0.036493685 -0.02051612 0.0229535 0.003992576 -0.016585577
-0.026605377 0.024119906 -0.0125090955 0.015343388 -0.031760298 -0.002558385 -0.022621736 0.024405986
0.028550798 0.019460138 0.016395254 0.01717619 0.014236795 0.029018547 -0.035714604 0.021666974
0.035252307 0.04342104 0.033483952 0.0005042807 -0.0075879493 0.020139191 0.03769303 0.0011768715
0.019397046 -0.026747014 0.036336754 -0.024399888 0.03950649 -0.004591737 -0.026886698 -0.018275041
-0.002085734 -0.015965313 -0.0153973205 0.033166606 0.036201224 -0.013907363 0.014594016 0.047048837
0.021343417 0.005055443 0.041057494 -0.021485763 0.0068821083 0.02774766 -0.010553187 0.03917424
-0.0053335214 -0.024635702 -0.027333677 0.018439556 0.02816404 0.0010335764 -0.018405903 0.029019834
0.007708598 0.031343505 -0.004296494 0.03244468 0.0060479585 0.0015730342 -0.007219245 0.007166416
-0.016433947 0.040418986 0.0249055 0.015132777 0.023953151 0.0443346 0.018661534 -0.023302158
0.032218013 0.0047676964 -0.01430375 0.0114827575 -0.021442492 -0.01745917 -0.0059427093 0.005797931
0.031036928 -6.010431e-05 0.013602728 -0.0074039907 -0.021377785 0.033098947 -0.0009185256 -0.010313281
-0.040574145 0.03720171 -0.017385842 0.03253527 0.015401234 0.0101011675 0.017551575 -0.024046041
0.027658276 0.002305892 -0.0014284758 0.04439777 0.032932345 0.014696768 -0.016861588 -0.0220487
0.025086522 0.011921217 -0.006619158 0.019776836 0.051336166 0.016394733 -0.00950964 -0.022167398
-0.018345922 0.03821266 0.026823295 0.027860489 0.046244554 0.021877123 -0.004217693 0.0314067
-0.03187437 -0.016612712 -0.016445206 0.015077807 0.04101794 -0.025607802 -0.01763175 -0.0147479065
0.0067618485 0.0047639627 -0.026177146 -0.019560764 0.026567474 -0.021955207 -0.026764516 -0.009685237
0.023015616 0.010844137 0.026493017 -0.010467436 -0.0041451296 0.024639372 -0.0033855012 0.02389017
0.047275454 -0.00126312 0.04347205 -0.0068100486 0.031400446 0.031118555 -0.0029969239 0.0067764386
-0.027533611 0.0027410907 -0.009579873 -0.00659433 0.02377914 0.037804004 -0.0009936119 -0.021373749
0.030736264 0.01521568 0.017316561 -0.028372621 -0.015878163 0.029584298 0.019055214 0.026035652

action_model._continuous_distribution.log_sigma f4 [1, 3]
00000000: 2fd6 343d 16f5 adbe ad37 bcbd
0.044149574 -0.33976048 -0.09190307

action_model._continuous_distribution.mu.weight f4 [3, 256]
00000000: e350 69bb c28f 8abc ad4b 25bc 50e0 afbc
00000010: dd8a 8bbc 29f4 4cbc d6a0 d6bc d677 6ebd
00000020: cc03 37bd b0b0 68ba f0e7 f2bb d81c 313c
00000030: a2d0 69bc 7444 a0bc e349 f3bc 6743 31bc
00000040: 9cd4 033d 8c25 263c 7aca 04bd 4c36 ab3c
00000050: f61a c3bc d01e 6f3b e731 a6bc 1531 e7bc
00000060: 7c9c fb3c e721 27bd 44c3 3dbc 9dd2 0b3d
00000070: c547 f3bb c427 703c 8285 e43c f1a6 96bb
00000080: b8fb 42bd 2fd8 7a3c 1e9d 063d f347 cfbc
00000090: 0650 e83a 4423 ca3b c6b7 613c 5abc a6bc
000000a0: 5d38 2abd a4ca a63b 1391 803c f456 293d
000000b0: badc bf3b 7d31 a43c 1ed8 49bc 7719 4abc
000000c0: eb50 f93c e2a6 0c3c 4adf 3fbd ee99 47bb
000000d0: c325 243d 6cf7 4dbc 8dfd 43bb f9b3 59bc
000000e0: 40e8 d03c 28a6 8fbc b4a7 f1bb 245f aa3c
000000f0: 5c27 f33c 6d28 91bc 4bfc f5bc ca50 dbbc
00000100: 61b7 e7bc 8ab6 f8bc c50e 6dbc fd85 7b3b
00000110: 850d 04bd b85d bbbc a154 903c 185b 1bbd
00000120: 5797 e13b ddf6 25bc 8de2 183c cb9d e5bc
00000130: 62fe a03c 8205 73bc f00f 4f3d 471c 09bb
00000140: 1b50 9e3c 4384 383c f7e9 e4bc 2857 0f3d
00000150: a4db 963c d183 683b ede8 acbc 3a58 893b
00000160: 029d b6bc 9de1 5ebb e91c bcbc 83a9 c3bb
00000170: 0a1a 3a3a 7de8 96bc f18b d13b 219d 1dbd
00000180: 8b69 193d 35ad 793b abbd c33c 4ba0 95bc
00000190: b1ab 3fbd 252b ca3c c331 5bbc db94 ccbc
000001a0: 9bbf 3e3d f6bc 003d eccb 0d3c 4e50 fdbc
000001b0: 56c8 03bc cb29 723c 80ab 7f3d bd00 223d
000001c0: 7c27 853c b2bb b1bc 7336 3cbc 67b4 883b
000001d0: d830 ddba db83 3dbb 5b9f 3dbc 1626 22bd
000001e0: a154 44bd 6d19 de3b 1dfe 2ebd 8f28 273d
000001f0: 0a1c 0b3d aeda 01bd 8bac 92bc d98b afbb
00000200: 37b1 783c f74c e3bc a84d bb3c c74a 90bc
00000210: 80c7 9cbb 5e1e e03b 9ea1 22bd 4099 b73c
00000220: 6ff9 b5bc 7e12 2fbc a1ff 2cbc 72c9 83b9
00000230: 17e4 c6bc fd69 efbc 9a8b 2cbb f0ec ad3c
00000240: 39c2 ca3c b3e7 3f3d cfa7 1a3c d66b 943b
00000250: c192 3a3c 0fdf 663b a6bf a6ba 3b02 ed3b
00000260: e859 1cbd 375e 133d 7689 adbc 3125 0a3c
00000270: dadb 2ebc aa0f 743c 3f09 3c3a e0c1 9bbb
00000280: be64 de3a 64f8 33bc eae1 1a3c b41c dabb
00000290: 5174 2ebc 3309 e5bc 73a1 17bd 171f c3bc
000002a0: 71dd a23c bf53 003c ce29 34bc b746 68bd
000002b0: 9024 c5bc 8635 5cbc 08b7 903b cc2f 19bd
000002c0: 50c8 f23b b15a 023d 6a0f edbb 9f16 663c
000002d0: 6c7a a6bc 0089 40bd be6e 13bc 0030 4f3a
000002e0: 30f3 b4bc 9205 983b 1800 8ebc 3bf1 613c
000002f0: 44c4 ac3c e58e 26bb f00f 81bb 9899 35bc
00000300: f74c 0d3d 413d e93b 1ccb 89bc c8f7 123d
00000310: 6606 ae3c 4a93 c13b 84ba 873c 9857 883c
00000320: 84d9 5bbc b04b 4a3d e762 733c 9c1e 4f3c
00000330: e0e5 0e3d 3605 a93c 88fb 26bc 4b3d b9bc
00000340: 3167 5fbc cae0 46ba 2436 ccbc 9989 053d
00000350: 3f38 e43b 0e9c 7c38 6fdb c0bc dfc6 fbbc
00000360: f9df 2dbd fbaa 93bc ca2f 863c c608 36bc
00000370: d5d7 6b3d 62ac 8c3c 7b72 dabc 9cfa 0b3d
00000380: 5a40 d23a 8c2f 3f3b a6dd 5cbb 3000 9dbc
00000390: bba2 8f3c 0eef 583c f641 bd3b b312 203b
000003a0: 7edc 923c b176 afbc dd60 89bb 8c54 933a
000003b0: 36ec f13c 7e95 bc3c 331d 23bd 9638 a83c
000003c0: c85f 78bc 456d d7bc a04f 3dbc de7d 02bd
000003d0: bc17 17bd 012c 52bc 6933 c53b 96f5 c1bc
000003e0: 92bb d13c ab25 cbbb a2c9 acbb cb38 2abc
000003f0: d49f a6bc 04fa 323d 402d a93c 940c acbc
-0.003560119 -0.016914252 -0.010088843 -0.021469265 -0.017033989 -0.012509384 -0.02619974 -0.058219753
-0.044681355 -0.0008876426 -0.007412903 0.0108101 -0.014270933 -0.019563891 -0.029698318 -0.010819293
0.032185182 0.010140788 -0.03241966 0.020899914 -0.023816567 0.0036486872 -0.020287467 -0.028221646
0.030714266 -0.040803816 -0.0115821995 0.034136403 -0.007424327 0.014657918 0.027895693 -0.0045975377
-0.04760334 0.015310331 0.032864682 -0.025302863 0.0017724044 0.006168755 0.013776725 -0.020353485
-0.04155766 0.0050900746 0.015694177 0.04134269 0.00585517 0.02004313 -0.012319593 -0.012335173
0.030434093 0.00858471 -0.046843804 -0.003045674 0.040075075 -0.012571197 -0.0029905767 -0.013287538
0.02550137 -0.017535284 -0.007374728 0.02079732 0.029681854 -0.017719472 -0.03002753 -0.026771922
-0.028285684 -0.030360479 -0.014468853 0.0038379424 -0.032239456 -0.022871837 0.01761848 -0.03792867
0.006884496 -0.010129658 0.009331358 -0.028029343 0.01965255 -0.014832856 0.05055231 -0.0020921396
0.019325307 0.011262002 -0.027943594 0.034995228 0.01841528 0.003547896 -0.021107161 0.0041914256
-0.022291664 -0.0034008988 -0.022963004 -0.005971135 0.0007099217 -0.018421406 0.006394856 -0.038479928
0.03745417 0.0038097624 0.023894152 -0.01826491 -0.046794597 0.024678776 -0.013378563 -0.024973324
0.046569448 0.031430207 0.008654576 -0.030922081 -0.008043369 0.014780472 0.062419415 0.039551485
0.01625418 -0.021695945 -0.011487591 0.0041718963 -0.0016875518 -0.0028917703 -0.011573638 -0.039587103
-0.04793227 0.0067779333 -0.04272281 0.040810164 0.033962287 -0.03170269 -0.01790454 -0.0053572473
0.01517897 -0.02774666 0.022864178 -0.017613782 -0.0047845244 0.0068395576 -0.03970491 0.022411942
-0.022213666 -0.010685561 -0.010558994 -0.00025136356 -0.024278684 -0.029225344 -0.0026328326 0.021231145
0.024750816 0.046851825 0.009439423 0.0045294566 0.011387528 0.0035228168 -0.0012721911 0.007232932
-0.03817168 0.035978522 -0.02118371 0.008431719 -0.010672534 0.014896313 0.00071730086 -0.0047533363
0.0016967279 -0.010984514 0.009453276 -0.0066562537 -0.010647849 -0.027958488 -0.037019204 -0.023818536
0.019880982 0.007832467 -0.010996295 -0.056708064 -0.024065286 -0.013440495 0.0044163503 -0.0373991
0.007409133 0.03182477 -0.0072345035 0.014043479 -0.020322047 -0.047005653 -0.008998571 0.0007903576
-0.022088617 0.004639336 -0.01733403 0.013790424 0.02108968 -0.0025414762 -0.0039386675 -0.011083983
0.034497228 0.0071178977 -0.016820483 0.035880834 0.021243285 0.005907451 0.01656843 0.01664333
-0.013418559 0.049388587 0.014855123 0.012641575 0.034887195 0.020632368 -0.010191806 -0.022612235
-0.013635443 -0.0007586597 -0.02492816 0.032601926 0.006964713 6.022682e-05 -0.023542134 -0.030734478
-0.042449925 -0.018025866 0.01638021 -0.01111049 0.05757888 0.017172042 -0.026665917 0.034174547
0.0016040907 0.0029172627 -0.0033701449 -0.019165128 0.01753365 0.013240589 0.0057756854 0.0024425208
0.017927404 -0.021418901 -0.004192455 0.0011240407 0.02953158 0.023020502 -0.03982277 0.020534795
-0.015159555 -0.026297221 -0.011554629 -0.031858318 -0.03688787 -0.012827874 0.0060180915 -0.023676675
0.025602136 -0.0061995587 -0.00527306 -0.010389517 -0.020339884 0.043695465 0.02065146 -0.021002091

action_model._continuous_distribution.mu.bias f4 [3]
00000000: 7f71 5f3c d751 663c 3555 0bbd
0.013637899 0.014057598 -0.034016807

action_model._discrete_distribution.branches.0.weight f4 [1, 256]
00000000: e589 533c 1818 9ebb 4a6d 1c3c 7ae5 da3b
00000010: c1be 9cbb a70b 3c3c 9974 323b 6b99 8d3c
00000020: ad98 203b 612c 273c d54f f23b a205 303b
00000030: 95f2 aabb 52af 3fba 14a4 b03b 4b9b d43b
00000040: 11b5 333b 1922 1cba 576a 483b bf56 533b
00000050: 3736 4a3b 7d28 3d3b 7f2b 2a3b 4b6c 203c
00000060: 866c 02bc 70a0 4e3c e7a0 52bb f572 82ba
00000070: 5bfc 883b 0009 19bc b3cf 4f3b f44e b6bb
00000080: 93e3 ccbb f5bf 9e3a 0e9a 8d3b 5d8f b93a
00000090: 8d5e 9fbb ed6f 1ebc 68d4 f43b dfea a43a
000000a0: e12a 10bc 9397 663b 072b 43bc cf6e 253a
000000b0: f283 e3bb a7ce 50bc 3b9e cbbb 61ce 2c3c
000000c0: f2ef dd3a 384a fa38 5d87 fdba 5d56 f13b
000000d0: d036 d2bb 3161 02b9 4808 9139 7249 f73b
000000e0: b061 043c 6187 37ba c347 573c c5a8 3d3c
000000f0: b77d e53b 8c7b c13a f5ea 22bc f7d7 05bc
00000100: 000a adbc f5d6 cd3b 6c1d 4cbc 9add 073c
00000110: 8a27 dabb f03a f9ba e522 143c e3c4 d33b
00000120: 9f25 9a3b 2f8c de3b 58bc 81bb 2e1c 02bc
00000130: 2f2f 5fbb fa71 6c3c ac45 11bc c76e 82bb
00000140: 63d5 e5b9 e054 ecba 6916 05bc 63e7 2fbc
00000150: 874b 4ebb d946 803c efe0 95bb b6f1 8a3b
00000160: d3ee 853b 07be 94bb 18d7 78ba 3017 01bc
00000170: 5a5a e43b 8065 26bb 38ce 743c 6d52 faba
00000180: 309a ef39 e4df 363a 4d04 f23b f191 4c3c
00000190: 7f9b afbb 03ca 893a 4fc5 423b 876c 8bbc
000001a0: 98c9 d13b e2d8 fd3a 9373 36bc 5a90 9d3a
000001b0: ed24 e6bb e353 00bc b01d 5d3a 3505 423c
000001c0: 82e2 5cbb 03d8 acbb 7a4c c7bb 003e fc3b
000001d0: 33da 553b 2210 c3bb 12a9 5e3b 8b1e f63b
000001e0: 7c45 48bc 0df4 b9bb 7acf 1ebc 77df 763c
000001f0: f221 9dbb c341 013c 3d92 273a 41f0 b93b
00000200: 47bf eb3a a559 dfbb b5d4 31bb de3b 423c
00000210: 265f c33b 591f 413b 55d0 ef3a 10af 47bc
00000220: dace 553a d9ac 173b fb40 1e3c 1e19 84bb
00000230: 8c59 3b3b 3110 013c 9a65 8b3b a379 3bbc
00000240: 24ac ca36 a2de edba 4da4 183b 29ac 0e3b
00000250: c7af 06bc 0a23 6a3a 4007 53bb cb47 103b
00000260: 5385 a0bb 7ab7 f23a 2100 1f3b b43c 90bb
00000270: c774 cb3b bd25 953b fa32 483b e0bd fb3b
00000280: 1fe4 5abb 348c 26bc 10b1 6bba 7641 b5bb
00000290: a521 953b a2e3 753b 6593 6abc 0025 473b
000002a0: 2faf 8c39 0b60 d4bb e2de d6bb 074e c5bb
000002b0: 3f0f 2f3c 638a 233c b7e7 1cbc a19e 0fbc
000002c0: c17a adbb fb6e c93a f1e4 abbb 836d b23b
000002d0: 907c c6bb 5946 3f3c 435f 033c a596 e7bb
000002e0: 544a 153c 5362 0a3c 9219 40bc abe1 95bb
000002f0: 256d bbbb a820 85bb 8048 c8bb e24a 7b3b
00000300: f31f 5a3b 401d cebb c899 0c3c eff2 7a3b
00000310: a34c a93a fded f53b 9809 1cbb b2ac 8e3a
00000320: 9fc1 a3bb a379 5f3a cd91 57bc 84f2 4a3a
00000330: c04c 243b f27c fdba 13ca 0e3c 2aa1 ff3b
00000340: c8b1 feb7 18b2 303c f7ca 12bb 3cdd 08bc
00000350: beb3 a43b 67ce a937 1de6 fe3a a9ef 353c
00000360: be39 9dbb 5fb3 27bc a2f3 aa3b 3bb7 4fbc
00000370: 5b47 74bc 194c 8dbb 2850 fe3a 029f 4dbb
00000380: 97ab b9bb 2625 073b c2a6 5fba cfbf 433c
00000390: ef2f f63b e350 d13b 4380 eb3b 306b eb39
000003a0: 2712 8e3b 41ea b53b 5e34 88bb 7bbf 833b
000003b0: 744f a939 9b8a 7a3a 91fa 13bc 87b3 983a
000003c0: 45e4 d3ba 7277 9c3a f16a 0c3c 0f98 923a
000003d0: 0721 29bb efa6 27ba abec c8ba 5810 8a3b
000003e0: db91 b13b e8e5 df3b 931b ea3b b2ba 7ebb
000003f0: 2f9c 0a3b 3177 813b 9cc7 c2bb 459b 4d37
0.012911295 -0.0048246495 0.009547541 0.006680188 -0.004783482 0.0114773875 0.0027230142 0.01728507
0.0024505064 0.010203452 0.0073947706 0.0026858826 -0.0052169063 -0.00073121965 0.0053906534 0.006488239
0.0027421156 -0.00059560087 0.0030580962 0.003224775 0.0030855068 0.0028863244 0.0025965867 0.009791444
-0.007960444 0.0126114935 -0.0032139362 -0.0009952473 0.0041804737 -0.009340525 0.0031709492 -0.005563611
-0.006252715 0.0012111651 0.0043213433 0.0014157105 -0.0048635663 -0.00967024 0.00747161 0.0012582204
-0.008799286 0.003518556 -0.011912114 0.0006310762 -0.0069432193 -0.012744582 -0.006213931 0.010547251
0.0016932471 0.00011934753 -0.001934271 0.0073650316 -0.0064152256 -0.00012433973 0.00027662725 0.007546597
0.008079931 -0.0007001069 0.013139668 0.011575882 0.007003512 0.0014761551 -0.009943713 -0.008169166
-0.021122932 0.0062817284 -0.012458187 0.00829258 -0.0066575455 -0.0019014757 0.009041523 0.0064626797
0.004704192 0.0067916135 -0.00395922 -0.007941289 -0.0034055223 0.014431471 -0.008866709 -0.003980491
-0.0004383727 -0.0018030666 -0.008123019 -0.010736319 -0.0031478123 0.015658783 -0.0045739333 0.00424024
0.004087308 -0.0045392546 -0.00094925007 -0.0078790635 0.0069687786 -0.0025390089 0.0149417445 -0.0019098051
0.0004570051 0.00069761113 0.0073857666 0.012485967 -0.0053591128 0.0010512475 0.0029719656 -0.017019523
0.0064022057 0.0019367004 -0.0111359535 0.001202117 -0.007023445 -0.0078325 0.0008434905 0.011842062
-0.0033704345 -0.005274774 -0.0060821148 0.0076978207 0.0032631278 -0.005952851 0.0033975285 0.007510965
-0.012223598 -0.005674845 -0.009693021 0.015067927 -0.0047953064 0.007889214 0.00063923356 0.0056743925
0.0017986082 -0.0068161064 -0.002713484 0.011855094 0.0059622703 0.0029468148 0.0018296341 -0.012187734
0.00081561285 0.0023143797 0.009659047 -0.0040313145 0.002858731 0.0078773955 0.004254055 -0.011442575
6.040109e-06 -0.0018148015 0.002329129 0.0021770096 -0.0082206195 0.0008931613 -0.0032200366 0.0022015448
-0.004898706 0.0018517815 0.0024261551 -0.0044017676 0.0062089893 0.004551618 0.0030547963 0.007682547
-0.003340013 -0.010165263 -0.0008990923 -0.005531485 0.00455113 0.0037519713 -0.014317368 0.0030387044
0.00026833403 -0.006481176 -0.0065573314 -0.0060212645 0.010684787 0.009981724 -0.0095767295 -0.008765847
-0.0052941744 0.0015368158 -0.005245798 0.0054451837 -0.0060573295 0.011674487 0.008018318 -0.007067519
0.0091119595 0.008446294 -0.011724846 -0.004574021 -0.005719798 -0.004062731 -0.0061121583 0.0038344194
0.0033283203 -0.006290108 0.008581586 0.0038291772 0.0012916516 0.007505177 -0.002380943 0.0010885207
-0.0049974467 0.00085249 -0.01315732 0.0007741826 0.002507016 -0.0019339605 0.00871517 0.0078011947
-3.0361945e-05 0.010784648 -0.0022398809 -0.008353528 0.0050263098 2.0242484e-05 0.0019447241 0.011104503
-0.004798143 -0.0102356365 0.0052170316 -0.012677963 -0.014909591 -0.00431205 0.001940255 -0.0031375294
-0.005666207 0.0020621507 -0.0008531624 0.011947586 0.0075130383 0.0063878163 0.007186921 0.00044902554
0.00433566 0.005551607 -0.0041566333 0.004020629 0.0003229339 0.0009557397 -0.009031908 0.0011650183
-0.0016166052 0.0011937453 0.008570419 0.0011184233 -0.002580704 -0.00063954195 -0.0015329322 0.004213374
0.0054189987 0.006832827 0.0071444004 -0.0038868603 0.0021150222 0.0039509763 -0.0059442054 1.2255104e-05

onnx::Div_80 f4 [22]
00000000: 87bd db3e a79d 8c3e 4032 c13e 027b 893e
00000010: 4a59 8a3e 2ccf 7c3e 67df 7e3e fe39 843e
00000020: d67c 5f3e 1566 653e b4f4 223e 6228 4c3e
00000030: 12bc ee3d cda8 143e 2692 be3d eac6 133e
00000040: 962e 8e3d c2ec c13d a3cc a23d fd28 cd3d
00000050: fadd 503d 99e8 983d
0.42918035 0.2746403 0.3773365 0.2685166 0.27021247 0.24688405 0.24889909 0.25825495
0.21824965 0.22402222 0.1591366 0.1993728 0.11656965 0.14517517 0.09305219 0.14431348
0.06942479 0.09468986 0.079491876 0.100175835 0.050992943 0.074662395

onnx::Div_83 f4 [11]
00000000: e756 8d3e cf8d 423d b8bd 7c3e 2b8b 973e
00000010: 3509 a33e e7c2 bf3e d090 0e3f a62b 463a
00000020: c9db 383f a62b 463a 2836 2e3f
0.27605364 0.04749852 0.24681747 0.29598364 0.31842962 0.37453386 0.55689716 0.0007559605
0.72210366 0.0007559605 0.68051386
