Assets/BlueCar2fasipt1.onnx (onnx, 350882 bytes, 11 tensors)

network_body.observation_encoder.processors.0.normalizer.running_mean f4 [68]
0.49143147 0.0017677959 0.5067979 0.8822389 0.43282843 0.0012935898 0.565877 0.8843997
0.70583564 0.0013829679 0.29277843 0.7748901 0.5013149 0.0009266397 0.49775854 0.8305753
0.79171175 0.001185031 0.20710135 0.63725054 0.77029824 0.00086163526 0.22884426 0.6791376
0.8655757 0.0011369275 0.13329008 0.5113367 0.89434797 0.0005681373 0.105082095 0.5016765
0.93310404 0.0010338953 0.06586234 0.4004705 0.9414723 0.00036467478 0.058162414 0.39252272
0.9839519 0.00089706044 0.015152154 0.31779146 0.97499144 0.00025806748 0.024754977 0.32220048
0.9959129 0.000776153 0.0032937622 0.27300617 0.9922452 0.00017421186 0.0075834473 0.27944776
0.9983126 0.000677671 0.0009529654 0.24653935 0.99738604 0.00014593548 0.0024506561 0.25605726
0.9991296 0.00062891847 0.00028894466 0.23058589
00000000: e89c fb3e 63b5 e73a 82bd 013f 69da 613f
00000010: b09b dd3e ac8d a93a 51dd 103f 0568 623f
00000020: a5b1 343f b444 b53a 0ee7 953e 335f 463f
00000030: 2c56 003f bde9 723a 35da fe3e 95a0 543f
00000040: 9fad 4a3f 0b53 9b3a 6012 543e da22 233f
00000050: 4432 453f 5ddf 613a 2656 6a3e f6db 2d3f
00000060: 5e96 5d3f f504 953a 327d 083e f6e6 023f
00000070: fdf3 643f 0cef 143a 4835 d73d df6d 003f
00000080: e8df 6e3f c583 873a d6e2 863d 780a cd3e
00000090: 5404 713f d231 bf39 b63b 6e3d bdf8 c83e
000000a0: 46e4 7b3f b528 6b3a bd40 783c 90b5 a23e
000000b0: 0a99 793f 3b4d 8739 f3ca ca3c 76f7 a43e
000000c0: 26f4 7e3f bf76 4b3a 29dc 573b 77c7 8b3e
000000d0: c803 7e3f a4ac 3639 917e f83b c713 8f3e
000000e0: 6a91 7f3f bba5 313a 6dd0 793a d074 7c3e
000000f0: b154 7f3f 4206 1939 309b 203b f019 833e
00000100: f5c6 7f3f 01de 243a 7f7d 9739 b51e 6c3e

network_body.observation_encoder.processors.1.normalizer.running_mean f4 [7]
0.29792467 0.09879245 0.23053706 0.58960396 -0.01469399 0.0 0.0
00000000: 9589 983e b253 ca3d e811 6c3e 49f0 163f
00000010: 10bf 70bc 0000 0000 0000 0000

network_body._body_endoder.seq_layers.0.weight f4 [256, 75]
0.053263824 0.048576377 0.0600927 0.010870233 0.1849386 0.20131475 0.010010575 0.29245603
-0.21669206 -0.2639128 0.09381351 -0.08243125 0.010714248 -0.07419096 -0.08971737 -0.16020049
-0.036669075 0.116217196 -0.09288507 -0.027926615 0.08492556 -0.20659424 0.15423329 -0.009868502
0.04352933 -0.02440553 -0.12325534 -0.023101812 -0.09038502 0.14536932 0.108149126 0.16485965
0.0265905 -0.039413616 0.051843558 0.007925744 0.16543896 0.31092313 -0.13060145 -0.18217291
-0.021189416 0.084568314 -0.12100865 -0.09344424 -0.11524332 -0.16217215 -0.013638067 0.104590304
0.12759522 0.05758015 -0.077862345 0.04725839 0.032253858 -0.2559383 -0.17379194 -0.25067312
0.10286558 -0.0303765 -0.16701442 0.14285885 -0.031156931 0.18949696 -0.14667447 -0.115379654
0.007872734 -0.027079092 -0.052357133 0.083457455 -0.082949825 0.23306552 -0.009859738 0.22512458
-0.12414121 0.021977615 -0.04132634 -0.23319522 0.019165074 -0.056041334 0.27667502 -0.02198053
-0.018175803 0.0016139837 0.041275878 -0.032741178 0.013248057 0.0858308 -0.17884834 -0.036429092
0.05106545 -0.047898788 -0.15394904 0.32871512 0.10490158 0.032930277 0.13196138 -0.12512198
0.043396033 -0.09246639 -0.2146129 -0.21164083 0.15668078 0.10760058 0.16913436 -0.2611295
0.119713075 -0.033245135 -0.020578971 0.18467543 0.041060746 -0.04868163 0.040949553 0.04158263
0.028134104 -0.086789966 -0.21700141 0.2147949 0.0401474 -0.0053348807 -0.05062726 -0.053830344
-0.006659124 0.03644496 0.007159384 0.017191416 -0.035165455 0.07174369 -0.019075943 0.13622434
-0.0020989229 0.11503028 0.18989047 0.15638134 0.039459363 0.15175317 -0.021621848 0.10201044
-0.1527787 0.1298119 0.23174027 -0.0040145805 0.20413066 0.11579872 -0.021633344 0.05858682
0.01695006 -0.24757828 -0.017885998 0.13072596 -0.01299834 0.14964728 -0.04475061 -0.254287
0.012642979 0.13574938 -0.13616508 -0.10451778 0.048956923 -0.1281851 0.0061472775 -0.06801686
0.0148416255 0.024093442 -0.0193184 0.05449198 -0.08938749 -0.024432266 0.17015788 0.013779923
0.16531162 0.033280857 -0.1386261 0.11968222 0.22543037 0.13801548 0.0641939 -0.16400582
0.025595225 -0.055658452 0.012533398 -0.13340276 -0.019146165 0.10411099 0.11255312 0.05860534
-0.08464743 -0.0051046764 -0.08667255 0.10333648 -0.026156813 -0.123204984 -0.26135334 -0.0040375227
-0.15917554 -0.068216346 -0.045737322 -0.072584175 0.0033137277 0.12138931 -0.027317464 0.0070163435
0.1107855 0.19494869 0.011091708 -0.0095646195 0.0067849024 -0.059671033 -0.14224447 0.3424981
0.042311195 0.021891253 0.123138845 0.008814495 -0.08579394 -0.09229356 -0.12965606 0.07204047
0.019406194 -0.018424341 -0.12963852 -0.13681261 -0.05710513 -0.1187202 -0.07449976 -0.050362676
0.11518221 0.092114724 0.14679007 -0.0025948165 0.07767063 0.063650995 -0.03777284 -0.006964066
0.08151958 0.110095926 -0.043304715 0.11983421 -0.048346207 0.13794743 0.08927871 -0.09931308
0.05455495 0.147641 -0.19793057 0.0046266145 -0.09277465 -0.004691431 0.15086849 -0.11241557
-0.09144416 0.2744159 -0.100694954 -0.07189001 0.08883177 -0.11163727 0.078139946 0.026272958
00000000: 2b2b 5a3d 06f8 463d c323 763d 1019 323c
00000010: 8b60 3d3e 7425 4e3e 6503 243c ccbc 953e
00000020: 86e4 5dbe 941f 87be 4c21 c03d b7d1 a8bd
00000030: d08a 2f3c 6ef1 97bd bebd b7bd 990b 24be
00000040: 5032 16bd 4803 ee3d 873a bebd 5bc6 e4bc
00000050: 74ed ad3d 718d 53be 55ef 1d3e 7faf 21bc
00000060: d04b 323d 1bee c7bc 4c6d fcbd 0340 bdbc
00000070: c81b b9bd b2db 143e 4a7d dd3d f8d0 283e
00000080: 52d4 d93c 2c70 21bd e959 543d fbda 013c
00000090: d568 293e 5131 9f3e 63bc 05be 898b 3abe
000000a0: 6d95 adbc 2732 ad3d 62d3 f7bd b25f bfbd
000000b0: b104 ecbd 7510 26be 3372 5fbc 7133 d63d
000000c0: 52a8 023e 2ad9 6b3d 4b76 9fbd 0392 413d
000000d0: 9f1c 043d 580a 83be 84f6 31be 3a58 80be
000000e0: 30ab d23d 23d8 f8bc d405 2bbe 9749 123e
000000f0: d23c ffbc 7e0b 423e d531 16be 2b4c ecbd
00000100: a4fc 003c f9d4 ddbc 6f74 56bd beeb aa3d
00000110: 99e1 a9bd baa8 6e3e bd8a 21bc 0f87 663e
00000120: bf3d febd 660a b43c cf45 29bd baca 6ebe
00000130: 1300 9d3c 998b 65bd 59a8 8d3e 8310 b4bc
00000140: 6ce5 94bc 4e8c d33a e510 293d 9d1b 06bd
00000150: 610e 593c 0fc8 af3d 0524 37be ac36 15bd
00000160: 012a 513d 8531 44bd d1a4 1dbe 594d a83e
00000170: a4d6 d63d e6e1 063d e220 073e fa1f 00be
00000180: 0ac0 313d 055f bdbd 7cc3 5bbe 60b8 58be
00000190: ed70 203e b15d dc3d 8f31 2d3e c4b2 85be
000001a0: 212c f53d 0d2c 08bd 3b95 a8bc 8e1b 3d3e
000001b0: 502f 283d 6466 47bd b8ba 273d 8c52 2a3d
000001c0: 7e79 e63c f0be b1bd 9e35 5ebe 32f3 5b3e
000001d0: 9a71 243d 39d0 aebb 885e 4fbd 357d 5cbd
000001e0: c834 dabb 4f47 153d 4499 ea3b 03d5 8c3c
000001f0: a709 10bd 5bee 923d 2745 9cbc 657e 0b3e
00000200: 158e 09bb ff94 eb3d a672 423e 6e22 203e
00000210: 24a0 213d 2f65 1b3e 4d20 b1bc d9ea d03d
00000220: 0572 1cbe 69ed 043e 524d 6d3e be8c 83bb
00000230: a107 513e e127 ed3d 6938 b1bc bcf8 6f3d
00000240: dada 8a3c 2985 7dbe a885 92bc 07dd 053e
00000250: fdf6 54bc 233d 193e 6a4c 37bd e831 82be
00000260: 7f24 4f3c e301 0b3e dc6e 0bbe 6b0d d6bd
00000270: 0e87 483d f442 03be 1a6f c93b 6c4c 8bbd
00000280: 4a2a 733c 9c5f c53c 9f41 9ebc fb32 5f3d
00000290: ca10 b7bd 2d26 c8bc de3d 2e3e 30c5 613c
000002a0: 7347 293e 8251 083d 00f4 0dbe f41b f53d
000002b0: 38d7 663e ee53 0d3e 1778 833d 24f1 27be
000002c0: 14ad d13c 1efa 63bd e258 4d3c bc9a 08be
000002d0: 6bd8 9cbc 2538 d53d 4082 e63d 270c 703d
000002e0: a25b adbd 2145 a7bb 6181 b1bd 14a2 d33d
000002f0: d046 d6bc e552 fcbd 1bd0 85be 324d 84bb
00000300: eafe 22be 03b5 8bbd 0f57 3bbd 03a7 94bd
00000310: 202b 593b f59a f83d e0c8 dfbc 5be9 e53b
00000320: 82e3 e23d a1a0 473e ffb9 353c ecb4 1cbc
00000330: e353 de3b 9d69 74bd 89a8 11be e95b af3e
00000340: 814e 2d3d 4955 b33c 3830 fc3d ac6a 103c
00000350: bcb4 afbd 6804 bdbd 8fc4 04be f489 933d
00000360: bdf9 9e3c a5ee 96bc f6bf 04be 9b18 0cbe
00000370: 12e7 69bd 9423 f3bd 5593 98bd 1849 4ebd
00000380: a7e4 eb3d a5a6 bc3d 2350 163e cc0d 2abb
00000390: c711 9f3d 745b 823d b2b7 1abd d232 e4bb
000003a0: bdf3 a63d f979 e13d 4960 31bd a36b f53d
000003b0: ac06 46bd 1742 0d3e c2d7 b63d a864 cbbd
000003c0: 0375 5f3d 342f 173e 50ae 4abe db9a 973b
000003d0: a300 bebd 93ba 99bb 457d 1a3e 223a e6bd
000003e0: 1347 bbbd 3e80 8c3e 2839 cebd 123b 93bd
000003f0: 6eed b53d 15a2 e4bd d607 a03d 633a d73c

network_body._body_endoder.seq_layers.0.bias f4 [256]
0.02824686 -0.06609017 -0.046720397 -0.08052583 -0.028552085 0.011468752 -0.0059987735 -0.0116567025
-0.042473212 -0.02845865 -0.059416078 0.0055653993 0.009034543 0.004494697 -0.040353153 -0.049436197
-0.024740098 -0.030744461 0.10445319 -0.02528302 0.02152572 0.019770376 -0.028284024 -0.03064212
0.019141307 -0.06573671 -0.059600282 -0.04248969 -0.0052574766 -0.0228091 0.053652808 -0.040859886
-0.048171032 -0.0097105075 -0.0043158415 -0.0016100138 0.03549071 0.039681394 -0.087762974 0.029804274
0.046771575 0.08217731 -0.016966034 0.008797389 0.043628827 0.06935647 -0.015670532 -0.065147534
0.012012462 0.028790262 0.021368267 -0.10262608 0.03153627 0.0011563753 0.010940995 0.0043693907
-0.007886277 0.028794212 0.011044779 0.07030423 0.051642746 -0.030398807 -0.04977087 -0.03785276
0.025733791 -0.04956382 -0.07898825 0.008530188 -0.04092713 -0.012710479 -0.015792115 0.047264934
0.0058521335 -0.037121985 0.013273342 -0.0024652558 0.014749722 0.038684048 -0.044314705 -0.055803467
0.063393846 0.048000716 -0.03454167 -0.040308274 -0.030402351 -0.015238088 -0.05275723 -0.0951784
-0.0141442 -0.03215969 0.0017653161 -0.04730109 0.018526474 0.028304275 -0.009908226 0.0037118045
0.0018589627 -0.044275723 0.06448327 0.035231724 -0.026446989 0.029179627 -0.048045512 -0.01986262
0.016358592 0.007880313 0.111929595 0.0075155175 0.05980185 -0.018190622 0.0074628987 -0.027879955
-0.015787246 0.06963187 -0.021357127 0.009091418 -0.066101156 0.01833034 0.0063417815 -0.0883736
0.017810807 -0.00401436 -0.038002916 0.016973764 -0.06298536 0.02898267 -0.08843747 -0.012151249
0.009519146 -0.012421803 -0.037911087 -0.05089004 0.0016467471 0.07675507 0.022132866 0.0029799463
-0.052647367 -0.06885103 -0.0128947245 -0.037037347 0.03156296 0.011842183 0.026552953 -0.036393963
-0.04710902 0.01407712 0.017671427 -0.024488714 -0.10206429 0.008703525 -0.085842155 0.03941917
0.023027534 0.024385314 0.036336277 0.026777778 0.04762963 -0.046548262 -0.07201535 0.008302998
-0.0021346693 0.0024894713 -0.0025160506 0.08246679 0.0037327358 0.043354906 0.004624686 -0.08016003
-0.011282171 0.033251274 0.011204204 -0.010822047 0.028504971 -0.06943709 0.0004472637 0.034855515
0.005728633 0.0196603 -0.024746222 -0.050576467 -0.022241814 0.017985007 0.01471434 0.017968865
0.002817578 -0.03534008 -0.00041877868 -0.009018286 -0.04109824 0.011433863 -0.02023878 0.07886317
-0.040433407 0.052721314 -0.0064464877 -0.0037311034 0.008080838 -0.02800177 0.016729912 -0.035681266
-0.050348196 0.011031323 -0.07022734 -0.037554458 0.0063421507 0.040174272 0.036070544 0.013820048
-0.034060482 -0.0012084951 -0.026272932 0.076267466 0.047359224 0.010657449 0.0006722098 0.04463454
-0.0013014042 -0.05825654 0.008001684 0.031173645 -0.0054067792 0.061927162 0.010636513 0.047797788
0.05904365 -0.012047503 0.056140766 -0.056611482 -0.030268556 -0.030456541 0.06330206 -0.0057075154
0.00044064265 -0.0023414353 -0.01803492 0.033169914 -0.0020634907 0.03285337 0.052240893 -0.027968379
0.0238977 0.048095345 0.021862615 -0.0058674635 0.028891152 0.025495628 -0.048402768 -0.02660699
0.029115126 0.02103428 0.030061655 0.026470536 0.026079247 0.0014694991 0.031729046 0.046289634
00000000: f565 e73c 485a 87bd e35d 3fbd baea a4bd
00000010: 10e6 e9bc 6fe7 3b3c 5c91 c4bb c1fb 3ebc
00000020: 64f8 2dbd 1d22 e9bc 465e 73bd f45d b63b
00000030: 9f05 143c 4048 933b 5949 25bd 9c7d 4abd
00000040: bfab cabc cfdb fbbc 8eeb d53d 561e cfbc
00000050: b556 b03c 7cf5 a13c e6b3 e7bc 2f05 fbbc
00000060: 3bce 9c3c f8a0 86bd 6d1f 74bd ab09 2ebd
00000070: e946 acbb 26da babc 0cc3 5b3d b25c 27bd
00000080: fd4e 45bd d218 1fbc e76b 8dbb 1907 d3ba
00000090: b55e 113d f588 223d 13bd b3bd 1828 f43c
000000a0: 8d93 3f3d 944c a83d 5afc 8abc ed22 103c
000000b0: 24b4 323d c40a 8e3d 7d5f 80bc 126c 85bd
000000c0: ebcf 443c 8ed9 eb3c 810c af3c 9f2d d2bd
000000d0: 2d2c 013d 8491 973a dc41 333c 1b2d 8f3b
000000e0: 7135 01bc d7e1 eb3c 29f5 343c aafb 8f3d
000000f0: 5887 533d eb06 f9bc 8adc 4bbd 7f0b 1bbd
00000100: accf d23c 6f03 4bbd 97c4 a1bd 34c2 0b3c
00000110: 35a3 27bd 9d3f 50bc 775e 81bc e098 413d
00000120: 41c3 bf3b 390d 18bd 6e78 593c 2190 21bb
00000130: d1a8 713c 2a73 1e3d 5683 35bd 2d92 64bd
00000140: a2d4 813d 669c 443d 917b 0dbd 4a1a 25bd
00000150: 5a0e f9bc 2ca9 79bc f717 58bd e5ec c2bd
00000160: 13bd 67bc e1b9 03bd 2e62 e73a cabe 41bd
00000170: d5c4 973c 5ede e73c 1d56 22bc bf41 733b
00000180: 70a8 f33a 765a 35bd ce0f 843d 244f 103d
00000190: 5ba7 d8bc 1d0a ef3c 5fcb 44bd efb6 a2bc
000001a0: 7402 863c 6e1c 013c 583b e53d bb44 f63b
000001b0: c9f2 743d 8004 95bc 558b f43b 8164 e4bc
000001c0: 4154 81bc 279b 8e3d 24f5 aebc 2cf4 143c
000001d0: 0b60 87bd 8229 963c b8ce cf3b 38fd b4bd
000001e0: f8e7 913c e48a 83bb f2a8 1bbd 900c 8b3c
000001f0: 78fe 80bd 106d ed3c b41e b5bd 0816 47bc
00000200: 31f6 1b3c d184 4bbc a848 1bbd 1372 50bd
00000210: aad7 d73a c331 9d3d fc4f b53c 344b 433b
00000220: c4a4 57bd c501 8dbd 6544 53bc 79b4 17bd
00000230: 2a48 013d b705 423c 9485 d93c d611 15bd
00000240: 63f5 40bd b9a3 663c abc3 903c 8e9c c8bc
00000250: 1507 d1bd 3b99 0e3c 03ce afbd ff75 213d
00000260: 3da4 bc3c b6c3 c73c 59d5 143d 125d db3c
00000270: 4917 433d 64a9 3ebd c97c 93bd 4c09 083c
00000280: cfe5 0bbb 6626 233b 53e4 24bb 59e4 a83d
00000290: eaa0 743b ea94 313d ae8a 973b f12a a4bd
000002a0: dbd8 38bc 7d32 083d d691 373c f44e 31bc
000002b0: 4283 e93c 0835 8ebd b87e ea39 a8c4 0e3d
000002c0: 42b7 bb3b a30e a13c 97b8 cabc 4529 4fbd
000002d0: 7734 b6bc 4b55 933c 6a14 713c 7133 933c
000002e0: 1da7 383b c2c0 10bd 868f dbb9 6fc1 13bc
000002f0: a156 28bd 1955 3b3c cccb a5bc 0483 a13d
00000300: 809d 25bd 4ef2 573d 0f3d d3bb 8785 74bb
00000310: 7e65 043c f863 e5bc 2b0d 893c 8526 12bd
00000320: e939 4ebd b9bc 343c 5ad3 8fbd b4d2 19bd
00000330: d1d1 cf3b c78d 243d b5be 133d 7c6d 623c
00000340: 0183 0bbd 5e66 9eba 553a d7bc 1e32 9c3d
00000350: bffb 413d 959c 2e3c 3c37 303a b5d2 363d
00000360: e193 aaba 699e 6ebd 7f19 033c df5f ff3c
00000370: 5a2b b1bb 56a7 7d3d c544 2e3c 9dc7 433d
00000380: c1d7 713d e462 45bc dcf3 653d 71e1 67bd
00000390: c3f5 f7bc ff7f f9bc 83a4 813d 1c06 bbbb
000003a0: 0e06 e739 c472 19bb f8bd 93bc 2ddd 073d
000003b0: a13b 07bb 4191 063d 8cfa 553d f11d e5bc
000003c0: 1cc5 c33c a0ff 443d 3a19 b33c da43 c0bb
000003d0: 23ad ec3c 35dc d03c fb41 46bd e7f6 d9bc
000003e0: d882 ee3c 1550 ac3c dc43 f63c bdd8 d83c
000003f0: 25a4 d53c 359c c03a 51f6 013d 339a 3d3d

network_body._body_endoder.seq_layers.2.weight f4 [256, 256]
0.0977129 0.089461684 0.06970036 0.09240037 0.111007534 0.20548776 0.092789225 0.07473494
-0.010244196 0.07018935 0.13124897 0.13709207 -0.077770084 -0.07753248 0.00030655574 -0.1398113
0.0366877 0.10051019 -0.020374795 0.10138997 -0.045360092 -0.12284138 -0.100006156 -0.026832476
-0.107732445 -0.10933811 0.0015473048 -0.11208471 0.11377563 0.004238842 0.2582176 0.06065737
-0.004382441 0.03200997 0.011552622 -0.1059796 0.0680197 0.011009016 -0.060713958 -0.031188913
0.059318405 0.14391886 0.062494352 0.16841128 -0.096368946 -0.08147458 -0.06977939 0.0011433237
-0.08256042 0.0077981567 0.219757 -0.13696358 0.003867095 0.10519057 -0.12806547 0.08606747
0.03978791 0.03496207 0.0010294439 -0.06358777 0.05819863 0.08820338 0.12877326 0.011133285
-0.11516896 0.04379863 -0.024027282 0.0988254 0.03525958 0.008194912 -0.052439086 -0.009049482
0.04642761 0.0006011489 -0.03860751 -0.10972947 -0.084379576 0.013139343 -0.028302904 0.012160743
0.061106246 -0.004871146 0.021040214 -0.06324746 0.050494023 -0.0047803917 0.054183125 -0.03524004
-0.0022105416 -0.01258268 -0.025756892 0.14939086 0.08460561 -0.056474943 0.0147129465 -0.09229701
0.03023964 0.011641071 0.014814376 0.12518388 -0.05059752 0.02291476 -0.0023498756 -0.050368536
0.11686144 -0.008053476 -0.1413522 0.038478874 0.052821048 -0.13972706 -0.10332568 -0.048622184
0.06538087 0.09260711 0.14769451 -0.066069104 -0.06643927 -0.14193435 0.10263655 -0.04853793
0.005774411 0.08466306 -0.04752363 -0.12826149 -0.08364149 0.13135366 -0.06004223 0.08325436
-0.06902986 -0.1993835 0.058133118 -0.10457187 -0.095493674 -0.10192767 0.113306925 0.0074439202
0.009281754 -0.05658663 0.11696005 0.011740567 0.02391301 0.17541616 -0.08510402 0.05576258
-0.051133428 0.070142835 0.08202413 0.06393599 -0.02007441 -0.16666932 -0.07605549 -0.0011388757
0.07676969 0.062121615 -0.13188767 -0.06300649 0.049688548 0.12540613 0.037702836 0.09773177
-0.08273968 -0.04034578 -0.004600094 -0.060699888 0.027436119 -0.1253241 -0.041407026 -0.025576795
0.01113217 0.06951534 -0.11598483 -0.0032165602 0.12666132 -0.11031608 -0.09822825 0.13251187
0.08026606 -0.041076347 -0.03202366 -0.021908673 0.020539531 0.13705155 -0.014642275 -0.026681969
0.13709706 0.16749476 0.020841304 0.0054158387 0.073970765 0.043715507 -0.08780851 0.027812395
0.09386252 -0.11884966 -0.045008898 0.087281674 -0.11528511 0.037048306 -0.11464315 0.010898633
-0.036330085 -0.10964929 -0.031507116 0.04558932 -0.08000255 0.013346801 0.04529774 0.13407038
0.028032944 0.0064511276 0.084206924 -0.05367108 -0.17964044 0.052790884 -0.07679965 0.01425445
0.113318466 0.015364257 0.011154036 -0.08745406 0.10755861 0.053380348 0.018454619 -0.054442544
0.009178814 0.07961865 -0.21853857 0.01935067 0.01893084 0.052911956 0.012210695 0.09683976
-0.06899495 0.08347233 0.044338252 0.22256403 -0.021517862 0.060593918 -0.16105029 -0.05042237
-0.055417415 0.08860121 -0.013427059 -0.025725521 -0.0061711795 0.11603351 -0.09086636 -0.06915218
-0.09044662 0.03168645 0.027417885 -0.06919559 0.06308878 0.10279041 -0.22302368 0.15793766
00000000: b31d c83d b037 b73d 10bf 8e3d 683c bd3d
00000010: eb57 e33d 626b 523e 4708 be3d a20e 993d
00000020: 46d7 27bc 6fbf 8f3d 2166 063e dd61 0c3e
00000030: ec45 9fbd 59c9 9ebd 37b9 a039 b22a 0fbe
00000040: d745 163d 49d8 cd3d 0be9 a6bc 8ba5 cf3d
00000050: 81cb 39bd 4394 fbbd 07d0 ccbd c8cf dbbc
00000060: d4a2 dcbd a9ec dfbd efce ca3a ab8c e5bd
00000070: 3303 e93d fce5 8a3b 1935 843e dd73 783d
00000080: 949a 8fbb e31c 033d 3547 3d3c d50b d9bd
00000090: ea4d 8b3d 295f 343c 33af 78bd e47f ffbc
000000a0: dbf7 723d 775f 133e 14fa 7f3d 0274 2c3e
000000b0: 155d c5bd 25dc a6bd 7fe8 8ebd 94db 953a
000000c0: 7015 a9bd ae87 ff3b fb07 613e 2e40 0cbe
000000d0: 176f 7d3b 276e d73d 9823 03be 2444 b03d
000000e0: a6f8 223d 6334 0f3d 68ee 863a 4e3a 82bd
000000f0: b061 6e3d f9a3 b43d 23dd 033e 6268 363c
00000100: b4dd ebbd 3166 333d ddd4 c4bc f964 ca3d
00000110: 596c 103d f443 063c 5eca 56bd 4744 14bc
00000120: e12a 3e3d 6b96 1d3a e922 1ebd d8b9 e0bd
00000130: 33cf acbd 6646 573c 7edb e7bc da3d 473c
00000140: 8b4a 7a3d 229e 9fbb 875c ac3c e287 81bd
00000150: d2d2 4e3d d5a4 9cbb 20ef 5d3d dc57 10bd
00000160: bcde 10bb 9627 4ebc 1e00 d3bc ebf9 183e
00000170: b545 ad3d 4552 67bd 920e 713c 3706 bdbd
00000180: 1fb9 f73c 31ba 3e3c ffb7 723c 3430 003e
00000190: 583f 4fbd bcb7 bb3c 5f00 1abb 3d4f 4ebd
000001a0: 0d55 ef3d baf2 03bc a2be 10be 069c 1d3d
000001b0: e25a 583d 9c14 0fbe 6a9c d3bd 0e28 47bd
000001c0: 68e6 853d cca8 bd3d 3b3d 173e 3d4f 87bd
000001d0: 5011 88bd 3d57 11be 1d33 d23d b5cf 46bd
000001e0: 4537 bd3b d463 ad3d 23a8 42bd fb56 03be
000001f0: 3b4c abbd 9381 063e d7ee 75bd 4381 aa3d
00000200: 875f 8dbd 302b 4cbe fe1c 6e3d c729 d6bd
00000210: 3092 c3bd 74bf d0bd 760d e83d 21ec f33b
00000220: 7f12 183c 62c7 67bd c088 ef3d 825b 403c
00000230: 37e5 c33c 4ba0 333e 044b aebd 4e67 643d
00000240: 4971 51bd 0ca7 8f3d 44fc a73d dff0 823d
00000250: 1773 a4bc 5dab 2abe fbc2 9bbd 5446 95ba
00000260: 6d39 9d3d 3c73 7e3d 900d 07be 8c09 81bd
00000270: 3886 4b3d 776a 003e 4a6e 1a3d 9827 c83d
00000280: 6c73 a9bd 9e41 25bd 63bc 96bb 72a0 78bd
00000290: b6c1 e03c f654 00be 6a9a 29bd 6d86 d1bc
000002a0: b563 363c 0f5e 8e3d 7489 edbd edcc 52bb
000002b0: 81b3 013e 66ed e1bd e52b c9bd 31b1 073e
000002c0: 8862 a43d ac3f 28bd 3e2b 03bd d179 b3bc
000002d0: 8542 a83c 3e57 0c3e 27e6 6fbc 2594 dabc
000002e0: 2c63 0c3e bf83 2b3e 62bb aa3c 5977 b13b
000002f0: fc7d 973d 080f 333d f3d4 b3bd d2d6 e33c
00000300: fe3a c03d 7367 f3bd 405b 38bd bcc0 b23d
00000310: 9a1a ecbd f7bf 173d 07ca eabd 2e90 323c
00000320: dbce 14bd cf8f e0bd 9b0d 01bd debb 3a3d
00000330: 60d8 a3bd 8aac 5a3c 1f8a 393d bf49 093e
00000340: 58a5 e53c fb63 d33b ae74 ac3d 35d6 5bbd
00000350: aaf3 37be 413b 583d 2349 9dbd 7f8b 693c
00000360: 8313 e83d 5dba 7b3c 6bbf 363c 1d1b b3bd
00000370: b047 dc3d 5aa5 5a3d 242e 973c 25ff 5ebd
00000380: bc62 163c 1a0f a33d 93c8 5fbe 4c85 9e3c
00000390: d914 9b3c 35ba 583d 5e0f 483c ed53 c63d
000003a0: 394d 8dbd 8af3 aa3d 079c 353d d3e7 633e
000003b0: 3a46 b0bc 5431 783d 5eea 24be b087 4ebd
000003c0: 5ffd 62bd 8d74 b53d 2bfd 5bbc 54be d2bc
000003d0: 9b37 cabb faa2 ed3d 2418 babd a89f 8dbd
000003e0: 143c b9bd a7c9 013d 799b e03c 6bb6 8dbd
000003f0: b134 813d c783 d23d 5260 64be 69ba 213e

network_body._body_endoder.seq_layers.2.bias f4 [256]
0.06888692 0.020421792 -0.067451514 -0.07099466 -0.056577653 0.017724177 -0.029470887 0.0026840994
-0.0026253634 -0.087113775 -0.052520607 0.084806055 -0.042006046 0.057485245 -0.086628534 -0.035229962
-0.0033260104 -0.080457605 0.0070534213 -0.032919586 0.039655995 0.009849479 0.01656338 -0.08977506
-0.032883383 0.05642684 -0.054052666 -0.02344066 -0.047293186 0.03688798 -0.050317124 0.058801036
-0.029975062 -0.022932304 -0.013321976 0.04007922 -0.06006126 -0.030418422 0.006994347 -0.011612518
0.02050589 -0.028939502 0.07517628 0.04287427 -0.071803495 -0.07973453 0.008502268 -0.09601347
-0.022074359 0.031132504 0.0428524 -0.07334609 0.067533456 0.055667773 -0.0027027198 -0.019485999
-0.05804717 0.0081309555 0.05869413 -0.020046748 -0.009755213 0.0682264 -0.022854598 -0.034091238
-0.11381691 0.0030607816 -0.03807015 -0.076075174 -0.063967876 -0.061726224 -0.018701164 0.0056830747
-0.06289153 -0.064810835 -0.057014637 -0.035481177 -0.012075097 -0.028113406 0.03556629 -0.047796715
-0.0138400225 -0.034812376 -0.038460582 0.0008097969 -0.0139429215 -0.08483252 -0.013847738 -0.013356416
-5.969748e-05 -0.036372647 0.043501247 0.0071139922 -0.03947146 0.016433941 0.030898454 -0.032301787
0.0061974428 -0.046346653 0.024508726 0.058388494 -0.029473752 -0.041225433 -0.053071957 -0.043031376
0.043905552 0.06646535 0.03413645 -0.04916297 -0.110943764 0.004826453 0.03852751 -0.0014540639
-0.08858185 0.049146604 -0.0007384409 0.064890906 -0.0065166187 0.022882635 -0.047235027 -0.09838096
-0.080206856 -0.05721668 -0.008301372 0.021041892 -0.034909233 -0.009804517 -0.0394908 -0.021462724
-0.02164415 -0.022305757 -0.014257277 -0.009651407 -0.022526484 -0.04374213 -0.008986106 -0.09512572
-0.018047351 -0.030346503 -0.02104597 -0.020064656 -0.107265785 0.019251809 -0.0065326085 0.03689688
-0.046594456 -0.10303339 -0.027556496 0.058058858 -0.045679193 -0.020756962 -0.043551795 0.045195136
0.04061994 -0.0109558 -0.045874175 0.027492449 -0.027565 -0.017927777 -0.08873127 -0.013533294
0.029553274 -0.08147122 -0.08327086 -0.021897772 -0.062081352 -0.050581656 -0.0050912322 -0.05639252
-0.022371612 -0.08363035 -0.06215604 -0.080869116 0.074386396 0.044380605 0.0054708533 -0.01749162
-0.03424899 -0.022777274 0.011701662 -0.061741035 -0.12388596 -0.021803295 -0.030758582 -0.037120685
-0.024430051 -0.06840588 -0.037155274 -0.035483286 -0.04299355 -0.027927373 0.053895395 -0.0046678665
0.0025795652 0.059959453 0.016043868 -0.029554395 -0.041778564 -0.00011906276 0.07230689 0.025186311
-0.071718045 0.05928606 -0.05176244 0.022016356 -0.01439379 -0.009789232 0.013788143 -0.022440493
-0.09719142 0.008948432 -0.028842574 -0.05260236 -0.018977078 -0.08367924 -0.032076064 -0.037464634
0.037805516 0.06620623 0.0011073052 -0.028142871 0.004277999 0.050512183 -0.05858686 -0.0059100203
-0.055373598 -0.030727873 0.044904213 -0.05128469 -0.012445468 -0.008673998 0.03734614 -0.06569816
-0.02636274 -0.042524748 0.0050971503 -0.06336422 -0.062854595 -0.03371322 0.030296464 0.025612189
0.012294148 -0.012565786 -0.035776846 -0.005125371 -0.0082516875 0.0050463616 -0.020861087 0.0068654134
-0.025734112 -0.06521019 -0.085186094 -0.0068278695 0.0064116223 -0.07865119 -0.06479743 -0.017135646
00000000: 9614 8d3d 9a4b a73c 0524 8abd a665 91bd
00000010: f8bd 67bd 4b32 913c ee6c f1bc b7e7 2f3b
00000020: 4a0e 2cbb b568 b2bd d91f 57bd ccae ad3d
00000030: 880e 2cbd a675 6b3d 4d6a b1bd 4b4d 10bd
00000040: 32f9 59bb f5c6 a4bd 6320 e73b b0d6 06bd
00000050: 536e 223d b65f 213c edaf 873c fddb b7bd
00000060: bab0 06bd d51f 673d 5466 5dbd a106 c0bc
00000070: 80b6 41bd da17 173d 5419 4ebd 5bd9 703d
00000080: 438e f5bc 87dc bbbc 6b44 5abc 1c2a 243d
00000090: cc02 76bd 0e30 f9bc d630 e53b 6e42 3ebc
000000a0: f8fb a73c 8912 edbc 06f6 993d ee9c 2f3d
000000b0: b60d 93bd db4b a3bd 194d 0b3c b6a2 c4bd
000000c0: 49d5 b4bc 9809 ff3c 0086 2f3d 7a36 96bd
000000d0: fb4e 8a3d e403 643d 1d20 31bb 1aa1 9fbc
000000e0: dfc2 6dbd b337 053c 4269 703d 1439 a4bc
000000f0: 54d4 1fbc 48ba 8b3d 9139 bbbc 41a3 0bbd
00000100: d718 e9bd 6597 483b 72ef 1bbd 4dcd 9bbd
00000110: 9701 83bd a3d4 7cbd 2f33 99bc 1639 ba3b
00000120: 46cd 80bd 8bbb 84bd 2e88 69bd b654 11bd
00000130: a1d6 45bc 164e e6bc f5ad 113d 7dc6 43bd
00000140: 43c1 62bc 6c97 0ebd d888 1dbd 8d48 543a
00000150: da70 64bc acbc adbd 9fe1 62bc ded4 5abc
00000160: ae63 7ab8 7cfb 14bd 5d2e 323d 7e1c e93b
00000170: d3ac 21bd 79a0 863c c11e fd3c e14e 04bd
00000180: eb13 cb3b fdd5 3dbd 86c6 c83c c628 6f3d
00000190: f072 f1bc 00dc 28bd fb61 59bd ab41 30bd
000001a0: 4fd6 333d fc1e 883d aad2 0b3d 1c5f 49bd
000001b0: 7c36 e3bd 3927 9e3b 06cf 1d3d 4a96 beba
000001c0: 676a b5bd f34d 493d ee93 41ba 86e5 843d
000001d0: 5c89 d5bb 5d74 bb3c 8479 41bd f57b c9bd
000001e0: 7e43 a4bd 0a5c 6abd 7a02 08bc 0c60 ac3c
000001f0: fcfc 0ebd 20a3 20bc 1bc1 21bd 98d2 afbc
00000200: 134f b1bc 90ba b6bc 5b97 69bc ef20 1ebc
00000210: 7689 b8bc f32a 33bd 763a 13bc 46d1 c2bd
00000220: 0ad8 93bc 3b99 f8bc 9968 acbc a25e a4bc
00000230: 2aae dbbd f8b5 9d3c 7e0f d6bb 2f21 173d
00000240: d4d9 3ebd 2c03 d3bd 29be e1bc 20cf 6d3d
00000250: 1b1a 3bbd 810a aabc 5e63 32bd 891e 393d
00000260: 1861 263d f57f 33bc 8fe6 3bbd d837 e13c
00000270: ffcf e1bc 46dd 92bc bdb8 b5bd c0ba 5dbc
00000280: b519 f23c 62da a6bd ea89 aabd f562 b3bc
00000290: 0449 7ebd b62e 4fbd 5ad4 a6bb d8fb 66bd
000002a0: ac44 b7bc 6446 abbd 5597 7ebd b59e a5bd
000002b0: e557 983d 70c8 353d d844 b33b 964a 8fbc
000002c0: ab48 0cbd 6897 babc 54b8 3f3c 2be4 7cbd
000002d0: ecb7 fdbd d39c b2bc 6cf9 fbbc dc0b 18bd
000002e0: 8821 c8bc 6218 8cbd 2130 18bd ec56 11bd
000002f0: 011a 30bd f2c7 e4bc 6bc1 5c3d e7f4 98bb
00000300: ec0d 293b 0b98 753d 6e6e 833c 0f1c f2bc
00000310: 0020 2bbd 55b1 f9b8 a215 943d 8653 ce3c
00000320: e9e0 92bd f1d5 723d da04 54bd a55b b43c
00000330: eed3 6bbc 0463 20bc aae7 613c 20d5 b7bc
00000340: 4c0c c7bd 729c 123c 4347 ecbc 9275 57bd
00000350: d175 9bbc 0560 abbd 3162 03bd 8474 19bd
00000360: f5d9 1a3d 2297 873d ff22 913a e18b e6bc
00000370: 752e 8c3b dde5 4e3d c6f8 6fbd d8a8 c1bb
00000380: 6dcf 62bd 05b9 fbbc 7bed 373d e50f 52bd
00000390: 14e8 4bbc 621d 0ebc 44f8 183d c28c 86bd
000003a0: acf6 d7bc 6e2e 2ebd ff05 a73b 1ac5 81bd
000003b0: e9b9 80bd e016 0abd 4a30 f83c a7d0 d13c
000003c0: 656d 493c bae0 4dbc be8a 12bd baf2 a7bb
000003d0: 1632 07bc f35b a53b dfe4 aabc 43f7 e03b
000003e0: 58d0 d2bc ec8c 85bd 0c76 aebd 52bc dfbb
000003f0: 9618 d23b e013 a1bd 84b4 84bd 0e60 8cbc

action_model._continuous_distribution.log_sigma f4 [1, 3]
-0.13062336 -1.3759996 -0.3030742
00000000: 21c2 05be c120 b0bf 8b2c 9bbe

action_model._continuous_distribution.mu.weight f4 [3, 256]
0.050516907 0.016568732 -0.04892682 -0.075162046 0.018751802 0.017286625 -0.031378355 0.025339648
-0.012307475 -0.022493986 0.00061386894 0.063705616 -0.03995756 0.028200679 -0.020275649 -0.052554317
0.02428231 -0.091979824 0.023198541 -0.044378206 0.015907114 0.028048763 -0.02770585 -0.09029359
0.011071812 0.03770813 -0.12814565 -0.047207654 -0.07273442 0.028841479 0.04352493 0.06232943
-0.0274239 0.003472899 0.026706971 0.011409902 0.007980522 -0.035884026 0.0045924084 0.014867991
0.021411192 -0.01970361 0.07009586 0.04488366 -0.03042974 -0.031246677 0.0034159473 -0.04555905
0.0064296112 0.01887019 0.05202069 -0.011277211 0.036062658 0.008785516 -0.019299641 -0.022178087
-0.033053435 0.017059268 0.03715909 -0.05666036 -0.02680375 0.04101755 -0.048385017 0.041681718
-0.08436806 -0.029445771 -0.018779535 -0.09482754 -0.046509545 -0.045076117 0.03671365 0.013143882
-0.027754178 0.0038863812 -0.015753025 -0.07128401 0.022646736 -0.027404962 0.049153082 -0.03458433
0.0028811046 -0.058904007 -0.008991447 -0.014919267 0.08509921 -0.050579283 -0.030308405 0.01551984
-0.01113089 -0.025831515 0.0149532445 0.03938998 -0.01745153 0.012529258 0.042874858 -0.042417347
0.008147973 -0.04179035 -0.010164218 0.048600506 -0.1141665 -0.02554715 -0.11846053 -0.021629835
0.035642177 0.08018194 0.052538425 0.02143911 -0.08258114 -0.0101325 0.02919528 -0.009020564
-0.020040547 0.04230293 0.014161493 0.05474997 0.030547207 0.040896483 -0.08975559 -0.071440525
-0.0011001364 0.02074375 0.0034442148 0.0008037133 0.046470225 0.017424095 -0.04647036 0.007052369
-0.038416665 0.004334395 0.011158538 -0.042270713 -0.07226359 -0.02738895 -0.025248243 -0.10183073
-0.033888657 -0.00070417655 0.028224785 0.003320217 -0.11231794 -0.03717708 0.025503198 0.0023386294
-0.07287726 -0.08639866 0.020815171 0.038910367 -0.033064406 0.030448493 -0.03582858 0.019150086
0.01398124 0.021756664 -0.044564776 0.013183667 -0.012092032 -0.043662354 -0.089577205 -0.012967478
0.028683564 -0.057965547 -0.021567425 -0.090633415 -0.06009264 -0.010633561 -0.031295154 -0.0059806784
0.000565755 -0.033923503 -0.03561271 -0.07697895 0.04411751 0.042153176 0.01164009 -0.022139942
-0.02817312 -0.009838002 -0.04209877 -0.027847586 -0.09781452 0.044894848 -0.032566376 -0.077993825
-0.011412724 -0.03512523 -0.10390688 -0.11551788 -0.11643418 0.022778578 0.019845396 -0.0030920028
0.025672635 0.06202376 0.007690476 -0.0032842017 -0.029108254 0.024513608 0.06182297 0.0364279
-0.053970903 0.021532366 -0.031006368 0.031686634 -0.040377706 -0.017549433 0.062499356 0.007053891
-0.08986168 0.020202693 -0.043942347 -0.043735757 -0.004689571 -0.07385346 0.0037328685 -0.028677758
0.03950886 0.0074589727 0.039869044 -0.071840696 -0.008676611 0.014727687 -0.013013636 0.020804478
-0.053176325 -0.032644138 0.02532393 -0.061998967 -0.012227745 -0.02813539 0.04053174 -0.10618757
-0.051073406 -0.028249005 -0.047153886 -0.034015935 -0.04557563 -0.009810712 0.011450946 -0.0059147966
0.029117167 -0.018940499 0.053517368 -0.026792087 -0.020381324 0.032521673 -0.0010569977 -0.02034911
0.025587188 -0.03951989 -0.060265157 -0.010283916 0.013834524 -0.07494674 -0.05931911 -0.04459019
00000000: d1ea 4e3d 26bb 873c 7d67 48bd 8fee 99bd
00000010: 619d 993c ae9c 8d3c 9786 00bd 1895 cf3c
00000020: 4ba5 49bc 4f45 b8bc 0cec 203a 1778 823d
00000030: 8aaa 23bd 1c05 e73c 1e19 a6bc 3243 57bd
00000040: b2eb c63c eb5f bcbd de0a be3c ecc5 35bd
00000050: a34f 823c 85c6 e53c 61f7 e2bc d9eb b8bd
00000060: 8c66 353c d773 1a3d 9d38 03be d05c 41bd
00000070: c9f5 94bd f744 ec3c 3247 323d 254d 7f3d
00000080: 16a8 e0bc 9499 633b 94c8 da3c 99f0 3a3c
00000090: bcc0 023c 21fb 12bd ea7b 963b e098 733c
000000a0: 8666 af3c 7769 a1bc 6b8e 8f3d eed7 373d
000000b0: ca47 f9bc 08f9 ffbc 16de 5f3b 209c 3abd
000000c0: 7daf d23b a895 9a3c a613 553d 0dc4 38bc
000000d0: 70b6 133d 20f1 0f3c 481a 9ebc d2ae b5bc
000000e0: 0a63 07bd e1bf 8b3c 2134 183d b214 68bd
000000f0: 8a93 dbbc 0502 283d 5e2f 46bd 73ba 2a3d
00000100: 29c9 acbd 4238 f1bc 8ad7 99bc f134 c2bd
00000110: cb80 3ebd bca1 38bd 0d61 163d 7059 573c
00000120: bb5c e3bc a8b2 7e3b 7d0c 81bc 5afd 91bd
00000130: a685 b93c 5f80 e0bc be54 493d 4ca8 0dbd
00000140: ead0 3c3b 5445 71bd dd50 13bc f16f 74bc
00000150: 7f48 ae3d 392c 4fbd 5549 f8bc ed46 7e3c
00000160: 565e 36bc 9d9c d3bc 74fe 743c 6357 213d
00000170: 83f6 8ebc 8447 4d3c 8c9d 2f3d d0bd 2dbd
00000180: 137f 053c 5c2c 2bbd d287 26bc 5311 473d
00000190: 20d0 e9bd 4248 d1bc 6f9b f2bd 0d31 b1bc
000001a0: 88fd 113d 6e36 a43d 8832 573d 13a1 af3c
000001b0: 4d20 a9bd c902 26bc f12a ef3c fdca 13bc
000001c0: 132c a4bc d645 2d3d 9b05 683c 8141 603d
000001d0: 233e fa3c 1283 273d c7d1 b7bd 694f 92bd
000001e0: 7432 90ba ccee a93c 56b8 613b 49b0 523a
000001f0: 9057 3e3d fabc 8e3c b457 3ebd 8f17 e73b
00000200: cb5a 1dbd 8a07 8e3b 4dd2 363c 0e24 2dbd
00000210: effe 93bd cb5e e0bc 67d5 cebc a18c d0bd
00000220: d5ce 0abd 7d98 38ba aa37 e73c ff97 593b
00000230: f306 e6bd fe46 18bd 15ec d03c b143 193b
00000240: ac40 95bd c8f1 b0bd 9484 aa3c 7a60 1f3d
00000250: 8b6e 07bd 1e6f f93c fdc0 12bd a4e0 9c3c
00000260: 9211 653c 083b b23c 8e89 36bd 4f00 583c
00000270: a81d 46bc 4cd7 32bd 4174 b7bd 8b75 54bc
00000280: cbf9 ea3c 486d 6dbd 2bae b0bc 039e b9bd
00000290: b323 76bd 6338 2ebc 592f 00bd 91f9 c3bb
000002a0: 2d4f 143a 5ff3 0abd a2de 11bd 24a7 9dbd
000002b0: 90b4 343d cfa8 2c3d 13b6 3e3c d35e b5bc
000002c0: 51cb e6bc 922f 21bc c36f 2cbd 9f20 e4bc
000002d0: fb52 c8bd a9e3 373d 5264 05bd 3abb 9fbd
000002e0: 6ffc 3abc 79df 0fbd 21cd d4bd a394 ecbd
000002f0: 0b75 eebd 249a ba3c d092 a23c 33a3 4abb
00000300: 6b4f d23c a00c 7e3d 6300 fc3b c33b 57bb
00000310: 6f74 eebc c3d0 c83c 153a 7d3d 6c35 153d
00000320: 9810 5dbd a564 b03c 1101 febc d8c9 013d
00000330: 1863 25bd d4c3 8fbc 53ff 7f3d 5424 e73b
00000340: 6709 b8bd 1e80 a53c e4fc 33bd 4424 33bd
00000350: f9aa 99bb 7c40 97bd 24a3 743b 9eed eabc
00000360: 0bd4 213d 666a f43b b94d 233d 3721 93bd
00000370: 5828 0ebc 664c 713c 2537 55bc 276e aa3c
00000380: 6bcf 59bd dcb5 05bd 2174 cf3c a1f2 7dbd
00000390: e156 48bc 307c e6bc 9c04 263d de78 d9bd
000003a0: 5932 51bd 756a e7bc 6f24 41bd 4b54 0bbd
000003b0: 83ad 3abd 1cbd 20bc c09c 3b3c e9d0 c1bb
000003c0: 2087 ee3c 1b29 9bbc 0735 5b3d 147b dbbc
000003d0: bcf6 a6bc 7235 053d f58a 8aba 2db3 a6bc
000003e0: 399c d13c 9cdf 21bd 99d8 76bd df7d 28bc
000003f0: 33aa 623c ad7d 99bd 98f8 72bd 34a4 36bd

action_model._continuous_distribution.mu.bias f4 [3]
0.10208731 0.039993573 -0.08162039
00000000: 2713 d13d 4dd0 233d 9728 a7bd

onnx::Div_61 f4 [68]
0.4999255 0.042012233 0.49995312 0.16196878 0.49546772 0.035949852 0.49564138 0.17132309
0.45566702 0.037166093 0.45503882 0.20471929 0.4999999 0.030428506 0.49999502 0.21550664
0.40608203 0.034410503 0.40522683 0.2454421 0.42064512 0.029344998 0.42009127 0.25552264
0.34111032 0.033707764 0.33988437 0.2454127 0.30739164 0.023833752 0.3066605 0.23312218
0.2498453 0.032146033 0.24804245 0.20712641 0.23473918 0.019099532 0.23405313 0.19620068
0.12566641 0.029939536 0.1221607 0.14531948 0.15616626 0.01607142 0.1553786 0.15212071
0.06367071 0.0278551 0.05730072 0.11334749 0.08773728 0.013208967 0.086755 0.115412295
0.040357992 0.026028816 0.030862464 0.09832543 0.05089663 0.01209196 0.049448192 0.09758215
0.030293126 0.02507286 0.017004129 0.09121773
00000000: 3cf6 ff3e 0515 2c3d dbf9 ff3e 25db 253e
00000010: f2ad fd3e 2740 133d b5c4 fd3e 526f 2f3e
00000020: 304d e93e 793b 183d d9fa e83e efa1 513e
00000030: fdff ff3e 3445 f93c 59ff ff3e c6ad 5c3e
00000040: fce9 cf3e 07f2 0c3d e479 cf3e 2d55 7b3e
00000050: cc5e d73e ec64 f03c 3416 d73e ddd3 823e
00000060: 03a6 ae3e 2711 0a3d 5305 ae3e 784d 7b3e
00000070: 7062 9d3e 003f c33c 9b02 9d3e 95b7 6e3e
00000080: 72d7 7f3e 8fab 033d d7fe 7d3e f218 543e
00000090: 785f 703e 9f76 9c3c a0ab 6f3e d5e8 483e
000000a0: b2ae 003e c243 f53c 642f fa3d a1ce 143e
000000b0: 0cea 1f3e 36a8 833c 911b 1f3e 88c5 1b3e
000000c0: ca65 823d 6130 e43c 29b4 6a3d bb22 e83d
000000d0: 9aaf b33d 6c6a 583c 9bac b13d 485d ec3d
000000e0: 6c4e 253d 623a d53c 47d3 fc3c d85e c93d
000000f0: fc78 503d 5b1d 463c 308a 4a3d 26d9 c73d
00000100: 4a29 f83c 9965 cd3c 3e4c 8b3c 5cd0 ba3d

onnx::Div_64 f4 [7]
0.49997658 0.13900004 0.7609443 0.12746054 0.07583834 0.0005701072 0.0005701072
00000000: eefc ff3e 0756 0e3e 3fcd 423f 0485 023e
00000010: 2251 9b3d 3f73 153a 3f73 153a
