Assets/BlueCar.onnx (onnx, 350882 bytes, 11 tensors)

network_body.observation_encoder.processors.0.normalizer.running_mean f4 [68]
0.4089588 0.052191358 0.53884906 0.8442593 0.4498776 0.028055143 0.52206403 0.8487808
0.5338011 0.040387273 0.42580804 0.80526173 0.69730777 0.00708303 0.29560795 0.7506255
0.7746335 0.03560956 0.1897545 0.68644214 0.833402 0.004747023 0.16184959 0.5975184
0.8325042 0.035490684 0.13200384 0.55361557 0.86510885 0.004877541 0.13001277 0.48069817
0.8760659 0.035258014 0.088677205 0.44645837 0.9165212 0.0046147224 0.07886512 0.37599254
0.9237537 0.03577604 0.04046934 0.36211225 0.9625218 0.0040193475 0.033457924 0.29924244
0.95440024 0.037083775 0.008514161 0.30133444 0.9861341 0.0036549221 0.010207559 0.25355852
0.9585202 0.039247364 0.002232645 0.2678348 0.99249583 0.0034617814 0.0040435623 0.23007718
0.95445204 0.044450894 0.00109506 0.24818094
00000000: 0c63 d13e 9bc6 553d 03f2 093f 6121 583f
00000010: 5b56 e63e e6d3 e53c fda5 053f b349 593f
00000020: 30a7 083f 206d 253d 8303 da3e a225 4e3f
00000030: c382 323f c318 e83b ed59 973e fe28 403f
00000040: 624e 463f 54db 113d 014f 423e acba 2f3f
00000050: d559 553f ea8c 9b3b e6bb 253e f7f6 183f
00000060: ff1e 553f ae5e 113d 042c 073e c0b9 0d3f
00000070: c677 5d3f c8d3 9f3b 1122 053e 121e f63e
00000080: db45 603f b56a 103d 659c b53d 3196 e43e
00000090: 22a1 6a3f 1937 973b 0984 a13d 1882 c03e
000000a0: 1f7b 6c3f e689 123d 2ec3 253d c766 b93e
000000b0: d467 763f bbb4 833b 2d0b 093d 4e36 993e
000000c0: 9353 743f 28e5 173d fb7e 0b3c 8248 9a3e
000000d0: 4973 7c3f 6b87 6f3b 9b3d 273c 6cd2 813e
000000e0: 9461 753f d8c1 203d 9151 123b a521 893e
000000f0: 3514 7e3f 0edf 623b dc7f 843b 5a99 6b3e
00000100: f856 743f 2412 363d 1e88 8f3a 2523 7e3e

network_body.observation_encoder.processors.1.normalizer.running_mean f4 [7]
-0.020172805 0.27321282 0.8896226 0.59650636 -0.0059939716 0.3058026 0.26205462
00000000: 7041 a5bc 8de2 8b3e 4fbe 633f a4b4 183f
00000010: 1469 c4bb 2992 9c3e 062c 863e

network_body._body_endoder.seq_layers.0.weight f4 [256, 75]
-0.28800112 -0.06550727 0.13279583 -0.010026203 0.026724601 0.013183771 -0.11646325 0.0811216
-0.08862819 -0.011148032 -0.115268804 -0.07256034 -0.11830083 0.07917288 -0.031009354 -0.03969462
0.051620647 -0.049553815 -0.22562405 -0.062113974 -0.095516734 0.016608957 -0.034692787 -0.053814102
-0.043229185 -0.13741328 -0.046591483 0.048588082 -0.15605247 -0.13638131 0.19431752 0.0031721066
0.12560627 -0.12608935 0.23450293 -0.13591947 -0.24325204 0.12457386 0.02563504 -0.108402796
0.10550078 -0.07861606 -0.15650363 -0.066302374 -0.025723703 -0.050207093 -0.07620139 0.10258653
0.10551573 -0.054345235 -0.064222425 0.08968028 0.11294499 0.060261313 -0.07731133 0.10029538
0.11665454 -0.20073111 -0.16600741 0.061932534 0.17034242 -0.10053363 -0.19226599 0.10807875
0.17973505 -0.029312618 -0.25701097 0.16784813 0.18191135 0.026445473 0.02443575 -0.27072212
0.27975902 -0.14873941 -0.07127055 -0.059336986 0.045961123 0.21536797 -0.047074564 0.16100273
-0.058143504 0.045458987 0.20159043 0.10324542 -0.011478493 0.16019994 -0.1492402 0.06412933
-0.07306946 -0.02300945 0.0079750875 0.022063397 -0.16722946 -0.120902605 0.007289313 -0.021399688
0.20686272 -0.08851918 0.043897133 -0.058857255 -0.031099742 -0.1988803 0.062202632 -0.2875501
0.026216965 -0.15048574 0.016530164 0.01259803 0.031394895 -0.084577106 0.1082717 -0.14085656
-0.00849558 -0.05853076 -0.016181577 0.030883856 -0.082216226 -0.009757606 -0.12257927 0.049329173
0.09198498 0.14599995 -0.08045422 -0.018426517 -0.23302996 0.2084548 -0.10912777 0.03709071
0.053406104 -0.09972979 -0.06564539 0.074103534 -0.045403287 -0.07773353 -0.016745353 -0.009002217
-0.1166757 0.08032129 0.15137608 -0.10429086 -0.013016946 0.00035871132 -0.0038340832 0.22419932
-0.0055065774 -0.00283012 -0.28775048 0.0018637383 -0.02169063 -0.02485162 0.101516195 -0.005609991
0.16704416 -0.07144292 0.040010557 -0.10251413 -0.07277201 0.111134 0.04865294 -0.047723416
-0.013824686 -0.16460328 -0.06992906 -0.057894286 -0.04441102 0.047056574 -0.031922933 0.11699538
0.2193417 0.2845527 -0.05995138 0.1211329 0.03153785 -0.25681302 0.051864732 0.03686374
0.1936288 0.25236148 0.11487687 0.052876864 -0.08516595 0.06451599 0.22984472 -0.07287421
0.07730566 0.09763767 0.036834758 -0.19711517 -0.0668618 -0.044933137 -0.20154622 0.008981125
-0.014298972 -0.052452628 0.15541291 0.072552264 0.11392707 0.09260706 0.1369206 -0.07490652
-0.070060484 0.24841113 0.08423344 -0.073072374 0.06004359 0.14917551 -0.11783654 0.115102656
-0.028685356 -0.03364027 0.18857282 -0.032553826 -0.111680344 0.033705223 0.018408118 0.08884324
-0.14816515 -0.23301105 -0.06335911 0.20271629 0.3320212 -0.028054617 -0.099692546 -0.03991959
0.122421674 0.1365495 -0.06387277 0.16288464 -0.01359791 0.050080303 0.033587307 0.22425649
0.098779365 -0.19990304 0.257634 -0.03734744 0.084019996 -0.072628275 0.115281984 -0.16770433
-0.016748225 -0.101791255 -0.011519982 -0.021582797 -0.003478144 -0.086677164 0.014277191 -0.08875008
-0.039153095 -0.1703918 0.20410569 0.060031712 -0.1326295 0.023048941 0.044993553 -0.17811708
00000000: e274 93be ad28 86bd a1fb 073e f144 24bc
00000010: 8ded da3c be00 583c 4984 eebd 1523 a63d
00000020: b282 b5bd 3ca6 36bc 0d12 ecbd 849a 94bd
00000030: b547 f2bd 6425 a23d 5407 febc d396 22bd
00000040: 2c70 533d f1f8 4abd fe09 67be 396b 7ebd
00000050: 479e c3bd 820f 883c 061a 0ebd 2d6c 5cbd
00000060: 1611 31bd 11b6 0cbe b6d6 3ebd 4c04 473d
00000070: 38cc 1fbe 8ba7 0bbe 2cfb 463e 1ee3 4f3b
00000080: ee9e 003e 911d 01be 8921 703e 792e 0bbe
00000090: 1017 79be 9420 ff3d 9300 d23c 4902 debd
000000a0: cb10 d83d 7501 a1bd 7d42 20be 8ac9 87bd
000000b0: 84ba d2bc f4a5 4dbd 790f 9cbd e318 d23d
000000c0: a218 d83d 1c99 5ebd 0c87 83bd 4baa b73d
000000d0: b44f e73d 91d4 763d 6755 9ebd aa67 cd3d
000000e0: 93e8 ee3d 758c 4dbe d9fd 29be f8ac 7d3d
000000f0: 3e6e 2e3e 93e4 cdbd 60e1 44be 6458 dd3d
00000100: 770c 383e 0421 f0bc f196 83be 61e0 2b3e
00000110: f846 3a3e 2da4 d83c 7b2d c83c 179c 8abe
00000120: 933c 8f3e 254f 18be 4bf6 91bd 570b 73bd
00000130: bb41 3c3d 6c89 5c3e 42d1 40bd e6dd 243e
00000140: e227 6ebd 3433 3a3d b96d 4e3e 5672 d33d
00000150: 4a10 3cbc 740b 243e 6cd2 18be 3d56 833d
00000160: 71a5 95bd 507e bcbc f1a9 023c 4cbe b43c
00000170: 333e 2bbe c99b f7bd 30db ee3b 664e afbc
00000180: d2d3 533e 8b49 b5bd 7bcd 333d 4e14 71bd
00000190: e3c4 febc 47a7 4bbe 30c8 7e3d c439 93be
000001a0: f6c4 d63c ef18 1abe 446a 873c f867 4e3c
000001b0: ef97 003d c336 adbd 8ebd dd3d b43c 10be
000001c0: 0c31 0bbc f3bd 6fbd 3a8f 84bc 2400 fd3c
000001d0: fb60 a8bd 5ede 1fbc d70a fbbd 630d 4a3d
000001e0: 9f62 bc3d 0381 153e 2fc5 a4bd 35f3 96bc
000001f0: 689f 6ebe 2d75 553e 617e dfbd 6eec 173d
00000200: 5cc0 5a3d 223f ccbd 1771 86bd 98c3 973d
00000210: ccf8 39bd c232 9fbd 8d2d 89bc 097e 13bc
00000220: abf3 eebd 7d7f a43d 5502 1b3e 7296 d5bd
00000230: 0745 55bc 6b11 bc39 3e45 7bbb 8294 653e
00000240: 8570 b4bb 8979 39bb 0854 93be ae48 f43a
00000250: 8cb0 b1bc a095 cbbc b9e7 cf3d 04d4 b7bb
00000260: a00d 2b3e aa50 92bd 1ce2 233d eef2 d1bd
00000270: 7e09 95bd 399a e33d 4e48 473d a179 43bd
00000280: f080 62bc c38d 28be f836 8fbd 8f22 6dbd
00000290: 54e8 35bd 65be 403d 9fc1 02bd 469b ef3d
000002a0: 1c9b 603e e4b0 913e 948f 75bd 8714 f83d
000002b0: d52d 013d ff7c 83be 1d70 543d 6ffe 163d
000002c0: a146 463e 8635 813e 9044 eb3d 6995 583d
000002d0: 7c6b aebd f620 843d 6a5c 6b3e 133f 95bd
000002e0: 6e52 9e3d 42f6 c73d 0be0 163d 8fd8 49be
000002f0: d7ee 88bd cf0b 38bd 2262 4ebe 9225 133c
00000300: 3c46 6abc 91d8 56bd 9024 1f3e 4896 943d
00000310: 9852 e93d c5a8 bd3d ea34 0c3e 9768 99bd
00000320: df7b 8fbd 7d5f 7e3e 9582 ac3d f8a6 95bd
00000330: 44f0 753d 77c1 183e 4954 f1bd f1ba eb3d
00000340: 8dfd eabc 61ca 09bd 3c19 413e 2957 05bd
00000350: aab8 e4bd 7d0e 0a3d 9fcc 963c 72f3 b53d
00000360: 9bb8 17be 739a 6ebe 6cc2 81bd dc94 4f3e
00000370: affe a93e ccd2 e5bc 9b2b ccbd b982 23bd
00000380: 37b8 fa3d a2d3 0b3e bacf 82bd 3bcb 263e
00000390: c5c9 5ebc 0121 4d3d d892 093d 7ea3 653e
000003a0: d64c ca3d 62b3 4cbe 9be8 833e a1f9 18bd
000003b0: ad12 ac3d 22be 94bd f618 ec3d afba 2bbe
000003c0: 9333 89bc ef77 d0bd 4ebe 3cbc 68ce b0bc
000003d0: 93f1 63bb cc83 b1bd e1ea 693c 9ac2 b5bd
000003e0: ff5e 20bd 307b 2ebe 1501 513e d0e3 753d
000003f0: 07d0 07be 22d1 bc3c 294b 383d 5364 36be

network_body._body_endoder.seq_layers.0.bias f4 [256]
0.06366625 -0.055853378 0.03194865 -0.0056500616 -0.050639026 -0.005606622 0.017473271 0.053667467
0.10692584 -0.08813314 -0.007832037 0.050142515 -0.040058173 0.042822536 -0.04656349 -0.018598812
-0.010393159 0.008683969 -0.071184486 -0.031005917 -0.03477891 0.00073391205 0.0005092352 0.0003322714
-0.05681784 0.0560983 0.005050949 -0.054272644 -0.026288755 -0.0060078567 -0.040270507 0.006220187
0.023009807 0.04034362 -0.054107305 -0.058276303 -0.0042190407 -0.023264298 0.04272624 0.052024223
-0.035122897 -0.08914436 0.044440407 0.038013317 -0.041790877 0.018681409 -0.052446224 0.021355135
-0.012999569 -0.084143 -0.036121745 -0.020271147 -0.040732864 0.0135489525 -0.07965813 0.04788087
0.035997875 -0.021290831 -0.0223182 -0.031253092 -0.008259088 -3.225443e-05 -0.0067926673 0.016498204
0.019241186 0.011618515 0.05245524 0.0004096259 0.015109426 -0.040867724 0.06233715 -0.013335178
-0.010422275 -0.00081345707 -0.0014533878 0.014866939 0.06086719 -0.03094656 0.013804223 0.020768015
0.03611924 -0.039340887 -0.0076394496 0.017952725 -0.026005922 -0.0005548353 0.047517788 0.028165378
-0.0120797055 0.0075875376 0.02022946 0.0059758388 0.006440897 0.010709369 0.015465031 -0.02138504
-0.032532137 -0.028059585 0.019235726 0.062391073 0.011701535 0.005328231 0.051369756 -0.030463908
-0.0017892478 0.02453551 -0.03151349 0.0014842126 0.008065194 -0.009110596 -0.01865418 -0.013510537
-0.028752223 -0.0035189982 -0.019190216 -0.032142635 0.027708974 -0.016409718 -0.044031028 0.0034735764
0.040899314 0.036372762 0.0024438705 0.013746809 0.05479513 -0.019557029 0.018437406 -0.03145212
0.048828337 0.06744308 0.04560361 -0.030077357 -0.009537971 0.086649135 0.02203674 0.050267782
0.036600843 -0.0066778106 0.005286316 -0.014502952 0.023580978 0.0013853972 0.000108089676 0.0016022483
-0.059567515 0.00562288 -0.05908247 0.0043210452 0.00012890581 0.02606205 -0.03423009 -0.03936293
0.037031475 -0.013298701 -0.019898986 -0.02675726 0.017806169 -0.008995404 0.020596035 -0.017209304
0.008826494 0.037258215 -0.0026491468 0.016730499 0.010056984 0.07249598 -0.0522591 0.017706668
0.047350388 0.0066714846 -0.04959004 -0.038495287 0.0066805 -0.05586078 0.011835719 -0.019079287
-0.032070123 0.034731284 0.024226695 -0.02214416 -0.010073367 -0.04888456 -0.021771656 0.06553333
0.021364627 0.0034994478 0.021517199 0.027097136 0.05380282 -0.028249739 0.008551721 0.08718095
0.0071543916 0.023813004 0.03717421 0.04130091 -0.011609983 0.0060380124 0.012081369 0.01992895
-0.009833507 0.003134221 0.030332107 -0.038682975 0.07731918 0.009379752 0.020404954 0.022116665
-0.020417977 -0.0049763783 0.001471552 -0.04498189 -0.08384437 0.021476885 0.020844698 -0.03448182
-0.027362112 -0.015005859 -0.012565734 0.026499154 -0.032065947 0.05385243 -0.10096038 0.016786134
-0.021782959 -0.048379418 0.0159969 0.085763566 -0.043688707 0.0465901 -0.0010902307 -0.017582046
-0.021655614 -0.026393985 -0.02516712 -0.035089802 -0.023370767 -0.03141237 -0.00042452602 0.0373619
0.010947736 -0.05595269 -0.03951411 -0.043652084 -0.051933307 -0.034526855 -0.02378127 0.007007524
0.013342362 -0.0066754017 -0.022206718 -0.023679638 0.007126585 0.049977984 -0.036785576 0.012142549
00000000: 7363 823d 83c6 64bd 96dc 023d 2724 b9bb
00000010: de6a 4fbd c1b7 b7bb 1b24 8f3c 6bd2 5b3d
00000020: effb da3d 267f b4bd f251 00bc 3d62 4d3d
00000030: 0a14 24bd af66 2f3d 5cb9 3ebd 895c 98bc
00000040: 1248 2abc 3547 0e3c 2cc9 91bd 1f00 febc
00000050: 5574 0ebd 0164 403a 327e 053a b634 ae39
00000060: d3b9 68bd 55c7 653d 6e82 a53b fe4c 5ebd
00000070: 845b d7bc 8edd c4bb b0f2 24bd b6d2 cb3b
00000080: 107f bc3c 5a3f 253d 9f9f 5dbd 22b3 6ebd
00000090: e13f 8abb c594 bebc b601 2f3d 5a17 553d
000000a0: 07dd 0fbd 5191 b6bd 2507 363d dab3 1b3d
000000b0: e92c 2bbd c109 993c dad1 56bd f7f0 ae3c
000000c0: 25fc 54bc 2a53 acbd 65f4 13bd ad0f a6bc
000000d0: 81d7 26bd 6dfc 5d3c cd23 a3bd bb1e 443d
000000e0: 8272 133d 1c6a aebc a8d4 b6bc 3e03 00bd
000000f0: 2051 07bc ee48 07b8 0695 debb 3e27 873c
00000100: b19f 9d3c 955b 3e3c 4edb 563d 0fc3 d639
00000110: 878d 773c ea64 27bd 3d55 7f3d ca7b 5abc
00000120: 31c2 2abc 2e3e 55ba 9a7f beba 7694 733c
00000130: e04f 793d a483 fdbc 1c2b 623c af21 aa3c
00000140: c5f1 133d e923 21bd 5954 fabb 9811 933c
00000150: 5f0a d5bc 5e72 11ba 03a2 423d 14bb e63c
00000160: f5e9 45bc e1a0 f83b 41b8 a53c f8d0 c33b
00000170: 290e d33b 5976 2f3c 0b61 7d3c ae2f afbc
00000180: 6b40 05bd 37dd e5bc 3e94 9d3c c88d 7f3d
00000190: ccb7 3f3c 7198 ae3b 1869 523d 728f f9bc
000001a0: 3285 eaba b2fe c83c 4a14 01bd e989 c23a
000001b0: e023 043c 9c44 15bc a7d0 98bc 4d5b 5dbc
000001c0: c889 ebbc fe9e 66bb cd34 9dbc ffa7 03bd
000001d0: eefd e23c ac6d 86bc e159 34bd f1a4 633b
000001e0: 0a86 273d 9bfb 143d 5829 203b 4c3a 613c
000001f0: dc70 603d 1036 a0bc 0b0a 973c f0d3 00bd
00000200: 3900 483d 991f 8a3d daca 3a3d ca64 f6bc
00000210: 2645 1cbc 1a75 b13d 6586 b43c 97e5 4d3d
00000220: c4ea 153d 89d1 dabb d538 ad3b ca9d 6dbc
00000230: e52c c13c 3796 b53a 34ae e238 8802 d23a
00000240: 11fd 73bd 2340 b83b 7600 72bd 8e97 8d3b
00000250: e42a 0739 1580 d53c da34 0cbd 063b 21bd
00000260: 51ae 173d cbe2 59bc 3303 a3bc 0b32 dbbc
00000270: 3ede 913c 7561 13bc 04b9 a83c 87fa 8cbc
00000280: 009d 103c 129c 183d 4f9d 2dbb 660e 893c
00000290: 0cc6 243c c678 943d a30d 56bd 930d 913c
000002a0: 7bf2 413d 789c da3b ed1e 4bbd 3cad 1dbd
000002b0: 19e8 da3b 46ce 64bd 9bea 413c 2a4c 9cbc
000002c0: f65b 03bd 6442 0e3d 1077 c63c ab67 b5bc
000002d0: c30a 25bc 2d3b 48bd 795a b2bc 5736 863d
000002e0: df04 af3c fe56 653b d644 b03c d0fa dd3c
000002f0: 5960 5c3d ff6b e7bc 851c 0c3c ed8b b23d
00000300: 636f ea3b 7d13 c33c fc43 183d 252b 293d
00000310: cc37 3ebc 85da c53b eff0 453c 0a42 a33c
00000320: b81c 21bc 8167 4d3b 0a7b f83c 0a72 1ebd
00000330: 8559 9e3d 88ad 193c 4a28 a73c 022e b53c
00000340: 9a43 a7bc e310 a3bb 17e1 c03a ee3e 38bd
00000350: 99b6 abbd 4bf0 af3c 80c2 aa3c cf3c 0dbd
00000360: 8226 e0bc 22db 75bc 82e0 4dbc c114 d93c
00000370: 9557 03bd 5e94 5c3d 51c4 cebd 1383 893c
00000380: 2d72 b2bc 7f29 46bd ee0b 833c cfa4 af3d
00000390: eef2 32bd 43d5 3e3d 12e6 8eba 3908 90bc
000003a0: 1d67 b1bc 3338 d8bc 472b cebc 53ba 0fbd
000003b0: 0d74 bfbc 42aa 00bd eb92 deb9 cb08 193d
000003c0: 225e 333c a62e 65bd 8cd9 21bd 87cc 32bd
000003d0: 05b8 54bd 086c 0dbd f0d0 c2bc 5f9f e53b
000003e0: ec99 5a3c 54bd dabb ddea b5bc cdfb c1bc
000003f0: 2186 e93b b7b5 4c3d 79ac 16bd 8bf1 463c

network_body._body_endoder.seq_layers.2.weight f4 [256, 256]
-0.021354333 -0.010793244 -0.09767017 0.09424222 0.06980832 -0.08037727 -0.07308545 0.03582472
0.05121886 0.064936 0.027582977 0.0039589596 -0.012939397 0.06649012 -0.07700708 -0.06329979
-0.059974205 0.09483883 -0.02778885 0.0050764335 -0.004248179 -0.026275454 -0.042580616 -0.010712206
-0.06209857 -0.14571404 0.054960728 -0.024580501 -0.013183787 0.012306766 0.014974398 -0.010109521
0.0071506477 0.02659594 -0.034205034 -0.008867788 0.11154131 0.025960136 -0.08122234 -0.07734951
0.01100917 -0.09741686 0.018496776 -0.008664659 0.014102405 0.053413123 -0.085990205 0.044505462
-0.07163197 -0.046846054 0.01465166 -0.02841089 0.08634263 0.02344728 -0.06787822 -0.06222832
-0.018469084 -0.06022666 0.059590377 0.058896173 -0.041043933 -0.09344661 0.017980162 0.033773288
0.020538405 -0.03019838 -0.061744068 -0.05947331 0.07516921 -0.006482375 -0.028455624 0.14369667
-0.012678742 -0.13518313 0.031891294 0.020446343 0.0052256323 -0.12994024 -0.06771851 -0.002741585
-0.003734908 -0.10489057 -0.032953642 -0.0623881 0.027881872 0.12517408 0.04554554 -0.031023623
0.06910536 0.05774212 0.10326727 -0.100625776 -0.02468748 -0.0023264645 -0.008182828 0.021810755
-0.14457819 0.03555168 -0.0544667 0.008773343 -0.038034957 0.020963022 -0.051489286 0.0935888
-0.027357198 0.046761934 -0.041189097 -0.027762515 0.03646438 0.010814144 -0.035329275 0.08518494
0.100927904 -0.0017692171 0.06087539 0.06682736 -0.1706128 0.03824985 -0.019873878 -0.036948636
-0.01147699 -0.066679314 0.049291674 -0.07528911 0.015959827 0.035303686 0.021076238 -0.034750886
-0.08375466 -0.09801329 0.06026643 -0.04345484 0.06550829 -0.036332812 -0.014839997 0.07042391
-0.03752915 -0.057499856 0.028442664 -0.10135469 0.016550317 -0.0015963988 -0.073775046 0.08502253
-0.025130842 0.00080879603 0.10009584 0.013331012 -0.013550366 0.011771144 0.022838725 -0.00013891312
-0.052532174 0.014912588 0.022756968 -0.036155943 -0.042841163 0.0018471123 0.033222064 -0.03984424
-0.047826383 -0.120900966 0.10286542 0.055919103 -0.053588852 -0.022741525 -0.00689529 0.013678496
0.09748667 -0.06409408 -0.012191711 -0.022631528 -0.017846012 -0.0498844 -0.0023875642 0.10234054
0.046851672 -0.036307327 -0.010278631 0.006728577 0.03967628 -0.118074395 0.0635674 -0.02676232
0.0653359 0.059741125 -0.07429835 -0.024205523 0.012751906 -0.042046662 0.007885096 -0.014423175
0.046541575 -0.026564393 -0.04869946 -0.00066612015 -0.076601475 -0.062656924 -0.041233636 0.068722695
-0.065877266 0.045495275 -0.00805696 -0.07058329 -0.050428532 0.042163316 -0.018683372 -0.10276128
0.042762265 -0.025078736 0.11315523 -0.045700066 0.08283098 -0.038787257 0.0003885403 0.014888927
0.016232273 -0.011157717 -0.012390679 -0.05518312 -0.13517357 -0.06315555 -0.022301255 -0.09573358
-0.10748581 0.13763502 0.13222806 -0.15158276 -0.011143891 0.017762303 -0.09034047 0.031231724
-0.09838766 -0.047719095 -0.078583345 -0.10423667 -0.072798915 -0.074808635 0.0032782343 -0.070558354
0.032338828 -0.03389438 -0.087071024 0.062972814 -0.0051252 -0.033331256 0.09802696 0.01615641
-0.067824796 -0.033991635 0.002827906 -0.06533211 0.013705573 -0.042932127 -0.026623638 0.17763431
00000000: 48ef aebc 25d6 30bc 4c07 c8bd 1102 c13d
00000010: aaf7 8e3d d79c a4bd d3ad 95bd f1bc 123d
00000020: deca 513d 2afd 843d b2f5 e13c 29ba 813b
00000030: c4ff 53bc f92b 883d e3b5 9dbd 52a3 81bd
00000040: 83a7 75bd dc3a c23d 71a5 e3bc 3658 a63b
00000050: 4f34 8bbb 9f3f d7bc 0369 2ebd 4082 2fbc
00000060: 125b 7ebd 1036 15be 801e 613d 0c5d c9bc
00000070: d000 58bc 51a2 493c 2d57 753c 68a2 25bc
00000080: fb4f ea3b bbdf d93c 941a 0cbd 334a 11bc
00000090: c56f e43d 5aaa d43c e657 a6bd 6b69 9ebd
000000a0: ce5f 343c 7e82 c7bd 8d86 973c 37f6 0dbc
000000b0: c60d 673c b8c7 5a3d a21b b0bd 5c4b 363d
000000c0: c8b3 92bd a6e1 3fbd 840d 703c f4bd e8bc
000000d0: 68d4 b03d 8314 c03c bc03 8bbd 1fe3 7ebd
000000e0: 7a4c 97bc 3bb0 76bd 0a15 743d 1d3d 713d
000000f0: af1d 28bd f060 bfbd 224b 933c dc55 0a3d
00000100: 2840 a83c 9862 f7bc 59e7 7cbd 499a 73bd
00000110: 51f2 993d 1a6a d4bb c51b e9bc 3825 133e
00000120: 80ba 4fbc 726d 0abe 72a0 023d 177f a73c
00000130: c83b ab3b 0e0f 05be 01b0 8abd 2aac 33bb
00000140: 5cc5 74bb ded0 d6bd 66fa 06bd aa8a 7fbd
00000150: 8668 e43c a22d 003e f68d 3a3d 4125 febc
00000160: 1c87 8d3d 0083 6c3d ca7d d33d e314 cebd
00000170: 663d cabc 9977 18bb 4511 06bc 78ac b23c
00000180: 4e0c 14be a39e 113d 7918 5fbd 11be 0f3c
00000190: 8bca 1bbd a5ba ab3c 6ee6 52bd 7cab bf3d
000001a0: 341c e0bc 7189 3f3d e6b5 28bd 376e e3bc
000001b0: ac5b 153d cf2d 313c 6eb5 10bd 7175 ae3d
000001c0: 4ab3 ce3d 13e5 e7ba 7958 793d c8dc 883d
000001d0: 1fb5 2ebe e0ab 1c3d 8bce a2bc 7457 17bd
000001e0: fc09 3cbc 2a8f 88bd 11e6 493d 2d31 9abd
000001f0: 2fbe 823c 999a 103d 13a8 ac3c f256 0ebd
00000200: 9087 abbd 31bb c8bd efd9 763d b4fd 31bd
00000210: 3629 863d b7d1 14bd 7523 73bc 693a 903d
00000220: 2ab8 19bd f884 6bbd 9700 e93c 0c93 cfbd
00000230: 8894 873c 413e d1ba 5f17 97bd 4b20 ae3d
00000240: 32df cdbc 6205 543a 0cff cc3d 516a 5a3c
00000250: 5b02 5ebc c2db 403c 4718 bb3c 35a9 11b9
00000260: fa2b 57bd ed53 743c d26c ba3c 4118 14bd
00000270: 377a 2fbd ce1a f23a dc13 083d b733 23bd
00000280: 99e5 43bd ed9a f7bd 1bab d23d 6e0b 653d
00000290: fc7f 5bbd 6f4c babc e3f1 e1bb c51b 603c
000002a0: 17a7 c73d c243 83bd bebf 47bc c165 b9bc
000002b0: cd31 92bc 9653 4cbd ae78 1cbb eb97 d13d
000002c0: 8ae7 3f3d feb6 14bd b467 28bc 657b dc3b
000002d0: 9883 223d fdd0 f1bd a02f 823d a73c dbbc
000002e0: d4ce 853d 1cb3 743d bc29 98bd a94a c6bc
000002f0: 5fed 503c 1f39 2cbd 7d30 013c 2e4f 6cbc
00000300: 61a2 3e3d 929d d9bc 1679 47bd 919e 2eba
00000310: 3ce1 9cbd 4652 80bd 9ae4 28bd 7cbe 8c3d
00000320: a9ea 86bd 4159 3a3d 5701 04bc f98d 90bd
00000330: 268e 4ebd 71b3 2c3d df0d 99bc 8274 d2bd
00000340: 7c27 2f3d ec71 cdbc eebd e73d fe2f 3bbd
00000350: 4aa3 a93d 63df 1ebd ffb4 cb39 b0f0 733c
00000360: 8bf9 843c dbce 36bc 4602 4bbc b207 62bd
00000370: f16a 0abe b257 81bd 1fb1 b6bc f80f c4bd
00000380: 8521 dcbd 32f0 0c3e cb66 073e 8338 1bbe
00000390: de94 36bc 4082 913c 6d04 b9bd acd9 ff3c
000003a0: 787f c9bd 1975 43bd 4ef0 a0bd 097a d5bd
000003b0: 9917 95bd 4535 99bd a5d7 563b e680 90bd
000003c0: b875 043d d5d4 0abd 4b52 b2bd e4f7 803d
000003d0: 4bf1 a7bb 5b86 08bd 5cc2 c83d 735a 843c
000003e0: bae7 8abd d03a 0bbd 6454 393b d7cc 85bd
000003f0: 578d 603c 99d9 2fbd d119 dabc c5e5 353e

network_body._body_endoder.seq_layers.2.bias f4 [256]
-0.0012231723 -0.012801712 -0.022358699 -0.05927737 -0.041397724 -0.08694139 0.0040728264 0.018332232
0.055657327 -0.004757817 0.001866084 -0.034307145 -0.11399191 -0.027572341 0.015785553 -0.10384082
0.004166093 -0.009731957 0.030362004 -0.06290689 0.024133159 -0.036232427 0.012147812 -0.017063947
-0.019673312 -0.022669295 -0.0075103426 -0.068039924 -0.0021599352 0.011904832 0.017328862 0.025120927
-0.050958585 0.027233168 -0.00344171 0.020842128 0.042624544 -0.0681066 0.0026024673 0.05195316
0.035476066 -0.04838141 0.016109707 -0.008455864 0.02658079 -0.06521396 -0.116603695 -0.058254067
0.0063886084 -0.099945985 0.00691615 -0.019812124 -0.05908491 -0.010151514 0.0003354418 -0.03983596
0.010361065 -0.010396183 -0.05497513 -0.036257185 0.016319042 -0.048456337 -0.0032645126 -0.051004805
-0.0059655597 -0.06708598 -0.07132291 0.011286534 0.06693155 -0.043193534 -0.007262546 -0.0498901
0.046168633 0.007297282 0.0064245663 -0.11408872 -0.014914818 -0.0479915 -0.024162108 -0.050932523
0.051119503 0.022582129 -0.009287334 0.01460055 -0.018126741 0.007302909 -0.012594674 -0.00053935265
-0.07183023 -0.05111777 -0.064047694 -0.021599974 -0.052451693 -0.07375747 -0.03430002 -0.045952376
0.02838498 -0.022374155 -0.019647356 -0.01587932 -0.004679462 0.03935955 -0.053881798 -0.05980633
0.022908643 -0.025774624 -0.02960785 -0.0509837 -0.07196256 0.021159105 -0.020166023 -0.04283444
-0.039587807 0.00101257 -0.0270144 -0.06128573 0.014612177 -0.08396038 -0.08399221 -0.077816695
0.0078043886 0.011822278 -0.0070231752 -0.009520813 -0.006575733 -0.038527988 0.0095022265 -0.053625356
-0.0482627 -0.029124008 -0.037342317 -0.005279443 0.018296186 -0.059065726 0.024304187 0.012543379
-0.04978862 -0.06412583 -0.085467964 -0.009186401 -0.028058453 -0.02727975 -0.006518327 0.024109637
-0.055318493 -0.030892951 -0.0085186865 -0.017248495 -0.031917263 -0.015918924 -0.032034695 0.0109806005
-0.029443327 0.00767057 0.027147098 -0.015246758 0.01743925 -0.03435865 -0.04259545 0.064294875
-0.02529576 0.019442596 -0.012688648 -0.019433498 -0.08483463 -0.010913752 -0.06006283 -0.059919987
0.031544693 -0.04255957 -0.08504054 0.00253697 -0.08663021 0.04115785 -0.08053524 -0.023347128
-0.0041264775 -0.05099287 -0.083168365 0.01970232 -0.011813025 0.0029794632 -0.08327942 -0.101648875
-0.0058081285 0.033358775 0.004070834 -0.050845977 -0.054068606 0.021227887 -0.04935578 -0.07842186
-0.039462913 -0.06875645 0.040858373 0.015401801 -0.08494082 0.004193241 -0.04226361 0.009343261
-0.035468392 -0.04070421 -0.054993965 0.005991316 -0.0937766 0.034362722 -0.0012231395 0.0038205269
0.0007883602 0.021735137 -0.02467077 -0.046692852 0.031307694 -0.017046208 -0.059860066 0.01873387
-0.024782326 -0.061001558 -0.009573293 -0.071474954 -0.08011734 -0.06826731 0.01283558 0.021300059
-0.03690561 0.03283358 0.018231649 -0.042961575 -0.046879675 -0.036844213 0.029968224 -0.082596876
-0.08454769 -0.045639496 -0.0019913625 -0.00864822 -0.036659766 -0.07623782 -0.062080357 -0.0053425846
-4.666119e-06 -0.013935463 -0.013748697 -0.039419487 -0.08592927 -0.02315352 0.022130985 0.019164797
-0.047734804 0.037113026 0.023461925 -0.036458332 -0.013223476 -0.011420261 -0.013240254 0.02803171
00000000: da52 a0ba 46be 51bc 9729 b7bc d4cc 72bd
00000010: a990 29bd 540e b2bd 5875 853b 7a2d 963c
00000020: f0f8 633d 76e7 9bbb 6497 f43a a685 0cbd
00000030: 9774 e9bd 64df e1bc b450 813c 7faa d4bd
00000040: b983 883b c972 1fbc bdb9 f83c 54d5 80bd
00000050: e7b2 c53c 7468 14bd 9e07 473c b1c9 8bbc
00000060: ed29 a1bc f5b4 b9bc 5219 f6bb 8458 8bbd
00000070: b38d 0dbb 7c0c 433c 42f5 8d3c 67ca cd3c
00000080: f3b9 50bd 1818 df3c 508e 61bb 1cbd aa3c
00000090: 1397 2e3d 797b 8bbd 288e 2a3b d6cc 543d
000000a0: 5a4f 113d 962b 46bd 81f8 833c 778a 0abc
000000b0: f5bf d93c e68e 85bd ebcd eebd d19b 6ebd
000000c0: 8857 d13b 7bb0 ccbd dfa0 e23b 094d a2bc
000000d0: 0503 72bd 8952 26bc 3cde af39 082b 23bd
000000e0: 75c1 293c c054 2abc 9a2d 61bd 6a82 14bd
000000f0: 83af 853c 277a 46bd 6ff1 55bb 6aea 50bd
00000100: be7a c3bb 6064 89bd bf11 92bd 28eb 383c
00000110: 6913 893d b4eb 30bd a7fa edbb 9059 4cbd
00000120: 521b 3d3d 0a1e ef3b 2b85 d23b 59a7 e9bd
00000130: 485d 74bc bc92 44bd 9def c5bc 9f9e 50bd
00000140: af62 513d 28fe b83c e729 18bc 2537 6f3c
00000150: 887e 94bc 3e4d ef3b e459 4ebc 5863 0dba
00000160: ba1b 93bd de60 51bd 702b 83bd 6ef2 b0bc
00000170: 96d7 56bd 280e 97bd 2e7e 0cbd 8f38 3cbd
00000180: 9e87 e83c 014a b7bc 7ef3 a0bc 5915 82bc
00000190: 2c56 99bb 7b37 213d 29b3 5cbd 7bf7 74bd
000001a0: e8aa bb3c 4e25 d3bc 298c f2bc 49d4 50bd
000001b0: 1b61 93bd dc55 ad3c 3733 a5bc 2a73 2fbd
000001c0: d326 22bd 36b8 843a 4e4d ddbc bf06 7bbd
000001d0: ea67 6f3c 6bf3 abbd 1c04 acbd 5c5e 9fbd
000001e0: f5bb ff3b 3ab2 413c aa22 e6bb 2ffd 1bbc
000001f0: 3f79 d7bb 86cf 1dbd 3aaf 1b3c 43a6 5bbd
00000200: 1caf 45bd 7995 eebc 42f4 18bd 2eff acbb
00000210: e2e1 953c e7ee 71bd 9319 c73c bf82 4d3c
00000220: 27ef 4bbd 6754 83bd d409 afbd 8f82 16bc
00000230: d7da e5bc c879 dfbc b197 d5bb 9381 c53c
00000240: a595 62bd 3713 fdbc f691 0bbc b74c 8dbc
00000250: adbb 02bd 6768 82bc d036 03bd fae7 333c
00000260: 2233 f1bc 6859 fb3b 9763 de3c 8acd 79bc
00000270: c2dc 8e3c a8bb 0cbd 9178 2ebd 08ad 833d
00000280: 0e39 cfbc 1446 9f3c 0ce4 4fbc 0033 9fbc
00000290: c7bd adbd 98cf 32bc 7104 76bd a96e 75bd
000002a0: 0235 013d f252 2ebd bc29 aebd 4b43 263b
000002b0: 2e6b b1bd 2295 283d a9ef a4bd 7a42 bfbc
000002c0: 6737 87bb e6dd 50bd 2d54 aabd c366 a13c
000002d0: 6b8b 41bc 1943 433b 678e aabd 492d d0bd
000002e0: 1d52 bebb 36a3 083d a164 853b df43 50bd
000002f0: 0b77 5dbd 1be6 ad3c 4929 4abd a49b a0bd
00000300: dda3 21bd 2fd0 8cbd 1c5b 273d d657 7c3c
00000310: 74f5 adbd 7467 893b 9b1c 2dbd 7a14 193c
00000320: 4e47 11bd 75b9 26bd 5a41 61bd cd52 c43b
00000330: f20d c0bd edbf 0c3d c051 a0ba ce61 7a3b
00000340: f5a9 4e3a e30d b23c 5b1a cabc 0141 3fbd
00000350: 7f3c 003d 7da4 8bbc d42f 75bd c677 993c
00000360: 4e04 cbbc c5dc 79bd 4dd9 1cbc 7661 92bd
00000370: 8f14 a4bd bbcf 8bbd 534c 523c 767d ae3c
00000380: 562a 17bd 817c 063d 8a5a 953c 7af8 2fbd
00000390: e704 40bd f5e9 16bd ec7f f53c 8d28 a9bd
000003a0: 5727 adbd 7bf0 3abd 8581 02bb 44b1 0dbc
000003b0: 8d28 16bd 9322 9cbd f947 7ebd d910 afbb
000003c0: a891 9cb6 9151 64bc 3742 61bc 5476 21bd
000003d0: affb afbd 73ac bdbc 0a4c b53c 7eff 9c3c
000003e0: 9285 43bd d403 183d 3933 c03c 5555 15bd
000003f0: 47a7 58bc 0c1c 3bbc a6ed 58bc c2a2 e53c

action_model._continuous_distribution.log_sigma f4 [1, 3]
-0.3158721 -1.0759572 -0.4778583
00000000: fdb9 a1be f7b8 89bf d8a9 f4be

action_model._continuous_distribution.mu.weight f4 [3, 256]
0.0012898408 0.011005206 -0.02881659 0.037912577 -0.039447587 -0.05867378 0.009085948 -0.012217524
0.061720423 0.036383476 0.03615365 -0.028932268 -0.049768895 -0.051138982 0.0236284 -0.030480366
0.004478795 -0.0054497644 -0.013241438 -0.06393367 0.018746922 0.07220671 0.043220405 -0.030738825
-0.00786991 -0.029070409 0.026890352 -0.037564386 -0.0051836823 -0.051711548 0.0077223247 0.021883184
-0.008861214 -0.03289101 -0.01185777 -0.01179206 -0.00011468694 -0.005272187 -0.02072554 0.042010535
0.03697334 0.014138411 -0.028316883 -0.023901341 0.012141301 0.044514034 -0.046524845 -0.017508538
0.034227636 -0.08587163 0.02935178 -0.009541033 0.021188963 0.025121136 0.0045588836 0.025157442
0.027931353 -0.006675674 -0.0389394 0.019733459 0.006134657 -0.00453818 0.003255977 -0.006072885
-0.0260256 -0.021604279 -0.014823638 -0.0026698941 0.0044405884 -0.047230337 -0.00406488 -0.012746863
0.04772643 -0.005079868 0.008410829 -0.060792048 -0.033379618 0.023225294 0.019158449 0.022636808
0.0439302 0.025212431 -0.010322578 0.016059548 -0.030866224 0.014926613 -0.014172982 0.006692337
-0.066548035 0.032480493 0.0041912105 -0.034526523 -0.03661589 -0.06781441 0.0040227426 0.0046082735
0.030392766 0.007258496 -0.0043357983 -0.036306124 0.0027465043 0.04139094 -0.002902391 -0.048223734
0.021341601 -0.031463843 0.020971388 -0.07405023 -0.030973697 0.019042252 0.0040147067 -0.013224219
0.0037738122 -0.006919492 -0.017392552 -0.06067986 -0.034095008 -0.060307283 -0.05341425 -0.02851191
0.013173524 0.059110843 -0.018683987 0.007907992 -0.00737195 -0.022400435 0.0024260562 -0.042039465
-0.033903696 0.023084307 -0.017461648 0.019128704 0.027601954 -0.050467636 0.0125200385 0.017523192
-0.014213097 -0.005151824 -0.012612813 -0.017873304 0.016145527 -0.026779506 0.007351354 0.037279587
-0.0056876685 -0.0017025799 -0.035428565 -0.03152627 -0.014054423 0.030172808 -0.007559613 0.0007352467
0.024062824 0.012494109 0.012078629 0.031216705 -0.0043799514 -0.024660323 -0.030971859 0.09039959
-0.024802178 0.010965056 -0.052390344 -0.03267517 0.016005354 -0.009704386 0.0065601817 0.007101033
0.028788459 -0.015710795 -0.043191466 -0.019370668 -0.04473038 0.025109287 -0.01424989 0.002983644
-0.0072462633 -0.02021703 -0.02593235 0.038080733 -0.0039456375 0.0022089302 -0.05001709 -0.060964644
-0.0012377705 0.030046629 0.038282882 -0.037051804 -0.010941954 0.02889096 0.03265748 -0.048278626
-0.0023467322 -0.0038425496 0.03231316 0.008529499 -0.05695794 -0.026748205 -0.00529445 0.004525467
-0.050383445 -0.010300807 0.024556506 -0.0077229165 -0.03091102 0.010284402 -0.012198593 -0.020143578
0.008585216 0.0068705 0.03903795 0.011276056 0.033952974 0.008579823 -0.018527038 0.013738448
-0.046743453 -0.03995603 -0.021923058 -0.027345775 -0.05238244 -0.052813668 0.016033195 0.024674555
0.017980434 0.022925498 0.025194092 -0.021163322 -0.040226102 0.012127954 0.012208514 -0.06981549
-0.012750295 -0.038376324 -0.009608662 -0.00091101887 -0.017506473 -0.018119883 -0.030878408 -0.05886234
0.015495629 -0.046559677 0.014699212 0.013420557 -0.056062795 0.035868198 0.031915057 0.0009755653
-0.0056887083 0.054212283 0.014038887 -0.022297582 -0.009504875 0.019209392 0.01634966 0.01907734
00000000: e00f a93a 2e4f 343c c510 ecbc 384a 1b3d
00000010: cb93 21bd eb53 70bd 3add 143c 032c 48bc
00000020: 8ece 7c3d d706 153d da15 143d 5d03 edbc
00000030: 78da 4bbd 1c77 51bd 5990 c13c f6b1 f9bc
00000040: dbc2 923b f093 b2bb 9ef2 58bc a8ef 82bd
00000050: 2593 993c 1de1 933d e107 313d fdcf fbbc
00000060: ccf0 00bc 1125 eebc 2849 dc3c 1ddd 19bd
00000070: e1db a9bb 7dcf 53bd 8e0b fd3b 5d44 b33c
00000080: a02e 11bc b9b8 06bd 1847 42bc 7c33 41bc
00000090: 1584 f0b8 4fc2 acbb 9cc8 a9bc 3d13 2c3d
000000a0: 5b71 173d cba4 673c cff8 e7bc bfcc c3bc
000000b0: 4fec 463c 5954 363d d690 3ebd 116e 8fbc
000000c0: 4732 0c3d 77dd afbd 2573 f03c fe51 1cbc
000000d0: 7a94 ad3c d7ca cd3c b062 953b fb16 ce3c
000000e0: 4bd0 e43c 9dbf dabb ec7e 1fbd 10a8 a13c
000000f0: 3c05 c93b 03b5 94bb 3b62 553b 0dff c6bb
00000100: a433 d5bc 75fb b0bc d8de 72bc 64f9 2ebb
00000110: 5b82 913b 9974 41bd af32 85bb 38d8 50bc
00000120: ca7c 433d 0575 a6bb 93cd 093c 1501 79bd
00000130: 11b9 08bd f942 be3c 2ef2 9c3c d470 b93c
00000140: 27f0 333d 4d8a ce3c 0820 29bc 508f 833c
00000150: 2adb fcbc c18e 743c cc35 68bc 644b db3b
00000160: 564a 88bd 440a 053d 6c56 893b af6b 0dbd
00000170: 8bfa 15bd 48e2 8abd 36d1 833b 0001 973b
00000180: 40fa f83c add8 ed3b 5013 8ebb bbb5 14bd
00000190: b2fe 333b 8c89 293d 0a36 3ebb 4086 45bd
000001a0: 95d4 ae3c 3be0 00bd 30cc ab3c a6a7 97bd
000001b0: 8dbc fdbc 7ffe 9b3c cd8d 833b 65aa 58bc
000001c0: 1052 773b e8bc e2bb d37a 8ebc 728b 78bd
000001d0: 35a7 0bbd c504 77bd e7c8 5abd cf91 e9bc
000001e0: c4d5 573c 361e 723d 290f 99bc 8690 013c
000001f0: 6690 f1bb 1e81 b7bc 78fe 1e3b 9331 2cbd
00000200: 9ade 0abd 4d1b bd3c bb0b 8fbc cdb3 9c3c
00000210: 7e1d e23c 27b7 4ebd d920 4d3c cc8c 8f3c
00000220: 0dde 68bc a2d0 a8bb f9a5 4ebc 096b 92bc
00000230: a043 843c b260 dbbc a1e3 f03b 7bb2 183d
00000240: 9f5f babb 1a29 dfba 8b1d 11bd b121 01bd
00000250: 8644 66bc f72c f73c a1b6 f7bb 92bd 403a
00000260: 661f c53c 17b4 4c3c 71e5 453c 2dba ff3c
00000270: b285 8fbb 7204 cabc b2b8 fdbc 6c23 b93d
00000280: f02d cbbc c7a6 333c 4297 56bd 66d6 05bd
00000290: a91d 833c 25ff 1ebc cbf6 d63b c8af e83b
000002a0: c6d5 eb3c edb3 80bc 89e9 30bd 3caf 9ebc
000002b0: 3437 37bd feb1 cd3c 5f78 69bc 3d89 433b
000002c0: 1072 edbb 2f9e a5bc 1470 d4bc 8bfa 1b3d
000002d0: 684a 81bb b3c3 103b b8de 4cbd 10b6 79bd
000002e0: b03c a2ba 5924 f63c 83ce 1c3d a2c3 17bd
000002f0: e245 33bc bcac ec3c dac3 053d cfbf 45bd
00000300: a2cb 19bb 49d3 7bbb ce5a 043d 50bf 0b3c
00000310: bb4c 69bd 0d1f dbbc 117d adbb 5e4a 943b
00000320: df5e 4ebd b7c4 28bc ba2a c93c 8510 fdbb
00000330: 1b39 fdbc e97f 283c 9bdc 47bc 2504 a5bc
00000340: 01a9 0c3c ee21 e13b 42e6 1f3d 35bf 383c
00000350: 4612 0b3d 6392 0c3c 04c6 97bc 3a17 613c
00000360: 1076 3fbd efa8 23bd fc97 b3bc 3f04 e0bc
00000370: f88e 56bd 2553 58bd 0c58 833c 4b22 ca3c
00000380: b44b 933c 41ce bb3c d763 ce3c b45e adbc
00000390: 20c4 24bd 53b4 463c 3806 483c 6cfb 8ebd
000003a0: 9de6 50bc 7e30 1dbd a66d 1dbc 71d1 6eba
000003b0: bc69 8fbc 2670 94bc b7f4 fcbc a319 71bd
000003c0: 61e1 7d3c 5cb5 3ebd f7d4 703c e5e1 5b3c
000003d0: 1aa2 65bd 88ea 123d 5db9 023d 14bd 7f3a
000003e0: 5868 babb b30d 5e3d 5c03 663c 6ba9 b6bc
000003f0: 56ba 1bbc 045d 9d3c b9ef 853c 1548 9c3c

action_model._continuous_distribution.mu.bias f4 [3]
0.07267364 0.019119756 -0.044367976
00000000: ebd5 943d 09a1 9c3c 32bb 35bd

onnx::Div_61 f4 [68]
0.4916421 0.22241463 0.4984895 0.21398328 0.4974823 0.16513267 0.49951413 0.20798904
0.49885747 0.19686766 0.4944661 0.23262177 0.45942408 0.08386648 0.45631614 0.22725803
0.41782454 0.18531659 0.3921078 0.23565868 0.3726178 0.06873929 0.36831468 0.24069035
0.3734176 0.18501821 0.33849588 0.22645585 0.34160784 0.069672965 0.33631828 0.24373417
0.32951027 0.18443273 0.28427848 0.20592879 0.2766079 0.06777934 0.26952973 0.20571034
0.2653924 0.185733 0.19705854 0.16121824 0.18993212 0.06327513 0.17983148 0.14885838
0.20861463 0.18896899 0.0918818 0.10311707 0.11692557 0.060350742 0.10051786 0.09752306
0.19939958 0.19418445 0.047204416 0.07571785 0.08631473 0.058740385 0.06346484 0.07351192
0.20850131 0.2060957 0.03308251 0.06610678
00000000: 83b8 fb3e a9c0 633e 043a ff3e 6f1e 5b3e
00000010: 00b6 fe3e 8a18 293e 51c0 ff3e 14fb 543e
00000020: 3f6a ff3e ad97 493e a92a fd3e 6734 6e3e
00000030: a239 eb3e 30c2 ab3d 45a2 e93e 54b6 683e
00000040: 19ed d53e a2c3 3d3e 5bc2 c83e 8250 713e
00000050: c3c7 be3e 2fc7 8c3d be93 bc3e 8877 763e
00000060: 9730 bf3e 6a75 3d3e 554f ad3e 0be4 673e
00000070: 39e7 ae3e b3b0 8e3d e931 ac3e 7395 793e
00000080: 92b5 a83e efdb 3c3e f38c 913e ffde 523e
00000090: 8d9f 8d3e e5cf 8a3d cdff 893e bba5 523e
000000a0: 83e1 873e cb30 3e3e b7c9 493e 6516 253e
000000b0: 917d 423e 6496 813d be25 383e 556e 183e
000000c0: 139f 553e 1681 413e 862c bc3d 0b2f d33d
000000d0: ac76 ef3d 5732 773d 4fdc cd3d 2cba c73d
000000e0: 672f 4c3e 4ad8 463e 6b59 413d f611 9b3d
000000f0: c7c5 b03d c299 703d dbf9 813d 6b8d 963d
00000100: 5e81 553e c00a 533e 8781 073d fe62 873d

onnx::Div_64 f4 [7]
0.20301908 0.1323851 0.27345392 0.23234077 0.07658342 0.2462398 0.43975258
00000000: 3ce4 4f3e f68f 073e 2702 8c3e bdea 6d3e
00000010: c5d7 9c3d 4926 7c3e 4027 e13e
