results/fase2/BlueCar/BlueCar-1999931.onnx (onnx, 350882 bytes, 11 tensors)

network_body.observation_encoder.processors.0.normalizer.running_mean f4 [68]
0	0x3efcf568	0.4940598
1	0x3ac7b030	0.0015235003
2	0x3f01214d	0.5044144
3	0x3f611d4d	0.87935334
4	0x3ee0b867	0.43890688
5	0x3a9ffeef	0.0012206713
6	0x3f0f53c7	0.5598721
7	0x3f61cdc8	0.8820462
8	0x3f31d5e1	0.6946698
9	0x3ab33ab1	0.0013674108
10	0x3e9ba097	0.30395958
11	0x3f472d79	0.7780376
12	0x3f0377ae	0.5135449
13	0x3a6dbac1	0.0009068661
14	0x3ef899d8	0.48554873
15	0x3f537829	0.82605225
16	0x3f4a85fd	0.791107
17	0x3a9c95e0	0.0011946522
18	0x3e54aed2	0.20769814
19	0x3f242223	0.6411459
20	0x3f4398d8	0.76405096
21	0x3a5e4756	0.0008479258
22	0x3e70bee2	0.23510316
23	0x3f2dd86c	0.6790836
24	0x3f5ddb9e	0.86663234
25	0x3a8de186	0.0010824658
26	0x3e0775f4	0.1322859
27	0x3f039279	0.51395375
28	0x3f63b25b	0.88944024
29	0x3a095a09	0.00052395515
30	0x3de1589e	0.110032305
31	0x3f00f328	0.50371027
32	0x3f6f85dc	0.9356363
33	0x3a7cdc28	0.0009645843
34	0x3d81d5ce	0.06339608
35	0x3ecd8cb4	0.4014641
36	0x3f70c716	0.9405378
37	0x39aa10ad	0.0003243735
38	0x3d723a4b	0.059137624
39	0x3ec8f131	0.39246514
40	0x3f7ba943	0.9830515
41	0x3a61cb4f	0.0008613364
42	0x3c83c558	0.016085312
43	0x3ea3e51e	0.3201074
44	0x3f794845	0.973759
45	0x39886490	0.00026014866
46	0x3cd4d4dd	0.025980407
47	0x3ea4e909	0.32209042
48	0x3f7ecee6	0.9953445
49	0x3a43bee4	0.00074671046
50	0x3b7f4893	0.003895317
51	0x3e8cd956	0.27509564
52	0x3f7db198	0.9909911
53	0x394a7565	0.00019307954
54	0x3c106462	0.008812996
55	0x3e8f09ac	0.27937067
56	0x3f7f896e	0.99819076
57	0x3a2a473f	0.0006495602
58	0x3a996396	0.0011702653
59	0x3e7e2a55	0.24820836
60	0x3f7f2dc3	0.996792
61	0x392b5832	0.00016340686
62	0x3b46d5a9	0.0030339754
63	0x3e82dd9f	0.25559708
64	0x3f7fbff3	0.99902266
65	0x3a1d4748	0.00059996964
66	0x39b6da1f	0.00034876258
67	0x3e6d87de	0.2319636

network_body.observation_encoder.processors.1.normalizer.running_mean f4 [7]
0	0x3e8824a3	0.26590452
1	0x3de5ae44	0.11214879
2	0x3e8b00cc	0.27149045
3	0x3f15bdcd	0.5849274
4	0xbc6193af	-0.013768121
5	0x00000000	0.0
6	0x00000000	0.0

network_body._body_endoder.seq_layers.0.weight f4 [256, 75]
0	0x3d6b345f	0.05742299
1	0x3d348307	0.04407027
2	0x3d66075b	0.05615936
3	0x3beb80d9	0.0071869907
4	0x3e469b99	0.19395293
5	0x3e3ea4be	0.18617532
6	0x3b345869	0.0027518517
7	0x3e93b1f7	0.28846714
8	0xbe5bfd9d	-0.21483465
9	0xbe88ee65	-0.2674438
10	0x3dbef3c5	0.09323839
11	0xbda1d173	-0.079012774
12	0x3c252814	0.010080356
13	0xbdc469c6	-0.09590487
14	0xbdaed0b1	-0.085358985
15	0xbe1ca467	-0.1529709
16	0xbd011133	-0.031510543
17	0x3dd8724c	0.105686754
18	0xbdc128ac	-0.09431586
19	0xbcbf4ed2	-0.023353014
20	0x3dbb4121	0.09143282
21	0xbe51c01c	-0.2048344
22	0x3e16d324	0.14728981
23	0xbc2bfc6a	-0.010497192
24	0x3d204b6d	0.03913443
25	0xbd065927	-0.032799866
26	0xbdf18762	-0.117934
27	0xbccd844c	-0.025087498
28	0xbdd7d0ee	-0.10537897
29	0x3e0d36fe	0.13790509
30	0x3e008858	0.12552011
31	0x3e342427	0.17591916
32	0x3ce4a651	0.027911337
33	0xbd50fe26	-0.051023625
34	0x3d5c74e6	0.05382242
35	0x3bd76e94	0.0065744612
36	0x3e1f557d	0.15559955
37	0x3ea4cc6d	0.32187214
38	0xbe004ad7	-0.12528549
39	0xbe2de9f8	-0.16983783
40	0xbc1b7ad5	-0.009489735
41	0x3d896d33	0.06710281
42	0xbdfa4225	-0.12219647
43	0xbdc732d8	-0.097264946
44	0xbdf7efe9	-0.12106306
45	0xbe16ca66	-0.14725646
46	0xbc37913b	-0.011204059
47	0x3de51104	0.11184886
48	0x3e02ea38	0.1278466
49	0x3d5c522a	0.053789295
50	0xbd99f3ae	-0.07517181
51	0x3d2d2cba	0.042278983
52	0x3cdeae82	0.027182821
53	0xbe806f7d	-0.2508506
54	0xbe2ce590	-0.16884446
55	0xbe78c26e	-0.24292919
56	0x3dcb6bd8	0.09932679
57	0xbcf75bf7	-0.03019522
58	0xbe28ec85	-0.16496475
59	0x3e0c62aa	0.13709512
60	0xbd177862	-0.03698004
61	0x3e4a32f9	0.19746007
62	0xbe15886e	-0.14602825
63	0xbddcbd7d	-0.107783295
64	0x3c737b75	0.014860977
65	0xbd1611e4	-0.036638156
66	0xbd594f5c	-0.0530542
67	0x3d9e80da	0.0773942
68	0xbda7d449	-0.08194787
69	0x3e69a79a	0.22817841
70	0xbc78fcd8	-0.015197001
71	0x3e65297d	0.22379108
72	0xbe00fa78	-0.12595546
73	0x3cb40a66	0.021977615
74	0xbd2945cf	-0.04132634
75	0xbe7a35e7	-0.24434625
76	0x3c88f0f0	0.01671645
77	0xbd361d27	-0.044461396
78	0x3e902913	0.28156337
79	0xbcd22e62	-0.025656883
80	0xbc5d07c7	-0.013490624
81	0x3b876a64	0.004132556
82	0x3d2bab11	0.04191119
83	0xbd01f137	-0.03172418
84	0x3c1ea7ca	0.009683559
85	0x3db02e4c	0.086025804
86	0xbe362b17	-0.17789875
87	0xbd2fe1f6	-0.042940103
88	0x3d561357	0.052264538
89	0xbd2c6dc9	-0.042096887
90	0xbe219628	-0.15779936
91	0x3ea8936f	0.32924983
92	0x3dd06003	0.10174563
93	0x3d0870ef	0.033310827
94	0x3e04c57f	0.12965964
95	0xbe026074	-0.12732106
96	0x3d35b95e	0.044366233
97	0xbdb917e1	-0.09037758
98	0xbe58dbea	-0.2117764
99	0xbe583330	-0.21113276
100	0x3e2684ae	0.16261551
101	0x3ddb1dfa	0.10699077
102	0x3e29ad16	0.16569933
103	0xbe85f7b1	-0.26165536
104	0x3dff0bc6	0.124534175
105	0xbd17e349	-0.03708199
106	0xbc9cacef	-0.01912543
107	0x3e439c0e	0.19102499
108	0x3d3bf95e	0.045892112
109	0xbd674cff	-0.056469914
110	0x3d112fd4	0.035446003
111	0x3d1bd61e	0.038045995
112	0x3ce2c975	0.027683953
113	0xbda952cd	-0.08267746
114	0xbe5ab3d6	-0.21357664
115	0x3e584cbd	0.21123023
116	0x3d35f662	0.044424422
117	0xbb82a4d8	-0.003986936
118	0xbd509594	-0.0509239
119	0xbd6a5115	-0.057206232
120	0xbc0cf41b	-0.008603121
121	0x3d1dddea	0.038541712
122	0x3c391b96	0.011298081
123	0x3ccd3588	0.02504994
124	0xbd3829ce	-0.044961743
125	0x3d90cc12	0.07070173
126	0xbcab0150	-0.02087465
127	0x3e08a34e	0.13343546
128	0xbbfb4a4c	-0.007668769
129	0x3deea245	0.11652044
130	0x3e475b12	0.19468334
131	0x3e308326	0.17237529
132	0x3cb91dad	0.022597158
133	0x3e1a3c2e	0.15062019
134	0xbccf58d1	-0.025310906
135	0x3dcadba2	0.09905173
136	0xbe1c70d3	-0.15277414
137	0x3e06e170	0.13171935
138	0x3e7411d4	0.23834926
139	0x3a12ed6b	0.0005604836
140	0x3e4c491d	0.19949766
141	0x3decaed5	0.11556784
142	0xbce0a4ae	-0.027422275
143	0x3d89be41	0.06725741
144	0x3c8304fe	0.015993591
145	0xbe8208a7	-0.25397226
146	0xbc138e5d	-0.00900611
147	0x3dec5f09	0.11541564
148	0xbc54f6fd	-0.01299834
149	0x3e193d23	0.14964728
150	0xbd03cfc1	-0.03218055
151	0xbe916704	-0.28398907
152	0x3ad7ad95	0.001645493
153	0x3e027481	0.12739755
154	0xbe053b30	-0.1301086
155	0xbdf9dd88	-0.12200457
156	0x3d3935a9	0.04521719
157	0xbdfa6388	-0.12226015
158	0x3bf9bdae	0.0076214885
159	0xbd97595d	-0.073900916
160	0x3c62a383	0.01383293
161	0x3ca1fc43	0.019773608
162	0xbca9de46	-0.020735871
163	0x3d6968e8	0.056984812
164	0xbdb56f60	-0.08859134
165	0xbcc9bec6	-0.0246271
166	0x3e3aa6cf	0.18227695
167	0x3b56bd9e	0.003276683
168	0x3e1e5e7a	0.15465727
169	0x3d12d887	0.035851028
170	0xbe1446c7	-0.14480124
171	0x3de99864	0.11406019
172	0x3e6d60d9	0.23181476
173	0x3e114f01	0.14190294
174	0x3d8463be	0.06464337
175	0xbe280d4b	-0.16411321
176	0x3cd5eb79	0.026113259
177	0xbd4d0590	-0.050054133
178	0x3c88f069	0.016716199
179	0xbe05645c	-0.13026565
180	0xbcca4f98	-0.024696156
181	0x3dc9af16	0.09847848
182	0x3dddcef5	0.108304895
183	0x3d7d8036	0.06188985
184	0xbda73945	-0.0816522
185	0x3b8e2b7b	0.0043386794
186	0xbda5c8c9	-0.08094937
187	0x3dc417b0	0.095748305
188	0xbcff014f	-0.031128554
189	0xbe070256	-0.13184485
190	0xbe869260	-0.2628355
191	0xbb86c576	-0.0041128946
192	0xbe222316	-0.15833697
193	0xbd6df294	-0.05809267
194	0xbd37e575	-0.04489656
195	0xbdad3e5d	-0.084591605
196	0x3b5bbf5f	0.0033530814
197	0x3df0fae7	0.11766606
198	0xbce99427	-0.028513027
199	0x3bfa0737	0.0076302546
200	0x3ddf2b57	0.10896938
201	0x3e4f59a0	0.20249033
202	0x3ca42803	0.02003861
203	0xbc535e00	-0.012900829
204	0xbb51783b	-0.0031962532
205	0xbd8c0c46	-0.068382785
206	0xbe15a61f	-0.14614151
207	0x3eb1263f	0.34599492
208	0x3d1ec31a	0.038760282
209	0x3cecda97	0.028912826
210	0x3e044701	0.12917711
211	0x3ab2aede	0.0013632437
212	0xbdbc1e40	-0.09185457
213	0xbdc8df48	-0.098082125
214	0xbe014c8f	-0.12626861
215	0x3d8c3e4c	0.0684782
216	0x3c902e94	0.017600335
217	0xbc4346ac	-0.011918705
218	0xbe047fba	-0.12939349
219	0xbe0cff2c	-0.13769215
220	0xbd5917f6	-0.053001367
221	0xbdeddae9	-0.116140194
222	0xbda53c9f	-0.08068203
223	0xbd4e4918	-0.050362676
224	0x3debe4a7	0.11518221
225	0x3d9641be	0.07336758
226	0x3e171bc2	0.14756683
227	0x3c88cae6	0.016698312
228	0x3db05840	0.08610582
229	0x3d57fa2b	0.052728813
230	0xbd0f2158	-0.03494391
231	0x3b58405a	0.003299734
232	0x3db0fe82	0.086422935
233	0x3dd6c075	0.10485927
234	0xbd4a4d80	-0.049390316
235	0x3e01ebcb	0.12687604
236	0xbd21ef33	-0.03953476
237	0x3e0c386d	0.136934
238	0x3daa894d	0.08326969
239	0xbdc541e0	-0.09631705
240	0x3d4a232e	0.049349956
241	0x3e174ca0	0.14775324
242	0xbe48f001	-0.19622804
243	0x3b956bc8	0.0045599677
244	0xbdb9c79d	-0.09071276
245	0x3ad79c03	0.0016449693
246	0x3e159846	0.14608869
247	0xbdeceec1	-0.11568976
248	0xbdbb2613	-0.091381215
249	0x3e8ba2be	0.272726
250	0xbdd20e4f	-0.102566354
251	0xbd8f0e42	-0.06985141
252	0x3db9399e	0.09044193
253	0xbdd29511	-0.102823384
254	0x3dae6713	0.085157536
255	0x3c4e4a27	0.0125909215

network_body._body_endoder.seq_layers.0.bias f4 [256]
0	0x3d005651	0.031332318
1	0xbd858293	-0.06519046
2	0xbd2e9c05	-0.04262926
3	0xbdae3494	-0.08506122
4	0xbcd71674	-0.026255824
5	0x3c176665	0.009240721
6	0x3b02397e	0.0019870694
7	0xbc2a057e	-0.010377286
8	0xbd301752	-0.04299099
9	0xbcd9d0ae	-0.026588764
10	0xbd83fcde	-0.06444715
11	0x3c1c1907	0.009527451
12	0x3c376657	0.011193833
13	0x3c097ff9	0.008392327
14	0xbd1125ec	-0.035436556
15	0xbd441aa0	-0.047876954
16	0xbce95c9d	-0.028486544
17	0xbcb2718a	-0.021782655
18	0x3dd81bdd	0.105521895
19	0xbc96fe01	-0.018431665
20	0x3c8e22e9	0.01735063
21	0x3cb43e52	0.022002373
22	0xbccf6b8d	-0.025319839
23	0xbce13169	-0.02748938
24	0x3ccc66ea	0.024951417
25	0xbd9605cb	-0.07325324
26	0xbd7dd49b	-0.061970335
27	0xbd306474	-0.04306455
28	0xba102a47	-0.0005499464
29	0xbc6cbf2f	-0.014449879
30	0x3d4cfaee	0.050043993
31	0xbd192fe3	-0.037399184
32	0xbd28d6c4	-0.04122044
33	0xbc068649	-0.008210727
34	0xbc53e38e	-0.012932671
35	0xba5363f5	-0.0008063906
36	0x3d0f3df3	0.03497119
37	0x3d2964f2	0.041356035
38	0xbdb018bd	-0.085984685
39	0x3ce2d23d	0.02768814
40	0x3d4edbee	0.05050271
41	0x3da60ab5	0.08107511
42	0xbc8e9361	-0.01740426
43	0x3c82c5d1	0.015963467
44	0x3d37831f	0.04480278
45	0x3d9a38bd	0.07530353
46	0xbcb70dbd	-0.022345418
47	0xbd860009	-0.065429755
48	0x3c9484c4	0.018129714
49	0x3ce400b8	0.027832374
50	0x3c952c79	0.018209683
51	0xbddf98b8	-0.10917801
52	0x3d11df76	0.0356135
53	0xbba2eb7a	-0.0049719186
54	0x3c21f4ee	0.009885056
55	0x3b226774	0.00247809
56	0xbc172522	-0.009225162
57	0x3d056370	0.032565534
58	0x3c492b86	0.012278443
59	0x3d9148c6	0.070939586
60	0x3d36b3ca	0.044605054
61	0xbd0c0dc2	-0.034192808
62	0xbd5c859f	-0.05383837
63	0xbd468aff	-0.0484724
64	0x3ce22318	0.027604625
65	0xbd415086	-0.047195934
66	0xbda47f60	-0.08032107
67	0x3c010a38	0.0078759715
68	0xbd2faf84	-0.042891994
69	0xbc44e7ed	-0.012018186
70	0xbc6d6325	-0.01448897
71	0x3d4637f1	0.048393194
72	0xba41e2a5	-0.00073961384
73	0xbd17c087	-0.037048843
74	0x3c334257	0.01094111
75	0xbb4c084f	-0.0031132882
76	0x3ca51286	0.020150434
77	0x3d14c026	0.03631606
78	0xbd2103fb	-0.039310437
79	0xbd43a3ed	-0.047763754
80	0x3d8016a6	0.0625432
81	0x3d599881	0.053123955
82	0xbcc09f50	-0.023513466
83	0xbd085f6c	-0.033294126
84	0xbcb25b2c	-0.02177199
85	0xbc5825a5	-0.013192569
86	0xbd725f7d	-0.059173096
87	0xbdbd7a0b	-0.092517935
88	0xbc1157f4	-0.008871067
89	0xbcffda7b	-0.03123211
90	0x3bbcb02f	0.0057583074
91	0xbd4524df	-0.048130866
92	0x3c80f53c	0.015741937
93	0x3cf7f3d7	0.03026764
94	0xbc3349c9	-0.010942885
95	0x3b21cf99	0.0024690388
96	0xba4dc411	-0.00078493456
97	0xbd1513b7	-0.036395755
98	0x3d8f364f	0.069927804
99	0x3d1edff8	0.038787812
100	0xbd01893c	-0.031625018
101	0x3cf01e0f	0.029311208
102	0xbd1c9bb1	-0.038234416
103	0xbce26839	-0.027637588
104	0x3ca264a2	0.019823376
105	0x3c112d30	0.008860871
106	0x3de1c759	0.11024351
107	0xba33ecd0	-0.0006863596
108	0x3d7cb775	0.061698396
109	0xbc8e4502	-0.01736689
110	0x3c19399b	0.009352113
111	0xbcd41a44	-0.02589143
112	0xbc527261	-0.012844653
113	0x3d96302c	0.07333407
114	0xbcc189c5	-0.023625264
115	0x3c4026b9	0.011727982
116	0xbd6508cb	-0.05591659
117	0x3cc522e8	0.024064496
118	0x3bbcec34	0.0057654623
119	0xbdae5b8f	-0.08513557
120	0x3c8e92b6	0.017403942
121	0xbc0694b5	-0.008214165
122	0xbd225b2d	-0.039637733
123	0x3c5af9d6	0.01336523
124	0xbd79cce5	-0.06098642
125	0x3d1a013d	0.037598837
126	0xbdbbfd34	-0.09179154
127	0xbc3a8392	-0.011383908
128	0x3c85731b	0.016290238
129	0xbc4868f0	-0.01223205
130	0xbcf6f338	-0.030145273
131	0xbd4653a7	-0.04841962
132	0x3b2cd0c9	0.0026369563
133	0x3d9f03e4	0.07764414
134	0x3cf4a243	0.029862529
135	0x3a6a0f3d	0.0008928662
136	0xbd592adc	-0.05301939
137	0xbd879a57	-0.06621235
138	0xbc687015	-0.014186879
139	0xbcf40353	-0.029786741
140	0x3d08a59d	0.033361066
141	0x3c102bb2	0.00879948
142	0x3cc11346	0.02356876
143	0xbd1355eb	-0.03597061
144	0xbd5d8fc5	-0.054092187
145	0x3c3eee41	0.011653484
146	0x3cb15757	0.021648092
147	0xbcf2c524	-0.02963502
148	0xbdc4e66e	-0.096142635
149	0x3bb8b7ac	0.00563713
150	0xbdaf01fc	-0.085453
151	0x3d3dd3b2	0.046344467
152	0x3c77929b	0.015110637
153	0x3cfc6b07	0.030812753
154	0x3d25b908	0.040459663
155	0x3cf437dd	0.029811794
156	0x3d4f4ba6	0.050609253
157	0xbd3de4de	-0.046360843
158	0xbd966583	-0.073435806
159	0x3bd20be9	0.006410111
160	0xbb021ed8	-0.001985481
161	0x3a432f3f	0.00074457
162	0x3b216b60	0.002463065
163	0x3daaefa3	0.08346488
164	0x3bbbe28e	0.0057337945
165	0x3d4965c4	0.049169317
166	0x3c1aed20	0.009455949
167	0xbd9b872a	-0.0759414
168	0xbb40de0c	-0.0029429225
169	0x3cc8827b	0.02447628
170	0x3c5f9a4a	0.013647625
171	0xbc5c8133	-0.013458538
172	0x3cde5575	0.027140358
173	0xbd80df8c	-0.06292638
174	0x3c216086	0.009849673
175	0x3cff263b	0.03114616
176	0x3c47534b	0.012165855
177	0x3cbc0ba5	0.022954771
178	0xbcb76227	-0.02238567
179	0xbd4e15df	-0.050313827
180	0xbcdc6588	-0.026903883
181	0x3c6464ab	0.013940017
182	0x3c88d954	0.016705193
183	0x3cb46c04	0.022024162
184	0x3bf882d0	0.0075839534
185	0xbd0a6b77	-0.033793893
186	0x3b0c699b	0.002142525
187	0xbc317fd2	-0.010833697
188	0xbd2cf239	-0.04222319
189	0x3c5042d5	0.0127112465
190	0xbc61056a	-0.013734201
191	0x3da2f533	0.07956924
192	0xbd207689	-0.039175544
193	0x3d68322c	0.056688473
194	0xbba9bf03	-0.005180241
195	0xb9581e74	-0.0002061071
196	0x3be4d85a	0.006983799
197	0xbcf54a5d	-0.029942686
198	0x3c78e68f	0.015191688
199	0xbd03acd4	-0.032147244
200	0xbd4b375d	-0.049613345
201	0x3c54e7a9	0.012994685
202	0xbd96b9b0	-0.07359636
203	0xbd318ac6	-0.043345235
204	0x3bd20c05	0.0064101242
205	0x3d476621	0.048681382
206	0x3d07f1e5	0.033189673
207	0x3c218fa5	0.009860908
208	0xbd112d9e	-0.035443895
209	0xbbb347fc	-0.0054712277
210	0xbcf3a358	-0.029740974
211	0x3da24677	0.07923596
212	0x3d4503e7	0.048099425
213	0x3c56ae04	0.013103012
214	0x3aca0b6e	0.0015414783
215	0x3d4664fc	0.04843615
216	0xbb3511be	-0.0027628983
217	0xbd841674	-0.06449595
218	0x3c3ae035	0.011405994
219	0x3d01f387	0.031726386
220	0xbc007395	-0.007840057
221	0x3d7669f4	0.06015964
222	0x3c20406e	0.009780986
223	0x3d4a1a2d	0.04934137
224	0x3d6cbe4b	0.057798665
225	0xbc0fc04a	-0.008773873
226	0x3d716d0d	0.05894189
227	0xbd5d181f	-0.05397808
228	0xbce1b232	-0.02755079
229	0xbcf0f211	-0.029412301
230	0x3d87ccc8	0.06630856
231	0xbad1a02f	-0.0015993173
232	0x3b6dd053	0.00362875
233	0xbb90d41d	-0.004419817
234	0xbc3b069e	-0.011415152
235	0x3d0d3e90	0.034483492
236	0x3b4e9fe8	0.0031528417
237	0x3d213553	0.039357495
238	0x3d50a991	0.05094296
239	0xbccda21a	-0.02510171
240	0x3cd71210	0.02625373
241	0x3d50baa5	0.050959248
242	0x3cbeadc6	0.023276221
243	0xbc0496d2	-0.008092599
244	0x3d0224f4	0.031773522
245	0x3ccf4b13	0.025304353
246	0xbd52d271	-0.051470224
247	0xbce08e27	-0.027411534
248	0x3cf4c159	0.029877352
249	0x3c8af02a	0.016960222
250	0x3d172aff	0.03690624
251	0x3cdec2fd	0.027192587
252	0x3d03615c	0.03207527
253	0xbba98349	-0.005173121
254	0x3d01f391	0.031726424
255	0x3d3a5331	0.045489494

network_body._body_endoder.seq_layers.2.weight f4 [256, 256]
0	0x3dcdcca0	0.10048795
1	0x3dca0f52	0.09866203
2	0x3d90ddd9	0.07073564
3	0x3dbda642	0.09260227
4	0x3de20f4f	0.11038076
5	0x3e552d59	0.2081808
6	0x3db1de19	0.0868494
7	0x3d9aeda9	0.07564861
8	0xbc75d672	-0.015004741
9	0x3d933594	0.071879536
10	0x3e0615e0	0.13094282
11	0x3e08cfc4	0.13360506
12	0xbdaa20cb	-0.08307036
13	0xbdc09f38	-0.094053686
14	0x3c228bff	0.009921073
15	0xbe083efa	-0.13305274
16	0x3cf4b2f0	0.02987048
17	0x3de083ca	0.10962637
18	0xbcad728c	-0.021172784
19	0x3dc38ca3	0.09548309
20	0xbd1e419d	-0.038636792
21	0xbe050137	-0.12988745
22	0xbdc1fec5	-0.094724216
23	0xbcbcbe05	-0.023039827
24	0xbdeca533	-0.11554947
25	0xbddaf341	-0.10690928
26	0xbb73f98c	-0.00372276
27	0xbdfcd7ed	-0.12345872
28	0x3dfef747	0.12449508
29	0xbc4d8b72	-0.012545453
30	0x3e842f45	0.25817314
31	0x3d86b676	0.065777704
32	0x3c61fa43	0.013792577
33	0x3cbdc6f4	0.023166157
34	0x3c86438a	0.016389627
35	0xbde0e94d	-0.109819986
36	0x3d8b4f4f	0.06802236
37	0x3c0c3513	0.008557576
38	0xbd590554	-0.052983597
39	0xbcf72a49	-0.03017153
40	0x3d7a00aa	0.06103579
41	0x3e0bf3d4	0.13667232
42	0x3d6fc198	0.058534235
43	0x3e27e645	0.16396435
44	0xbdbf266f	-0.093335025
45	0xbdacbb64	-0.084341794
46	0xbd842d15	-0.06453911
47	0xbbb9d038	-0.0056705736
48	0xbdaf60e8	-0.08563405
49	0x3c2137d5	0.009839972
50	0x3e5d5083	0.21612744
51	0xbe0df075	-0.13861258
52	0x3a3153ce	0.0006764502
53	0x3dd9ce2a	0.10635026
54	0xbe011a32	-0.12607649
55	0x3dab5f6f	0.08367812
56	0x3ced2f7a	0.028953303
57	0x3d19da13	0.037561487
58	0x3b9105d6	0.0044257445
59	0xbd7cdbc4	-0.061733022
60	0x3d8e1fd9	0.06939668
61	0x3d9b58db	0.07585307
62	0x3df6ded3	0.12054219
63	0x3cb1eaf1	0.021718474
64	0xbdedb6da	-0.11607142
65	0x3d329919	0.043603037
66	0xbd10b2af	-0.035326656
67	0x3dbf750a	0.09348495
68	0x3d1c1894	0.038109377
69	0x3c5e5f3d	0.013572511
70	0xbd262073	-0.04055829
71	0xbb155c7d	-0.0022790723
72	0x3d0fcf9d	0.035110105
73	0x3bf97cff	0.0076137776
74	0xbd0bc644	-0.034124628
75	0xbdd33178	-0.1031217
76	0xbd9ad471	-0.07560051
77	0x3c8e52cb	0.017373463
78	0xbd211898	-0.039330095
79	0x3be23c85	0.006904187
80	0x3d78c4eb	0.06073467
81	0xbc152051	-0.009101943
82	0x3cb0ad53	0.021567022
83	0xbd6a3305	-0.057177562
84	0x3d5afb33	0.05346222
85	0xbb541f55	-0.0032367308
86	0x3d553e44	0.052061334
87	0xbcf067b6	-0.029346328
88	0x3a51abca	0.0007998316
89	0xbcd18ca4	-0.025579758
90	0xbcf3dd89	-0.029768722
91	0x3e1b9546	0.15193662
92	0x3d9ac358	0.0755679
93	0xbd6d798d	-0.057977248
94	0x3c439a7f	0.01193869
95	0xbdbe0e80	-0.092801094
96	0x3d205db8	0.039151877
97	0xbb02441d	-0.0019877024
98	0x3c7e4e64	0.0155216195
99	0x3dffe49e	0.12494777
100	0xbd8a2789	-0.06745822
101	0x3c619729	0.01376895
102	0x3b189cb1	0.0023286755
103	0xbd4d94e9	-0.05019084
104	0x3deb8c02	0.11501314
105	0xbc66decf	-0.014091208
106	0xbe0709da	-0.13187352
107	0x3d26d3cc	0.04072933
108	0x3d5adb01	0.053431515
109	0xbe0ff448	-0.1405803
110	0xbdd7dcbe	-0.1054015
111	0xbd2bc316	-0.041934095
112	0x3d89cb67	0.06728249
113	0x3db148d3	0.08656468
114	0x3e113371	0.1417978
115	0xbd9a5f12	-0.075376645
116	0xbd8445d8	-0.06458634
117	0xbe0f5fd9	-0.14001407
118	0x3dce8058	0.100830734
119	0xbd701f88	-0.05862382
120	0xbbc13a2d	-0.0058968277
121	0x3db0a112	0.08624472
122	0xbd443e7c	-0.047911152
123	0xbe0258bf	-0.12729166
124	0xbda5394c	-0.08067569
125	0x3e03a33c	0.12855238
126	0xbd72f535	-0.05931588
127	0x3dae63ca	0.08515127
128	0xbd80a884	-0.06282142
129	0xbe4aeff7	-0.19818102
130	0x3d6ffcc2	0.058590658
131	0xbdda02f1	-0.10645092
132	0xbdd55aef	-0.10417735
133	0xbdd412ca	-0.10355146
134	0x3de17c73	0.11010065
135	0x3c1c6dfd	0.009547708
136	0x3a36ff52	0.0006980795
137	0xbd58e3f7	-0.05295178
138	0x3de2d440	0.1107564
139	0x3c124950	0.008928612
140	0x3cac4c61	0.021032514
141	0x3e3193c5	0.17341526
142	0xbda927c2	-0.08259536
143	0x3d52344b	0.0513194
144	0xbd53be2c	-0.051695034
145	0x3d89441d	0.06702445
146	0x3d9e5828	0.07731658
147	0x3d869d1c	0.06572935
148	0xbcea848c	-0.028627656
149	0xbe2a6bfd	-0.16642757
150	0xbda4933f	-0.080358975
151	0x3b865780	0.0040997863
152	0x3d97b947	0.07408386
153	0x3d6faeca	0.0585163
154	0xbdf6cfb9	-0.12051339
155	0xbd91f3ec	-0.071266025
156	0x3d4f5b41	0.050624136
157	0x3e017d76	0.12645516
158	0x3ccac1ac	0.024750553
159	0x3dd16b6f	0.102255695
160	0xbdb382c7	-0.08765178
161	0xbd0e5419	-0.03474817
162	0xbc1dc72e	-0.009630008
163	0xbd81d050	-0.063385606
164	0x3cdc09d7	0.02686016
165	0xbdfe6abd	-0.124227025
166	0xbd2be10b	-0.041962665
167	0xbd0e1cf3	-0.034695577
168	0x3c4ae9c3	0.012384835
169	0x3d607f9a	0.05480919
170	0xbdf0f4db	-0.117654525
171	0xbb16f2b9	-0.0023032858
172	0x3dfb7d74	0.12279788
173	0xbe026f1b	-0.12737696
174	0xbdd82fc2	-0.10555984
175	0x3e09af67	0.13445817
176	0x3d90034d	0.070318796
177	0xbcf854fa	-0.030313957
178	0xbcf17f3b	-0.029479614
179	0xbc6b67eb	-0.014368038
180	0x3c8220db	0.015884807
181	0x3e0e7fd8	0.13915956
182	0xbc947663	-0.018122857
183	0xbced84a5	-0.028993914
184	0x3e113568	0.14180529
185	0x3e33eb55	0.17570241
186	0x3c661d2b	0.01404504
187	0xba4b9676	-0.0007766256
188	0x3d90fd26	0.07079534
189	0x3d166e81	0.03672648
190	0xbdacc75d	-0.08436463
191	0x3cf01138	0.029305086
192	0x3dbbfce8	0.091790974
193	0xbdf19a49	-0.11797006
194	0xbd271c53	-0.040798496
195	0x3db2be48	0.087276995
196	0xbe005c44	-0.12535197
197	0x3d35c476	0.044376813
198	0xbdeed677	-0.11662
199	0xbab13157	-0.0013518733
200	0xbd492df2	-0.049116082
201	0xbdd5024c	-0.10400829
202	0xbcf1f68a	-0.029536504
203	0x3d156e5a	0.036482193
204	0xbda94f29	-0.08267052
205	0x3b944533	0.0045248508
206	0x3d51fc1c	0.05126582
207	0x3e06b87c	0.13156313
208	0x3cdacbe2	0.026708547
209	0x3c6b2dc3	0.014354172
210	0x3d9a9ef9	0.07549853
211	0xbd24a33f	-0.040194746
212	0xbe34da54	-0.1766141
213	0x3d74134e	0.059588723
214	0xbd94d3fe	-0.07266997
215	0x3c4aaf4e	0.012370897
216	0x3dd7fd76	0.10546391
217	0x3c0c547d	0.008565065
218	0x3bf46166	0.0074579
219	0xbdad9a5d	-0.08476708
220	0x3de1ac59	0.11019201
221	0x3d71e2bf	0.059054133
222	0x3c4f1f48	0.012641735
223	0xbd4bb9ff	-0.049737927
224	0x3c57d4c6	0.013173288
225	0x3db15d59	0.08660383
226	0xbe5d7ea1	-0.21630336
227	0x3cc2baf3	0.023770785
228	0x3ca7a44c	0.020464085
229	0x3d44655a	0.04794822
230	0x3c9b2d33	0.018942451
231	0x3dbc6c36	0.09200327
232	0xbd82fe58	-0.063961685
233	0x3dacc02d	0.08435092
234	0x3d35bae3	0.044367682
235	0x3e607d5d	0.21922822
236	0xbc9933e4	-0.018701501
237	0x3d5ee114	0.05441387
238	0xbe235db7	-0.15953718
239	0xbd4ac024	-0.049499646
240	0xbd748a86	-0.05970242
241	0x3db46c30	0.08809698
242	0xbc91ca0a	-0.017796535
243	0xbcdd8f4d	-0.02704587
244	0xba97db13	-0.0011585675
245	0x3ded3177	0.115817
246	0xbda939ce	-0.082629785
247	0xbd7a712f	-0.061143097
248	0xbdaf3065	-0.085541524
249	0x3cbed323	0.023294037
250	0x3cc88892	0.024479184
251	0xbd6178cd	-0.055046845
252	0x3d4dd38c	0.050250575
253	0x3dd2626a	0.10272677
254	0xbe5ccdc5	-0.2156287
255	0x3e1e4b9f	0.15458535

network_body._body_endoder.seq_layers.2.bias f4 [256]
0	0x3d87459d	0.066050746
1	0x3cabea1e	0.02098566
2	0xbd96aa9c	-0.0735676
3	0xbda7c527	-0.08191901
4	0xbd5a2736	-0.05326005
5	0x3ccd4558	0.02505748
6	0xbceb3828	-0.0287133
7	0x3a78e977	0.0009495238
8	0xbb807c95	-0.0039211013
9	0xbdcec46c	-0.10096058
10	0xbd32ccff	-0.04365253
11	0x3da07846	0.0783544
12	0xbd3a4221	-0.04547322
13	0x3d69b7e2	0.05706013
14	0xbda61d2f	-0.08111035
15	0xbd157d5f	-0.036496516
16	0xbbc20a57	-0.0059216428
17	0xbdd5d9cc	-0.10441932
18	0x3c05f30d	0.008175624
19	0xbd13dce2	-0.036099322
20	0x3d260df2	0.040540643
21	0x3bc36ee5	0.0059641474
22	0x3cd1db6e	0.025617328
23	0xbdd3f773	-0.103499316
24	0xbd12609f	-0.035736676
25	0x3d580803	0.052742016
26	0xbd8e6233	-0.06952324
27	0xbc3c841d	-0.011506108
28	0xbd56e217	-0.05246171
29	0x3d083590	0.033254206
30	0xbd6c7f7c	-0.057738766
31	0x3d6fa788	0.05850938
32	0xbce16d71	-0.027518006
33	0xbc8ca150	-0.017166764
34	0xbc363b38	-0.011122517
35	0x3d354dd2	0.04426367
36	0xbd5a10f8	-0.05323884
37	0xbc9eca35	-0.01938353
38	0x3bedb238	0.0072539113
39	0xbc2ff217	-0.010738871
40	0x3ce0dec3	0.027449971
41	0xbcf9f77e	-0.030513521
42	0x3d9801c9	0.074222155
43	0x3d196ba8	0.037456185
44	0xbd8ba21e	-0.06818031
45	0xbda5480f	-0.08070385
46	0x3c3876a4	0.011258755
47	0xbdb76c05	-0.0895615
48	0xbc98154a	-0.018564839
49	0x3cd11e15	0.02552704
50	0x3d29b4bc	0.041432127
51	0xbd9b2771	-0.07575882
52	0x3d81fd5e	0.06347154
53	0x3d60b024	0.05485548
54	0x3c4d8e5c	0.012546148
55	0xbc77edee	-0.01513241
56	0xbd235cec	-0.03988354
57	0x3bceab32	0.006307029
58	0x3d65f180	0.056138515
59	0xbc87953a	-0.016550649
60	0x3b96721b	0.004591239
61	0x3d8a1e40	0.06744051
62	0xbca83201	-0.020531656
63	0xbd14a42a	-0.03628937
64	0xbdfa7985	-0.12230209
65	0x3b0d5d3b	0.0021570462
66	0xbd0d7fe0	-0.03454578
67	0xbda4f964	-0.0805538
68	0xbd8969fd	-0.06709669
69	0xbd81c283	-0.06335928
70	0xbc7d8d9d	-0.015475658
71	0x3b3e2f54	0.002901991
72	0xbd832f4c	-0.064055055
73	0xbd6feb5a	-0.058574058
74	0xbd4e8fe4	-0.050430194
75	0xbd21f99a	-0.03954468
76	0xbca0dbf2	-0.019636128
77	0xbcc6cee3	-0.024268573
78	0x3ce361d5	0.02775661
79	0xbd552a85	-0.052042503
80	0xbca7df6e	-0.020492282
81	0xbd0fdc91	-0.035122458
82	0xbd0338f0	-0.03203672
83	0x3c537395	0.012905975
84	0xbc82f6d2	-0.015986834
85	0xbdb5f9bc	-0.08885524
86	0xbc49743d	-0.01229578
87	0xbca42cfc	-0.020040981
88	0xbbfae108	-0.0076562203
89	0xbcfef01f	-0.031120358
90	0x3d2f840d	0.042850543
91	0x3bdf6594	0.006817529
92	0xbcd603ec	-0.026124917
93	0x3c39c8d6	0.011339387
94	0x3cf377e6	0.029720258
95	0xbd0f5b78	-0.03499934
96	0x3c414797	0.0117968535
97	0xbd3cc6f3	-0.04608817
98	0x3cf26a93	0.029591834
99	0x3d617955	0.055047352
100	0xbd1373c2	-0.035999067
101	0xbd3d75a9	-0.046254788
102	0xbd76a856	-0.06021913
103	0xbd1633c6	-0.03667047
104	0x3d093b2a	0.03350369
105	0x3d86092d	0.06544719
106	0x3d0515e2	0.032491572
107	0xbd53df2c	-0.051726505
108	0xbe02bc5c	-0.12767166
109	0x3c7c7ed9	0.015411102
110	0x3d1d5e62	0.03842009
111	0xba33bdbe	-0.0006856582
112	0xbdb4e297	-0.08832281
113	0x3d3cd5f7	0.04610249
114	0x3a23d9ab	0.00062503916
115	0x3d57ce11	0.052686755
116	0xbc173872	-0.009229766
117	0x3cb3c584	0.021944769
118	0xbd828194	-0.06372371
119	0xbdd0f803	-0.102035545
120	0xbda50823	-0.080581926
121	0xbd48b7d2	-0.04900343
122	0xbb7d4211	-0.0038644115
123	0x3cc380db	0.023865154
124	0xbd2850ed	-0.0410928
125	0xbb4ee767	-0.0031571032
126	0xbd281fc0	-0.041045904
127	0xbc6ae5c7	-0.01433701
128	0xbce3a1fb	-0.0277872
129	0xbcf07dc0	-0.029356837
130	0xbc8aa69d	-0.01692515
131	0xbc0ab388	-0.008465655
132	0xbcd0cc89	-0.025488155
133	0xbd3983e7	-0.045291808
134	0x3ad0669a	0.0015899718
135	0xbde04e4c	-0.10952434
136	0xbc9fee00	-0.019522667
137	0xbd1216dd	-0.035666335
138	0xbc91251c	-0.01771789
139	0xbca6a086	-0.020340215
140	0xbdfd2db5	-0.123622335
141	0x3c84e51e	0.016222533
142	0xbbe99494	-0.0071283076
143	0x3d250553	0.04028828
144	0xbd35ffe9	-0.044433508
145	0xbdcc3349	-0.09970719
146	0xbd036b3c	-0.03208469
147	0x3d68d76b	0.056846064
148	0xbd0610e7	-0.032730963
149	0xbcea41d6	-0.028595846
150	0xbd27072f	-0.040778335
151	0x3d3a7eed	0.045531202
152	0x3d2e42fe	0.042544357
153	0xbc56def8	-0.013114683
154	0xbd353a89	-0.044245277
155	0x3cf5947d	0.029978031
156	0xbcfaf4b5	-0.030634264
157	0xbc9b040b	-0.018922826
158	0xbdd79612	-0.105266705
159	0xbc4663fa	-0.012108797
160	0x3cf36250	0.029709965
161	0xbdad84af	-0.08472573
162	0xbd988c4e	-0.07448636
163	0xbcdafb40	-0.026731133
164	0xbd7f99e1	-0.06240261
165	0xbd328349	-0.043582235
166	0xbb38f6fd	-0.0028223388
167	0xbd56b351	-0.052417103
168	0xbcaf395f	-0.021389661
169	0xbdb8687c	-0.09004304
170	0xbd542b41	-0.051799063
171	0xbdacb485	-0.08432869
172	0x3d93445d	0.07190774
173	0x3d17b44a	0.03703717
174	0x3c17d682	0.009267451
175	0xbcce7ab3	-0.025204992
176	0xbd0f89c6	-0.0350435
177	0xbcab3f1d	-0.020904118
178	0x3cc7405d	0.024322683
179	0xbd8cd309	-0.06876189
180	0xbe01680f	-0.12637351
181	0xbc9dd5c0	-0.019266963
182	0xbcbbb135	-0.022911647
183	0xbd01f4ff	-0.031727787
184	0xbcf2fe35	-0.029662231
185	0xbd8ca338	-0.06867069
186	0xbd37ab70	-0.04484123
187	0xbd1f8b69	-0.03895131
188	0xbd626899	-0.055275533
189	0xbd06d33e	-0.0329163
190	0x3d62b25e	0.055345885
191	0xb5b8923a	-1.3751626e-06
192	0x3b86598d	0.0041000308
193	0x3d4aa67d	0.04947518
194	0x3c5923a0	0.013253123
195	0xbcf8a5d8	-0.030352518
196	0xbd21b396	-0.039477907
197	0xbc39f4ad	-0.011349839
198	0x3d8adadc	0.06780025
199	0x3cbb1370	0.022836417
200	0xbd844b8c	-0.06459722
201	0x3d5df81c	0.054191694
202	0xbd685de7	-0.056730177
203	0x3ca5753e	0.020197507
204	0xbc81007e	-0.015747305
205	0xbc815675	-0.015788296
206	0x3c47add9	0.012187445
207	0xbcbf8b50	-0.023381859
208	0xbdf3cbf2	-0.11904134
209	0x3c0491e5	0.008091425
210	0xbd07f66d	-0.033193994
211	0xbd554045	-0.052063245
212	0xbc46428e	-0.012100829
213	0xbdc9bfde	-0.09851049
214	0xbcf82c0e	-0.030294444
215	0xbcff065c	-0.031130962
216	0x3d13098b	0.035897773
217	0x3d8096b8	0.06278747
218	0xbbfa18b1	-0.007632338
219	0xbcd83d08	-0.02639629
220	0x3b3b699f	0.002859689
221	0x3d555128	0.05207935
222	0xbd5eb379	-0.054370377
223	0xbbe50454	-0.0069890413
224	0xbd6df4e8	-0.05809489
225	0xbc76cb6e	-0.01506315
226	0x3d250140	0.040284395
227	0xbd55ef46	-0.052230142
228	0xbc5bcee5	-0.013416027
229	0xbb908a13	-0.004410991
230	0x3d1c706a	0.038193144
231	0xbda90e13	-0.082546376
232	0xbce5102a	-0.02796181
233	0xbce33e43	-0.02773965
234	0xbacd3eef	-0.0015659014
235	0xbd6a6fad	-0.05723541
236	0xbd6e8c5e	-0.058239333
237	0xbd1bd9fd	-0.038049687
238	0x3d05691a	0.032570936
239	0x3cf1548f	0.029459266
240	0x3bd391c7	0.006456587
241	0xbbfe9d3e	-0.0077702096
242	0xbd17352c	-0.036915943
243	0x3c6a428a	0.014298091
244	0xbc0ee339	-0.008721166
245	0x399fb472	0.00030461285
246	0xbca43fa0	-0.02004987
247	0x3be16174	0.0068780724
248	0xbc9aeda8	-0.018912151
249	0xbd8f1ccf	-0.06987917
250	0xbdbc28e0	-0.09187484
251	0xbbc1a5f7	-0.005909677
252	0x3b4a7d7d	0.003089755
253	0xbdb355a5	-0.0875657
254	0xbd863963	-0.065539144
255	0xbc9fd045	-0.01950849

action_model._continuous_distribution.log_sigma f4 [1, 3]
0	0xbdd0deda	-0.101987556
1	0xbfa527d8	-1.2902784
2	0xbe84534e	-0.25844806

action_model._continuous_distribution.mu.weight f4 [3, 256]
0	0x3d4c1119	0.049820993
1	0x3cc56b79	0.024099099
2	0xbd0d9182	-0.034562595
3	0xbd78f07e	-0.060776226
4	0x3cf8e0ae	0.030380573
5	0x3c8f0c19	0.017461823
6	0xbcff275a	-0.031146694
7	0x3d1c2ebb	0.038130503
8	0xbb68fba4	-0.003555038
9	0xbbef18dd	-0.007296665
10	0x3d0116f7	0.03151604
11	0x3d42edf7	0.047590222
12	0xbce73f74	-0.028228499
13	0x3c875d0b	0.016523859
14	0xbc31bf04	-0.010848764
15	0xbd470c9a	-0.048596002
16	0x3c7c1495	0.0153857665
17	0xbd866375	-0.06561939
18	0x3c9f7499	0.019464778
19	0xbd0ae55f	-0.03391015
20	0x3a4db27d	0.0007846726
21	0x3cf332ba	0.029687274
22	0xbcc2c899	-0.023777293
23	0xbdac5b33	-0.08415832
24	0x3ca8f886	0.020626318
25	0x3cfdc436	0.03097735
26	0xbdd913e6	-0.105994985
27	0xbd3b697c	-0.045754895
28	0xbd78749c	-0.060658082
29	0x3c629e8d	0.013831747
30	0x3d411dc9	0.047147546
31	0x3d1fb9bf	0.0389955
32	0xbc5cbd43	-0.013472858
33	0xbc94ed01	-0.018179419
34	0x3d1b233a	0.03787539
35	0x3baac68e	0.005211658
36	0x3c34a715	0.011026164
37	0xbd016c90	-0.031597674
38	0x3abd705c	0.0014453041
39	0x3bf77612	0.007551917
40	0x3c060ffb	0.008182521
41	0x3c495e3e	0.0122905355
42	0x3d4ba782	0.049720295
43	0x3d34e095	0.04415949
44	0xbd005781	-0.03133345
45	0xbc8203e4	-0.015870996
46	0x3c836fb3	0.016044473
47	0xbd03fbfd	-0.032222737
48	0x3c639c1b	0.013892199
49	0x3ce660f0	0.028122395
50	0x3d09c74e	0.033637337
51	0xbc7e894d	-0.015535665
52	0x3cafc10e	0.02145436
53	0xbaa04318	-0.0012227027
54	0xbccfa0d6	-0.025345247
55	0xbb7c0214	-0.0038453387
56	0xbd053cb7	-0.032528605
57	0x3c64a5b9	0.013955527
58	0x3cb6ddb9	0.022322522
59	0xbd561058	-0.05226168
60	0xbd08673c	-0.033301577
61	0x3cb88c21	0.022527756
62	0xbd39ef20	-0.045394063
63	0x3d4f4721	0.050604943
64	0xbd980e11	-0.07424558
65	0x3b1cc2c1	0.0023919793
66	0xbc4bd623	-0.012441191
67	0xbd9d75e9	-0.07688505
68	0xbcec1181	-0.02881694
69	0xbcc25450	-0.023721844
70	0x3d1c5f1d	0.038176645
71	0x3cdfbdb8	0.027312145
72	0xbc8b06e2	-0.016971055
73	0x3cebf5c8	0.028803721
74	0xbb6928f0	-0.003557738
75	0xbd72149f	-0.059101697
76	0x3cc601ec	0.024170838
77	0xb8fa60f3	-0.00011938987
78	0x3d2229e2	0.039590724
79	0xbccf2949	-0.025288241
80	0x3c5c34c0	0.013440311
81	0xbd812e44	-0.063076526
82	0x3af3c504	0.0018598144
83	0xbc7ac76d	-0.015306336
84	0x3db2e9bc	0.087359875
85	0xbd1e4f45	-0.038649816
86	0xbd31ac38	-0.04337713
87	0x3cbf9706	0.023387443
88	0xbcb1d705	-0.021708975
89	0xbc9258f3	-0.01786468
90	0x3be0418b	0.006843751
91	0x3d3360ec	0.043793604
92	0xbc998210	-0.018738776
93	0x3cb3c6f6	0.021945458
94	0x3d37a096	0.04483088
95	0xbcfc079b	-0.030765345
96	0x3c418378	0.01181113
97	0xbcf5c82c	-0.030002676
98	0x3aa54c72	0.0012611283
99	0x3d4510e0	0.048111796
100	0xbdbd1683	-0.092328094
101	0xbc255e82	-0.010093333
102	0xbdcbb1d8	-0.099460304
103	0xbcf13b1a	-0.029447127
104	0x3c90590c	0.017620586
105	0x3d84cf0e	0.06484805
106	0x3d264dab	0.040601414
107	0x3cd1f9de	0.025631841
108	0xbd95bf3e	-0.07311867
109	0xbc6b5e19	-0.014365696
110	0x3cb20dce	0.021735098
111	0xbc1813d0	-0.009282067
112	0xbc8739d0	-0.01650706
113	0x3cddf8e7	0.027096225
114	0x3cb95ac9	0.022626298
115	0x3d236105	0.039887447
116	0x3d312c90	0.04325539
117	0x3cee3df9	0.029082285
118	0xbd8aac3f	-0.067711346
119	0xbd65a053	-0.0560611
120	0x3c4a19cf	0.012335255
121	0x3d38990a	0.045067824
122	0x3c605db1	0.013694213
123	0x3bb01619	0.005373728
124	0x3d524786	0.05133774
125	0x3cdd04a5	0.026979754
126	0xbd20a608	-0.03922084
127	0xb9d5cc76	-0.0004077886
128	0xbd13d94d	-0.036095906
129	0x3c953144	0.018211968
130	0x3c2dff55	0.010619958
131	0xbd2a175c	-0.041526183
132	0xbd84c737	-0.0648331
133	0xbbe15776	-0.0068768812
134	0xbca63ca3	-0.020292586
135	0xbdb452c1	-0.088048466
136	0xbd1c4346	-0.038150094
137	0xbb2f9032	-0.0026788828
138	0x3cfb0619	0.030642556
139	0xbb343e1b	-0.0027502838
140	0xbdc8c70b	-0.098035894
141	0xbd308023	-0.04309095
142	0x3cbecc46	0.023290765
143	0x3b67d89b	0.003537691
144	0xbd721021	-0.059097413
145	0xbd928420	-0.07154107
146	0x3c7f0f79	0.015567654
147	0x3cb9cc98	0.022680566
148	0xbcc8f833	-0.024532413
149	0x3d015417	0.031574335
150	0xbce3f0c7	-0.027824773
151	0x3c53d3da	0.012928927
152	0x3baa17a6	0.0051908074
153	0x3c7aeeb9	0.015315705
154	0xbd0848e5	-0.033272643
155	0x3c904ff4	0.01761625
156	0xbc26a69a	-0.010171557
157	0xbd3409d1	-0.043954674
158	0xbd9648e8	-0.073381245
159	0xbc72aea3	-0.014812144
160	0x3bb0f76a	0.005400588
161	0xbd3e68ac	-0.04648654
162	0xbb943b8b	-0.0045236996
163	0xbda7563f	-0.08170747
164	0xbd4f396d	-0.050591875
165	0xbb1f4f70	-0.0024308823
166	0xbc1d6839	-0.009607368
167	0x3ca66230	0.020310491
168	0x3c824efb	0.015906801
169	0xbcc96aee	-0.02458712
170	0xbd16c119	-0.036805246
171	0xbd7b0792	-0.061286516
172	0x3cadf0a8	0.021232918
173	0x3cf033ec	0.029321633
174	0x3d005149	0.03132752
175	0xbbcdd218	-0.0062811486
176	0xbcdf4d70	-0.027258605
177	0x3bc6f54d	0.0060717226
178	0xbd2756c7	-0.04085424
179	0xbc7f7f30	-0.015594289
180	0xbda8d4e8	-0.08243734
181	0x3d6928e1	0.05692375
182	0xbccbe54d	-0.024889613
183	0xbdb1a8a6	-0.08674745
184	0xbb84e826	-0.0040559946
185	0xbcff1718	-0.031138942
186	0xbda33120	-0.07968354
187	0xbdc90524	-0.098154336
188	0xbdba4931	-0.090959914
189	0x3d29eaa1	0.041483525
190	0x3ac104cd	0.0014726162
191	0xbb5b2e62	-0.0033444394
192	0x3d23988e	0.03994041
193	0x3d414c6f	0.047192033
194	0xbb8fe33a	-0.004391101
195	0xbc43a35f	-0.011940806
196	0xbcdb5147	-0.026772154
197	0x3cbc9c15	0.023023644
198	0x3d1d4937	0.0383999
199	0x3c9d2084	0.019180544
200	0xbd44fdfc	-0.04809378
201	0x3ca512b7	0.020150525
202	0xbb7bad01	-0.003840268
203	0x3cdb685a	0.026783157
204	0xbd5e3a0b	-0.054254573
205	0xbb8ff11d	-0.0043927566
206	0x3d65a7a7	0.05606809
207	0xb99c4c86	-0.00029811653
208	0xbd9c39d4	-0.07628217
209	0x3b46b720	0.0030321553
210	0xbd1d3e4a	-0.03838948
211	0xbccfbf87	-0.025359882
212	0x3b88a9a2	0.0041706124
213	0xbd63a295	-0.055574972
214	0x3c7f2ad9	0.0155741805
215	0xbd01c26c	-0.031679556
216	0x3d03d2af	0.032183345
217	0x3bbee090	0.00582511
218	0x3d0ff4ef	0.035145696
219	0xbd650616	-0.055914007
220	0xbc473321	-0.012158186
221	0x3c95acab	0.018270811
222	0xba1e8e5d	-0.00060484355
223	0x3c192dad	0.009349269
224	0xbd1b0fdb	-0.037856918
225	0xbcd945c4	-0.026522525
226	0x3ccb5e06	0.024825107
227	0xbd771ee1	-0.060332183
228	0xbc3441ca	-0.011002013
229	0xbcd6fe4c	-0.026244305
230	0x3d0ea4f5	0.034825284
231	0xbdbee75d	-0.09321473
232	0xbd4da9fb	-0.050210934
233	0xbc49edf7	-0.012324802
234	0xbd1c1255	-0.03810342
235	0xbcdbb13f	-0.026817916
236	0xbd5d547a	-0.05403564
237	0xb74cfb6a	-1.2217884e-05
238	0x3c45c801	0.01207161
239	0xbb340eab	-0.0027474563
240	0x3d08054a	0.03320817
241	0xbc96e02c	-0.01841744
242	0x3d39e409	0.045383487
243	0xbd19aea0	-0.03752005
244	0xbcb3d4b3	-0.021952009
245	0x3cbadf37	0.022811515
246	0x3c6fbc96	0.014632365
247	0xbcf5304e	-0.02993026
248	0x3d520e5a	0.051283218
249	0xbd04b0bd	-0.032395113
250	0xbd335753	-0.04378445
251	0x3c86b87f	0.016445396
252	0x3c02bf14	0.007980127
253	0xbd710668	-0.058844
254	0xbd3836ee	-0.04497426
255	0xbcf725ff	-0.030169485

action_model._continuous_distribution.mu.bias f4 [3]
0	0x3db08852	0.08619751
1	0x3d3222e9	0.043490324
2	0xbda865cc	-0.08222541

onnx::Div_61 f4 [68]
0	0x3efffb5b	0.49996457
1	0x3d1fc4b3	0.039005946
2	0x3efffd69	0.49998024
3	0x3e2946cc	0.16530913
4	0x3efe14f8	0.49625373
5	0x3d0f0cc7	0.034924295
6	0x3efe2888	0.49640298
7	0x3e322149	0.1739551
8	0x3eebccd5	0.46054712
9	0x3d175f16	0.036955915
10	0x3eeb809e	0.45996565
11	0x3e51d7cf	0.2049248
12	0x3effe817	0.49981758
13	0x3cf6a1ab	0.030106386
14	0x3effe497	0.49979088
15	0x3e5e54f6	0.21712098
16	0x3ed0233b	0.4065188
17	0x3d0d8405	0.03454973
18	0x3ecfb284	0.40565884
19	0x3e78e884	0.24307448
20	0x3ed9645f	0.4245939
21	0x3cee82c4	0.029115088
22	0x3ed91f08	0.42406487
23	0x3e828d3b	0.25498375
24	0x3eae1102	0.3399735
25	0x3d06b943	0.032891523
26	0x3ead7774	0.33880198
27	0x3e788571	0.24269654
28	0x3ea08e15	0.313584
29	0x3cbb8843	0.022892123
30	0x3ea0388c	0.31293142
31	0x3e6fe9a3	0.23428969
32	0x3e7b4938	0.2453965
33	0x3cfe5f72	0.031051371
34	0x3e7985d8	0.24367464
35	0x3e504257	0.20337807
36	0x3e722a3c	0.23648924
37	0x3c939878	0.018017039
38	0x3e718aed	0.23588152
39	0x3e48cde2	0.19609788
40	0x3e042c0e	0.1290743
41	0x3cf05e04	0.029341705
42	0x3e00d358	0.12580621
43	0x3e1468f9	0.14493169
44	0x3e23b06f	0.15985273
45	0x3c843591	0.016138824
46	0x3e22e597	0.15907894
47	0x3e1c4be9	0.15263332
48	0x3d8b392c	0.06798014
49	0x3cdfd8c8	0.027325049
50	0x3d7f2757	0.062293377
51	0x3de755e3	0.112956785
52	0x3dc17c41	0.09447528
53	0x3c63dc8b	0.013907562
54	0x3dbf6af5	0.09346572
55	0x3dee91d3	0.116489075
56	0x3d2e9c9a	0.042629816
57	0x3cd0caf3	0.025487399
58	0x3d0c1049	0.03419522
59	0x3dc6a9b6	0.097003385
60	0x3d6744bf	0.056462046
61	0x3c51aa83	0.012797001
62	0x3d614abc	0.055002913
63	0x3dc79477	0.09745114
64	0x3cfc562a	0.030802805
65	0x3cc8a39b	0.024492076
66	0x3c990ae4	0.01868195
67	0x3db6c5d4	0.089244515

onnx::Div_64 f4 [7]
0	0x3f011380	0.5042038
1	0x3e16e677	0.14736353
2	0x3f40c76c	0.75304294
3	0x3e073eca	0.13207546
4	0x3d985d14	0.07439628
5	0x3a2721f6	0.0006375605
6	0x3a2721f6	0.0006375605
