results/fase2/BlueCar/BlueCar-999886.onnx (onnx, 350882 bytes, 11 tensors)

network_body.observation_encoder.processors.0.normalizer.running_mean f4 [68]
000000 81 a6 02 3f a3 cf e6 3b 93 17 f7 3e 90 f5 59 3f
       0.51035315 0.007043795 0.48260173 0.85140324
000010 ec ac b4 3e 4c 60 0f 3c f6 6b 23 3f 99 30 68 3f
       0.3528818 0.008750986 0.6383661 0.90699154
000020 23 a6 46 3f b5 0a e3 3b 71 4f 5e 3e f1 a4 2e 3f
       0.77597255 0.0069287666 0.21709992 0.6822043
000030 39 bc c6 3e 00 3f 0c 3c e9 70 1a 3f 19 aa 61 3f
       0.38815477 0.008559942 0.6032854 0.88150173
000040 44 de 62 3f 24 cd d9 3b 79 70 db 3d 35 ba 01 3f
       0.886204 0.006646769 0.10714812 0.50674754
000050 9e 61 25 3f 3d 52 bf 3b 2e 3f b2 3e 08 7a 49 3f
       0.64602077 0.005838661 0.34813827 0.7870183
000060 49 90 6d 3f ff ce c7 3b 3f 00 87 3d 29 fd c6 3e
       0.92798287 0.006097674 0.06591844 0.3886502
000070 7e fa 5b 3f 32 35 99 3b 0f 4c 0b 3e ac 7a 1e 3f
       0.85929096 0.004675531 0.13603233 0.6190593
000080 31 34 74 3f 84 c7 c1 3b 8a 82 24 3d 8d 34 9d 3e
       0.9539214 0.0059136767 0.040163554 0.30704156
000090 ca a2 71 3f de f3 88 3b 55 b2 54 3d ab 63 f1 3e
       0.9438902 0.004179462 0.051927883 0.47146353
0000a0 ae f3 79 3f fe 91 b8 3b df 61 93 3c 67 9a 7f 3e
       0.9763745 0.005632638 0.017991005 0.24961244
0000b0 62 41 78 3f 1d f7 7a 3b 01 73 d8 3c c5 27 c7 3e
       0.96974766 0.0038294264 0.026422026 0.3889753
0000c0 0c b3 7c 3f b4 3e b2 3b 76 2e f4 3b 04 41 5c 3e
       0.98710704 0.0054396037 0.0074518276 0.21509176
0000d0 4f c7 7b 3f 6e 99 65 3b 2a c5 54 3c 4d f5 ad 3e
       0.98350996 0.0035034078 0.012986461 0.33976212
0000e0 38 11 7e 3f d8 9f ad 3b 38 68 13 3b ea ce 45 3e
       0.99245024 0.005298596 0.002249254 0.19317213
0000f0 12 db 7d 3f b7 9a 59 3b 0c 90 a5 3b b4 7d 9e 3e
       0.991624 0.003320379 0.005052572 0.3095528
000100 3d 7c 7e 3f 92 0c b2 3b 23 36 fc 39 2f 24 38 3e
       0.9940832 0.0054336274 0.0004810552 0.17982553

network_body.observation_encoder.processors.1.normalizer.running_mean f4 [7]
000000 15 71 ae 3e f4 39 fe 3d d9 22 5c 3e 6f 72 f4 3e
       0.3407065 0.124133974 0.21497668 0.47743556
000010 81 96 0c bc 00 00 00 00 00 00 00 00
       -0.008580805 0.0 0.0

network_body._body_endoder.seq_layers.0.weight f4 [256, 75]
000000 e6 33 6e be 90 16 1b 3e 42 3f 4f bd 27 1f 81 3d
       -0.23261985 0.15145326 -0.050597437 0.0630477
000010 e4 89 7e be 3e 9f a6 3d 7d 3d 6f 3e ed a5 6b 3e
       -0.24857289 0.08135842 0.233633 0.23012514
000020 97 f6 cf bd db ce 9b ba 91 7f 25 be aa de bf 3d
       -0.10154455 -0.0011887209 -0.16161944 0.09368642
000030 d4 db a5 3c f0 23 c4 bd c4 18 0c 3d f4 ce 1a 3e
       0.020246424 -0.09577167 0.034203306 0.15118009
000040 be 73 48 3e e3 07 47 bd 2b d6 bf 3d 3a 96 bf ba
       0.19575402 -0.048591506 0.09367021 -0.0014616915
000050 78 35 8f bd 93 32 6b 3d 97 8b b8 3d f4 57 c2 3d
       -0.0699262 0.05742128 0.09011 0.09489432
000060 ef ad a6 3d 7e 2c 1e be 2c 06 dc 3d e2 f9 66 3e
       0.08138644 -0.1544666 0.10743365 0.2255626
000070 28 92 84 3c 32 da ad be ed d6 c6 bd fe 05 5f 3d
       0.016182974 -0.33955532 -0.097089626 0.054449074
000080 ab 4e 10 bd 51 79 46 be ab ec 04 be bb b8 b0 bd
       -0.035231274 -0.19382216 -0.12980907 -0.086289845
000090 03 9f 55 3e 87 af c1 bc 15 9d f8 ba 64 41 39 be
       0.2086144 -0.023643268 -0.0018967713 -0.18091351
0000a0 78 5c b7 bd d3 48 2a bd 68 e5 82 3d 58 4d 3a 3d
       -0.08953184 -0.041573357 0.06391412 0.045483917
0000b0 a5 8e 48 bd f2 47 c8 3d 07 92 9c 3d 64 0b 23 bd
       -0.04896416 0.097793475 0.0764504 -0.039805785
0000c0 bc 06 43 3e 0d 81 18 bb e7 2b 76 bd 51 de 24 be
       0.19045538 -0.002327028 -0.060100462 -0.16100432
0000d0 b2 91 ec 3d 49 eb 09 3e 18 35 89 bd fa 8d 15 be
       0.11551227 0.1346866 -0.0669958 -0.14604941
0000e0 dc c4 29 3d f9 b9 b8 3c 85 f6 f0 3c b4 5b 80 bc
       0.041447505 0.022549616 0.029414425 -0.015668727
0000f0 85 7b 5e 3e 33 d8 1a 3d 6a d4 18 be aa 05 9d 3d
       0.21726806 0.03780384 -0.1492478 0.07667096
000100 f3 64 14 be 79 90 f6 bd bf 8a 91 3d 96 74 ae bc
       -0.14491634 -0.12039275 0.07106542 -0.021295827
000110 90 af 82 bd 92 d5 10 3d f8 8e 4e bd 0c c0 87 bd
       -0.06381142 0.035359927 -0.050429314 -0.06628427
000120 4e dc 79 3b e5 ad 3c be 55 c1 a0 3d 19 3f d5 3b
       0.0038125697 -0.1842571 0.07849375 0.006507766
000130 c4 fe c3 bd e6 01 21 3e b1 26 79 3d d8 7a cb bd
       -0.09570077 0.1572338 0.060827915 -0.0993554
000140 b9 1e 5d be db e8 38 3e 2f ce 4e 3e 68 91 70 be
       -0.21593751 0.18057577 0.2019584 -0.23492968
000150 55 0c 98 3d 29 f8 be bd 43 be 66 3e 53 bf 95 bd
       0.07424227 -0.093246765 0.22533517 -0.07311883
000160 55 dd 62 3d 58 58 95 bd 75 9c 7e 3d 00 33 3f 3e
       0.05538686 -0.07292241 0.062160928 0.18671799
000170 7a a3 f5 bd 75 15 94 3c 78 93 b0 3d 30 9c 63 3e
       -0.11994071 0.018076638 0.086218774 0.2222755
000180 da a8 f9 3d 9e 4c d7 3d 5f 8c e5 bd 52 7e 4c 3d
       0.12190409 0.105126604 -0.11208414 0.049925156
000190 c1 01 a3 3c 2f 2e 4f 3e 7b 21 67 3d 40 90 21 3e
       0.019898297 0.20232461 0.056428414 0.15777683
0001a0 b5 4d 86 bd ba a6 84 3d 6c 93 7f bd be 18 2b 3e
       -0.0655779 0.06477113 -0.06239645 0.16708657
0001b0 50 4c b2 bd ba 13 af 3d 99 41 97 bc 87 ae a4 3d
       -0.08705962 0.085486844 -0.018463897 0.08041101
0001c0 0d 3c a6 bd 16 29 c8 bb 2d 84 23 3d d7 03 b6 3c
       -0.081169225 -0.0061084135 0.039920975 0.022218628
0001d0 c0 b2 65 bd e5 d4 7c 3d e5 54 1f bd ba d3 c1 3c
       -0.056078672 0.06172647 -0.03889932 0.02366053
0001e0 b3 1a 18 be 1e 56 a9 bd a7 ca 98 3d 10 a3 1b bd
       -0.14853935 -0.08268379 0.07460528 -0.037997305
0001f0 7a 90 8f bd 92 17 17 3d b4 58 ce bd ca 05 26 3e
       -0.070099786 0.036887713 -0.100755125 0.16213146
000200 d3 b0 f6 3c 1a e6 d6 3d bd 9c 1a 3c 04 22 88 3d
       0.030113613 0.10493107 0.009436783 0.06647113
000210 16 41 4b 3d c9 c4 91 3d 82 57 00 3d 02 c9 cc 3d
       0.049622618 0.07117612 0.031333454 0.09999277
000220 cc 83 de bd 1b ae 0d be c1 f8 32 3d 7f 9c 1a 3d
       -0.10864982 -0.13835947 0.04369426 0.037746903
000230 70 15 98 bc 51 7d cf bd b3 98 5b 3e 85 07 64 3d
       -0.01856491 -0.10131324 0.21444969 0.055671234
000240 86 6d 5a 3b 2e 22 f9 bd e6 af 06 3c 9f 0a 89 3d
       0.0033329441 -0.121647224 0.008220648 0.06691479
000250 b6 54 52 3b c5 cc 8b bd 3b ca bd bd 57 a4 6a bd
       0.0032093949 -0.06826166 -0.09267088 -0.057285633
000260 79 8f c7 bd 88 c1 c6 bc 57 49 b3 bd 12 10 cf bd
       -0.09744162 -0.024262205 -0.08754223 -0.10110487
000270 cb e6 f7 bb 67 22 45 bb 8c b8 84 bd 08 7e 3c 3e
       -0.0075653545 -0.003008032 -0.06480512 0.18407452
000280 41 00 91 3c 9f 9d 49 3d dd 32 16 3e 2f 31 2e be
       0.017700316 0.049222585 0.1466784 -0.1701095
000290 0c 34 85 3e 23 9f 3d be 5d 3b 81 bd 33 6a 25 be
       0.2601627 -0.18517737 -0.06310151 -0.16153793
0002a0 14 55 70 bd 55 e9 95 3d 81 02 af 3d f1 fb ee bb
       -0.058674887 0.07319895 0.085453995 -0.0072932173
0002b0 0c c7 0b bd 04 0f a2 3e d4 c2 86 3d c9 4f ae bd
       -0.034125373 0.3165208 0.06580129 -0.085113116
0002c0 7b d3 ae 3d bc cc 65 3d 1c c9 22 be cf b5 91 bd
       0.085364304 0.056103453 -0.1589703 -0.07114755
0002d0 9e 02 73 3d d4 2c 3c 3d 32 fb 8a 3d 20 57 e4 3d
       0.059328668 0.04594119 0.06786193 0.1114943
0002e0 c2 c1 85 3c 1b 0d 50 bd ae d3 83 bc 78 5f 13 be
       0.016327742 -0.05079375 -0.016092148 -0.14391887
0002f0 c3 af b4 bd 69 4b 76 3d c3 ce aa bb 90 b2 cc bd
       -0.088225864 0.06013051 -0.005212636 -0.099949956
000300 e1 cd d8 bd 44 4b 1c 3d d0 60 00 3d 3f f7 1a 3e
       -0.10586143 0.038157716 0.031342328 0.1513338
000310 48 83 06 be 57 0a 58 3d d7 6e e4 3d b4 45 92 3b
       -0.13136017 0.052744236 0.111539535 0.0044638757
000320 b9 79 e4 bd a1 4e b9 3c 97 e1 af bd 32 8e 0f be
       -0.11156029 0.022620501 -0.0858795 -0.14019087
000330 e6 64 cd 3d 7c f3 41 3d 6a f2 8b bc bc 05 d5 bc
       0.100290105 0.047351345 -0.017083365 -0.02600371
000340 dd 46 74 bd 47 2e 11 be f2 ae c6 3c 54 90 bd 3d
       -0.059637893 -0.1417781 0.024253342 0.09256044
000350 5e 3b 98 3d 00 8e 9a bd c6 31 be 3d 71 1b 4f be
       0.074331984 -0.075466156 0.09286837 -0.20225312
000360 ce 16 3d 3d 31 b1 71 be 47 25 91 3d 55 66 b7 bd
       0.046164326 -0.2360275 0.07087188 -0.08955065
000370 3d c2 75 bd 81 77 99 be cb 65 d3 bc cb 8b db 3d
       -0.059999693 -0.29973987 -0.025805375 0.10720023
000380 d1 2c 75 3d f5 18 bb bb 30 b9 58 bd e8 1a 8e bc
       0.059857193 -0.005709762 -0.052910984 -0.017346814
000390 98 33 27 3d f3 a5 39 be 5b 8e 29 3d 02 9d ef 3d
       0.040820688 -0.18129711 0.041395526 0.11699869
0003a0 24 b7 1c 3e 72 fb 0b 3c 5a 7e 75 bd e9 fe c6 bd
       0.15304238 0.008543836 -0.05993495 -0.09716589
0003b0 dd 01 71 3d ec af 4d be d7 38 ae bd ac 37 51 bd
       0.058839668 -0.2008664 -0.08506935 -0.051078483
0003c0 ae 49 ee bd f3 d8 f5 3d f4 c2 25 bd 03 f5 1b 3d
       -0.11635147 0.120042704 -0.040469125 0.03807546
0003d0 7b c7 91 3c 9a 8a b3 3c 3c 39 b6 3c b0 7c 84 3d
       0.017795315 0.021916676 0.022244088 0.06469095
0003e0 94 9a ae 3d b8 af 67 3e 99 e7 82 3e 3b 14 3a be
       0.08525577 0.22625625 0.2556732 -0.1817178
0003f0 17 21 17 3d 9b 32 2c 3d 2b 5a 00 3e 5f 18 97 3c
       0.03689679 0.04204045 0.12534396 0.018444238

network_body._body_endoder.seq_layers.0.bias f4 [256]
000000 83 7a 02 3d 4d 3b a0 3c 92 ed e2 3c 97 0e 19 3d
       0.031855118 0.019559527 0.027701173 0.03736743
000010 d6 38 83 3c b1 f1 db b9 55 18 30 bd d3 84 3d 3d
       0.016018312 -0.0004195101 -0.042991955 0.04626925
000020 ed 60 4b 3d 0b 5d 66 bc c5 8f 2e 3c 02 8d e5 3c
       0.049652983 -0.014060269 0.0106543945 0.02802134
000030 16 50 52 bd f2 90 98 3c 92 01 a5 3c a5 31 47 3c
       -0.051345907 0.018623803 0.02014235 0.012157832
000040 34 03 80 bc 66 b1 ce bb af 18 9e 3c 5c 41 b6 3c
       -0.015626527 -0.0063077686 0.01929888 0.022247963
000050 2c 7b de 3c 88 07 2b bd 5e bd b3 ba 3e c5 b7 bb
       0.027158342 -0.04175523 -0.0013713052 -0.00560823
000060 a1 a5 0a bb a5 a7 0e bd dd 69 15 3c c4 89 a3 3c
       -0.0021155851 -0.034827847 0.009119478 0.019963153
000070 07 1c 05 3d f8 da a6 3c 87 64 ed 3c eb b0 3a 3c
       0.032497432 0.020368084 0.0289786 0.01139472
000080 5d a0 1a 3d fc ec 89 3b 97 27 84 3c 64 4c e8 3c
       0.03775059 0.004209159 0.01613216 0.028356738
000090 f9 c6 11 3c e9 2b 23 3d cc 3a 35 bd 23 3f f9 bb
       0.008897536 0.039836798 -0.044245526 -0.0076064034
0000a0 e8 69 35 bc 56 d9 bb 3c a7 a9 9f bc 6d 58 e2 3b
       -0.011072613 0.022930782 -0.019490076 0.006907514
0000b0 71 d3 37 3d 94 0e 26 bc cd ff 56 3c 61 4a 8c 3c
       0.04487938 -0.010135312 0.013122511 0.01712531
0000c0 40 6b fe 3a 29 cf ca 3c 9e 92 a5 3c dd 90 57 bc
       0.0019410625 0.024756985 0.020211514 -0.013157097
0000d0 52 b0 e5 3b e6 42 60 bd a5 a1 a9 bc 77 c9 6c bc
       0.0070095444 -0.0547513 -0.020706961 -0.01445233
0000e0 79 35 ed bc 5d 94 ec 39 ca 2f 35 bc 4e dd 14 bc
       -0.028956162 0.00045123967 -0.011058757 -0.009085966
0000f0 39 65 2a bc 86 e8 41 3d 2a b1 c2 bc 18 0d cb bb
       -0.01040011 0.047340892 -0.023766119 -0.0061966293
000100 ec f7 e0 3c 23 16 75 3c ed eb dc bc 43 aa 0c 3d
       0.027461968 0.014958891 -0.026967967 0.03434206
000110 0e 22 50 3d dd d9 76 3b eb cd f2 3c aa 30 84 bc
       0.050813727 0.0037666478 0.029639205 -0.016136486
000120 e6 b1 4b 3d d4 a6 99 bc 83 54 b5 bc f9 8f f4 bc
       0.049730204 -0.018756308 -0.022135025 -0.029853808
000130 e6 07 31 3d c2 17 0c 3d f2 66 b4 bc 3f 54 ad bc
       0.043220423 0.034202345 -0.022021744 -0.021158336
000140 5c dd 49 3d 21 c5 09 bd 53 d9 df 3c ab d6 27 3c
       0.04928337 -0.033635262 0.027325308 0.010244052
000150 0c 71 ef 3b 6b 26 37 bc fd 82 e0 bc d9 ed 73 3c
       0.0073071774 -0.011178593 -0.02740621 0.01488825
000160 e6 58 c9 bc a9 4e cf 3c df 7d 63 bd bc a4 37 bd
       -0.024578523 0.025306063 -0.055539962 -0.044834837
000170 4d 74 b3 3a 12 4e ef 3c 91 4c 64 bd 67 5f 7d bd
       0.0013691277 0.029212032 -0.055737082 -0.06185856
000180 35 93 c2 3c b3 04 c3 bc ab 3c f9 3c 3a ef f3 bb
       0.023751834 -0.023805952 0.030424437 -0.0074442895
000190 3d 38 10 bc 52 f5 1d 3d 11 e0 06 3d fc d6 63 3c
       -0.008802471 0.038564034 0.03292853 0.013906237
0001a0 86 91 39 bc 38 40 37 3d 69 04 8c 3c 90 9d ee 3c
       -0.011326199 0.04473898 0.017091947 0.029127866
0001b0 26 8c 55 3d d9 f0 07 3c 9a 33 c9 3c 31 6e 16 3d
       0.05213561 0.008297169 0.024560738 0.03672618
0001c0 19 40 63 3d 90 f7 04 3c b2 b2 ea bb de 15 e9 3b
       0.05548105 0.008115664 -0.0071624154 0.0071132025
0001d0 c6 1a 3b bd f7 73 75 3c de fa c7 3c f5 d9 08 bd
       -0.04567983 0.014981261 0.024411615 -0.033410985
0001e0 57 f6 9e bd 10 82 f2 3c f6 56 57 3d 30 63 06 3d
       -0.07761829 0.029603034 0.052573167 0.032809436
0001f0 2e c9 05 bd d8 72 be bc 2d a5 b3 3b 11 d5 7a bd
       -0.032662563 -0.023248121 0.005482337 -0.061238352
000200 26 b2 e3 3a 32 e2 28 3b db 53 51 bc 5a f7 c0 3a
       0.0017371818 0.0025769589 -0.01277634 0.0014722154
000210 ee b2 67 3a f6 6e 98 bb 7b 19 52 bd 93 ce 06 3d
       0.0008838613 -0.0046518994 -0.05129383 0.03291185
000220 c2 ac 7d 3d a1 ac 15 3b e8 af b9 bc 94 ec 20 3d
       0.061932333 0.002283849 -0.022666886 0.03928812
000230 78 c2 cd 3c 47 f3 0a 3d 99 62 3b bd 22 08 00 3c
       0.025117144 0.033923414 -0.045748327 0.007814439
000240 6d 59 8b bc ef a8 ec 3c f1 53 0e 3d 3a b6 22 bc
       -0.017010415 0.028889148 0.03474802 -0.0099311415
000250 c2 11 5b 3c 65 97 2c 3d 9a 3f 0c bc 33 ae 93 3c
       0.013370933 0.04213657 -0.008560086 0.0180274
000260 1d ce 02 bb fe 9f 33 3d fb 06 4a bd 8b 04 43 bc
       -0.001995928 0.043853752 -0.049323063 -0.011902939
000270 3b 40 0a bd fe 24 0b 3d 38 33 c2 bc 82 02 62 bd
       -0.03375266 0.033970825 -0.023706064 -0.055178173
000280 70 d7 6f bc 1b 6e d8 3c de bc de 3b ff 79 af bc
       -0.014638767 0.02641969 0.006797417 -0.021420477
000290 d5 67 d5 3b 71 34 1d 3d 83 26 d4 bb 5a 2c 03 3d
       0.006512622 0.03838009 -0.0064743175 0.03202472
0002a0 93 f5 da bc a7 a2 4f 3c 46 5d b3 3c 50 36 81 bd
       -0.026728427 0.012673057 0.021895062 -0.063091874
0002b0 1f 4f 00 3c a4 f0 8e 3c 5a 34 25 3c c4 e4 c8 3c
       0.007831364 0.01744873 0.010083282 0.024523146
0002c0 37 53 be bc f0 3c 6e bd 42 d3 69 39 96 39 a8 3b
       -0.02323304 -0.058163583 0.00022299311 0.005133818
0002d0 dc 5d d9 bc 6c c6 0f bd 12 28 e9 3c cb 93 12 3d
       -0.026534013 -0.03510134 0.02846149 0.035785478
0002e0 ee 5a 0d 3d 08 80 fa 3c a8 13 bf 3c 13 86 0c 3d
       0.034510545 0.030578628 0.023324803 0.03430755
0002f0 2c 50 a8 3c 68 c7 e8 bb 41 c0 c8 bb 66 2f 0f 3d
       0.020546041 -0.007103849 -0.006126434 0.034957312
000300 35 21 02 3d 1c a2 84 3c f3 45 77 bc ea 0a b1 3c
       0.03176995 0.016190581 -0.015092361 0.02161165
000310 73 2c 6f 3c 4c c2 28 3d 1f 78 ca 3c 5f f7 43 3c
       0.014598 0.04120092 0.024715481 0.011960833
000320 a2 04 f1 bb 4b 09 3c bd 18 52 6b 3d 31 c1 2e 3d
       -0.0073552886 -0.0459073 0.057451338 0.04266471
000330 d0 a2 4a 3a 0d e1 de bb 3a 93 0b 3c 5a b4 54 bd
       0.00077299494 -0.0068017305 0.008518988 -0.05192981
000340 fa 2f 73 bd c0 31 38 bc a2 5f 6a 3d 32 bc b0 3c
       -0.059371926 -0.01124233 0.05722011 0.021574114
000350 54 4a 10 bd fb 27 0b bc 73 d3 76 3c bf 6b a2 bb
       -0.035227135 -0.008493419 0.015065062 -0.004956692
000360 ac e9 77 3c 91 66 c0 bd 63 1f 09 bc 98 91 da 3c
       0.015131395 -0.09394563 -0.0083693 0.026680753
000370 b5 e5 7a 3c 36 da e5 bc 37 3b f5 bc 59 52 cf 3c
       0.0153135555 -0.028058153 -0.029935462 0.025307821
000380 6d 0e 00 3d 46 24 53 3c e4 ed 52 bd 01 07 3f bb
       0.031263757 0.012887066 -0.0514964 -0.0029148462
000390 d7 c9 82 3c 71 ce 82 3d 2e ab 77 bd 3c 7c fb bc
       0.015965385 0.06387032 -0.060465984 -0.030698888
0003a0 01 0f d8 bc 33 35 52 3d cd a0 49 3c 4a d5 7f bc
       -0.026374342 0.051320266 0.012306404 -0.015614817
0003b0 cd 3f b1 bd 8a df e2 3a fc bf 1e 3d 79 24 e8 bc
       -0.08654747 0.0017309051 0.03875731 -0.028337704
0003c0 0f 31 b6 3b 68 32 10 bc c5 90 16 3d 22 a5 c3 3c
       0.0055600475 -0.00880108 0.036759157 0.023882452
0003d0 3c 5f a7 bb 5a e0 33 bd fb ad f6 3c 17 e8 0d bc
       -0.0051077884 -0.04391513 0.030112257 -0.008661292
0003e0 41 45 34 bd 87 f4 77 3c 25 0c df bb c4 44 0a 3d
       -0.04401136 0.015133983 -0.0068068677 0.033756986
0003f0 60 2b b2 bc aa be 35 39 12 96 d5 bc d3 fd 2c 3d
       -0.021749198 0.00017332533 -0.026072536 0.042234253

network_body._body_endoder.seq_layers.2.weight f4 [256, 256]
000000 c8 18 b1 3b 9a 72 6c bd f8 3e 17 be 6c 3f 80 3d
       0.0054045655 -0.05772648 -0.14770114 0.06262097
000010 59 48 70 bb df 62 ca 3a 67 e1 be 3b e8 a3 15 3b
       -0.0036664216 0.0015440843 0.00582521 0.0022833291
000020 f4 40 48 be 2a 5e 70 3d c0 4f 71 bd 9e ad 56 bd
       -0.19556028 0.05868355 -0.058913946 -0.052411668
000030 72 b5 24 be fd 21 83 3d 90 bb 3f bc 79 96 59 bd
       -0.16084841 0.06402967 -0.011702433 -0.053122018
000040 bb 27 66 bd c1 e4 a4 3c 3f 81 2d 3c 77 b9 93 3d
       -0.056190234 0.02012861 0.010589897 0.07213109
000050 85 1d c8 bd 1a 86 15 3e 2e 8d 2a bd ea 5f ea 3d
       -0.097712554 0.14601937 -0.041638546 0.114440754
000060 78 6c 8f bd 22 f9 4b 3d 6e 25 cf 3b 97 5d 29 bd
       -0.07003111 0.04979814 0.0063216006 -0.04134902
000070 48 19 84 bd bb 4d 16 3e 83 ea 81 bc 9c 3b 7a 3d
       -0.064501345 0.1467809 -0.015858894 0.061092004
000080 05 f6 28 3d 08 db 1c be 12 2d 4e bd ce 50 9c bd
       0.041250248 -0.15317929 -0.05033595 -0.076326
000090 df 2b dc bd 12 89 05 bd 35 f0 30 3d 73 f3 93 bd
       -0.10750555 -0.032601424 0.04319783 -0.07224169
0000a0 88 0a a9 3c 1f a8 9c bc 2d 2b a0 3c 9b d5 8a 3d
       0.020634905 -0.019123135 0.019551838 0.06779023
0000b0 52 12 4f be 57 d0 c7 bd 1c 9b 5e bd fd 42 1f be
       -0.20221832 -0.097565345 -0.054347143 -0.15552898
0000c0 fc 9b d8 bc 20 77 19 be 37 86 ba bd 9d 70 b3 3c
       -0.026441567 -0.14986849 -0.09107631 0.021904284
0000d0 9a 6b 76 bd ed 9e 16 bd e8 63 33 bd 35 15 fe 3d
       -0.06016121 -0.036772657 -0.04379645 0.12406389
0000e0 81 32 f6 bc bd 23 09 3e cd c8 b2 3d 75 76 7d 3a
       -0.030053379 0.1339254 0.08729706 0.00096688356
0000f0 cf 25 8c bd cc 01 95 bc 7b 68 d1 bd a0 cf f4 bc
       -0.06843149 -0.018189333 -0.10225006 -0.02988416
000100 66 fc 2f be 83 f8 e4 3d 81 b8 35 bd bf 2e 16 3d
       -0.17186126 0.11180212 -0.04436541 0.036665674
000110 1e d3 4f 3b 8c fb c5 3c d8 3d a1 bd 38 3b 02 3e
       0.003171153 0.024167798 -0.07873124 0.12717903
000120 cb 3b e3 3d ba 96 a6 bd 17 35 00 bd 6a 59 f3 bd
       0.11095389 -0.081342176 -0.03130063 -0.11882289
000130 03 d1 07 be e9 b7 b6 3c 71 75 da bc 47 52 64 3c
       -0.13263325 0.022304492 -0.026667329 0.013935632
000140 f9 20 e5 bd 2c f7 2c bd d2 ee b1 39 bf bb 1b 3d
       -0.1118793 -0.04222791 0.00033938006 0.038020846
000150 f1 b0 04 bd c5 31 bd bc 27 a9 8a bd 60 c0 02 3e
       -0.032395307 -0.023095021 -0.067705445 0.12768698
000160 e9 1d 76 bd 0a 48 2c be 54 ae a1 bc 0b fe 0c be
       -0.06008712 -0.16824356 -0.019736446 -0.13768785
000170 9e 22 c8 bd fd 39 23 bd 64 b2 d7 bc f0 76 74 3d
       -0.09772228 -0.039850224 -0.02633018 0.05968374
000180 0c b0 58 bd ce 36 6a bd 3f 38 e9 bc b4 88 11 be
       -0.052902266 -0.057181172 -0.028469203 -0.14212304
000190 98 b6 d3 bd cd 1d 53 3d 3d 7b 30 3d 3d 72 72 3b
       -0.10337561 0.051542092 0.04308628 0.003699436
0001a0 c4 e9 dc bc 2e 99 1b bc 54 37 88 bc 67 2e 7d bb
       -0.026966937 -0.00949697 -0.016627945 -0.0038632394
0001b0 28 37 a2 3c 47 a3 18 3d 0f b2 42 bc 4f bb 2e bd
       0.019801691 0.03726509 -0.011883273 -0.0426591
0001c0 6b 69 d5 bd 0a 88 85 3c ac 9e 1c 3d 43 bd 76 bd
       -0.104204975 0.01630022 0.03823726 -0.060239088
0001d0 04 c9 1b bd 2c fa 63 3d 02 39 05 be c1 9e 46 3d
       -0.0380335 0.055658504 -0.13010028 0.048491243
0001e0 62 ac f4 bd fb 1f a6 bd c4 d0 22 bd 51 53 83 3c
       -0.11946942 -0.081115685 -0.039749876 0.01603094
0001f0 4b ba 09 3e 22 60 0d 3e c1 d7 54 3b de 2a e4 bc
       0.13449971 0.13806203 0.0032477232 -0.027852472
000200 b0 83 87 3d c3 b7 87 bb 6b 03 36 3e 33 28 b6 bd
       0.06616914 -0.004141779 0.17774741 -0.08894386
000210 81 4a fa bd 54 a4 28 be b0 07 8d 3d 36 c1 55 bd
       -0.12221242 -0.16468936 0.06886232 -0.052186213
000220 e1 67 fd bd fe e6 94 3d 8f ca de bc be a3 80 3c
       -0.12373329 0.07270621 -0.027196197 0.015703078
000230 55 51 35 3d e6 be 83 3c 0f 44 98 bc 59 63 f0 bd
       0.044267017 0.016082238 -0.01858714 -0.11737699
000240 18 93 f3 bc 85 0c e2 bd c9 e9 c0 bc 6f 6e 93 3d
       -0.029733226 -0.11037544 -0.023548977 0.07198798
000250 91 1b ae bd 38 f8 5b be 25 e6 b5 bd 2e 4c 81 bb
       -0.085013516 -0.21481407 -0.08881787 -0.003945849
000260 a7 3e ec bc df f7 25 3d 97 46 0b 3e a5 30 6d bd
       -0.028838469 0.04051959 0.13601147 -0.05790772
000270 0c 48 a6 3d 5d 25 3b bd 20 c1 65 3d b5 98 92 3b
       0.081192106 -0.04568993 0.05609238 0.0044737705
000280 45 44 98 bd 64 47 a1 bd 38 95 e9 3d 8f 41 b2 3a
       -0.074348964 -0.07874945 0.11405414 0.001359986
000290 f4 73 79 bd 19 6d a5 bd b0 e9 83 bd 19 77 10 be
       -0.060901597 -0.08077449 -0.06441057 -0.14107932
0002a0 a0 54 85 bd fa cf 45 3d f7 b3 10 be cd 6d a7 bb
       -0.065102816 0.048294045 -0.14131151 -0.005109525
0002b0 96 ea ff bc ac a9 06 be a3 66 1a 3d 25 d3 a1 bd
       -0.031239789 -0.13150662 0.03769554 -0.07901601
0002c0 f4 f9 f7 bc e1 d2 b3 3d 49 3b 87 3d 61 5d 1f be
       -0.030270554 0.08780456 0.066031046 -0.15562965
0002d0 a1 55 78 bd 10 4e 9c 3c ba 52 c3 3d 44 25 68 3d
       -0.060628537 0.019080192 0.09537263 0.056676164
0002e0 19 c7 e5 bd 7e 7f a6 3d 42 5d ea bd 85 3a 84 3d
       -0.112196155 0.08129786 -0.11443569 0.06456474
0002f0 69 03 c8 3d 86 36 4e bd 0e e6 e1 bd 8e 23 c0 3d
       0.097662754 -0.050344966 -0.110302076 0.093817815
000300 fb 8b 3e bd 30 6c 49 bd 14 7d a6 bd 7a b7 44 bd
       -0.046520215 -0.04917544 -0.081293255 -0.04802654
000310 d2 71 de bd 5e 01 61 3c c2 4a f1 bd da 5c 84 3d
       -0.10861553 0.013733236 -0.11781837 0.064630225
000320 8c c0 b4 bd cd f1 0b bd a6 5f 44 bd 2d 83 c3 bd
       -0.08825788 -0.034166146 -0.04794278 -0.09546504
000330 ee 61 f6 bd 0c 99 87 bd ba 16 65 bc a2 71 37 3d
       -0.12030397 -0.06620988 -0.013982469 0.044786103
000340 90 75 7b bc 56 ed 3e be a6 d9 92 bc 8d 5f f1 bd
       -0.015347853 -0.18645224 -0.017926048 -0.11785803
000350 37 90 51 3d b8 ed d9 bd c0 36 80 bc 3e 3c 44 3c
       0.051162925 -0.106410444 -0.015651107 0.0119772535
000360 1c 56 69 3c 75 c6 a4 3d 56 d8 b1 3d 02 df 21 bc
       0.0142417215 0.08045665 0.08683841 -0.009879829
000370 8d 7b fb 3d 36 42 df bd 0d 4a 15 3e 54 77 88 bd
       0.12279425 -0.109013006 0.1457903 -0.06663385
000380 01 fc 1e bd 06 e1 d2 3d 8a a5 cb bd c5 fd 0f bd
       -0.03881455 0.10296826 -0.099436834 -0.035154123
000390 d1 44 4f be b2 0d 9c bd a8 27 19 bd a4 3c 10 3e
       -0.20241095 -0.076198 -0.037391335 0.14085633
0003a0 8d 7b ab 3c b0 36 ae 3d eb a7 ce bc 30 42 97 bd
       0.020932937 0.085065246 -0.025226554 -0.07385671
0003b0 1c 37 79 bd 23 9f f9 3c f5 ef 12 bd c8 1b 9c 3b
       -0.060843572 0.03047139 -0.035873372 0.004764054
0003c0 f7 6b 04 be 92 92 c1 bd 36 03 83 bd 94 8b 18 3d
       -0.1293181 -0.09451784 -0.06397097 0.037242487
0003d0 67 e3 a8 3d 0a 20 c6 bd 8b 39 6e 3d 81 7a 17 bc
       0.082464986 -0.0967408 0.058160346 -0.009245516
0003e0 c2 a0 9c bc 59 56 62 bc 9f 93 a6 bd 50 b9 ae 3d
       -0.019119624 -0.013814532 -0.08133625 0.08531439
0003f0 47 e5 08 3e ab 52 28 be 7a 5c b5 bd e6 b2 9a bd
       0.13368712 -0.16437785 -0.08855529 -0.075536534

network_body._body_endoder.seq_layers.2.bias f4 [256]
000000 0d 9f 11 ba ca 11 e3 bc a8 2a 39 3d 90 fc 2f bd
       -0.00055550114 -0.027718443 0.045206696 -0.04296547
000010 7e 6f f6 bc 46 7d 7d bd 83 20 57 3c b1 19 14 3c
       -0.03008246 -0.06188705 0.01313031 0.009039328
000020 a0 2d 8e 3c 3f 9a 0c bd 13 8a 43 bc 54 9c 69 bc
       0.01735574 -0.034326788 -0.011934775 -0.014258463
000030 6c 62 50 3d fb d9 90 3a fe 5a fa bc ba 19 8a 3c
       0.050875112 0.0011051291 -0.030560967 0.01685797
000040 be 20 c2 3c 1d 05 56 bb ed f8 7d bc 38 52 e4 bc
       0.023697253 -0.0032656856 -0.015501243 -0.027871236
000050 61 7c 62 3d 2b 72 7b 3d 6d 7a 89 bb 14 44 5a bb
       0.0552944 0.061388176 -0.0041955025 -0.0033304738
000060 58 f4 71 3d b8 c1 70 bd 13 64 7c bc 57 28 19 bd
       0.059070915 -0.058778495 -0.015404719 -0.037391987
000070 83 5a 2b bd 76 0a 02 bd 48 30 18 bc f1 47 88 bd
       -0.041834366 -0.031748258 -0.009288855 -0.06654347
000080 19 c1 63 bd 74 cc 18 bd 1b 4c c2 ba 7d 43 0b 3d
       -0.055604074 -0.037304357 -0.0014823707 0.03399991
000090 ff 36 2c bc c0 64 bf bc 1e ea 0f bc 55 2d 20 3d
       -0.010511159 -0.023363471 -0.008783845 0.039105732
0000a0 c0 cb 31 bd dd fd f6 3c 1e 0d 31 bd 48 39 bd ba
       -0.0434072 0.030150348 -0.0432254 -0.0014436627
0000b0 d5 67 87 3c 33 a4 07 3d e3 28 3b bd 13 ca 07 bd
       0.016529003 0.033115577 -0.04569329 -0.033151697
0000c0 31 bc 77 3c 56 d1 d6 3c 69 b8 a9 bc e0 de 82 bb
       0.015120552 0.026222866 -0.020717816 -0.003993854
0000d0 3e d0 07 bd 93 9a be 3c b6 5f 28 bd 6c 48 78 3d
       -0.03315758 0.023267066 -0.041106902 0.060615942
0000e0 cc 08 0c 3d d9 61 fb 3c d6 c8 3a bd 37 e2 51 3c
       0.034188077 0.030686306 -0.04560169 0.0128102815
0000f0 57 01 92 3c 79 b0 2a bd 1d 56 37 bd 1f 2c 05 bd
       0.017822905 -0.041672204 -0.04475986 -0.03251278
000100 1a 4f b4 3c ff 9a 4f bd 36 25 51 bd 3d 95 18 3d
       0.022010375 -0.050684925 -0.051060878 0.0372517
000110 3b 4a d4 bc 91 c4 c7 bb ad 20 1c bd fa a9 04 3d
       -0.025914302 -0.0060964306 -0.0381171 0.032388665
000120 a0 05 ae bd 36 7b 1c 3d 4d 40 1b bd 91 16 2c bd
       -0.08497167 0.03820344 -0.03790312 -0.04201371
000130 5d b0 dd bc b4 da 32 bd 01 54 34 3d 58 02 bb 3c
       -0.027061636 -0.043665603 0.044025425 0.022828266
000140 72 a2 52 3d c0 7f c3 bc b0 97 37 bc 52 6d 0c 3d
       0.05142445 -0.023864627 -0.011205599 0.034283943
000150 b6 62 c4 bc d6 e6 1c 3c 60 53 03 bd 89 dc a0 bc
       -0.02397285 0.00957652 -0.032061934 -0.01963641
000160 2b aa 21 bd d3 5c 37 3d 87 96 17 3d 14 92 52 3d
       -0.039468925 0.04476626 0.03700879 0.051408842
000170 1e ee 9f bb c5 ca 98 bc f5 b6 1c bd 5b 17 90 bd
       -0.0048806807 -0.018651376 -0.03826042 -0.07035705
000180 78 ac 9e 3c ba ad 00 3d 67 5b 7a bc db 27 f2 bc
       0.019369349 0.03141568 -0.015280581 -0.02956002
000190 10 9f c7 bd 7a ff dc bc ab 89 7f bc 60 bf fb 3c
       -0.09747136 -0.02697729 -0.015596787 0.030730903
0001a0 b1 bc 4a 3c 5c 82 3a 3c 86 58 48 3c cc 3f d6 3c
       0.012374089 0.011383619 0.012228137 0.026153468
0001b0 5e d1 73 bd 7f 21 30 3d d1 5b 1a bd e9 39 7e bd
       -0.05952584 0.043000694 -0.03768522 -0.062066946
0001c0 a3 67 1e 3d 30 fd 0d 3d 58 f9 39 bd 3f 89 f2 3c
       0.038673054 0.034665287 -0.04540381 0.02960646
0001d0 ed b4 62 bc cc 4e 95 3c 6a 7a 63 3d 56 5f d0 bc
       -0.013837081 0.01822605 0.055536665 -0.025436085
0001e0 97 b2 99 3c b5 26 08 bd a1 13 f0 3c 6e ba be bc
       0.018761916 -0.03324004 0.029306235 -0.023282256
0001f0 43 59 c8 3c 63 90 bd bc 80 f4 27 bd ab 52 16 3d
       0.024456626 -0.023140138 -0.041004658 0.036699932
000200 ad 95 c5 bb 29 82 78 3c 78 c5 73 3c f5 8b 02 bd
       -0.0060298056 0.015167751 0.014878623 -0.031871755
000210 dd eb ff bc a8 b1 29 3d 64 fa 17 bd c9 bf 33 bd
       -0.031240398 0.04142919 -0.037104025 -0.043884072
000220 aa 61 f9 3b fb 3d 65 3d 40 4c 7e 3d c0 22 6e bd
       0.0076105194 0.055967312 0.062084436 -0.05813861
000230 0d 53 2b bd 8c b1 d5 3c 02 0f 9e bc ce 56 92 3c
       -0.04182725 0.026085638 -0.019294266 0.017863657
000240 a8 2e cd bc 61 f6 39 bc 82 75 47 3d bc c8 27 3b
       -0.025046661 -0.011350245 0.04869605 0.0025601825
000250 7b fd 4a bc 46 e0 f3 ba 20 47 7a bb 18 fc 91 bd
       -0.012389536 -0.0018606267 -0.0038189366 -0.07128161
000260 e1 3b ea ba 0a b4 89 bd f7 73 42 3d 8d 1f 83 3b
       -0.0017870629 -0.06723793 0.047473874 0.004001564
000270 7f 20 86 ba 69 79 07 3d 80 a6 83 bd 51 47 14 3d
       -0.0010233073 0.03307477 -0.06428242 0.036200825
000280 d4 46 52 3d bf c8 a9 bb c2 30 f2 bc 58 b5 e4 bc
       0.05133708 -0.0051814015 -0.029564265 -0.027918503
000290 37 e5 92 ba 6a 27 29 bc e5 3a 03 3c 35 87 13 bd
       -0.0011207227 -0.010324338 0.008009647 -0.036017615
0002a0 d3 d7 64 3d 08 a8 08 bd 3d 37 34 3c b0 ee 2f bd
       0.05586989 -0.033363372 0.010999498 -0.04295224
0002b0 46 57 a8 3c 86 29 da ba 35 2f a8 3c 18 e9 11 3c
       0.020549428 -0.0016644455 0.020530323 0.008905672
0002c0 40 8a 6b 3c de d3 10 bd 2f 17 73 bd 69 34 15 3d
       0.014376223 -0.035358302 -0.05934828 0.036426935
0002d0 6e d4 95 3c 68 4c f1 3c a7 60 f6 3c c0 88 f8 bc
       0.01828977 0.029455379 0.030075384 -0.030338645
0002e0 43 67 e9 bc 76 a3 54 bd 20 6f d0 bc ea b5 b4 3c
       -0.028491622 -0.0519137 -0.025443614 0.0220594
0002f0 97 99 10 3d be 60 85 bb 98 25 79 3c c9 96 a9 3c
       0.035302725 -0.0040703705 0.015206717 0.020701783
000300 c8 7e ad bc 46 ba 68 3b 89 69 72 3d 03 33 75 3d
       -0.021178618 0.0035511418 0.059182677 0.0598631
000310 e9 3e 1b 3d f8 db ca 3c f6 ec 8a bc d7 8a ba 3c
       0.037901793 0.024763092 -0.016958695 0.022771282
000320 a4 d9 65 bd c5 4b 05 bd 7e 99 7c bc b5 7f ed 3c
       -0.05611576 -0.032542963 -0.015417455 0.02899156
000330 ae de 45 3d d4 08 b2 bc f5 d9 46 bd c2 fc ee 3c
       0.048308067 -0.021732725 -0.048547704 0.029173259
000340 41 d6 c5 bb 8a 42 78 bd d7 c0 27 bd 15 0a 53 bd
       -0.006037504 -0.06061033 -0.04095539 -0.051523287
000350 fc 31 d4 bc 02 0b 0e 3d b2 7c 4a 3d 9b da ff bc
       -0.02590274 0.034678467 0.049435325 -0.031232169
000360 44 c3 11 bd a4 d7 6d bd 83 93 9b bc 84 f9 09 ba
       -0.03558661 -0.05806698 -0.018991238 -0.0005263316
000370 e4 40 57 bd 69 36 40 ba 1b fb 3c 3d 4d 3d 03 bd
       -0.05255212 -0.00073323265 0.04613791 -0.032040883
000380 3a f1 ae 3c 75 d1 a2 bc 93 99 15 3d 50 f6 96 3c
       0.02135526 -0.019875268 0.036523413 0.018427998
000390 af 38 8f bc 72 70 7a bd 5e dc 8d bd e5 b3 bd bc
       -0.017483084 -0.061142392 -0.06926797 -0.02315707
0003a0 51 c3 30 bd df 61 21 3b 3a 4d 5d 3c ef eb 6e 3d
       -0.04315502 0.0024624986 0.013507182 0.058330473
0003b0 d3 d0 33 3b c9 17 5b bc 73 97 b7 bc ba d5 20 3d
       0.0027437701 -0.01337237 -0.022411084 0.039266326
0003c0 34 d3 aa bb 4e 31 aa bc 5a a6 16 bd 9d b6 b0 3c
       -0.0052131657 -0.020775463 -0.03677974 0.021571452
0003d0 f6 03 23 bb 40 58 9b bd 82 ef ef bc 82 f3 eb 3c
       -0.0024874187 -0.07585192 -0.02928901 0.028802637
0003e0 fa f4 11 3d eb 26 dc 3c 30 6f 87 bd f8 3b 86 bd
       0.03563402 0.026874026 -0.06613004 -0.06554407
0003f0 27 62 f6 3c 91 38 28 3c 3e 90 68 3d 45 53 f6 bc
       0.0300761 0.010267393 0.056778185 -0.030069003

action_model._continuous_distribution.log_sigma f4 [1, 3]
000000 9c 66 a9 bd e9 d5 26 bf f1 d3 83 be
       -0.08271524 -0.6517015 -0.25747636

action_model._continuous_distribution.mu.weight f4 [3, 256]
000000 11 0a 91 bd 2b 92 26 bd a6 4b 0d 3d ad e0 66 bc
       -0.07081998 -0.04066674 0.034495972 -0.014091653
000010 02 1d 70 bd a8 f3 e4 bb b8 02 64 3c 2f 2d 4f bd
       -0.058621414 -0.006987054 0.013916664 -0.0505802
000020 e3 36 2d 3c cb 96 f6 bc b4 00 61 bc 3d a6 29 3d
       0.010572168 -0.0301012 -0.013733078 0.041418303
000030 41 71 82 bc 3f 54 95 bc 33 46 ad 3a 42 2e 21 3d
       -0.015923144 -0.018228648 0.0013219774 0.039350756
000040 79 2b 58 3c 06 01 99 3c 27 d9 8f 3c 7b b7 3b bd
       0.013193958 0.018677246 0.017559601 -0.045829277
000050 5c 27 2e bd a4 c3 b3 3c 10 82 f3 bb b2 f1 9a 3c
       -0.042518005 0.021943875 -0.007431276 0.018914077
000060 f4 a4 6e 3c 44 11 48 bc e7 48 63 3d 39 91 4c bd
       0.014565695 -0.012211148 0.055489447 -0.049943183
000070 5a c7 3a 3c ca 2c 7a bc 44 ba 49 ba cd 98 16 bd
       0.011400068 -0.015269468 -0.0007695297 -0.036766816
000080 c9 21 24 bd 3c ca 34 bd ee 03 44 bd df e7 66 3c
       -0.040071283 -0.04413818 -0.04785531 0.014093368
000090 bf fe 22 3c 91 f9 35 bd 35 93 bf 3c 47 0c 3d 3d
       0.0099484315 -0.04442746 0.023385623 0.046154287
0000a0 3b 79 0e bd e6 4c 24 3d ba af 23 3d b5 1d 19 3c
       -0.034783583 0.0401124 0.039962508 0.009345462
0000b0 00 ab 31 bc a7 5f 44 3c 06 d2 f8 3c 74 f7 d0 bc
       -0.010843992 0.011985696 0.030373584 -0.02550862
0000c0 5d 54 3c 3d 6a 37 26 3d 87 82 32 bb f1 8f 17 3d
       0.045978893 0.04058019 -0.0027238445 0.037002508
0000d0 91 db 1a bd d2 71 21 3d d4 6f f6 3c 0c 5c 95 3c
       -0.03780705 0.039415188 0.03008262 0.018232368
0000e0 d8 14 39 3d e2 54 b9 3c 3a 0d 0d bd 43 24 97 3c
       0.045185894 0.022623483 -0.034436442 0.018449908
0000f0 23 ee 02 3c c5 75 cd bc f4 1c 20 bd 8c d0 4c bd
       0.0079913465 -0.025080571 -0.03909011 -0.050003573
000100 31 52 d0 bb 71 b3 43 bc 65 cf 84 bc 06 76 8d 3c
       -0.006357454 -0.011944638 -0.016212175 0.017268192
000110 5d 37 86 3a 15 d9 82 3c 5c ce 79 bd 76 12 9d 3c
       0.0010239888 0.015972653 -0.060987815 0.019173842
000120 db 8d 15 bc 3c 20 7f 3c e5 23 0d bd 2a 4d 65 3c
       -0.009128059 0.01557165 -0.03445806 0.013995448
000130 5e 96 ab 3c 9c 6e 10 3b 74 96 21 bc 09 0b ca 3c
       0.020945724 0.0022038585 -0.009862531 0.024663465
000140 dd 75 c1 bb 16 81 e0 3c a3 d3 0e 3d 6b 8e 14 bc
       -0.005903943 0.027405303 0.0348698 -0.009067158
000150 7c 10 27 bc 6c f2 e2 3b 24 26 26 bd f3 00 71 3c
       -0.010196801 0.0069258716 -0.040563717 0.014709699
000160 6c 6d 12 bc 30 06 cd 3c d8 75 cd bb 2d 8e 87 3c
       -0.008937221 0.025027364 -0.0062701516 0.016547287
000170 12 df 07 3d b7 11 0f bc 87 82 17 bc 1d 91 5b 3c
       0.03317172 -0.008732251 -0.009247429 0.013401297
000180 94 73 a5 3b 57 7b 28 3c 60 e5 31 3d e2 4a 02 3d
       0.0050491784 0.010283313 0.04343164 0.031809695
000190 16 f7 85 bc 00 a4 d7 bc 33 be 6c 3d c1 2d 69 b8
       -0.016353171 -0.026323318 0.057798576 -5.559414e-05
0001a0 3c f3 3e bb f4 cb ab 3b 0d ab 0b 3d 36 ab a9 3c
       -0.0029136678 0.005242819 0.034098674 0.020711523
0001b0 2c d0 84 bc db d6 c5 3c bb 96 eb 3c ba e6 5e bc
       -0.016212545 0.024150303 0.028758397 -0.013604814
0001c0 4f 18 4a 3b 25 30 bf 3c c6 26 8f bc fd 42 1c 3d
       0.0030837243 0.023338387 -0.017474543 0.038149823
0001d0 87 43 95 3c 58 5c 28 3d 18 fe 97 3c da 07 2c 3d
       0.018220676 0.04110369 0.018553779 0.041999675
0001e0 bb ea 41 3d d9 d5 69 3b 00 a2 0d bd bf 7a 8a 3d
       0.047342997 0.0035680442 -0.034578323 0.06761693
0001f0 1b b8 b4 3c df f8 93 bd d7 b0 e7 bb de a8 55 3d
       0.022060445 -0.07225203 -0.0070706415 0.052162997
000200 c5 b4 9e 3c df b7 72 3c ca 33 b5 3c be 5a bf bb
       0.019373307 0.014814346 0.022119422 -0.0058396747
000210 4c 91 3d bd 9f b5 0a 3d b8 11 ee bb 50 a2 7c 3c
       -0.046281144 0.033864614 -0.007265296 0.015419558
000220 93 5e 3d bc ff 43 09 bd ff 40 0f bc 52 73 8e bb
       -0.011558193 -0.03351211 -0.008743524 -0.0043472433
000230 1f 90 c3 bc 2a 2b 04 3d 94 61 95 bd 23 6b eb 3c
       -0.023872433 0.032267727 -0.07294002 0.02873761
000240 1e d5 ef bc 63 b6 35 3d 5a 00 13 3d 93 0f 83 b9
       -0.029276427 0.04436339 0.035889007 -0.0002499787
000250 93 c8 5c bd 5f db ae bc 37 44 57 3c a5 23 44 3c
       -0.05390222 -0.021344839 0.013138822 0.011971389
000260 3d 5b d2 3c de 95 0d bd be 9b 3a 3d 03 37 15 3d
       0.025678271 -0.034566753 0.045558684 0.036429416
000270 61 b7 7a 3c 91 4e 17 3d 1e 29 b1 bc a9 a2 00 3d
       0.01530251 0.03694016 -0.021626052 0.031405125
000280 d3 20 f7 3c d1 8b d4 3c ee 7b 1f bd 50 50 85 bd
       0.030167019 0.025945576 -0.038936548 -0.06509459
000290 9e f8 bc 3c 2a c8 2a bd 8e f1 44 bd 6f d4 4f bd
       0.023067769 -0.041694798 -0.048081927 -0.0507397
0002a0 c6 0b cf 3c ce 10 38 bd 06 f0 7c 3c 80 ba d8 3c
       0.025274169 -0.0449379 0.015438085 0.026456118
0002b0 0f 82 cc 3c c9 03 4f 3c 9f d1 3e 3d 92 79 13 3d
       0.02496436 0.01263518 0.04658663 0.03600461
0002c0 a0 b4 bf 3c 88 c3 0e bc 98 d6 cd bc 66 0b b0 3c
       0.023401558 -0.0087136105 -0.02512674 0.02148981
0002d0 39 7f 07 3d 79 21 cc 3c 99 45 0c 3d b0 f3 2a 3d
       0.033080313 0.024918305 0.03424606 0.041736305
0002e0 18 83 27 bd f9 e8 ed 3b 14 fb 44 3c 29 09 34 3c
       -0.040896505 0.0072604385 0.012022752 0.010988512
0002f0 01 fd 10 3d 84 7a 4e 3d 6e ea 57 3d c8 2d 17 bc
       0.035397533 0.05040981 0.052713804 -0.009227224
000300 01 3e 2f bd a9 b6 2b 3c ec 7d a6 3c a9 a1 9d 3c
       -0.04278374 0.010480561 0.020323716 0.019242125
000310 0c 85 1c 3d 88 d1 bd 3c 30 23 bc bb 78 63 5f bb
       0.03821282 0.023171201 -0.0057414994 -0.0034086388
000320 8a 2d 4a 3d 06 82 12 bd 5b d9 86 3d 48 64 bb 3c
       0.049359836 -0.03576853 0.06584426 0.022874966
000330 45 6a d5 3c ff fe aa bc 35 3c 16 3d e0 e1 43 3c
       0.02605165 -0.020873545 0.03667851 0.011955708
000340 ee e4 3a 3d fb 57 49 3c f7 f3 0d bd a7 87 cc 3c
       0.04562848 0.012289043 -0.03465649 0.024967028
000350 0e e0 d5 bb 77 14 4c 3d c9 93 0a 3d 67 d2 9a bc
       -0.0065269535 0.049824204 0.033832345 -0.018899156
000360 94 86 03 bd d9 a1 38 bc 54 c1 3a 3b ca ae 6a 3d
       -0.032110766 -0.011269056 0.002849658 0.057295598
000370 a3 a0 28 3c 14 80 83 3c 0a 8f 7c 3d f1 f3 28 3c
       0.010292205 0.016052283 0.06165985 0.010312066
000380 4b ed 12 bd 5f 49 00 3d da 37 23 3d f6 94 0e 3d
       -0.03587083 0.031319972 0.039848186 0.03481003
000390 9f 03 87 bd e8 5a 65 bc ae 4a 8d 3a de 08 5b bd
       -0.065924875 -0.0139987245 0.0010779703 -0.053475253
0003a0 a6 94 59 3c 3d df 15 3d 41 d1 09 3c 1d be ac 3c
       0.013280069 0.03658985 0.008411706 0.021086747
0003b0 44 47 d1 3c 22 05 08 bd 46 25 39 3d 48 70 4b 3c
       0.025546677 -0.03320802 0.045201562 0.012416907
0003c0 26 b8 32 bd 67 2c 86 bb 78 b7 15 3c 53 51 14 3d
       -0.04363265 -0.0040946486 0.009137981 0.03621037
0003d0 6f 83 8d bc 4c 4f 7e bc 63 df e1 3b 9a ec 45 bd
       -0.017274586 -0.015521836 0.006893085 -0.048321344
0003e0 62 5f e6 3c fc e9 b1 bc a0 58 52 3c 55 c2 3a 3c
       0.028121654 -0.021718018 0.012838513 0.011398871
0003f0 50 a2 f4 3c 83 03 0d 3d 93 f6 90 3d b6 f8 82 3c
       0.029862553 0.034427177 0.0707828 0.015987735

action_model._continuous_distribution.mu.bias f4 [3]
000000 51 ea f5 3c 5d 73 d6 3c 9a 91 85 bd
       0.030018957 0.026178056 -0.06521912

onnx::Div_61 f4 [68]
000000 1d f2 ff 3e ff 49 ab 3d 74 d8 ff 3e a7 31 40 3e
       0.49989405 0.08363723 0.49969828 0.18768941
000010 08 ab f4 3e 1f c1 be 3d cb 00 f6 3e 09 e0 2a 3e
       0.47786736 0.09314179 0.4804748 0.16687025
000020 86 79 d5 3e 1d e5 a9 3d 55 15 d3 3e 5e c3 6b 3e
       0.41694278 0.08295653 0.41227213 0.23023745
000030 73 83 f9 3e d5 ad bc 3d a6 7a fa 3e 30 84 46 3e
       0.487331 0.09212843 0.48921698 0.19386363
000040 ca 97 a2 3e d7 6c a6 3d fb 5c 9e 3e a3 58 71 3e
       0.3175643 0.08126228 0.30930313 0.23568968
000050 2e d7 f4 3e a9 0b 9c 3d 5d e8 f3 3e 2e d7 62 3e
       0.4782042 0.076194115 0.47638217 0.22152397
000060 7c 5c 84 3e c1 72 9f 3d bd 18 7e 3e 24 54 61 3e
       0.2585181 0.077855594 0.24814124 0.22004753
000070 b1 08 b2 3e cb b9 8b 3d ab 86 af 3e 86 73 5e 3e
       0.34772256 0.068225466 0.3428243 0.21723756
000080 49 b0 56 3e fb 09 9d 3d ab 0e 49 3e a4 c4 41 3e
       0.20965685 0.07667919 0.19634502 0.18922669
000090 08 a8 6b 3e 0c 24 84 3d 82 35 63 3e ce 20 34 3e
       0.23013318 0.06452188 0.2218838 0.17590639
0000a0 5b 86 1b 3e e2 48 99 3d b5 1c 08 3e b7 ee 16 3e
       0.15187971 0.074846044 0.13292201 0.147395
0000b0 1f 65 2f 3e 2c 04 7d 3d 30 3d 24 3e 52 08 13 3e
       0.17128418 0.061771557 0.16038966 0.14358643
0000c0 91 0b e7 3d 73 a6 96 3d ea 24 b0 3d 02 05 f2 3d
       0.11281503 0.073559664 0.08600791 0.118173614
0000d0 10 6a 02 3e 79 0c 72 3d ee df e7 3d 2f 9f f0 3d
       0.12735772 0.059093926 0.11322008 0.11749112
0000e0 09 47 b1 3d e9 b1 94 3d 74 15 42 3d 68 48 c6 3d
       0.08656127 0.07260496 0.04738374 0.09681779
0000f0 a6 a2 ba 3d 72 aa 6b 3d c9 38 91 3d be b9 c6 3d
       0.09113054 0.057535596 0.07090909 0.09703396
000100 b9 10 9d 3d 59 91 96 3d 21 d1 b3 3c 8a 08 ad 3d
       0.07669205 0.073519416 0.021950306 0.08448894

onnx::Div_64 f4 [7]
000000 9a 11 db 3e 07 2c 1a 3e 9f 03 49 3f 8c 4f 21 3e
       0.42786866 0.15055858 0.7852115 0.15753001
000010 2d fb 69 3d 54 14 83 3a 54 14 83 3a
       0.057124306 0.0010000565 0.0010000565
