results/fase1/BlueCar/BlueCar-407416.onnx (onnx, 350882 bytes, 11 tensors)

network_body.observation_encoder.processors.0.normalizer.running_mean f4 [68]
000000 fc ae 0e 3f 96 9b f1 3a 1c b0 e1 3e fb f5 52 3f
       0.55735755 0.0018433209 0.44079673 0.82406586
000010 99 33 14 3f ef 61 e5 3a 02 b3 d6 3e 20 2f 51 3f
       0.5789123 0.00175005 0.41933447 0.8171253
000020 7e 5c 1f 3f ef c1 d1 3a ff 74 c0 3e 40 07 47 3f
       0.62250507 0.0016003231 0.3758926 0.7774544
000030 62 b0 27 3f 94 d4 aa 3a de f3 af 3e ef b5 3f 3f
       0.65503514 0.0013033324 0.34365743 0.74886984
000040 83 a7 3d 3f 45 6a 91 3a 31 1f 84 3e 92 60 2f 3f
       0.7408373 0.0011094293 0.25805047 0.6850673
000050 a6 78 3a 3f cc 80 74 3a 0d 94 8a 3e dd 4f 25 3f
       0.72840345 0.00093270536 0.2706608 0.64574987
000060 1c 0e 54 3f fe f8 81 3a e9 c2 2e 3e 9a 65 12 3f
       0.8283403 0.0009916124 0.1706654 0.5718628
000070 52 6b 4d 3f cb 64 49 3a c8 88 49 3e d9 9d 09 3f
       0.8024188 0.0007682561 0.19681084 0.5375648
000080 24 0f 66 3f 7f cc 86 3a 2d 6a cd 3d c0 eb eb 3e
       0.8986685 0.0010284333 0.10030017 0.460783
000090 73 fc 65 3f d2 22 19 3a 61 e8 ce 3d d2 e0 d3 3e
       0.8983833 0.00058416754 0.101029165 0.41382462
0000a0 8a b1 75 3f aa 34 17 3a c5 86 22 3d bc 52 bb 3e
       0.9597403 0.00057680404 0.039679307 0.3658656
0000b0 86 77 73 3f 7c 74 be 39 d6 07 47 3d 98 cb a7 3e
       0.95104253 0.00036326412 0.048591457 0.32772517
0000c0 b8 01 7d 3f 40 9a c3 39 a8 6d 39 3c f0 40 9c 3e
       0.9883075 0.00037308224 0.011317648 0.30518293
0000d0 a2 45 7a 3f 02 fb 8a 39 ed 1a b5 3c 72 84 8e 3e
       0.977625 0.00026508427 0.022107566 0.27835423
0000e0 40 36 7f 3f 33 ff 9c 39 0a ee 35 3b ec 5a 8a 3e
       0.99692154 0.00029944777 0.002776029 0.27022493
0000f0 20 cf 7d 3f dd bb 36 39 06 55 09 3c b3 29 7e 3e
       0.9914417 0.00017426857 0.008382088 0.24820594
000100 9e c9 7f 3f 29 68 88 39 cb a1 14 3a c0 e8 7f 3e
       0.9991702 0.00026017547 0.0005669861 0.24991131

network_body.observation_encoder.processors.1.normalizer.running_mean f4 [7]
000000 9f 5f 3c 3d a0 36 76 3e 2b 8d 36 3f fd 98 d8 3e
       0.04598963 0.24044275 0.71309155 0.4230422
000010 66 78 9b bb 00 00 00 00 00 00 00 00
       -0.004744577 0.0 0.0

network_body._body_endoder.seq_layers.0.weight f4 [256, 75]
000000 b8 93 28 be 7c 30 16 bd 54 3e 5b be c5 52 74 bd
       -0.164626 -0.036667332 -0.21410495 -0.059649248
000010 21 ac be bd 90 db 7f 3e 29 47 fd 3d 3e 77 3d 3e
       -0.09310175 0.249861 0.12367088 0.18502519
000020 03 e5 d5 bc 80 29 8f 3d 28 5e c8 3d dc c7 42 be
       -0.026110178 0.06990337 0.09783584 -0.19021553
000030 a4 a7 5c be 9b 83 4e 3d ca 74 0e bd 91 32 1c 3e
       -0.21548325 0.050418478 -0.034779347 0.15253665
000040 39 30 31 be 5c b6 dc 3d 5d 8f 69 bd a7 2d 83 3b
       -0.17303552 0.1077697 -0.057021488 0.004003245
000050 e8 dc 8a 3d bb 16 78 bb 6a a7 14 3c c2 96 79 bd
       0.06780416 -0.0037855345 0.009073118 -0.06093479
000060 5a 10 c1 bd 6d d3 5e bc 06 cb 3f bb 54 32 59 3e
       -0.09426947 -0.0136002125 -0.0029265299 0.21210605
000070 98 7f 1a 3c 75 ef b1 3d 94 90 8d 3d 67 75 f4 3d
       0.009429835 0.08688251 0.06912342 0.11936455
000080 1f 3a 81 3c 51 30 0f be 09 c0 d1 ba 06 1e 52 3e
       0.015774785 -0.13983275 -0.0016002666 0.20519266
000090 57 c8 40 bd 33 d4 e8 3d 62 14 f9 3a 55 f0 12 3d
       -0.04706606 0.11368599 0.0019003267 0.03587373
0000a0 4b 47 f9 3c 62 ed 1a be 5b 98 2d ba 3e 13 e9 3d
       0.030429503 -0.15129617 -0.0006622129 0.11380623
0000b0 02 db c0 3c 77 14 97 bd 36 00 3b 3d 07 05 8b bd
       0.023541931 -0.0737695 0.045654498 -0.06788068
0000c0 89 2d 46 be 1f 69 d8 3d b2 3f d0 3c f2 60 a3 bd
       -0.19353308 0.10566925 0.025420997 -0.07977475
0000d0 b6 90 5e bc 3a 6a 3e bd 13 6b 06 3d 0e 1e 16 3e
       -0.013584306 -0.046488024 0.032816958 0.14659902
0000e0 6a e9 a5 bd 4e cc 96 3d ab be 0d 3d 54 1e 76 bd
       -0.08101161 0.07363187 0.034605663 -0.060087517
0000f0 ca 89 c5 bd af 50 30 3b ef c5 32 be c3 37 80 3d
       -0.09645422 0.002690356 -0.17458318 0.06260636
000100 0a 49 a9 bb f2 c1 d6 3c 4a 34 8a 3d 7c a2 33 bd
       -0.0051661776 0.026215527 0.067482546 -0.04385613
000110 46 b0 5b be c1 55 fc bd ba 13 9c bd ff 5b 3b 3e
       -0.21453962 -0.12321044 -0.0762095 0.18296812
000120 19 5e 0d 3e b4 72 66 bc f6 81 6d bd b8 2e 58 be
       0.13805427 -0.014065433 -0.05798527 -0.21111572
000130 8e aa c7 bd 9c fe 64 3d 6b 56 6c 3c 48 33 41 3e
       -0.097493276 0.055906877 0.0144249005 0.18867218
000140 03 c2 3e bd f0 49 48 be 01 a5 97 3d da 1c 02 3d
       -0.046571743 -0.19559455 0.07404519 0.031765796
000150 9b 2c 7b 3e 96 b1 0e 3e 0c de 99 3d d9 89 ab bc
       0.24528734 0.13934931 0.07513055 -0.020939754
000160 10 92 0c bc 25 24 39 3e 91 4a a3 bc 92 15 64 bd
       -0.008579746 0.18080194 -0.019933017 -0.055684634
000170 c6 5e 40 be 89 ad f3 3d 99 15 e6 3c 49 46 77 be
       -0.18786153 0.118983336 0.02808647 -0.24147905
000180 0d 69 38 be a9 27 d3 3d 47 0c 31 3e 51 5f 80 be
       -0.18008824 0.10310299 0.1728984 -0.2507272
000190 8b 1d 41 bd 86 3f 55 be 35 49 04 bf 35 b2 2e 3e
       -0.047147315 -0.20825014 -0.51674205 0.17060168
0001a0 8b cb a4 3d e1 73 73 be c6 a9 b5 3d 15 9a 73 be
       0.08046635 -0.23774673 0.08870272 -0.23789246
0001b0 e9 8b a0 bc bc ac 01 be f5 38 b8 bc 09 3b 15 be
       -0.019597964 -0.12663549 -0.022488097 -0.14573301
0001c0 56 42 06 3c 39 42 43 3e cd 40 cb bd bf 21 3c bd
       0.008194527 0.1906823 -0.09924469 -0.04593062
0001d0 85 51 b8 3b 31 a8 61 3e fa 07 d6 3d e3 1c ab 3d
       0.0056249523 0.22036816 0.1045074 0.08355119
0001e0 50 58 02 be d7 82 bc 3d 51 60 0d 3e d2 58 47 bd
       -0.12729001 0.09204643 0.13806273 -0.04866869
0001f0 c8 68 6e 3e 2b 00 e3 3d fe f3 81 be 49 e8 36 3e
       0.23282158 0.110840164 -0.25381464 0.17862047
000200 2c f1 23 3d 4b 94 a3 3b 68 54 ae 3d 36 01 f0 3d
       0.04002492 0.004992043 0.08512193 0.11718981
000210 41 75 7c bd 0e 74 ee 3c de 01 09 3d e6 8a c7 3d
       -0.06163526 0.029108074 0.033449046 0.0974329
000220 7c 57 5d 3c 9b 34 ac be bb b9 ff bd 0d 02 8a bd
       0.013509627 -0.33633885 -0.12486597 -0.067386724
000230 7a 01 2a 3c 7e 35 20 3d 3e 3c 21 be 54 68 05 bd
       0.010376329 0.039113514 -0.15745637 -0.0325702
000240 75 5a 3f bc 8f 5d 02 be 37 ba 11 3e a6 c1 56 3d
       -0.0116792815 -0.12731002 0.14231192 0.05243077
000250 62 58 6d 3e 62 13 d2 bd fc bb ba 3c 75 8f 6a 3b
       0.23178247 -0.10257603 0.022794716 0.0035791073
000260 91 fa 93 3c 04 d7 e2 bd ab a1 7e be 77 c6 b2 3d
       0.018063815 -0.11076167 -0.24866359 0.087292604
000270 32 ac 9e bc 3f 72 2d 3e 98 e0 be bd 5e 5d e8 bd
       -0.019369218 0.16938113 -0.093201816 -0.113459334
000280 ce 18 82 be 73 82 46 3a 7c 4d cf bd 6a b0 75 be
       -0.2540955 0.0007572539 -0.10122201 -0.23993078
000290 65 28 7a bd 0d a3 27 3e 4a d5 ef 3b aa 8a d6 be
       -0.06107368 0.16370793 0.007319127 -0.41902667
0002a0 69 6b 7d bd d4 e2 13 bb c1 d9 4c be 85 4c 5b be
       -0.061870012 -0.002256562 -0.20004942 -0.21415909
0002b0 1d 15 ea 3b d0 c3 42 3e 00 bf 80 3e 02 06 09 be
       0.00714363 0.19020009 0.2514572 -0.13381198
0002c0 46 17 1a 3b d1 74 08 bd f5 fe bf 3a 0c 69 dc 3d
       0.0023512407 -0.03331453 0.0014648127 0.107622236
0002d0 30 75 a2 bd 34 3f 50 3e a1 c8 24 3c d5 09 a4 3d
       -0.07932508 0.2033661 0.010057599 0.08009688
0002e0 64 a6 26 3c 9a b8 88 3d a3 0d 10 3e c1 fd 05 3d
       0.010171507 0.06675835 0.14067702 0.0327127
0002f0 48 03 e4 bc f0 b0 82 3e 89 4e ec 3c 7f 44 92 be
       -0.027833596 0.25525618 0.028846042 -0.28567883
000300 2f da c3 bd 6d e3 52 be d9 66 30 3e 5b 12 de 3d
       -0.095630996 -0.20594569 0.17226733 0.10843345
000310 ab 9c 63 3e 7b 90 1e 3e 79 9c 06 3e da 40 1b 3d
       0.22227733 0.15484802 0.13145627 0.037903644
000320 f8 2b 14 bd 23 dc dd bd 0d 84 fc 3c 15 b1 e4 3d
       -0.036174744 -0.10833003 0.030824685 0.11166588
000330 dc d9 8c 3e 64 3c 62 bd be 67 80 bd cb 5f e8 bc
       0.27509964 -0.055233374 -0.06269787 -0.02836599
000340 47 87 72 bd 92 ee 0b be d9 78 22 3e 7c 0d ff bd
       -0.05921104 -0.13665226 0.15866412 -0.12453744
000350 da 5c 64 3c 0a a0 61 bc a1 16 60 3d f4 a3 31 bc
       0.013938153 -0.013771066 0.05470908 -0.010842312
000360 8f 57 ce bd 12 ca ce bc 59 54 89 bd 78 29 82 3d
       -0.10075294 -0.025242839 -0.06705541 0.06355566
000370 c4 24 57 3e e1 91 99 3d 45 78 6b 3d 40 fb 05 3e
       0.21010119 0.07498527 0.057487745 0.13084126
000380 45 83 01 3e 5d a3 03 be 0d 3d 8a bd 24 75 10 3e
       0.12647732 -0.12855287 -0.06749926 0.14107186
000390 ee 9d df bd 52 1e 8e 3d dd 32 8e bd 0f 48 bf 3c
       -0.109187946 0.06939377 -0.06943295 0.02334979
0003a0 22 62 f4 3d a7 ca 63 bd d1 99 17 be b4 77 b8 3d
       0.1193278 -0.055613186 -0.1480477 0.090072066
0003b0 ad 61 1c 3d 1d 5f 43 bd a2 98 04 3e af 0c 15 3d
       0.03817909 -0.04769813 0.1294885 0.03638905
0003c0 62 18 a0 3d 4d 0a 2d 3e 91 ac ac 3c 3f a1 d7 3c
       0.07817151 0.1689846 0.02107838 0.026322005
0003d0 f1 b9 f3 3d 40 33 9e bd c2 bf fb bd 45 59 00 be
       0.119007 -0.07724619 -0.12292434 -0.12534054
0003e0 66 df e2 3d 3f d9 5d 3e 17 1d 81 bd 01 ba a3 bd
       0.11077766 0.21664904 -0.063043766 -0.07994462
0003f0 4b fd e8 bb b1 15 f8 bd 0c 01 91 bd f8 93 7c be
       -0.007110273 -0.12113512 -0.07080278 -0.2466582

network_body._body_endoder.seq_layers.0.bias f4 [256]
000000 ff cf 2c bd f6 5a 35 bc df ba 0f 3d 39 ce 75 3c
       -0.042190548 -0.01106905 0.035090324 0.015002781
000010 27 05 c3 ba 90 7d 5d 3d cb 6c 1f 3d 11 44 4c 3c
       -0.0014878855 0.054074824 0.038922112 0.0124674
000020 9d b9 66 3a 35 21 59 bc bc 8a 2d 3d 04 77 10 bd
       0.0008801462 -0.013252546 0.042368636 -0.035269752
000030 fb 04 9f bc ec a1 cd ba 24 d8 86 bc b1 35 3b bc
       -0.019411555 -0.0015688515 -0.016460486 -0.011426375
000040 4a 82 6a 3d 22 37 04 bd 60 49 5b bc f0 3d 1e bc
       0.05725316 -0.03227914 -0.013384193 -0.009658322
000050 e3 cb d1 3c 68 40 ee 3c 6c 46 07 3d f3 88 2d 3d
       0.025609916 0.029083446 0.033026144 0.042366933
000060 9a 94 ba 3c dc 2d b6 bc ff 58 81 3d 26 b9 51 bd
       0.022775937 -0.022238664 0.06315803 -0.051201962
000070 03 09 16 3d df c2 2f 3b 16 b7 46 bd c7 1c 5c 3c
       0.036629688 0.0026819033 -0.048514448 0.013434595
000080 32 d0 be bc b6 0b c5 3c 32 b9 9b bc dc e4 17 3d
       -0.023292635 0.024053436 -0.019009206 0.03708349
000090 3f 1d ae 3b 55 37 4e 3d d4 fe 39 3c eb 6c 58 3d
       0.005313545 0.050345737 0.01135226 0.052838247
0000a0 a5 28 ca bc 6a 1c 02 3d 3f 4e 1c 3d 64 ea 24 3d
       -0.024677584 0.03176538 0.03816056 0.040262595
0000b0 82 c0 e1 3c b3 be 62 bc 2d 78 80 ba be ab 27 bb
       0.027557615 -0.013839412 -0.000980144 -0.0025584544
0000c0 ee 99 38 3d c3 3a bc ba 26 c1 fa 3c cb e2 88 bc
       0.045068674 -0.0014360774 0.030609678 -0.016709706
0000d0 51 23 28 3d 3f b3 2e bd 44 95 3c 3b 89 7e 2b bc
       0.041049305 -0.04265141 0.0028775493 -0.01046718
0000e0 ae a2 86 bb 0c 92 4b bc 05 80 93 3c d0 a6 03 bd
       -0.0041087484 -0.012424957 0.01800538 -0.032141507
0000f0 19 75 c1 bc 16 09 5e 3d cc 6a 9f 3c 44 07 d6 ba
       -0.023615407 0.054207884 0.019460104 -0.001632907
000100 44 82 1c bd c4 26 e5 3c c4 c7 1e bc 04 2e 13 3d
       -0.03821017 0.027972586 -0.0096911825 0.035932556
000110 59 3e 1f 3b 64 e3 98 bc 1f 83 47 3c 44 84 98 ba
       0.0024298637 -0.018663116 0.012177258 -0.0011636098
000120 37 54 f9 bc fb 0d 25 bd a9 3c 00 3d 88 29 87 3c
       -0.030435665 -0.040296536 0.03130785 0.016499296
000130 0f cf 6b 3c 5b f8 4d bb 42 fa 15 3d 8d c1 91 bc
       0.014392628 -0.003142855 0.036615618 -0.017792488
000140 a2 5a 2e bc cb 62 06 3c c2 2a 23 bc d6 24 93 3c
       -0.010641726 0.008202265 -0.009958925 0.0179619
000150 f9 0d 0b 3c 6d 30 a9 3d 17 03 e8 3c c1 c4 c7 3b
       0.008487218 0.082611896 0.028321786 0.006096453
000160 30 cc 53 ba ac 6d 1e 3c ae fb 20 3d 63 3a 37 3d
       -0.00080794375 0.0096697025 0.03930252 0.044733416
000170 1d 9c da bc 8e 87 36 bd f9 93 03 bc 3b 79 21 3d
       -0.026685769 -0.04456287 -0.008030885 0.039422255
000180 45 17 f0 3b 4f a4 d1 3c 31 79 34 3d 51 7d 24 3c
       0.0073269927 0.025591044 0.04406089 0.010039643
000190 42 5e 0f 3c bc 99 cb bc 63 fd 1d bc dc 4d 88 3b
       0.0087505 -0.02485358 -0.009642932 0.004159672
0001a0 2c 27 c1 3b 82 7e 71 3d c3 bc 34 bd 14 32 ac 3c
       0.005894562 0.058958538 -0.04412533 0.021019973
0001b0 14 6a a4 bc 6f 00 15 bd 2d e3 b3 3c a9 81 07 3d
       -0.020070113 -0.036377367 0.021958912 0.033082638
0001c0 0a 8a 58 3d 36 ea 28 3d cb ff 5c 3d 56 d8 72 3c
       0.05286602 0.041238986 0.05395488 0.014822086
0001d0 e0 f8 d5 3c f6 22 fa 3c 55 d0 1f 3c 0f 9d 35 3d
       0.02611965 0.030534249 0.00975426 0.044339236
0001e0 e4 ac 9f 3c 31 10 ad 3c 58 8c c1 3c 4c 8c 4e bc
       0.01949162 0.021125885 0.023626491 -0.012606692
0001f0 1f cd 93 3c d7 70 03 3c 45 cf a1 bc 5c ab 0f bd
       0.018042145 0.008022509 -0.019752154 -0.03507553
000200 17 50 23 bc 5a d0 95 bc 9f 2d 1b 3b a8 0e bb 3c
       -0.009967825 -0.018287826 0.0023678315 0.022834137
000210 f7 84 1a 3b dc f9 77 3c d9 2f 2e 3d 04 d2 0c bb
       0.0023577788 0.015135255 0.0425261 -0.0021487484
000220 e4 14 1b 3d cd 59 6f 3c ab eb e9 3b 38 8d 17 3d
       0.03786172 0.0146088125 0.0071386895 0.03699991
000230 69 3e 7f 3c ce 1b 28 3d 2a ae 4a 3d 50 12 20 bb
       0.015578845 0.04104214 0.049482502 -0.0024424978
000240 4c f8 27 3d b8 a0 44 3d a8 e3 26 3d 60 f3 a5 3c
       0.04100828 0.048004836 0.040744454 0.020257652
000250 11 69 41 3d 62 c4 d1 3b 66 52 d1 3c 14 05 fe 3c
       0.04721934 0.0064015845 0.025551986 0.03100828
000260 a8 30 11 3d 1f d2 d4 bc b6 84 8a 39 96 e5 08 bd
       0.035446793 -0.0259791 0.00026420288 -0.033422075
000270 ce dc d1 bc 92 55 45 bd 64 3c 3e 3c 1e ba c2 3c
       -0.025617983 -0.04817731 0.011611078 0.023770388
000280 72 1b 7f 3d 0d 4b b7 3c 90 d7 16 3d e4 74 37 3c
       0.062282033 0.022374654 0.03682667 0.0111973025
000290 41 6f f3 3c 0d 24 35 ba 49 b5 fd bb ec a5 c3 3c
       0.029716136 -0.0006909974 -0.007742558 0.023882829
0002a0 14 3a 06 3d 5b c6 48 3a 2e 50 18 bd 8a b5 33 3d
       0.03277023 0.0007658952 -0.03718584 0.0438743
0002b0 2b c1 86 3b 29 6f b2 3c 50 15 a5 3b 7e f0 c4 bc
       0.004112383 0.02178152 0.005037941 -0.024040457
0002c0 fd c7 2b 3d 8b 91 17 3d af a6 5a 3d 9f 9d 26 3d
       0.04193877 0.037004035 0.053381618 0.040677663
0002d0 eb 3b 6a bc 2a 6a 13 bd 03 11 dc 3c 08 ae 21 3d
       -0.014296512 -0.035989918 0.02686358 0.03947261
0002e0 5a 41 f2 3c e7 40 14 3c fc 80 31 3c 37 70 60 3c
       0.029572178 0.009048677 0.010833975 0.013698629
0002f0 6a d2 bb bc 74 60 a5 3b 72 0a 08 3c 87 71 f5 3c
       -0.022927482 0.0050468985 0.008303272 0.02996136
000300 97 c9 45 3c 1a bc 87 bc 65 de 57 3b bf 57 c7 3b
       0.012071989 -0.016569186 0.0032938954 0.006083458
000310 86 7e 94 3c 0d e6 8c 3d 4e 0c 05 3d b1 a6 09 3d
       0.018126737 0.06879816 0.032482438 0.033606235
000320 e6 b6 65 bd fe 89 69 bc 86 7c 09 3d b9 a6 db 3c
       -0.05608263 -0.014254091 0.03356602 0.026812898
000330 c3 95 16 3c ee 55 8d 3c ad 49 9c 3c 4d ce 62 3c
       0.009190979 0.017252889 0.0190781 0.013843131
000340 c9 30 72 3c 49 70 29 3d 18 26 ae bc da 64 b7 3c
       0.014782139 0.04136685 -0.021258399 0.022386957
000350 ed e1 00 3c 22 6c 00 bd f5 cb be 3c a5 d6 d1 3c
       0.007866365 -0.031353123 0.023290614 0.025615046
000360 95 2c 21 3c ee 47 cb 3c ec 02 0d 3d 9c 23 10 3d
       0.009837289 0.024814572 0.034426615 0.03519021
000370 0b 7b 00 bd 55 a3 04 3d 42 52 4b 3c 34 8d 17 3d
       -0.031367343 0.032382328 0.0124097485 0.036999896
000380 46 e9 ff bc d5 1d d7 3c 47 ec b8 3c 4d 20 a8 bc
       -0.031239163 0.026259342 0.022573603 -0.020523215
000390 e0 5f 81 3d f1 96 bd 3c 03 83 11 3d b8 4c 0a bd
       0.06317115 0.023143264 0.035525333 -0.03376457
0003a0 3d 05 8b 3c b7 36 96 3b 36 6d 00 3c 16 4d 10 bc
       0.016970271 0.0045841592 0.007838538 -0.008807441
0003b0 d9 d4 3c 3d 9f 01 fc 3b 54 a6 7f 3a a9 0a 17 bd
       0.046101425 0.007690623 0.0009752263 -0.0368754
0003c0 04 95 ec 3c a5 92 00 3d 5b d1 ca 3c ec 82 b8 3c
       0.02887965 0.03138985 0.024758032 0.022523366
0003d0 31 86 0b 3d ce 02 f9 bc 4f 99 d6 3c 44 b9 f5 3c
       0.03406352 -0.030396845 0.02619615 0.029995568
0003e0 8c 60 02 3d 8c 68 ac 3b 1c 81 4c 3d e0 ef bf 3c
       0.031830356 0.0052614864 0.049927816 0.023429811
0003f0 f6 39 c4 3c 4f cf 47 bb 98 46 57 3d 22 c2 fc 3c
       0.02395342 -0.0030488556 0.052557558 0.030854288

network_body._body_endoder.seq_layers.2.weight f4 [256, 256]
000000 a7 8c b0 bd fe f3 8f 3d d3 47 7c bd 4a cf 10 3c
       -0.08620577 0.0702896 -0.061591934 0.008838484
000010 e1 fe 1a be 5c d1 88 3d eb b1 a4 bd 90 93 47 3d
       -0.15136291 0.06680557 -0.08041748 0.04872471
000020 65 54 17 bd a0 74 91 bd 1c 96 d4 3c 0f bc 88 ba
       -0.03694572 -0.071023226 0.025950484 -0.0010432022
000030 4c dc 42 bc bf de 06 3c 4e cd c9 3d 58 74 a1 bd
       -0.011893343 0.008231818 0.09853612 -0.07883519
000040 74 8c b9 bd a1 c4 57 bd a3 2a 86 bc 3b 2e 65 bb
       -0.090599924 -0.052677754 -0.016377753 -0.0034970182
000050 fb 5c f4 bd cc ae 77 bd 74 0d 96 3d 8a d2 7c bd
       -0.11931797 -0.060469434 0.07326785 -0.061724223
000060 6f 9a 6c 3b 00 3b 37 bd 2f 08 07 3d 7b 95 41 bd
       0.0036102792 -0.044734 0.03296679 -0.047261696
000070 e4 e5 ab bd 4e ed dd 3b 2b f1 55 3d 12 f5 2e 3d
       -0.083934575 0.0067726737 0.05223195 0.042714186
000080 47 bc ff 3d 07 9a 16 3e 82 99 f8 bc 8e 24 c6 3b
       0.12487083 0.14707194 -0.030346636 0.006046838
000090 ff 6e 33 3d 65 0e 52 bc 77 5c 98 3d f0 1c 92 bb
       0.043807026 -0.012820815 0.07439511 -0.004459016
0000a0 13 b6 e3 bc 68 5c fb bb c5 bb 2a bd 3e 37 1e bd
       -0.02779678 -0.007670928 -0.041682977 -0.0386269
0000b0 b9 9f 86 bc ca e9 22 be c9 1e 7d 3c 38 ec 07 3c
       -0.016433584 -0.15909496 0.015449234 0.008296065
0000c0 b4 ad 93 3d 45 98 14 be 79 82 e7 ba c9 f6 c4 bd
       0.072108656 -0.14511211 -0.0017662785 -0.09617383
0000d0 8e b4 c1 3d cb 9d af 3c 9e 5d 1a 3e 56 fb 80 bd
       0.09458266 0.021437546 0.15074775 -0.062979385
0000e0 16 01 05 bd 5d 2a b5 3d 29 2f ad 3d c9 3b 80 bc
       -0.03247174 0.08845971 0.08456261 -0.015653508
0000f0 fd 23 0b 3d d7 c6 99 bd fe 3b a3 3d 8a 95 57 3d
       0.033969868 -0.07508629 0.07970427 0.052632846
000100 8c 62 bc 3d 7f f3 2b bd 9f a7 8e bd e1 fe 82 3c
       0.09198484 -0.041980263 -0.06965565 0.015990676
000110 04 dd ab 3b 23 2e 11 bc 73 3a 36 bd c3 10 b0 bd
       0.005244853 -0.0088610975 -0.044489335 -0.08596947
000120 c4 ea a4 3d a1 e5 17 be 2b 02 14 3b 0e f5 86 3c
       0.080525905 -0.1483369 0.00225843 0.016474273
000130 e8 4a ab 3c 5d 6a 22 3e 50 9d 87 bd bf 8e 29 bd
       0.020909742 0.15860887 -0.06621802 -0.0413959
000140 3c c0 5a bd 9a 71 ac 3d 51 95 8f 3c 8b 36 06 3b
       -0.053405985 0.08420105 0.017527254 0.0020479287
000150 69 f0 c5 3c 21 cd 11 be 8b 5c 89 b9 59 1b 24 bc
       0.024162488 -0.14238407 -0.00026199626 -0.010016286
000160 21 be 9d bd 88 66 ea bd 4c 47 1e bd 0b 1e ec bc
       -0.0770228 -0.114453375 -0.038642213 -0.02882292
000170 f8 e4 07 bb 88 a9 4a 3c 94 e0 07 3d 2f 39 f0 3d
       -0.0020735841 0.012369521 0.03317316 0.11729657
000180 27 a8 8b bd e8 57 b7 3c c3 2c a2 3d 8c 08 8f 3c
       -0.06819182 0.022380784 0.07918694 0.01746013
000190 ea 09 fc 3d e5 5a 63 bb 94 16 8a 3d 96 f9 48 3c
       0.123065785 -0.0034691629 0.06742588 0.012266537
0001a0 fb 85 8e 3d 23 2b 16 bc 1c 73 6f 3d d1 b8 1e 3e
       0.069591485 -0.009165558 0.058459386 0.1550019
0001b0 9f 91 d2 bd 67 38 1d 3d 4d a7 cc 3d 30 2d 21 3c
       -0.10281681 0.038383868 0.099928476 0.009837434
0001c0 c9 f5 b7 bc 44 ac 15 be 63 6a 41 bd 0f f1 c2 3d
       -0.022456067 -0.14616495 -0.0472206 0.095186345
0001d0 95 7a 5f bb 29 d7 41 be e9 7f 6a 3d 3d ff 1e 3d
       -0.0034100164 -0.18929733 0.05725089 0.038817633
0001e0 47 b7 eb bb 96 91 3f bd 4f ca f0 bc f9 27 9f bd
       -0.007193479 -0.0467697 -0.029393343 -0.07771296
0001f0 72 f2 5a bd c5 2c 85 bd 7a 10 a7 3d 5e 7c 9b bd
       -0.05345387 -0.0650268 0.081574395 -0.075920805
000200 4a aa 16 be 52 13 74 bd 1b 5f 54 3c 69 38 fd 3d
       -0.14713398 -0.059588738 0.012962128 0.12364275
000210 16 20 61 3c e8 bc f9 3b bf ec 14 3d bc 02 d4 3b
       0.01374056 0.0076213963 0.03635859 0.0064700525
000220 1e 3d 29 be 2d 73 57 bc fd fa 0c 3d 1a 78 c9 bd
       -0.1652722 -0.013150019 0.03441905 -0.09837361
000230 24 14 9d 3d 34 e1 84 bd ad 45 84 bd 68 2b fd 3c
       0.07669857 -0.064882666 -0.06458602 0.030904487
000240 46 8b ef bc 98 eb 21 bd 10 db 60 bb 5a 7d ed 3d
       -0.029241215 -0.03953132 -0.003431026 0.115961745
000250 92 db e0 3c e2 b5 58 bd f9 9d 4c 3d 7b e8 26 3d
       0.02744845 -0.052907832 0.049955342 0.040749054
000260 e3 dd 55 bd ce 65 f5 b9 ed a1 8d 3c eb 2c 2d bd
       -0.05221356 -0.00046805892 0.017289126 -0.042279165
000270 f5 ac 29 bd 0c ab 29 bd 46 0d 4c 3d d9 eb 9a bd
       -0.04142471 -0.04142289 0.049817346 -0.075645156
000280 52 55 13 be f2 24 02 be 55 c1 06 bb d4 13 28 bd
       -0.14388016 -0.12709406 -0.0020562012 -0.041034535
000290 27 79 3d bd 18 b4 0f be 10 67 c8 3c b7 f1 5e bd
       -0.046258118 -0.14033544 0.024463207 -0.054429736
0002a0 d9 cc 0d 3d bc 62 ca 3b fb 2c 19 3d 21 3a ea 3c
       0.034619186 0.006176321 0.037396412 0.028592171
0002b0 01 85 26 3d a6 6d 84 bd d8 a0 90 3d 2b 8d 3f 3e
       0.040654186 -0.06466226 0.070619285 0.18706195
0002c0 8f 03 10 be 87 4b 0d bd ac 7f 29 bd 68 5f 78 3c
       -0.14063857 -0.034495857 -0.041381523 0.015159465
0002d0 8d bc 43 bd 5e 76 99 bd 8a 3e e5 3d 59 e3 56 bd
       -0.047787238 -0.0749328 0.11193569 -0.05246291
0002e0 54 db 81 bd a8 f0 59 3d 47 9a 00 bd 60 0a 69 3d
       -0.06340662 0.053208023 -0.03139713 0.05689466
0002f0 5d 0e 2f bd 89 fc 1b 3d 16 a0 b6 3c fd af 20 3b
       -0.042738307 0.038082633 0.022293132 0.002451896
000300 fa 5d 01 bc 2b 2c 03 3d 41 f3 c1 bd 21 29 b9 bb
       -0.007895941 0.032024544 -0.09470225 -0.005650655
000310 44 8b 6a bd c1 97 91 3d 49 9e 55 3d 77 2b aa 3d
       -0.05726172 0.07109023 0.052152906 0.083090715
000320 a3 e7 8e bc d8 eb df bc 89 df e3 bc be 80 79 3d
       -0.017444437 -0.027334139 -0.02781655 0.060913794
000330 1a c8 0b bd cc 6a 08 be b3 fc b7 bc 6e 83 9f 3d
       -0.03412638 -0.1332199 -0.022459364 0.0778874
000340 9c 8e 12 bd 59 bd 35 3d e8 48 c4 bb b8 b6 fc bc
       -0.035780534 0.04437003 -0.0059901364 -0.030848846
000350 5a 31 2b 3d db 23 08 bd 28 83 47 bd cf b0 86 3c
       0.041795112 -0.03323732 -0.048709065 0.01644173
000360 cc 6a 01 3e 24 ef 40 bd 10 40 3d bd 4a 70 29 bd
       0.12638396 -0.047103062 -0.046203673 -0.041366853
000370 79 46 a9 bd d0 13 78 bd a5 d6 55 be 1a 7b 5b bd
       -0.08265395 -0.06056577 -0.20882662 -0.053584196
000380 09 e6 61 3d 2f 19 b3 bd dd 22 6f 3d 17 b9 00 be
       0.05515102 -0.08745038 0.058382858 -0.12570606
000390 7c 5c fc bd 7b 93 f2 bd 33 59 7d bd 4c 22 b6 bd
       -0.123223275 -0.11844536 -0.061852645 -0.0889326
0003a0 54 6e fd 3d 52 d2 07 be 07 ba 36 bd e6 ea b2 3d
       0.12374559 -0.13263825 -0.044611003 0.087362096
0003b0 54 b6 f2 3a 62 d6 89 3c 73 af 2e be 62 73 4a 3d
       0.0018517473 0.016825859 -0.17059116 0.049426444
0003c0 1a 81 28 bc f7 26 82 bd 2e 62 5c 3d 11 ec 9d 3d
       -0.010284686 -0.06355088 0.05380457 0.07711042
0003d0 69 ab 0b be 52 2f df bc b4 08 55 bc 84 da da bd
       -0.13639607 -0.027244244 -0.013002563 -0.1068621
0003e0 9e d7 0a bd cd 2e 17 b8 d0 a3 39 3d 22 e7 a3 bd
       -0.033897035 -3.6044792e-05 0.04532224 -0.080030695
0003f0 d5 21 87 bc f0 8c 29 3e 5a 96 08 3d 43 21 54 bc
       -0.016495625 0.1655767 0.03334651 -0.012947383

network_body._body_endoder.seq_layers.2.bias f4 [256]
000000 58 18 fa bc 07 a7 c6 3c b6 a8 db 3c 82 b4 5b bd
       -0.030529186 0.024249567 0.026813846 -0.053638943
000010 4c 55 cd 3b cd 86 40 3d 6b 4c d4 bc f7 48 19 bd
       0.0062662717 0.047003556 -0.025915345 -0.0374231
000020 c9 a1 22 3d 84 eb 6d 3b 3b 88 75 3c 58 04 64 3c
       0.03970507 0.0036303708 0.014986093 0.013917051
000030 f3 d4 22 3d 5f 26 44 bd bb 8b 13 3d 95 a1 17 3d
       0.039753865 -0.047888156 0.03602193 0.03701933
000040 9e a0 3b bd 7a 17 0c 3c 90 86 0f bd aa e3 48 3d
       -0.045807473 0.008550519 -0.03504044 0.049045242
000050 7f 65 3e bd 9d 87 28 3d d5 59 a8 3c 12 35 0c 3d
       -0.046483513 0.041144956 0.020550648 0.0342303
000060 ca 10 24 bd 0a 17 10 3d 9a 3f 30 3d 12 a5 74 3c
       -0.040055074 0.03517822 0.043029405 0.014931934
000070 6e c0 28 3d ed f5 85 bc 89 07 8d 3c 0f 19 97 bd
       0.04119914 -0.016352618 0.017215507 -0.073778264
000080 f4 f2 10 3b 60 bd 72 3c 06 19 ac 3c 9c 99 63 bd
       0.0022117468 0.014815658 0.021008026 -0.055566415
000090 e3 5c dd bc e5 d7 79 3b 53 16 58 bd bf 07 fc bc
       -0.02702183 0.0038123068 -0.052755665 -0.030765412
0000a0 a2 4c 35 bd a4 63 ef 3c b1 02 35 bd 01 fd 02 bd
       -0.044262536 0.029222317 -0.04419202 -0.031979565
0000b0 48 94 6c bd a9 9e 16 bd 1b 31 e3 bc 75 79 5a 3c
       -0.0577586 -0.036772404 -0.027733376 0.013334622
0000c0 5f 70 28 bc 3d 77 0e 3d 12 f2 1d bd 59 e4 40 3d
       -0.010280698 0.034781683 -0.038560934 0.04709277
0000d0 11 e6 1c 3d 9b 57 68 bd 11 74 47 bd 27 14 6f bd
       0.038305346 -0.056724172 -0.048694674 -0.05836883
0000e0 bb a4 d6 3b 8b c8 3c 3d b5 94 88 bc ad bc 40 bd
       0.006550399 0.04608969 -0.016672472 -0.047054935
0000f0 52 9d 08 3d 61 6c 08 3d f8 b4 e4 bc c2 35 44 bc
       0.033353157 0.033306483 -0.027918324 -0.0119757075
000100 6d df 57 bd 8a bd b7 ba ae 22 86 bd 99 69 a1 3c
       -0.05270331 -0.0014018279 -0.065495834 0.019703673
000110 7f e9 57 3d af 25 1e 3d 17 33 e5 3c 3b fd 3c 3d
       0.052712914 0.038610157 0.027978463 0.046139937
000120 8f 77 f7 3c 64 be 20 bd 36 99 97 3c 3d ae 4f 3d
       0.030208377 -0.03924407 0.018505674 0.050703276
000130 34 b7 c3 3c c2 fb 89 3a ea 66 4c bc 56 5f 1f bd
       0.023891069 0.00105273 -0.0124757085 -0.03890928
000140 3f 15 31 3c a3 bb f4 3c 84 0c 83 3c 11 62 03 3d
       0.010808288 0.029874628 0.015997179 0.032075945
000150 07 11 25 3d 0c 92 07 bc 57 dc 30 bd 4a a9 62 3b
       0.04029944 -0.008274566 -0.043178882 0.0034585767
000160 84 0a eb bb f4 63 10 bd 7a 6c 9c 3c 00 68 0b 3c
       -0.0071728844 -0.035251573 0.019094694 0.008508682
000170 88 e3 8e 3c d2 9c 90 bd 86 09 6b bd 9a 21 ba 3c
       0.01744248 -0.07061161 -0.05738213 0.0227211
000180 cb 49 8c 3c 69 4c 11 3d 66 c7 b6 3b 80 72 52 bd
       0.017125031 0.03547326 0.0055779694 -0.051378727
000190 6a 93 e7 bb 10 38 db bc 38 da 05 3d d5 e7 73 3c
       -0.0070671337 -0.026760131 0.032678813 0.014886816
0001a0 19 56 17 bd fd 19 a9 3c 86 3e 02 3c d1 03 d9 bc
       -0.036947343 0.020642275 0.007949477 -0.026491078
0001b0 f4 1e 2d 3d dc 7a 0e 3d 57 06 04 bd 67 b7 39 3c
       0.042265847 0.034785137 -0.03223261 0.01133523
0001c0 6b c4 c2 3b db d3 4d 3d bd fd 5c 39 8a b0 0a bb
       0.005943825 0.05025087 0.0002107536 -0.0021162354
0001d0 5c 7d 48 3c 19 65 02 3d 50 dc ca 3c 75 2e 13 3d
       0.012236919 0.031834695 0.024763256 0.035932977
0001e0 07 64 0c bc ca eb 72 bd 38 1c 0e 3d de 0b 5d 3c
       -0.00856877 -0.059306897 0.03469488 0.013491599
0001f0 87 2e 5b 3d d1 e4 23 3d 7d 0f 2a 3c e0 d8 45 3c
       0.05351117 0.04001314 0.010379669 0.012075633
000200 44 15 9b 3c 08 59 17 3d 7e e5 d9 bb c2 15 9a bd
       0.018931039 0.03695014 -0.006649672 -0.07523681
000210 06 02 44 bd 6d fc fb bc 71 02 1b bd 99 d1 e1 b9
       -0.047853492 -0.030760014 -0.037844125 -0.00043071507
000220 b4 d3 3f 3d e1 aa 71 bd ee e1 e7 bc a3 2e 4e bc
       0.046832755 -0.059000853 -0.028305974 -0.012584361
000230 66 67 36 bd 45 f8 14 3d 6d 76 e4 3c d1 08 3d 3c
       -0.044532202 0.03636958 0.027888501 0.0115377465
000240 49 28 b3 bc 5e 3d 81 bd 18 82 db 3c 28 98 1a 3d
       -0.021869795 -0.06310533 0.026795432 0.037742764
000250 05 54 dc 3a fe 8c a6 3c ec fd 40 bb 46 3c 38 3d
       0.0016809708 0.020330902 -0.0029448224 0.044979356
000260 51 f5 92 bd 77 00 c5 3c 3c 79 49 bd 48 72 a3 3c
       -0.07175697 0.024048073 -0.049187884 0.019951954
000270 81 25 98 3c 80 d7 84 3c 43 8d 02 3d ca 3f 85 bb
       0.01857257 0.01621604 0.031873 -0.004066442
000280 b6 89 9b 3c 6a a8 b5 bc a9 d0 73 3c 17 6a a1 3c
       0.018986564 -0.022175033 0.014881291 0.019703908
000290 e2 80 4c bd d7 08 0d bd 05 a9 16 bd 68 77 79 bd
       -0.0499276 -0.03443226 -0.036782283 -0.06090489
0002a0 87 c7 98 bd 3c e1 1e bd 1f cd b0 3c ac 40 5e 3b
       -0.07459932 -0.03878902 0.021582184 0.003391306
0002b0 6d 07 c5 3b 1a 65 c2 3c 7a f0 3f 3b fd 3c e1 bc
       0.006012848 0.02372985 0.0029287622 -0.027494902
0002c0 ce e8 4d bd ca d9 d8 3c 26 56 5a 3d 4b 10 09 bd
       -0.050270848 0.026471037 0.053304814 -0.033462804
0002d0 c6 da 93 bd c5 ff 76 3a 0b 94 56 3c 4b cc 56 bd
       -0.07219462 0.0009422268 0.01309682 -0.052440923
0002e0 9b 2e e4 3c 9f 51 83 bb 39 64 0c bd 7b e0 06 bd
       0.027854254 -0.0040075327 -0.034275267 -0.032928925
0002f0 ac 74 b7 3c 5d 1f 3d bc 3b 24 20 bd 79 a0 32 3d
       0.0223945 -0.011543122 -0.039097052 0.04361007
000300 71 35 e1 bc 0a 6f c9 3c d2 f5 04 bd 4f b1 e3 bc
       -0.027491303 0.02458908 -0.032460995 -0.027794508
000310 02 0f ab bb e2 05 72 bd 88 0b 78 bc 30 44 e3 3c
       -0.005220295 -0.05908764 -0.015139468 0.027742475
000320 a1 43 3d 3d 21 38 e9 3c 2b 9e 01 bd f8 16 7c bd
       0.046207074 0.028469147 -0.03164498 -0.061545342
000330 83 c3 5b 3c 40 e3 94 bc 32 a0 09 bd 8f 08 d4 3c
       0.013413313 -0.018174767 -0.03360004 0.025882987
000340 6f d2 40 bd 18 87 d8 3c 3e 31 49 bd 57 9f 17 3d
       -0.047075685 0.026431605 -0.049119227 0.037017193
000350 3e 67 69 bd 0a 31 44 3d 4e 89 3c 3d 8d eb 05 3d
       -0.056983225 0.04789833 0.04602938 0.03269534
000360 b5 59 8b bd 91 b9 ff 3c e2 5f 61 3d 55 05 2b bd
       -0.0680422 0.031216415 0.05502308 -0.041753132
000370 e0 64 8a 3c b2 37 29 3d 6d a5 33 3d a1 f1 e2 3c
       0.016893804 0.04131288 0.043858934 0.027703108
000380 0c b1 4f bd cb 5b 27 3d 4c 87 18 bc 11 70 1a bd
       -0.050705954 0.040859025 -0.009309601 -0.03770453
000390 56 04 e5 bc 40 bf 31 bc 51 51 41 3d 24 24 fa 3c
       -0.02795617 -0.01084882 0.04719669 0.030534811
0003a0 b9 f5 34 bd a4 84 bc 3c ff 1c 29 bd 71 9b 05 bd
       -0.044179652 0.023012467 -0.04128742 -0.032618944
0003b0 b6 b2 2d 3d 39 f0 17 bd c9 39 29 3d cf 50 0d bd
       0.04240676 -0.03709433 0.041314874 -0.034500893
0003c0 06 56 f1 3a 14 ca 6e bd 49 4f 64 bb 6b 10 2c 3d
       0.0018412478 -0.058298185 -0.0034837297 0.042007845
0003d0 5f 40 e3 3c 88 dd b9 3c 50 6b 2b bd 0b 85 5f 3a
       0.027740655 0.022688642 -0.041850388 0.00085266
0003e0 bf bf ab 3c c5 63 0d ba ef a2 37 bd d9 65 33 bc
       0.020965455 -0.000539359 -0.04483312 -0.010949575
0003f0 0d 6c 9e 3c a9 10 0d 3d 98 95 12 3d 03 da 41 bd
       0.019338632 0.034439716 0.035787195 -0.047327053

action_model._continuous_distribution.log_sigma f4 [1, 3]
000000 25 78 97 bd 52 38 ad be 74 c6 53 bb
       -0.073959626 -0.3383203 -0.0032314332

action_model._continuous_distribution.mu.weight f4 [3, 256]
000000 5f 7a e3 3a 81 65 be 3c 45 e0 91 3c 4a b6 1e bd
       0.0017355195 0.02324176 0.017807135 -0.038748063
000010 35 c9 0f bb ca 12 03 3d af eb 99 3b c4 96 38 bd
       -0.0021939997 0.03200034 0.004697285 -0.045065656
000020 2e ab 52 3d 56 4b c1 3b c0 73 40 3c d0 1c 1d 3c
       0.05143278 0.0058988733 0.011746347 0.009589389
000030 f2 cc c9 3c d3 2f 94 bc b0 b9 db 3b 38 d2 a2 38
       0.024633858 -0.01808921 0.0067054853 7.763918e-05
000040 e6 ab 0d bc ff cd ba 3c 9c b1 48 bd f4 9d 4f 3c
       -0.008646941 0.022803305 -0.048997506 0.012671936
000050 ce 90 ee bc fb 00 39 3d c7 91 71 3a aa 15 f8 3c
       -0.029121783 0.04516695 0.0009215143 0.030283768
000060 cf cb 8f bc 47 64 95 bb 4d a2 48 3c 27 ea 60 bc
       -0.017553238 -0.004559073 0.012245727 -0.013727701
000070 7b f6 d2 3c c0 24 99 ba ab 54 5a 3c 3e 59 10 bd
       0.025752297 -0.0011683926 0.0133258505 -0.035241358
000080 64 21 25 bc a7 0d 36 3c 4a 0f ad 3b cb 71 77 bc
       -0.010078762 0.011111653 0.0052813636 -0.015102814
000090 92 e5 0d 3c 4b 23 55 3a 03 b7 26 bd 28 d5 81 bb
       0.008660691 0.0008130564 -0.040701877 -0.003962178
0000a0 be ae c0 3a 52 a7 d7 3c 78 55 57 bd 4c 5f d3 bc
       0.0014700515 0.026324902 -0.052571744 -0.025802277
0000b0 f5 8a 9a bd 18 ac 1d bd 81 74 d9 3b ef f4 c0 bb
       -0.07546035 -0.0384942 0.006636203 -0.0058885734
0000c0 d2 db 39 bd d0 b0 a7 3c 61 8d ed bc 26 e2 35 3d
       -0.045375653 0.020470053 -0.028998079 0.044405125
0000d0 9f d8 25 3d 90 fc f7 bc 53 df ae bc 6b 4c 23 bd
       0.04048979 -0.030271798 -0.021346724 -0.0398678
0000e0 a6 68 15 3b f8 13 dc 3c 6c e1 bb bb 6a 48 70 bd
       0.002279797 0.02686499 -0.0057336595 -0.05866281
0000f0 d6 40 29 3c 89 9e e6 3c 0e 0a 1c bb 59 bf 92 bc
       0.0103303995 0.028151767 -0.0023809704 -0.017913507
000100 75 31 b8 bc 1b 51 43 bc 62 f7 71 bd 20 1f b0 3c
       -0.02248452 -0.0119211925 -0.059073813 0.021499217
000110 b7 07 e4 3c 00 d5 cb 3c bb 99 00 3c 71 5d 68 3d
       0.02783571 0.02488184 0.007849152 0.056729738
000120 6e eb ec 3b f6 00 bd bc cd cf ad 3b 6d 2e 08 3c
       0.007230214 -0.023071747 0.005304313 0.00831185
000130 c0 f3 c8 3b d6 99 c3 bb 99 ba 0f 3c cc 3e 82 bd
       0.006132573 -0.0059692664 0.008772516 -0.06359634
000140 05 61 90 bc 8c 1f 94 3c cf 8f 7e 3a f4 ea 4d 3c
       -0.017624388 0.018081449 0.000971076 0.012568224
000150 44 4c 75 3c 19 65 13 bc 65 da 6b bc 37 13 b0 3c
       0.014971796 -0.0089962715 -0.014395331 0.021493537
000160 2d 10 97 3b fe 17 0a bd d8 8e ad 3c 31 22 ff 3c
       0.0046100826 -0.033714287 0.021186277 0.031144233
000170 ac bd 9d 3c d1 82 eb bc 34 a4 2d bd 75 f5 97 3c
       0.019255482 -0.028748902 -0.042392924 0.01854966
000180 93 0d 1f bc c2 9f 04 3d 78 80 cb 3a 71 89 c8 bb
       -0.009707826 0.03237892 0.0015525958 -0.0061199
000190 88 f0 91 bc a0 02 1e bb b1 4b da 3b 90 44 da bc
       -0.01781489 -0.0024110451 0.006661855 -0.026644021
0001a0 17 31 ba bc d8 52 13 bc b7 db 05 3d 91 25 91 bc
       -0.022728486 -0.008991919 0.03268024 -0.017718108
0001b0 a1 62 85 3c 65 8d 20 3d 8e 20 e0 bc a8 6f f1 bc
       0.016282381 0.039197344 -0.027359273 -0.029472187
0001c0 54 cc 8f 3b ff 8d d3 3c 04 df cb bc 12 44 b2 3c
       0.0043883715 0.025824545 -0.024886616 0.021760974
0001d0 3f 90 6e 3c 5c 54 7a 3c e2 0c 83 ba e1 ff 19 3b
       0.014560758 0.015278902 -0.0009998346 0.0023498463
0001e0 25 98 e1 bc e8 4f bd bc 63 df 58 3c ff cc b4 3b
       -0.027538368 -0.023109391 0.013236853 0.0055176015
0001f0 c4 3f 1b 3c 4e 09 6f 3c 57 58 ad bb 5c ec 12 3c
       0.009475652 0.014589621 -0.005290072 0.008967485
000200 e7 c3 1a bb 10 d0 c0 3c e5 34 f4 bb ec ee 1c bd
       -0.0023615302 0.023536712 -0.0074525946 -0.03831379
000210 a4 39 3a bc 40 99 27 bc 03 f6 21 bc 19 e4 c5 b9
       -0.011366282 -0.010229409 -0.009885314 -0.00037744714
000220 70 8c 01 3c 29 ff 8e bc a8 3b 39 bd 7c 3c 5c ba
       0.007907018 -0.017455654 -0.04522291 -0.0008401347
000230 6d 07 3f bd 64 58 8e 3c 41 df 0b 3c 95 ba ee 3c
       -0.04663794 0.017376132 0.008537115 0.029141704
000240 32 3f b9 3b bd db 68 bd 94 de a0 3c 9d 85 13 3c
       0.0056532854 -0.056850184 0.019637384 0.009004024
000250 61 a5 25 bc c6 ef 31 bc c7 2f 25 bc c1 62 8e bc
       -0.01011023 -0.010860389 -0.010082192 -0.017381074
000260 a2 38 16 bd d7 06 d4 3c 45 90 7c bd 44 30 81 3c
       -0.036675103 0.025882168 -0.061661024 0.015770085
000270 87 4d a3 ba dd ee 57 3c 95 e3 01 3d 83 fc 98 bc
       -0.0012459018 0.013179508 0.03171118 -0.018675094
000280 8f 20 bd bb 59 b7 ad bc bd 38 04 3a 6b a1 1e bb
       -0.0057717036 -0.021205591 0.0005043855 -0.00242051
000290 eb 3c 0b bd a2 10 8d bc 68 f9 5f bc 01 d9 22 bd
       -0.033993643 -0.017219845 -0.013670303 -0.039757732
0002a0 a2 84 22 bd e3 37 00 bd 2f 12 4a 3c 10 53 ab 3c
       -0.03967727 -0.031303298 0.012333437 0.02091363
0002b0 af 29 38 bc 6a d6 3f 3c 4b fc 04 bc e1 d1 30 bc
       -0.011240407 0.011708835 -0.008116792 -0.0107922265
0002c0 ca a8 cd bc c7 44 0c 3d a6 ce 13 3d 90 d5 d6 bc
       -0.025104899 0.03424528 0.036085747 -0.026224881
0002d0 7f 3c 45 bd 02 76 87 3b 2b 6f 4d 3c 00 cd cf 3a
       -0.048153397 0.0041339407 0.012538712 0.0015853941
0002e0 cf ac 0b 3d d3 7f 8f 3a ac e1 ac bc da 55 12 bb
       0.03410035 0.0010948129 -0.021103702 -0.0022329004
0002f0 ab 7b 04 3c 14 2a a2 bb a7 10 96 bd a7 5a 40 3c
       0.008086125 -0.0049488638 -0.07327395 0.011740363
000300 d9 72 1e bd 03 4a bb bb 37 33 14 bc 1d e7 4c bc
       -0.038683746 -0.00571561 -0.009045414 -0.012506274
000310 82 50 8e 3c c0 f5 4a bd 9b 2c 17 3c 62 bd 7b 3c
       0.017372373 -0.04955077 0.009226943 0.015364977
000320 20 cf 8b 3c eb 91 a3 bc 83 0a 3f bc 06 f1 83 bc
       0.017066538 -0.01996704 -0.011660221 -0.01610614
000330 3a d1 ab bc 7c 54 e0 bc 20 fd 17 bc da 73 d5 bb
       -0.02097379 -0.027384035 -0.009276658 -0.0065140547
000340 94 f0 02 bc 80 20 19 3b 71 a0 32 bd 7e fd 13 3d
       -0.007991929 0.0023365319 -0.04361004 0.03613042
000350 f2 92 63 bd 85 0c c9 3c fa 47 2c 3d 91 92 7f ba
       -0.05556006 0.024542103 0.04206083 -0.0009749318
000360 b5 9d 12 bd 3b fc af 3c be 13 a5 3c f0 17 20 bd
       -0.035794932 0.021482578 0.020151015 -0.03908533
000370 54 c7 c7 ba 4e 7e 4c 3d ea 5e 3d 3d ff 8e 06 3d
       -0.00152419 0.04992514 0.046233095 0.032851215
000380 24 6b a6 bd 42 91 e4 3c a0 9f 8d bb 0e 56 26 bd
       -0.08125904 0.027901296 -0.0043220073 -0.040609412
000390 01 1a d7 bc 78 8f e7 ba 03 38 65 3c 57 e0 8a 3c
       -0.026257517 -0.0017666658 0.013990405 0.016952677
0003a0 17 72 5e bd e6 74 7b bb b7 0e e7 bc 75 83 f8 bc
       -0.054308023 -0.0038369237 -0.028205259 -0.030336121
0003b0 3b 79 a4 3c 7e 2f 83 bc 8c e7 b2 3c b0 1d 5a bc
       0.020077338 -0.016013857 0.021838926 -0.013312742
0003c0 e3 9d 61 3c d2 4a 28 bd 09 83 5e bc 69 d7 68 3c
       0.013770553 -0.04108698 -0.013581046 0.014211514
0003d0 7b 01 70 3c 71 dd ab 3c 9c 8b 1c bd c3 6b 95 bc
       0.0146487905 0.020979615 -0.03821908 -0.018239861
0003e0 1d 6b ac 3c 4d 0d 12 3b 26 60 9c bd 0a 91 28 bd
       0.02104717 0.002228576 -0.07635526 -0.041153945
0003f0 54 07 23 bc 27 79 cb bb 6f 09 3b 3c 27 2b 91 bd
       -0.009950478 -0.006209511 0.011415823 -0.07088309

action_model._continuous_distribution.mu.bias f4 [3]
000000 74 e6 40 3d 6c 7e 55 3c dc 76 26 bd
       0.047094777 0.01303063 -0.040640697

onnx::Div_61 f4 [68]
000000 b1 4f fe 3e f5 cf 2f 3d 4a 33 fe 3e b9 fa 4d 3e
       0.49670175 0.042922933 0.49648505 0.20115174
000010 eb ca fc 3e 28 52 2b 3d d6 a5 fc 3e c0 7c 54 3e
       0.49373564 0.041826397 0.49345273 0.20750713
000020 d1 32 f8 3e e9 d9 23 3d 63 fd f7 3e cf 78 68 3e
       0.4847627 0.040002737 0.48435506 0.22702335
000030 3a 62 f3 3e 7a ea 13 3d 1f 2a f3 3e 2d 43 78 3e
       0.47535878 0.036112286 0.47493073 0.24244376
000040 d0 58 e0 3e 46 81 08 3d 78 08 e0 3e 35 9e 7e 3e
       0.4381776 0.03332641 0.4375646 0.24865039
000050 eb ba e3 3e c9 65 fa 3c d4 7b e3 3e 22 df 89 3e
       0.44478545 0.030566113 0.4443041 0.2692805
000060 9d 11 c1 3e fe 13 01 3d de 9f c0 3e cd 94 7d 3e
       0.3770875 0.031513207 0.3762197 0.24763794
000070 ee dd cb 3e 51 56 e3 3c 0b 91 cb 3e bd 59 8c 3e
       0.39817756 0.02775112 0.39759097 0.27412215
000080 b4 81 9a 3e d4 71 03 3d 8c ce 99 3e 07 b6 60 3e
       0.3017708 0.032090977 0.30040395 0.21944438
000090 ed b2 9a 3e c8 5a c6 3c 57 4d 9a 3e 3a f0 6a 3e
       0.30214635 0.02421321 0.3013713 0.22943202
0000a0 f0 49 49 3e 4d 1b c5 3c 57 e5 47 3e 23 b8 25 3e
       0.19657111 0.02406087 0.1952108 0.16183524
0000b0 89 f6 5c 3e 05 a2 9c 3c b3 2d 5c 3e 9d e7 32 3e
       0.2157842 0.019120226 0.21501808 0.17471166
0000c0 68 2f dc 3d 87 b8 9e 3c 99 a9 d8 3d aa b1 df 3d
       0.107512295 0.019375099 0.10579223 0.109225586
0000d0 50 75 17 3e ac f9 85 3c 21 92 16 3e ab 3e 07 3e
       0.14790845 0.016354404 0.14704181 0.132075
0000e0 a5 fb 62 3d 64 51 8e 3c 0a 9b 57 3d ee e6 9d 3d
       0.05541577 0.017372794 0.05263809 0.07710062
0000f0 c5 ae bc 3d 92 c9 59 3c fc bd ba 3d 2b 94 c1 3d
       0.09213022 0.013292687 0.09118268 0.09452089
000100 a0 34 ec 3c b2 bd 84 3c 10 6e c3 3c 19 07 77 3d
       0.028833687 0.016203735 0.023856193 0.060309503

onnx::Div_64 f4 [7]
000000 7c 0a aa 3e c5 e8 20 3e cc 6a 0b 3f db aa 18 3e
       0.33211124 0.15713795 0.54459834 0.14908926
000010 33 43 2e 3d 13 59 cd 3a 13 59 cd 3a
       0.042544555 0.0015666805 0.0015666805
